Total_RCS/epoch_1000_batch_100_lr_1e-2_ms_100_g_1e-2_wd_0_99/torch_model_4_GELU.pth (torch, 79675 bytes, 13 tensors)

weight f4 [60, 3]
00000000: 0e4f b939 2aff 8339 8065 b338 6941 b939
00000010: 15f0 8439 8f37 b238 dd55 2ec0 b317 14bf
00000020: f517 a0be 3294 b939 a7d3 8339 d7f3 b338
00000030: b3f9 67be d885 1b3f a38d 503f 601a 07be
00000040: 47b9 6bbd c32c c1be d9f3 b43e 712d c5bf
00000050: 3824 3ebe 9525 b939 23d8 8339 f184 b238
00000060: 845e b9b9 73ab 8db9 7817 b5b8 394d b939
00000070: 7ad3 8339 772d b438 7826 b9b9 7c66 8db9
00000080: 0f92 b4b8 0559 b939 6b7e 8439 4313 b338
00000090: eb6c b9b9 0e5c 8db9 0e23 b5b8 2e5d b939
000000a0: 6401 8439 8912 b338 f479 b939 1365 8439
000000b0: 5bbb b338 07b5 b5bd 5a22 2dbc 0911 9abe
000000c0: fe6c b939 eace 8339 630c b438 a84b b9b9
000000d0: 7471 8db9 830a b5b8 c958 b939 043e 8439
000000e0: af80 b338 b68b b9b9 84a0 8db9 ea1d b5b8
000000f0: 5c73 803d a400 3cc0 99d7 34c0 8064 b939
00000100: 4ebd 8339 2187 b338 823b b939 215f 8439
00000110: 7d7c b338 f255 2f3e 9501 73be e1ab ba3e
00000120: 634f b939 3c4b 8439 8d55 b338 6742 28bd
00000130: e872 293d c48f 50bd ce4c b939 3cea 8339
00000140: 1897 b338 d953 b9b9 0f83 8db9 5116 b4b8
00000150: 8279 76bf ae62 8bbf b696 3dc0 a28a 05be
00000160: cec3 b0be 16c6 0c3f 6c64 b9b9 8b2f 8db9
00000170: fa07 b5b8 6b3b b939 aee4 8339 29fe b338
00000180: a284 10bd 912e 0940 099d 4fbd df31 b9b9
00000190: 101c 8eb9 56fe b3b8 6767 b9b9 b1be 8db9
000001a0: c091 b4b8 8693 b939 4738 8439 15bf b338
000001b0: 3d1d 51be 44c8 fdbd 29fb b4be 5798 dd3f
000001c0: 46f8 0c3e ea74 ecbd 694e b939 8bbc 8439
000001d0: 3fa1 b238 6b35 b939 e56f 8439 395c b338
000001e0: 7767 b939 f05c 8439 ce4a b338 2e8d 1dbe
000001f0: a6b6 a93b 928a 7cbe 7176 b9b9 ae56 8db9
00000200: 6968 b5b8 5ff3 36be d2b6 aebc e6ea 98be
00000210: bc7c b939 717a 8439 0f59 b338 1e31 b939
00000220: 52c8 8339 8496 b338 b751 b9b9 9f60 8db9
00000230: eed0 b4b8 8fbf f43f b505 303f d33e aa3d
00000240: c4f0 d93d 2ac8 8dbf 18d3 5fc0 6302 893e
00000250: c61f 0dbe 725f 973e 1597 c8be f61d f9bf
00000260: 31a9 17be a18e b9b9 82d5 8db9 0a5e b4b8
00000270: ee85 be3f d4d9 a6bd aa0f 6dbe 4d43 b939
00000280: 7652 8439 391c b338 3e2c b939 83ba 8339
00000290: 684e b438 2440 b939 237b 8439 b290 b338
000002a0: a02d b9b9 47ca 8db9 c3fc b3b8 9b44 b939
000002b0: ba5f 8439 e827 b438 985d b9b9 af35 8db9
000002c0: 1b86 b4b8 f662 b9b9 8c9f 8db9 32ed b4b8
0.0003534485 0.0002517638 8.554291e-05 0.00035334684 0.00025355877 8.49805e-05 -2.7239907 -0.5784866
-0.31268278 0.00035396364 0.0002514396 8.580804e-05 -0.22653846 0.60751104 0.8146612 -0.13193655
-0.05754974 -0.37729463 0.3534229 -1.5404493 -0.18568504 0.0003531395 0.00025147301 8.512464e-05
-0.0003535637 -0.00027021355 -8.635124e-05 0.00035343485 0.0002514383 8.591537e-05 -0.0003531461 -0.00026969973
-8.6102744e-05 0.00035352274 0.0002527119 8.538973e-05 -0.000353671 -0.00026962202 -8.637282e-05 0.00035355374
0.00025178038 8.5388376e-05 0.00035376812 0.00025252308 8.570283e-05 -0.08872419 -0.010567272 -0.30091122
0.00035367155 0.0002514043 8.585376e-05 -0.00035342318 -0.00026978145 -8.6327105e-05 0.000353521 0.00025223207
8.559354e-05 -0.00035390042 -0.0002701321 -8.6363245e-05 0.06272003 -2.937539 -2.825659 0.00035360828
0.0002512731 8.560555e-05 0.00035330286 0.00025247879 8.558573e-05 0.1712263 -0.23731072 0.36459258
0.00035345097 0.00025233056 8.55132e-05 -0.04107895 0.04136935 -0.050918356 0.00035343174 0.00025160785
8.5635285e-05 -0.0003534842 -0.00026991262 -8.5872256e-05 -0.96279156 -1.088949 -2.9623237 -0.13041165
-0.34524387 0.54989755 -0.0003536077 -0.00026929038 -8.632238e-05 0.0003533022 0.00025156647 8.582726e-05
-0.03528274 2.1434672 -0.05068687 -0.00035323107 -0.0002710526 -8.582759e-05 -0.0003536299 -0.00027035692
-8.610217e-05 0.00035395863 0.00025218932 8.570977e-05 -0.2042131 -0.12391713 -0.3534787 1.7312115
0.13766584 -0.11545737 0.0003534437 0.00025317477 8.517736e-05 0.0003532575 0.0002526037 8.552563e-05
0.00035363037 0.00025246246 8.5493186e-05 -0.15385887 0.005179244 -0.24662235 -0.00035374195 -0.00026958197
-8.6502005e-05 -0.17866276 -0.02132741 -0.29866713 0.00035378884 0.00025268228 8.5519736e-05 0.00035322545
0.00025135517 8.563421e-05 -0.00035346832 -0.00026965604 -8.621985e-05 1.9120959 0.6875871 0.08312764
0.106416255 -1.107671 -3.4972591 0.26759633 -0.13781652 0.29565006 -0.39177766 -1.9462268
-0.14810635 -0.00035392217 -0.0002705269 -8.600585e-05 1.4884622 -0.08147016 -0.23150507 0.00035336093
0.0002523844 8.540642e-05 0.00035318913 0.0002512523 8.597673e-05 0.00035333738 0.00025268746 8.562337e-05
-0.00035319943 -0.00027044324 -8.582466e-05 0.00035337065 0.00025248324 8.590502e-05 -0.00035355682 -0.00026933613
-8.608048e-05 -0.0003535968 -0.00027012487 -8.62725e-05

bias f4 [60]
00000000: a445 53b9 288b 53b9 03e4 77bf 3976 53b9
00000010: 0d01 b63f f68c 2e3f f272 9a3e 4acb 53b9
00000020: 210b 5339 e122 53b9 f18f 5239 0d3c 53b9
00000030: 46ab 5239 4b6a 53b9 9185 53b9 4449 123f
00000040: 0800 53b9 8d85 5239 d835 53b9 04cd 5239
00000050: fcd4 c9bf f544 53b9 b32d 53b9 b1fc 2cbe
00000060: b028 53b9 40f5 823e 7820 53b9 08da 5239
00000070: 9734 2ac0 2391 53be 955b 5239 323b 53b9
00000080: 959c a2bd efb7 5239 01ed 5239 4485 53b9
00000090: 1459 4f3f 86e6 f23e e6ab 53b9 6c6f 53b9
000000a0: 7282 53b9 d126 263f 6773 5239 e50e 363f
000000b0: 2c8c 53b9 6234 53b9 3881 5239 8d5c 9c3f
000000c0: 7488 f5bf 6664 00be bb02 1dbf cdfc 5239
000000d0: 3b35 823e ee0e 53b9 2f40 53b9 b847 53b9
000000e0: 3236 5239 8d11 53b9 b472 5239 53af 5239
-0.00020148471 -0.00020174368 -0.96832293 -0.0002016657 1.4219071 0.6818384 0.3016582 -0.00020198259
0.00020126674 -0.00020135521 0.00020080783 -0.00020144899 0.00020090965 -0.00020162125 -0.00020172285 0.57143044
-0.0002012254 0.00020076912 -0.00020142586 0.00020103535 -1.5768123 -0.00020148217 -0.00020139552 -0.16893269
-0.00020137685 0.25577736 -0.00020134624 0.00020108384 -2.6594598 -0.20660834 0.00020061278 -0.0002014458
-0.07940022 0.00020095681 0.00020115451 -0.00020172173 0.809953 0.474415 -0.00020186565 -0.00020164036
-0.00020171123 0.6490298 0.00020070151 0.7111648 -0.00020174746 -0.00020142042 0.00020075298 1.2215744
-1.9182267 -0.12538299 -0.6133229 0.00020121336 0.25431237 -0.0002012809 -0.00020146438 -0.00020149245
0.0002004735 -0.00020129066 0.00020069891 0.00020092474

weight f4 [60, 60]
00000000: 2741 6438 a66e 6238 5d8b edb9 4a65 6438
00000010: f7cd ccb9 f3b4 bcb9 14bb 4eb9 9f7a 6338
00000020: e581 54b8 5b19 6438 b316 53b8 6e17 6238
00000030: 25a7 53b8 e054 6338 f99b 6338 951e c0b9
00000040: 49f2 6338 26da 53b8 df37 6338 2c0b 53b8
00000050: 3d8b ad39 e547 6438 cf7c 6338 d983 97b8
00000060: 8be9 6338 eacd c0b9 0622 6438 6371 53b8
00000070: 7e21 c0b8 a29e 9438 fd5e 53b8 7eb5 6338
00000080: a1d3 25ba 7f0c 52b8 3bd8 52b8 944f 6438
00000090: c9e5 beb9 653a 15ba d6a9 6238 6ede 6238
000000a0: 3556 6338 e671 bdb9 b15a 54b8 4c84 b9b9
000000b0: 3897 6338 4522 6338 5222 53b8 a73a 35ba
000000c0: dcfa f539 02ec 36b9 6c22 4ab9 5c50 53b8
000000d0: 0e28 d0b9 2e7b 6338 9036 6438 0eef 6238
000000e0: c857 52b8 c09c 6338 1f6c 53b8 80f8 53b8
000000f0: a563 9339 271b 9339 66c6 503e c0ce 9339
00000100: c89b 3d3e 5f2f acbd a120 8fbe f866 9339
00000110: c9d6 90b9 4d90 9339 0909 91b9 1fa8 9339
00000120: 75e4 90b9 63c3 9339 de4a 9339 a897 7fbd
00000130: 94e8 9339 69e4 90b9 6b90 9339 65f0 90b9
00000140: a8e6 0ebf 86a0 9339 165e 9339 9f04 753d
00000150: e650 9339 942b 23bb 45af 9339 4aa6 90b9
00000160: 1a6d 343f 730b 053e e801 91b9 c897 9339
00000170: 389b eabe 719b 90b9 3bc8 90b9 9cbd 9339
00000180: 3cc7 a0bd 6a61 b13d e449 9339 b35f 9339
00000190: 5671 9339 6ee4 6dbd f1f2 90b9 b51c 98bd
000001a0: a784 9339 15b8 9339 aac8 90b9 9885 babe
000001b0: 0c99 ef3e ffd2 b03c 7746 f8be 57e7 90b9
000001c0: 577c 163d e693 9339 2761 9339 2381 9339
000001d0: b4fe 90b9 7476 9339 940f 91b9 25db 90b9
000001e0: 6f27 68b8 885b 66b8 a044 fe39 fa49 68b8
000001f0: 7e0f de39 fc22 b539 5d56 8539 d160 67b8
00000200: bab3 5838 30fe 67b8 2548 5738 8a01 66b8
00000210: c3d6 5738 093b 67b8 eb84 67b8 9ec6 b839
00000220: 61d6 67b8 fb0a 5838 661f 67b8 013d 5738
00000230: d23f b4b9 3c2c 68b8 2e64 67b8 d0c5 e838
00000240: ead1 67b8 301a c139 6808 68b8 d9a2 5738
00000250: 7373 7c38 8661 ffb7 088e 5738 699a 67b8
00000260: a514 1b3a bc41 5638 850a 5738 8a36 68b8
00000270: b840 bc39 16b5 1a3a 5195 66b8 9fc8 66b8
00000280: 663f 67b8 15e2 b839 8d89 5838 7a78 b439
00000290: 6081 67b8 6b08 67b8 3853 5738 0207 3c3a
000002a0: 5343 fbb9 7438 6139 584d 3839 b781 5738
000002b0: 8a3f df39 0063 67b8 b91c 68b8 61d8 66b8
000002c0: 8f8a 5638 7284 67b8 e69a 5738 5c29 5838
000002d0: e515 083a 9b0d 083a 6a30 3fbd 4a17 083a
000002e0: e600 9b3b 734c cbbd 01c2 af3e f2f9 073a
000002f0: 700e 09ba 3af7 073a a7d5 08ba aee9 073a
00000300: eaca 08ba 64f7 073a 86f5 073a 2f0e 91bd
00000310: 1dff 073a 23e1 08ba bbcf 073a 9cd2 08ba
00000320: ab95 913d 4ff9 073a 67de 073a 44de 443e
00000330: ac1d 083a c346 10bd 2bfd 073a dfcf 08ba
00000340: 6ec9 dd3d 7955 993e 57bc 08ba f9df 073a
00000350: 26c9 cc3e 78ba 08ba f0e1 08ba 8e01 083a
00000360: 4c73 37be a040 d43e 41f4 073a d9fb 073a
00000370: 0ae8 073a 75af d9bd 38df 08ba d99a f5bd
00000380: 80ed 073a 8dea 073a 76b4 08ba ae4b d03e
00000390: 98b5 4d3e 0fa4 eb3d 8c8f d43e f0e9 08ba
000003a0: f696 643e e206 083a 2af6 073a e9e6 073a
000003b0: f2e0 08ba e2d3 073a 03b9 08ba c9d0 08ba
000003c0: 2b42 0aba 6e62 0aba cf55 22be bf26 0aba
000003d0: 80a3 48bd 2d74 6c3e 3a17 91be 2a62 0aba
000003e0: 0bfe 0b3a 262d 0aba c202 0c3a 436c 0aba
000003f0: 0de6 0b3a b44f 0aba e056 0aba 078c 533e
5.4420114e-05 5.398565e-05 -0.00045307996 5.445377e-05 -0.00039063368 -0.00035992972 -0.00019715383 5.4235217e-05
-5.0665712e-05 5.438305e-05 -5.032746e-05 5.390442e-05 -5.0461986e-05 5.4200063e-05 5.426628e-05 -0.0003664388
5.4346663e-05 -5.0509487e-05 5.417305e-05 -5.0316725e-05 0.00033100872 5.4426393e-05 5.4237255e-05 -7.2247996e-05
5.433852e-05 -0.00036774512 5.4391123e-05 -5.041192e-05 -9.161512e-05 7.0867376e-05 -5.0394785e-05 5.4290045e-05
-0.00063257857 -5.007954e-05 -5.0269282e-05 5.443355e-05 -0.00036410827 -0.00056926004 5.404077e-05 5.4089753e-05
5.4201304e-05 -0.0003613375 -5.06292e-05 -0.0003538452 5.426185e-05 5.4152933e-05 -5.0338283e-05 -0.0006913342
0.00046916946 -0.00017444792 -0.00019277044 -5.038116e-05 -0.00039702695 5.4235737e-05 5.441025e-05 5.4105236e-05
-5.0149654e-05 5.4267002e-05 -5.0407016e-05 -5.0537754e-05 0.00028112266 0.00028058255 0.20388183 0.00028192066
0.18516457 -0.08407473 -0.2795458 0.00028114743 -0.00027625848 0.00028145537 -0.00027663287 0.00028163285
-0.00027636034 0.000281836 0.00028093805 -0.06240049 0.0002821131 -0.00027636 0.00028145625 -0.00027644928
-0.55820704 0.00028157624 0.00028108124 0.05981886 0.000280983 -0.00248978 0.0002816861 -0.00027589715
0.70478976 0.12992649 -0.00027657975 0.0002815111 -0.45821548 -0.00027581633 -0.00027615004 0.00028179295
-0.07850501 0.086611584 0.00028093078 0.00028109326 0.00028122467 -0.058079176 -0.00027646826 -0.074273504
0.0002813686 0.00028175177 -0.00027615327 -0.3643005 0.46796453 0.021584986 -0.4849126 -0.00027638182
0.036739673 0.00028148218 0.0002811041 0.0002813424 -0.0002765559 0.0002812628 -0.00027668162 -0.00027629096
-5.5349836e-05 -5.492152e-05 0.00048497785 -5.5382006e-05 0.00042354682 0.00034549076 0.00025432082 -5.516486e-05
5.1665796e-05 -5.5311422e-05 5.1327184e-05 -5.4837707e-05 5.1460007e-05 -5.5129673e-05 -5.519848e-05 0.00035243196
-5.5274348e-05 5.150864e-05 -5.5103934e-05 5.131681e-05 -0.00034379825 -5.5354307e-05 -5.516799e-05 0.000110994675
-5.527019e-05 0.0003683134 -5.532094e-05 5.141166e-05 6.0189002e-05 -3.0443782e-05 5.139227e-05 -5.5218497e-05
0.0005915857 5.1082796e-05 5.126979e-05 -5.5363904e-05 0.00035906374 0.00059016177 -5.4975335e-05 -5.5023116e-05
-5.5133736e-05 0.0003526366 5.1626517e-05 0.00034422037 -5.519518e-05 -5.508253e-05 5.1337498e-05 0.0007172675
-0.0004792461 0.00021478703 0.0001757642 5.13808e-05 0.00042581215 -5.5166893e-05 -5.533986e-05 -5.503779e-05
5.115062e-05 -5.519804e-05 5.1404255e-05 5.1536932e-05 0.0005191251 0.00051900157 -0.04667703 0.00051914586
0.0047303317 -0.09926691 0.343277 0.0005187086 -0.00052282866 0.0005186681 -0.0005219825 0.00051846623
-0.0005218225 0.00051867054 0.0005186427 -0.070827834 0.0005187856 -0.0005221536 0.00051807956 -0.00052193715
0.07108625 0.0005186991 0.0005182982 0.19225413 0.000519241 -0.035223734 0.0005187566 -0.00052189635
0.10829435 0.29948023 -0.0005216053 0.0005183216 0.39997214 -0.0005215774 -0.00052216556 0.000518822
-0.17915076 0.41455555 0.0005186238 0.00051873695 0.0005184418 -0.10629169 -0.00052212505 -0.119924255
0.00051852316 0.0005184792 -0.0005214879 0.4068274 0.20088804 0.11505901 0.41515768 -0.00052228477
0.22323212 0.0005189014 0.00051865226 0.00051842496 -0.0005221508 0.00051814143 -0.0005215557 -0.00052190997
-0.0005274142 -0.00052789494 -0.15853046 -0.0005270056 -0.04898405 0.23091193 -0.28338033 -0.000527891
0.00053402846 -0.000527101 0.0005340987 -0.00052804145 0.00053367094 -0.0005276159 -0.00052772276 0.20658885

bias f4 [60]
00000000: 12e9 eeb9 4b32 c13c 266b f439 317c 67be
00000010: 1bf8 d13f 5e02 efb9 0e7c 43bd 10d4 69bd
00000020: cb50 3e38 1530 633e aef6 a63e 73b0 26b8
00000030: 28e8 b23f a60f efb9 48a4 27b8 c806 813f
00000040: 417a 16bd 3a87 f439 1d0d 2ab8 2fff e3bd
00000050: 8b50 f439 47b5 0a3f faa9 fe3d e52e 2ab8
00000060: 6c12 efb9 1f17 043f 64bf 74bd 3073 29b8
00000070: 0d8c 253d 5a29 f439 6af5 eeb9 ddef 28b8
00000080: 25d9 eeb9 6c5f cfbc 275b 113d 5ec8 28b8
00000090: 74c3 27b8 6c9a a9bd 6e03 103e 7a36 ba3e
000000a0: 6301 efb9 8749 fabc ddb7 eeb9 034a 27b8
000000b0: f7d1 43be 0a6d ad3d f0d2 eeb9 dbd7 29b8
000000c0: 0621 a2be 6ee6 eeb9 f8f9 f339 3c44 f439
000000d0: 2b1f efb9 4a64 2ab8 3958 21bd 5115 efb9
000000e0: dbe6 203f 7291 2c3e b1f1 923d e370 29b8
-0.00045568548 0.023583552 0.00046619138 -0.22605969 1.6403841 -0.00045587396 -0.04772573 -0.057087004
4.5374774e-05 0.2218631 0.32610077 -3.9741815e-05 1.3977098 -0.0004559729 -3.99689e-05 1.0080194
-0.036737684 0.00046640058 -4.054337e-05 -0.11132657 0.00046599316 0.5418286 0.12434764 -4.0574832e-05
-0.00045599358 0.5159778 -0.059752837 -4.0400017e-05 0.040416766 0.00046570116 -0.00045577745 -4.027771e-05
-0.00045556683 -0.025314055 0.03548732 -4.0240928e-05 -3.9997933e-05 -0.08281407 0.14063808 0.36369687
-0.00045586666 -0.030552639 -0.00045531886 -3.988483e-05 -0.19123064 0.08468063 -0.00045552058 -4.049377e-05
-0.3166582 -0.0004556658 0.00046534813 0.00046590145 -0.00045608854 -4.062456e-05 -0.039390776 -0.00045601514
0.6285226 0.16852358 0.07175005 -4.0397874e-05

weight f4 [60, 60]
00000000: 9696 a7b9 5715 3a3d 330a b639 f91a c3be
00000010: 0909 04be 0692 a7b9 87fe 4ebd 0bb3 77bd
00000020: 868e b1b9 ea45 3f3e 13b4 d33d 532f bc39
00000030: 6ccc a13d 033a a7b9 e47b bc39 943d 3b3d
00000040: 8013 37be 2d0e b639 223c bc39 423d e3bd
00000050: 1254 b539 c099 eb3d 3232 bdba 2f34 bc39
00000060: 5d99 a7b9 452e 80bd 7626 97bd 8478 bc39
00000070: c355 713e 2490 b539 c86b a7b9 0f6b bc39
00000080: 2092 a7b9 304b 06bd 3946 143e 4b93 bc39
00000090: 119f bc39 b076 9bbd 6a4f 833c 1c1a 15be
000000a0: ae8e a7b9 cfe7 f73d 2b49 a7b9 a5fe bb39
000000b0: f1d5 1c3c bc20 1cbe 2948 a7b9 878c bc39
000000c0: ffe0 34be ec88 a7b9 6973 b539 2292 b539
000000d0: 01b1 a7b9 545d bc39 661c 96bd 539a a7b9
000000e0: 9a64 f6bd d108 6bbc fd93 18be 674b bc39
000000f0: 21c4 ceb9 91e8 23bd 3abe df39 2648 8d3d
00000100: f147 dbbb 19c9 ceb9 d3b4 81bc 0dab 97bc
00000110: dec3 8739 ae0b 34bd 28dc 1a3c 5030 87b9
00000120: b10f 9ebc 59db ceb9 a94d 87b9 7898 9ebd
00000130: 1df2 31bc a2c3 df39 d49b 87b9 5803 ba3b
00000140: db93 df39 d969 993c 92bc 9c3d 4fa4 87b9
00000150: 38e2 ceb9 a876 a63c d910 bcbc a881 87b9
00000160: e9e7 abba 8767 df39 dfc3 ceb9 cf8c 87b9
00000170: 2d9f ceb9 c394 a2bb 2d19 84bc dc80 87b9
00000180: 1764 87b9 d6ab b2bc 0ae2 8ab9 4d3a debc
00000190: 89d1 ceb9 0849 96bc ac4d ceb9 c744 87b9
000001a0: 9671 133d 0a10 a33b 56ab ceb9 739a 87b9
000001b0: 8833 eebd e9be ceb9 214c df39 037e df39
000001c0: e1dc ceb9 b9a0 87b9 ff35 2a3b 90ca ceb9
000001d0: 03d3 153c d5fb f73b e24a b63d 197b 87b9
000001e0: 8831 4a37 de6c be39 9022 90b7 acf5 cc38
000001f0: 0b6d 9eb7 2736 4c37 8db6 a337 79de b137
00000200: c6cf cab6 3dbf a939 ac17 8239 0cad 8636
00000210: 0a20 0bb8 8934 4a37 8b32 8636 0f90 4438
00000220: a7e4 4bb9 b5dc 90b7 476a 8636 4e40 5e39
00000230: ee17 90b7 be15 ac38 718d 6839 e75a 8736
00000240: 4abb 4c37 6aea 9e38 8850 ce37 57aa 8636
00000250: edb8 7b39 11fb 8fb7 91d7 4c37 9b68 8536
00000260: 682d 4c37 f573 85b9 8cae c0b5 d17a 8536
00000270: 42d1 8536 1833 4a38 9121 fb38 1de3 3b39
00000280: b6cf 4b37 1784 3639 9dd6 4c37 4d6f 8636
00000290: be5a da38 ae43 b739 3594 4a37 300a 8636
000002a0: d04d 5839 40f5 4b37 19b2 8fb7 f013 90b7
000002b0: 1cf3 4c37 03bc 8636 c392 6cb9 df3f 4c37
000002c0: 8c7e b537 4c0e 1d39 4337 b737 a8b5 8636
000002d0: 342f a037 d1a9 8d37 8f92 9eb7 fa51 8038
000002e0: a922 1eb9 2059 a037 9e1b e238 45c5 f438
000002f0: f1fd bfb6 e553 a135 183c 65b8 99a0 a836
00000300: baac 41b9 b40f a037 f872 a836 b971 8938
00000310: 4426 cd37 5556 9eb7 4ed4 a836 13bf 8638
00000320: 5055 9eb7 84cc d4b8 5a3c 16b9 3c1e a936
00000330: 2c6f a037 a537 9338 e3df 0f39 ffbd a836
00000340: dbe8 bdb8 f257 9eb7 972b a037 ad4d a836
00000350: 0f62 a037 f4f3 fab7 1851 3939 ed4c a836
00000360: 4753 a836 aa9d 0839 da97 7338 95d1 8eb8
00000370: 013d a037 46a9 3538 d423 a037 32a9 a836
00000380: fe6b 9038 753d 5836 93f8 9f37 f880 a836
00000390: 1578 a038 ce4f a037 c652 9eb7 c35a 9eb7
000003a0: a265 a037 4dd9 a836 356e 5eb4 ae65 a037
000003b0: d5ca dcb8 cac1 1c38 d576 d737 22d6 a836
000003c0: ce20 b339 1ea5 e2be 73a5 75b9 aa11 133d
000003d0: 2f8f 9d3e 6e21 b239 c5ee f33c e0fd fa3c
000003e0: c0a4 a339 aa25 f1bc 5bb4 643e 5cc3 a4b9
000003f0: 4712 adbe 605f b239 89c0 a4b9 55d7 0abe
-0.00031964917 0.045430508 0.00034721344 -0.38106516 -0.12894072 -0.00031961518 -0.050535705 -0.060473483
-0.0003386626 0.18679014 0.10337081 0.00035893414 0.079003185 -0.00031895944 0.0003595046 0.045713022
-0.17878532 0.00034724307 0.00035902957 -0.110956684 0.00034585648 0.11503935 -0.0014434515 0.00035897034
-0.00031966987 -0.06258825 -0.07380383 0.00035947945 0.23567872 0.00034630403 -0.00031933025 0.0003593792
-0.00031961594 -0.03278655 0.14479913 0.00035967896 0.00035976668 -0.07590997 0.016029079 -0.14560741
-0.00031959027 0.12104761 -0.00031907237 0.00035857144 0.009572492 -0.15246862 -0.00031906486 0.00035962855
-0.17663954 -0.00031954737 0.00034608998 0.00034631888 -0.000319846 0.0003592769 -0.07329635 -0.00031967703
-0.12030907 -0.014345364 -0.14900203 0.00035914333 -0.0003943751 -0.040016714 0.00042675604 0.06898527
-0.0066919257 -0.0003944121 -0.015833294 -0.01851418 0.0002589514 -0.04395645 0.009451903 -0.00025785202
-0.019294592 -0.0003945481 -0.00025807068 -0.07743925 -0.010860947 0.00042679632 -0.00025865308 0.005676668
0.00042644035 0.01872723 0.076531544 -0.00025871626 -0.00039459928 0.020320252 -0.022957252 -0.00025845808
-0.0013115379 0.00042611008 -0.00039437317 -0.00025854117 -0.00039409977 -0.0049615814 -0.016125286 -0.00025845214
-0.0002582378 -0.021810453 -0.00026489823 -0.02712741 -0.00039447498 -0.01834537 -0.00039349252 -0.0002580045
0.035996996 0.0049762772 -0.00039419037 -0.0002586428 -0.116309226 -0.0003943362 0.00042590595 0.0004262776
-0.0003945595 -0.00025868954 0.0025972126 -0.00039442303 0.009144547 0.0075678625 0.089010015 -0.0002584092
1.2051671e-05 0.00036320736 -1.7182232e-05 9.773238e-05 -1.8885845e-05 1.2171956e-05 1.9516121e-05 2.1203641e-05
-6.044257e-06 0.00032376676 0.0002481317 4.0136565e-06 -3.317002e-05 1.205237e-05 3.999395e-06 4.6864207e-05
-0.00019444768 -1.7268912e-05 4.0058835e-06 0.00021195525 -1.717728e-05 8.205649e-05 0.00022177935 4.033896e-06
1.2202954e-05 7.57769e-05 2.4594614e-05 4.0133414e-06 0.00024006116 -1.716384e-05 1.2209538e-05 3.9758866e-06
1.21699195e-05 -0.00025454132 -1.4355915e-06 3.9780066e-06 3.9880697e-06 4.8208138e-05 0.00011974865 0.00017918316
1.2148104e-05 0.0001740608 1.2209316e-05 4.0064683e-06 0.00010411952 0.00034954905 1.2074645e-05 3.994697e-06
0.00020628353 1.2156845e-05 -1.7129862e-05 -1.7175422e-05 1.2215951e-05 4.0153986e-06 -0.00022561387 1.2174219e-05
2.163581e-05 0.00014978013 2.1841033e-05 4.0146588e-06 1.9095467e-05 1.6887587e-05 -1.8903314e-05 6.118785e-05
-0.00015080966 1.9114988e-05 0.00010781664 0.00011671571 -5.7218062e-06 1.2019851e-06 -5.465382e-05 5.025486e-06
-0.0001847026 1.9080799e-05 5.0201743e-06 6.5538516e-05 2.4455723e-05 -1.887527e-05 5.0315057e-06 6.425208e-05
-1.8874794e-05 -0.00010147042 -0.00014327597 5.0401122e-06 1.9125255e-05 7.019871e-05 0.00013720947 5.0289086e-06
-9.055595e-05 -1.887602e-05 1.9093784e-05 5.015833e-06 1.9119148e-05 -2.9915922e-05 0.00017673185 5.0157455e-06
5.016485e-06 0.00013028705 5.8077138e-05 -6.810125e-05 1.9101893e-05 4.331141e-05 1.909017e-05 5.026487e-06
6.88657e-05 3.222228e-06 1.9070028e-05 5.021804e-06 7.6517616e-05 1.9110648e-05 -1.8873612e-05 -1.8877332e-05
1.9120813e-05 5.0320873e-06 -2.0715454e-07 1.9120835e-05 -0.00010528198 3.737378e-05 2.5685333e-05 5.0317185e-06
0.00034165982 -0.442666 -0.00023426655 0.035905518 0.30773303 0.00033975713 0.02977694 0.030638635
0.0003121253 -0.029436905 0.22334425 -0.00031426072 -0.33803007 0.00034021866 -0.00031423967 -0.13558705

bias f4 [60]
00000000: dfb4 093e 05ce 873d 3211 3139 9ff0 50b7
00000010: 51c9 cb3c 8196 9e3e fd86 a03c 2f31 5438
00000020: 0f07 36b8 a07c 1fb9 4949 bfbd a202 1139
00000030: c064 1539 26b9 7ab8 f536 3f39 951a a438
00000040: 2e69 2bb9 7c03 2f39 ab52 fd38 88bb f33d
00000050: e206 96b9 ecec 8738 27a2 e637 09d7 473e
00000060: 8077 ae37 41f9 3b39 68c6 a83c e84b 4639
00000070: cc39 5538 e6ee df3d ea9a 1db9 8008 3d39
00000080: 532b bf3d 8340 07b8 4bd5 6db9 9c44 cabd
00000090: 4839 a238 a818 1ab9 b1f8 9ab7 3db5 1fb9
000000a0: 8c8d 0a3e 670d ef3f 1605 dc38 1030 8a3e
000000b0: 9e7c e13d 02ac 1339 0552 623e 54a6 a5b7
000000c0: 41b2 4139 d84d 2fbe cf8a 6b38 35f2 3fb8
000000d0: 6bff 32b7 5794 f137 9225 03b9 6cc6 6cb9
000000e0: d46a 35bc b2ed 7338 a171 ac38 4573 da37
0.13447903 0.06631092 0.00016886441 -1.245379e-05 0.024876269 0.309742 0.019595617 5.0590545e-05
-4.3398755e-05 -0.00015209848 -0.0934015 0.00013829258 0.0001424728 -5.9777078e-05 0.00018235653 7.825081e-05
-0.00016347013 0.00016690599 0.00012079378 0.11901003 -0.00028615358 6.481432e-05 2.7493645e-05 0.19515623
2.0798063e-05 0.00017926564 0.02060242 0.00018911029 5.0836985e-05 0.10934238 -0.00015030397 0.00018027611
0.09334435 -3.224659e-05 -0.00022681539 -0.098763674 7.7354314e-05 -0.0001469577 -1.8474037e-05 -0.00015230938
0.13530558 1.8675965 0.00010491365 0.26989794 0.11010097 0.0001408309 0.221016 -1.9746985e-05
0.00018472319 -0.17119539 5.615764e-05 -4.576352e-05 -1.0669096e-05 2.8798515e-05 -0.0001250713 -0.00022580632
-0.011072833 5.8157086e-05 8.222764e-05 2.6041302e-05

weight f4 [60, 60]
00000000: c3c4 cb37 98d2 2ab7 66b6 f8b4 7dbc 65b1
00000010: c32e 0035 607e ba37 6f99 f2b6 de85 bab4
00000020: 365e cc34 cd07 a034 568e 0fb7 3a01 ed34
00000030: 0de8 97b4 d188 ddb4 f4c6 68b4 cdd0 9534
00000040: 6e4d 2e35 db22 aa34 e9dc 4cb5 2493 5938
00000050: 2981 3635 fa4a 62b5 6964 60b5 960a f436
00000060: ad52 bab4 4879 a2b4 18c8 aa37 a16d 03b5
00000070: 0a01 a5b4 d2e8 ebb6 3296 d534 92a2 9ab4
00000080: d018 ecb7 fd8f d2b3 01cd e733 5656 f736
00000090: a140 42b5 514b ab34 2994 eeb4 0850 ddb4
000000a0: 9d7a a2b6 12e7 4db8 d654 cbb4 d203 9837
000000b0: b187 3136 0040 1534 1f9b 0f38 b3df 93b4
000000c0: 94a0 55b4 1516 5337 d5ee 5eb5 81df e2b3
000000d0: cd17 2435 b58c d0b4 0ed6 e834 ce94 fd33
000000e0: 6ca1 eab6 286e 6ab5 f348 c534 f491 1d33
000000f0: c20f 703d 5125 4abe afd6 8fb7 e877 b438
00000100: 72c0 5ebf 244b 993e e20e a6bd 3a68 7938
00000110: 7e48 77b8 8f24 a9b7 cbbb bbbf a8ea 16b9
00000120: d97d 09b7 1136 9738 8135 42b8 d52c dfb8
00000130: 7f53 1ab8 da07 17b9 098e a638 21f8 c63f
00000140: 38cf 64b8 6568 fb38 6d73 e638 4da4 e8be
00000150: 5c29 8e38 e355 c1b7 ac55 223f c395 76b7
00000160: 7629 4438 96b9 70be ae96 93b5 5e0b e5b7
00000170: 99e0 e13b 9071 bb38 a04e d538 cb31 743e
00000180: 44ea d737 cf6c 9bb5 0246 e1b7 5feb 0e39
00000190: b1eb a0be 490e 923e 380c c537 ba34 81bf
000001a0: 9351 23c0 c33f d4b8 2cf1 08c0 ce27 0139
000001b0: 3fde 58b8 28e3 693f 8a46 ff38 e25b b638
000001c0: 1717 8db8 6b8e 7138 8e56 05b8 9d6e ca38
000001d0: 21c8 01bf d178 fd38 e6d8 06b9 c2f9 9538
000001e0: aec8 0438 464c 26b7 34ab 0eb5 732b 4533
000001f0: 8011 20b6 25df 0a38 5fdb 93b6 b2f8 0cb5
00000200: 30a8 9734 b524 c634 5fba 14b7 49c7 94b4
00000210: d078 deb4 8f92 fdb4 2266 d6b4 3fff b8b4
00000220: 0df1 b634 89d1 c6b4 1e50 82b4 152f e537
00000230: a76a aa35 a551 cb34 d820 bb34 9eb7 66b7
00000240: 03f3 e6b4 3b03 c5b4 3d46 a037 2dd9 34b5
00000250: 416d 03b5 278c 01b7 6cb0 d734 4a8d c8b4
00000260: 5b61 ffb7 acea 8632 1dde 1735 fa7c 0b36
00000270: ce23 84b4 e257 ed34 d409 e0b4 4edf 2133
00000280: a21c 02b7 0f55 51b8 fa0a 92b4 dc7d b937
00000290: 7ec0 0c37 f77c e0b4 1521 2138 d91d 6f34
000002a0: 1460 b8b4 7c88 9e37 dfa8 d334 3952 0eb4
000002b0: 4c30 8bb4 0e27 3fb4 841e 6534 bbad 1635
000002c0: 9b32 31b7 e0f0 fb34 4f7a 35b4 c965 cdb4
000002d0: 33e7 9538 f82b b6b8 379b 8436 8c38 74b6
000002e0: 3f66 dd38 a405 bc37 ba19 a5b8 2515 bf36
000002f0: a7d5 40b6 cc3e b236 10b3 39b8 9ff9 0936
00000300: 82c5 97b6 94ed 3936 1763 6435 da7d a635
00000310: 57a3 c7b6 b2bf 30b6 890f b4b6 2d22 d938
00000320: 39c0 bfb6 393b 0c37 d8b8 93b6 a9f0 d238
00000330: e0f9 94b5 fb65 1336 286c bf38 9596 9036
00000340: 6e8d 51b6 cdd9 83b8 08b9 c136 87a2 0d36
00000350: b3ab e135 6a5a c2b6 4c32 4f35 5039 d538
00000360: 5fda 70b6 a4b9 ac36 76ec 51b6 9906 2336
00000370: ce7d d7b7 15be 5737 c4fd dd36 bac2 4638
00000380: 4ebf 4338 f577 9cb5 b00d e938 b81e 1e37
00000390: aa81 1035 191f c138 b82e 0737 c819 3fb5
000003a0: 800a d2b6 dc0b b236 fd7c f136 bf14 4d35
000003b0: 2eec e4b7 b001 ca36 f692 1437 1c63 edb6
000003c0: aace 7937 3adc d737 82c4 71b6 0435 8fb5
000003d0: 979b 2eb8 36a6 e637 fd2b ca37 d5fb 30b6
000003e0: cb82 3c36 6a7f 7836 81e4 94b7 d0dd a435
000003f0: da49 13b6 6eeb f6b4 cc93 2ab6 8931 8735
2.429111e-05 -1.0181822e-05 -4.6326312e-07 -3.343103e-09 4.7751763e-07 2.2231776e-05 -7.230024e-06 -3.47426e-07
3.8066509e-07 2.9807998e-07 -8.556604e-06 4.4145582e-07 -2.829478e-07 -4.1264005e-07 -2.1679062e-07 2.7905335e-07
6.4932726e-07 3.1690328e-07 -7.631739e-07 5.1873867e-05 6.7988236e-07 -8.4300666e-07 -8.359262e-07 7.272999e-06
-3.4705354e-07 -3.0263095e-07 2.0358755e-05 -4.8960834e-07 -3.07344e-07 -7.0306496e-06 3.9783623e-07 -2.880302e-07
-2.8144947e-05 -9.805078e-08 1.0794066e-07 7.3712245e-06 -7.236468e-07 3.1906032e-07 -4.4438755e-07 -4.1222688e-07
-4.8422503e-06 -4.909101e-05 -3.7873423e-07 1.8121591e-05 2.6454038e-06 1.389999e-07 3.4238325e-05 -2.7543646e-07
-1.9895589e-07 1.2581721e-05 -8.304899e-07 -1.05646e-07 6.1129396e-07 -3.8845397e-07 4.3369113e-07 1.1808298e-07
-6.9925354e-06 -8.733209e-07 3.6747187e-07 3.6687155e-08 0.058608778 -0.19740798 -1.7146898e-05 8.605403e-05
-0.870124 0.2994014 -0.081083074 5.9463295e-05 -5.8956903e-05 -2.0163394e-05 -1.4666685 -0.00014392531
-8.1951375e-06 7.210312e-05 -4.6303034e-05 -0.00010641819 -3.6794223e-05 -0.00014403407 7.941953e-05 1.5544473
-5.4552424e-05 0.00011988058 0.000109887544 -0.45437852 6.7787914e-05 -2.3047387e-05 0.63411975 -1.4697612e-05
4.6768655e-05 -0.23508295 -1.0996207e-06 -2.730422e-05 0.006893229 8.9380075e-05 0.000101712765 0.2384712
2.5739086e-05 -1.1580067e-06 -2.685469e-05 0.00013629858 -0.31429818 0.28526524 2.348992e-05 -1.0094216
-2.551854 -0.00010120824 -2.13972 0.00012317227 -5.1705396e-05 0.9136224 0.000121724865 8.695551e-05
-6.727705e-05 5.7591515e-05 -3.179028e-05 9.652714e-05 -0.50696 0.00012086484 -0.00012860037 7.151395e-05
3.165815e-05 -9.91213e-06 -5.3148256e-07 4.5907154e-08 -2.3852044e-06 3.3109583e-05 -4.4064795e-06 -5.2515963e-07
2.8248314e-07 3.6907082e-07 -8.86488e-06 -2.7712147e-07 -4.1438625e-07 -4.7231558e-07 -3.9934918e-07 -3.4458387e-07
3.407553e-07 -3.703283e-07 -2.427268e-07 2.7320852e-05 1.2697027e-06 3.78711e-07 3.485536e-07 -1.375182e-05
-4.3017653e-07 -3.669646e-07 1.9106194e-05 -6.737126e-07 -4.896029e-07 -7.721631e-06 4.0175235e-07 -3.7355704e-07
-3.0443704e-05 1.570637e-08 5.65751e-07 2.078536e-06 -2.4612967e-07 4.4208633e-07 -4.1730402e-07 3.7688828e-08
-7.75527e-06 -4.99087e-05 -2.7202606e-07 2.2112326e-05 8.389468e-06 -4.1814175e-07 3.84162e-05 2.2269468e-07
-3.4342577e-07 1.8898623e-05 3.9424683e-07 -1.3254693e-07 -2.5925908e-07 -1.7802469e-07 2.1338388e-07 5.6132166e-07
-1.0561805e-05 4.6927653e-07 -1.6901434e-07 -3.8258284e-07 7.147938e-05 -8.686626e-05 3.951976e-06 -3.6391748e-06
0.00010557146 2.2413973e-05 -7.872605e-05 5.694705e-06 -2.8734592e-06 5.312124e-06 -4.4274202e-05 2.055989e-06
-4.5231436e-06 2.7705437e-06 8.5080814e-07 1.2404591e-06 -5.9496774e-06 -2.6337625e-06 -5.3662266e-06 0.00010353732
-5.7146212e-06 8.358439e-06 -4.40246e-06 0.00010058407 -1.1099582e-06 2.1964067e-06 9.1277354e-05 4.3090645e-06
-3.122575e-06 -6.287135e-05 5.7733887e-06 2.110524e-06 1.6813777e-06 -5.792176e-06 7.71867e-07 0.00010167307
-3.5889896e-06 5.147611e-06 -3.1281065e-06 2.4292733e-06 -2.568858e-05 1.2859256e-05 6.6158555e-06 4.7388232e-05
4.666979e-05 -1.1657818e-06 0.00011112855 9.424686e-06 5.3832866e-07 9.2087495e-05 8.057505e-06 -7.119056e-07
-6.25971e-06 5.306194e-06 7.1969102e-06 7.639864e-07 -2.7289698e-05 6.0202656e-06 8.855704e-06 -7.0746883e-06
1.4889674e-05 2.5732548e-05 -3.602618e-06 -1.066976e-06 -4.1629737e-05 2.7495535e-05 2.410076e-05 -2.637263e-06
2.8090315e-06 3.7029045e-06 -1.774938e-05 1.2283508e-06 -2.1947694e-06 -4.5992368e-07 -2.5418003e-06 1.00727e-06

bias f4 [60]
00000000: 2f39 0e39 2388 c0bd 388e 2839 fd9b af38
00000010: cce8 b437 ae22 fbb8 7d43 9a36 dfec b4b8
00000020: a23f a437 d03c 8636 4f9f 9135 1bc0 e036
00000030: f4b6 8fb8 a490 81b8 0ec2 b7b8 e15b 1239
00000040: 1c72 7b38 8b53 beb7 6ee7 0fb7 2b4a 2db9
00000050: ff20 2936 1026 8b3f 0f7e 8036 2095 a6b8
00000060: 382d 1539 56e1 5bb8 8a8a b6b6 7710 1f38
00000070: 12fe 9bb8 ed4c 1539 9e5d 65b6 475c ce38
00000080: 483e 9bb6 177d 8b38 691c b8b8 a379 b536
00000090: 938f 8db8 5b97 f038 275d 6a37 4151 b2b7
000000a0: 9111 6db8 6ad1 acb6 97bf 9238 31bd 57b8
000000b0: 73fc efb5 754d e538 e8fd 3d36 05ce 09b8
000000c0: 1927 3a38 e476 2f39 b289 efb7 c105 9f37
000000d0: 4b9a 83b8 4288 e2b8 4a9a 5c38 349a 05b6
000000e0: a1a8 5238 434e 6437 9d40 a8b7 3308 f637
0.00013563478 -0.09400966 0.00016074709 8.373705e-05 2.1566077e-05 -0.00011975072 4.5974143e-06 -8.6271895e-05
1.9579955e-05 4.0005907e-06 1.0849707e-06 6.6980842e-06 -6.852849e-05 -6.178141e-05 -8.7622655e-05 0.00013957873
5.9949336e-05 -2.2688668e-05 -8.577348e-06 -0.00016526195 2.5202169e-06 1.0870991 3.8293724e-06 -7.9432735e-05
0.00014226593 -5.242353e-05 -5.4401507e-06 3.7923888e-05 -7.4383e-05 0.00014238404 -3.4178152e-06 9.8400335e-05
-4.6266105e-06 6.651336e-05 -8.7790955e-05 5.4083807e-06 -6.750147e-05 0.00011472284 1.3969176e-05 -2.125709e-05
-5.6521563e-05 -5.1503785e-06 6.997509e-05 -5.1436193e-05 -1.788036e-06 0.000109339984 2.8310988e-06 -3.2855216e-05
4.438227e-05 0.00016733591 -2.855514e-05 1.8956956e-05 -6.275306e-05 -0.000108019 5.259578e-05 -1.9908302e-06
5.022495e-05 1.3608081e-05 -2.0057249e-05 2.9329303e-05

weight f4 [60, 60]
00000000: 2bdc 81ac b391 8d30 0326 f12c 2587 f22d
00000010: 7e90 8cb3 9a48 40ae 0b3c 95ad c413 0cb7
00000020: 014e 5f2c 80af 352c ea6f 84ab d626 85b6
00000030: de45 3cae f882 5ab5 84bc 862e b42f b833
00000040: 1e60 89ac 3788 ebad 6587 c8b2 3621 2dad
00000050: adc9 d92c f985 0432 8062 08ac cef7 812b
00000060: 5199 8c2c d45f a52d d71d d32c b359 21ad
00000070: b515 d42b 0132 e12a 1808 8eb3 5a65 222f
00000080: 7e77 35b4 64d1 1fab 7605 55ab 7ea6 492c
00000090: effa bea9 d50c 812f fd0a 232d 0c98 1fad
000000a0: 0ea3 e5ab 89d1 1aac d7b8 e9ab c010 57ad
000000b0: 88a3 b2ac 58c4 28b0 f480 0fad 8bfd 4ea8
000000c0: 562f 30ac e8ca 142c 3abe 142c 906a 46ad
000000d0: 8686 c62a 049e 7bac 1225 8bad c664 b0ac
000000e0: 8c28 f92b 8416 1d2d 9c9c 0b33 d8b3 472c
000000f0: 86cd 602c 556b 9330 366a 3eab a9e2 56ac
00000100: a07e 97b0 665b 3db4 cf58 b1ab 54ed f130
00000110: 25dc 5cac a138 7e2b 3b3a 352b ddfa b035
00000120: a88e 00ae cfa8 6ab5 7034 9fb0 eca9 9633
00000130: 90ac d1ab a350 592d cfdf 63b3 dc86 92ac
00000140: 02d2 88aa 81fb 8131 872f 6e2b 0df1 99ab
00000150: 06c6 34b2 2b3d a52c ad98 4633 3ec0 e72b
00000160: 9e18 57ac a54a b0ab a358 3bb5 b2a8 1932
00000170: e7b5 8cb1 8d5e 33ab 01bd 0cab 67a9 a1aa
00000180: 70f7 ca2a 346f bf33 c3fa 702c bd8b b332
00000190: 8379 35ab f52a 0d2b 8c7c 372c c8d1 ebad
000001a0: 5097 8d2c 6c5f abb5 c8de baad 8636 8fb2
000001b0: edf4 5eac 4041 272c 6261 8b2c 0562 a934
000001c0: a116 e22b cbb9 31ac a815 49ac 5441 282b
000001d0: 7a3e 3fac ca39 852b 00a5 e1b1 025c 3b2d
000001e0: ce88 a8ae b46c da32 f505 4baf 2bf2 1b30
000001f0: abbe 2434 cee5 122f 943a e22e 552d 0bb0
00000200: 042b ddad 9836 f632 168e 9d30 e002 852e
00000210: 48bd 1bb0 21fc 0730 663d f52f e638 0430
00000220: c92b c8ae a35c 7e2d d494 bc35 15ce 622f
00000230: debd 8cb1 501b a831 9620 38b0 b98f feab
00000240: 336d a32f e10c 1b2e a74c c5ac 9f16 00af
00000250: ac42 52ad 8cf7 41ae c82c 502d 3a05 9030
00000260: e693 9f32 15f3 fcae 3f18 3aab 18a6 d833
00000270: 19bc e52e 90f2 3930 b9e2 09ae c3c5 4eaf
00000280: 4dd9 3d2d 4e9f aeb3 6fad 282d 4754 33ae
00000290: 6a51 852d cf4b a1af 53d1 85ae cb76 9caf
000002a0: 9b1a 42af c5d4 1aaf e0c1 6d2f d15b 2c2f
000002b0: a756 1e2e 2de8 6c2f 81d2 2c2f e7f3 0735
000002c0: 7229 16ac 50d7 3aae e73f 11b0 bf41 bcae
000002d0: fee7 16b4 1ddb ceb0 07bc f030 4b06 a9ac
000002e0: 6f40 942c 26ec b9b4 dd42 e833 3562 672a
000002f0: 7306 1433 110e 1ab3 d1d3 deaf e2c0 d536
00000300: 75c4 e82c 296c e6ab e785 06ad 7278 7d2d
00000310: 5eae ac31 1af5 4230 374c f12b a1da 8d31
00000320: 0a03 cfb6 fb04 89af e6e8 55b4 7ead cc35
00000330: 0ab3 cb34 da1a 8cb4 bfe9 a5b4 1e60 c636
00000340: f047 1ab0 d30c 75b1 2841 f4b5 b966 1c34
00000350: a98f 012c 588a c32a 97af 43b5 51fe 4cb1
00000360: ae5e 29b6 ae3e 8034 6727 a3ac 8502 9631
00000370: 0126 fbb5 98eb 01b3 4acb 4db3 f10c 1e2d
00000380: 151a 6eb5 674b 032d c28c f7af 4da3 64b0
00000390: f89c a5b2 82bc 96ad 6cca 5ab1 5d22 28b3
000003a0: 457b 34b0 7467 55b1 88d6 ccab 0ea9 50b0
000003b0: e03b abaf 7b18 59ac 1d74 d52b bc39 9fac
000003c0: babd 29b7 80b7 04ad f39d 7e30 cc69 a8ab
000003d0: 8634 5e2c 0d71 24b5 8e1a 2d32 332d ebab
000003e0: 13d0 e0b6 69ae 6bb1 de4f 392d f32a 2534
000003f0: a055 e92b 795a 542a 9013 8cac 8adc 40ac
-3.690844e-12 1.030051e-09 6.853852e-12 2.7572231e-11 -6.545541e-08 -4.372023e-11 -1.6966003e-11 -8.349252e-06
3.1733507e-12 2.581907e-12 -9.410227e-13 -3.96823e-06 -4.2808306e-11 -8.1401913e-07 6.1271016e-11 8.576845e-08
-3.9044453e-12 -2.6776898e-11 -2.3344635e-08 -9.841286e-12 6.1899015e-12 7.713873e-09 -1.938144e-12 9.234781e-13
3.996061e-12 1.8800884e-11 6.0002936e-12 -9.171708e-12 1.5069531e-12 4.0002726e-13 -6.6138625e-08 1.4769821e-10
-1.690041e-07 -5.6778735e-13 -7.568038e-13 2.865624e-12 -8.481225e-14 2.347408e-10 9.267917e-12 -9.071865e-12
-1.6316685e-12 -2.2001032e-12 -1.6606949e-12 -1.2225054e-11 -5.07722e-12 -6.1397065e-10 -8.157242e-12 -1.14902755e-14
-2.503738e-12 2.11447e-12 2.1137662e-12 -1.12786586e-11 3.526521e-13 -3.5756962e-12 -1.5818933e-11 -5.013409e-12
1.7703768e-12 8.929416e-12 3.2505895e-08 2.8379434e-12 3.1946403e-12 1.0726163e-09 -6.7648957e-13 -3.053705e-12
-1.1022685e-09 -1.7635247e-07 -1.2601256e-12 1.7602511e-09 -3.1386085e-12 9.0317516e-13 6.438493e-13 1.3186033e-06
-2.9230535e-11 -8.741744e-07 -1.1583676e-09 7.015828e-08 -1.4898239e-12 1.2352927e-11 -5.305611e-08 -4.164542e-12
-2.4304175e-13 3.782987e-09 8.4620543e-13 -1.0938209e-12 -1.0522404e-08 4.696373e-12 4.6239325e-08 1.6466895e-12
-3.0567003e-12 -1.252627e-12 -6.979191e-07 8.944129e-09 -4.095216e-09 -6.372479e-13 -5.0000287e-13 -2.8716892e-13
3.6054102e-13 8.914358e-08 3.4245252e-12 2.0901888e-08 -6.447275e-13 5.015288e-13 2.6075002e-12 -2.6809568e-11
4.02426e-12 -1.2768264e-06 -2.1244687e-11 -1.6672185e-08 -3.1684059e-12 2.3768348e-12 3.9614293e-12 3.1550022e-07
1.6064547e-12 -2.5256349e-12 -2.857584e-12 5.977625e-13 -2.7177414e-12 9.466258e-13 -6.56712e-09 1.0650149e-11
-7.664057e-11 2.5427973e-08 -1.8464859e-10 5.6732813e-10 1.5343055e-07 1.3360266e-10 1.0287696e-10 -5.0632326e-10
-2.5143894e-11 2.8662996e-08 1.1463637e-09 6.0486505e-11 -5.6657656e-10 4.947101e-10 4.4608867e-10 4.810218e-10
-9.102725e-11 1.4458798e-11 1.4050406e-06 2.0627795e-10 -4.0961217e-09 4.8925486e-09 -6.698512e-10 -1.8087677e-12
2.9727118e-10 3.525436e-11 -5.607587e-12 -1.1649569e-10 -1.1951922e-11 -4.4102985e-11 1.18333746e-11 1.0478864e-09
1.8577293e-08 -1.1502813e-10 -6.611412e-13 1.0088496e-07 1.0447127e-10 6.764731e-10 -3.1351564e-11 -1.880585e-10
1.0791657e-11 -8.131484e-08 9.588204e-12 -4.077474e-11 1.5156505e-11 -2.9339595e-10 -6.085323e-11 -2.8460642e-10
-1.765365e-10 -1.408181e-10 2.1623903e-10 1.5675929e-10 3.6002003e-11 2.154656e-10 1.5718095e-10 5.0646344e-07
-2.1339289e-12 -4.248274e-11 -5.2841503e-10 -8.560929e-11 -1.4054237e-07 -1.5050748e-09 1.7515739e-09 -4.8039676e-12
4.2135666e-12 -3.4630756e-07 1.0815504e-07 2.0550994e-13 3.44648e-08 -3.5868712e-08 -4.053207e-10 6.370349e-06
6.6156477e-12 -1.6372503e-12 -7.64675e-12 1.4408129e-11 5.025682e-09 7.09251e-10 1.7145234e-12 4.1284953e-09
-6.1694345e-06 -2.4923694e-10 -1.9921899e-07 1.5249677e-06 3.7941965e-07 -2.609657e-07 -3.0903718e-07 5.9120493e-06
-5.6127103e-10 -3.5659482e-09 -1.819838e-06 1.4566002e-07 1.841175e-12 3.4734954e-13 -7.289868e-07 -2.983047e-09
-2.5238073e-06 2.3887463e-07 -4.637113e-12 4.365861e-09 -1.8712018e-06 -3.0249424e-08 -4.7915172e-08 8.984134e-12
-8.8699863e-07 7.4632306e-12 -4.5029053e-10 -8.317798e-10 -1.927991e-08 -1.713674e-11 -3.1838239e-09 -3.91468e-08
-6.5658795e-10 -3.1054386e-09 -1.4554616e-12 -7.59102e-10 -3.1147263e-10 -3.0851144e-12 1.5166788e-12 -4.5254616e-12
-1.0117359e-05 -7.5440765e-12 9.262912e-10 -1.1966482e-12 3.1577254e-12 -6.125927e-07 1.0075963e-08 -1.67103e-12
-6.6999432e-06 -3.4296141e-09 1.0533767e-11 1.5382447e-07 1.6579411e-12 1.8860772e-13 -3.981211e-12 -2.7407265e-12

bias f4 [60]
00000000: d5e5 8332 f994 8832 4df6 d9b3 f5fe 0d31
00000010: ce74 4630 6fe4 5a37 6a3b 4835 fe20 8536
00000020: 6fd8 2db5 ffff 982f f5ce b13c 26cd 76af
00000030: e8d3 353e 5e13 ab2f fa81 b0b0 27ff 802b
00000040: b628 0035 5844 b6b0 494c 502f 9e5d 19b3
00000050: 8108 38b0 cae8 9c3c 5db7 fbaf af64 9c3c
00000060: c0ae d12f f798 9b3c 83f6 8c37 086e fdaf
00000070: ea6c 4233 dd1f d330 caa3 cdaf d5e6 7faf
00000080: eee1 54b1 2814 9c3c 5e16 8936 c470 0b32
00000090: 9552 aa34 f05b b530 a93d 62b4 5d5c f02f
000000a0: 8ea3 4bb0 2c26 8e2f f7fe 35b5 bdcf 9b3c
000000b0: 2754 6ab0 eb19 9c3c 08b4 24b5 6c6c 5bb0
000000c0: 0f78 9b3c a27c d331 02c6 78b0 8304 193e
000000d0: 54c3 2030 1b09 502f f8dc 0bb5 9270 a0af
000000e0: 7968 1ab4 f1e9 b5b2 4d3f 222d c1c7 d530
1.5354923e-08 1.5900229e-08 -1.0149652e-07 2.0663127e-09 7.219797e-10 1.3046999e-05 7.4592265e-07 3.9675497e-06
-6.4762474e-07 2.7830535e-10 0.02170513 -2.2446453e-10 0.17756617 3.111848e-10 -1.2842627e-09 9.165766e-13
4.774296e-07 -1.3261667e-09 1.8944592e-10 -3.5708233e-08 -6.6950895e-10 0.019153971 -4.5786921e-10 0.019090978
3.8141046e-10 0.018993838 1.6804092e-05 -4.6098614e-10 4.52682e-08 1.5361327e-09 -3.7405662e-10 -2.3274123e-10
-3.0978486e-09 0.01905258 4.085522e-06 8.116505e-09 3.1725054e-07 1.3195613e-09 -2.1070322e-07 4.3721374e-10
-7.4083395e-10 2.5856772e-10 -6.7798777e-07 0.019019956 -8.524829e-10 0.019055327 -6.135674e-07 -7.982581e-10
0.018978147 6.1550773e-09 -9.050326e-10 0.14943127 5.848524e-10 1.8920725e-10 -5.2103087e-07 -2.9183816e-10
-1.4380375e-07 -2.1177557e-08 9.2226895e-12 1.5554563e-09

weight f4 [60, 60]
00000000: 49aa 1836 a1d9 5ab2 dbf5 0236 1a77 35b4
00000010: 09ae 6a2e 6e48 e233 5de0 582d e9d9 9c34
00000020: 69e1 5dad f2d8 bd2f b066 6cb5 8701 d130
00000030: 4f04 21b5 8d64 d2b0 2d00 adb3 cd37 9f33
00000040: 690f 922d 76ea f2b3 5516 beb3 38a2 4232
00000050: 406d c6af a5b9 49b5 ccb0 3ab6 70d4 49b5
00000060: 1a90 abb2 b792 4cb5 6a10 30b2 e548 a431
00000070: ea12 8a2d cbe2 08b2 3f3d a427 b146 89b2
00000080: 3a76 bdb4 78f5 49b5 4add fe32 3677 16b7
00000090: c7fe b135 6bab 28b5 01c2 ba33 1ea8 2231
000000a0: a889 a8b5 6208 0eb2 a2b8 40ac 9421 4ab5
000000b0: 9173 06b0 f3f2 49b5 716d ebac 7c5f 3bb5
000000c0: 598c 4ab5 7772 2fb7 54d9 2832 7d6d 3fb5
000000d0: 3f31 6ab2 b2ff 1b33 05c5 832d 5a96 aca7
000000e0: e13d d432 930c 4b36 de94 9a31 4dcd 9035
000000f0: ad6e 9fb1 d2c5 68b1 98a2 02b4 d67e 5131
00000100: df81 0231 693a 5c38 ab70 5034 5ad8 edb5
00000110: 37f1 0db4 ca38 b12f dcf9 b63e 416a b2b0
00000120: ed5e d13f 5cd4 7630 0fe6 bcb0 8556 6a2f
00000130: 5435 2934 8ecd 3ab0 67fd d8b0 df94 abb2
00000140: 1542 03b0 df6c 8b3e bae4 982f 90df 8c3e
00000150: 92cd f0af c589 953e a55c e636 5474 512e
00000160: 4a75 b234 8a59 3e30 aad2 68b0 633e cf2d
00000170: 691b e9b0 c7f4 8d3e 6b4f dab6 8584 4832
00000180: aac6 2535 5345 83b0 b11c 36b4 03bd 80af
00000190: cedd e52e e2f0 4c30 66ff 43b4 b1f5 8e3e
000001a0: c71e a7b0 addd 8d3e 4047 f4b3 363f 8bb0
000001b0: bcaf 903e 4b34 1e31 ba74 ea30 3126 b13f
000001c0: c148 29b0 35b1 222f f07d dab3 2b1e 3aaf
000001d0: f88c d7b3 3942 54b2 bb34 b2ad 2618 aeb0
000001e0: ee9e 5121 9475 50a1 9ba3 a024 9525 57b3
000001f0: b07c 8d2e 665c 8131 b9fa cfaf 62fb e02f
00000200: 99da c730 1c4d f7a0 01b2 ab2d 7f91 03b7
00000210: c378 a42d 7730 fc36 5cbe a221 5a6c 9020
00000220: e1a1 a633 4f28 73a0 03d1 9a36 0c18 9233
00000230: 38ae 29a0 54bf a72d ab9d 661e 39e0 a72d
00000240: 413e c120 3ab8 a82d 1aba 7436 3d8a 0e20
00000250: c5de fbb3 4556 4321 36bf 0e33 c28a d51e
00000260: 74fe 74a2 67f9 a72d 8727 2db1 4426 79af
00000270: 847f 97b2 946e bba1 641e 64b1 e9af 102e
00000280: 7ede 28a0 94f0 56b1 428a 2bb2 6011 a82d
00000290: cfeb 8e35 97f7 a72d 2ba1 8f32 11a7 1e21
000002a0: bd3b a82d 4db9 c922 f30d 3132 8a30 a52d
000002b0: 3440 8b9f ed1e 0133 993f 08b6 e42d ef31
000002c0: b6f0 5934 5ba0 eb22 78b0 4fad 23bf 33a0
000002d0: de36 162b 82e3 bc2d 438d 37ad aaa9 44a1
000002e0: 9529 93a0 60fb a0a6 0842 f32f e8ec 3ca8
000002f0: cc60 06b1 f247 b42f 8e13 a12d b080 9120
00000300: 5cae 1e2d 6bcd 0d2f f742 e135 42af 542d
00000310: dfd0 94ae 0556 5a2e 9965 8cb5 1d8a 97ae
00000320: 0f7a 592f 528e b32d 6561 c336 5239 b32d
00000330: f42a 15b2 a7cd af2d 486c bbb2 7f85 2c2d
00000340: 4152 8731 8a27 472d e579 eeb0 477b 122d
00000350: ac11 48ad deea b22d f0b1 29ad 6097 d2ae
00000360: dca2 03b6 c39a 802d 0a85 52a5 37c3 c2af
00000370: b1dd 76b3 b0b8 382e 6a7b 6c25 2c99 b22d
00000380: dd99 08b2 daf2 b22d ac18 ceaf 28b1 2e36
00000390: 00fa b12d fd68 e1b3 85ad 342d 6d4c 412d
000003a0: dd2b 0a2b c14c 9eb1 82c7 142e bf34 8c35
000003b0: 28eb 2c2e 3345 0333 72df 73b4 5d6b 4eac
000003c0: 23f5 2a2f a7c8 8f2d 8e74 b3b5 c65b 5a2d
000003d0: 3a93 45b0 ce55 a331 0c39 3c2f c451 6aae
000003e0: d58b a5b1 dafe 02af 62fb bf2e 8852 edb1
000003f0: 735b 632e 7893 74ae e571 94ac 319d b432
2.2748884e-06 -1.2738753e-08 1.9514616e-06 -1.6900267e-07 5.3360014e-11 1.053712e-07 1.2327997e-11 2.9215815e-07
-1.2612447e-11 3.453305e-10 -8.806628e-07 1.5207186e-09 -5.9983444e-07 -1.5308089e-09 -8.055972e-08 7.4141646e-08
1.6605122e-11 -1.1311651e-07 -8.8516266e-08 1.13291705e-08 -3.6093617e-10 -7.5148483e-07 -2.781907e-06 -7.518747e-07
-1.997255e-08 -7.620942e-07 -1.02482804e-08 4.7813153e-09 1.5697183e-11 -7.967809e-09 4.5585547e-15 -1.5981046e-08
-3.5290014e-07 -7.523554e-07 2.9670122e-08 -8.968453e-06 1.3261678e-06 -6.2834323e-07 8.696589e-08 2.3669666e-09
-1.2557039e-06 -8.267394e-09 -2.7387333e-12 -7.5299727e-07 -4.8913146e-10 -7.523187e-07 -6.691252e-12 -6.9801877e-07
-7.5455097e-07 -1.0457464e-05 9.828302e-09 -7.131237e-07 -1.363179e-08 3.6321303e-08 1.498047e-11 -4.79026e-15
2.4708187e-08 3.0256676e-06 4.498914e-09 1.0788586e-06 -4.6400914e-09 -3.3872891e-09 -1.2166345e-07 3.04856e-09
1.8991313e-09 5.2506486e-05 1.9412498e-07 -1.7720843e-06 -1.3219402e-07 3.2236463e-10 0.35737503 -1.2981404e-09
1.6357094 8.979606e-10 -1.3744187e-09 2.1312914e-10 1.5758752e-07 -6.7958517e-10 -1.578809e-09 -1.9974719e-08
-4.775143e-10 0.272315 2.781116e-10 0.27514315 -4.3801812e-10 0.29206672 6.8653194e-06 4.762442e-11
3.3240423e-07 6.924884e-10 -8.470048e-10 2.356088e-11 -1.6960772e-09 0.27725813 -6.5061517e-06 1.1671664e-08
6.1756384e-07 -9.551208e-10 -1.6960509e-07 -2.3417365e-10 1.0453115e-10 7.455708e-10 -1.8253704e-07 0.27921823
-1.2159597e-09 0.27708188 -1.1375096e-07 -1.0131547e-09 0.28259075 2.3021751e-09 1.7058917e-09 1.383978
-6.158523e-10 1.4796771e-10 -1.0174324e-07 -1.6927319e-10 -1.003736e-07 -1.2355081e-08 -2.0259674e-11 -1.266703e-09
7.1022296e-19 -7.0628755e-19 6.96661e-17 -5.009277e-08 6.4340866e-11 3.7648986e-09 -3.783123e-10 4.092398e-10
1.4541285e-09 -4.1894454e-19 1.9519499e-11 -7.842084e-06 1.869827e-11 7.5158273e-06 1.1027935e-18 2.446625e-19
7.759423e-08 -2.0596238e-19 4.61389e-06 6.803029e-08 -1.4372501e-19 1.9070669e-11 1.22087036e-20 1.9085277e-11
3.2736668e-19 1.9181202e-11 3.6467159e-06 1.2073607e-19 -1.172862e-07 6.6182747e-19 3.3235857e-08 2.2609641e-20
-3.3202873e-18 1.9096459e-11 -2.5197282e-09 -2.2660013e-10 -1.7636701e-08 -1.2700883e-18 -3.3195642e-09 3.289805e-11
-1.430377e-19 -3.1277851e-09 -9.984946e-09 1.9107105e-11 1.0648454e-06 1.9095654e-11 1.6720682e-08 5.3753593e-19
1.9125918e-11 5.4677354e-18 1.0305928e-08 1.8779884e-11 -5.8975005e-20 3.006328e-08 -2.0302598e-06 6.9610326e-09
2.029727e-07 6.386666e-18 -1.1805772e-11 -1.5225132e-19 5.336685e-13 2.147416e-11 -1.0433712e-11 -6.663193e-19
-2.4930285e-19 -1.1170366e-15 4.424836e-10 -1.0487467e-14 -1.955459e-09 3.279293e-10 1.8312265e-11 2.4649114e-19
9.019976e-12 1.2896854e-10 1.6783296e-06 1.208972e-11 -6.767364e-11 4.9643862e-11 -1.0460382e-06 -6.891219e-11
1.9779399e-10 2.0413147e-11 5.822791e-06 2.03754e-11 -8.682708e-09 1.9986525e-11 -2.1818906e-08 9.80671e-12
3.9383683e-09 1.132062e-11 -1.7351424e-09 8.326512e-12 -1.1372608e-11 2.0340559e-11 -9.646048e-12 -9.576584e-11
-1.9615318e-06 1.4620643e-11 -1.8259672e-16 -3.5427103e-10 -5.7477965e-08 4.200079e-11 2.0511551e-16 2.0304279e-11
-7.951226e-09 2.0344105e-11 -3.7488712e-10 2.603114e-06 2.0233593e-11 -1.0496476e-07 1.02703445e-11 1.098775e-11
4.908832e-13 -4.607131e-09 3.3828502e-11 1.0446164e-06 3.9317133e-11 3.056375e-08 -2.2712427e-07 -2.933396e-12
1.55485e-10 1.6346325e-11 -1.3370461e-06 1.2412243e-11 -7.1877404e-10 4.7536792e-09 1.7118768e-10 -5.3278063e-11
-4.818029e-09 -1.1913973e-10 8.730329e-11 -6.9069905e-09 5.1695048e-11 -5.5610155e-11 -4.219058e-12 2.102624e-08

bias f4 [60]
00000000: ba1f 8db4 269f a53c 4862 3d2d c117 f62c
00000010: 197b dc2d 9a2b da39 479f 9cb8 a7c6 00ae
00000020: 9dad 892c 94f6 5c38 ee6e d0ae dc17 ae2c
00000030: bde2 8d33 f60d 6b3b fe31 df32 2367 e330
00000040: d4be 5e2c 8f92 10ac 7684 793b 7c8c 1533
00000050: 3911 c633 6136 6d2c 06f9 30af 5ec3 86aa
00000060: 933a 84ac 0a2c 2e2c a9f9 e2b2 09f1 65ac
00000070: e121 32b1 06db efae 6094 e737 8bc9 b032
00000080: 7387 d92b 1ef9 f9ac 9022 962d 8603 1eae
00000090: b5b5 9c3c 4153 b4b0 dbe9 833c eb9d 6d33
000000a0: a8c6 5fb4 0ee4 bd39 53ca 0bb1 566e 442e
000000b0: 0b2d d0ac 2d65 632f 0585 513b 7cdd 9c2d
000000c0: 4569 1632 5b62 8c34 5720 16af 67e0 aa3c
000000d0: 61fb 29ad b990 df33 9094 9931 0b45 90b2
000000e0: 790c 983c c83c a3b5 cc31 943c 81e2 0d2e
-2.628638e-07 0.02021749 1.0765229e-11 6.9943777e-12 2.506577e-11 0.00041612686 -7.4683274e-05 -2.928027e-11
3.913049e-12 5.268173e-05 -9.47845e-11 4.9480264e-12 6.6070676e-08 0.0035866476 2.598335e-08 1.6545737e-09
3.1654028e-12 -2.0544987e-12 0.0038073338 3.4819536e-08 9.223226e-08 3.3709912e-12 -1.6095578e-10 -2.3938745e-13
-3.7581687e-12 2.4751334e-12 -2.6423395e-08 -3.2676659e-12 -2.5921667e-09 -1.0907368e-10 2.7606438e-05 2.0580748e-08
1.5456372e-12 -7.104663e-12 1.7068374e-11 -3.592817e-11 0.019129613 -1.3120386e-09 0.016102722 5.5324488e-08
-2.0840764e-07 0.00036218803 -2.034217e-09 4.466324e-11 -5.9167163e-12 2.0681475e-10 0.0031970155 1.7833506e-11
8.755085e-09 2.6148595e-07 -1.365391e-10 0.020858957 -9.662355e-12 1.04105716e-07 4.4697757e-09 -1.6795203e-08
0.018560635 -1.2162136e-06 0.018090151 3.2260864e-11

weight f4 [1, 60]
00000000: 8c2e 5ab5 79a3 1240 86dd e5ad d154 512d
00000010: 6b4c 6a2e d4de 1439 b462 9d39 554f 082f
00000020: a450 b62b 5c72 edb9 1977 2eb0 8060 45ad
00000030: c958 cb33 9893 ca3e b403 3734 a78a 0130
00000040: 514c cb2e 0bd0 24ae 4e21 d43e 8ffa a033
00000050: 71f2 3134 4686 b22b ab79 06af c219 232c
00000060: f205 42ad d8f7 ea2b 7542 6fb3 66da 82ac
00000070: 0b66 ccb2 9eb4 6fae 70df a837 22d1 2232
00000080: 0b3b d9ab a083 39ad f2f7 072e 0729 ceae
00000090: f417 0b40 4479 b732 6522 ea3f 4018 4fb3
000000a0: acb4 2ab5 22aa a439 6ee9 7cb4 9d3e 672e
000000b0: 300a b52e 5089 6d32 2349 bc3e aa3e 2d2d
000000c0: 5f3f 3132 12a7 00b5 83c9 3daf 3b4e 1740
000000d0: 3a5e 2a2e 7ae7 0934 2c2c 0b32 c087 a831
000000e0: dcad 0640 7069 d6b5 ad42 0340 fbda 01ae
-8.1279063e-07 2.2912276 -2.6132662e-11 1.1899108e-11 5.3273313e-11 0.0001419739 0.00030018913 1.2397312e-10
1.295426e-12 -0.00045289367 -6.347008e-10 -1.1219581e-11 9.469074e-08 0.3956573 1.704455e-07 4.7126963e-10
9.244928e-11 -3.7474062e-11 0.4143166 7.496157e-08 1.6572609e-07 1.2684929e-12 -1.2230454e-10 2.3177992e-12
-1.1028943e-11 1.669549e-12 -5.5706966e-08 -3.7190693e-12 -2.379513e-08 -5.450273e-11 2.0131207e-05 9.477192e-09
-1.5435165e-12 -1.0545259e-11 3.0915666e-11 -9.3750833e-11 2.173337 2.135915e-08 1.8291746 -4.8218e-08
-6.359285e-07 0.00031407276 -2.355425e-07 5.257893e-11 8.232737e-11 1.3826437e-08 0.3677455 9.847826e-12
1.0317165e-08 -4.7926835e-07 -1.7261041e-10 2.3641498 3.8737215e-11 1.284333e-07 8.100908e-09 4.9048765e-09
2.1043615 -1.5974929e-06 2.0509446 -2.9525698e-11
