Total_RCS/epoch_1000_batch_100_lr_1e-2_ms_100_g_1e-2_wd_0_99/torch_model_1_GELU.pth (torch, 86287 bytes, 7 tensors)

weight f4 [100, 3]
000000 e2 2b 8c 38 0e a7 5e b8 87 e7 00 38 ec ad a6 b9
       6.683894e-05 -5.3084506e-05 3.0733205e-05 -0.0003179157
000010 bf e1 70 3a 50 28 08 ba 81 65 7f bf 71 7f c2 bf
       0.0009188912 -0.00051939953 -0.9976426 -1.5195142
000020 14 64 95 3d c3 ed 9b 39 ab c0 8a b8 59 05 6e 38
       0.07294479 0.0002974105 -6.61624e-05 5.6748602e-05
000030 79 2e 50 39 1f 83 7b 39 4c f8 93 39 87 9b a1 39
       0.00019853738 0.00023986072 0.0002822302 0.0003082419
000040 38 09 97 3a 33 9d 36 bb f2 49 6d b9 b1 70 3a 3a
       0.0011523133 -0.0027864694 -0.00022629628 0.0007112129
000050 08 f7 a6 b9 13 60 7d 39 83 96 a8 b9 27 fa 69 39
       -0.0003184604 0.0002416375 -0.00032155597 0.000223138
000060 ee 01 dd 39 e2 62 df b9 77 0e 2e 3a 77 5b b2 b9
       0.00042153843 -0.00042607548 0.00066397287 -0.00034018952
000070 1b aa 8a ba 95 7c 10 3b 21 33 e7 39 9a 15 a6 39
       -0.001057926 0.0022046913 0.00044097847 0.00031678082
000080 53 3d be ba 8f a3 b4 b9 69 cc 00 ba 10 da d5 3a
       -0.0014514126 -0.00034454136 -0.0004913272 0.0016315598
000090 51 3b e4 be 66 d1 e7 bf 29 ed 82 3b d0 18 12 39
       -0.44576505 -1.8110778 0.003995557 0.00013932888
0000a0 d1 c6 21 ba f8 d9 a0 3a d4 bd c2 b8 66 12 0f b8
       -0.00061712886 0.0012271991 -9.285999e-05 -3.411099e-05
0000b0 45 64 22 b7 20 6d 95 b9 71 bf 98 39 85 a1 ee b9
       -9.679298e-06 -0.000285008 0.00029134334 -0.0004551524
0000c0 f4 7d a7 37 b1 e5 0a 3a a5 cd 5a 38 8e 31 6b 39
       1.9966603e-05 0.0005298509 5.216677e-05 0.00022429807
0000d0 a6 48 a1 b9 ce ab 40 3a 27 d5 17 ba d9 32 45 b9
       -0.0003076244 0.00073498196 -0.0005791955 -0.00018806326
0000e0 27 64 15 3b cb 30 89 b8 a3 21 fb 38 26 d7 25 b9
       0.002279529 -6.5417575e-05 0.00011974878 -0.00015815775
0000f0 32 57 9d 3a f9 0f 22 b8 79 c9 62 b9 de b0 02 40
       0.0012004136 -3.8638686e-05 -0.00021628094 2.042045
000100 61 1b 21 be af 3e 37 3d 8d 07 84 39 42 43 a1 b7
       -0.157331 0.044737514 0.00025182628 -1.9224015e-05
000110 7a 0c ad 39 13 ba 83 39 28 85 85 ba 71 af 97 39
       0.00033006427 0.00025124903 -0.0010186778 0.00028931678
000120 30 c0 4f b8 51 b6 58 ba 65 1b 18 3b 5a 79 a8 39
       -4.9531634e-05 -0.00082669134 0.0023209688 0.0003213387
000130 a2 de 98 3a 6c b9 2e bb 58 92 7d 39 d4 dc b8 39
       0.001166303 -0.0026660813 0.00024182478 0.00035259745
000140 08 53 9b 39 c1 5a 1c 39 5d 1a c2 b9 34 08 68 3a
       0.00029625767 0.00014911128 -0.00037022206 0.000885132
000150 00 33 20 bf f8 54 a6 bf b4 9c 2f c0 0f 03 98 39
       -0.6257782 -1.299468 -2.7439394 0.00028993978
000160 b0 b1 38 ba 7a 03 e1 39 3c 85 be b7 38 77 2a b6
       -0.00070455205 0.00042917934 -2.2711807e-05 -2.5401368e-06
000170 87 07 61 38 77 26 b8 39 66 a6 90 3a 4f f7 10 bb
       5.365119e-05 0.00035123873 0.0011035919 -0.0022120064
000180 e9 ef 25 be 48 07 ae be 30 8f 1c bf ef 9b 83 b9
       -0.162048 -0.3398993 -0.61155987 -0.00025102447
000190 fd 07 8b b9 6d 11 84 b9 b2 0b 7e b7 df d4 9c 3a
       -0.00026518098 -0.00025189985 -1.5142303e-05 0.0011965296
0001a0 04 ba 85 36 c1 d7 e5 38 a6 ff 8c b9 36 45 41 3a
       3.985364e-06 0.00010959758 -0.00026893354 0.0007372679
0001b0 5d 67 0f c0 8f 59 4f 3f 7e 54 f8 bd 58 ba 8d 38
       -2.2406838 0.8099603 -0.121254906 6.758113e-05
0001c0 7f 9b ba b7 0b 4e 79 b8 02 b3 89 bd c6 66 a4 bf
       -2.2245336e-05 -5.943891e-05 -0.06723596 -1.2843864
0001d0 8c e5 91 c0 c0 fe 13 3f 0a 7a 00 40 b5 92 05 bd
       -4.559271 0.5781059 2.0074487 -0.032610614
0001e0 02 4e af b9 0b ef 96 3a ae 20 c1 b9 2f 21 7a b7
       -0.0003343672 0.0011515332 -0.00036836177 -1.4908887e-05
0001f0 90 f5 bd b9 4e 0f 87 39 eb 4b a4 b7 6b 06 03 39
       -0.00036231847 0.0002576061 -1.9585676e-05 0.00012495524
000200 5d 15 5c b9 12 93 17 b8 5c 8c 0c ba 84 66 03 3b
       -0.00020988793 -3.6138175e-05 -0.00053614913 0.0020050118
000210 fd 45 0f ba a7 9e e8 b9 7f a4 18 3b 38 4e 89 3a
       -0.0005465446 -0.00044368693 0.0023291407 0.0010475582
000220 d3 71 46 38 ab 4c 76 38 a2 2f ee 39 3f be 9f 39
       4.7312886e-05 5.8722373e-05 0.00045430387 0.00030468588
000230 35 59 bd ba 9d 05 a0 b8 28 5d b2 39 22 2a d8 38
       -0.0014446141 -7.63044e-05 0.00034020212 0.000103075305
000240 a7 b6 99 37 89 38 43 ba 0f 99 8b 34 06 2c bd 39
       1.8324075e-05 -0.0007447084 2.6002132e-07 0.0003608169
000250 61 c5 fc b9 2f 03 00 3a 29 10 07 3d f4 8d 54 c0
       -0.00048212244 0.0004883287 0.032974396 -3.3211641
000260 11 6d 4d 3c 58 a1 e7 b9 aa f7 6a 3a 7b 2a 22 ba
       0.0125382105 -0.00044179964 0.00089632964 -0.00061861397
000270 92 82 06 ba 2e fb 6a ba 17 40 2d 3b ba 00 96 39
       -0.0005131151 -0.00089638203 0.0026435906 0.0002861077
000280 ea 64 a6 3a 26 12 3b bb 4e 6e 5e 39 7a dd 8e 38
       0.001269487 -0.0028544753 0.00021212662 6.812341e-05
000290 cf 6d ea b8 2e 5b a6 ba b5 82 45 38 4f aa 70 39
       -0.00011178443 -0.0012691969 4.709019e-05 0.00022951628
0002a0 61 99 31 ba d4 15 e7 b8 02 b0 ef 3a a6 2e 64 39
       -0.00067748694 -0.00011019004 0.0018286707 0.00021761152
0002b0 53 42 92 39 59 74 a2 ba 02 81 b9 39 14 19 11 38
       0.00027896705 -0.0012394293 0.00035382068 3.459405e-05
0002c0 b9 fa af 34 38 93 a3 b9 d3 f4 80 39 d5 a6 0f ba
       3.2778715e-07 -0.0003119947 0.0002459647 -0.0005479877
0002d0 42 ac 00 39 d4 28 11 b9 36 15 16 39 2b e9 04 bf
       0.00012271202 -0.00013843487 0.00014313016 -0.51918286
0002e0 1e c6 da 3f 4c d7 c5 3f 73 6c c1 39 ad b8 75 ba
       1.709171 1.5456328 0.0003689263 -0.0009373527
0002f0 76 6d ea 39 9d ed fc b9 29 84 35 39 63 c4 1d ba
       0.00044713513 -0.0004824222 0.00017310739 -0.00060183386
000300 b9 69 01 39 d2 64 4b 3a 58 3c 4c ba ca dd 1c 37
       0.00012341783 0.0007758859 -0.00077909743 9.349964e-06
000310 bd 0f a4 39 5d 1c 0b ba 22 d7 97 b9 c9 9d 90 39
       0.00031292244 -0.00053066557 -0.0002896125 0.0002758338
000320 55 92 02 ba ed d5 78 be 8d c6 8a c0 2e cf 74 c0
       -0.00049809116 -0.24300356 -4.336737 -3.8251452
000330 33 f1 93 37 87 42 6d 39 42 37 dc b8 a1 67 6a 39
       1.7636083e-05 0.00022626865 -0.0001050071 0.00022354584
000340 50 03 00 bb 2b da d2 38 74 c6 e5 38 2d 6e 0a b9
       -0.0019533224 0.00010054217 0.00010956536 -0.00013201749
000350 4f b0 61 39 4d bd a9 3a e3 42 cf b8 e1 4f 89 b9
       0.00021523352 0.0012950093 -9.882988e-05 -0.0002619019
000360 80 b8 08 ba 85 6f 1e 39 62 d9 29 ba 1b dc f8 38
       -0.0005215481 0.00015109598 -0.0006479231 0.00011866559
000370 6e 36 8c b9 8e 12 f5 39 4b 43 61 b8 d0 37 42 b9
       -0.00026743434 0.00046743866 -5.370685e-05 -0.00018522074
000380 32 3d 7b 39 ca 69 38 bf bc 7f 47 3e 95 6d 05 3c
       0.00023960022 -0.7203642 0.1948232 0.008143802
000390 e1 cd 9d bf aa 0d 48 bf 9c 03 2f 3b b6 ab b9 b8
       -1.2328454 -0.7814585 0.0026705032 -8.853471e-05
0003a0 66 2b 3a b8 76 7d a7 36 09 a0 9b b7 e6 de 19 3a
       -4.4386274e-05 4.9915934e-06 -1.8551962e-05 0.0005869701
0003b0 e8 f2 b5 b7 8f 73 c8 39 e5 42 ab 3a 47 16 12 bb
       -2.1689993e-05 0.0003823307 0.0013066201 -0.002229111
0003c0 1d da 3d b8 b2 e8 c5 39 6b 36 19 ba 9c 59 0d ba
       -4.5264245e-05 0.0003774814 -0.0005844596 -0.0005392076
0003d0 3b 14 49 b9 f9 03 dc 3a 82 50 3c 39 bf 36 05 3a
       -0.0001917639 0.0016785852 0.00017959069 0.0005081705
0003e0 75 b1 e6 ba 46 a4 aa b9 81 08 7d ba 0a 47 1b 3b
       -0.0017600494 -0.0003254732 -0.0009652451 0.0023693466
0003f0 65 c1 f2 b9 ba 97 7d ba e5 87 33 3b fb e3 bd b7
       -0.00046301927 -0.0009673793 0.0027394232 -2.2636717e-05

bias f4 [100]
000000 54 41 27 38 02 78 79 39 03 d7 fd bf cf 2c 80 38
       3.9876744e-05 0.00023791197 -1.9831241 6.111862e-05
000010 e5 38 9e b7 10 22 b7 ba 81 6d 2f b8 88 87 7b 38
       -1.8861561e-05 -0.0013971943 -4.1825235e-05 5.9969287e-05
000020 15 e5 6f 39 60 3e e9 39 89 e6 a0 b8 c6 de f6 38
       0.00022878156 0.00044487696 -7.672335e-05 0.00011771689
000030 d5 cb 99 bf c6 cb 3c 3a a0 ef 3d b8 6f c7 ce 38
       -1.201533 0.00072019955 -4.528428e-05 9.859993e-05
000040 0d 0b af 38 96 3b f6 39 64 4c ec 39 b1 b1 f3 b8
       8.346709e-05 0.0004696517 0.00045070343 -0.000116202405
000050 4b 78 82 37 5f 7c a3 3e 85 3b b1 38 cc de ad b8
       1.5553223e-05 0.31930825 8.451104e-05 -8.290782e-05
000060 6e 72 7b 3a cd 59 9c ba 8c 83 dc b8 8d 52 35 3a
       0.00095919415 -0.0011928618 -0.0001051492 0.0006916903
000070 02 8d 04 c0 50 8c 56 b8 8c a5 b7 37 ee 84 eb b9
       -2.0711064 -5.1152252e-05 2.1892389e-05 -0.00044921733
000080 bc 7d 58 3e 6d b2 64 b9 7d b8 6e b9 5a 77 11 3a
       0.21141714 -0.00021810243 -0.00022766176 0.0005549096
000090 8b 5c 3e c0 77 fb cb b7 52 46 20 c0 ad 35 ae 3f
       -2.9743984 -2.4316583e-05 -2.504292 1.361013
0000a0 37 62 37 37 bb e1 8d b8 c7 31 9f b9 98 ca 17 3a
       1.0930517e-05 -6.7654495e-05 -0.0003036393 0.00057903817
0000b0 6f 47 cc 39 be f9 37 38 1d 49 96 b8 06 92 bd 39
       0.00038963134 4.386319e-05 -7.166176e-05 0.00036157685
0000c0 48 38 80 38 f8 f3 aa 39 c5 75 e9 be c4 3a 45 38
       6.113999e-05 0.00032606698 -0.45597664 4.702319e-05
0000d0 25 eb 5f 3a 46 f8 bd ba 99 32 93 b7 a0 e4 35 b9
       0.0008541814 -0.0014493547 -1.7547327e-05 -0.00017346675
0000e0 7f ae 81 39 a1 3f 8a b9 6b 91 21 38 61 6a b6 b9
       0.00024734807 -0.00026368818 3.8520822e-05 -0.00034793004
0000f0 fb 82 d9 38 b9 9e ba 3f 1e 75 8b b8 48 d5 8e b9
       0.00010371763 1.4579688 -6.649851e-05 -0.00027243258
000100 8d 03 f0 39 9c 72 b2 b9 18 f6 99 b9 50 6c 0c c0
       0.00045779013 -0.00034036196 -0.00029365788 -2.1941109
000110 cb 79 24 39 ea 09 05 3a 67 92 4d 38 26 8a a0 39
       0.0001568563 0.00050750247 4.9012157e-05 0.00030620507
000120 9b 19 98 b9 a8 7d 9b 39 e5 90 3c 39 31 0a 54 40
       -0.00029010777 0.00029657525 0.00017983055 3.313122
000130 45 24 90 3f 85 1f 0f b8 9f 67 b2 37 b7 06 02 ba
       1.1261069 -3.412321e-05 2.1267506e-05 -0.0004960107
000140 cb 00 a2 b9 75 47 3c 39 7b 5d 96 b9 4f d9 2f 3a
       -0.0003089964 0.00017955697 -0.00028679878 0.0006708102
000150 78 00 94 3a 34 71 20 b9 41 34 5c 39 dd aa 7a b8
       0.0011291644 -0.0001530096 0.00021000301 -5.9763774e-05
000160 b7 58 32 3a 24 b5 9d 39 6b fa 65 bf 5b 09 12 ba
       0.00068033807 0.00030080334 -0.8983523 -0.0005570852
000170 a2 5f 64 38 cf 2f ca 37 e5 26 01 3a 13 e9 86 b9
       5.44485e-05 2.410254e-05 0.0004926755 -0.00025732126
000180 d3 91 d8 39 45 94 37 ba 85 2a d5 b9 0a b0 df b8
       0.00041307378 -0.000700299 -0.00040658205 -0.000106662585

weight f4 [100, 100]
000000 93 b2 3d b4 08 ea a0 b5 f9 d8 05 b9 26 96 4d b5
       -1.7666962e-07 -1.1989041e-06 -0.00012764697 -7.6586946e-07
000010 f5 62 24 34 05 6e e9 34 20 b7 fa 35 c8 76 ae 34
       1.530969e-07 4.3479682e-07 1.8679748e-06 3.249645e-07
000020 8a 46 24 b5 6c 9c 9a 35 26 90 f4 b4 f5 53 0d 35
       -6.119741e-07 1.1519419e-06 -4.5553423e-07 5.2648767e-07
000030 28 4b 85 b8 08 a7 8b b5 da 76 0e 34 df d0 aa b4
       -6.355933e-05 -1.040492e-06 1.3268019e-07 -3.181694e-07
000040 fb bb 85 35 9c 00 eb 33 8a 03 79 36 f3 48 12 34
       9.963982e-07 1.0943151e-07 3.7105951e-06 1.3623848e-07
000050 3f c0 d8 b3 1c a2 4a 39 11 61 06 b5 ba 29 16 b6
       -1.0093253e-07 0.00019324612 -5.006014e-07 -2.237603e-06
000060 d7 6b 94 35 2d aa 31 b5 bf 47 81 34 51 43 b3 b4
       1.1058245e-06 -6.6185277e-07 2.4080325e-07 -3.3390327e-07
000070 d5 a8 98 38 96 92 08 b6 6e 85 7b 33 46 9e a2 b5
       7.279372e-05 -2.0350903e-06 5.8561845e-08 -1.2116004e-06
000080 49 bf a8 b8 46 32 69 b4 42 54 0c 36 3e 23 ba b4
       -8.046494e-05 -2.1718105e-07 2.091067e-06 -3.4670842e-07
000090 67 ec b7 38 f7 92 83 b4 22 64 4d b6 5b 0b 42 b9
       8.770153e-05 -2.4507582e-07 -3.0605665e-06 -0.00018505512
0000a0 64 5b 26 36 29 a4 f0 34 d2 88 74 34 fd f7 1e 34
       2.4789124e-06 4.4822926e-07 2.2774046e-07 1.4805114e-07
0000b0 ce 17 3a 36 b9 75 27 35 ad b6 ea b4 6e 56 86 b5
       2.7730016e-06 6.2383657e-07 -4.371881e-07 -1.0008932e-06
0000c0 3d 9f d2 b5 a8 6e ae b5 e5 ed bd b8 a4 f0 3a 36
       -1.5692564e-06 -1.2996215e-06 -9.0565336e-05 2.785623e-06
0000d0 49 46 30 36 8e 5b 83 36 18 1e 45 b5 f0 64 66 b4
       2.6266955e-06 3.9147626e-06 -7.343201e-07 -2.145714e-07
0000e0 0e fe d5 35 29 41 19 b6 1e 85 5b b5 de 06 52 b5
       1.5943676e-06 -2.2836705e-06 -8.177757e-07 -7.824109e-07
0000f0 f1 0e b5 b4 dd 3d 3b b9 e9 ce 21 b6 ef 56 08 35
       -3.3724749e-07 -0.00017856756 -2.4111307e-06 5.0790453e-07
000100 ee c3 53 35 5e a1 2b b5 04 9c 0f b5 a7 6d eb b9
       7.888874e-07 -6.3937284e-07 -5.3498684e-07 -0.0004490439
000110 23 53 97 b4 3a 04 28 34 df f9 be b3 f6 0c 9e 34
       -2.8186432e-07 1.5647757e-07 -8.893016e-08 2.9439224e-07
000120 e8 77 8f 35 49 14 71 34 43 13 d8 32 a2 32 4c 38
       1.0689228e-06 2.2452254e-07 2.5154469e-08 4.8684546e-05
000130 ad a6 00 b8 28 74 fc 33 3d f9 a0 35 4d 06 8f b5
       -3.0672807e-05 1.1755793e-07 1.1993467e-06 -1.0656164e-06
000140 0c d4 2b b5 c1 04 cf 35 4d 68 1d b5 f4 fa ca 35
       -6.4011033e-07 1.5424085e-06 -5.8638835e-07 1.512321e-06
000150 bf a8 bb 35 df b3 0d 34 94 fe da 35 ce 95 82 32
       1.3981697e-06 1.3197085e-07 1.6316358e-06 1.5202115e-08
000160 68 56 a8 35 f1 e5 80 34 01 11 8d b7 39 a6 44 b6
       1.2542123e-06 2.4009162e-07 -1.6816428e-05 -2.930303e-06
000170 45 be 45 b4 ed 25 ee b4 69 1d 40 36 4c e7 f6 b5
       -1.8416274e-07 -4.435855e-07 2.8627348e-06 -1.8395745e-06
000180 a7 6d 83 b4 46 92 2f b6 32 05 22 36 aa fe a1 34
       -2.4480434e-07 -2.6162174e-06 2.4142905e-06 3.017388e-07
000190 3b 33 0a 39 7a 21 97 ba ad 1a 17 3f b1 6d 49 39
       0.0001317979 -0.0011530363 0.5902508 0.00019209717
0001a0 98 f1 6f b9 95 f2 e7 ba ab d7 10 ba 28 1d ef 39
       -0.00022882817 -0.0017696196 -0.0005525301 0.00045607355
0001b0 31 20 0a 3a 0e 3b e5 3a 35 5c 76 ba 9b 5a 99 3a
       0.0005269079 0.0017488913 -0.0009397895 0.0011699976
0001c0 51 03 43 3f 8e 33 7a 3a fd fe 6c b8 ca 69 88 b9
       0.76176935 0.00095444254 -5.650426e-05 -0.0002601876
0001d0 b8 bb e5 b9 95 92 16 3a cd 23 aa 3a 45 8a 6e b9
       -0.00043818145 0.00057438883 0.001298064 -0.00022748958
0001e0 fe c4 92 39 9c df c9 be 0a 08 43 37 52 9e 60 3a
       0.0002799406 -0.39428413 1.16247775e-05 0.00085685134
0001f0 eb 30 ca 3a 0a 6f eb ba 68 06 cb b9 c6 4a 27 3a
       0.0015425956 -0.0017962169 -0.0003872395 0.00063816865
000200 44 0f b9 3f 68 34 2d 3a 54 0d 1c b8 c2 4c eb ba
       1.4457784 0.00066072354 -3.720571e-05 -0.0017951953
000210 21 d0 08 3e 96 04 69 39 85 fa 93 ba 57 7c 04 3a
       0.13360645 0.0002222232 -0.0011289871 0.00050539285
000220 d3 77 eb 3f 3b 1b 98 38 0d 22 ac 3f 2d 43 92 bf
       1.8395942 7.252997e-05 1.3447891 -1.142675
000230 e4 e9 82 ba 3e b4 05 3a 19 28 28 b9 ee 75 ad 3a
       -0.0009987918 0.00051004055 -0.00016036666 0.0013233998
000240 2a fa c9 3a 72 9a 8e 39 c6 d5 72 ba 43 63 a5 b9
       0.0015409638 0.0002719942 -0.0009263422 -0.00031545208
000250 0c 2e 2a 3a 93 f8 08 3a 40 86 8e 3f f1 b0 76 ba
       0.0006491847 0.0005225029 1.113472 -0.00094105216
000260 c4 ff eb 3a 33 56 ee ba de 59 e8 b8 f4 76 8f b9
       0.0018005301 -0.0018183648 -0.00011079361 -0.00027363712
000270 48 34 79 3a ac 3c 3f ba c9 b5 c6 38 d8 52 fb b9
       0.00095063867 -0.00072951126 9.475236e-05 -0.00047936174
000280 46 0f 85 39 fa 42 95 bf ea 91 56 3a 8f a1 03 ba
       0.00025379116 -1.1661065 0.0008185195 -0.00050213275
000290 97 9a 92 ba c1 a9 08 ba ab d0 ff b9 12 e1 05 40
       -0.0011184987 -0.00052132836 -0.0004879286 2.0918622
0002a0 e2 1c aa b9 56 7e ff 3a 56 3c e2 38 37 a1 a6 39
       -0.00032446446 0.0019492607 0.00010787758 0.00031782102
0002b0 fe d5 09 ba 08 c1 ed 39 ca 1d 48 39 92 58 9e bf
       -0.00052580226 0.00045347982 0.00019084584 -1.237078
0002c0 66 0a 30 3f 01 0f 2b b8 5d e8 f6 b9 d2 a3 f6 ba
       0.68765867 -4.078355e-05 -0.000470939 -0.0018817133
0002d0 d2 99 23 ba ca c9 72 3a b6 3b a3 ba 7e c8 e1 3a
       -0.00062408776 0.00092616363 -0.0012453708 0.0017225889
0002e0 39 a1 e4 3a 3c 7b d5 b9 da 6e 5c 3a 72 91 75 b9
       0.0017443068 -0.00040718343 0.0008408852 -0.00023419203
0002f0 ef 39 fb 3a a0 dd 68 39 4f 23 13 3f 49 03 dc ba
       0.0019167046 0.00022207806 0.5747575 -0.0016785647
000300 a3 06 1f 39 1e bf 2f ba dd dc d3 3a e1 32 e9 ba
       0.00015165894 -0.0006704199 0.0016163845 -0.0017791652
000310 e9 70 8e 39 6e 3c ec ba b8 df 65 ba 46 e3 bf b9
       0.00027168475 -0.001802338 -0.00087689934 -0.0003659969
000320 ec 76 55 2f 21 4a 93 b2 8a aa f3 b4 e0 78 74 31
       1.9414487e-10 -1.7146762e-08 -4.538636e-07 3.5575383e-09
000330 ec 8a c7 31 5d b2 02 32 63 1c 6f 32 b2 76 ae b0
       5.807456e-09 7.607551e-09 1.3918085e-08 -1.2693901e-09
000340 28 c0 a4 32 6b 9a 9a b2 70 6e c4 32 bf bc a3 b2
       1.9179495e-08 -1.799818e-08 2.2867624e-08 -1.906153e-08
000350 eb b8 81 b5 d3 b5 c0 30 ea 1b bb b0 f8 ea 69 32
       -9.665067e-07 1.4021516e-09 -1.3613974e-09 1.3615811e-08
000360 56 cd 35 b1 a4 cb a5 b2 ed 90 0d b3 fb 43 d4 30
       -2.6455687e-09 -1.9301133e-08 -3.296093e-08 1.5444351e-09
000370 50 3b 01 33 29 ee 34 b2 93 5a 2e 32 77 ac 42 32
       3.0089097e-08 -1.053153e-08 1.0148727e-08 1.13315e-08
000380 59 53 9f b1 bf a2 d9 32 9b a9 d7 31 93 61 a8 b2
       -4.6369846e-09 2.5336133e-08 6.2766055e-09 -1.9602146e-08
000390 c5 22 22 36 cc eb dc 30 6f c7 bb b0 70 22 56 32
       2.416012e-06 1.6074124e-09 -1.3662723e-09 1.246427e-08
0003a0 7c ca 03 35 c5 f3 2e 31 76 fa 22 b2 1a 1c 05 32
       4.9095956e-07 2.54589e-09 -9.486589e-09 7.7480085e-09
0003b0 5b 63 c3 35 78 87 84 31 3e d5 63 b4 8d a0 95 b6
       1.4557548e-06 3.8571066e-09 -2.12186e-07 -4.4592366e-06
0003c0 e3 d8 80 b2 1e c0 38 b1 42 14 b4 b0 59 0e 8d b2
       -1.499979e-08 -2.688473e-09 -1.3102481e-09 -1.6421085e-08
0003d0 55 ce d7 b3 b5 1f c1 32 94 f1 c7 32 c9 f2 0d 32
       -1.0049249e-07 2.2482576e-08 2.3276506e-08 8.262483e-09
0003e0 70 d3 c6 31 4c 8b ba 31 0a 5d 9c b6 61 ba 35 b2
       5.786596e-09 5.4291487e-09 -4.6599935e-06 -1.0577964e-08
0003f0 b0 1e 7f b2 40 1d 9b 33 ad 82 40 31 03 59 ef b2
       -1.4849931e-08 7.2230705e-08 2.8013958e-09 -2.786374e-08

bias f4 [100]
000000 91 08 34 b9 b7 39 1d bf de fa 54 b6 e3 12 96 38
       -0.00017169329 -0.6141619 -3.1736486e-06 7.156075e-05
000010 ad 67 03 b7 ab 4d 3e 37 c4 19 bc 38 6d ea 5c 3d
       -7.832347e-06 1.1342966e-05 8.969338e-05 0.053934503
000020 95 68 03 b9 fe ea 8e 39 8b 6a 48 ba 6c 3f 19 39
       -0.00012532093 0.00027259433 -0.00076452707 0.00014614844
000030 98 49 74 38 8f cc 3e 3e ce a4 06 b9 59 bb 29 b9
       5.8242673e-05 0.1863272 -0.0001284063 -0.00016186888
000040 3c bd 00 b7 35 34 c7 b8 70 31 1d 39 7e e1 ef 38
       -7.673454e-06 -9.498784e-05 0.00014991104 0.00011438409
000050 d1 49 b1 b8 40 fe 3a b9 bf 19 37 3a 4d 9d 1d 38
       -8.453767e-05 -0.00017833058 0.00069847325 3.7578215e-05
000060 35 92 35 39 88 13 cb b8 21 6f 72 b9 4e 42 09 b8
       0.00017315971 -9.683432e-05 -0.00023120317 -3.2725096e-05
000070 1d bf 02 37 b3 a4 df 36 b8 08 25 3e a9 52 d4 b8
       7.793101e-06 6.6650914e-06 0.16116607 -0.000101243444
000080 f5 9a c0 b8 23 fb 14 39 6e b1 5e b9 a2 c5 59 b9
       -9.1841364e-05 0.00014207936 -0.00021237668 -0.00020768357
000090 70 a8 e7 36 41 40 bc 36 5a 40 92 b8 50 9e d6 b8
       6.903945e-06 5.6103167e-06 -6.973809e-05 -0.00010233803
0000a0 e3 04 18 b9 c4 34 07 b9 1a 09 28 b9 9a 1a c6 39
       -0.0001449767 -0.0001289426 -0.00016025119 0.00037785323
0000b0 cf 8f 5b b8 2c 25 9b b8 d1 b0 f3 b6 34 3e 28 b9
       -5.23476e-05 -7.3979e-05 -7.2625485e-06 -0.00016044901
0000c0 b3 69 62 3f dc 6b bb b8 cb 0a 24 b9 75 41 b2 38
       0.88442534 -8.936945e-05 -0.0001564428 8.499894e-05
0000d0 78 bf 24 b9 1a bd 4c b9 5c 9a dc 38 53 9f 1d b7
       -0.00015711586 -0.00019525402 0.00010519169 -9.395025e-06
0000e0 8c 9f 23 b9 33 d2 ec 38 48 65 bd 36 29 8a e5 b7
       -0.00015604327 0.000112925096 5.6444296e-06 -2.7363263e-05
0000f0 67 57 ce b8 b5 68 57 b8 43 33 3d 37 e8 dc 18 39
       -9.8391254e-05 -5.135751e-05 1.1277213e-05 0.00014578144
000100 1f e4 ca b8 57 67 d8 36 23 d6 de b6 ce a2 4f 35
       -9.6746015e-05 6.449332e-06 -6.6410444e-06 7.735042e-07
000110 1f f6 15 b9 2f aa bf 3a eb 00 ca be 7c a5 c1 b8
       -0.00014301435 0.0014622862 -0.39453825 -9.233781e-05
000120 38 21 47 ba 87 17 19 b9 6c de de 3d 27 75 f9 b8
       -0.00075961975 -0.00014599982 0.10882267 -0.000118950666
000130 a0 11 c5 37 34 c6 89 be 39 73 b6 b8 d3 9f 47 b9
       2.3492437e-05 -0.2690903 -8.699898e-05 -0.00019037658
000140 f3 62 87 39 c5 1a 1d b7 fd 27 5c b7 75 c3 ac 36
       0.0002582293 -9.364162e-06 -1.3122332e-05 5.1487536e-06
000150 b9 42 76 37 13 fe cb 38 33 07 0d b7 44 f9 28 ba
       1.4678278e-05 9.727119e-05 -8.405931e-06 -0.0006445835
000160 15 41 12 b9 67 ff 82 b6 47 62 fc b9 1b 48 ec 38
       -0.0001394789 -3.9040347e-06 -0.00048138408 0.000112667876
000170 ec b8 9a b6 a8 a5 d1 b8 15 70 ed b8 2e 86 3e b9
       -4.6110854e-06 -9.9967525e-05 -0.000113219176 -0.00018169798
000180 ea c0 6c 39 70 c3 5c 36 f3 9a 80 b6 e7 a2 40 b9
       0.0002257858 3.2896314e-06 -3.8327357e-06 -0.00018371233

weight f4 [100, 100]
000000 88 99 54 2f 4e 30 48 b5 a6 eb 20 b2 95 3a de ae
       1.9335833e-10 -7.45761e-07 -9.366806e-09 -1.01057974e-10
000010 ec ae 1f 33 6d 45 fd af 43 a6 a9 2f 6b 54 90 35
       3.7179163e-08 -4.6069762e-10 3.0859057e-10 1.0753405e-06
000020 a9 59 36 2f a7 8b ce b6 dc 90 67 b1 3b 31 26 30
       1.6584657e-10 -6.155536e-06 -3.3697267e-09 6.046041e-10
000030 a3 5b 51 31 7e 4e 28 35 66 53 19 b1 0d 06 76 b1
       3.0465592e-09 6.26991e-07 -2.2311837e-09 -3.580115e-09
000040 a3 f4 e1 35 75 7f 5e b0 19 bb 19 30 e7 dc 49 b0
       1.6835005e-06 -8.0944257e-10 5.592696e-10 -7.3437295e-10
000050 5d 11 9b 30 b6 a2 88 2f c5 09 58 32 47 f8 df 36
       1.1282669e-09 2.485387e-10 1.2575076e-08 6.674821e-06
000060 d1 c5 dc 31 fe 98 05 b1 62 1a 5e b6 1a ea 2b 31
       6.425332e-09 -1.9441013e-09 -3.3095935e-06 2.5016846e-09
000070 92 d8 aa af 81 c7 22 30 f8 33 12 b4 2e c6 ce 30
       -3.1076702e-10 5.921877e-10 -1.3616216e-07 1.5044799e-09
000080 cd 57 23 2f 0d 83 16 b1 6f ef 27 33 88 88 b1 b0
       1.4855957e-10 -2.1902367e-09 3.910048e-08 -1.291725e-09
000090 05 72 10 b1 0b 01 20 30 cd 85 75 36 bd 0c 28 31
       -2.101957e-09 5.8209143e-10 3.6585727e-06 2.4454458e-09
0000a0 5a 65 46 31 0d e1 3b b1 4a cc 07 b0 12 94 56 32
       2.8870404e-09 -2.7340008e-09 -4.9403026e-10 1.2490107e-08
0000b0 ae c2 45 b1 21 fc 85 30 f8 18 15 b1 cc 34 fc b0
       -2.8777936e-09 9.748683e-10 -2.1696547e-09 -1.8350419e-09
0000c0 ca e3 2e 35 0e c0 fb 2f a7 97 fd b0 8a f5 89 b1
       6.515153e-07 4.5793097e-10 -1.8451275e-09 -4.0151393e-09
0000d0 2b 21 21 31 51 64 b0 af 18 73 13 31 32 c6 95 2e
       2.3447437e-09 -3.2085493e-10 2.1456739e-09 6.810942e-11
0000e0 87 c1 63 b1 ee c5 b4 b0 38 43 11 b0 12 9a 8a b0
       -3.3142855e-09 -1.3152979e-09 -5.2846216e-10 -1.0084611e-09
0000f0 35 d2 43 30 72 52 e8 af 7c 82 fa 2f 4f 64 90 30
       7.123931e-10 -4.2259135e-10 4.556745e-10 1.0505888e-09
000100 8e e8 de 30 8f 4a 28 32 cd e7 96 ae 0d 5c ac 31
       1.6218722e-09 9.79584e-09 -6.8623864e-11 5.016324e-09
000110 9d 3a 11 31 16 74 9b 32 d6 da 36 34 83 1d d3 30
       2.1133595e-09 1.8097165e-08 1.7029683e-07 1.5360658e-09
000120 95 9e 2c b1 f9 77 61 2f be 55 76 34 67 10 80 b0
       -2.5119438e-09 2.0506254e-10 2.2941728e-07 -9.317888e-10
000130 e5 d8 40 af fa c4 d9 b4 c6 d4 a7 30 4f a2 cf b0
       -1.7539355e-10 -4.056272e-07 1.2211323e-09 -1.5107363e-09
000140 2e 41 0e 32 22 3d 0e 31 e4 cb 5a b5 ce 24 39 2f
       8.280308e-09 2.069847e-09 -8.150803e-07 1.6838728e-10
000150 a3 32 d0 2f fb d1 dd 30 46 58 5b 2d 5b c5 54 b1
       3.787096e-10 1.6139546e-09 1.2468309e-11 -3.0962244e-09
000160 d9 91 2d 30 c3 9a d5 2d 19 74 bd b1 f6 bc ee af
       6.3144295e-10 2.4284024e-11 -5.5138227e-09 -4.3426213e-10
000170 32 94 74 af db c7 eb 30 e0 0a 9f 30 7d 2d 87 32
       -2.224432e-10 1.7155303e-09 1.1571863e-09 1.5736754e-08
000180 0f a7 d0 35 b9 3b 6f 30 75 8c 57 33 0d 8a 92 36
       1.5545828e-06 8.7032564e-10 5.0186333e-08 4.3672103e-06
000190 30 c7 0e b1 3b 13 84 34 30 a1 90 2d 78 f9 a4 2f
       -2.0776945e-09 2.4600908e-07 1.6442486e-11 3.0008684e-10
0001a0 87 63 3f ae bd 58 ab 2f 5e 95 ed b0 7a a4 8f b4
       -4.351677e-11 3.116777e-10 -1.7286472e-09 -2.6755498e-07
0001b0 d7 4b 1b 30 e5 f2 19 34 39 60 c5 31 7d d4 f0 af
       5.6496446e-10 1.43376e-07 5.744394e-09 -4.3806728e-10
0001c0 36 bb 08 30 39 92 91 b4 e9 d9 62 2e a7 06 aa b0
       4.9742555e-10 -2.7114746e-07 5.1579994e-11 -1.2371019e-09
0001d0 94 98 87 af 67 e4 1e b0 7d 27 2b b0 ec 6d 0c 30
       -2.466477e-10 -5.7804644e-10 -6.2265554e-10 5.108791e-10
0001e0 8a 44 35 30 00 0e 0d 31 0c d8 43 b0 97 ef 7d b0
       6.5944816e-10 2.0526159e-09 -7.124761e-10 -9.238134e-10
0001f0 2c 6f bb 30 3d f2 ba 2f 47 33 01 35 a4 85 81 2f
       1.3637638e-09 3.4005324e-10 4.8130863e-07 2.355992e-10
000200 ab 8f 5d ae 7e 3b 09 30 69 d2 bc 30 8a 31 11 30
       -5.0377185e-11 4.9924853e-10 1.3738602e-09 5.282109e-10
000210 81 0c 8a 30 cb fc 24 b0 8a 7d ae 34 4b fd ad 30
       1.0044375e-09 -6.0022093e-10 3.2501367e-07 1.2659397e-09
000220 86 d3 1f 2e 5b b3 f5 ab 4b ec 81 30 01 be 08 2d
       3.6340285e-11 -1.7458078e-12 9.453144e-10 7.772894e-12
000230 3f d3 d4 30 6e 20 4b 2e a2 52 1d 30 d9 50 8d 2f
       1.548507e-09 4.618566e-11 5.7233696e-10 2.5705196e-10
000240 6f 41 dc b0 13 a5 05 30 2d e1 1f ac 92 dd 46 af
       -1.6025704e-09 4.86197e-10 -2.2720257e-12 -1.8086713e-10
000250 ee 5d 99 b2 73 d5 69 2f 73 0a 3a b0 bc 82 65 31
       -1.7854259e-08 2.1267059e-10 -6.7681255e-10 3.33982e-09
000260 2c 97 90 30 4d dd a8 b0 f2 2f 2d 30 4a fe ad 2d
       1.0520345e-09 -1.2286506e-09 6.300517e-10 1.978075e-11
000270 bd 3f f6 2f 3b 6a ba 2f 3e d0 f2 2e 68 5f 84 2f
       4.4792428e-10 3.3908684e-10 1.1041877e-10 2.407845e-10
000280 d0 f0 07 30 51 35 36 2f 48 b3 9e ae a2 f4 da af
       4.945493e-10 1.6571745e-10 -7.216855e-11 -3.982779e-10
000290 cd c8 fd 2d 7b c5 96 2e 20 00 96 ae 4b 89 91 ac
       2.8851943e-11 6.85629e-11 -6.8212325e-11 -4.1363904e-12
0002a0 47 d8 e6 2d d5 f3 19 b2 df 26 94 b4 b0 30 21 2e
       2.6244019e-11 -8.961213e-09 -2.759543e-07 3.6650405e-11
0002b0 0e 1e c2 31 c5 d1 a4 af a5 19 52 b4 27 37 0e b0
       5.64956e-09 -2.9980476e-10 -1.9567103e-07 -5.1737675e-10
0002c0 22 03 37 af 5d d4 bb 33 2f 6d 29 30 c9 8e 96 30
       -1.6644866e-10 8.746495e-08 6.1637e-10 1.0954518e-09
0002d0 e9 f1 2a 2e ba 1d 11 30 f2 e2 b3 ae 57 d6 0b 2e
       3.8868384e-11 5.2792937e-10 -8.180291e-11 3.1795313e-11
0002e0 ca d9 7e ae 72 2a 25 30 a6 5b 31 2d 6e 2a b0 31
       -5.794635e-11 6.008697e-10 1.0081635e-11 5.127098e-09
0002f0 e2 9b 08 b0 35 0e 35 ad d6 ba 6b 31 b5 07 97 af
       -4.9698035e-10 -1.0291813e-11 3.4303205e-09 -2.7472216e-10
000300 c7 6f 95 2e fc d6 16 b0 7a 25 17 2f ac 14 a4 b4
       6.795591e-11 -5.4875193e-10 1.3746684e-10 -3.056242e-07
000310 24 09 63 31 88 8e ec ad 7a 43 9a ae e6 b0 b8 36
       3.3038043e-09 -2.689339e-11 -7.0150954e-11 5.504221e-06
000320 e9 5f 90 2e 5e ef 02 33 1b 5d 3a ab bc 70 36 ae
       6.565399e-11 3.0485687e-08 -6.6209684e-13 -4.1482137e-11
000330 dc 20 3e 2c e9 a5 6f 31 23 50 3f ac 23 72 5b b3
       2.7018865e-12 3.4873386e-09 -2.7187217e-12 -5.1093718e-08
000340 10 12 af b0 c5 fc a5 35 e2 d5 a2 34 02 80 f7 af
       -1.273806e-09 1.2367024e-06 3.0330472e-07 -4.5019993e-10
000350 c5 fd 59 b0 c2 71 96 b2 d9 ba 86 af 0f 76 1a 30
       -7.930477e-10 -1.751403e-08 -2.450722e-10 5.6192645e-10
000360 2a 4a b1 2d 40 26 f7 af dd f2 2a b0 9f 6f a1 2d
       2.0155506e-11 -4.4956217e-10 -6.219077e-10 1.835315e-11
000370 c8 8b 1c 2f e5 7a 45 33 de 6d 12 35 d5 38 89 b2
       1.4237778e-10 4.597941e-08 5.4549116e-07 -1.5974743e-08
000380 8f 07 c4 b0 53 d5 af 32 32 df 10 b6 16 34 80 b3
       -1.4263025e-09 2.046969e-08 -2.158759e-06 -5.969939e-08
000390 98 bd 3b 2e 87 cb 26 ac fd 91 8c 31 d6 45 65 2f
       4.268727e-11 -2.3703e-12 4.091133e-09 2.085224e-10
0003a0 4a c4 02 36 4d 35 2d 2e ad 99 a7 b4 36 8c 0f af
       1.9485765e-06 3.9382986e-11 -3.1217988e-07 -1.3055587e-10
0003b0 f9 ac fd af 1b ff 3a ad 4d 1e 81 30 9b ad b7 b2
       -4.6143336e-10 -1.0629521e-11 9.394597e-10 -2.138295e-08
0003c0 3b d2 20 36 88 3d 55 30 9f 9f d2 b0 b5 10 20 31
       2.3964228e-06 7.757639e-10 -1.5324878e-09 2.3292561e-09
0003d0 ac 6a 21 af e3 f8 48 ae 32 32 93 2c f5 72 30 ae
       -1.4680762e-10 -4.569579e-11 4.183564e-12 -4.011987e-11
0003e0 39 c4 a6 b2 91 11 0c ae 8c 71 24 ae 1e a1 9f ae
       -1.9414175e-08 -3.1847917e-11 -3.7390133e-11 -7.259103e-11
0003f0 7d dc 6a 2f 3b 0a 75 30 f5 7e 22 2d d4 cf 40 2b
       2.1360509e-10 8.914502e-10 9.236824e-12 6.850052e-13

bias f4 [100]
000000 53 b1 0d 35 10 94 78 b4 5a 13 db af 8c bb 1f b8
       5.2784634e-07 -2.3150665e-07 -3.9849618e-10 -3.808322e-05
000010 e4 8d cc 35 2e ae f4 33 40 d3 93 31 a6 36 88 b9
       1.524048e-06 1.13938185e-07 4.3022794e-09 -0.00025980658
000020 cb 75 52 30 d1 56 1b b2 4b 61 c9 39 3c f0 79 39
       7.656495e-10 -9.041927e-09 0.00038410196 0.00023835985
000030 ff cc 02 b4 85 6e 29 b3 57 ff 80 bd 90 a8 84 b7
       -1.218177e-07 -3.9448896e-08 -0.06298702 -1.581412e-05
000040 d9 e2 dd 32 dc df 9e b7 b3 70 91 b8 02 ee fd 38
       2.5830944e-08 -1.893931e-05 -6.935131e-05 0.000121083125
000050 e7 32 81 bd ae 75 1c 37 40 86 cd 38 b9 00 da 3d
       -0.06308537 9.325724e-06 9.800168e-05 0.10644669
000060 bf 99 25 b8 c0 33 3a 34 27 7f e7 b5 3c 86 f9 33
       -3.9482253e-05 1.7341426e-07 -1.7247847e-06 1.1619383e-07
000070 63 31 a5 b9 bd 2f 09 37 e9 c2 a6 b0 ca 65 70 b8
       -0.00031508048 8.176951e-06 -1.2133486e-09 -5.7315257e-05
000080 50 39 ba 33 1b 91 78 31 ed ac f8 33 4e 8a 54 b5
       8.671725e-08 3.6171233e-09 1.1579855e-07 -7.9177414e-07
000090 1e e0 1f 35 7d f1 22 b8 ea c5 01 b3 86 6b be b4
       5.955825e-07 -3.8848713e-05 -3.0215155e-08 -3.5468491e-07
0000a0 8f f7 8c b8 91 59 83 bd b3 95 de 36 69 7f 28 34
       -6.7218316e-05 -0.06413568 6.633543e-06 1.5692571e-07
0000b0 d9 75 10 b9 f4 9b dd b0 88 dd 1e b9 39 88 ef b7
       -0.00013776812 -1.6124191e-09 -0.00015150581 -2.8554454e-05
0000c0 33 5b f2 30 0a 98 82 b9 5a a2 4d b8 2e c7 29 30
       1.7633738e-09 -0.0002490881 -4.902701e-05 6.1764893e-10
0000d0 bc a1 0d 35 f8 0d a4 bd c0 f2 cd b8 5d 33 87 bd
       5.276195e-07 -0.08010477 -9.8203775e-05 -0.06601594
0000e0 56 9b ec 3d b1 46 b9 b1 41 37 f8 38 39 de de b3
       0.115530655 -5.3922453e-09 0.000118358534 -1.03781026e-07
0000f0 ac 23 06 33 be 20 bb 36 09 06 c2 b8 60 34 46 b6
       3.123175e-08 5.576846e-06 -9.251765e-05 -2.9534785e-06
000100 47 c2 bf b8 3f 9e e0 b3 3b e2 fc 37 97 ee ed b3
       -9.143777e-05 -1.04595976e-07 3.0146088e-05 -1.1079572e-07
000110 2a 51 61 30 6e 69 aa 34 58 55 43 b5 7e 80 e2 3d
       8.1969864e-10 3.1741678e-07 -7.276735e-07 0.11059664
000120 fa aa 0f 3e 1a 44 8b 33 4e fa 95 33 ff 1d 2e 36
       0.14030066 6.4850795e-08 6.983883e-08 2.594548e-06
000130 fe 15 0d 37 f3 d2 16 3e 90 83 ef b3 3d 7a e0 33
       8.409375e-06 0.14728908 -1.1153236e-07 1.0453048e-07
000140 92 e1 07 b8 ed 0d 63 b2 7a 45 17 be d8 b3 cd 36
       -3.2396587e-05 -1.3216305e-08 -0.14772597 6.1304127e-06
000150 9c 88 ad b5 14 1e eb b3 4d b2 20 b9 8e 8c 11 b6
       -1.2929263e-06 -1.09485114e-07 -0.00015325211 -2.1688497e-06
000160 d7 c5 3e b3 29 cc 08 b4 c0 c7 e2 b3 2e ca cd 32
       -4.4417757e-08 -1.274026e-07 -1.05602794e-07 2.3957082e-08
000170 8d 3f b1 b6 d0 25 8b b9 93 13 8d 30 b4 94 8d bd
       -5.2824093e-06 -0.00026540319 1.0264664e-09 -0.069131285
000180 ce c5 f0 b4 c7 85 8b 33 da c5 98 b6 51 d4 11 34
       -4.4847405e-07 6.497026e-08 -4.552986e-06 1.3581418e-07

weight f4 [1, 100]
000000 54 b7 49 b5 05 3d 95 34 da 21 1d 32 8b c6 75 38
       -7.514511e-07 2.779781e-07 9.1463e-09 5.859746e-05
000010 18 10 bf b6 a8 51 26 b4 a6 b6 b4 b2 8d c9 d6 39
       -5.694117e-06 -1.5489661e-07 -2.1037817e-08 0.00040967428
000020 36 97 ce 32 11 53 49 32 33 d5 07 ba b6 2f 66 b8
       2.4050319e-08 1.1718627e-08 -0.00051816105 -5.4880707e-05
000030 d1 71 34 34 c9 97 0e 31 3e 8e 83 3f 31 3b 5c 34
       1.6805213e-07 2.075e-09 1.0277784 2.051063e-07
000040 fd 88 55 33 b4 d8 cd 37 b6 9d 46 37 2d e6 35 b9
       4.9717517e-08 2.4538815e-05 1.183844e-05 -0.00017347252
000050 35 a9 83 3f 49 d3 45 37 f4 ed f8 b8 98 c2 55 40
       1.0286013 1.1791309e-05 -0.00011869884 3.340002
000060 af 14 9e b7 3d 87 83 b4 f3 29 34 36 0d cb 2e b4
       -1.88447e-05 -2.449905e-07 2.6846508e-06 -1.6278882e-07
000070 12 5c 92 38 55 bb 39 b7 e9 b8 83 b1 f7 68 c2 38
       6.978972e-05 -1.1070476e-05 -3.8336236e-09 9.270192e-05
000080 00 67 c0 b3 ae f1 c1 30 26 23 30 b4 b1 0e 98 35
       -8.959432e-08 1.4111288e-09 -1.6404064e-07 1.1329158e-06
000090 e5 34 3c b5 9f ac 04 37 94 75 b8 33 66 af f3 34
       -7.011243e-07 7.908005e-06 8.589555e-08 4.5389896e-07
0000a0 c9 7d 53 b8 c7 be 84 3f 6b 67 27 b7 bd 25 75 b4
       -5.0423467e-05 1.0370721 -9.978055e-06 -2.2831132e-07
0000b0 59 d4 9a 39 0e a3 ea 30 78 a7 94 39 10 7e 29 38
       0.0002953138 1.7072084e-09 0.00028353534 4.0410145e-05
0000c0 33 ec 23 34 45 8e d3 39 1b fd a7 38 d0 fb e2 ae
       1.5266487e-07 0.00040351055 8.010325e-05 -1.0322021e-10
0000d0 82 e6 41 b5 b8 90 95 3f 99 75 1b 39 44 b0 86 3f
       -7.2233536e-07 1.168479 0.0001482576 1.0522542
0000e0 fb a2 67 40 b6 f2 09 b2 17 6e cd b7 50 35 1a 34
       3.6193225 -8.029636e-09 -2.4489169e-05 1.4361763e-07
0000f0 fa cf 1e b3 4b 9f 7d b7 b0 1b 0b 39 48 a5 48 b7
       -3.6976395e-08 -1.5117063e-05 0.00013266387 -1.19594115e-05
000100 3f b2 11 39 60 b6 1a 34 bf 36 e1 b7 65 99 24 34
       0.0001389468 1.4408715e-07 -2.6847583e-05 1.5329495e-07
000110 d5 d4 9e b0 42 55 e5 b4 5d ce 8d 35 06 9b 88 40
       -1.1556504e-09 -4.2716607e-07 1.0565378e-06 4.2689238
000120 3c d8 96 3f b4 3e bb b3 be 16 41 b3 6d e5 87 b6
       1.178474 -8.719272e-08 -4.4956998e-08 -4.050022e-06
000130 5b c1 76 b7 6e 77 9d 3f 1f 0e 26 34 4c d6 c2 b3
       -1.4707762e-05 1.2302072 1.5465092e-07 -9.072809e-08
000140 ec 7a ae 36 08 43 8f 32 e6 b2 00 41 52 cd 8c b6
       5.199914e-06 1.6677873e-08 8.043676 -4.1962276e-06
000150 e0 8d 87 33 06 bd 08 34 d0 3e 96 39 9b fb 63 36
       6.312234e-08 1.2734753e-07 0.00028657028 3.397209e-06
000160 32 e0 26 33 19 1f 89 32 78 6e 39 33 72 41 de 32
       3.885379e-08 1.596304e-08 4.317414e-08 2.5873963e-08
000170 c6 56 86 b6 6b 81 e6 39 25 67 a7 30 55 ef 89 3f
       -4.003613e-06 0.00043965442 1.2180165e-09 1.0776163
000180 b6 b7 0c 36 00 91 ce b3 5d 9c 15 36 3e 5c 4b b4
       2.096856e-06 -9.618998e-08 2.2293746e-06 -1.8939406e-07
