Total_RCS/epoch_1000_batch_100_lr_1e-2_ms_100_g_1e-2_wd_0_99/torch_model_5_GELU.pth (torch, 95029 bytes, 15 tensors)

weight f4 [60, 3]
0	0x37618839	1.3442762e-05
1	0x39dac7c2	0.0004172903
2	0xb9276e94	-0.00015967555
3	0x3dfb7bcd	0.122794725
4	0xbe1cccd6	-0.15312514
5	0x3e8e3e1c	0.2778176
6	0xbeab680c	-0.3347782
7	0xbfeb92dd	-1.8404194
8	0x3bf63323	0.00751342
9	0x38342874	4.295302e-05
10	0xb95b7d88	-0.00020932232
11	0x39354d09	0.00017290203
12	0xbeca6206	-0.3952791
13	0x3f4618fe	0.77381885
14	0x3f45947d	0.771797
15	0xb8fae691	-0.00011963875
16	0xb9c3c0c1	-0.0003733691
17	0x3723bef5	9.760018e-06
18	0x3d1d2c4e	0.03837233
19	0xbd13a224	-0.0360433
20	0x3d64c79b	0.05585442
21	0xb832cc06	-4.262852e-05
22	0xb998d508	-0.0002915042
23	0x381be5ba	3.716883e-05
24	0xc0119385	-2.2746289
25	0xbe0e23bb	-0.13880818
26	0xbe871eb4	-0.26390612
27	0x3dcf8be4	0.10134104
28	0xbddf3bb6	-0.10900061
29	0x3e44b01d	0.19207807
30	0x3ccd2664	0.02504272
31	0xbcd98a06	-0.026555073
32	0x3d15148e	0.036396556
33	0x3dfb2f20	0.12264848
34	0xbe1c4791	-0.15261675
35	0x3e8db8a7	0.2767994
36	0xb8a5d194	-7.90685e-05
37	0xb9c0695f	-0.000366996
38	0x38340583	4.2920477e-05
39	0x3ee8e83c	0.4548968
40	0xbd760038	-0.060058802
41	0x3dfe61f6	0.12421028
42	0x389eabb2	7.566008e-05
43	0x39b2469d	0.00034003417
44	0xb81865a5	-3.6334288e-05
45	0x360d15fe	2.1023438e-06
46	0xb9478b03	-0.00019029905
47	0x37d8f56b	2.5863488e-05
48	0x36d2d81e	6.283647e-06
49	0x392f273e	0.0001670392
50	0xb6c834f0	-5.966627e-06
51	0xb80d6166	-3.370773e-05
52	0x39445854	0.00018724921
53	0xb8f239a6	-0.00011550197
54	0xb894f02b	-7.101925e-05
55	0xb9bced57	-0.00036034986
56	0x384cd8b6	4.8839218e-05
57	0x391457bc	0.00014147063
58	0x39c46f69	0.0003746704
59	0x3500f029	4.8033195e-07
60	0xbd8b5ee0	-0.06805205
61	0xc025b6d4	-2.589284
62	0xc039e4d6	-2.904592
63	0x3dfc0b85	0.12306885
64	0xbe1e1250	-0.15436673
65	0x3e8f757e	0.28019327
66	0xb8397b99	-4.4222546e-05
67	0xb9a842e8	-0.00032093306
68	0x386d8320	5.6627323e-05
69	0x3f809877	1.0046529
70	0x3e69ccfc	0.22832102
71	0xbf254f8e	-0.64574516
72	0xb91d06b9	-0.00014975191
73	0xb9ce4582	-0.0003934317
74	0x374321f1	1.1630808e-05
75	0x3878eb72	5.9347083e-05
76	0x399228f8	0.00027877814
77	0xb7b23e4a	-2.124826e-05
78	0xb8173990	-3.6054815e-05
79	0x3950ecbd	0.00019924618
80	0xb8a4f6e2	-7.866115e-05
81	0x376c64fa	1.4090207e-05
82	0x3948868d	0.0001912361
83	0xb8201fac	-3.817647e-05
84	0xbe8263c8	-0.25466752
85	0x3e074050	0.13208127
86	0xbf63aa37	-0.889316
87	0x3f24ac83	0.6432573
88	0x3c5c94e8	0.013463236
89	0x3cba2ba5	0.02272589
90	0x392b3615	0.00016327978
91	0x39c25302	0.0003706441
92	0x378ce353	1.6795157e-05
93	0x3df8c12b	0.12146219
94	0xbe17e4af	-0.1483333
95	0x3e89716d	0.2684435
96	0xbdbb5934	-0.091478735
97	0x4008f445	2.139909
98	0xbe112aa4	-0.14176422
99	0x37d5fdba	2.550973e-05
100	0xb9584296	-0.0002062417
101	0x386c9b21	5.641126e-05
102	0x3d82814c	0.06372318
103	0xbd7633cc	-0.06010799
104	0x3dcfe79b	0.10151597
105	0x3dfb91d8	0.12283677
106	0xbe1d088a	-0.15335289
107	0x3e8e781e	0.27826017
108	0xb8ba8435	-8.8937966e-05
109	0xb9c414ea	-0.00037399615
110	0x381bd2bb	3.7151138e-05
111	0x4008b3e9	2.1359808
112	0x3eba79c6	0.3642103
113	0xbd3dede7	-0.04636946
114	0xb619b923	-2.290654e-06
115	0xb92d8edc	-0.00016551785
116	0x376dfaee	1.4184725e-05
117	0xbe195d06	-0.14976892
118	0xbdea6a9d	-0.11446116
119	0x3eb4cd16	0.35312718
120	0x3df42e31	0.11922873
121	0xbe152431	-0.14564587
122	0x3e865818	0.26239085
123	0x385ff78c	5.339789e-05
124	0x39a82cad	0.00032076743
125	0xb8587421	-5.1606567e-05
126	0x3da7a13d	0.08185051
127	0xbda787b8	-0.08180183
128	0x3e10b135	0.14130099
129	0x387a0faf	5.961925e-05
130	0x39bf8646	0.000365304
131	0xb889ddf9	-6.574015e-05
132	0x3dfa8cc2	0.12233879
133	0xbe1b0511	-0.15138651
134	0x3e8c7e9b	0.27440342
135	0x40048bef	2.0710409
136	0x3edff41d	0.4374093
137	0x3e241270	0.16022658
138	0x3df85ece	0.121274576
139	0xbe17444b	-0.14772145
140	0x3e88d3e6	0.26724166
141	0x37a7cfc0	2.0004692e-05
142	0xb93d31c4	-0.00018042984
143	0x38721ece	5.7725985e-05
144	0xbe1a63e5	-0.15077169
145	0xbf9e18a7	-1.2351273
146	0xc0829fc6	-4.0820036
147	0xb7a96875	-2.0195012e-05
148	0x39e857ac	0.0004431581
149	0xb96bfa4e	-0.00022504592
150	0x3e944176	0.28956193
151	0xbfba11e5	-1.4536711
152	0xbe257837	-0.1615914
153	0x394980b6	0.00019216802
154	0x39c6329a	0.00037803204
155	0x37d81031	2.5756746e-05
156	0xb8694f9e	-5.562568e-05
157	0xb975fedf	-0.00023459968
158	0xb64d9f3a	-3.0640063e-06
159	0xb865e7fd	-5.481391e-05
160	0xb9c0a95a	-0.0003674727
161	0x38725686	5.7777877e-05
162	0x38d06c5c	9.9383964e-05
163	0x39c400a2	0.00037384505
164	0xb7d81648	-2.5759582e-05
165	0x36d00ecd	6.200606e-06
166	0x394d1e09	0.00019561512
167	0xb75bdc73	-1.31047445e-05
168	0x3885100b	6.3449224e-05
169	0x39a7d690	0.00032012584
170	0xb82bf3ec	-4.0996747e-05
171	0xb7d2e3a2	-2.513995e-05
172	0x393c8338	0.0001797796
173	0xb88f8b36	-6.8447014e-05
174	0x3dd67341	0.10471202
175	0xbde9f3bf	-0.11423444
176	0x3e4edbe6	0.20201072
177	0x3fd9d812	1.7019064
178	0xbee22df0	-0.44175673
179	0xbf002271	-0.50052553

bias f4 [60]
0	0x3993c942	0.00028187974
1	0xbdd03df3	-0.10168066
2	0xbe8b449e	-0.27200788
3	0x393c2969	0.00017944504
4	0x3fc61f22	1.5478251
5	0xb9f05c1a	-0.00045844988
6	0xbd231dbf	-0.03982329
7	0xb8c866c1	-9.5558826e-05
8	0xbfd37093	-1.651873
9	0xbd9d7455	-0.07688204
10	0xbcee5f7e	-0.029098269
11	0xbdcf6aae	-0.101277694
12	0xb9c44a87	-0.0003743956
13	0xbdbaf5b9	-0.09128899
14	0x3988c88c	0.0002608936
15	0x38c48fa0	9.3727605e-05
16	0xb890bc7d	-6.901564e-05
17	0xb928bb67	-0.00016091541
18	0xb9a39357	-0.0003119956
19	0x3a0704fc	0.0005150584
20	0xbfceb62a	-1.6149342
21	0xbdd216ca	-0.10258253
22	0xb9227e2a	-0.00015496524
23	0xbe4c06f4	-0.19924527
24	0xba1e3f18	-0.00060366234
25	0x390cb68e	0.00013419447
26	0xb999ad08	-0.00029311352
27	0xb89a7107	-7.364345e-05
28	0x3f1895fb	0.5960385
29	0xbda3ed69	-0.08004267
30	0x3a0adfd0	0.0005297633
31	0xbdc92ae0	-0.09822631
32	0xbc95e1ce	-0.018296149
33	0x39b9a912	0.00035411917
34	0xbd6611c1	-0.056169275
35	0xbdd09106	-0.10183911
36	0xb9c809ac	-0.0003815418
37	0x3e9b3fc8	0.303221
38	0x389dade8	7.518736e-05
39	0xbaf46a24	-0.0018647355
40	0xbdc4c507	-0.096078925
41	0x39454722	0.00018813883
42	0xbd86c79d	-0.06581042
43	0x39a27257	0.00030984238
44	0xbdcd995c	-0.100390166
45	0x40107509	2.2571433
46	0xbdc84935	-0.09779588
47	0x39162f7e	0.00014322807
48	0xc0220717	-2.5316827
49	0x39a6ca09	0.00031812515
50	0xbd92d7be	-0.07170056
51	0x3a19c21f	0.0005865413
52	0xb8a428cf	-7.8277306e-05
53	0xb96f2ffd	-0.00022810693
54	0x39ccf7f1	0.00039094643
55	0xb89a29cc	-7.3510775e-05
56	0x395baffe	0.0002095103
57	0xb9281d8c	-0.00016032736
58	0xbda227b5	-0.0791773
59	0x3f17c201	0.592804

weight f4 [60, 60]
0	0x37d55f90	2.5436078e-05
1	0xb73fb5a3	-1.1426778e-05
2	0x3a58abe3	0.0008265359
3	0x3706bb1c	8.030587e-06
4	0xb9b00f65	-0.00033580806
5	0xb7ad55a7	-2.0663092e-05
6	0x396501f7	0.00021839874
7	0xb70de809	-8.45828e-06
8	0x3a2779db	0.00063887023
9	0x38ecbe80	0.0001128884
10	0x3977c24d	0.00023628138
11	0xb71ef4cf	-9.474533e-06
12	0xb7bd3a48	-2.2557695e-05
13	0x3985d240	0.00025524385
14	0x37964ade	1.7916256e-05
15	0x36c3a815	5.83102e-06
16	0xb63c1644	-2.8027143e-06
17	0xb7083137	-8.11769e-06
18	0xb7b19f85	-2.1174326e-05
19	0x37b050b9	2.1018424e-05
20	0xb85ec775	-5.3114683e-05
21	0xb781627c	-1.5423859e-05
22	0xb75b36be	-1.3066163e-05
23	0x38940cac	7.05955e-05
24	0xb7b3b9cf	-2.1424987e-05
25	0x37264910	9.911382e-06
26	0xb7d8219a	-2.5764853e-05
27	0xb6df7b6d	-6.6602865e-06
28	0xba2229d5	-0.0006186043
29	0x39aa0ef5	0.0003243607
30	0x37adbc61	2.0710928e-05
31	0x368fdeac	4.2876545e-06
32	0xb919d071	-0.00014668868
33	0x380fee46	3.4315766e-05
34	0x39483ee3	0.00019096913
35	0xb749e1e2	-1.2033126e-05
36	0xb7b54395	-2.1608352e-05
37	0x39ad3117	0.00033033706
38	0x3632219f	2.6543637e-06
39	0x39216759	0.00015392656
40	0x376e80f4	1.421593e-05
41	0x3779d3b6	1.4890849e-05
42	0x392be0b0	0.00016391533
43	0x37b4641d	2.1504291e-05
44	0xb6b98b6a	-5.5296596e-06
45	0xba252911	-0.000630037
46	0x36d65d31	6.388546e-06
47	0x3727d3b0	1.0003263e-05
48	0xba99e764	-0.0011741933
49	0x37fa6cc9	2.985298e-05
50	0x39deecd6	0.00042519596
51	0x37b9bac9	2.2140697e-05
52	0xb6c08bb0	-5.7383077e-06
53	0xb7922442	-1.742144e-05
54	0x37b8c600	2.202671e-05
55	0xb69de139	-4.705184e-06
56	0x37835e1b	1.5660238e-05
57	0xb737271b	-1.0916755e-05
58	0x38d38a96	0.00010087078
59	0xb9b019e0	-0.00033588614
60	0x39689d6e	0.00022183891
61	0x3d7bc7ab	0.061469715
62	0x3e9633c6	0.29336375
63	0xb860e145	-5.361556e-05
64	0xbf15977e	-0.58434284
65	0xb98514d7	-0.00025383264
66	0x3ca38ba4	0.019964047
67	0xb8c0a9db	-9.1869115e-05
68	0x3ebc1102	0.36731726
69	0x3d39e40f	0.04538351
70	0x3c6ec7e3	0.014574024
71	0x3d7ae945	0.06125762
72	0xb942dc74	-0.00018583407
73	0x3d24d80b	0.040245097
74	0x3921777e	0.00015398671
75	0xb8db2f5c	-0.00010451555
76	0x38bc1e0c	8.970135e-05
77	0x38a6ea22	7.9591075e-05
78	0xb9446913	-0.0001873116
79	0x39a63d2b	0.0003170756
80	0x3f32e885	0.69886047
81	0x3d7ddae6	0.061976336
82	0xb8eeaa1a	-0.00011380408
83	0x3dd52df4	0.104091555
84	0xb9cb6652	-0.00038795412
85	0x38a9d440	8.0980826e-05
86	0x388eb17f	6.804149e-05
87	0x39297222	0.00016159614
88	0xbdaf9358	-0.085730255
89	0x3ce747e5	0.028232524
90	0x39ab41cc	0.00032664684
91	0x3d73c626	0.05951514
92	0x3e34cbd4	0.1765588
93	0xb82ef553	-4.171331e-05
94	0x3cf43bb9	0.029813634
95	0x3d7c2dc6	0.06156709
96	0xb9775f35	-0.00023591223
97	0x3c0cab75	0.0085858
98	0xb8b7ed41	-8.770312e-05
99	0x3caf08eb	0.021366557
100	0x3d6e7cc6	0.058224462
101	0x38fb99a5	0.00011997231
102	0x3d16fd9e	0.036862962
103	0x3946e785	0.00018968999
104	0x3d78d744	0.06075217
105	0xbdaf3a2f	-0.085560195
106	0x3d72c3cd	0.05926876
107	0xb8def767	-0.00010631867
108	0x3f9be90f	1.2180499
109	0x39a8374c	0.00032084656
110	0x3e801683	0.25017175
111	0x39c13574	0.00036851654
112	0xb86c9288	-5.6403253e-05
113	0xb8f1d344	-0.00011531127
114	0x397089cc	0.00022939517
115	0x38d97923	0.0001036993
116	0x38fed2c0	0.00012150919
117	0x38d8b7fb	0.00010333952
118	0x3d40ddc8	0.047086507
119	0x3e7df68b	0.2480108
120	0xb94de64f	-0.0001963612
121	0x3c4dc8bf	0.012560069
122	0xbdd023bc	-0.10163066
123	0x3a03a9c1	0.0005022549
124	0x3e9dc762	0.3081618
125	0x39e1c435	0.0004306153
126	0x3be759b9	0.0070602563
127	0x38300f32	4.197582e-05
128	0x3e0f1666	0.13973388
129	0x3c47ac7a	0.012187118
130	0x3ba62545	0.005070361
131	0x3c4dede6	0.012568926
132	0x39ab4821	0.00032669402
133	0x3df95a20	0.12175393
134	0xb963f052	-0.00021737933
135	0x3811d0a4	3.4765006e-05
136	0xb74ee0af	-1.233087e-05
137	0xb9b4df4d	-0.00034498647
138	0x398e4863	0.00027138283
139	0xb9fdfcc6	-0.0004844425
140	0xbf57f855	-0.843633
141	0x3c4dae5e	0.012553779
142	0x38d3cf71	0.00010099903
143	0x3efe68f1	0.4968944
144	0x3a0e6633	0.0005432099
145	0xb8a32708	-7.779716e-05
146	0xb9e021d8	-0.00042749825
147	0x38c1ec36	9.246955e-05
148	0xbe2284f4	-0.1587103
149	0x3e65fd29	0.22459854
150	0xba0035fe	-0.0004890858
151	0x3c4e8e9f	0.012607246
152	0x3e8bc139	0.27295855
153	0x39f154c1	0.0004603025
154	0x3c216da7	0.009852803
155	0x3c4de7b5	0.01256745
156	0x39b7716b	0.00034988983
157	0x3f8ba1d2	1.0908759
158	0x381b2661	3.6990623e-05
159	0x3dcb13e6	0.09915905
160	0x3c4c6a5e	0.012476532
161	0xb90bae04	-0.00013320899
162	0x3c3790d0	0.01120396
163	0xb98a8e0f	-0.00026427253
164	0x3c4dfb3b	0.012572105
165	0x3ecedeff	0.40404508
166	0x3c4e8eff	0.012607335
167	0x3915a96b	0.0001427286
168	0xbf207ccb	-0.6269042
169	0xb968f22d	-0.00022215462
170	0xbe73a6b1	-0.23794056
171	0xba065bfc	-0.0005125401
172	0x37abc1ed	2.0475092e-05
173	0x3945b506	0.0001885482
174	0xb9bb5d78	-0.0003573706
175	0x36f31bec	7.245215e-06
176	0xb922698d	-0.00015488845
177	0xb94c6640	-0.00019493047
178	0x3c4981a9	0.01229898
179	0x3e7f9777	0.24960123
180	0x3946ce00	0.00018959492
181	0x3c73a097	0.014869831
182	0x3e40a587	0.18813144
183	0x3848a906	4.784113e-05
184	0x3c1064d4	0.008813102
185	0xb88484a5	-6.3189575e-05
186	0x3a996203	0.0011702183
187	0xb8b3965e	-8.563393e-05
188	0x3d55b1e2	0.052171595
189	0x3c1d22d8	0.009590827
190	0x39f13029	0.00046002984
191	0x3c72db56	0.014822802
192	0xb8c5ebf0	-9.437639e-05
193	0xbc18e5a1	-0.009332092
194	0x38c3a062	9.328198e-05
195	0xb74a345f	-1.2052332e-05
196	0x36c79da8	5.9490158e-06
197	0xb80d5ede	-3.370537e-05
198	0xb8d8c3df	-0.000103361665
199	0x385a2b82	5.201577e-05
200	0xbe0bff59	-0.13671626
201	0x3c75ceee	0.015002949
202	0xb8deb7c1	-0.00010620012
203	0xbd89b84c	-0.06724605
204	0xb87b4e4c	-5.9915983e-05
205	0x389d869c	7.511416e-05
206	0xb9151f76	-0.00014221467
207	0x3883688f	6.266042e-05
208	0xbcbc86da	-0.023013521
209	0xbca8a552	-0.020586643
210	0x382e86dc	4.161043e-05
211	0x3c6b0561	0.014344544
212	0x3c133aae	0.008986158
213	0x394dd03a	0.00019627894
214	0x3b6cff2a	0.0036162832
215	0x3c74202b	0.014900248
216	0xb8be168e	-9.064107e-05
217	0xbdbf30ae	-0.09335457
218	0xb6381bc5	-2.74343e-06
219	0x3cdd0851	0.026981505
220	0x3c66a40d	0.014077199
221	0x38d8fa12	0.00010346262
222	0x3bcab8d9	0.0061865863
223	0x38f15d2d	0.00011509131
224	0x3c7072ac	0.014675777
225	0xbda5f726	-0.081037804
226	0x3c69e007	0.014274604
227	0x370ccc5c	8.392231e-06
228	0xbd1f9665	-0.038961787
229	0x3972dbb5	0.00023160766
230	0x3debd1c3	0.11514618
231	0x38108eff	3.446545e-05
232	0xb853f128	-5.0530914e-05
233	0xb8dcca36	-0.00010528082
234	0x38ad02bf	8.249794e-05
235	0x37ac1352	2.0512995e-05
236	0x38c8d183	9.575768e-05
237	0xb7bc3410	-2.243559e-05
238	0x3c27d08d	0.0102425935
239	0xbdbfe44d	-0.09369717
240	0xb9a1bdaf	-0.00030849638
241	0xbdc24207	-0.0948525
242	0xbefd6e66	-0.4949829
243	0x399a86ee	0.000294737
244	0x3eff06c1	0.4980984
245	0x399b6aaa	0.00029643375
246	0xbd1fa627	-0.038976815
247	0x395cd207	0.00021059076
248	0xbf201931	-0.6253844
249	0xbd98501e	-0.07437156
250	0xbcf5c44e	-0.030000832
251	0xbdc1ae8c	-0.0945712
252	0x398adaf9	0.00026484558
253	0xbe171609	-0.147545
254	0xb9720181	-0.00023079479
255	0x398cd849	0.00026864026

bias f4 [60]
0	0xb8c88b6b	-9.562712e-05
1	0xbf2ca960	-0.67445946
2	0x3b722378	0.003694741
3	0x3d8b2b67	0.06795388
4	0x3fd9b71a	1.7009003
5	0xb9081e4b	-0.00012981256
6	0x37e93a30	2.780286e-05
7	0xbdad4a03	-0.08461382
8	0x391c992e	0.00014934383
9	0xbdb29bca	-0.08721121
10	0x3ae3baea	0.001737443
11	0x3ec10d9d	0.377057
12	0xbc9ff791	-0.019527229
13	0xb96a887b	-0.00022366822
14	0xb8cc059e	-9.728524e-05
15	0xb98f1cdb	-0.00027296584
16	0x3975bbf1	0.00023435034
17	0xbc16d1cc	-0.009205293
18	0xbe13e63a	-0.14443293
19	0x38ed593a	0.000113176604
20	0xb7972dd6	-1.8021947e-05
21	0xb87d3cb9	-6.0376453e-05
22	0x392db371	0.00016565413
23	0x3927f923	0.00016019172
24	0xb91ae539	-0.00014771977
25	0x3ead626d	0.33864155
26	0xbdea41bc	-0.11438319
27	0xb89e4b5d	-7.5480646e-05
28	0xb7fe07bf	-3.0282767e-05
29	0xb63d56cb	-2.8213715e-06
30	0xbf4a09b3	-0.7892105
31	0xbb8fbfda	-0.004386884
32	0x3dca3e88	0.09875208
33	0xbd7c05c4	-0.061528936
34	0x3ec0e76e	0.37676567
35	0x3cdd2b96	0.026998322
36	0x37067b38	8.0157115e-06
37	0xbd7042f6	-0.05865761
38	0x3e35999a	0.17734376
39	0xb94d1d3d	-0.00019561216
40	0xb93f1bc4	-0.00018225523
41	0x3f512046	0.8168987
42	0x38ad77ed	8.271621e-05
43	0x396c5610	0.00022538775
44	0xb8d94e56	-0.000103619575
45	0x38ec12a7	0.00011256831
46	0x375ee0b0	1.3284545e-05
47	0xbe8167fb	-0.25274643
48	0x397eabcb	0.00024287326
49	0xb93990d7	-0.00017696932
50	0x38baa562	8.899976e-05
51	0xb718e609	-9.113465e-06
52	0x3cff99dd	0.031201297
53	0x3942b835	0.00018569904
54	0x3886aa79	6.421371e-05
55	0x3ef31c68	0.4748261
56	0x3f857c0e	1.0428483
57	0x38ddaf2a	0.00010570728
58	0x38c44c65	9.360238e-05
59	0x3940aad1	0.00018374181

weight f4 [60, 60]
0	0x375b3f92	1.3068218e-05
1	0x379f190f	1.8965946e-05
2	0x39164be4	0.00014333386
3	0xb8bba870	-8.948229e-05
4	0xb8555f1f	-5.0871746e-05
5	0x371dc3df	9.403534e-06
6	0xb7369fc8	-1.0885247e-05
7	0x38e9c68f	0.0001114729
8	0xb76d3d1d	-1.414053e-05
9	0xb9c2075b	-0.00037008044
10	0xb910328d	-0.00013751742
11	0xb9bbbbf8	-0.00035807467
12	0x3851fd56	5.006542e-05
13	0x364840c6	2.9840025e-06
14	0xb79f85b6	-1.9016541e-05
15	0x37a7ef85	2.0019486e-05
16	0xb7654d86	-1.36675135e-05
17	0xb90a0168	-0.0001316123
18	0xb930588f	-0.00016817659
19	0xb78dd68b	-1.6908414e-05
20	0x37791b5f	1.4847929e-05
21	0x37374956	1.0924725e-05
22	0x37316955	1.0574547e-05
23	0x37aa2b23	2.0285666e-05
24	0x37689a9e	1.3864277e-05
25	0x391a553b	0.00014718335
26	0xb9c98f3f	-0.00038444434
27	0x3786ca25	1.6068176e-05
28	0x374b9ba9	1.2135985e-05
29	0x350497e3	4.9394856e-07
30	0x38df3ed1	0.00010645169
31	0xb92e6529	-0.00016631618
32	0x39746c3e	0.00023309977
33	0x399e938d	0.00030246042
34	0x38e7007c	0.000110150286
35	0x3952ac54	0.00020091358
36	0xb655ef46	-3.1878749e-06
37	0xb96db6bd	-0.00022670157
38	0xb71cbdd2	-9.342521e-06
39	0x37482e2e	1.1931681e-05
40	0x36e33989	6.771825e-06
41	0x385df0ae	5.2914656e-05
42	0x373f895c	1.1416469e-05
43	0xb766f198	-1.3765319e-05
44	0xb6c8d6f7	-5.9854897e-06
45	0x37b29a2c	2.1291045e-05
46	0xb78e0401	-1.6929584e-05
47	0xb855134b	-5.0801125e-05
48	0xb75c8f93	-1.314645e-05
49	0x35ccd1b2	1.5260214e-06
50	0x37539330	1.261085e-05
51	0xb767240c	-1.3777066e-05
52	0x39c224f2	0.0003703009
53	0x3588e2fe	1.0198853e-06
54	0xb762b965	-1.3513815e-05
55	0xb8576438	-5.135333e-05
56	0xb8f30867	-0.00011588708
57	0x3755b638	1.2738215e-05
58	0xb4d704eb	-4.005045e-07
59	0x35f7f168	1.8473193e-06
60	0x39cc189a	0.00038928242
61	0x3e81961d	0.2530984
62	0xbe558853	-0.20852785
63	0x3bf518a4	0.007479744
64	0xbe2fc72d	-0.17165823
65	0x393c41a1	0.00017953526
66	0x3969b3bb	0.00022287566
67	0x3e02c105	0.12768944
68	0xb9f440f3	-0.00046587698
69	0x3db14a91	0.086568005
70	0xbd8da022	-0.069153085
71	0x3de701ad	0.112796165
72	0x3bf4dbf7	0.007472511
73	0x3861ca05	5.3832326e-05
74	0xb934f8ea	-0.00017258865
75	0x3a50e6f7	0.0007968987
76	0xb971b664	-0.00023051497
77	0xbd848acf	-0.06471788
78	0xbe0fce32	-0.14043501
79	0x39645110	0.00021773973
80	0xb87f85ef	-6.0921473e-05
81	0xb98df7d4	-0.00027078262
82	0xb8ada9e5	-8.280928e-05
83	0x381607dd	3.577011e-05
84	0x3990fd95	0.00027654754
85	0xbd222e1d	-0.03959476
86	0xbe25d76e	-0.16195461
87	0x3a962753	0.0011455811
88	0xb900eeca	-0.00012295987
89	0xb8dcf710	-0.000105364365
90	0x3d698381	0.057010178
91	0xbcabc76c	-0.020969115
92	0x3dfc5ed6	0.12322776
93	0x3db187ac	0.086684555
94	0x3d9f5fcb	0.07781943
95	0x3dec48d8	0.11537331
96	0x395d0b01	0.00021080302
97	0xbd943e98	-0.07238501
98	0x3e14deb1	0.14538075
99	0x38f70496	0.00011778732
100	0x386f98b8	5.712427e-05
101	0x3e02c945	0.1277209
102	0xb911f05c	-0.00013917818
103	0xb9185e44	-0.00014530966
104	0xb8b32df1	-8.5439424e-05
105	0x386d878d	5.6631445e-05
106	0xb8d83a00	-0.00010310486
107	0x3e279067	0.16363679
108	0xb97eab7b	-0.00024287209
109	0x392bd47d	0.00016386989
110	0x38644a2e	5.442852e-05
111	0x39782f56	0.00023668757
112	0x3e200dfc	0.15630335
113	0xb7c2c65d	-2.3218972e-05
114	0x3922f72f	0.00015541607
115	0x3db3110e	0.08743487
116	0xbecd44a0	-0.4009142
117	0xb8ca1385	-9.6357464e-05
118	0xb960f3a4	-0.00021453068
119	0xb79804c8	-1.8122038e-05
120	0x37e9cdc8	2.7871589e-05
121	0xb886d8e5	-6.430018e-05
122	0xb819b159	-3.664321e-05
123	0xb76d31b1	-1.41378705e-05
124	0xb899319d	-7.30485e-05
125	0x375b8dfa	1.3086474e-05
126	0xb7b71776	-2.1826225e-05
127	0xb88e7d85	-6.7944675e-05
128	0xb7f7ab36	-2.952442e-05
129	0xb8df7f30	-0.00010657159
130	0xb94c3f2d	-0.00019478491
131	0xb89b40ac	-7.403022e-05
132	0x38e29cd7	0.000108057335
133	0x372d8b5f	1.0344053e-05
134	0xb80e08c9	-3.386362e-05
135	0x37f55052	2.9243678e-05
136	0xb7eca411	-2.8209792e-05
137	0xb9119fe7	-0.00013887846
138	0x37f9af66	2.976479e-05
139	0xb8031295	-3.125014e-05
140	0x37ec66b3	2.8181215e-05
141	0x37bc6285	2.2457223e-05
142	0x3785f73c	1.5969963e-05
143	0x3826ecfa	3.9798186e-05
144	0x37f4722f	2.9140238e-05
145	0x3931ed97	0.00016968545
146	0xb982388a	-0.00024837657
147	0x37e9b379	2.7859338e-05
148	0x37d9e73d	2.5976095e-05
149	0xb5d2cf92	-1.570663e-06
150	0x3840d24f	4.5972232e-05
151	0xb94251c9	-0.00018531749
152	0x396d9cf6	0.00022660554
153	0x399e5f08	0.00030206912
154	0xb7bfab34	-2.2848697e-05
155	0x3865573e	5.4679105e-05
156	0xb6d18980	-6.2446925e-06
157	0xb93997d2	-0.00017699532
158	0xb97ea11f	-0.0002428335
159	0x37ce26a2	2.4575103e-05
160	0x3791397d	1.7312117e-05
161	0x381c1a43	3.7217756e-05
162	0x37c8209b	2.3857041e-05
163	0xb7ebfb81	-2.8131299e-05
164	0xb734640f	-1.0752133e-05
165	0x382c64a5	4.1101728e-05
166	0xb7f0022f	-2.8611246e-05
167	0x38a1b2f4	7.710411e-05
168	0xb7e39b21	-2.7132746e-05
169	0x36fdd528	7.564802e-06
170	0x37a7433b	1.9939258e-05
171	0xb7d86451	-2.579592e-05
172	0x39d4106a	0.0004044802
173	0xb5c23686	-1.4469995e-06
174	0xb7d7dcb7	-2.5732776e-05
175	0xb8e0b230	-0.00010714342
176	0xb93197ca	-0.00016936581
177	0x37ed44c7	2.8284629e-05
178	0x3669adeb	3.482094e-06
179	0xb35c056f	-5.1227683e-08
180	0xb811c6b6	-3.4755758e-05
181	0x37a97362	2.02001e-05
182	0xb92e2e0d	-0.00016611088
183	0x39814d42	0.0002466236
184	0x3985d397	0.00025525384
185	0xb7e49af1	-2.7251868e-05
186	0x38031dbd	3.126053e-05
187	0xb8fd6956	-0.000120836004
188	0x381a95fd	3.685615e-05
189	0x39f8a83b	0.00047427588
190	0x39b50ff0	0.00034534885
191	0x394d841a	0.00019599535
192	0xb8d19a6c	-9.99466e-05
193	0xb747a2ac	-1.1899199e-05
194	0x3856c80d	5.1207888e-05
195	0xb85b3fb9	-5.2273015e-05
196	0x38113cd6	3.4627352e-05
197	0x3960d8a3	0.00021443008
198	0x398e9823	0.000271977
199	0x3840d768	4.597698e-05
200	0xb823232f	-3.8894996e-05
201	0xb7ff93af	-3.046714e-05
202	0xb7b44041	-2.1487593e-05
203	0xb87094a2	-5.7358884e-05
204	0xb81afcae	-3.6951787e-05
205	0xb9c63cd2	-0.00037810818
206	0x39d6fa1d	0.0004100361
207	0xb839227a	-4.4139546e-05
208	0xb81dd477	-3.762959e-05
209	0xb696c5d7	-4.49338e-06
210	0x38e148b9	0.00010742382
211	0x39abaa59	0.0003274258
212	0xb9a88b18	-0.0003214709
213	0xb9b6a9d4	-0.00034840277
214	0x38fce85d	0.000120595774
215	0xb997cf74	-0.0002895553
216	0x37bce53d	2.2518094e-05
217	0x3987a4c2	0.0002587196
218	0x388cef39	6.720279e-05
219	0xb8016530	-3.0850235e-05
220	0xb7ae2531	-2.0759735e-05
221	0xb9962885	-0.0002864042
222	0xb8119ea8	-3.4718454e-05
223	0x381365ff	3.5142522e-05
224	0x3794148b	1.7652541e-05
225	0xb8780ff1	-5.9142654e-05
226	0x383e3afd	4.5354467e-05
227	0xb991dff3	-0.0002782341
228	0x380af1a3	3.3126806e-05
229	0xb711a0ed	-8.680142e-06
230	0xb7f35a94	-2.9010036e-05
231	0x38200407	3.8150723e-05
232	0xb9f83dfc	-0.00047348428
233	0x35572cb0	8.015877e-07
234	0x380df941	3.3849155e-05
235	0x3871955c	5.759798e-05
236	0x396408ef	0.00021747102
237	0xb82bc0d0	-4.0949148e-05
238	0xb7bc61cb	-2.2456885e-05
239	0xb5a7ae03	-1.2493114e-06
240	0xb80429ed	-3.15103e-05
241	0xbd84afca	-0.064788416
242	0xbe416736	-0.18887028
243	0x3a90b981	0.0011041613
244	0x3db7e8f3	0.089799784
245	0xba1519f4	-0.0005687766
246	0xb93647a6	-0.00017383564
247	0xbcfb6234	-0.030686475
248	0xb8be5854	-9.0763584e-05
249	0xbe87750d	-0.2645649
250	0x3d8db595	0.069194
251	0xbcff75de	-0.031184133
252	0xbd7edb15	-0.06222065
253	0xb84f284a	-4.9390168e-05
254	0xb8f68bf9	-0.00011756266
255	0xba13f87d	-0.00056446326

bias f4 [60]
0	0xb95808b5	-0.00020602609
1	0x3bb9ef48	0.0056742765
2	0xb9261428	-0.00015838502
3	0x3983dd2b	0.0002515105
4	0x3e190350	0.1494267
5	0x3e343365	0.1759773
6	0x3e0abeea	0.1354939
7	0x37739a3f	1.4519842e-05
8	0x3e8d0567	0.27543184
9	0x3d8f5947	0.0699945
10	0x3d8cd0cd	0.06875763
11	0x3dd530e9	0.104097195
12	0x3740f54c	1.1501204e-05
13	0x3e4e05e5	0.20119436
14	0xb8f059fc	-0.00011460853
15	0xb80f4761	-3.4160334e-05
16	0x38f45659	0.0001165091
17	0x3dd01d5a	0.10161848
18	0x38ee3b42	0.00011359762
19	0x3d4231aa	0.047410645
20	0x3c903223	0.017602032
21	0xbd8a3293	-0.067479275
22	0x3cbc8abc	0.023015372
23	0x3e971545	0.29508415
24	0xb8f1c43f	-0.00011528329
25	0x3c397a36	0.011320641
26	0x3d49bd29	0.049252663
27	0xbbe075f0	-0.0068499967
28	0xb894149b	-7.061028e-05
29	0xbe1167b4	-0.14199716
30	0x3d6b29ea	0.05741302
31	0x3cc2ea14	0.023793258
32	0xb921c261	-0.00015426568
33	0x3e408b6f	0.1880319
34	0xb98334ef	-0.00025025706
35	0x390aab88	0.00013224606
36	0x3dd61039	0.10452313
37	0x3d0cad1b	0.034344774
38	0x391c1c18	0.00014887785
39	0x391e32fc	0.00015087047
40	0x3e6bbb51	0.23020674
41	0x3e047a2e	0.12937233
42	0x393977ea	0.00017687646
43	0x3d92f1bf	0.07175016
44	0xb9334e75	-0.00017099998
45	0x3da53852	0.08067383
46	0x3d4c0938	0.04981348
47	0xb7cad27f	-2.4178296e-05
48	0xb99bf5df	-0.00029747092
49	0x39640eb8	0.00021749258
50	0x381973b1	3.658579e-05
51	0x3922d3e3	0.00015528458
52	0xb93cdada	-0.00018010606
53	0x391c927c	0.00014931889
54	0x3e3f6335	0.18690188
55	0x391d9b7a	0.00015030606
56	0x3dd3e046	0.10345511
57	0x3dcf6c28	0.10128051
58	0xb95d8043	-0.00021123984
59	0xbb0f42fb	-0.0021859992

weight f4 [60, 60]
0	0xb60ce111	-2.0992632e-06
1	0xb7be5d0e	-2.2693097e-05
2	0xb6116d27	-2.1670219e-06
3	0x36c32838	5.816135e-06
4	0xb737a4db	-1.0946033e-05
5	0xb86c990c	-5.640932e-05
6	0xb7d28b90	-2.509894e-05
7	0xb5d91fa4	-1.6176969e-06
8	0xb81b78d7	-3.706742e-05
9	0xb82c1b4b	-4.1033414e-05
10	0xb5ac3d72	-1.2832882e-06
11	0x39394dbf	0.00017671938
12	0x36950d41	4.442089e-06
13	0xb7133e1c	-8.776344e-06
14	0xb5927c3c	-1.0914005e-06
15	0xb5dcd1c8	-1.6452332e-06
16	0x376c66a8	1.4090598e-05
17	0xb8870e18	-6.439927e-05
18	0xb60ec15f	-2.1272206e-06
19	0xb98bf944	-0.00026697863
20	0xb7946ba5	-1.76931e-05
21	0x38481700	4.7705136e-05
22	0xb930430a	-0.00016809642
23	0x38ff06ec	0.00012160637
24	0xb535d3e2	-6.7736084e-07
25	0xb730fe30	-1.05496e-05
26	0x394a1db3	0.00019275285
27	0x381f3879	3.796115e-05
28	0x3646fc0b	2.9651007e-06
29	0x38791721	5.9387767e-05
30	0xb7e7b153	-2.7619919e-05
31	0x38000a75	3.0527317e-05
32	0xb6774a92	-3.6849274e-06
33	0xb8f3c5f6	-0.00011624016
34	0xb56e5933	-8.879171e-07
35	0x364c4cfe	3.0443184e-06
36	0x387ba529	5.999688e-05
37	0xb85f3ce2	-5.3224045e-05
38	0x359060f7	1.0757057e-06
39	0x35a8da9d	1.25806e-06
40	0x38f9fc41	0.00011920231
41	0xb8eacf45	-0.000111965965
42	0x3623c805	2.440532e-06
43	0xb7dbaad1	-2.6186377e-05
44	0xb610d5dd	-2.1582157e-06
45	0x37ec6798	2.8181632e-05
46	0x38a476f3	7.8422854e-05
47	0xb632fd5f	-2.6671548e-06
48	0xb6ca27eb	-6.024716e-06
49	0x36bdbbd6	5.654506e-06
50	0x351844fd	5.6724804e-07
51	0x366a3fb4	3.4905797e-06
52	0xb6a52fc3	-4.9229434e-06
53	0xb589426d	-1.0226628e-06
54	0x378d1e87	1.6822725e-05
55	0x35caba18	1.5104333e-06
56	0x37bd1f1d	2.2545044e-05
57	0xb89cc0bb	-7.4745585e-05
58	0xb6b501c1	-5.3944245e-06
59	0xb86cb46e	-5.6434823e-05
60	0xb5fffba5	-1.9072219e-06
61	0xb7eb2229	-2.803009e-05
62	0xb606879e	-2.0046496e-06
63	0x36b03d2f	5.2523314e-06
64	0xb5dadd29	-1.6306632e-06
65	0xb85abfb5	-5.215379e-05
66	0xb7ea5edc	-2.7939146e-05
67	0xb5d3336d	-1.5735692e-06
68	0xb800264d	-3.055325e-05
69	0xb80f566b	-3.417434e-05
70	0xb5a7ab98	-1.249241e-06
71	0x39254d98	0.00015764532
72	0x368ad93a	4.138009e-06
73	0xb7c159da	-2.3049233e-05
74	0xb5865660	-1.0008916e-06
75	0xb5c8b998	-1.4955176e-06
76	0x3758f820	1.2932374e-05
77	0xb889f1e7	-6.577727e-05
78	0xb609de8e	-2.0544135e-06
79	0xb97ca162	-0.00024092713
80	0xb78b5f42	-1.661445e-05
81	0x3837f737	4.3860837e-05
82	0xb91e347f	-0.0001508761
83	0x38f30960	0.00011588889
84	0xb52afe1d	-6.369972e-07
85	0xb6f8fe10	-7.4205527e-06
86	0x393095cb	0.0001684047
87	0x380a8f49	3.303521e-05
88	0x36376e2a	2.733325e-06
89	0x3863baed	5.4295106e-05
90	0xb7c6f850	-2.3719069e-05
91	0x37d894d6	2.5818514e-05
92	0xb6626fbb	-3.374166e-06
93	0xb8eca944	-0.00011284885
94	0xb5546c08	-7.913336e-07
95	0x363ae502	2.784946e-06
96	0x38812f36	6.159993e-05
97	0xb847ba31	-4.76187e-05
98	0x358a9dda	1.0327742e-06
99	0x359c6e46	1.1655e-06
100	0x38d42aae	0.000101168975
101	0xb8d32642	-0.0001006839
102	0x3612ccdb	2.1874937e-06
103	0xb7bed0d3	-2.2747006e-05
104	0xb6051e01	-1.983601e-06
105	0x378a669b	1.6498661e-05
106	0x38a85431	8.026546e-05
107	0xb624a9ad	-2.4536669e-06
108	0xb6b83336	-5.489589e-06
109	0x36afac09	5.235434e-06
110	0x350bd473	5.209069e-07
111	0x365347ee	3.1483319e-06
112	0xb695b30a	-4.461389e-06
113	0xb572e877	-9.0490306e-07
114	0x3780a1da	1.5334157e-05
115	0x35b5382f	1.3501902e-06
116	0x37ac9882	2.0575015e-05
117	0xb883e3f4	-6.289026e-05
118	0xb6a4e96e	-4.9147557e-06
119	0xb81c3bdc	-3.7249047e-05
120	0x358a4f47	1.0304874e-06
121	0x38558e06	5.0915427e-05
122	0xb600b004	-1.917594e-06
123	0x36f72e80	7.366587e-06
124	0x3866aa28	5.4994744e-05
125	0xb966c592	-0.0002200811
126	0x393d05d8	0.00018026622
127	0x362e4b67	2.597191e-06
128	0x39320d11	0.0001698027
129	0xb8e326cc	-0.0001083143
130	0x38517ee5	4.9947663e-05
131	0xb7572329	-1.2823185e-05
132	0x37251156	9.838803e-06
133	0xb9cb4013	-0.00038766916
134	0xb4974e33	-2.818284e-07
135	0x361f8dba	2.3775342e-06
136	0x36187bec	2.2721897e-06
137	0xb82ef511	-4.171307e-05
138	0x36487e09	2.9875685e-06
139	0x393c07b1	0.00017931942
140	0xb7e994d8	-2.7845075e-05
141	0xb8d7504c	-0.00010266955
142	0x38dbb481	0.00010476355
143	0xb808e958	-3.2642245e-05
144	0xb2242777	-9.55503e-09
145	0x381fdb02	3.811252e-05
146	0x38d13341	9.9754434e-05
147	0xb814f447	-3.551345e-05
148	0x35ecad76	1.7633854e-06
149	0xb8fb9960	-0.00011997181
150	0x393aa290	0.00017798902
151	0x37c74b99	2.3757852e-05
152	0x362cafa7	2.573224e-06
153	0x399598e9	0.00028533422
154	0xb6932dbe	-4.3862665e-06
155	0xb646755a	-2.9572607e-06
156	0xb9794682	-0.00023772757
157	0xb88af6c0	-6.6263136e-05
158	0xb3fd80a8	-1.1804633e-07
159	0xb6242e21	-2.4464755e-06
160	0x38e58814	0.000109449174
161	0x3948f6ab	0.00019165377
162	0x36a02a56	4.7733e-06
163	0x38686a06	5.5411852e-05
164	0xb582576b	-9.711197e-07
165	0x36b59f18	5.4127413e-06
166	0xb9608f4b	-0.00021415685
167	0xb4f0cd3d	-4.4852814e-07
168	0xb641c7f7	-2.8875636e-06
169	0xb5fd28e4	-1.886187e-06
170	0x35e34daf	1.6935427e-06
171	0x35a8318a	1.2531393e-06
172	0xb69dd3c8	-4.703619e-06
173	0xb4c5a07b	-3.6810874e-07
174	0x38b75910	8.742709e-05
175	0xb53332ce	-6.6756627e-07
176	0xb9189580	-0.00014551543
177	0x385a208a	5.2005555e-05
178	0xb726fb36	-9.952861e-06
179	0xb89eca1f	-7.571675e-05
180	0x35049dfa	4.940372e-07
181	0xb84b1e07	-4.8426937e-05
182	0x342dc315	1.6182851e-07
183	0xb53cd047	-7.033854e-07
184	0x39340eaa	0.000171716
185	0xb8a06343	-7.6478835e-05
186	0x37a8548e	2.0066534e-05
187	0xb5c892d7	-1.4943897e-06
188	0x3835150d	4.3173368e-05
189	0xb3bfd75d	-8.933305e-08
190	0x389a80fc	7.3673174e-05
191	0xb788a5a1	-1.628959e-05
192	0xb688c310	-4.075824e-06
193	0xb8c404c5	-9.346897e-05
194	0x34f9235e	4.6405597e-07
195	0x34b0989e	3.2893598e-07
196	0x353f4969	7.125987e-07
197	0x38267a63	3.9691466e-05
198	0xb5d5709e	-1.5902513e-06
199	0x38c2d798	9.290798e-05
200	0x34230b4d	1.5184669e-07
201	0xb8b4bc10	-8.618098e-05
202	0x393a40f0	0.00017762533
203	0xb90a4006	-0.00013184556
204	0x31160714	2.1831896e-09
205	0xb8f164e0	-0.00011510565
206	0xb81deb4b	-3.765085e-05
207	0xb8056ca4	-3.181085e-05
208	0xb516f663	-5.6237894e-07
209	0xb8963704	-7.162805e-05
210	0xb8a3ce75	-7.810901e-05
211	0xb6250e7d	-2.459535e-06
212	0xb5224612	-6.045167e-07
213	0x391e976a	0.0001512446
214	0x34b2605c	3.3225194e-07
215	0xb506efbc	-5.026775e-07
216	0xb8ffd6aa	-0.00012199332
217	0xb76b4454	-1.4023e-05
218	0xb576a8c9	-9.1887756e-07
219	0xb63620b2	-2.7139145e-06
220	0xb8390ecd	-4.412122e-05
221	0x38287ed6	4.0172446e-05
222	0xb40f97a5	-1.3373081e-07
223	0xb8ba98fe	-8.897668e-05
224	0x34f8849a	4.629008e-07
225	0xb90febbb	-0.00013725359
226	0x3934258b	0.00017180124
227	0x33495f7f	4.6885813e-08
228	0x34d61982	3.9879166e-07
229	0x355b9464	8.1799794e-07
230	0xb40401c9	-1.2294107e-07
231	0xb4d68b9d	-3.9962188e-07
232	0x3510333c	5.3718736e-07
233	0xb4ea782d	-4.3673336e-07
234	0x38aca1d2	8.2317405e-05
235	0xb42d6add	-1.6150757e-07
236	0xb78d6769	-1.6856664e-05
237	0xb7cb2881	-2.4218347e-05
238	0x35913202	1.0817896e-06
239	0x38a5fce3	7.914917e-05
240	0xb5b9a054	-1.3830236e-06
241	0x39720cd8	0.00023083703
242	0xb615b821	-2.2309907e-06
243	0xb7e914fd	-2.7785538e-05
244	0xb9e0e4c7	-0.00042895062
245	0xbaf05336	-0.0018335346
246	0x39b1176a	0.00033777516
247	0x375dabec	1.3212655e-05
248	0x3a1b6145	0.0005927275
249	0x37f7cefa	2.9541075e-05
250	0xba00abc0	-0.0004908405
251	0xbacf7f7a	-0.0015830838
252	0x378f15c4	1.7057064e-05
253	0xba96e8a4	-0.0011513424
254	0x3630e216	2.6357643e-06
255	0x371b445d	9.254637e-06

bias f4 [60]
0	0xb8889455	-6.512614e-05
1	0xb856a9b5	-5.1179628e-05
2	0x3828ce38	4.0246377e-05
3	0x39817028	0.0002468836
4	0x372254a4	9.675659e-06
5	0x38e702f9	0.00011015492
6	0x3f488840	0.783329
7	0xb9525ac4	-0.00020060973
8	0x3977bef0	0.00023626885
9	0xb8b7c6bc	-8.763137e-05
10	0xb93b8fdb	-0.000178873
11	0xb78a00a3	-1.6451178e-05
12	0xb73b0a27	-1.1148432e-05
13	0xba763d6c	-0.0009393308
14	0x372a8e13	1.0165869e-05
15	0xb98f411c	-0.00027323596
16	0xbd467d62	-0.048459418
17	0xb760faca	-1.3409832e-05
18	0x390b42fc	0.00013281027
19	0xb6ab0b8e	-5.0975423e-06
20	0x38d57ce4	0.00010179894
21	0x3feaa084	1.8330235
22	0xb910effd	-0.00013822313
23	0x39560345	0.00020409848
24	0x389d0c94	7.488686e-05
25	0x3e0bdee4	0.13659245
26	0x385b34b6	5.226276e-05
27	0xb8567f18	-5.113994e-05
28	0xb912961a	-0.00013979562
29	0xb8c028ad	-9.16285e-05
30	0xb9a37761	-0.00031178727
31	0x39895cc1	0.00026199783
32	0x3e1c877d	0.1528606
33	0x375ae1de	1.3046401e-05
34	0x38154b1f	3.559433e-05
35	0xb7dec1b4	-2.6554662e-05
36	0xb83dcc91	-4.525163e-05
37	0x392daf7d	0.0001656394
38	0x398e5417	0.00027147002
39	0xb918ea4d	-0.00014583133
40	0xb8cc40a8	-9.739521e-05
41	0xb899de06	-7.3369636e-05
42	0xb62f79cb	-2.6147925e-06
43	0xb89639c4	-7.163317e-05
44	0x378135cf	1.5403055e-05
45	0x382bbd2e	4.0945764e-05
46	0x3e1dde6c	0.15416878
47	0xb880a887	-6.134906e-05
48	0x387f01c3	6.079838e-05
49	0x37507af4	1.2426393e-05
50	0x390d3805	0.00013467677
51	0x3e2cceed	0.16875811
52	0x38c4ffcc	9.393654e-05
53	0xb8ba3e8d	-8.880822e-05
54	0xb93e795b	-0.0001816502
55	0xb5680cef	-8.6445556e-07
56	0x38241cf9	3.912763e-05
57	0xb90c316a	-0.00013369849
58	0xb889aedf	-6.565241e-05
59	0xb780c5fc	-1.5350983e-05

weight f4 [60, 60]
0	0xaae654df	-4.0915098e-13
1	0xab050291	-4.7254654e-13
2	0xaf02b800	-1.1888801e-10
3	0x2e04c165	3.0185094e-11
4	0x2fb53e0f	3.2967803e-10
5	0xaf0eefc1	-1.3000002e-10
6	0x30086e75	4.963348e-10
7	0x2ca3d243	4.6560824e-12
8	0xaf7a6af5	-2.2775366e-10
9	0x2d525c51	1.1957616e-11
10	0xad1eb8f0	-9.0223246e-12
11	0x2d10a9f4	8.2231895e-12
12	0x2f3bda53	1.7085115e-10
13	0xb036e33f	-6.653415e-10
14	0xaf98a14d	-2.776325e-10
15	0x2ccf714d	5.8958728e-12
16	0xb13eeb66	-2.7782447e-09
17	0x2c2c67fd	2.4500395e-12
18	0xae60d734	-5.1122842e-11
19	0x2c42508a	2.7613766e-12
20	0xaebceda3	-8.591463e-11
21	0xb18b5a2f	-4.055685e-09
22	0xae5f5ab4	-5.078489e-11
23	0xae21c362	-3.6780697e-11
24	0x2f4a0239	1.8372583e-10
25	0xafe4d16a	-4.1621756e-10
26	0x2dabb5ac	1.9521128e-11
27	0xae2d62fa	-3.9423555e-11
28	0x2d1df450	8.978665e-12
29	0xae0b347b	-3.1651553e-11
30	0x2eef1b42	1.08733036e-10
31	0x2d36ae8d	1.038426e-11
32	0x302aa803	6.20844e-10
33	0x2d25c578	9.423011e-12
34	0x2d14b572	8.453115e-12
35	0xacd66388	-6.093296e-12
36	0x2f82239a	2.367216e-10
37	0xadcf6087	-2.3576042e-11
38	0xaf253007	-1.5023725e-10
39	0x3010b4df	5.264393e-10
40	0xadd19c21	-2.3829884e-11
41	0xacba2d70	-5.2914825e-12
42	0xae13d61b	-3.3614094e-11
43	0xad64bc95	-1.3002173e-11
44	0xaf2a7f10	-1.5506552e-10
45	0xaa27c8e6	-1.490228e-13
46	0x31f3f254	7.0997803e-09
47	0xae0dc872	-3.223772e-11
48	0x2f03a5f9	1.1973346e-10
49	0xade7d9f5	-2.6358452e-11
50	0xae3c0da5	-4.275837e-11
51	0x2f4c1caf	1.8563882e-10
52	0xafae24c3	-3.1676536e-10
53	0x2edaee8e	9.955868e-11
54	0x2c109323	2.0545308e-12
55	0xad675ed8	-1.3151889e-11
56	0x2cb111c4	5.032615e-12
57	0x2ec860fc	9.112175e-11
58	0xae2b6a04	-3.897506e-11
59	0x2e90610c	6.565601e-11
60	0x2ec5f839	9.002616e-11
61	0x2ec754ff	9.0645706e-11
62	0x2c6cbda7	3.3642895e-12
63	0x2d654ac2	1.30337425e-11
64	0x2ee344c5	1.0334981e-10
65	0xae66bfde	-5.2466358e-11
66	0x2fe20903	4.1115564e-10
67	0xaccebf38	-5.8761017e-12
68	0xaf73052b	-2.2102557e-10
69	0x2e149261	3.3781315e-11
70	0xadf7bd07	-2.8164594e-11
71	0x2d2b531b	9.738678e-12
72	0x2f99cd99	2.7976624e-10
73	0xb0375250	-6.6691985e-10
74	0xafd54e8c	-3.8800285e-10
75	0x2d13114d	8.359824e-12
76	0xb14617eb	-2.8826388e-09
77	0xae90377e	-6.558219e-11
78	0x2daa4bed	1.936048e-11
79	0x2c22c180	2.3128999e-12
80	0xaeaca9ef	-7.851841e-11
81	0xb183e518	-3.8386467e-09
82	0xaf133cd4	-1.3391183e-10
83	0xae424bd0	-4.4177828e-11
84	0x2e75c41c	5.588073e-11
85	0xb006eca1	-4.9085186e-10
86	0x2e5cc541	5.0197405e-11
87	0x2c8efc3e	4.0638872e-12
88	0x2dcf3d61	2.3560433e-11
89	0x2d6aa31e	1.3337579e-11
90	0x2f125986	1.3310428e-10
91	0xadf778b6	-2.8134255e-11
92	0x30275d8c	6.0887184e-10
93	0x2d34822f	1.0260722e-11
94	0xaf230513	-1.4826566e-10
95	0xabb90692	-1.3146864e-12
96	0xac3b4866	-2.6614488e-12
97	0x2b484d9e	7.116199e-13
98	0xae2378a3	-3.7169056e-11
99	0x30073516	4.9188154e-10
100	0x2efe3f75	1.1561855e-10
101	0xad4dc385	-1.1696315e-11
102	0xad548c74	-1.2081992e-11
103	0xad0753d1	-7.6924725e-12
104	0xaf089025	-1.2420338e-10
105	0xaf07f2ff	-1.2364508e-10
106	0x31ee81a4	6.94145e-09
107	0xadb8d0cc	-2.1011103e-11
108	0xae217cb9	-3.6717938e-11
109	0xae0b5c86	-3.1687118e-11
110	0x2c7e4fec	3.6139937e-12
111	0xae5bb8e2	-4.9959044e-11
112	0xaf946076	-2.6989583e-10
113	0xae0ce800	-3.2038372e-11
114	0xad03bcf0	-7.48844e-12
115	0xad61b49a	-1.2829871e-11
116	0x2eb6a831	8.3062786e-11
117	0x2f85da93	2.4347865e-10
118	0xaea583d1	-7.5267466e-11
119	0xae388484	-4.1954454e-11
120	0x33ab9f63	7.9918e-08
121	0x3368a105	5.4163156e-08
122	0x34d30ef7	3.93127e-07
123	0xb61d5ebc	-2.3449966e-06
124	0x36bbc360	5.595779e-06
125	0x352cfa39	6.4439115e-07
126	0x3902a317	0.00012458522
127	0xb52b2e67	-6.376999e-07
128	0xb53ae9ab	-6.963043e-07
129	0xb3d53871	-9.928852e-08
130	0xb516ae14	-5.613267e-07
131	0xb5873a4a	-1.0075248e-06
132	0xb5815484	-9.635846e-07
133	0xb722c11e	-9.700916e-06
134	0xb566cffc	-8.5984334e-07
135	0x36657840	3.4193654e-06
136	0x38d5e701	0.00010199659
137	0xb52cd221	-6.438077e-07
138	0x352fb08e	6.54495e-07
139	0x325a3116	1.2700431e-08
140	0xb4a49e4a	-3.066255e-07
141	0x38d29f69	0.00010043273
142	0xb62ff25d	-2.6218106e-06
143	0x35b70e60	1.3638746e-06
144	0x3377db1e	5.7708455e-08
145	0x37cfbdef	2.4764768e-05
146	0x35b91bbd	1.3791647e-06
147	0xb5b7bc16	-1.3689303e-06
148	0xb6ab7140	-5.109381e-06
149	0x36288725	2.5112615e-06
150	0xb468ddb6	-2.1687342e-07
151	0xb4d0a8c0	-3.88658e-07
152	0xb877f00d	-5.9112954e-05
153	0xb3a0093b	-7.4522596e-08
154	0xb599b9f5	-1.1453509e-06
155	0x350244a2	4.852865e-07
156	0x347c802f	2.3515962e-07
157	0xb4afd1e8	-3.2749017e-07
158	0xb6011eeb	-1.9240495e-06
159	0xb635f916	-2.7116089e-06
160	0x358ba9fd	1.040578e-06
161	0xb61cf739	-2.3389714e-06
162	0xb50cf0ba	-5.250437e-07
163	0xb6159d2e	-2.229422e-06
164	0xb5927b80	-1.0913791e-06
165	0xb52e0b44	-6.4836445e-07
166	0xb95b110c	-0.00020891818
167	0x35b98cf0	1.3824592e-06
168	0xb56a159b	-8.7203233e-07
169	0x34e16005	4.197938e-07
170	0x35e67150	1.7169314e-06
171	0x38703939	5.727375e-05
172	0x364854d3	2.9851697e-06
173	0x34aaeda2	3.1837868e-07
174	0x363a8b8a	2.7797382e-06
175	0xb2717d41	-1.4056526e-08
176	0xb5a0064b	-1.192276e-06
177	0xb5b3533b	-1.3360763e-06
178	0x34c175bd	3.6034717e-07
179	0x33a8a0ae	7.852337e-08
180	0x308fd812	1.046603e-09
181	0x308990f0	1.0009256e-09
182	0xb07270bf	-8.819931e-10
183	0xb01c802f	-5.693463e-10
184	0xb1fcc31b	-7.356346e-09
185	0xb0b89f54	-1.3433046e-09
186	0x3358b31c	5.0454318e-08
187	0x305128c3	7.6091683e-10
188	0xb0e4f241	-1.6658036e-09
189	0xb0f637c8	-1.791471e-09
190	0xb074251f	-8.8819435e-10
191	0xb124066f	-2.3868798e-09
192	0x304914bc	7.315284e-10
193	0xb2840ebc	-1.5373523e-08
194	0x30d3cb2e	1.5410018e-09
195	0x3098774b	1.1093361e-09
196	0xb3080970	-3.167355e-08
197	0x305f512f	8.1242296e-10
198	0x310650cb	1.9545492e-09
199	0x2d842f5b	1.5027693e-11
200	0xb09b49ab	-1.1298672e-09
201	0xb36fe960	-5.5858777e-08
202	0xb1e563d5	-6.6761268e-09
203	0xb127e2ec	-2.4430689e-09
204	0xb104756c	-1.9275275e-09
205	0xb2923d1b	-1.7024425e-08
206	0xb08f3190	-1.0418706e-09
207	0x3077abef	9.010241e-10
208	0x308c0580	1.0187904e-09
209	0xb0ab044c	-1.2443109e-09
210	0xb0b23015	-1.296487e-09
211	0x2f8cfd2d	2.5645744e-10
212	0x3340c946	4.488654e-08
213	0xaf1264b8	-1.3314405e-10
214	0x306d5a8d	8.634878e-10
215	0xb09a7fb4	-1.124127e-09
216	0x3061aa51	8.209656e-10
217	0x2fde3111	4.0416429e-10
218	0x3086476f	9.770086e-10
219	0xb1832156	-3.8163916e-09
220	0xb11d4bff	-2.2889706e-09
221	0x308c496a	1.0207206e-09
222	0x2e1d84ad	3.5815507e-11
223	0x303f3045	6.955399e-10
224	0x310e5797	2.0713509e-09
225	0x319f1b3e	4.630606e-09
226	0x34dda725	4.1286071e-07
227	0x3080f466	9.382688e-10
228	0xb06a36bd	-8.520649e-10
229	0xb0a1962b	-1.1756972e-09
230	0x3081ed45	9.453421e-10
231	0x337da0ca	5.905239e-08
232	0xb18a90bf	-4.0327843e-09
233	0xb0d584fb	-1.5535585e-09
234	0x2fc9ea67	3.672824e-10
235	0xaed0b51c	-9.4909164e-11
236	0x309742bf	1.1005666e-09
237	0xb1bc6837	-5.483368e-09
238	0x30add1c0	1.2647021e-09
239	0x30d1c256	1.5261985e-09
240	0xb2100484	-8.38293e-09
241	0xb1c5fc75	-5.7621556e-09
242	0x32ae4d86	2.029152e-08
243	0xb20a0d20	-8.0356415e-09
244	0xb2fc2831	-2.9354938e-08
245	0xb22f2fbd	-1.0197195e-08
246	0x353a9918	6.951318e-07
247	0xb122f677	-2.3714202e-09
248	0xb3025374	-3.0343884e-08
249	0x32a2e2f0	1.8962481e-08
250	0xb281cd78	-1.5111013e-08
251	0x329e7559	1.8446984e-08
252	0x32914e60	1.6915862e-08
253	0xb45c945c	-2.054307e-07
254	0x328d8ffe	1.648004e-08
255	0x324afa3d	1.1814845e-08

bias f4 [60]
0	0x3205ac70	7.780827e-09
1	0x32036be8	7.649739e-09
2	0xb8969bae	-7.181555e-05
3	0x3469fb8c	2.1791328e-07
4	0x354b7ba5	7.580332e-07
5	0x324ad321	1.1805953e-08
6	0xb496d560	-2.8094928e-07
7	0xb413a780	-1.3751378e-07
8	0x3dc4ff31	0.096189864
9	0xb6a6bfbe	-4.9695072e-06
10	0x3dc688cd	0.096940614
11	0x3dc5fa84	0.09666923
12	0x3dca4674	0.09876719
13	0xb5063c62	-5.000676e-07
14	0x3dc93cf6	0.098260805
15	0x30f30507	1.7682006e-09
16	0x38e390f1	0.00010851201
17	0x331d460d	3.6618122e-08
18	0xb31e0c67	-3.679852e-08
19	0xba06c011	-0.00051403145
20	0x39a47f59	0.000313754
21	0xb476fc1f	-2.3002256e-07
22	0x3dc5ff9d	0.09667895
23	0xb6307880	-2.6296184e-06
24	0x37815ac2	1.542026e-05
25	0xb590bb36	-1.0783322e-06
26	0xb36528bf	-5.3355276e-08
27	0x3dc8ec3d	0.09810684
28	0xb049d2b5	-7.3422807e-10
29	0x3149d403	2.9369864e-09
30	0xb8f972c9	-0.00011894626
31	0x3dc5ffe4	0.09667948
32	0x38745013	5.824871e-05
33	0xb9112710	-0.0001384283
34	0xb46760ef	-2.1548816e-07
35	0x384221b4	4.6284593e-05
36	0x344e6d97	1.9225114e-07
37	0x34bbcea3	3.4981812e-07
38	0x367fbb87	3.8107116e-06
39	0xb41a6282	-1.4378205e-07
40	0x37d1600a	2.4959463e-05
41	0x35bf3bf2	1.4248055e-06
42	0xb8ca7939	-9.65469e-05
43	0x3dc92793	0.09822001
44	0x34d40789	3.949356e-07
45	0x35446fe5	7.317852e-07
46	0x34c13a7a	3.59916e-07
47	0x39501b3c	0.00019846571
48	0x3dc6f58f	0.09714805
49	0x319c5fcc	4.5510884e-09
50	0xb3173799	-3.5207993e-08
51	0x3eed4e30	0.46348715
52	0x324229ce	1.13017915e-08
53	0x3dc79a7a	0.09746261
54	0xb693508c	-4.3903183e-06
55	0xb21d13fb	-9.143146e-09
56	0x37970e97	1.8007397e-05
57	0x34affd0a	3.27804e-07
58	0x3732da87	1.0660507e-05
59	0xb311915f	-3.3892658e-08

weight f4 [60, 60]
0	0xb1e00a20	-6.520409e-09
1	0x340fe226	1.3400185e-07
2	0x367026c8	3.578536e-06
3	0xa67b07b2	-8.709355e-16
4	0xb12c06b0	-2.5033096e-09
5	0xadbcc5f7	-2.146104e-11
6	0x3709b156	8.207126e-06
7	0xb0bd2f43	-1.3764992e-09
8	0x30a8a987	1.2271791e-09
9	0xb3e2643b	-1.0542177e-07
10	0x30be33e7	1.3839071e-09
11	0x30b387a6	1.3062518e-09
12	0x3101edc2	1.890712e-09
13	0x2da2fbd1	1.8529097e-11
14	0x30e6bf0b	1.6789e-09
15	0x3119422e	2.230205e-09
16	0xb12984e6	-2.466828e-09
17	0x37094cf9	8.183758e-06
18	0xb509e843	-5.137446e-07
19	0x314c9196	2.9768663e-09
20	0x368beeb0	4.1703097e-06
21	0xa989f5a5	-6.126635e-14
22	0x30b82628	1.3398607e-09
23	0x34de2074	4.1374335e-07
24	0xb67470d3	-3.6424506e-06
25	0xaa33648a	-1.5933275e-13
26	0x27843e65	3.670501e-15
27	0x30e0a560	1.6345147e-09
28	0xb3ee070b	-1.108402e-07
29	0x2e8fe9d7	6.5444254e-11
30	0x334f801e	4.8312465e-08
31	0x30b836a7	1.3403295e-09
32	0xb76fa610	-1.42841745e-05
33	0x32cf4dcb	2.4133348e-08
34	0xa8fc6ae7	-2.8023982e-14
35	0xb6bfef4f	-5.7201028e-06
36	0x2c380548	2.6150904e-12
37	0x29c3e9f6	8.7003253e-14
38	0x30b46c11	1.3127438e-09
39	0x2f1cea4e	1.4271359e-10
40	0xb1cb9a30	-5.9256067e-09
41	0xac055620	-1.8948246e-12
42	0x3233c0fa	1.0463049e-08
43	0x30e508b8	1.6664421e-09
44	0x32ae954c	2.0324158e-08
45	0x345fa0e3	2.0827024e-07
46	0xa9c14b36	-8.583969e-14
47	0x30b28d88	1.299143e-09
48	0x30c36b50	1.4218617e-09
49	0xa4ae4beb	-7.558908e-17
50	0x271e1eb1	2.1943543e-15
51	0x31c43398	5.7102163e-09
52	0x35a50e2b	1.2297581e-06
53	0xb1891b81	-3.9903516e-09
54	0x334f2d99	4.8237414e-08
55	0xa68091f1	-8.921342e-16
56	0x3601f47c	1.9364807e-06
57	0xa984c605	-5.8963285e-14
58	0xb0ddfaa0	-1.6151098e-09
59	0x30e83e12	1.6897863e-09
60	0xb186fc99	-3.9286303e-09
61	0xb1836570	-3.824134e-09
62	0x38fc8562	0.00012041141
63	0xb48cf254	-2.625335e-07
64	0xb621b0aa	-2.4093702e-06
65	0xb3e5467e	-1.0676466e-07
66	0x362da5da	2.5875547e-06
67	0x371359b4	8.782768e-06
68	0x3db9c76d	0.090712406
69	0x3593b3c7	1.1004676e-06
70	0x3db4bcb0	0.08825052
71	0x3db738d1	0.08946384
72	0x3da4d461	0.080483206
73	0x34b7d648	3.4242316e-07
74	0x3dab643f	0.0836873
75	0xb2018b80	-7.540507e-09
76	0xba68c934	-0.0008880079
77	0xb396b905	-7.018574e-08
78	0x350db87e	5.2795065e-07
79	0x3a94a480	0.0011340529
80	0xbaa0cd51	-0.001226822
81	0x34304b59	1.6418689e-07
82	0x3db62713	0.088941716
83	0x35843d77	9.852655e-07
84	0xb810930d	-3.4469227e-05
85	0x3524f3f7	6.1449776e-07
86	0x334709d8	4.634225e-08
87	0x3dacc80b	0.08436593
88	0x3291a707	1.6956177e-08
89	0x30339165	6.532644e-10
90	0x39939be7	0.0002815418
91	0x3db6239f	0.08893513
92	0x3a85d3cd	0.0010210216
93	0x3a8eb99b	0.0010889055
94	0x3340882f	4.4827342e-08
95	0x3a24613e	0.0006270594
96	0xb507dffe	-5.061737e-07
97	0xb4a4164d	-3.0563606e-07
98	0xb59faf12	-1.1897375e-06
99	0xb6aeaa84	-5.2054547e-06
100	0xb9452535	-0.00018801245
101	0xb797d2f5	-1.8098837e-05
102	0xb9523f22	-0.0002005068
103	0x3dabc7af	0.08387696
104	0xb3b64b69	-8.4887525e-08
105	0xb6e6ea17	-6.881786e-06
106	0xb5f29804	-1.8074647e-06
107	0xb9431b26	-0.00018606763
108	0x3db3857e	0.08765696
109	0xb11e70c7	-2.3056133e-09
110	0x329de524	1.8381407e-08
111	0x3e9bc0fb	0.3042067
112	0xb1c866b3	-5.8324416e-09
113	0x3e291228	0.16510832
114	0x35a2f445	1.2141032e-06
115	0x321f368f	9.267423e-09
116	0x399e78a5	0.00030225996
117	0xb4562774	-1.9944656e-07
118	0xb824c72f	-3.928615e-05
119	0x345eedc7	2.0761864e-07
120	0x36790674	3.7107648e-06
121	0xb2fff5b5	-2.9797642e-08
122	0xb12d3f4f	-2.52108e-09
123	0x2cbffc5e	5.456565e-12
124	0xb6a9f11b	-5.064661e-06
125	0xb0a7a219	-1.219692e-09
126	0xb32f233f	-4.077742e-08
127	0xb2dc7980	-2.5666623e-08
128	0x3698d773	4.5550346e-06
129	0x2ed86fdd	9.842414e-11
130	0x369a0164	4.5897195e-06
131	0x3699734e	4.5731786e-06
132	0x369e31fa	4.714585e-06
133	0x2d8aceb7	1.5780583e-11
134	0x369c6a19	4.6615137e-06
135	0x303840f5	6.703112e-10
136	0xb5bc774c	-1.4041811e-06
137	0xb72adb5c	-1.0183863e-05
138	0xb6a9999b	-5.0544745e-06
139	0x36327e9e	2.6597768e-06
140	0xb6843185	-3.9396714e-06
141	0x2cd601c0	6.08244e-12
142	0x3699a80c	4.5793186e-06
143	0xaf8b9b96	-2.5394503e-10
144	0x33004f1f	2.9874283e-08
145	0x2e445dfb	4.4648712e-11
146	0x2ca26358	4.6153463e-12
147	0x369c0bf5	4.6505543e-06
148	0xb367c081	-5.395896e-08
149	0xb47c0c94	-2.3473905e-07
150	0xb5cb8537	-1.5163449e-06
151	0x3699a8b3	4.5793945e-06
152	0x3620772f	2.3911232e-06
153	0xb537b56a	-6.8436805e-07
154	0xad46faa8	-1.1310654e-11
155	0x35c7eb6e	1.4895174e-06
156	0x37804e65	1.5295294e-05
157	0xadb117e2	-2.0133176e-11
158	0x2fa270c7	2.9547761e-10
159	0xb6484174	-2.984042e-06
160	0x33d46c24	9.89169e-08
161	0xb0a3af30	-1.1909602e-09
162	0xb58dcea9	-1.0565465e-06
163	0x369c4fd5	4.658456e-06
164	0x2daba571	1.951392e-11
165	0x3425afda	1.5430797e-07
166	0x2fc4d722	3.5805053e-10
167	0x34ffa4fc	4.7617493e-07
168	0x369a4f96	4.5988227e-06
169	0x2a98c258	2.7135477e-13
170	0xababa7b4	-1.2196828e-12
171	0x368ec640	4.255009e-06
172	0xb17dbef4	-3.692489e-09
173	0x36894fc8	4.092206e-06
174	0xb02833bf	-6.119158e-10
175	0x2aa7dba5	2.9817568e-13
176	0xb1d77bec	-6.271412e-09
177	0x2d2c653a	9.799545e-12
178	0x36bda18c	5.6514455e-06
179	0x311417b2	2.1550304e-09
180	0x255e5537	1.9284302e-16
181	0x256be3f4	2.0460234e-16
182	0x32360694	1.059529e-08
183	0xb1e1d53f	-6.572605e-09
184	0xb34a12f3	-4.7049024e-08
185	0x2b9e11cd	1.1231516e-12
186	0x2f02e159	1.190349e-10
187	0xb6e3ff69	-6.794861e-06
188	0x2eb9c4e9	8.447804e-11
189	0xb2a957ce	-1.9714118e-08
190	0x2efb24a6	1.14206686e-10
191	0x2edafe38	9.9586506e-11
192	0x2f6b6447	2.1408751e-10
193	0xb307e9b3	-3.1644685e-08
194	0x2f3d093d	1.7192732e-10
195	0xae0af469	-3.1594647e-11
196	0x3698a450	4.5490815e-06
197	0xaf69a696	-2.125041e-10
198	0x2e046c5f	3.0109578e-11
199	0xb1567a23	-3.1210525e-09
200	0xb0e26402	-1.6472088e-09
201	0xb1ccef43	-5.9643823e-09
202	0x2ee86fe4	1.0570014e-10
203	0xb2df4578	-2.5992207e-08
204	0x369e4de3	4.717834e-06
205	0xa82e1fd4	-9.665842e-15
206	0xb0661e47	-8.371654e-10
207	0x2f336709	1.631656e-10
208	0x2e80daa8	5.859607e-11
209	0x2d9f41c6	1.8105416e-11
210	0xafbe3b09	-3.4602746e-10
211	0x2ee89fc9	1.0578522e-10
212	0x3490000c	2.6822124e-07
213	0xb6b99aba	-5.531442e-06
214	0xa8d1e1c9	-2.330158e-14
215	0x2f82fca7	2.3826383e-10
216	0xaebef5f4	-8.68389e-11
217	0x35bb4381	1.3952232e-06
218	0x36b0dfaf	5.271249e-06
219	0xadf87a56	-2.8248664e-11
220	0x2fd30da2	3.8390363e-10
221	0x2b804fc6	9.117089e-13
222	0xb44d2163	-1.9104259e-07
223	0x2f3a54e0	1.6946755e-10
224	0x31212439	2.3449174e-09
225	0xae97b1a8	-6.898243e-11
226	0xa9a3d18a	-7.2750034e-14
227	0xab358dad	-6.450073e-13
228	0x2f05ac4d	1.2157493e-10
229	0xb23d1b9e	-1.1007527e-08
230	0x27ae326e	4.8349378e-15
231	0x2fd18c61	3.8116624e-10
232	0x25a69379	2.889634e-16
233	0xb0429991	-7.079502e-10
234	0xb5564e10	-7.983481e-07
235	0xb234ba9f	-1.0519812e-08
236	0x32ba8e4e	2.1717963e-08
237	0xb2969fc5	-1.7534953e-08
238	0x32c8feec	2.339899e-08
239	0xadcffc3f	-2.3645195e-11
240	0x2d2cdb7f	9.825806e-12
241	0xaf28923a	-1.5331461e-10
242	0x331427f0	3.4495258e-08
243	0xa9011ede	-2.8670527e-14
244	0x365572f0	3.1806376e-06
245	0xb3fd2909	-1.1788695e-07
246	0x33ddd13f	1.0329176e-07
247	0x3262db62	1.3204813e-08
248	0xb078acbf	-9.046736e-10
249	0x33e3d839	1.0609842e-07
250	0xb085d39c	-9.737167e-10
251	0xb0811ed6	-9.394749e-10
252	0xb0a4352d	-1.1947684e-09
253	0xb64fd943	-3.0971867e-06
254	0xb0978f6e	-1.1027461e-09
255	0x268ab8a3	9.625719e-16
