Total_RCS/epoch_1000_batch_100_lr_1e-2_ms_100_g_1e-2_wd_0_99/torch_model_3_GELU.pth (torch, 49095 bytes, 9 tensors)

weight f4 [60, 3]
000000 de 90 02 3b bd f6 9b 39 ed 4d f8 b9 56 72 85 be
       0.0019922773 0.00029747738 -0.00047360305 -0.26063794
000010 47 42 c2 bf 9b cc c1 bf 12 8b f9 3a 3c e5 f1 38
       -1.5176476 -1.5140566 0.0019038639 0.00011534474
000020 f3 06 cd b8 9e f5 09 bb 2c 5e f6 35 c7 49 28 3a
       -9.776456e-05 -0.002105094 1.8355836e-06 0.0006419685
000030 68 1e 49 40 80 ce 89 3e c6 7e ec bc a8 99 05 3b
       3.1424809 0.2691536 -0.028869044 0.0020385776
000040 e4 f1 85 39 04 f1 b7 b9 a7 92 0b 3b b5 0c ba b7
       0.0002554796 -0.0003508405 0.0021297128 -2.2178845e-05
000050 36 b3 21 ba f3 c4 d2 ba 8c e1 ad b9 45 7a a8 3a
       -0.0006168367 -0.0016080424 -0.00033165177 0.0012853822
000060 ff 07 64 3e 57 b6 08 c0 7c fa a5 bf 04 36 7d 3a
       0.22268675 -2.1361291 -1.2967067 0.0009659233
000070 99 24 4d b9 bf 10 cc b8 89 64 ff ba a1 60 43 b9
       -0.00019563957 -9.730597e-05 -0.0019484918 -0.00018632646
000080 1c 3d 74 39 45 65 ed ba f8 f3 25 b7 17 92 c8 b8
       0.00023292418 -0.0018111846 -9.89157e-06 -9.5639545e-05
000090 33 ec e5 3a d7 be 93 39 38 ec 87 ba 6c 54 f1 ba
       0.0017541706 0.00028180212 -0.0010370081 -0.0018412
0000a0 51 a5 a3 b9 90 2e 66 3a e9 5c 00 bb b5 65 8d b9
       -0.00031212953 0.0008780742 -0.0019586629 -0.00026969393
0000b0 f4 e8 9b 39 f0 b2 b1 3a cc f2 bf 37 74 a0 aa ba
       0.00029737467 0.0013557356 2.2882035e-05 -0.001301779
0000c0 da bc fd ba 79 ba 5b b9 96 a7 d7 39 dc c3 f7 ba
       -0.001935865 -0.00020954934 0.00041132857 -0.0018902975
0000d0 ae 8a 8f b9 e1 7d 41 3a 0c 96 f0 3a fb 78 a3 39
       -0.0002737841 0.0007381123 0.0018355264 0.0003117992
0000e0 06 d4 75 ba b6 2b ff 3a 87 b2 3e 39 04 f1 b1 b9
       -0.0009377602 0.0019467983 0.00018186319 -0.0003393964
0000f0 0b a8 39 be f8 74 4e c0 5e 11 9e c0 57 e8 fe ba
       -0.1813051 -3.2258892 -4.93962 -0.0019447905
000100 a9 81 66 b9 ed 7b df 39 cc ae f0 ba 96 f8 a2 b9
       -0.00021982811 0.00042626206 -0.001836264 -0.0003108426
000110 b6 fc 68 3a 10 d8 ea 3e 0a 2c 8e 3f f3 f9 03 3e
       0.00088877545 0.45867968 1.110719 0.12888317
000120 5c 4f f2 b9 64 65 8c 39 46 dc 81 b7 e6 71 86 3f
       -0.00046216964 0.00026778423 -1.5480571e-05 1.0503509
000130 81 93 d7 3e c7 f4 97 be 8b fa f2 ba 80 0d a3 b9
       0.42104724 -0.29678938 -0.0018537802 -0.0003109984
000140 88 35 61 3a 30 fd 4e 3e 14 13 2b 3d 86 dd 8f 3e
       0.00085910456 0.20213771 0.04176624 0.28098696
000150 bc c4 17 c0 b0 67 a4 bf b7 22 2e bf 32 8d f6 ba
       -2.3713827 -1.2844143 -0.6802172 -0.001881039
000160 9c 63 98 b9 33 07 4e 3a 56 3d fe ba 14 4f 2e b9
       -0.00029065914 0.0007859349 -0.0019396942 -0.00016623392
000170 16 38 dd 38 ed 1c 42 3e ad 45 52 3c ef e5 62 be
       0.00010548548 0.18956347 0.012833995 -0.22158025
000180 86 a1 c4 be ec dc f2 3f 50 91 98 3c 8c de fc ba
       -0.38404483 1.897367 0.018623978 -0.0019292398
000190 93 43 5d b9 f6 1c 85 39 84 9d f3 3a df 5e 7c 39
       -0.00021101376 0.00025389314 0.0018586372 0.00024067935
0001a0 d4 a0 49 ba 45 7b 04 40 7c a5 c1 bf 4f d5 a9 3d
       -0.0007691507 2.0700238 -1.5128627 0.082926385
0001b0 57 32 74 bf c5 ce 0b 3f e3 14 a8 bd 41 ed fd 3a
       -0.9538931 0.5461238 -0.08207109 0.0019373075
0001c0 c4 31 87 39 b1 2f 8c b9 0b 35 f0 be e6 19 43 3b
       0.00025786285 -0.00026738414 -0.4691547 0.0029770075
0001d0 51 3c 49 c0 68 5d a9 3a 2b 2a 81 38 ee 38 ac ba
       -3.1443064 0.0012921514 6.159054e-05 -0.0013139525
0001e0 a9 48 fa 3a f4 c1 99 39 f8 48 3f ba c0 24 1b 3a
       0.0019095141 0.0002932694 -0.0007296945 0.0005918257
0001f0 69 8e 7a b9 1b 39 42 38 dc 46 00 3b 62 df 85 39
       -0.0002389491 4.6306388e-05 0.0019573485 0.0002553417
000200 d2 89 a9 b9 be f5 fd 3a c2 07 3b 39 e6 0b b5 b9
       -0.00032336876 0.0019375605 0.000178366 -0.00034531875
000210 26 74 14 3e 02 04 a2 ba e8 9e 64 3e 5b 2b ee ba
       0.14497432 -0.0012360814 0.22326243 -0.001817088
000220 99 4f 10 b9 17 8b 8a 39 d3 ba 1e bb 70 fa 6b 3a
       -0.00013762563 0.0002642504 -0.0024220243 0.00090018567
000230 15 0e b0 ba d7 b1 fb ba 7d 85 78 b9 31 4a 8e 39
       -0.0013431931 -0.0019202781 -0.00023700851 0.00027139627
000240 72 ff 83 bd f0 d8 79 be 5c 46 e2 3e b3 88 65 bf
       -0.06445207 -0.24399161 0.44194305 -0.8966171
000250 1c a4 cb bf 8c c7 1c bf d3 c5 86 be ff d8 1c c0
       -1.5909457 -0.61241984 -0.26322803 -2.4507444
000260 42 b7 91 3d 1f 81 d9 ba 00 76 68 b8 f5 00 7e b9
       0.07115032 -0.0016594267 -5.5423006e-05 -0.00024223684
000270 f9 b8 f7 3a 4b a3 89 39 fc a5 48 ba 3b e8 67 bf
       0.0018899731 0.0002625234 -0.0007654128 -0.9058873
000280 67 21 d7 bf fc bd 6b bd d3 95 e6 3a 9d bb b2 38
       -1.6807069 -0.05755423 0.0017592259 8.522647e-05
000290 0b bb 8d b8 87 bd 41 bb 8f 77 79 3a da 32 98 ba
       -6.7582434e-05 -0.002956243 0.0009516412 -0.0011611835
0002a0 3b 86 1c bb 2b 4d a2 39 a7 9d 7b b9 65 58 ec ba
       -0.0023883719 0.00030956542 -0.00023995955 -0.0018031715
0002b0 25 1a fb b8 0e 79 0a 39 cc cf 94 bf ad ba be be
       -0.000119734825 0.00013205802 -1.1625915 -0.37251797
0002c0 09 38 b4 bd 9e 70 6a 3f 42 a5 ce be e3 7c 2d bf
       -0.0879975 0.9157809 -0.40360457 -0.67768687

bias f4 [60]
000000 25 cf d9 39 85 af e0 be 6a af eb 39 96 26 f1 39
       0.000415438 -0.4388391 0.00044953387 0.0004599585
000010 b0 00 fa 3f a8 4a fc 38 98 41 fd b9 ba 24 24 ba
       1.953146 0.00012030202 -0.00048304792 -0.0006261576
000020 26 e9 fc be f4 2d df b9 dd 1a fd b9 98 c0 60 39
       -0.49396628 -0.00042568112 -0.00048275935 0.00021434051
000030 c6 f8 20 3a c3 78 16 ba c8 fa 0c b9 4f a4 85 39
       0.0006140586 -0.0005740041 -0.00013444864 0.00025490156
000040 42 8f 11 ba b5 73 16 ba e5 df 0d 3a a1 f0 04 3a
       -0.0005552658 -0.00057392876 0.0005412086 0.0005071257
000050 5a b3 51 c0 3b 73 0f ba 3c 66 16 ba 74 d9 b4 bb
       -3.2765718 -0.0005472188 -0.000573728 -0.0055190865
000060 f1 ed 99 39 6a 60 a9 3c 69 c9 13 ba 69 ed a6 bd
       0.00029359714 0.020675857 -0.00056376174 -0.08150751
000070 78 07 2c c0 93 01 14 ba 2a b0 ac b9 ed 63 4f bc
       -2.6879559 -0.00056459865 -0.0003293765 -0.0126581015
000080 4f b8 1b be ca 79 63 b8 10 d5 1f 3a 28 c6 72 3f
       -0.15207027 -5.4234442e-05 0.00060971174 0.9483361
000090 5e 30 a2 bf 1c 7a 07 39 01 3a 17 c0 36 49 a3 39
       -1.267101 0.00012920093 -2.3629153 0.0003114433
0000a0 76 83 0e 3a 98 91 cf b9 4b 0c dc 38 2b c4 07 3a
       0.00054364593 -0.00039590592 0.00010492707 0.00051790726
0000b0 0f 2d 92 bd 69 fc 20 ba be f2 6f 3a 92 48 1a b9
       -0.071375005 -0.00061411277 0.0009153298 -0.00014713619
0000c0 d2 63 e8 3d 1b b1 8a bf e6 45 50 bf 66 49 cf b9
       0.11347164 -1.0835298 -0.81356657 -0.00039536803
0000d0 a2 cd 11 3a 88 34 e1 bf c7 25 97 b6 81 ca 69 3a
       0.0005561953 -1.7594156 -4.5045485e-06 0.000891842
0000e0 eb 68 d1 39 7a a8 12 ba 2b 9f 0a 40 09 cc fe 3d
       0.00039941756 -0.0005594563 2.1659648 0.1244126

weight f4 [60, 60]
000000 e4 4b c1 b7 93 b8 f7 b9 d0 ff bf b7 3a 38 c5 37
       -2.3042732e-05 -0.0004724903 -2.2888096e-05 2.3510413e-05
000010 7d fd 2d b9 61 de de b7 95 8e c2 b7 bf 7f 1b 37
       -0.00016592997 -2.6568016e-05 -2.3192997e-05 9.268463e-06
000020 22 42 5b b9 67 8f 25 37 92 cb c1 37 98 0a e0 37
       -0.00020910104 9.868155e-06 2.3102188e-05 2.6707814e-05
000030 4a ce 50 b7 8e 4d 80 37 cb 96 db 37 c7 ec 70 b7
       -1.24457965e-05 1.5294903e-05 2.6177053e-05 -1.4360244e-05
000040 e8 21 b1 37 25 7b 90 37 04 c2 7a b7 76 ca b8 b7
       2.1115833e-05 1.7223481e-05 -1.4946334e-05 -2.2028787e-05
000050 1e 46 e5 b9 af 64 b2 37 37 a5 7d 37 3e c3 08 3a
       -0.00043730525 2.1266138e-05 1.5118442e-05 0.00052170816
000060 b4 35 b1 b6 75 ca dd 39 52 de 83 37 de df ee 38
       -5.281263e-06 0.00042303247 1.5719943e-05 0.00011390423
000070 64 da da ba 13 c7 8c 37 ab de cf 37 e1 78 81 39
       -0.0016697166 1.6782002e-05 2.478001e-05 0.0002469486
000080 68 43 d6 b7 ef 34 d9 37 9f b3 87 b7 75 58 94 39
       -2.5542176e-05 2.5893065e-05 -1.6176897e-05 0.00028294665
000090 ba 2b 38 ba 24 fe dd b7 86 c0 02 ba 99 38 7a b7
       -0.0007025559 -2.6463596e-05 -0.00049877947 -1.4914339e-05
0000a0 6f 3a 97 b7 b7 9a 0f 37 2b 51 dc b7 f9 56 b6 b7
       -1.8027813e-05 8.559487e-06 -2.626384e-05 -2.173659e-05
0000b0 e1 e7 10 39 6f d2 a4 37 e2 ac 2e 36 c5 a0 db 37
       0.00013819292 1.9648314e-05 2.6028652e-06 2.6181699e-05
0000c0 1c fd f8 b8 b7 73 90 ba c3 00 0e ba 0a 41 a5 37
       -0.00011872707 -0.0011020814 -0.00054169836 1.9699819e-05
0000d0 b4 05 8f b7 1c 3a 50 38 6d f6 c9 b7 63 15 cb 37
       -1.7049584e-05 4.9645183e-05 -2.4075818e-05 2.4209445e-05
0000e0 71 d2 d4 37 14 42 ac 37 26 70 ad b9 be 6c ed 38
       2.5370364e-05 2.0534768e-05 -0.00033080688 0.000113212955
0000f0 bc ba e6 37 ab 95 03 3a f5 e1 e5 37 4a 9a e0 b7
       2.7505092e-05 0.00050195557 2.7404147e-05 -2.6774727e-05
000100 aa 4c 01 39 6f f8 0a 38 8b bd db 37 a1 67 6c b7
       0.00012330958 3.3133136e-05 2.6195097e-05 -1.4090824e-05
000110 a8 36 89 39 59 28 6b b7 7c 66 e7 b7 79 a2 11 b8
       0.00026171398 -1.4016486e-05 -2.7585069e-05 -3.472201e-05
000120 83 17 82 37 23 5c 97 b7 d3 af 0e b8 4b 9d 9d 37
       1.5508156e-05 -1.8043507e-05 -3.4019187e-05 1.8789104e-05
000130 6d 01 ce b7 3b c8 a6 b7 3d 15 96 37 a1 9a d9 37
       -2.4557778e-05 -1.9881982e-05 1.7891283e-05 2.594042e-05
000140 83 0c ba 39 4c d1 cf b7 bd 0d 96 b7 90 c8 09 ba
       0.00035486007 -2.4773784e-05 -1.788779e-05 -0.00052560214
000150 35 b2 05 37 87 13 fa b9 45 f7 9a b7 dc a1 16 b9
       7.96891e-06 -0.00047698265 -1.8473374e-05 -0.00014365412
000160 74 d0 09 3b cc 52 a3 b7 f8 42 00 b8 4a 13 a3 b9
       0.0021028789 -1.946967e-05 -3.0579948e-05 -0.00031104154
000170 bb 00 c3 38 32 db 0d b8 41 15 9c 37 cf a6 97 b9
       9.298461e-05 -3.382116e-05 1.8606546e-05 -0.00028925246
000180 f5 05 5f 3a 23 62 0c 38 7c f7 e7 39 dd 97 a8 37
       0.00085076626 3.3469998e-05 0.00044244144 2.0097877e-05
000190 fc 30 af 37 ed 9e 4f b7 63 52 0d 38 dd 08 d6 37
       2.0884436e-05 -1.2375164e-05 3.369375e-05 2.5514915e-05
0001a0 73 dd 34 b9 d6 ea bc b7 bf 76 d0 b6 16 d2 0b b8
       -0.00017248634 -2.25207e-05 -6.212707e-06 -3.333584e-05
0001b0 e0 d8 42 39 aa a7 b6 3a eb 70 4f 3a b0 74 c2 b7
       0.00018582074 0.0013935466 0.00079132494 -2.3180939e-05
0001c0 ee c0 a5 37 d6 20 36 38 ab dd 01 38 68 3f 4b b8
       1.9759373e-05 4.3422762e-05 3.096244e-05 -4.8458023e-05
0001d0 83 62 f3 b7 45 06 c9 b7 cb d2 e4 39 4a 58 27 b9
       -2.901373e-05 -2.3963987e-05 0.00043644602 -0.00015959251
0001e0 e6 5d 78 b9 c6 d6 3b be 19 16 1d b9 c4 a5 d9 39
       -0.00023686103 -0.18343648 -0.00014980919 0.0004151297
0001f0 89 f9 13 be c7 93 26 b9 b2 a6 de b9 49 e1 3b 3a
       -0.14450659 -0.00015886045 -0.00042467337 0.0007167054
000200 9e 8e 09 bf cb a8 a8 38 52 4f 50 39 7a 37 7b 38
       -0.5373324 8.0423044e-05 0.00019865975 5.989473e-05
000210 1f dc 1c ba 6b c5 02 3a 03 51 a2 38 13 a9 5d ba
       -0.00059837283 0.0004988524 7.7398516e-05 -0.0008455675
000220 4d 2e 94 39 78 63 e5 39 2c c1 06 ba bc 39 80 b9
       0.00028263257 0.00043752394 -0.0005140479 -0.00024457078
000230 d0 f0 99 bf 31 24 96 39 ce 48 04 3a 67 7a b8 3d
       -1.2026615 0.00028637194 0.0005046249 0.090077214
000240 8a d1 e5 b8 cf 41 bf be 8d 9a fe 39 39 63 f3 bd
       -0.000109586006 -0.37354895 0.00048561805 -0.118841596
000250 8c f0 33 bf 73 44 ee 39 60 7a 02 39 48 ad f5 bc
       -0.7028892 0.00045445896 0.00012443354 -0.029989854
000260 66 f1 b6 3e cb b4 b2 38 9d c7 f4 b9 ee 0c 52 3d
       0.35731047 8.521377e-05 -0.0004668803 0.051281862
000270 01 52 2a be 5c 25 2b b8 92 5a 98 bf 21 2b 5e ba
       -0.16632845 -4.080437e-05 -1.190264 -0.00084750546
000280 3e 4a d5 b9 da c3 1c 39 eb 2f 94 b8 88 e8 82 b9
       -0.0004068184 0.0001495028 -7.066115e-05 -0.00024968782
000290 19 a2 16 bd 70 d1 7c 39 ab 42 22 39 18 a7 c2 38
       -0.036775682 0.00024110614 0.0001547436 9.2817645e-05
0002a0 4a 7f 4b bc aa ba 80 bf 21 b3 60 bf 53 58 8a 37
       -0.012420485 -1.0056965 -0.8777333 1.6492011e-05
0002b0 4e 57 ec b9 18 09 80 be c2 61 ae b8 b0 0d 80 39
       -0.00045078475 -0.25006938 -8.3151754e-05 0.0002442426
0002c0 46 fc b5 38 04 b9 3d 39 9e b3 33 3f 98 87 4b be
       8.677742e-05 0.00018093368 0.7019595 -0.19875944
0002d0 64 b9 f6 b8 d5 25 19 3d 21 30 24 b9 de bd f9 39
       -0.00011764726 0.037389595 -0.00015658188 0.00047634443
0002e0 ab 62 47 3d 3b d2 6b b9 d2 08 04 ba aa 6c 05 b9
       0.04867808 -0.00022489663 -0.0005036715 -0.00012724349
0002f0 a9 28 c5 3d 62 fb 96 b9 f7 f6 10 39 e6 12 c7 39
       0.09626896 -0.00028797524 0.00013824912 0.00037970318
000300 54 fd 34 38 23 1d 6a 34 c9 ec 60 39 93 32 8a b8
       4.3151274e-05 2.1803548e-07 0.00021450514 -6.589773e-05
000310 eb 74 c4 38 8a f2 21 38 75 1a 00 37 98 4a f9 b8
       9.367786e-05 3.8611273e-05 7.6355545e-06 -0.000118871394
000320 49 82 f4 3d 75 09 c8 38 ef df cd b5 87 9d 12 3d
       0.119389124 9.538505e-05 -1.5338863e-06 0.03579476
000330 4d 7c 34 39 31 27 ae 3c e1 fd 05 37 c7 c0 21 3b
       0.00017212443 0.021258922 7.9865285e-06 0.0024681555
000340 89 f9 0a 3e b0 b6 e3 37 34 ac 4c 39 58 8d 71 3b
       0.13571753 2.714558e-05 0.00019519107 0.003685793
000350 e0 59 68 3c e1 07 77 39 67 40 b9 b7 35 16 a1 bd
       0.014181584 0.00023558691 -2.2083708e-05 -0.07865564
000360 99 1e d0 bc 63 e0 7a b9 d4 b6 b4 3d 43 90 6b b7
       -0.025405215 -0.00023925448 0.08823934 -1.404068e-05
000370 c1 19 28 b8 31 c9 69 b9 3f 80 6a b9 75 a3 ed b8
       -4.0078306e-05 -0.00022295561 -0.00022363754 -0.00011331487
000380 e8 86 a9 3a d7 e7 87 38 9c 29 7e 3a e9 fe 7f 39
       0.0012933882 6.480485e-05 0.00096955313 0.00024413657
000390 e4 5c b6 bc 13 0d c0 3d b6 d7 3a 3e 57 76 0e 39
       -0.02226109 0.09377494 0.1824635 0.0001358626
0003a0 ea a8 1b b8 d5 1f 84 3d 39 50 8b b9 2a 81 8a 3a
       -3.7112193e-05 0.06451384 -0.00026571917 0.0010567058
0003b0 7a 6d 2f 3a b3 f0 b9 38 61 79 32 be f6 20 67 3c
       0.00066920335 8.866321e-05 -0.17429115 0.01410698
0003c0 97 bd 29 3a 33 2e ba 3c e6 df 36 3a 23 f2 c3 ba
       0.00064750895 0.022727108 0.00069761125 -0.0014949482
0003d0 c6 8a cf bd e6 6a 70 3a 50 80 cc 3a f5 23 15 37
       -0.10133891 0.00091712025 0.0015602205 8.889464e-06
0003e0 f7 e3 f7 3d 98 94 6c 3a b1 4e 2d ba 31 e0 9d ba
       0.12104028 0.0009024828 -0.0006611152 -0.0012044964
0003f0 47 71 3d 39 d8 23 a7 b9 a1 d9 5c ba d8 74 b9 39
       0.00018066644 -0.00031879428 -0.0008424763 0.00035373005

bias f4 [60]
000000 ec 96 f4 b8 4b 10 2b 39 79 fc 9e 3f 0e 8f 8e bd
       -0.00011662938 0.000163139 1.2420799 -0.06960879
000010 1f 55 7d 3d 35 95 58 b9 fc e7 ad 39 ab af a7 b8
       0.061848756 -0.00020654949 0.00033169973 -7.995901e-05
000020 f5 aa 5a b9 9a 83 39 b9 a4 73 fc 3e 60 14 04 39
       -0.00020853787 -0.00017692 0.49306977 0.00012596091
000030 56 ea 2d b9 68 f2 2b b9 81 e4 1f 3f 84 84 05 be
       -0.00016585863 -0.00016398134 0.62458044 -0.13038832
000040 b9 2c 66 b9 30 7f 15 39 12 09 c7 b8 c0 45 ad 38
       -0.0002195117 0.00014257128 -9.490749e-05 8.262275e-05
000050 8b c0 8f b8 7d 40 2f b9 da 66 24 39 2a f8 b3 38
       -6.854635e-05 -0.00016713324 0.00015678574 8.581609e-05
000060 7d e9 62 b9 6e fe 3f b9 7b 71 dc b8 ec cb b3 bd
       -0.0002164002 -0.00018309962 -0.00010511555 -0.087791294
000070 61 0d 72 b9 df f0 4d 3e a6 7b 0b 3e c1 6e 65 b9
       -0.00023083902 0.20111416 0.13621387 -0.00021880401
000080 5b 01 6e 3e 58 82 a7 b9 1e 14 30 b9 20 72 41 b9
       0.23242705 -0.00031949836 -0.00016792162 -0.00018448429
000090 be cd be 38 91 a9 08 b9 51 86 4c b9 5a 4c 94 39
       9.0982285e-05 -0.00013033139 -0.00019504993 0.00028285646
0000a0 eb 95 ac bc ae 76 ed 3d de 07 46 3e e5 88 64 3f
       -0.02106758 0.11594902 0.19338939 0.89271384
0000b0 f7 57 ad 39 57 8a b0 3d d5 67 c0 b8 7d 00 2d b9
       0.0003306267 0.08620136 -9.174614e-05 -0.00016498748
0000c0 a6 98 91 b8 a0 05 3c b9 7f 06 b1 b8 53 ae a5 38
       -6.942572e-05 -0.00017931173 -8.441228e-05 7.9002835e-05
0000d0 99 9d b5 3d 4c 47 f6 bd 27 13 1a b9 6a 06 47 3e
       0.0886795 -0.120253175 -0.0001469372 0.1943604
0000e0 6c 7f 33 39 f2 74 84 be 41 58 2c b9 49 39 95 bd
       0.00017118239 -0.25870472 -0.00016436075 -0.07286317

weight f4 [60, 60]
000000 45 1a e5 b5 07 1a c5 b5 04 b6 c7 39 92 8b d2 b7
       -1.7069475e-06 -1.4685219e-06 0.0003809185 -2.5098943e-05
000010 a5 24 d3 b5 ea ec e3 35 ba 08 bb 36 35 e4 53 b6
       -1.573139e-06 1.6981769e-06 5.57405e-06 -3.1574284e-06
000020 20 c9 6a b6 98 1f b6 34 a6 a2 44 39 75 50 83 36
       -3.4985787e-06 3.392313e-07 0.00018752608 3.9134707e-06
000030 ec 3f d4 b5 80 a6 b4 b5 95 d0 1f 3a c9 63 3b b8
       -1.5813835e-06 -1.3459503e-06 0.000609645 -4.4677206e-05
000040 70 7f 6b 36 75 c0 15 35 7b 6e ea b5 b4 6c 43 36
       3.5091907e-06 5.578689e-07 -1.7466513e-06 2.9120538e-06
000050 2f ae 1d b6 fb 43 55 b5 dd 71 46 36 a9 76 d7 35
       -2.3496211e-06 -7.944761e-07 2.9570576e-06 1.6053283e-06
000060 1a 96 1a b5 c6 77 15 b6 de 44 70 b6 34 00 8c 37
       -5.7587897e-07 -2.2272447e-06 -3.5802873e-06 1.6689395e-05
000070 dd 48 44 b5 8b 4e 13 b8 8e de cd b7 b0 99 57 36
       -7.312172e-07 -3.512068e-05 -2.454154e-05 3.2126954e-06
000080 f3 c7 22 b8 d4 e8 05 b6 5d 75 85 34 53 ee 05 b6
       -3.8810027e-05 -1.9954068e-06 2.4858574e-07 -1.9957267e-06
000090 af 00 46 36 5f 88 bd b5 a1 fd d5 35 a6 c9 99 36
       2.9504697e-06 -1.4121287e-06 1.5943552e-06 4.5832303e-06
0000a0 e9 67 90 39 64 11 d4 b8 96 ab 3a 39 8c 07 be b9
       0.0002754324 -0.00010112187 0.00017802263 -0.00036245247
0000b0 ba ab bf 36 38 8b d6 b8 1a f7 74 b6 d5 88 99 b5
       5.712235e-06 -0.00010230247 -3.6502665e-06 -1.1439212e-06
0000c0 c4 56 1d b6 f5 e2 07 b6 49 e9 3a b6 83 22 13 36
       -2.3445327e-06 -2.0248674e-06 -2.785195e-06 2.1924795e-06
0000d0 46 7f 93 b7 23 c4 b1 b8 bb 5d 3f b5 68 51 c5 b7
       -1.7583032e-05 -8.476551e-05 -7.128944e-07 -2.3522138e-05
0000e0 f5 17 2e 36 57 c6 e5 b8 18 96 14 b6 d5 0e 8b b6
       2.5941965e-06 -0.000109565146 -2.2141085e-06 -4.1442495e-06
0000f0 5d 2b a4 b4 6f cc a5 34 77 1e 4e 38 dd 47 7c 36
       -3.057893e-07 3.088239e-07 4.91426e-05 3.7592756e-06
000100 27 90 cf 36 d5 8e 97 35 b9 33 10 b6 23 3b b2 b4
       6.1858623e-06 1.1291946e-06 -2.1487779e-06 -3.319811e-07
000110 3d c4 c1 35 25 e3 6e b4 54 e1 81 38 26 78 c1 34
       1.4436733e-06 -2.2248112e-07 6.19317e-05 3.603647e-07
000120 ca 90 05 b5 b5 0c ae 35 a1 c0 03 38 92 35 f0 36
       -4.9757057e-07 1.2967708e-06 3.1412234e-05 7.158794e-06
000130 c7 0f 29 35 a0 7b aa b5 38 82 89 b4 16 be cd 34
       6.2980365e-07 -1.2701967e-06 -2.5612985e-07 3.832253e-07
000140 82 0a 64 b4 1b f9 b1 35 c1 a3 0e 35 d2 cf 7b 34
       -2.1237977e-07 1.3260027e-06 5.3137416e-07 2.3451801e-07
000150 41 70 f9 34 ec 4f 0f 35 6e 49 b0 b4 2a 98 0f 37
       4.646154e-07 5.3387953e-07 -3.2835982e-07 8.558893e-06
000160 ea 13 99 35 56 70 12 b6 f6 b1 32 37 16 b7 29 35
       1.1405184e-06 -2.1821083e-06 1.06510615e-05 6.322383e-07
000170 14 87 51 b7 e7 4e d8 35 67 b2 80 b4 15 be 32 35
       -1.2488821e-05 1.6116218e-06 -2.3971663e-07 6.6586773e-07
000180 c6 7c d1 34 01 d1 a7 b4 fa 0e 91 b3 b3 d1 08 b6
       3.9020068e-07 -3.1258244e-07 -6.754813e-08 -2.038764e-06
000190 ed e7 5f b7 56 ce 17 35 18 28 cb 38 31 25 ff 34
       -1.3345835e-05 5.655214e-07 9.687262e-05 4.7524512e-07
0001a0 45 dd 10 b6 bf 8c f2 b7 19 9b 8c b4 41 17 b0 35
       -2.1586468e-06 -2.8914188e-05 -2.618988e-07 1.311979e-06
0001b0 bc 41 60 b4 c0 36 10 35 ed b8 a9 b4 de d2 86 34
       -2.088554e-07 5.372385e-07 -3.1613254e-07 2.511287e-07
0001c0 2b 72 f7 36 c7 c5 bc b7 fe a1 ad b4 34 39 34 35
       7.3744645e-06 -2.2503444e-05 -3.2341626e-07 6.7138467e-07
0001d0 cb eb 0b 35 9f e7 06 b8 71 ad f9 b4 db 51 18 37
       5.212466e-07 -3.2163804e-05 -4.650606e-07 9.0789645e-06
0001e0 be 42 15 b3 b4 ec 3e 33 05 56 d2 37 93 4d 3b 34
       -3.4752468e-08 4.4453103e-08 2.5074007e-05 1.7443953e-07
0001f0 22 dd 55 36 2d c1 a2 33 51 7b ae b3 54 a8 e5 b2
       3.186819e-06 7.578851e-08 -8.1249375e-08 -2.6735655e-08
000200 c1 0d 0b 34 c5 5f 1b b3 3a c4 39 37 68 36 1f 33
       1.2950387e-07 -3.617585e-08 1.1072547e-05 3.7069555e-08
000210 78 0a 1d b3 7b 65 0d 34 0c bf 0f b7 9e 0b 59 b3
       -3.6563932e-08 1.3168567e-07 -8.567946e-06 -5.0534815e-08
000220 6b 1f 5a 33 3e ce 2c b4 bb 75 dc b2 3e b6 4c 33
       5.0785655e-08 -1.6093779e-07 -2.5664908e-08 4.76632e-08
000230 2b 2f 92 b2 9f bb 0d 34 d3 f0 0a 33 a9 37 0c 33
       -1.7018086e-08 1.3199904e-07 3.2349657e-08 3.2646913e-08
000240 5e d6 d2 b2 52 0a fe 33 1c e7 ea b2 c1 c6 da b4
       -2.45447e-08 1.1829674e-07 -2.7346282e-08 -4.0750277e-07
000250 cd b5 c0 33 fe 4c 6d 35 3c a6 62 b6 ca 3b 1b 33
       8.973766e-08 8.840142e-07 -3.3773385e-06 3.6143128e-08
000260 7d b3 76 b6 e4 b2 55 b3 81 86 2a b3 97 80 3c 33
       -3.6761332e-06 -4.9755627e-08 -3.970354e-08 4.3889113e-08
000270 58 6b 33 33 04 43 27 b3 d0 65 c3 b2 85 79 4c b4
       4.1774314e-08 -3.8943668e-08 -2.2747287e-08 -1.9043189e-07
000280 63 17 f4 36 cc e4 37 35 0f 18 3c 37 10 07 e6 b5
       7.2744892e-06 6.8505756e-07 1.1211275e-05 -1.7138391e-06
000290 b7 e0 b4 b3 b7 69 4e b6 b7 7a cc b2 5c d2 0e 34
       -8.4227786e-08 -3.0757926e-06 -2.380453e-08 1.3301309e-07
0002a0 13 af 9e b2 b4 50 fd 33 b4 11 02 b3 d9 25 00 33
       -1.8473235e-08 1.17959104e-07 -3.0284085e-08 2.9836745e-08
0002b0 ba ec 1e 36 7d 30 bd b5 e0 8c 41 b3 68 7c f3 b6
       2.3681628e-06 -1.4095709e-06 -4.506444e-08 -7.256447e-06
0002c0 8e 9e 13 33 50 fb 47 36 fe 6a 13 b3 e8 de 10 34
       3.437031e-08 2.9799594e-06 -3.4323413e-08 1.3492138e-07
0002d0 51 54 be b1 f3 4e bd b3 62 3a 17 b8 57 54 db 35
       -5.5393135e-09 -8.815359e-08 -3.605558e-05 1.6341318e-06
0002e0 bc 32 2f 36 fa 26 d2 b3 28 ef 83 b4 92 0e 15 31
       2.6106563e-06 -9.785977e-08 -2.457466e-07 2.1690636e-09
0002f0 c6 db a8 b3 79 6d 4c b2 ea 39 9b b8 d6 b4 2c 34
       -7.863086e-08 -1.1899254e-08 -7.401763e-05 1.6084536e-07
000300 e8 72 cb 33 88 97 52 b4 31 ab 06 38 a8 1f ac 37
       9.4738255e-08 -1.9612901e-07 3.2107524e-05 2.0518739e-05
000310 e3 26 d9 b2 b9 58 86 34 b7 60 1d 33 6c 50 15 33
       -2.5279808e-08 2.5024e-07 3.6642373e-08 3.476491e-08
000320 f8 4c 26 33 01 d6 4f b4 4a 04 bf b2 f2 49 a9 b3
       3.871989e-08 -1.9356231e-07 -2.2237277e-08 -7.883126e-08
000330 ac 1f 34 34 84 12 2f b3 ec 7b 37 b3 1d d1 b5 b6
       1.6775329e-07 -4.0762203e-08 -4.2720714e-08 -5.4185643e-06
000340 f2 02 3d 34 85 b2 d9 36 cf 4e 50 b7 c3 ae 0c b3
       1.7603068e-07 6.4878864e-06 -1.2416115e-05 -3.2755235e-08
000350 88 a5 0c 36 85 dc 7b b4 88 58 01 b1 9a 79 bb 33
       2.0957978e-06 -2.3456421e-07 -1.8822295e-09 8.729985e-08
000360 86 f6 4e b3 66 ef a6 b2 15 51 e4 b1 ee db 05 b4
       -4.8187324e-08 -1.943381e-08 -6.6448913e-09 -1.24666e-07
000370 09 b4 47 b7 9f ba 56 37 6d 45 90 b8 49 9d c8 37
       -1.1903242e-05 1.2798845e-05 -6.879387e-05 2.39151e-05
000380 2a 63 79 b4 ff c0 98 37 f1 78 95 b3 86 dc 51 b4
       -2.3226008e-07 1.8209683e-05 -6.960352e-08 -1.9544868e-07
000390 28 a9 28 33 76 58 5a b3 36 73 d8 32 3a 33 0f b3
       3.9269395e-08 -5.0837535e-08 2.5198101e-08 -3.3341372e-08
0003a0 62 37 26 36 9c c4 25 37 18 e1 f0 b1 d5 20 ee b7
       2.4768165e-06 9.880543e-06 -7.0105095e-09 -2.83871e-05
0003b0 9a e0 65 32 98 37 42 38 30 40 82 33 bd 44 57 b5
       1.3380623e-08 4.630498e-05 6.0652724e-08 -8.019377e-07
0003c0 26 0f 85 b5 20 f7 eb 34 56 c0 19 b9 2b 66 8f 37
       -9.913681e-07 4.3951968e-07 -0.00014662868 1.7094504e-05
0003d0 99 0b 94 b6 ef ae a9 b2 1c 19 6f b6 14 75 c4 b5
       -4.412094e-06 -1.975374e-08 -3.562839e-06 -1.4637212e-06
0003e0 b8 b5 9a b5 a8 8d 0a b5 84 4d f6 b8 1e 72 ea 35
       -1.1526781e-06 -5.1615143e-07 -0.000117446325 1.7467571e-06
0003f0 7a fd a1 b5 b9 56 bd b5 2a 17 33 b9 47 cf 71 38
       -1.2069206e-06 -1.4106837e-06 -0.000170794 5.765192e-05

bias f4 [60]
000000 db 9e d1 38 08 8e 1b 36 09 f4 92 b6 37 05 33 b7
       9.995486e-05 2.3179473e-06 -4.3795485e-06 -1.0670446e-05
000010 87 00 b5 b8 75 53 b8 37 6c 24 09 38 36 6f 87 b9
       -8.630851e-05 2.1973372e-05 3.2697266e-05 -0.00025832065
000020 b0 db fa b7 8b 28 0e 37 96 35 e0 b8 cb b2 f9 37
       -2.9904622e-05 8.473299e-06 -0.000106911335 2.976637e-05
000030 47 7b 92 b9 65 55 8c b6 9b f1 b0 b8 df 2f b0 b8
       -0.0002793914 -4.1822664e-06 -8.4373365e-05 -8.401251e-05
000040 c7 ae c5 36 69 47 b7 b8 b8 72 fa b7 8f 68 a8 b8
       5.8914043e-06 -8.739421e-05 -2.9855742e-05 -8.03034e-05
000050 a1 0b 93 37 fb df 60 37 4d 46 3f 37 73 31 ce b6
       1.752918e-05 1.340359e-05 1.1400855e-05 -6.145035e-06
000060 39 54 f4 38 e2 38 a4 b8 00 14 c3 38 b6 13 b0 b6
       0.00011650514 -7.830725e-05 9.30205e-05 -5.2475034e-06
000070 e9 54 a5 38 bc dd b9 36 e7 87 53 39 bc ce d2 37
       7.883629e-05 5.539243e-06 0.00020173156 2.5130219e-05
000080 c3 fd e6 38 cc f6 5c b8 c5 b0 9f b8 3f e0 67 37
       0.000110145214 -5.2681935e-05 -7.614637e-05 1.3820884e-05
000090 b3 7c d8 36 f1 37 e9 3e bd 0f 7b b6 6e fe ce b8
       6.4518185e-06 0.45550492 -3.7411075e-06 -9.870237e-05
0000a0 86 80 7f 38 bb bc 63 b7 6a 29 bd b7 5e 23 58 38
       6.0916434e-05 -1.3574197e-05 -2.254984e-05 5.153135e-05
0000b0 e5 32 9d b8 d4 17 cc 3e 4a 56 d3 b6 f7 4e a3 b6
       -7.495823e-05 0.3986193 -6.2983354e-06 -4.8669713e-06
0000c0 40 70 0e 38 9b 50 ee 36 2f 51 f5 37 69 18 a9 b6
       3.395998e-05 7.1023364e-06 2.924408e-05 -5.039434e-06
0000d0 74 8c 52 38 41 7b 9d b8 be ea a9 37 5d f8 dc 38
       5.019871e-05 -7.509301e-05 2.025568e-05 0.00010536679
0000e0 17 e6 86 b9 70 7b 6e 36 07 41 dc 34 80 57 af be
       -0.00025729902 3.5536614e-06 4.1025507e-07 -0.34246445

weight f4 [60, 60]
000000 6a b9 d3 b6 59 ec 77 30 4f ec 3c 31 55 2b ba 2e
       -6.309875e-06 9.0193947e-10 2.7491927e-09 8.465998e-11
000010 c7 8e 4b b2 0e b1 91 33 cc ec fd b4 b0 00 b8 33
       -1.1848619e-08 6.784295e-08 -4.7297215e-07 8.568293e-08
000020 1b a9 a7 31 f6 c3 59 b5 50 b3 9a 2f 5c b9 5f 2d
       4.8795648e-09 -8.112396e-07 2.8139846e-10 1.27172405e-11
000030 ce 11 6d b4 2a 44 d0 30 08 33 b4 b3 54 9e be 30
       -2.2078822e-07 1.5153365e-09 -8.391186e-08 1.3869319e-09
000040 c6 86 2f b4 b8 ba bd b6 ce 02 cf 32 01 a0 33 b3
       -1.6347175e-07 -5.654376e-06 2.4099247e-08 -4.1822208e-08
000050 96 b7 19 2d 4e 21 1c b2 d6 c8 97 32 a8 5d 01 b0
       8.737807e-12 -9.087968e-09 1.7670043e-08 -4.706302e-10
000060 62 ec 30 36 c4 d5 2a b1 0e b5 d3 b2 bc 39 27 b0
       2.6363637e-06 -2.4859768e-09 -2.4645967e-08 -6.083629e-10
000070 3b cf 12 b1 30 8b aa 33 73 08 ff b3 d8 20 cd ac
       -2.1363593e-09 7.94156e-08 -1.18759e-07 -5.830097e-12
000080 c4 30 f6 b6 23 aa 9c b0 68 7d 4d 33 55 54 3b 35
       -7.3370484e-06 -1.139885e-09 4.784434e-08 6.978565e-07
000090 84 f1 e8 b3 21 13 05 32 e1 e2 62 32 bd c6 55 b1
       -1.0847273e-07 7.745968e-09 1.3206518e-08 -3.110855e-09
0000a0 dc 65 31 b2 a3 0a a2 ac 0e 11 aa b1 e0 c5 52 b6
       -1.0325916e-08 -4.605498e-12 -4.94959e-09 -3.1407617e-06
0000b0 11 04 2a b6 13 24 39 b1 d6 e4 73 af 9b ba 86 36
       -2.533434e-06 -2.694155e-09 -2.218202e-10 4.015235e-06
0000c0 e5 41 81 37 25 ba d4 b0 72 e9 f4 36 f6 bc e1 31
       1.5408683e-05 -1.5477936e-09 7.2989433e-06 6.5698442e-09
0000d0 90 5f 91 b2 08 7c 57 b2 41 ae d8 b6 40 ad 17 32
       -1.6923678e-08 -1.25428485e-08 -6.4575875e-06 8.828749e-09
0000e0 48 e4 21 36 04 5d 11 36 43 7b 7f 30 a6 81 99 b0
       2.4123747e-06 2.1660826e-06 9.2943625e-10 -1.1169063e-09
0000f0 c0 b6 f0 b1 40 36 38 b3 20 16 29 b0 26 36 f7 b2
       -7.0056956e-09 -4.289018e-08 -6.1513283e-10 -2.8779208e-08
000100 5d ff 6f b3 88 70 96 b2 cc da 65 b2 d7 ba e3 ae
       -5.5878775e-08 -1.7513472e-08 -1.3379303e-08 -1.0355954e-10
000110 e3 fe c0 32 0e 14 a8 b2 c2 8c bc 32 ae 5c 9e b0
       2.246765e-08 -1.9566894e-08 2.195009e-08 -1.1522354e-09
000120 35 24 0c 33 df 82 a2 31 4f f0 8a b1 1e 0a 9c 33
       3.262922e-08 4.729699e-09 -4.0436485e-09 7.2661564e-08
000130 87 8c 04 b5 ac 34 8c 33 91 91 fb 31 06 84 59 33
       -4.9378326e-07 6.528839e-08 7.3216104e-09 5.0644324e-08
000140 59 50 f7 32 21 5f e7 31 f6 e6 00 32 c8 db 1a b5
       2.8791122e-08 6.7337997e-09 7.503095e-09 -5.7689294e-07
000150 21 4c 96 32 7a 55 61 33 14 d7 9b b3 c2 9c f3 30
       1.7496918e-08 5.2464635e-08 -7.2568724e-08 1.772513e-09
000160 51 68 b2 b2 4d 31 8e 34 7f 77 32 34 b6 8a 1f b2
       -2.0769365e-08 2.6485432e-07 1.6621014e-07 -9.286557e-09
000170 b9 49 4a b3 da 39 0a b4 02 49 bb 33 3a 33 ff b1
       -4.709884e-08 -1.2873298e-07 8.721146e-08 -7.4273006e-09
000180 72 0f c0 b3 47 7c 2c b6 06 88 96 32 c3 cf 1d 33
       -8.943506e-08 -2.5702336e-06 1.7524155e-08 3.674337e-08
000190 cc 70 37 b2 3a 1c d2 b1 90 bf b7 31 29 51 a3 32
       -1.0677649e-08 -6.1150134e-09 5.347779e-09 1.9012605e-08
0001a0 8b 78 cd 32 b0 8e 2e 35 da ac e0 b3 2e 87 01 b7
       2.3919958e-08 6.502769e-07 -1.0462254e-07 -7.720473e-06
0001b0 f4 7f 2e b1 6c 82 90 31 93 bd f4 b2 ab 2e b9 b0
       -2.5393065e-09 4.205779e-09 -2.8491547e-08 -1.3473785e-09
0001c0 43 ea a5 30 b9 9c 8a 32 b5 d3 68 b1 64 f2 24 b3
       1.2071911e-09 1.6136584e-08 -3.3880785e-09 -3.840468e-08
0001d0 a1 c1 05 b2 cb 8a a1 32 c4 b9 57 34 5b 3d 83 35
       -7.785645e-09 1.8805983e-08 2.0091016e-07 9.778117e-07
0001e0 d0 dd 41 b9 08 2f 94 b7 00 4b 1b b6 41 61 20 37
       -0.00018488546 -1.7664875e-05 -2.3140456e-06 9.559387e-06
0001f0 2b 9d 83 38 b6 77 56 b7 05 b7 8a b7 08 37 8f b9
       6.2758416e-05 -1.2783266e-05 -1.6536107e-05 -0.00027316087
000200 ba e0 79 b9 b3 0b 40 b7 97 63 db 38 33 93 ff b7
       -0.00023830208 -1.1446816e-05 0.00010461284 -3.0466914e-05
000210 47 d7 94 b9 44 bb 6b b6 ad 56 99 38 5f b6 84 38
       -0.00028389154 -3.5126732e-06 7.311753e-05 6.32822e-05
000220 37 ad 87 b7 f9 28 1e 39 95 12 b3 37 81 9a 4a 39
       -1.6173914e-05 0.00015083318 2.1347116e-05 0.00019321778
000230 e2 dc 16 b7 df 9e 26 b7 97 f3 88 b7 53 b0 07 37
       -8.992125e-06 -9.931361e-06 -1.6325894e-05 8.087681e-06
000240 ab 5e b8 b8 b9 e4 52 39 3e b3 53 b9 8a 74 10 36
       -8.791437e-05 0.00020112366 -0.00020189301 2.1525507e-06
000250 44 e1 4a b8 1f 4f 8b b7 58 8d 93 37 cc 31 8a b8
       -4.8370348e-05 -1.6606935e-05 1.7589584e-05 -6.589628e-05
000260 21 89 36 b9 9d b1 7d b9 ad 06 eb 38 6a 4f b3 b6
       -0.00017407957 -0.00024194126 0.00011206917 -5.3438607e-06
000270 19 e9 b4 b7 2b eb c8 3f 6f b3 1c 37 d5 19 b5 38
       -2.1566217e-05 1.5696768 9.340102e-06 8.635564e-05
000280 a9 cc 0b b8 9b 19 bf 36 9b f5 63 38 74 08 ea b7
       -3.3330787e-05 5.6952244e-06 5.4349755e-05 -2.789891e-05
000290 08 ca 67 38 26 27 8d 3f c9 21 55 37 31 a8 88 37
       5.5262848e-05 1.1027572 1.2703656e-05 1.6290784e-05
0002a0 b4 95 85 b7 e8 43 e2 b6 50 78 7d b7 12 a7 e8 b5
       -1.5924546e-05 -6.74323e-06 -1.5107988e-05 -1.7333971e-06
0002b0 1a 26 78 b9 1e bf 6e 38 1d 6b c2 b7 08 44 97 b8
       -0.00023665317 5.6921614e-05 -2.317648e-05 -7.212913e-05
0002c0 3f 97 54 39 70 92 7a b7 44 6f c7 36 b3 4e 26 c0
       0.00020274239 -1.4935256e-05 5.943615e-06 -2.5985534
0002d0 73 c5 b8 b3 54 7c 4a b2 34 e4 e3 af d4 4d 5b 31
       -8.6040835e-08 -1.17862164e-08 -4.1453208e-10 3.1912935e-09
0002e0 17 cd 3a b3 27 1a 2a b2 2b 1a 97 b1 8a 48 5c b3
       -4.3493028e-08 -9.901249e-09 -4.3976534e-09 -5.1288715e-08
0002f0 55 16 5f b1 34 3a 4d 32 69 16 a5 31 ea 06 28 35
       -3.2463465e-09 1.1945804e-08 4.8046798e-09 6.259494e-07
000300 49 7b 07 b4 e7 b7 24 b0 6f 9d 1d 31 81 90 38 b2
       -1.2617706e-07 -5.9924193e-10 2.2935998e-09 -1.0743066e-08
000310 dc 7b 3a b2 b8 de 24 b2 ae 73 9d 31 d5 34 8d b2
       -1.0854787e-08 -9.596697e-09 4.5824526e-09 -1.6438586e-08
000320 e2 6d 1b b4 3c 57 9e 31 9d 4e f6 b1 38 2d a7 30
       -1.4475475e-07 4.6083226e-09 -7.1684796e-09 1.2163701e-09
000330 83 01 1f b2 b2 04 66 33 f1 de ae b3 54 a7 bf 30
       -9.255362e-09 5.355532e-08 -8.143059e-08 1.3944637e-09
000340 6e b1 5a 31 cd 4d 01 32 5f 1c 41 b4 2f fa 4d b3
       3.1824032e-09 7.526478e-09 -1.7984847e-07 -4.7957823e-08
000350 21 de 2e b3 bd 80 cd 32 94 2a ce 32 43 60 37 b1
       -4.0714557e-08 2.3923684e-08 2.4000919e-08 -2.6684723e-09
000360 34 c1 2b b2 5c 6b 02 b6 70 11 3c b2 e2 2d 6f b1
       -9.997439e-09 -1.9434e-06 -1.0947005e-08 -3.4805159e-09
000370 1b 54 18 31 ff f9 13 32 57 26 5e b3 6b f2 95 31
       2.216672e-09 8.613369e-09 -5.1723273e-08 4.3640305e-09
000380 71 cc db b2 ce 9c 6c 35 28 d3 35 b4 ee 31 ed ae
       -2.5587925e-08 8.814503e-07 -1.6933757e-07 -1.07863815e-10
000390 97 20 05 b2 2b 9d 07 32 1c 5f 3c b2 96 dd ed 2f
       -7.749029e-09 7.89377e-09 -1.0964666e-08 4.3267495e-10
0003a0 a9 29 8a 33 51 f0 5c b2 f8 37 e9 ae 87 bf c8 32
       6.433704e-08 -1.2860327e-08 -1.0605555e-10 2.3370161e-08
0003b0 82 ea 4e 34 fc b0 19 b2 c9 f7 f2 b1 b6 76 28 b5
       1.9270558e-07 -8.946014e-09 -7.071297e-09 -6.2757624e-07
0003c0 05 df a2 2d 77 80 16 2d 27 06 8c 2b 1a 81 07 ac
       1.8516308e-11 8.555038e-12 9.949306e-13 -1.925632e-12
0003d0 16 66 bf ac fe 9d 7f 2c 13 58 02 2c 47 24 29 2e
       -5.4398803e-12 3.6325383e-12 1.8523002e-12 3.8458372e-11
0003e0 f2 7e a2 2b 4b a9 f2 2b 62 97 2a ad d9 96 fe 2a
       1.1546027e-12 1.7242122e-12 -9.696995e-12 4.5224135e-13
0003f0 1a 37 3c 2e 24 7a c5 2b 4b 0f 50 aa f5 41 c7 ac
       4.279519e-11 1.4031593e-12 -1.8479417e-13 -5.663243e-12

bias f4 [60]
000000 c9 c2 e9 2f 1c 73 ce b4 89 61 9b 3c 27 c1 d2 34
       4.2520856e-10 -3.8454243e-07 0.018967407 3.9256085e-07
000010 e3 66 88 b0 b9 9d d9 36 be 3f 32 b8 ce 72 97 af
       -9.924545e-10 6.4854653e-06 -4.249787e-05 -2.7548314e-10
000020 c9 14 a0 af 0f 22 0f b7 fb 33 08 b1 04 6a f4 36
       -2.91186e-10 -8.531394e-06 -1.9820152e-09 7.2841085e-06
000030 66 76 e8 34 83 78 e9 34 2e fc 39 30 55 a1 da 2e
       4.3299514e-07 4.3487316e-07 6.7660977e-10 9.9421506e-11
000040 49 c9 30 b6 4e 82 4c 31 67 b6 9a 31 53 37 72 30
       -2.6343207e-06 2.9759977e-09 4.5027266e-09 8.811771e-10
000050 82 f5 b9 b1 90 9d 1c b8 d7 f4 fb 32 0a 33 9b b1
       -5.4121196e-09 -3.734004e-05 2.9331586e-08 -4.516896e-09
000060 ff 69 23 34 75 3a 59 39 57 f7 61 38 05 71 e6 b0
       1.5219119e-07 0.0002071651 5.3874533e-05 -1.6766825e-09
000070 57 e4 c6 b3 4c ee ce b5 d3 e1 00 37 b0 5f da b1
       -9.261628e-08 -1.541755e-06 7.681973e-06 -6.3555134e-09
000080 2d 3c 01 30 0e 49 9c 3c 95 56 ab 3c 70 05 94 3c
       4.701544e-10 0.019077804 0.020915309 0.018068999
000090 d4 0b 7b b3 dd e9 6e b7 40 19 f3 b7 8c c4 84 30
       -5.845125e-08 -1.4240356e-05 -2.8979615e-05 9.660126e-10
0000a0 59 91 a0 3c b4 6e 6d 2d ce 0d bb 35 57 3d a1 3c
       0.019600557 1.3496471e-11 1.3936603e-06 0.01968257
0000b0 75 17 8a af fc 5b 86 3c 91 9b 46 35 8a 69 58 b7
       -2.511872e-10 0.016401283 7.3987127e-07 -1.2899176e-05
0000c0 bf 1c 92 b0 91 dc 04 b8 51 6f 24 35 fe 42 5e 34
       -1.0631068e-09 -3.167667e-05 6.125675e-07 2.0699733e-07
0000d0 66 66 c5 b0 01 dc 13 b0 b4 2e de b6 62 af 9a 3c
       -1.436274e-09 -5.3790933e-10 -6.6215525e-06 0.018882457
0000e0 ef 21 a2 b6 ee a9 6b b8 b7 65 85 b8 94 a5 8d 3c
       -4.8319266e-06 -5.6186625e-05 -6.36088e-05 0.017290868

weight f4 [1, 60]
000000 7a 8f b9 30 da f3 0c b6 5a 71 3e 40 fe 4f 8f b5
       1.35013e-09 -2.1003566e-06 2.9756684 -1.0677611e-06
000010 11 f4 28 31 c9 42 2c b7 c9 87 91 38 b4 d4 e9 af
       2.4585953e-09 -1.02675485e-05 6.939431e-05 -4.2533588e-10
000020 11 c0 71 af 75 9f 87 36 56 32 61 b2 bc ee 20 36
       -2.1987058e-10 4.0418768e-06 -1.3108169e-08 2.398082e-06
000030 70 2a c9 b4 19 dd 1f b5 f4 b3 a2 2f d9 06 98 b0
       -3.7470045e-07 -5.9553855e-07 2.9595493e-10 -1.1061402e-09
000040 5c 40 98 b6 7e e7 66 b1 be 81 ad b1 25 1d ab b0
       -4.5374454e-06 -3.3600993e-09 -5.0497126e-09 -1.2450171e-09
000050 45 95 66 31 e4 6f 73 38 3f bf ef b1 b0 29 8b 31
       3.3554255e-09 5.803992e-05 -6.9775576e-09 4.0501718e-09
000060 29 6c 16 35 09 18 5e b9 bc dd c0 b8 f7 7f 4a 30
       5.603675e-07 -0.00021180524 -9.196575e-05 7.366902e-10
000070 85 1d 8e 34 f8 ef 68 b7 a7 83 28 b7 02 75 6a 32
       2.647104e-07 -1.388415e-05 -1.0044233e-05 1.3647197e-08
000080 77 91 40 b0 e7 28 24 40 e1 d8 68 40 51 c0 09 40
       -7.005591e-10 2.5649965 3.6382372 2.152363
000090 3d cf ee 33 b1 93 b7 36 d1 27 42 38 a2 d2 19 b1
       1.1120435e-07 5.4710185e-06 4.6290286e-05 -2.2384161e-09
0000a0 f6 7d 53 40 f6 e2 65 2f 22 a7 0a b5 c9 3c 55 40
       3.304563 2.0908061e-10 -5.1652216e-07 3.331835
0000b0 59 c3 a4 2f 06 7b ae 3f b8 e3 32 35 48 08 8d 37
       2.997023e-10 1.3631294 6.664154e-07 1.6812366e-05
0000c0 80 fb 0a 31 bf 9c 63 38 87 46 97 b5 74 81 9a b4
       2.0224604e-09 5.4267e-05 -1.1270903e-06 -2.8778925e-07
0000d0 ec d3 51 31 ab e2 bd b1 f2 25 32 b5 d0 7f 15 40
       3.0533966e-09 -5.526393e-09 -6.6365385e-07 2.335926
0000e0 3e 8a d4 37 7d a3 cf 38 c6 09 f8 38 5f 8a e4 3f
       2.5336743e-05 9.900981e-05 0.00011827382 1.7854728
