Total_RCS/epoch_1000_batch_100_lr_1e-2_ms_100_g_1e-2_wd_0_99/torch_model_2_GELU.pth (torch, 731855 bytes, 7 tensors)

weight f4 [300, 3]
0	0x39032ab8	0.00012509048
1	0xb99433ac	-0.00028267258
2	0x37dc674b	2.6274143e-05
3	0xb91290c8	-0.0001397758
4	0x3964d35f	0.00021822516
5	0x38851718	6.346236e-05
6	0x381c3264	3.724023e-05
7	0xb890ce78	-6.904913e-05
8	0x385d6492	5.278417e-05
9	0xb952d08c	-0.0002010485
10	0x3987c956	0.00025899214
11	0x38c1aa05	9.234626e-05
12	0xb98dfc57	-0.00027081624
13	0xb824cd45	-3.929182e-05
14	0x3aa2d536	0.0012423161
15	0x3949ba08	0.00019238156
16	0xb9175efe	-0.0001443587
17	0xb973a474	-0.0002323555
18	0xb93b8c37	-0.00017885944
19	0xba3107f6	-0.00067532004
20	0x3b12c17f	0.0022393165
21	0xb945cdc1	-0.00018864033
22	0x39b89026	0.00035202614
23	0xb7d84def	-2.5785497e-05
24	0xba81a2a8	-0.0009890394
25	0x39f0fefd	0.00045966348
26	0xb9dae7eb	-0.00041752993
27	0x394cdbd7	0.00019536853
28	0xb992b5a9	-0.00027982637
29	0xb8f81609	-0.00011829666
30	0x39499774	0.00019225274
31	0xb9852dbe	-0.00025401817
32	0xb891103e	-6.917164e-05
33	0x393e1412	0.00018127289
34	0xb9a4a39c	-0.00031402416
35	0x37524101	1.253211e-05
36	0x393cd2e9	0.00018007647
37	0xb95e766a	-0.00021215683
38	0xb8cd27a1	-9.782543e-05
39	0x392cef33	0.00016492307
40	0xb99b6846	-0.00029641594
41	0xb7d8924d	-2.5817333e-05
42	0x39381685	0.00017555997
43	0xb95afcc5	-0.00020884264
44	0xb8c93d5f	-9.595858e-05
45	0xb9805494	-0.00024477078
46	0x392e5f40	0.00016629416
47	0x39a9c131	0.0003237813
48	0x39104ce2	0.00013761551
49	0xb99c8663	-0.00029854765
50	0x38e811bf	0.000110659275
51	0xb987a959	-0.0002587538
52	0xb734ea7e	-1.0783433e-05
53	0x3a8fe3de	0.0010977944
54	0x395fb06a	0.00021332657
55	0xb95169ac	-0.00019971159
56	0xb98bfa5b	-0.00026698675
57	0xb945b052	-0.00018853068
58	0x388a2520	6.587268e-05
59	0x39f52e04	0.00046764326
60	0xbc0e8205	-0.008697991
61	0xbf5ecc69	-0.87030655
62	0xc043677a	-3.0531907
63	0xb98476e0	-0.0002526557
64	0x38bd1229	9.015605e-05
65	0x39d1707b	0.0003994739
66	0xb9375c58	-0.0001748664
67	0x39480769	0.00019076247
68	0x390fa452	0.00013698757
69	0x391f8495	0.00015212812
70	0xb922775d	-0.0001549399
71	0xb9325d6a	-0.00017010202
72	0xb94087df	-0.00018361163
73	0x36af7363	5.228839e-06
74	0x3a3f9f07	0.00073097687
75	0x399e62d1	0.00030209732
76	0x3a136061	0.00056219666
77	0xbb17e0ab	-0.0023174684
78	0x3962d68a	0.00021632962
79	0xb81f260d	-3.794399e-05
80	0xba33f514	-0.00068648276
81	0x39422725	0.00018515864
82	0xb9a1b17e	-0.00030840555
83	0x353473e6	6.722388e-07
84	0xbf325e93	-0.6967556
85	0xbe6771f6	-0.22602066
86	0xbf38838f	-0.7207574
87	0xb9397e87	-0.0001769011
88	0x391ea0b1	0.00015127916
89	0x395f42be	0.000212918
90	0xb9c66277	-0.00037838865
91	0xba3bc7ab	-0.0007163237
92	0x3b1c7e3c	0.0023878952
93	0x394f22f3	0.00019754078
94	0xb93b77f7	-0.000178784
95	0xb9352f48	-0.00017279119
96	0xb9315f4c	-0.00016915536
97	0x39005ce5	0.00012241637
98	0x39bbe876	0.00035840616
99	0xb94f8cf5	-0.00019793569
100	0x3964750f	0.00021787382
101	0x390afe43	0.00013255425
102	0x398b693d	0.00026590555
103	0x3717dddc	9.051957e-06
104	0xba8fab29	-0.0010961044
105	0x39519100	0.0001998581
106	0xba0566e1	-0.00050888775
107	0xb873e30a	-5.814716e-05
108	0x3950e221	0.00019920665
109	0xb9536262	-0.00020159179
110	0xb91437f6	-0.00014135227
111	0xb8ba823c	-8.893429e-05
112	0x39ab85be	0.00032715307
113	0xb9b94993	-0.00035340767
114	0x395e611f	0.0002120775
115	0xb94d97f9	-0.00019606938
116	0xb98210d2	-0.00024808064
117	0x396917da	0.00022229497
118	0xb89f4c49	-7.59592e-05
119	0xb99f315b	-0.00030363616
120	0xb92552bc	-0.00015766447
121	0x399490ef	0.00028336744
122	0xb784bd31	-1.5823725e-05
123	0x3a1b3200	0.00059202313
124	0x3a248268	0.00062755356
125	0xbb26d0dc	-0.002545408
126	0xb96035e7	-0.00021382385
127	0x3a0ca78e	0.0005365544
128	0x3887491c	6.450919e-05
129	0x39da3f7a	0.00041627494
130	0x3a3c6476	0.00071866007
131	0xbb19511b	-0.002339429
132	0xb9e4f362	-0.00043668883
133	0xba01d5fd	-0.0004952846
134	0x3b2683e7	0.002540821
135	0x3911221e	0.00013840987
136	0xb9abe328	-0.00032784906
137	0x38f9e17b	0.00011915244
138	0x393d2bfa	0.00018040827
139	0xb9b5b0f8	-0.00034654862
140	0x3850e0ef	4.980055e-05
141	0x38f41b44	0.00011639905
142	0xb9aac6b5	-0.00032572975
143	0xb8da5861	-0.00010411512
144	0xb9245978	-0.00015673588
145	0x399f87b8	0.00030427962
146	0xb889df7c	-6.574296e-05
147	0x3986b508	0.0002569335
148	0xb68f3aad	-4.268563e-06
149	0xba13582f	-0.00056207454
150	0xb9163fc6	-0.00014328872
151	0x39c767f7	0.00038033698
152	0xb9439384	-0.00018651603
153	0xb948defc	-0.00019156554
154	0x3933b207	0.0001713709
155	0x391034de	0.00013752605
156	0xb8ba844e	-8.893815e-05
157	0x3988f862	0.00026125
158	0x38f83872	0.00011836075
159	0xb98e8cb4	-0.00027189183
160	0xb7f1d368	-2.8827882e-05
161	0x3a9eb655	0.0012108783
162	0x39861771	0.00025575937
163	0x38a23bf3	7.7359284e-05
164	0xba437b4c	-0.00074570323
165	0xb94e8480	-0.00019695051
166	0x3940e3cb	0.00018395406
167	0x393c407e	0.00017953102
168	0x396a1f4e	0.00022327641
169	0xb8a897f1	-8.0391656e-05
170	0xb9f272da	-0.00046243408
171	0x394c09e6	0.00019458644
172	0xb945f24c	-0.00018877647
173	0xb91effff	-0.0001516342
174	0x393d6502	0.00018062073
175	0xb9402b00	-0.00018326566
176	0xb9100a03	-0.0001373664
177	0xb9dfbbc6	-0.00042673777
178	0xba323a24	-0.0006798825
179	0x3b21ffcf	0.0024719124
180	0xb98a2424	-0.00026348338
181	0x37abd5e5	2.0484391e-05
182	0x3aa53efc	0.0012607272
183	0xb9688274	-0.00022173842
184	0x394c2844	0.00019469956
185	0x3950a638	0.00019898347
186	0x393abf34	0.00017809571
187	0xb9422f1c	-0.00018518831
188	0xb9095318	-0.00013096293
189	0xb921969b	-0.00015410261
190	0x3917db52	0.00014482185
191	0x3941bf57	0.00018477194
192	0xb920dd0f	-0.0001534114
193	0x3999d202	0.00029338902
194	0xb8193e9a	-3.6536345e-05
195	0xbfac2488	-1.3448648
196	0xbedd4f58	-0.43224597
197	0x3dcf4a3a	0.101215795
198	0xb94b5555	-0.00019391377
199	0x39828f0a	0.00024902105
200	0x38bfec53	9.1516085e-05
201	0xb97bfc97	-0.00024031322
202	0xb263f56b	-1.3268941e-08
203	0x3a1efe28	0.0006065094
204	0x396d7f59	0.00022649522
205	0xb8ee064c	-0.00011349897
206	0xb9a1992a	-0.0003082243
207	0xb93cad85	-0.00017993718
208	0x3961e8dc	0.00021544419
209	0x38e4771f	0.00010894075
210	0x3919682e	0.00014630027
211	0xb9b7e67a	-0.00035076198
212	0x391082ea	0.0001378168
213	0xb90ba0ca	-0.00013315972
214	0x3980a41d	0.00024536336
215	0xb7034359	-7.823889e-06
216	0xb94604b4	-0.00018884504
217	0x39419cba	0.000184643
218	0x3901c422	0.00012375464
219	0x3935b27b	0.00017327994
220	0xb9438c0e	-0.00018648824
221	0xb9022f04	-0.00012415281
222	0xb94b4843	-0.00019386508
223	0x396ed77a	0.0002277772
224	0x38ee664b	0.00011367778
225	0xbf8749d4	-1.0569406
226	0x3e149e95	0.14513619
227	0x3dc11623	0.0942805
228	0xb9583080	-0.00020617433
229	0x395efe0d	0.00021266211
230	0x39225db6	0.00015484434
231	0xb98461c5	-0.00025249846
232	0xb794d308	-1.7741244e-05
233	0x3a201bab	0.00061076385
234	0xb973b774	-0.00023242628
235	0xb9c760a0	-0.0003802823
236	0x3b0e9853	0.0021758273
237	0xb98810d0	-0.00025952468
238	0xb7382e59	-1.0978046e-05
239	0x3a90fe04	0.0011062031
240	0xb8f61125	-0.000117333875
241	0xba0393b6	-0.0005019264
242	0x3b0c8357	0.002144059
243	0x3974f39b	0.00023360403
244	0xb911f518	-0.00013919582
245	0xb98f97a9	-0.0002738808
246	0x3939d385	0.00017721772
247	0xb934ff60	-0.00017261272
248	0xb91db6cb	-0.00015040782
249	0x39440621	0.000186943
250	0xb9a13db3	-0.00030754282
251	0xb66ab8db	-3.4976317e-06
252	0xb9e69ac7	-0.00043984337
253	0x3a6d3d4f	0.0009049968
254	0x38eb69f2	0.00011225407
255	0x3a1a198b	0.000587844

bias f4 [300]
0	0xb9322e4d	-0.00016992651
1	0x39c7f359	0.00038137546
2	0xb93084e9	-0.00016834181
3	0x39d6ebcf	0.00040992952
4	0xba046df7	-0.00050517864
5	0xb98f3b83	-0.00027319425
6	0xba7bd391	-0.0009606416
7	0x39d95ac3	0.00041457088
8	0x3ace7e39	0.001575417
9	0xb9fff9d8	-0.00048823538
10	0xb9d051f0	-0.000397339
11	0xb9d46fcc	-0.00040519086
12	0xb9bbc598	-0.00035814638
13	0xb99800cd	-0.00028992296
14	0xb9b90a57	-0.00035293653
15	0x3a26fc03	0.000636995
16	0xba1d6f67	-0.0006005675
17	0xb9d32428	-0.00040271995
18	0xba334e6d	-0.00068399945
19	0x3a13869c	0.00056276633
20	0xbfabf052	-1.3432715
21	0x39aedc48	0.00033351989
22	0x39aad1c7	0.00032581223
23	0xb9588df3	-0.00020652245
24	0xb956751a	-0.00020452254
25	0x3a851299	0.0010152637
26	0x38e71e90	0.00011020631
27	0xb9d62929	-0.00040847927
28	0xbeede942	-0.46467024
29	0x39898e2c	0.00026236603
30	0xba43fbb4	-0.00074761664
31	0xb9b20d06	-0.0003396051
32	0x3a255085	0.0006306249
33	0x39c75069	0.00038016148
34	0x39ccc395	0.00039055632
35	0xb92e2d14	-0.00016610726
36	0xb9be4e4c	-0.0003629796
37	0x3995d19a	0.0002857566
38	0xba3229ec	-0.0006796408
39	0xb9af88e1	-0.00033480584
40	0x39c80f70	0.00038158474
41	0x3a2ad5af	0.00065168267
42	0x392e2c2a	0.00016610386
43	0x3a33b72d	0.00068556034
44	0xba871d79	-0.0010308466
45	0xb9c41014	-0.00037396012
46	0xb9d2ce5e	-0.00040208077
47	0x386a319d	5.5836153e-05
48	0x3a28813e	0.000642795
49	0xb987cc17	-0.00025901265
50	0x39b2a884	0.0003407636
51	0x39c759c2	0.00038023113
52	0xb86e6d0e	-5.6845187e-05
53	0xb9fa00fd	-0.00047684452
54	0xb9628a21	-0.00021604497
55	0x39b1ab6a	0.00033887784
56	0xba14c7a1	-0.0005675499
57	0xb9b70e3e	-0.0003491509
58	0xb9abf565	-0.00032798495
59	0xba4a0bc5	-0.0007707442
60	0xba14bafd	-0.00056736154
61	0x39ca5af9	0.00038596222
62	0xb9aca0a8	-0.00032926095
63	0x3989d3ea	0.00026288565
64	0x39c75e1c	0.00038026355
65	0xbf8d4b05	-1.1038519
66	0x39d05b6c	0.00039740966
67	0x39e27b0d	0.0004319776
68	0xb99ef7f5	-0.0003032085
69	0x39ba63fd	0.00035551182
70	0xb9c05a75	-0.0003668849
71	0x39bf83af	0.0003652847
72	0x39c4913f	0.0003749225
73	0xb9ac0312	-0.00032808684
74	0x39c7877d	0.00038057184
75	0x405129ae	3.268169
76	0x39c826ad	0.00038175788
77	0x398148bb	0.00024658986
78	0xba97f121	-0.0011592248
79	0xb9d79a33	-0.00041122883
80	0xba8fccbe	-0.0010971052
81	0xb9b87b44	-0.00035187055
82	0xb9a38db6	-0.00031195366
83	0xb9d6f1ca	-0.00040997408
84	0x3902ba32	0.0001246713
85	0x3a33bfec	0.00068569067
86	0xb9bb0863	-0.00035673668
87	0xba1980d1	-0.0005855682
88	0xb86a8e72	-5.592261e-05
89	0x39dcc989	0.00042111825
90	0xb9a8af02	-0.00032173848
91	0xb99718b1	-0.0002881936
92	0xba1a19c6	-0.00058784743
93	0xb8bd6d92	-9.032631e-05
94	0xb98a07ca	-0.00026327214
95	0xb9893e62	-0.00026177155
96	0xb95e8131	-0.00021219697
97	0xb9b07575	-0.00033656848
98	0xbff6bcdd	-1.9276386
99	0xb99e10a2	-0.000301485
100	0xb9b35c4a	-0.000342103
101	0xb9af9404	-0.0003348888
102	0x39ec331e	0.00045051513
103	0x39a911fe	0.00032247597
104	0x399e6182	0.00030208757
105	0x39b8f990	0.00035281153
106	0x3a0ead57	0.00054427
107	0xb9595691	-0.00020726981
108	0xba124374	-0.00055795093
109	0xb9c15fbf	-0.00036883165
110	0xba17606b	-0.000577456
111	0xb9a3cecc	-0.00031243858
112	0xb9c4cc01	-0.00037536028
113	0x39ac3fd8	0.00032853964
114	0xba267879	-0.0006350349
115	0xb9cc5370	-0.00038972078
116	0xbf7592eb	-0.95927304
117	0x3a8d1d60	0.0010766201
118	0x39a4a991	0.00031406854
119	0xb9bdad0b	-0.00036177816
120	0x3980ab38	0.0002454163
121	0xb9846649	-0.0002525321
122	0x38da6f81	0.00010415819
123	0x3a4ccaee	0.00078122213
124	0x3a0d0418	0.0005379333
125	0xb999c6e6	-0.00029330625
126	0xb9ca88b2	-0.00038630288
127	0xb9b4feb5	-0.00034522047
128	0x39bd5e77	0.0003611927
129	0xb9dae3f5	-0.0004175004
130	0x3975e17c	0.0002344902
131	0xb999500d	-0.00029242077
132	0x39b76508	0.00034979754
133	0xb7db570c	-2.6147369e-05
134	0xb8a22d1c	-7.733164e-05
135	0xb976c263	-0.00023532803
136	0x39c7150b	0.00037971916
137	0xba90d522	-0.0011049847
138	0xb8818843	-6.17658e-05
139	0x3a518d34	0.0007993758
140	0xba866ca1	-0.0010255763
141	0xc04c7eb0	-3.1952324
142	0xb9a8ea5e	-0.00032218074
143	0x39ccedd4	0.00039087108
144	0xb98901ac	-0.00026131922
145	0x398e2127	0.0002710905
146	0x39b4e000	0.00034499168
147	0x3a1136da	0.00055394846
148	0x3a256637	0.00063094817
149	0x3886101f	6.392621e-05
150	0xb99c2939	-0.00029785352
151	0x39df7e93	0.0004262818
152	0xb9c34392	-0.00037243642
153	0xb9fc1b1c	-0.00048085384
154	0xb98368f4	-0.00025064463
155	0x3a3097ef	0.0006736507
156	0xba1551b9	-0.00056960766
157	0x3f500a83	0.8126604
158	0xbf79e280	-0.97611237
159	0x39baebe0	0.00035652425
160	0x398f20b6	0.00027299457
161	0x39bc477b	0.0003591141
162	0xba1f2e15	-0.00060722354
163	0xb9c24de9	-0.0003706061
164	0xb9aa0a59	-0.00032432636
165	0xb9bddd99	-0.00036213992
166	0xb9b8bbe2	-0.00035235198
167	0x39123b13	0.00013945652
168	0x3a0a91ce	0.0005286009
169	0x39a26042	0.00030970766
170	0x3e359821	0.17733814
171	0xb9469a2b	-0.00018940184
172	0x399fa1c1	0.0003044736
173	0xb9b09966	-0.00033683627
174	0x39c0aa61	0.00036748036
175	0xb962c011	-0.0002162459
176	0x39879a33	0.00025864094
177	0xbea5ce2a	-0.32383853
178	0xb9905719	-0.00027530713
179	0xb9cec0d7	-0.0003943506
180	0xb9b88871	-0.00035196872
181	0xb9b6b09a	-0.00034845324
182	0xb984d670	-0.0002533677
183	0x39cb7ce6	0.00038812234
184	0xb99a10b9	-0.00029385628
185	0xb8b4f796	-8.629185e-05
186	0xba84dbc2	-0.0010136294
187	0xb9b2cd64	-0.00034103834
188	0xb9b016b9	-0.00033586266
189	0xb983d0d4	-0.00025141856
190	0x39c36d12	0.00037274562
191	0x39b682d6	0.00034811225
192	0xb9bc6659	-0.0003593441
193	0xb9b45dcb	-0.00034402157
194	0xb9804119	-0.00024462564
195	0x39cf295b	0.0003951293
196	0x3a3145dc	0.0006762424
197	0xb981554e	-0.00024668354
198	0xb9b6cc35	-0.0003486589
199	0x39b53032	0.0003455892
200	0xb9599a81	-0.0002075229
201	0xb9c21d5f	-0.00037024447
202	0x39c161ea	0.0003688478
203	0x3a2fecc9	0.0006711004
204	0xba2c9f4a	-0.0006585015
205	0xba058524	-0.0005093387
206	0xba1b0747	-0.0005913865
207	0xb9d7d178	-0.00041164062
208	0xb9cd0c8a	-0.0003910999
209	0xbf0f2e76	-0.5593027
210	0xb9d784fb	-0.00041107074
211	0xb9adfd54	-0.00033185876
212	0x399c5945	0.0002982115
213	0xba24a3df	-0.0006280522
214	0x3a26dc0c	0.0006365187
215	0x3978b8ff	0.0002372004
216	0xb9c5da37	-0.0003773735
217	0x3a999e32	0.001172012
218	0x39bbc2d1	0.0003581257
219	0x39ed7dc9	0.0004529788
220	0xbff95a85	-1.9480749
221	0x39d851a6	0.00041259563
222	0xb8b1e42c	-8.482518e-05
223	0xb9abe92b	-0.00032789385
224	0xb9bc9382	-0.00035968056
225	0x39bdcbe0	0.00036200788
226	0xb9833c05	-0.00025030985
227	0xb9b58cf7	-0.00034628037
228	0x39caf4ce	0.00038710836
229	0xba1fc595	-0.00060948107
230	0x3f88c231	1.0684263
231	0x39d62b32	0.00040849444
232	0xbfdd567a	-1.7292016
233	0x3a1b2230	0.0005917875
234	0xb9b5e15b	-0.00034690913
235	0x3a6a5540	0.0008939095
236	0xb9b4c4af	-0.00034478816
237	0x39c3f192	0.00037373282
238	0x39b67710	0.00034802454
239	0xb98133a2	-0.00024643267
240	0x3fb04d3e	1.3773572
241	0xba0e2a28	-0.0005423152
242	0x39d37798	0.0004033416
243	0x3981de80	0.00024770573
244	0xb9a3bb59	-0.00031229368
245	0x3a02a2d8	0.0004983372
246	0x39965f28	0.00028681126
247	0x39bd9342	0.00036158605
248	0xba5bc3f9	-0.0008383389
249	0x396d595c	0.0002263537
250	0x39b87acd	0.0003518671
251	0x3a8c62ae	0.0010710561
252	0x3a345b1a	0.000688003
253	0x39af392f	0.00033421206
254	0xb9a04f4a	-0.00030576653
255	0x3abb63f0	0.0014296751

weight f4 [300, 300]
0	0x355e8b95	8.2904563e-07
1	0x35ef9e71	1.7853e-06
2	0xb57e10bc	-9.4646725e-07
3	0x35d26d33	1.5678e-06
4	0x36338d4d	2.6755326e-06
5	0x35332660	6.673854e-07
6	0x339d07f9	7.3123324e-08
7	0x35cf1ffb	1.5432009e-06
8	0x364ba809	3.0347167e-06
9	0xb6327404	-2.6591597e-06
10	0xb5eb170f	-1.7515575e-06
11	0xb5f017d7	-1.7888332e-06
12	0xb5a258fb	-1.2095837e-06
13	0xb586cd7c	-1.0043582e-06
14	0xb5a98324	-1.2629648e-06
15	0xb4ee2d2d	-4.4363824e-07
16	0x35eab665	1.7487442e-06
17	0x3654031f	3.1592278e-06
18	0x354d0fc2	7.639138e-07
19	0x3577ad0d	9.226649e-07
20	0x39e74e60	0.00044118147
21	0xb4ce9ec7	-3.8486016e-07
22	0x34f80364	4.6196067e-07
23	0xb369b2c7	-5.4412137e-08
24	0x365b5aac	3.268632e-06
25	0x3558ae63	8.0720037e-07
26	0xb63cbbde	-2.8123536e-06
27	0xb5ff5dab	-1.9026241e-06
28	0x39462c65	0.0001889929
29	0xb4c4b2ae	-3.6637852e-07
30	0xb589a7d3	-1.0256139e-06
31	0xb3032add	-3.05398e-08
32	0x33a32126	7.596309e-08
33	0x34f6a3db	4.594029e-07
34	0xb65beac5	-3.2770197e-06
35	0x3645baed	2.9464093e-06
36	0xb4bfa435	-3.5696e-07
37	0xb35b0c74	-5.1001237e-08
38	0x355a8710	8.140787e-07
39	0x353b36fe	6.974295e-07
40	0x35eda47a	1.7705745e-06
41	0x360bc31f	2.082619e-06
42	0xb6517c86	-3.121591e-06
43	0x35df460a	1.6635179e-06
44	0xb4dc4a66	-4.1032325e-07
45	0xb5331c64	-6.672401e-07
46	0xb5a75dd7	-1.2469781e-06
47	0x36292b3d	2.520813e-06
48	0xb5ef0b0f	-1.7810106e-06
49	0xb5ac9ad1	-1.2860056e-06
50	0xb554da1c	-7.9293545e-07
51	0x351ac7b2	5.7660066e-07
52	0xb60e872e	-2.1238334e-06
53	0x36408147	2.8685479e-06
54	0xb63cea68	-2.8150625e-06
55	0xb491aaa6	-2.7132518e-07
56	0xb554a0be	-7.9210065e-07
57	0xb3b003b6	-8.196314e-08
58	0xb50e68b7	-5.30515e-07
59	0xb5a8a5ad	-1.2565193e-06
60	0x3620a8ba	2.394007e-06
61	0xb476848c	-2.2958756e-07
62	0xb5372f20	-6.824139e-07
63	0x3478a15d	2.3155503e-07
64	0x35d58dd1	1.5911011e-06
65	0x398dd94d	0.00027055517
66	0x35be9c4d	1.4201593e-06
67	0x35f16d7e	1.7987766e-06
68	0x3532e240	6.6639404e-07
69	0x3581a002	9.657817e-07
70	0xb41f1978	-1.4817294e-07
71	0x35facc30	1.8685878e-06
72	0x355d16c7	8.236206e-07
73	0xb55e205b	-8.274853e-07
74	0x35606b11	8.3602305e-07
75	0x38da0c2b	0.000103973165
76	0x3485ff39	2.495888e-07
77	0x35efd079	1.7867561e-06
78	0x343d8b0f	1.7652586e-07
79	0x365070cd	3.1060074e-06
80	0x3505d84a	4.9861103e-07
81	0x355a3bb9	8.1298236e-07
82	0xb4cd1667	-3.8200525e-07
83	0xb601f418	-1.936458e-06
84	0x359cdd34	1.1687284e-06
85	0x3609b135	2.051774e-06
86	0xb5c93a3b	-1.4992614e-06
87	0x35e49971	1.7031981e-06
88	0xb463261e	-2.115489e-07
89	0x3602869d	1.9449865e-06
90	0xb4a66438	-3.0992828e-07
91	0xb4123881	-1.3617866e-07
92	0x35e97f74	1.7396947e-06
93	0x364b0ead	3.02579e-06
94	0x3526eb5f	6.218233e-07
95	0x34f0a854	4.4825958e-07
96	0x3647b657	2.9759447e-06
97	0x354d9c6f	7.659609e-07
98	0x38c5a46d	9.424319e-05
99	0xb4cc2452	-3.8024388e-07
100	0xb5cac441	-1.510729e-06
101	0x349443b7	2.7616417e-07
102	0xb6058665	-1.9896772e-06
103	0xb4a082a0	-2.9897365e-07
104	0xb43b01e2	-1.7416417e-07
105	0x35b39c1f	1.3381976e-06
106	0xb5e8b094	-1.7336738e-06
107	0x361bcd16	2.3216176e-06
108	0xb56ef264	-8.9014634e-07
109	0xb45b8f18	-2.0448022e-07
110	0x35e26135	1.6866603e-06
111	0x35095cf5	5.117175e-07
112	0xb4bbcecb	-3.4981926e-07
113	0xb4d5e34e	-3.9839728e-07
114	0x342399da	1.5236529e-07
115	0xb5e0cc45	-1.6748751e-06
116	0xb8e4bd74	-0.000109071756
117	0x33aefc6e	8.148423e-08
118	0x35a3b132	1.2196017e-06
119	0xb5be276d	-1.4167578e-06
120	0x3654d016	3.1711584e-06
121	0x3529d966	6.327376e-07
122	0x35864aa2	1.0005499e-06
123	0x359c9fa7	1.1669371e-06
124	0xb5d6a614	-1.5992578e-06
125	0x35161407	5.59085e-07
126	0xb2e67642	-2.6829301e-08
127	0x343ab4bc	1.738835e-07
128	0x34e10967	4.1916357e-07
129	0xb54f44dd	-7.721372e-07
130	0x362395e6	2.4376145e-06
131	0xb47c0d31	-2.3474128e-07
132	0xb37be9a6	-5.8652994e-08
133	0x363c04cd	2.8016977e-06
134	0xb62b7a72	-2.5552258e-06
135	0xb653186a	-3.145566e-06
136	0xb3a767c2	-7.795417e-08
137	0x350c004c	5.2154496e-07
138	0xb5e0930b	-1.6732096e-06
139	0x35f459ec	1.8205587e-06
140	0x34965211	2.7999388e-07
141	0x3993573f	0.00028103028
142	0x34a52153	3.0757892e-07
143	0x35d3cf00	1.578097e-06
144	0x333187b7	4.1334456e-08
145	0x3458ce8c	2.0191709e-07
146	0xb48cc798	-2.6222256e-07
147	0xb5e188be	-1.6803604e-06
148	0xb5bbed34	-1.4001621e-06
149	0x360da9c9	2.1109465e-06
150	0x34599702	2.0264636e-07
151	0x35f67616	1.8362796e-06
152	0xb5a32d0f	-1.215756e-06
153	0xb62fe83a	-2.6212206e-06
154	0x33e51a08	1.06683785e-07
155	0xb535b907	-6.7697005e-07
156	0x35e4256f	1.6998218e-06
157	0x3a313f54	0.0006761451
158	0x3a000d14	0.00048847613
159	0x35667d8f	8.586439e-07
160	0x346743f3	2.1538271e-07
161	0x359a71e3	1.150704e-06
162	0x360999a1	2.0504015e-06
163	0x3510081b	5.3655975e-07
164	0xb55057bd	-7.7613714e-07
165	0xb600ebd2	-1.9210752e-06
166	0x3215e09b	8.724011e-09
167	0xb50811ee	-5.069004e-07
168	0xb6005f5f	-1.9129e-06
169	0x35ca4e79	1.5073011e-06
170	0x39ad6fe8	0.00033080508
171	0x34a05e19	2.9870787e-07
172	0xb5259d17	-6.1695886e-07
173	0x3550aafc	7.7734853e-07
174	0x35ce4b78	1.537016e-06
175	0x34c78f02	3.717069e-07
176	0x346cdcdb	2.205956e-07
177	0x394505d1	0.00018789551
178	0xb49100cb	-2.7008932e-07
179	0xb5e6dcf1	-1.7200638e-06
180	0xb5519594	-7.807623e-07
181	0xb630b541	-2.6331547e-06
182	0xb4e09f52	-4.1839172e-07
183	0xb481e2f3	-2.419325e-07
184	0x35369bf5	6.802723e-07
185	0xb2f74192	-2.8784402e-08
186	0x34c24e04	3.619208e-07
187	0x3522ab04	6.0598563e-07
188	0xb50d51ab	-5.2645436e-07
189	0xb6580156	-3.2187286e-06
190	0x3482f039	2.4389172e-07
191	0x359ecb22	1.1831037e-06
192	0xb5b6a02d	-1.3606674e-06
193	0x354fb7e5	7.738111e-07
194	0xb5e22abe	-1.6850752e-06
195	0x35fe58e1	1.8950342e-06
196	0xb5eb9acc	-1.7553916e-06
197	0xb6433c74	-2.9092453e-06
198	0xb50ecc55	-5.3196464e-07
199	0xb5bbb76d	-1.398597e-06
200	0xb63274a0	-2.6591952e-06
201	0xb4b64d83	-3.395654e-07
202	0x35861a49	9.991428e-07
203	0xb5ed9f10	-1.7704169e-06
204	0x352cc6de	6.4364383e-07
205	0x363d11fe	2.8173667e-06
206	0x35e86909	1.7315916e-06
207	0xb6059ffc	-1.9911668e-06
208	0xb5e1938c	-1.6806748e-06
209	0xb924646c	-0.00015677669
210	0xb510b534	-5.3907866e-07
211	0x353b9dc4	6.989251e-07
212	0x35c04d79	1.4327662e-06
213	0xb5ba0d74	-1.3861995e-06
214	0xb5b7bc08	-1.3689287e-06
215	0x340a3628	1.2871953e-07
216	0xb60233d1	-1.940167e-06
217	0x32377c6f	1.0680295e-08
218	0x3619d077	2.292012e-06
219	0x35d1f1d2	1.5642092e-06
220	0x376f9373	1.4279841e-05
221	0x3608a33a	2.036059e-06
222	0xb4e2cf8d	-4.2246793e-07
223	0x3547290d	7.4193014e-07
224	0x348e4379	2.6498654e-07
225	0x34c66e73	3.6960736e-07
226	0xb57b2c91	-9.356964e-07
227	0xb548e529	-7.483928e-07
228	0x35c8ad73	1.4951642e-06
229	0x35c4a8bf	1.465225e-06
230	0x3919b1e6	0.0001465749
231	0x36192c77	2.2824659e-06
232	0x39dcc5c9	0.0004210903
233	0xb612427c	-2.1794394e-06
234	0xb5030327	-4.880589e-07
235	0xb532d109	-6.6614353e-07
236	0xb53e3896	-7.086286e-07
237	0x3411ed45	1.3590495e-07
238	0x3560f317	8.3800245e-07
239	0x3351522c	4.873634e-08
240	0x3a4dec4c	0.00078553404
241	0xb5897e41	-1.024404e-06
242	0x35f28c33	1.8071208e-06
243	0xb5266ecc	-6.200105e-07
244	0x3664f3f4	3.4116647e-06
245	0xb5ecd6f6	-1.7645932e-06
246	0x3611f0c2	2.1746823e-06
247	0x350c39ba	5.223807e-07
248	0x35bf2b9d	1.4243302e-06
249	0x362207af	2.4144354e-06
250	0xb42855f9	-1.5677496e-07
251	0xb548a9bf	-7.475282e-07
252	0xb5e302a3	-1.6913585e-06
253	0xb4ca3735	-3.76656e-07
254	0xb515470f	-5.561023e-07
255	0x36388198	2.749357e-06

bias f4 [300]
0	0x3a0059a6	0.0004896171
1	0x3a006559	0.00048979145
2	0x39ff7e5e	0.0004873154
3	0x39ff9db9	0.00048754903
4	0xb9f80c2e	-0.0004731132
5	0x39ff868d	0.00048737638
6	0xb9f87112	-0.0004738649
7	0x3a0037f4	0.000489115
8	0xb9f82624	-0.00047330663
9	0x39fff6d1	0.00048821283
10	0x3a001155	0.0004885395
11	0x39ff773c	0.00048726227
12	0x3a002738	0.00048886565
13	0xb9f802b0	-0.00047304248
14	0x39ffe3ea	0.000488072
15	0xb9f87c7b	-0.0004739499
16	0xb9f831ff	-0.00047339496
17	0xb9f8602e	-0.00047373906
18	0xb9f8775f	-0.00047391184
19	0x3a007ce8	0.0004901425
20	0x39ffcf32	0.00048791763
21	0x3a00b86e	0.00049102947
22	0x3a003b48	0.0004891646
23	0x3a004750	0.0004893439
24	0x3a00112f	0.0004885373
25	0x3a000978	0.00048842235
26	0xbf2a1b45	-0.6644786
27	0x39ffd3a1	0.00048795066
28	0xb9f86d5c	-0.00047383725
29	0xb9f89b00	-0.0004741773
30	0xb9f84d88	-0.0004736001
31	0xb9f84404	-0.00047352922
32	0xb9f873fc	-0.0004738866
33	0x3a004ace	0.0004893959
34	0xb9f8a392	-0.00047424115
35	0xb9f8a9e1	-0.00047428816
36	0x3a009e23	0.00049063767
37	0x3a00b998	0.0004910468
38	0x39ff7501	0.00048724565
39	0x3a00ae8f	0.0004908824
40	0xb9f89ea6	-0.00047420448
41	0x39ff70b4	0.0004872136
42	0x39ff9a04	0.0004875214
43	0x3a0014c6	0.0004885908
44	0x3a002468	0.00048882375
45	0xb9f837d8	-0.00047343853
46	0xb9f8333c	-0.0004734042
47	0x39ffe29b	0.00048806224
48	0xb9f8562b	-0.00047366446
49	0xb9f85893	-0.0004736824
50	0xb9f874d3	-0.00047389287
51	0x3a0021e6	0.0004887864
52	0x3a004784	0.0004893469
53	0x3a009ce8	0.00049061934
54	0x39ff6079	0.00048709268
55	0x39ffded2	0.00048803404
56	0x39ffb781	0.0004877411
57	0x3a000ef1	0.0004885039
58	0x39ffc905	0.0004878716
59	0xb9f813b4	-0.00047316926
60	0x39ffbfa9	0.00048780188
61	0xb9f85823	-0.00047367913
62	0xb9f86f72	-0.0004738528
63	0x39ffa89f	0.00048763023
64	0x39ffd5ae	0.00048796594
65	0xb9f869c6	-0.00047381053
66	0x39ff67be	0.00048714684
67	0x39fffa2b	0.0004882378
68	0x3a00120b	0.0004885501
69	0x3a006c7a	0.0004898977
70	0x39ffce90	0.0004879129
71	0xb9f8b881	-0.00047439712
72	0x39ff5a56	0.00048704696
73	0x39ffd150	0.0004879334
74	0x3a00cdae	0.0004913461
75	0x39ff4360	0.00048687588
76	0x3a0021ab	0.00048878294
77	0x39ffb605	0.00048773005
78	0x3a005395	0.0004895267
79	0x39ffac0e	0.0004876558
80	0x39ffa568	0.00048760627
81	0x39ff0b2b	0.0004864571
82	0x39ffc140	0.00048781373
83	0x39ff8268	0.0004873455
84	0x3a001d4b	0.00048871775
85	0x39ffa858	0.00048762816
86	0x3e39353f	0.18086718
87	0xb9f83048	-0.00047338218
88	0x3a001375	0.0004885712
89	0xb9f85a6a	-0.0004736961
90	0x3a00002d	0.00048828387
91	0x39ffd7ec	0.00048798264
92	0xb9f8b7d5	-0.00047439212
93	0x39ff9c9e	0.0004875408
94	0xb9f85358	-0.00047364342
95	0x3a004a79	0.000489391
96	0x39ff6580	0.00048713014
97	0xb9f81ba2	-0.00047322834
98	0x3a003374	0.00048904796
99	0xb9f81695	-0.0004731907
100	0xb9f891bc	-0.00047410827
101	0xb9f869bd	-0.00047381027
102	0xb9f7e45c	-0.00047281652
103	0x3a00348f	0.00048906443
104	0x39ffecb5	0.0004881375
105	0x3a002562	0.0004888383
106	0x39ff40a2	0.00048685545
107	0x39ff9bb9	0.00048753413
108	0x39ff848b	0.00048736142
109	0xb9f87ada	-0.00047393778
110	0x3a00a34d	0.0004907146
111	0x3a002560	0.0004888382
112	0xb9f85f7c	-0.00047373387
113	0x39ff908d	0.0004874509
114	0x3a003fff	0.00048923487
115	0x3a00588a	0.0004896006
116	0x3a00459a	0.0004893184
117	0x39ff99cb	0.00048751975
118	0x39ff5b86	0.0004870558
119	0xb9f84f36	-0.00047361263
120	0x39ff5f83	0.00048708552
121	0x39fff124	0.00048817054
122	0x39ff4dd9	0.0004869539
123	0x3a009cc8	0.0004906175
124	0xb9f868db	-0.0004738037
125	0x3a003231	0.00048902916
126	0x39ff8d3e	0.00048742624
127	0xbb00b5ca	-0.0019639605
128	0xb9f822a2	-0.0004732805
129	0x3a005bcf	0.0004896493
130	0xb9f7fa0d	-0.00047297814
131	0xb9f85893	-0.0004736824
132	0x3a002087	0.00048876595
133	0xb9f88adf	-0.00047405713
134	0x3e3ab1cf	0.18231891
135	0x3a004f71	0.000489465
136	0x3a0052ab	0.0004895131
137	0x3a00b5f8	0.0004909928
138	0xb9f87de2	-0.00047396036
139	0x39ff908c	0.00048745086
140	0x3a0020c7	0.00048876967
141	0x39ff780f	0.0004872684
142	0x39fff130	0.0004881709
143	0x3a0002de	0.000488324
144	0xbf430f2a	-0.76195014
145	0x39ffc7f2	0.0004878636
146	0x39ff99ad	0.00048751888
147	0x3a0018c2	0.00048865017
148	0x3a004b44	0.0004894028
149	0x39ff8b6e	0.00048741273
150	0x3a000114	0.0004882973
151	0x39ff958a	0.00048748805
152	0x39ff7a6c	0.00048728602
153	0x3a004626	0.00048932654
154	0xb9f8184d	-0.00047320352
155	0x3a001aa2	0.0004886781
156	0x3a00083b	0.0004884039
157	0x3a002c1a	0.0004889384
158	0x39ffd8c0	0.00048798881
159	0x39ffa909	0.0004876333
160	0x3a008f38	0.0004904154
161	0x39ff6536	0.00048712798
162	0xb9f899c3	-0.00047416808
163	0xb9f85833	-0.0004736796
164	0xb9f80b62	-0.00047310727
165	0x3a0088d6	0.00049032026
166	0x3a001eaf	0.0004887385
167	0x39ff5fd8	0.000487088
168	0xb9f88451	-0.0004740083
169	0x39ff9d7c	0.00048754725
170	0xb9f831c7	-0.00047339333
171	0x3a003a1b	0.0004891471
172	0xb9f8a12a	-0.00047422323
173	0x3a006dda	0.00048991817
174	0x3a007cc7	0.0004901406
175	0xb9f89abc	-0.00047417532
176	0x3a001f42	0.000488747
177	0xb9f86596	-0.00047377934
178	0x3a003be1	0.0004891735
179	0x3a006c82	0.00048989814
180	0xb9f84bb4	-0.0004735865
181	0xb9f8b448	-0.00047436566
182	0xb9f89eb3	-0.00047420486
183	0x39ff63e4	0.00048711814
184	0x3a0026fb	0.0004888621
185	0x39ffce03	0.0004879088
186	0x39ffdbeb	0.00048801242
187	0xb9f81682	-0.00047319016
188	0x39ffcf09	0.00048791643
189	0x39ff2647	0.0004866591
190	0xb9f81a88	-0.00047322013
191	0xb9f861ea	-0.00047375198
192	0xb9f8a2b5	-0.00047423472
193	0xb9f84d5b	-0.0004735988
194	0x3a00e87e	0.00049174565
195	0x3a001d39	0.0004887167
196	0x3a002fc0	0.0004889928
197	0x3a0036ff	0.00048910076
198	0xb9f89ac4	-0.00047417555
199	0x3a007de8	0.0004901574
200	0x39ff9d59	0.00048754623
201	0x3a005545	0.00048955187
202	0xb9f840e8	-0.00047350605
203	0xb9f83237	-0.0004733966
204	0x39fff293	0.00048818122
205	0x39ffec1e	0.0004881331
206	0xb9f84495	-0.00047353344
207	0xb9f8b18c	-0.0004743453
208	0xb9f7ecd1	-0.00047287953
209	0x3a004df3	0.0004894428
210	0x39ff5e7b	0.00048707784
211	0x39ff76d0	0.00048725912
212	0xbdc927b2	-0.098220244
213	0xb9f87e71	-0.00047396452
214	0x3a008b7e	0.00049035985
215	0x3a0057ba	0.0004895885
216	0xb9f8281d	-0.00047332133
217	0xb9f80303	-0.0004730449
218	0x3a0044c0	0.0004893057
219	0x39ff6f15	0.00048720153
220	0x3a007efc	0.00049017346
221	0x3a00b3f5	0.0004909628
222	0x39ffb044	0.00048768718
223	0x3a00ac47	0.0004908484
224	0x3a00389f	0.00048912497
225	0xb9f875c1	-0.0004738998
226	0xb9f86da4	-0.00047383935
227	0x39ffa964	0.00048763596
228	0xb9f89003	-0.00047409543
229	0x3a0002bb	0.00048832194
230	0xb9f878fe	-0.00047392392
231	0x3a001fad	0.00048875326
232	0x3a00329d	0.00048903545
233	0x3a00a843	0.00049078854
234	0x39ff8f43	0.00048744128
235	0x39ffe8d6	0.00048810866
236	0xb9f8d0af	-0.00047457727
237	0x39ffbce4	0.00048778125
238	0x3a0031ab	0.00048902136
239	0x3a001944	0.00048865774
240	0x39fff20f	0.00048817738
241	0x3f3ecf6c	0.7453525
242	0x39ff8479	0.0004873609
243	0xb9f80d8a	-0.00047312333
244	0xb9f8adac	-0.00047431642
245	0x39ffdd6f	0.0004880237
246	0xb9f84608	-0.00047354423
247	0xb9f86a7b	-0.0004738158
248	0x39fff339	0.00048818605
249	0x39ff3142	0.0004867409
250	0x3a002b2f	0.00048892474
251	0x39ffb727	0.0004877385
252	0x3a00b6c0	0.00049100444
253	0x3a0066aa	0.00048981106
254	0x39ff7980	0.00048727915
255	0x39ffe273	0.00048806108

weight f4 [300, 300]
0	0x2e54827a	4.8319106e-11
1	0x2e669e17	5.2436357e-11
2	0x3019e483	5.598581e-10
3	0x3013503e	5.359232e-10
4	0xafb553e4	-3.2983316e-10
5	0x30191938	5.5696914e-10
6	0xafb5f7f4	-3.309989e-10
7	0x2fa355a5	2.971038e-10
8	0xafb3f68e	-3.2735098e-10
9	0x3003f165	4.8000565e-10
10	0x2ffa9398	4.5579607e-10
11	0x30189545	5.55094e-10
12	0x2fd74e5d	3.9163953e-10
13	0xafb3b1e8	-3.268632e-10
14	0x300e345b	5.17337e-10
15	0xafb66f81	-3.3184835e-10
16	0xafb3cb69	-3.2704442e-10
17	0xafb60b87	-3.3113798e-10
18	0xafb544cc	-3.297259e-10
19	0xae359a24	-4.129154e-11
20	0x300e5e60	5.1793414e-10
21	0xaff65ed7	-4.4814527e-10
22	0x2f4bdb88	1.8540736e-10
23	0x2f86ce41	2.452101e-10
24	0x2ff3f0b6	4.4372478e-10
25	0x2fe7ea47	4.218512e-10
26	0x33a44577	7.649481e-08
27	0x300a8b70	5.040226e-10
28	0xafb6616f	-3.3174838e-10
29	0xafb6e036	-3.3264919e-10
30	0xafb5c82e	-3.3065944e-10
31	0xafb6723a	-3.318677e-10
32	0xafb64521	-3.3154726e-10
33	0x2f45e72a	1.7999172e-10
34	0xafb7f88b	-3.3464106e-10
35	0xafb5d61b	-3.307584e-10
36	0xaf78dd5f	-2.2634115e-10
37	0xb0211015	-5.859431e-10
38	0x3019028c	5.5664695e-10
39	0xafe54432	-4.1703313e-10
40	0xafb574b0	-3.300662e-10
41	0x301a3e8e	5.611377e-10
42	0x301501f3	5.4208654e-10
43	0x300504e6	4.839208e-10
44	0x2fcb8ed0	3.702696e-10
45	0xafb57e19	-3.3013306e-10
46	0xafb64922	-3.315757e-10
47	0x300c54b4	5.1052074e-10
48	0xafb6748f	-3.3188427e-10
49	0xafb57f7b	-3.3014289e-10
50	0xafb63351	-3.314207e-10
51	0x2fdfd162	4.071224e-10
52	0x2ef79786	1.12591755e-10
53	0xb016df87	-5.4887334e-10
54	0x301a2949	5.6083543e-10
55	0x3011aa93	5.2993093e-10
56	0x3011b475	5.300714e-10
57	0x2ff67e74	4.483699e-10
58	0x301080e0	5.2570037e-10
59	0xafb3a8a5	-3.267974e-10
60	0x3013f1b9	5.3821797e-10
61	0xafb72487	-3.331346e-10
62	0xafb5a18a	-3.3038489e-10
63	0x30125890	5.3240345e-10
64	0x301745c6	5.5032634e-10
65	0xafb6ab6c	-3.322741e-10
66	0x301a85fc	5.6215277e-10
67	0x300b0166	5.056989e-10
68	0x30045a01	4.8149223e-10
69	0xae271b71	-3.7995777e-11
70	0x300e1124	5.168366e-10
71	0xafb87e15	-3.3558992e-10
72	0x301a4af6	5.61314e-10
73	0x3014b559	5.4099797e-10
74	0xb02b8297	-6.2395017e-10
75	0x3019f937	5.601523e-10
76	0x2fca0232	3.6745146e-10
77	0x30193752	5.573969e-10
78	0x2f1ff4af	1.4547895e-10
79	0x30167b23	5.474467e-10
80	0x30167e3e	5.4749083e-10
81	0x30184609	5.5396804e-10
82	0x3011be74	5.3021343e-10
83	0x301a7528	5.619136e-10
84	0x2ff4c0ac	4.4520243e-10
85	0x3016641c	5.4711946e-10
86	0xb3e4fa6a	-1.06626274e-07
87	0xafb63168	-3.3140712e-10
88	0x3001144a	4.695876e-10
89	0xafb5f297	-3.309608e-10
90	0x3001b60b	4.7188625e-10
91	0x30107671	5.255521e-10
92	0xafb681ff	-3.3197975e-10
93	0x3017606a	5.507049e-10
94	0xafb62ff5	-3.3139683e-10
95	0x2f86a394	2.4490687e-10
96	0x3019dfa9	5.5978916e-10
97	0xafb4adcd	-3.2865302e-10
98	0x2faaabe4	3.1044955e-10
99	0xafb4892e	-3.283928e-10
100	0xafb62a26	-3.3135555e-10
101	0xafb72831	-3.3316064e-10
102	0xafb3ed30	-3.2728442e-10
103	0x2fa40fcd	2.9842653e-10
104	0x300b6bbf	5.072102e-10
105	0x2fdb3821	3.987575e-10
106	0x301a3071	5.6093713e-10
107	0x3015777e	5.4375693e-10
108	0x30190b36	5.567701e-10
109	0xafb6093d	-3.311217e-10
110	0xafe0eca2	-4.09135e-10
111	0x2feafca2	4.2743858e-10
112	0xafb5c02a	-3.306025e-10
113	0x30180329	5.530177e-10
114	0x2fb303f2	3.2562714e-10
115	0x2f1f157c	1.4468599e-10
116	0x2f598d69	1.9786274e-10
117	0x3017f82f	5.528617e-10
118	0x301a9ff3	5.6252175e-10
119	0xafb5664b	-3.2996392e-10
120	0x30182fce	5.536521e-10
121	0x2ffb77f6	4.5741871e-10
122	0x301a53c5	5.614392e-10
123	0xafa197ed	-2.939368e-10
124	0xafb65087	-3.3162825e-10
125	0x2f9b6f84	2.8273572e-10
126	0x301a9523	5.623681e-10
127	0xb3a34e8b	-7.604566e-08
128	0xafb4dc2b	-3.2898248e-10
129	0x2ca93901	4.8095976e-12
130	0xafb40e93	-3.2752165e-10
131	0xafb4632b	-3.2812272e-10
132	0x2fe5b8ed	4.1786255e-10
133	0xafb63f5b	-3.3150624e-10
134	0xb325998a	-3.85567e-08
135	0x2f217b20	1.4686607e-10
136	0x2f9747fe	2.7517894e-10
137	0xafbcd6ff	-3.4349765e-10
138	0xafb6be85	-3.324098e-10
139	0x30154ca2	5.4314786e-10
140	0x2feb8791	4.2842577e-10
141	0x3015ccc0	5.449685e-10
142	0x2ffdcfd0	4.6168092e-10
143	0x3003164c	4.768921e-10
144	0x319cb347	4.560579e-09
145	0x300f21d2	5.207116e-10
146	0x301976ce	5.582991e-10
147	0x2fe5e7c7	4.1819545e-10
148	0x2f0fe842	1.3088289e-10
149	0x3016075e	5.458015e-10
150	0x3006d54c	4.905203e-10
151	0x301798ee	5.5150806e-10
152	0x3016c930	5.4855587e-10
153	0x2f18cbbf	1.3896705e-10
154	0xafb5a471	-3.304055e-10
155	0x2fcc4a01	3.7159967e-10
156	0x300828a2	4.9534254e-10
157	0x2fd53d56	3.8788056e-10
158	0x300fac12	5.2267624e-10
159	0x30158516	5.439501e-10
160	0xaf7e9e3b	-2.315738e-10
161	0x301a43e4	5.612135e-10
162	0xafb778bf	-3.33733e-10
163	0xafb78d70	-3.3388003e-10
164	0xafb45e2e	-3.2808728e-10
165	0xaf6f4db7	-2.1764533e-10
166	0x2fe0a6de	4.086393e-10
167	0x301a3b01	5.6108723e-10
168	0xafb745f5	-3.3337214e-10
169	0x3014d4f3	5.4144705e-10
170	0xafb49a28	-3.2851344e-10
171	0x2f95965e	2.7209784e-10
172	0xafb7443e	-3.3335995e-10
173	0x2e976c0f	6.88588e-11
174	0xae7b2007	-5.709924e-11
175	0xafb778a5	-3.337323e-10
176	0x2fe5e201	4.1815443e-10
177	0xafb541e9	-3.297054e-10
178	0x2f388349	1.6781344e-10
179	0xaf111a12	-1.3196935e-10
180	0xafb525c3	-3.295054e-10
181	0xafb7ec9d	-3.345563e-10
182	0xafb641e7	-3.3152434e-10
183	0x3019d4f3	5.5963695e-10
184	0x2fc78492	3.6292086e-10
185	0x301415bd	5.387298e-10
186	0x300f9155	5.2229626e-10
187	0xafb50189	-3.29248e-10
188	0x300c0400	5.093739e-10
189	0x301a1249	5.605086e-10
190	0xafb5d44e	-3.307456e-10
191	0xafb5e708	-3.3087866e-10
192	0xafb6aadd	-3.3227013e-10
193	0xafb36a1d	-3.2635308e-10
194	0xb08285dd	-9.496791e-10
195	0x2fd8fce5	3.9469863e-10
196	0x2fe4855d	4.156772e-10
197	0x2f8b8d9b	2.538457e-10
198	0xafb6a5a5	-3.3223305e-10
199	0xae913818	-6.603801e-11
200	0x30122148	5.3161786e-10
201	0x2f102ba9	1.3112235e-10
202	0xafb4d15e	-3.2890574e-10
203	0xafb48af8	-3.2840552e-10
204	0x300ae1c0	5.052492e-10
205	0x30124ab4	5.322065e-10
206	0xafb588c4	-3.3020886e-10
207	0xafb6fd18	-3.328544e-10
208	0xafb43778	-3.2781222e-10
209	0x2f486812	1.8226867e-10
210	0x3019c695	5.594328e-10
211	0x301a6107	5.616276e-10
212	0xb2f225bb	-2.8189666e-08
213	0xafb445e1	-3.279146e-10
214	0xaf9dd8f9	-2.8712302e-10
215	0x2ef7387c	1.1242293e-10
216	0xafb4dff8	-3.290095e-10
217	0xafb4af93	-3.2866562e-10
218	0x2f920b99	2.6565486e-10
219	0x301a7a0c	5.619831e-10
220	0xaf7e5b53	-2.313361e-10
221	0xaffada54	-4.5629867e-10
222	0x30153db7	5.4293586e-10
223	0xaff86ee3	-4.5189727e-10
224	0x2fac742b	3.136916e-10
225	0xafb5786b	-3.300927e-10
226	0xafb5891b	-3.3021127e-10
227	0x3012bb89	5.3380994e-10
228	0xafb724da	-3.331369e-10
229	0x300747cc	4.9214743e-10
230	0xafb5d184	-3.3072578e-10
231	0x2fd2e001	3.8357942e-10
232	0x2fa3183a	2.966674e-10
233	0xafea356b	-4.2602308e-10
234	0x3014ac38	5.4086824e-10
235	0x2ffa5240	4.5533177e-10
236	0xafb8ade5	-3.3592965e-10
237	0x300efa1d	5.201473e-10
238	0x2f829b73	2.3757316e-10
239	0x2fe539aa	4.169583e-10
240	0x300a92c5	5.041268e-10
241	0xb3e57e7c	-1.0686651e-07
242	0x3018b223	5.5550425e-10
243	0xafb450c7	-3.2799205e-10
244	0xafb84fbf	-3.3526068e-10
245	0x300e218a	5.170696e-10
246	0xafb4bb8f	-3.2875078e-10
247	0xafb6ea19	-3.3271944e-10
248	0x2ff59dc5	4.4677342e-10
249	0x3019b5a3	5.5919197e-10
250	0x2fc9af8c	3.668642e-10
251	0x301886dd	5.548893e-10
252	0xb02436b1	-5.9740574e-10
253	0x2eba3d38	8.4691754e-11
254	0x3018f739	5.56486e-10
255	0x300fd291	5.232233e-10

bias f4 [300]
0	0xb45aaa1e	-2.036472e-07
1	0xbd8513fc	-0.06497952
2	0xb89b1002	-7.393958e-05
3	0x36d64aee	6.38642e-06
4	0xb424babf	-1.5341628e-07
5	0x358066e5	9.566689e-07
6	0xb5c163f4	-1.4408711e-06
7	0x39301743	0.00016793334
8	0xb46650a3	-2.1449755e-07
9	0x372b3345	1.0204331e-05
10	0xb8c6c0e0	-9.4773015e-05
11	0x312b6fe5	2.494738e-09
12	0x3da8c49a	0.08240624
13	0x3580abbe	9.586727e-07
14	0x34a9798f	3.1567149e-07
15	0xae373d83	-4.1664016e-11
16	0xb7236eef	-9.741386e-06
17	0x38adcce2	8.287445e-05
18	0xba0ac22e	-0.0005293217
19	0xb5f86aa7	-1.850848e-06
20	0xb50baadb	-5.203016e-07
21	0x368b6c2c	4.1551157e-06
22	0x36f28de3	7.22868e-06
23	0xb1e10e73	-6.5500045e-09
24	0xb72d8dc4	-1.0344611e-05
25	0x37c1a2b1	2.3083152e-05
26	0x3888a4b8	6.5156666e-05
27	0x38bc1c82	8.9698486e-05
28	0x349f529d	2.9676167e-07
29	0xb8b4489d	-8.596594e-05
30	0x34a32d3c	3.0394028e-07
31	0xb7b0aaff	-2.1060461e-05
32	0xb7ae4e00	-2.0778738e-05
33	0x305f5a11	8.125492e-10
34	0xb8cc0ce0	-9.729876e-05
35	0xb803ed3e	-3.1453783e-05
36	0x37614564	1.3427201e-05
37	0x39aa89de	0.00032527646
38	0xb50e118a	-5.2924645e-07
39	0xb704212f	-7.875539e-06
40	0xb385408a	-6.205035e-08
41	0xb7d680b5	-2.5570722e-05
42	0xb7213247	-9.608054e-06
43	0x395fb62d	0.00021334803
44	0x37878957	1.6157208e-05
45	0x33f5f466	1.14531574e-07
46	0x35b1dbea	1.3251531e-06
47	0x348f0c02	2.6644562e-07
48	0xba01a873	-0.00049460604
49	0xb9061fba	-0.00012791055
50	0x3003ded4	4.797418e-10
51	0xb6f02ba0	-7.157636e-06
52	0xb0586e1f	-7.8736834e-10
53	0x34c02865	3.5792178e-07
54	0xb868c76a	-5.549883e-05
55	0x3894dcd3	7.098322e-05
56	0x3dd235de	0.102641806
57	0x398c0d59	0.00026712826
58	0x30354228	6.594143e-10
59	0x37a97b37	2.0203746e-05
60	0xb68b955a	-4.1599096e-06
61	0x3d2c5304	0.042071357
62	0x3623e3db	2.4421522e-06
63	0x3889cfad	6.571352e-05
64	0xb2012cd8	-7.5189845e-09
65	0x380c99d8	3.352188e-05
66	0xb69a89ab	-4.6055843e-06
67	0xb8eaaa5a	-0.0001118972
68	0x3997f5ff	0.00028984246
69	0xb691bf86	-4.343633e-06
70	0xb895cf91	-7.143536e-05
71	0xb8bff20a	-9.152673e-05
72	0xb95a6456	-0.00020827478
73	0x34057f49	1.2432896e-07
74	0xb5a4ce5a	-1.2279008e-06
75	0x3dceea80	0.10103321
76	0x34d382cd	3.9396983e-07
77	0xb66b92c6	-3.5103162e-06
78	0x3650b3aa	3.1098994e-06
79	0xb82d93e2	-4.138414e-05
80	0x35373d35	6.826188e-07
81	0xb87cb38b	-6.0248694e-05
82	0xb8b5332d	-8.640285e-05
83	0xb65296c5	-3.1380198e-06
84	0x355aec76	8.1555424e-07
85	0xb9544bc9	-0.00020246128
86	0xb97e9aed	-0.00024281042
87	0x3458bcaa	2.0185203e-07
88	0x388785b5	6.4622065e-05
89	0x35160dca	5.589942e-07
90	0xad52532a	-1.1955584e-11
91	0xb472e9ea	-2.2623104e-07
92	0x318a5209	4.025655e-09
93	0x359a27e0	1.1485499e-06
94	0xb595c179	-1.1157673e-06
95	0xb406b559	-1.2545696e-07
96	0xb884edd9	-6.338553e-05
97	0x396802d9	0.00022126305
98	0xb24d36c6	-1.19450245e-08
99	0xb96b8fab	-0.00022464867
100	0xb66d28ea	-3.5339567e-06
101	0x37cef8f9	2.467305e-05
102	0x35ace52b	1.2881695e-06
103	0xb57f3035	-9.5065053e-07
104	0x37a21f93	1.9326608e-05
105	0x35b98526	1.3822325e-06
106	0xb4c475d1	-3.6593568e-07
107	0x3708d5e2	8.15603e-06
108	0xb85b2c4d	-5.2254927e-05
109	0x3216c856	8.7767e-09
110	0x36194beb	2.2842967e-06
111	0x3576e384	9.197322e-07
112	0x32ff7aba	2.9741717e-08
113	0xb861cc58	-5.383449e-05
114	0x38a73c98	7.974467e-05
115	0x3287fff5	1.5832464e-08
116	0x36f9fa4e	7.4499176e-06
117	0xb446f852	-1.8530525e-07
118	0x34ffd852	4.7654845e-07
119	0x39292b85	0.00016133308
120	0x371488e4	8.85336e-06
121	0xb7815bd1	-1.5420754e-05
122	0x32ca880f	2.3577767e-08
123	0x391f2cab	0.00015180062
124	0xb3ffb173	-1.1906641e-07
125	0xb7f545fe	-2.9238869e-05
126	0xb778cccf	-1.4829638e-05
127	0xb1ea365b	-6.816476e-09
128	0x3945c8c8	0.00018862181
129	0x3918277b	0.00014510557
130	0x35c2e194	1.4519778e-06
131	0x37e14a2f	2.6856635e-05
132	0x3864906d	5.4493943e-05
133	0xb68603f6	-3.9939723e-06
134	0x38c5a04a	9.423548e-05
135	0xb653eee1	-3.1580496e-06
136	0xb2461fdd	-1.1532362e-08
137	0x377c6a59	1.50451315e-05
138	0x353fd6b1	7.146546e-07
139	0x36dfd648	6.6708635e-06
140	0x36dc255c	6.56086e-06
141	0x392106a6	0.00015356633
142	0x363017fd	2.6240007e-06
143	0x36b61ef1	5.4276247e-06
144	0xb9046d25	-0.0001262916
145	0x375956c1	1.2954407e-05
146	0xb85f504f	-5.3242136e-05
147	0x38011bbd	3.078183e-05
148	0xaf6dbae2	-2.1621419e-10
149	0x331eb850	3.6954873e-08
150	0xb5b66c16	-1.3591514e-06
151	0x3519231e	5.7048044e-07
152	0x390082f6	0.00012255818
153	0xb83b8062	-4.470384e-05
154	0x300ca06a	5.1159665e-10
155	0x36331b4f	2.6688974e-06
156	0x392f6999	0.00016728639
157	0xb5ba985d	-1.3902423e-06
158	0xb45420fb	-1.9756037e-07
159	0x353074f0	6.5735276e-07
160	0xb808285a	-3.2462507e-05
161	0x33033839	3.055195e-08
162	0x356acf0a	8.7473074e-07
163	0x36cb5f92	6.0609973e-06
164	0xb96d983f	-0.00022658797
165	0xb403e3d6	-1.2283212e-07
166	0x374d2ae8	1.2228942e-05
167	0xb0bc6fee	-1.3710613e-09
168	0x368d9493	4.2194238e-06
169	0x3583d524	9.822293e-07
170	0xb5a6c91b	-1.2426493e-06
171	0x2e400578	4.3660603e-11
172	0xb6806534	-3.826479e-06
173	0x348edf0e	2.6611855e-07
174	0x34196dfe	1.428925e-07
175	0xb69025a1	-4.295915e-06
176	0x352cb1e5	6.4333864e-07
177	0x352be447	6.403465e-07
178	0x37d4f4bc	2.5386333e-05
179	0x32c138a8	2.2493921e-08
180	0x34afd419	3.2750611e-07
181	0xb2ca357e	-2.354022e-08
182	0xb5b56a7f	-1.3516545e-06
183	0xb7b5b878	-2.1662781e-05
184	0xb7384f4d	-1.0985718e-05
185	0x338ebdae	6.646893e-08
186	0xb839bb40	-4.4281827e-05
187	0xae016931	-2.9424633e-11
188	0x38b19f11	8.469646e-05
189	0x37684157	1.3843491e-05
190	0x38c28a49	9.2763985e-05
191	0xb86a8723	-5.5915803e-05
192	0x37161fad	8.948072e-06
193	0x2dd1b6e0	2.3841762e-11
194	0x35efc58c	1.7864381e-06
195	0x38473712	4.7496585e-05
196	0xb6574be4	-3.208167e-06
197	0xb6e70ae1	-6.885603e-06
198	0xb93a6b59	-0.00017778332
199	0xb0af59ff	-1.2758504e-09
200	0x39898bd7	0.00026234865
201	0xb6bc111f	-5.6048298e-06
202	0xb5c0dc79	-1.4369281e-06
203	0x320a2d71	8.042989e-09
204	0xb36fb7f4	-5.581383e-08
205	0xb7b2c4e4	-2.1310938e-05
206	0xb48fdda1	-2.6797082e-07
207	0xb9a1719f	-0.00030792967
208	0xb1f548fb	-7.1387354e-09
209	0xb6a3dcae	-4.883469e-06
210	0xb5f0e206	-1.7947175e-06
211	0xb61746bc	-2.2541926e-06
212	0x370a222c	8.233397e-06
213	0x32b9edca	2.1644968e-08
214	0xb4a5b455	-3.0864854e-07
215	0xb7005e69	-7.651376e-06
216	0x30f1de60	1.7598261e-09
217	0x38f233e9	0.00011549128
218	0x34b08911	3.2882284e-07
219	0xb5bc4722	-1.4027794e-06
220	0x36f01302	7.15477e-06
221	0x397bbdf5	0.0002400799
222	0xb6b998f5	-5.531236e-06
223	0xafb3c861	-3.2702288e-10
224	0x392ccbfc	0.00016479188
225	0xb83febb7	-4.5757475e-05
226	0x35acea48	1.2883183e-06
227	0xb616cbe8	-2.247043e-06
228	0xb1cd5f5c	-5.9771263e-09
229	0xb97aa0f5	-0.00023901819
230	0xb49bcbed	-2.9019375e-07
231	0x352ddde8	6.477044e-07
232	0x36c69bdb	5.919004e-06
233	0xb3958ed9	-6.964337e-08
234	0xb919becf	-0.00014662299
235	0xb60de22e	-2.1142291e-06
236	0x2f0e39ad	1.2935315e-10
237	0x2f1e2a49	1.4385039e-10
238	0x398d7c58	0.0002698626
239	0xbd21ff18	-0.039549917
240	0x3620c85f	2.395849e-06
241	0xad2d6d8d	-9.858237e-12
242	0xb4ed1b03	-4.4164344e-07
243	0xb4ecb5c6	-4.4090683e-07
244	0x358d1b45	1.0513255e-06
245	0xb6404030	-2.8647592e-06
246	0xb8bbe647	-8.959747e-05
247	0xb6ae92a4	-5.2026753e-06
248	0x3990f326	0.0002764698
249	0x3703751e	7.835477e-06
250	0xb9ffc6a0	-0.00048785377
251	0x3a181647	0.00058016594
252	0x38345d40	4.300219e-05
253	0x38563c2f	5.1077626e-05
254	0xb6c01642	-5.724637e-06
255	0xb183a63d	-3.831501e-09
