Total_RCS/epoch_200_batch_255_lr_0_0019819414761434403_wd_0_1808248925678225/torch_model_4_GELU.pth (torch, 79675 bytes, 13 tensors)

weight f4 [60, 3]
000000 2c 8c da 3e c9 99 13 3f 60 d6 05 3f 9a b2 e7 bf
       0.42685068 0.5765653 0.52280235 -1.810138
000010 31 16 02 bb 84 5c 86 3d d8 76 22 bb fd 01 5f bb
       -0.0019849653 0.06560615 -0.0024790075 -0.0034028285
000020 82 a0 8d b9 d1 22 92 bb 7d ff ac bb 09 27 00 bb
       -0.00027013203 -0.004459717 -0.00527948 -0.0019554517
000030 6b 68 38 bb c6 cb c5 bc 2d 23 b4 bc 17 25 a1 3d
       -0.002813841 -0.024145018 -0.02198943 0.078684025
000040 cf 30 5c be b7 70 af bf f8 33 d3 3e af 28 91 bf
       -0.21502994 -1.3706273 0.41250587 -1.1340541
000050 76 ab 97 bf 30 20 e0 3e 00 d7 2c 3f ca 35 d3 3e
       -1.1849201 0.43774557 0.67515564 0.41251975
000060 16 b4 0d bf fd 50 81 bf 89 68 75 bf d9 fd 85 bd
       -0.55352914 -1.0102841 -0.95862633 -0.06542558
000070 fc 82 cd 3f ca 04 67 3e b5 78 9d be b8 e5 b0 3d
       1.6055598 0.2256042 -0.30756155 0.086375654
000080 6d f3 2c bf 03 f9 0d 3f b0 74 c6 3f 86 f5 0f 3e
       -0.6755894 0.55458087 1.550436 0.14058504
000090 41 1b 9d be 59 36 c3 be 90 07 4c bf 3d fc 52 3d
       -0.30684856 -0.381274 -0.7969904 0.051510084
0000a0 2d a0 a4 bf bc 27 30 3f 30 e9 78 3d f8 e6 04 3d
       -1.2861382 0.6881063 0.06076926 0.03244683
0000b0 47 40 ed 3e 98 69 2d bf 1b 9d 6f 3f b2 6d 4e 3f
       0.46338102 -0.6773925 0.935991 0.8063613
0000c0 8e 7f 75 bb f6 3d 55 ba 03 2c 44 ba 14 41 60 3d
       -0.0037460062 -0.0008134538 -0.0007483365 0.054749563
0000d0 cc 0a 3b be e9 83 f0 3e 53 99 d2 be 7f dc bd bf
       -0.18265837 0.4697564 -0.41132602 -1.4832915
0000e0 81 89 85 bf 53 51 d9 3b 84 35 ff 3b 4f 25 00 bb
       -1.0432588 0.006632009 0.007788362 -0.0019553488
0000f0 ec 8d 55 40 02 23 a7 3e 9b dd 50 3e fc 37 f3 3e
       3.3367872 0.32643896 0.20397036 0.4750365
000100 b8 82 8a 3f ad 51 cf bd a1 f9 48 be 40 8b f0 3f
       1.0821142 -0.10123 -0.19626476 1.8792496
000110 05 41 52 bf 4f ee c2 3b a3 7d 04 3c ff 45 5c 3b
       -0.8213046 0.0059488188 0.008086595 0.0033611057
000120 c8 82 7a 3f 87 4d aa 3e ea bd ea 3d 1c 2f b5 3c
       0.97855806 0.33262274 0.114620045 0.02211719
000130 62 68 b0 3f db a6 34 3e 21 f2 b2 3e 13 88 91 3d
       1.3781855 0.17641775 0.34950355 0.07106032
000140 5a 1b bc be fd f1 ad 3e 38 ad d2 be 7f bc 83 bf
       -0.36739618 0.33973685 -0.4114778 -1.02919
000150 5f 19 04 3c a0 9a 15 3c 6a 81 81 3b 83 e0 f0 3f
       0.00806269 0.009131104 0.003952195 1.8818516
000160 fb 9e 89 3c e1 b2 7b 3d 7f 27 e3 3b 09 60 f1 3b
       0.01679944 0.06144989 0.0069321985 0.0073661846
000170 86 55 8f 3b 0d 78 59 bd f4 99 c7 3f a1 ae bf 3e
       0.004374209 -0.053093005 1.5593858 0.3743792
000180 bf 05 14 bf 10 f6 d6 be 20 dd df 3d d6 bd 91 3f
       -0.5782127 -0.41984606 0.10930848 1.1386058
000190 67 60 7c 3e 1c da 68 3d d7 39 ac be f6 16 c7 3f
       0.2464615 0.05684863 -0.33637878 1.5553882
0001a0 be bf 2c be f9 1c 85 be 1d 18 dc 3e 5c b8 f1 3e
       -0.16870019 -0.25998667 0.42987147 0.47210968
0001b0 e0 c7 91 3f a5 e4 d6 3e 67 88 bb 3d eb d3 ac bb
       1.1389122 0.41971317 0.09156876 -0.005274286
0001c0 ab 29 b4 bb a8 da 1e bb 5d fb aa 3f 14 a8 8b 3d
       -0.0054981313 -0.0024239216 1.335796 0.06819168
0001d0 f2 9f 13 3e 02 03 8e 3f 38 2f 4c 3e d3 8a 64 3d
       0.14416483 1.1094668 0.19939888 0.055796456
0001e0 88 14 9b 3e ce 54 0f 3e c4 f3 a3 bf 70 56 b3 3b
       0.30289102 0.13997194 -1.2808766 0.0054729506
0001f0 83 9f 22 3b 3d fd 20 3a 20 9b bc bb 0d 45 0a bc
       0.0024814315 0.0006141251 -0.005755797 -0.008439315
000200 46 61 ea ba 7a 97 9c be b5 63 3f bf 7d 59 35 bf
       -0.0017881773 -0.30584317 -0.74761516 -0.70839673
000210 97 68 91 bb f9 f7 c1 bb d5 d2 94 bb 74 e1 16 3e
       -0.004437517 -0.005919453 -0.0045417347 0.14734441
000220 91 4f c3 bf 36 b7 e4 be b6 0b 2d bf 2f fe 8e 3f
       -1.5258657 -0.4467103 -0.67595994 1.1171321
000230 70 8c f8 3e 10 51 6e 3f 5a 9f 8c 3e 26 aa b2 be
       0.48544645 0.9309244 0.27465326 -0.34895438
000240 51 50 7e bb 7c 08 88 bf 00 74 2d 3e 65 68 8f 3e
       -0.0038805197 -1.0627589 0.16938782 0.28009334
000250 8b 3f de bf 46 a9 84 bf 9e 77 8a be 05 70 a1 be
       -1.7363142 -1.0364158 -0.27044386 -0.31530777
000260 01 0d fa bf bb 3d 13 bc 89 ae 0c bd 7f c8 18 bd
       -1.9535218 -0.008986886 -0.034346137 -0.037300583
000270 76 87 ba bb ef 4e 34 bb 61 b4 80 39 5b a8 f0 be
       -0.0056924177 -0.0027512868 0.00024548455 -0.47003445
000280 cd 35 cc bd 79 95 f3 3d 74 ed 2d 3d 70 b0 ba 3e
       -0.09971199 0.11893744 0.04246278 0.36462736
000290 7d 3b a4 bf f8 d9 a0 bc d5 a3 b3 bf 2b 59 e8 bf
       -1.2830654 -0.019635186 -1.4034373 -1.8152212
0002a0 4a e4 9b be ef 91 98 3e 4b 98 33 3f 65 85 3f bd
       -0.30447608 0.29798838 0.70154256 -0.046758074
0002b0 9d 54 32 be 49 c7 26 bd 55 42 69 bd 03 f9 aa bf
       -0.1741509 -0.040717397 -0.056948025 -1.3357242
0002c0 fa bc 0a 3e 86 96 12 bf 2a 40 39 3f 90 70 6f be
       0.13548651 -0.5726093 0.7236353 -0.23382783

bias f4 [60]
000000 b3 a1 aa 3f 4e c2 1c bf 77 8a 32 b9 8a 61 86 3b
       1.3330597 -0.61233985 -0.00017026985 0.004100983
000010 59 49 a4 bc 52 2b 6b bf df 49 01 bf b8 16 7c 3f
       -0.020054506 -0.91862977 -0.50503343 0.98472166
000020 ab 7d 85 bf 43 b7 23 bf 64 97 68 bf 9e 86 1d 3d
       -1.0428976 -0.6395151 -0.90856004 0.03845846
000030 d3 05 83 bf c2 20 8a be 50 49 c1 be e9 e7 f5 3e
       -1.0236152 -0.26978117 -0.37751245 0.48028496
000040 56 b0 9a ba 1f 90 cf be f0 34 7a bf 79 f3 4d bb
       -0.001180182 -0.40539643 -0.97737026 -0.0031425639
000050 97 58 56 3e bc 08 fd 3e 75 70 1e bf cb 56 b6 bb
       0.20932232 0.49420726 -0.61890346 -0.0055645457
000060 b8 48 4c be 3a 78 0e bf ff a9 ec 3d c6 de 00 bf
       -0.19949615 -0.556522 0.11555862 -0.50339925
000070 60 97 9c bb f3 78 4e bf 86 f0 7d bb 07 94 0a bf
       -0.0047787875 -0.80653304 -0.00387481 -0.5413212
000080 47 52 2d bf b8 e6 c3 be 42 fc 10 bf c7 f2 f9 3d
       -0.6770367 -0.38261962 -0.56634915 0.12204509
000090 69 a4 5e be 14 04 3c 3b 46 ed 20 3f 8e ab cd be
       -0.21742405 0.0028688954 0.6286205 -0.40169948
0000a0 ee b1 20 bf d4 cc 23 ba 08 94 3e bb 21 2f 7a bf
       -0.627715 -0.00062484783 -0.0029079933 -0.97728163
0000b0 c3 2e f9 ba de af c5 be 15 b9 8c 3e 30 c5 b1 be
       -0.0019011128 -0.3861074 0.27484956 -0.34720755
0000c0 8b 20 2b bf 70 00 ed be 89 dc 8f bf ab af cc bc
       -0.6684653 -0.46289396 -1.1239177 -0.024986109
0000d0 7b 2e 42 3b 64 08 06 bf 55 1c 5a bf 53 80 53 bf
       0.0029629755 -0.52356553 -0.8519948 -0.8261768
0000e0 b2 91 a5 3e 4b 16 d8 bd 75 77 38 bf c4 98 5c bf
       0.3233772 -0.10551127 -0.72057277 -0.861706

weight f4 [60, 60]
000000 7f 52 8c 3e 22 40 67 bd 6e e5 15 bc b8 6f 07 3c
       0.2740669 -0.056457646 -0.009148939 0.008266382
000010 bd de 0b 3c 81 6a 05 bf e3 a6 20 bf d5 db 48 bc
       0.008536992 -0.5211564 -0.6275465 -0.012259443
000020 19 b6 45 bf 2b c8 1c bf 96 e5 a0 bc bb 04 2b bf
       -0.77230984 -0.6124293 -0.019640725 -0.66804093
000030 a3 6e a3 be cf d6 38 bf ae 6c db be 11 89 b4 3e
       -0.31920347 -0.7220277 -0.42856354 0.35260823
000040 ab 4e 4c 3c 65 fb be be 0e b7 89 bf dd fa f1 bb
       0.012469928 -0.37301174 -1.0758989 -0.0073846416
000050 0a d1 53 3d 15 8e 97 3d f7 fe 39 3e ae 24 85 bc
       0.051713027 0.07400147 0.18163668 -0.016252842
000060 6a 76 ed be 51 49 19 bf 7d 15 57 bd 7c a9 ab be
       -0.46379405 -0.59877497 -0.052510727 -0.33527744
000070 b4 e1 f8 bc 90 d0 ac 3d 28 35 0c bd 83 b8 2b bf
       -0.030381061 0.08438218 -0.03423038 -0.6707842
000080 d6 29 68 be b9 84 86 be bd 31 1a 3e 0e 4d ac 3d
       -0.22672209 -0.26273134 0.15058036 0.084131345
000090 5f e3 d4 be 7f 18 98 3c 30 13 52 bf ac e8 86 be
       -0.4157972 0.018566368 -0.8206053 -0.2634939
0000a0 fe 21 61 be a6 e0 fe bc 18 13 5c 3b cd 8d cf be
       -0.21985623 -0.03111298 0.0033580717 -0.40537873
0000b0 b4 04 9e 3c cc 33 3d bf fb 8b c1 3e 26 84 00 bf
       0.019289352 -0.7390716 0.3780211 -0.5020164
0000c0 3d bd 0f bf bb a4 6a bf 6f 7b 59 bf bc 73 db 3c
       -0.5614813 -0.9165761 -0.8495397 0.026788585
0000d0 5d fa 2e 39 73 96 f1 bd a1 36 92 be da d1 a1 bf
       0.000166872 -0.11796274 -0.28557304 -1.2642167
0000e0 28 4c 16 3e b9 0c 86 bd 88 4f 31 bf d4 d6 c8 bd
       0.14677489 -0.065453954 -0.6926198 -0.098066
0000f0 41 e6 c0 bb c6 33 0f bb bb d7 cd b9 d7 17 9d 39
       -0.0058868234 -0.0021850928 -0.0003926138 0.00029963136
000100 6b 21 af 3a 38 76 0c 3b bf ec 3d 3a 02 1a 8c bb
       0.00133614 0.0021432769 0.0007245056 -0.0042755613
000110 c4 da 7b b9 b9 45 d9 bb d1 bb f1 3a 19 ed df ba
       -0.00024018722 -0.006630626 0.0018442814 -0.001708421
000120 b4 e3 66 3b 35 71 1e 3a 90 9b 7e bb 11 91 92 3b
       0.0035230936 0.0006044091 -0.0038850047 0.0044728597
000130 6a 43 86 3a 3e 72 82 bb 2b 88 60 3a 96 7d 58 ba
       0.001024348 -0.003980904 0.00085652125 -0.000825846
000140 ea f9 ee 3a c7 09 ac bb dd 30 79 ba b9 bb b1 b9
       0.0018232439 -0.005250189 -0.00095058774 -0.00033899935
000150 e7 21 2f 3b 4d 13 a6 bb 8c b8 82 b9 c6 9e ff ba
       0.0026723088 -0.005068219 -0.0002493303 -0.0019502274
000160 bd ce 03 ba 25 49 6f 3b 26 85 c1 b9 3b 9d b2 bb
       -0.000502806 0.0036512103 -0.00036911032 -0.0054508722
000170 ae 48 38 3b f6 06 31 3b d9 57 a2 bb 57 2d 58 bb
       0.0028119492 0.0027012206 -0.00495432 -0.003298601
000180 57 7a 8b 3b 22 bf 9b 39 3e 98 de 3a 67 08 12 3b
       0.0042565274 0.0002970631 0.0016982628 0.002228284
000190 88 d1 71 39 90 58 50 ba d4 ee bd 39 f8 1c 28 3b
       0.00023061607 -0.0007947767 0.0003622683 0.0025652032
0001a0 8f d2 8c 38 cd 6e 83 3b 86 91 40 3b 38 e7 88 3b
       6.71494e-05 0.004011011 0.0029383614 0.004177954
0001b0 88 0e b8 ba d1 4b 4f 3b 0b 57 36 bb 3e 68 71 3a
       -0.0014042417 0.0031630883 -0.0027822878 0.00092089537
0001c0 73 3c 9a 39 1f 05 d1 3a 46 6e a6 3a 07 d6 49 bb
       0.00029418207 0.0015946961 0.0012697659 -0.0030797736
0001d0 8e 73 84 ba 9d 6e 51 3b 0f d5 81 b9 83 d1 87 3a
       -0.0010105239 0.00319568 -0.00024763538 0.0010362122
0001e0 9d ee 24 3f b1 f9 0d 3e 05 cd 2e 3b 9e a3 70 bc
       0.64426595 0.13864781 0.0026672494 -0.014687447
0001f0 1f c7 5a bc 1e 16 40 bf 70 fb eb be 80 1c 9a 3e
       -0.013353138 -0.7503375 -0.4609027 0.3009987
000200 d2 06 05 bf b3 4c 42 bf 21 1d 12 be 3c a1 2e bf
       -0.5196353 -0.75898284 -0.14268924 -0.68214774
000210 8a c9 a5 be 36 7e ad bd 7e be d4 be 15 1d a4 3e
       -0.32380325 -0.084713385 -0.41551584 0.32053438
000220 ca da 82 bc b0 6d 89 be c4 99 2d bf 3a 91 8a 3c
       -0.015973467 -0.26841497 -0.6781275 0.016914953
000230 be 1a a9 3e 88 fe fc bd 5c 33 7e be e0 5b 8c 3c
       0.33028215 -0.123532355 -0.2482428 0.017133653
000240 3f 57 f1 be a9 9c 29 bf 30 13 16 3d 10 dd 5b be
       -0.47136876 -0.6625467 0.036639392 -0.21471047
000250 7a 36 de 3c ca 63 0f bf 35 c6 d5 3c 28 14 36 bf
       0.027125586 -0.5601164 0.026095489 -0.71124506
000260 ab 7a 95 3b f9 99 db be 4d 95 27 be d6 60 d8 3d
       0.0045617423 -0.4289091 -0.16365547 0.10565345
000270 0c b6 f4 be 07 47 80 bc 12 b0 ab 3d 2b 53 d6 be
       -0.4779514 -0.015658868 0.08383192 -0.41860327
000280 71 a7 8b be f6 ac e6 3c e2 2d 27 ba f0 48 95 be
       -0.27276185 0.028158646 -0.00063773815 -0.2915721
000290 72 5a be bb fd 71 0e be c3 3c 7e 3e 97 e0 f6 be
       -0.0058091218 -0.1391067 0.24827866 -0.48218223
0002a0 2c f7 1b bf 8c a0 e0 be 50 3c 89 bf de 95 a6 bc
       -0.6092403 -0.43872488 -1.0721531 -0.020335134
0002b0 0b a0 6a bc 73 9c fb ba cf f0 36 bf 42 20 71 bf
       -0.014320384 -0.0019196406 -0.71461195 -0.94189847
0002c0 af 5d 27 3e 02 42 9b 3c ef ec 2a bf db 07 67 ba
       0.16344331 0.018952373 -0.6676778 -0.0008813121
0002d0 3e 1f 75 3a 81 e1 78 3b 0c 18 0f b9 f9 cd 8f 38
       0.0009350664 0.0037976208 -0.00013646501 6.857137e-05
0002e0 89 32 c8 39 71 cd 82 3a 97 5e df ba 33 e6 3f 3b
       0.00038184624 0.0009979439 -0.001704174 0.0029281497
0002f0 08 1b b0 3b 0a 5b 7f bb 73 e7 c9 3a fe 69 0a ba
       0.005374316 -0.0038964176 0.001540406 -0.00052800763
000300 2a 22 08 3b a2 ac b3 ba d2 13 43 bb d5 f9 3d ba
       0.0020772316 -0.0013708065 -0.0029766452 -0.00072470057
000310 8b 6c 7a 37 6b 0c 4b bb 13 44 8a 3b 56 21 a4 b8
       1.4926433e-05 -0.0030982743 0.004219541 -7.826339e-05
000320 26 08 bf bb 6a 3b 9f ba cc 14 45 bb e9 5a 17 b8
       -0.005829829 -0.0012148444 -0.003007221 -3.6085872e-05
000330 b2 7c 09 3a c0 4b 5b bb d0 10 0f ba 8c e1 e7 ba
       0.00052447163 -0.0033461899 -0.00054575223 -0.001769112
000340 80 0e 4e b7 73 16 66 3a 51 0a 6e b7 c7 b8 70 bb
       -1.2281933e-05 0.0008777149 -1.4188307e-05 -0.003673123
000350 af 84 da 38 e9 23 f8 39 a8 b9 02 bb a3 7f 46 ba
       0.00010419764 0.00047329 -0.0019947086 -0.000757212
000360 99 64 81 3a ab ba b2 37 45 56 c5 3b e6 85 d1 39
       0.0009871899 2.1306178e-05 0.006022247 0.00039963349
000370 4b 67 a1 ba 06 a0 c3 b8 61 2c 27 b8 6f dd 01 3b
       -0.0012314109 -9.328131e-05 -3.9857234e-05 0.0019815823
000380 36 23 4d b8 34 64 8e 3b b7 5b f9 3a 5f d0 f5 b8
       -4.89086e-05 0.0043454412 0.0019024526 -0.000117213225
000390 49 12 89 ba ba bc cf 3a 18 b0 8e ba e5 ad 90 38
       -0.001045772 0.0015849092 -0.001088622 6.8988455e-05
0003a0 3e 3f ad b8 e4 88 69 b9 c3 14 8b 3a e1 ef 8e bb
       -8.2610626e-05 -0.00022271607 0.0010611046 -0.004362092
0003b0 88 17 dc ba e7 3f b6 3a 79 ee 34 b9 ec a9 fe 3a
       -0.0016791681 0.0013904542 -0.00017254976 0.0019429303
0003c0 b9 7b ba 38 f0 69 3f 3b 35 14 a5 b9 5a d7 c7 b9
       8.892216e-05 0.002920743 -0.00031486308 -0.00038116687
0003d0 95 b9 42 39 cf ab 1d bb 5f 24 37 39 df af 8d 39
       0.00018570416 -0.0024058705 0.0001746579 0.0002702465
0003e0 e2 d0 8f 3b af 4f 28 3a ba d4 36 3a e0 39 33 3b
       0.0043889144 0.0006420565 0.0006974448 0.0027347729
0003f0 58 f1 92 3a f6 f6 69 bb cc 1e 4e bb b6 c3 fc 3a
       0.0011210842 -0.0035700179 -0.0031451462 0.0019284401

bias f4 [60]
000000 e5 6d 41 3f 28 35 98 bb f9 37 7b 3f e3 af fa ba
       0.7555831 -0.0046450086 0.9813228 -0.0019125905
000010 72 6b b8 ba d8 91 8a 3c 21 67 d4 bb df 76 61 3a
       -0.0014070107 0.016915247 -0.0064820205 0.0008600782
000020 2c c6 b2 bb 7c d6 bb bd 8d 7e 92 bb 30 0c 82 bd
       -0.005455753 -0.09171769 -0.0044706524 -0.06349981
000030 6f 37 e0 bb d2 02 bd 3d 0e 2e 08 3f bd d3 1b 3e
       -0.0068425457 0.092290536 0.53195274 0.1521749
000040 c3 cb aa 3e 9f 1b 9f be 1d 82 c9 bb 20 27 e0 3c
       0.33358583 -0.3107576 -0.006149544 0.027362406
000050 db 01 12 bc 71 4e a6 bb ad 72 81 be b1 dc 82 3f
       -0.008911575 -0.005075269 -0.25282803 1.02236
000060 51 74 01 bd ff bd 30 be 9b 44 10 bc ad 55 0e bc
       -0.03160507 -0.17259978 -0.008805419 -0.008687419
000070 ab dd 20 3e 64 df e4 b8 41 73 6c 3d 8c 7f 0d bc
       0.1570956 -0.00010913497 0.057727102 -0.008636367
000080 0c 21 22 bc 89 30 21 bb d3 e1 d7 bd 84 08 c4 be
       -0.009895574 -0.002459558 -0.105411194 -0.38287747
000090 fb d6 bc 3d 69 55 e4 3e e1 d8 9d bc 5d e6 ec bb
       0.09220692 0.44596413 -0.019268455 -0.00722961
0000a0 e2 14 cf bb 87 cd ce ba a3 e5 98 bb dd e5 42 bb
       -0.006319628 -0.0015777805 -0.0046660467 -0.002973906
0000b0 05 96 77 ba 61 c7 02 3f 97 0a 21 bb fd 80 da bb
       -0.0009444657 0.5108548 -0.0024572962 -0.0066682086
0000c0 9c 92 11 bb 34 f8 c2 38 8a a0 8a bf 66 4e 89 3a
       -0.002221263 9.296872e-05 -1.0830243 0.0010475635
0000d0 76 26 2f 3f 9d 81 b4 be 4d dd 99 bb 9a eb 22 bc
       0.6841806 -0.35255137 -0.0046955706 -0.009943867
0000e0 60 f7 50 bf 6c 11 a0 3e ee 43 fc ba 6e 15 49 3f
       -0.81627464 0.31263292 -0.0019246319 0.78548324

weight f4 [60, 60]
000000 cd f0 97 bd 0f 49 6c b9 33 7b 8b bd b5 da 11 b7
       -0.07418976 -0.0002253393 -0.06810608 -8.693595e-06
000010 4f 42 2c 3a e0 c3 73 bc 86 e5 63 39 b9 f2 43 ba
       0.000657116 -0.014878243 0.00021733911 -0.0007474828
000020 68 c4 b3 b7 91 9a 0a 3c ce 14 02 bb 43 94 d0 3b
       -2.1429922e-05 0.008459703 -0.0019848826 0.0063653304
000030 3d c4 9b b9 d9 6a f2 3b 5b 0b 45 be 9e 9c fd bc
       -0.00029710113 0.007397991 -0.19242613 -0.03095847
000040 ad 24 86 3b 30 a2 b5 bc df e8 34 b9 8c d2 1c 3b
       0.0040937276 -0.022172064 -0.00017252889 0.0023929207
000050 b7 63 8b 3a f7 32 5e bb 5b 64 34 3c eb 23 78 bd
       0.0010634576 -0.003390489 0.011010255 -0.06058113
000060 47 20 fc 3a b8 bc 4b bd f0 f6 c1 b8 0c 3e 85 ba
       0.0019235694 -0.049740523 -9.248953e-05 -0.0010165586
000070 1a 38 a4 bb b5 39 10 ba c3 c7 97 3c b2 23 e9 b9
       -0.0050115706 -0.0005501763 0.018527871 -0.00044467818
000080 e3 c8 f2 38 5b 5d 36 ba 91 33 01 bb 42 b9 10 bd
       0.00011576877 -0.000695666 -0.0019714574 -0.035332926
000090 87 51 e4 ba e6 3a 8a 3b c2 ab ff bc 86 cc 9e b8
       -0.0017419317 0.004218447 -0.03120983 -7.5721226e-05
0000a0 6b c4 f2 38 5e 08 01 bb 8d e1 5b b9 84 93 5d b9
       0.00011576045 -0.0019688825 -0.00020969492 -0.00021131156
0000b0 4b cf f7 ba da 23 04 bd a0 99 27 bb 01 3c 84 ba
       -0.0018906383 -0.032260753 -0.0025573745 -0.0010088683
0000c0 10 10 bb 39 a8 db ce ba db 83 02 3c 61 61 ae b9
       0.00035679387 -0.0015782015 0.007966007 -0.0003326042
0000d0 e7 0b be bd 0a 06 2c 3d 02 96 50 bb e4 6d db b8
       -0.09279614 0.041997947 -0.0031827693 -0.000104632025
0000e0 df 18 87 bd b9 a2 87 bd f5 2c 08 bb f9 9d 40 bd
       -0.06596541 -0.06622834 -0.002077875 -0.047025654
0000f0 b2 f8 97 bd b6 d0 69 b9 0a 74 8b bd fa c3 00 b7
       -0.07420482 -0.00022298362 -0.06809242 -7.675024e-06
000100 84 7a 2c 3a 34 9a 73 bc 75 8b 63 39 6f d4 43 ba
       0.00065795355 -0.014868308 0.00021700359 -0.0007470315
000110 ba f9 ba b7 3c 73 0a 3c bb eb 01 bb a7 f8 cf 3b
       -2.2289216e-05 0.008450326 -0.0019824344 0.0063467803
000120 05 ea 9a b9 14 ac f3 3b cb 10 45 be 80 cd fd bc
       -0.00029547527 0.007436285 -0.19244687 -0.03098178
000130 e9 17 88 3b 23 aa b5 bc 0b 15 32 b9 c8 fe 1c 3b
       0.004153241 -0.022175854 -0.00016983242 0.0023955572
000140 90 a3 8b 3a 21 f2 5d bb 76 a4 33 3c 52 18 78 bd
       0.0010653604 -0.0033866244 0.0109645035 -0.06057007
000150 da 1e fc 3a 91 c0 4b bd 88 dc c0 b8 45 54 85 ba
       0.0019235269 -0.049744193 -9.1963506e-05 -0.0010172209
000160 db 6c a4 bb cd 83 10 ba 79 ca 97 3c 75 1f ea b9
       -0.0050178594 -0.0005512804 0.018529164 -0.00044655395
000170 31 f1 f5 38 77 be 36 ba 4f 24 02 bb 55 c1 10 bd
       0.00011727436 -0.00069711305 -0.0019858067 -0.035340626
000180 9f de df ba b8 95 8a 3b 38 48 ff bc a1 98 9a b8
       -0.0017079896 0.0042292736 -0.031162366 -7.3717216e-05
000190 aa e9 f4 38 6e ed 00 bb a4 7a 59 b9 13 a2 5f b9
       0.0001167835 -0.001967277 -0.0002074042 -0.00021327315
0001a0 7e b9 f7 ba 0b 00 04 bd 05 66 27 bb 7a cd 83 ba
       -0.0018899885 -0.032226603 -0.0025542986 -0.0010055744
0001b0 e6 75 ba 39 f3 e5 ce ba 37 23 02 3c 9a 14 af b9
       0.00035564526 -0.0015785083 0.007942966 -0.0003339395
0001c0 b2 10 be bd 3d 07 2c 3d 0c 67 50 bb cf f6 d5 b8
       -0.09280528 0.04199909 -0.0031799702 -0.00010202603
0001d0 90 16 87 bd 87 a2 87 bd c0 07 08 bb 5b 80 40 bd
       -0.065961 -0.066227965 -0.0020756572 -0.04699741
0001e0 12 3d a6 be eb d2 78 3a c3 ee 08 bc ec 7f 0e ba
       -0.32468468 0.00094918784 -0.0083577065 -0.0005435932
0001f0 40 85 91 39 59 c4 91 bd c3 48 ee ba 2a dc 17 38
       0.00027755834 -0.071175285 -0.0018179644 3.620625e-05
000200 64 d0 ca ba fb 8d 06 3d 97 22 6d 3c 3f c6 ee bd
       -0.0015473482 0.032850247 0.014473579 -0.11658906
000210 20 68 97 3c 4a cd 09 bf ce a8 92 ba c9 c8 0b be
       0.018482268 -0.5382887 -0.0011189224 -0.13650812
000220 3e ed 2d bc 99 09 d5 bb 24 0d 9e 3a bc 7e cb be
       -0.010615645 -0.0065013883 0.001205836 -0.39745128
000230 16 39 22 bc c8 58 33 3c 6f 92 b2 be ad 22 67 bd
       -0.009901306 0.01094646 -0.34877345 -0.056429554
000240 d6 25 46 3b fc 4e 37 3c 7f 67 57 39 11 1d 93 3c
       0.0030234954 0.011188265 0.00020542553 0.017958196
000250 fd b7 d7 bd 37 68 ee 3a d3 f9 4e bd 6b ee 4e ba
       -0.1053314 0.0018189017 -0.05053122 -0.00078938034
000260 44 13 ac 3c 68 cd 2b 3b e7 34 66 bd be 1f 87 bf
       0.02100528 0.002621496 -0.056202795 -1.0556562
000270 9c 79 c8 be da cd a7 3d db 77 39 be ce 85 e5 3b
       -0.3915528 0.0819356 -0.18112127 0.007004476
000280 e3 cf 3d 3a f5 5f dd 3b 1c 8e 89 3b 38 11 2f 3b
       0.00072407554 0.0067558237 0.004197849 0.0026713144
000290 a9 31 f0 3b ec 97 37 be cc b4 f2 3b d4 90 77 39
       0.0073301387 -0.17929047 0.0074068066 0.00023609708
0002a0 ab 41 09 3b e7 a9 54 3b 34 d5 bb 3d 24 f5 88 3a
       0.0020943682 0.0032449903 0.09171525 0.0010449034
0002b0 1c 6d 8c 3c 82 15 e1 bd 00 bb 41 3c 3f 1b 1f bc
       0.017141871 -0.109904304 0.011824369 -0.009711086
0002c0 42 dc 2c be bd 05 6b 3c 38 94 cc 3b e5 c6 d2 bc
       -0.16880897 0.01434463 0.006243255 -0.025729606
0002d0 75 19 67 3c ea 93 32 3a fa b7 92 3e c7 ca 47 3a
       0.0141051905 0.0006812202 0.28655988 0.0007621464
0002e0 84 85 4a 3b 84 2b f8 3d 0a df 36 b9 d0 5a 52 ba
       0.0030902335 0.12117675 -0.00017439961 -0.00080243964
0002f0 cd d8 86 b9 18 13 6d bd 43 c5 b2 ba 09 74 0c 3d
       -0.0002572 -0.057879537 -0.0013639111 0.034290347
000300 3d c0 09 bb ab 6a 07 3d bd a7 4f be d4 a3 af be
       -0.0021019124 0.03306071 -0.20278831 -0.34304678
000310 e6 2f 05 3e 6b ae 0c bd 45 2d 37 ba 5b 16 27 be
       0.13006553 -0.034346025 -0.00069876417 -0.16317122
000320 cf d1 81 3b 26 5c 59 ba 0c 82 cf be 72 96 a8 3c
       0.0039617787 -0.0008291624 -0.40528905 0.02057955
000330 52 79 a4 bb bf 3d 93 be 36 6b e6 ba 46 02 3c bb
       -0.0050193453 -0.28758046 -0.0017579559 -0.0028687879
000340 60 2a c8 3e 57 9b 95 3a f5 65 d8 3c d8 87 48 3a
       0.3909483 0.0011414093 0.026415804 0.0007649637
000350 b1 2e 25 bb 8a 54 96 3a 80 e7 27 bc b9 4e 35 3e
       -0.0025204832 0.0011469286 -0.010248065 0.17705812
000360 d0 85 0c be 64 40 1e 3f e9 aa 5c 3d ec e7 14 39
       -0.1372292 0.61817 0.05387393 0.00014200778
000370 cc d9 19 bb 08 9f 0f bb 75 dd c4 3a ed 3d c4 b8
       -0.0023475764 -0.0021914858 0.0015019613 -9.357543e-05
000380 03 31 f7 ba 72 c1 f4 3d 3a fc 85 ba d2 28 09 3b
       -0.0018859211 0.11950959 -0.0010222264 0.0020928872
000390 48 19 5e ba b4 1e 7a bb a0 53 67 3b 19 3f 63 3a
       -0.0008472395 -0.0038165273 0.0035297647 0.0008668765
0003a0 5c fd 8f bb 88 cd be be 66 56 e5 39 74 af a5 3b
       -0.0043942165 -0.37266183 0.00043742656 0.005056316
0003b0 3e 56 91 3c 06 f7 cc 3c 62 68 0f bb fc e7 b0 3d
       0.017741319 0.025020134 -0.0021882285 0.086379975
0003c0 4c 7f a0 bd 0c 8b b5 bb 05 e0 00 be cd ef 94 ba
       -0.0783678 -0.0055402573 -0.12585457 -0.001136297
0003d0 de 07 13 3b c1 1e d1 3c a9 9e d2 bb ef 43 41 b9
       0.002243511 0.02552736 -0.006427605 -0.00018431222
0003e0 71 b2 bf bb d4 68 ab bc 2c 17 39 bc dc 7b 98 3a
       -0.0058501293 -0.02092401 -0.0112970285 0.0011633593
0003f0 69 84 86 3c 9a 96 1e 3d 9f 5f bd be b9 ce e2 3d
       0.01642056 0.038717844 -0.36987016 0.110745855

bias f4 [60]
000000 6f 17 bf bb b9 b8 be bb 8f 2a 58 3c 7a 8b 37 3f
       -0.005831651 -0.0058203605 0.0131937405 0.716972
000010 89 f8 ef bd db c4 20 bc 23 f6 d0 3e e3 64 09 be
       -0.11717326 -0.009812559 0.40812787 -0.13417391
000020 ca 91 81 3d f3 78 af bd 54 2f 39 3e 98 3e f1 3d
       0.06326635 -0.08567991 0.1808446 0.11779517
000030 a2 e6 be bb 46 96 c8 3e 76 b5 be bb 2c 81 a0 bd
       -0.0058258334 0.3917715 -0.0058199717 -0.078371376
000040 24 11 0b bd ca 1c 2f 3e c0 95 a8 bd 79 07 a9 bd
       -0.033951893 0.17100826 -0.082316875 -0.082533784
000050 d4 80 a6 bd f2 9f b7 bd 82 fd be bb 67 a3 32 be
       -0.08130041 -0.08966054 -0.0058285603 -0.17445146
000060 93 08 10 3d 84 6e be bb 75 3f 45 bd f7 c7 9b 3e
       0.035164427 -0.0058115143 -0.04815622 0.30426
000070 22 a0 97 bd 8a 5a be bb d6 77 be bb ef 87 48 be
       -0.0740359 -0.005809133 -0.0058126254 -0.19583105
000080 22 70 be bb 2c a2 98 bd 56 df b2 bd b5 72 b8 bd
       -0.005811707 -0.07452807 -0.08734004 -0.09006254
000090 7d ac 26 be 40 b9 d6 be 96 9e be bb 10 eb 84 3e
       -0.16276737 -0.4193821 -0.0058172448 0.25960588
0000a0 7e 51 4e bd cb f3 be bb da 97 5c 3d 60 76 35 3d
       -0.050370686 -0.005827402 0.053855754 0.044302344
0000b0 ec 58 72 bd f4 85 4b bd 34 0b a9 bd e1 f6 25 3d
       -0.059166834 -0.049688295 -0.0825409 0.040518645
0000c0 79 35 ac bd 09 96 be bb b6 b5 ef 3e 5f 59 d6 bd
       -0.084086366 -0.0058162254 0.46818322 -0.10466265
0000d0 5c 6b be bb 16 5b 67 3f f1 d1 9f 3d ac 51 c4 bb
       -0.005811138 0.9037336 0.07803715 -0.0059911814
0000e0 ca 6a ab bd 15 67 60 be 6d e6 67 bd e6 84 d9 3e
       -0.08369978 -0.21914323 -0.056616236 0.42484206

weight f4 [60, 60]
000000 ee 7e 06 b9 1a 28 07 b9 7c e7 ac b9 b6 b9 b4 3a
       -0.00012826521 -0.00012889542 -0.00032978866 0.0013788256
000010 06 72 f2 ba a6 74 f3 ba e0 b8 3e bb b7 70 ae ba
       -0.0018497116 -0.0018574193 -0.0029101893 -0.0013308738
000020 62 5a f6 3a 07 05 87 38 d6 d9 3e 3b 72 bf c7 3a
       0.0018795247 6.438238e-05 0.002912154 0.001523955
000030 91 f1 06 b9 0a 7b c8 ba 50 f7 06 b9 1f ef c0 39
       -0.00012869226 -0.0015295458 -0.00012871367 0.00036799253
000040 ba 27 19 ba 77 ba 9d 3a fa 50 ea b6 5b 4b 14 b5
       -0.00058424065 0.001203372 -6.9831704e-06 -5.5243953e-07
000050 95 3c f8 b7 c8 a1 ff b8 5b 07 07 b9 8d 30 cd 3a
       -2.9592115e-05 -0.00012189482 -0.00012877343 0.0015654728
000060 ec 24 1a ba 0c 78 07 b9 d0 52 92 ba f0 ae 06 3b
       -0.00058801356 -0.00012919324 -0.0011163596 0.0020551048
000070 35 11 0c ba 09 7b 06 b9 d2 7a 06 b9 3c f4 60 3a
       -0.000534314 -0.0001282507 -0.0001282499 0.00085813156
000080 8f 03 07 b9 f2 8f b7 39 e2 3e 00 39 06 24 74 3a
       -0.00012875929 0.00035011728 0.00012230457 0.0009313229
000090 b9 a5 af ba 76 ef e3 37 c1 82 07 b9 f7 3a ae 39
       -0.001340083 2.7172016e-05 -0.00012923313 0.00033231798
0000a0 d8 ca c1 3a 6a dc 06 b9 8a f9 0d ba 4a 72 e6 b8
       0.0014785184 -0.00012861346 -0.00054159074 -0.000109885426
0000b0 0b 9a 70 39 33 53 94 3a 51 16 09 38 5d ef 77 bb
       0.00022945569 0.0011316299 3.268413e-05 -0.003783188
0000c0 90 3e 98 35 cd 20 07 b9 ca 24 3a 3b c1 96 70 bb
       1.1343091e-06 -0.00012886823 0.0028403276 -0.003671095
0000d0 17 30 07 b9 6e c0 6d ba d9 e9 9d 3a d9 6d 02 b9
       -0.00012892518 -0.0009069507 0.0012047841 -0.00012438688
0000e0 ae c1 15 38 9d 23 3c ba 0d 86 19 bb e5 b5 22 3a
       3.5704747e-05 -0.00071769377 -0.0023425848 0.0006206914
0000f0 f3 58 7e 3b b3 fc 7c 3b b7 d9 f7 3c 4e 14 27 3e
       0.0038810342 0.003860277 0.030255182 0.1631634
000100 a3 f6 84 bd af 47 15 bd ed 22 40 3e 9c 34 87 bd
       -0.06492355 -0.036445316 0.18763323 -0.06601831
000110 e1 76 c4 3d 34 54 0d 39 c6 86 88 3d 48 80 cc 3d
       0.09592987 0.00013478176 0.06666331 0.09985405
000120 80 79 80 3b 3a 14 38 3b 90 cd 7d 3b a2 43 d0 bc
       0.003920734 0.0028088228 0.003872726 -0.025422875
000130 88 32 21 be 1f 85 80 bd 72 b8 20 3a f5 2e b4 3b
       -0.15741932 -0.06275391 0.0006131 0.005498762
000140 36 db 01 ba 5b 69 f1 bd e6 19 6c 3b a2 79 54 3d
       -0.00049536244 -0.11787673 0.003602618 0.05187381
000150 26 65 66 bd a9 05 80 3b b9 87 f7 bc 17 ab 6b 3c
       -0.056248806 0.0039069247 -0.030216085 0.014384053
000160 5f 91 d2 3d dd e9 7e 3b 2b d9 7f 3b 2f 01 d9 bd
       0.102816336 0.0038896718 0.0039039354 -0.10595929
000170 86 eb 7f 3b 6b 83 f6 bc d1 6a ed bb 09 66 17 be
       0.0039050295 -0.030091962 -0.0072453995 -0.14785017
000180 a3 8d 67 bd b7 35 9d bd 13 19 7e 3b bc 98 22 3e
       -0.05653156 -0.07676261 0.003877227 0.15878576
000190 39 ee a5 3d 38 f0 7c 3b a8 12 8c bd c9 66 cc bd
       0.08102078 0.003859533 -0.06839496 -0.09980542
0001a0 37 bb 45 bd 6c 24 89 3d a8 95 9e ba 56 3e fa bc
       -0.048274245 0.066964 -0.0012099044 -0.030547302
0001b0 45 27 eb 3a 24 f7 7d 3b 33 09 46 be e5 58 5f bc
       0.001794078 0.0038752044 -0.19339447 -0.013632034
0001c0 65 14 81 3b 75 25 3d 3e 90 8c 41 bd 36 af 35 3b
       0.003939199 0.1847132 -0.04725319 0.0027722842
0001d0 d5 d3 41 3a 41 02 23 bd e2 fa f5 bb c4 a0 4d 39
       0.0007393931 -0.03979707 -0.007506714 0.00019610213
0001e0 c1 41 af b9 af 84 af b9 64 86 7c b9 61 63 08 3b
       -0.00033427592 -0.00033477458 -0.00024082657 0.0020811188
0001f0 72 e5 01 bb 91 f3 c4 ba e9 e6 a2 bb b8 88 82 ba
       -0.0019820598 -0.0015026202 -0.0049713743 -0.0009958958
000200 58 53 8e 3a 9f ac dd b8 e0 c4 e5 3a 86 64 82 3b
       0.0010858579 -0.000105702544 0.0017529987 0.0039792685
000210 9d 65 af b9 73 f8 11 bb 17 79 af b9 01 22 34 39
       -0.0003345431 -0.0022273331 -0.0003346882 0.00017178805
000220 89 46 ce ba 1a 21 7a 3a b8 86 11 b9 21 9e 22 b9
       -0.0015737574 0.00095416757 -0.00013878464 -0.00015508432
000230 71 47 0f b9 3d be 85 b9 2f 5e af b9 31 01 ea 39
       -0.00013664157 -0.00025509475 -0.00033448773 0.00044632846
000240 bd 87 43 b9 5f 84 af b9 3c 16 98 ba 55 84 fd 3a
       -0.00018647216 -0.00033477225 -0.0011603306 0.0019341806
000250 21 12 f3 38 9f 3a af b9 84 4b af b9 b7 c7 37 3b
       0.0001159052 -0.00033422277 -0.00033434865 0.0028042623
000260 4c 69 af b9 08 7e 34 39 e3 4b 4b b7 3e a8 d2 39
       -0.00033457053 0.00017213088 -1.2117412e-05 0.00040179671
000270 d6 c8 3c b9 14 6e 13 ba 92 89 af b9 35 ac 78 39
       -0.00018003894 -0.0005624008 -0.000334811 0.00023715275
000280 df 79 90 39 bb 5f af b9 d5 9f aa b9 01 46 0a 38
       0.0002755662 -0.00033449926 -0.0003254401 3.296696e-05
000290 7d 52 0c 39 c4 b0 62 39 93 7d 01 b9 e4 69 0f bb
       0.0001338217 0.0002161889 -0.00012349179 -0.0021883184
0002a0 f6 a0 14 b9 df 76 af b9 92 fd bc 39 3f 2c 11 bb
       -0.00014174343 -0.00033467167 0.0003604708 -0.0022151617
0002b0 d8 6b af b9 63 41 53 b9 e6 8f 59 3a c3 7a ad b9
       -0.0003345895 -0.00020146887 0.00082993356 -0.00033088596
0002c0 be 1c 01 b9 e3 d8 0a ba b8 0b 40 ba 63 28 e1 38
       -0.00012313106 -0.0005296601 -0.0007325965 0.00010736359
0002d0 0f fb 6c bb 5f 04 6d bb ec 37 4b 3b 05 26 54 bc
       -0.0036160385 -0.0036165935 0.0031008674 -0.012948518
0002e0 3f d2 95 3a 15 4f f4 3a 69 d6 21 bb b2 66 71 3a
       0.0011430456 0.0018639291 -0.0024694449 0.0009208723
0002f0 2e 2f 0d 39 7e d2 6a ba 80 55 61 bb cc d5 48 bb
       0.00013464384 -0.00089577574 -0.0034383237 -0.003064501
000300 a4 f1 6c bb 00 53 08 3c 04 0b 6d bb 85 70 6a 3a
       -0.0036154771 0.00832057 -0.0036169896 0.00089431583
000310 93 9a 60 bc 05 74 c9 3b 41 97 bb ba 12 de 9f ba
       -0.013708728 0.006147864 -0.0014312045 -0.0012196919
000320 da a4 d8 ba 3e b1 29 bb b6 1a 6d bb d4 65 91 bb
       -0.0016528622 -0.0025892998 -0.003617925 -0.0044371877
000330 1b e7 45 39 de fb 6c bb 37 b7 86 b9 4d 83 3a bb
       0.00018873478 -0.0036160867 -0.00025694977 -0.002845961
000340 18 46 87 bb 30 0f 6d bb 79 06 6d bb 4b d8 b1 ba
       -0.004128229 -0.0036172383 -0.0036167188 -0.0013568489
000350 ca 07 6d bb f6 06 87 3a 85 55 3e b8 bd 25 e1 bb
       -0.0036167973 0.0010301757 -4.5379176e-05 -0.006870954
000360 23 1e fe ba fb 4e 43 bb bb 0b 6d bb cd 4e c9 3b
       -0.0019387644 -0.0029801715 -0.0036170322 0.006143427
000370 ea 76 cc ba 80 0d 6d bb ad 77 28 3b b9 69 23 3a
       -0.0015599404 -0.0036171377 0.0025706098 0.00062337104
000380 2f bf a6 3a da ef 83 bb 9e 3e 9d ba d3 d1 c5 3b
       0.0012721772 -0.0040263953 -0.0011996811 0.006036976
000390 95 59 ac ba 9c 07 6d bb ae a2 c7 3b 41 cf 17 bb
       -0.0013149256 -0.0036167866 0.006092391 -0.0023164304
0003a0 d9 f0 6c bb aa 58 95 ba 05 7f 27 3b 7e 4c 6d bb
       -0.0036154299 -0.0011394222 0.0025557887 -0.0036208923
0003b0 70 c3 94 ba 66 ca 0f 39 bb a2 2c 3b 5e fb 3e ba
       -0.0011349749 0.00013712942 0.0026342112 -0.00072853814
0003c0 3b 08 95 39 bb 7c 94 39 90 9b 07 3a 4f 68 48 bb
       0.00028425627 0.0002832169 0.0005173022 -0.003057975
0003d0 5d 24 c0 ba 29 69 3e ba 92 5d 8f 3a 39 d0 c0 b8
       -0.0014659275 -0.0007263595 0.001093792 -9.194058e-05
0003e0 f6 0b db 3a 41 85 31 3a ef aa 15 3b 21 e9 5a ba
       0.0016711939 0.00067718705 0.002283748 -0.0008350779
0003f0 02 d6 94 39 96 cd d9 37 21 96 94 39 e6 00 0f 3a
       0.00028388208 2.596415e-05 0.00028340615 0.0005455151

bias f4 [60]
000000 87 d7 86 3a 95 4c 18 3f c2 92 a8 b9 0a f0 25 3c
       0.0010287621 0.59491855 -0.000321528 0.010128031
000010 7a 0a 49 3b b0 de 49 3f f3 d7 12 ba ce a8 3d 3a
       0.003067641 0.7885542 -0.0005601637 0.00072349317
000020 f9 bc 6b 3f c0 06 c6 3a 12 07 ba 39 17 c0 39 3b
       0.92085224 0.0015108213 0.00035481952 0.0028343254
000030 78 ce 52 be ea 66 6b 3a bd bf ef 3b 26 e7 29 3b
       -0.20586574 0.0008979874 0.007316558 0.0025925129
000040 87 dd f2 3c 8b c7 70 3b 7d bc 29 3f 88 c1 9d 3a
       0.029646648 0.003674003 0.66303235 0.0012035826
000050 50 9b f1 be e2 8b 94 3b 9d b1 28 3b 56 41 b0 3d
       -0.47188807 0.004533277 0.0025740631 0.08606212
000060 d7 30 22 3f a1 c2 2e 3c bd 97 f7 b9 2a 39 3c 3b
       0.63355774 0.01066652 -0.00047224565 0.0028720596
000070 a4 f8 2e 38 f1 23 95 ba b9 4b c2 ba 84 6e ce 3b
       4.1716397e-05 -0.0011378509 -0.0014823593 0.0062997956
000080 98 82 95 39 7a d5 39 bb 6c 58 33 bb d1 0e 9f bb
       0.00028516795 -0.0028356002 -0.0027365936 -0.004854061
000090 e7 86 ae 3a 91 a1 3e bb 11 a4 a5 bb 0c dd 11 b9
       0.001331535 -0.0029088 -0.0050549586 -0.00013910624
0000a0 25 3c 05 bb 05 0c 3a 3f d1 b0 58 3a f1 68 5c bb
       -0.0020330038 0.7267459 0.0008266094 -0.0033631886
0000b0 2f 8e 8a 3e 45 5b a7 3b 71 2e ea 3b 1f 8d 3d b8
       0.27061602 0.0051073157 0.0071466495 -4.519254e-05
0000c0 7b 14 9f 3a d3 5b 99 3b ac fc ee bb 55 29 52 3b
       0.0012136841 0.0046801358 -0.0072933044 0.0032068093
0000d0 85 42 d6 3e 36 18 6b 3f 08 64 d9 ba 07 f5 a7 39
       0.41847625 0.9183382 -0.0016585598 0.00032035282
0000e0 55 76 2f bb eb 98 c0 3a 51 c4 37 3a 6d 7f 81 ba
       -0.0026773412 0.0014694011 0.00070101494 -0.0009879895

weight f4 [60, 60]
000000 60 e8 5f 33 c1 ad 0b b6 71 02 84 31 a8 ca bd b3
       5.2132577e-08 -2.0813752e-06 3.841983e-09 -8.837861e-08
000010 f6 29 97 31 a9 79 76 b6 83 a5 a2 30 96 f9 20 b3
       4.399449e-09 -3.6727672e-06 1.1834093e-09 -3.74799e-08
000020 aa 4d 30 b7 ae 53 f8 31 cd 86 b3 33 b3 5e 66 b3
       -1.05085e-05 7.2272632e-09 8.359857e-08 -5.3637176e-08
000030 42 9b 27 b6 51 ba ab b2 39 d9 17 b3 1b 71 10 b3
       -2.497531e-06 -1.9991747e-08 -3.535499e-08 -3.363048e-08
000040 05 21 71 b5 33 1f 43 b1 41 26 a1 b6 64 9e 97 32
       -8.9827546e-07 -2.839397e-09 -4.8026272e-06 1.7650741e-08
000050 33 84 be b5 68 35 83 b3 ec 4f 16 33 5f a9 21 34
       -1.4194578e-06 -6.1098774e-08 3.4997285e-08 1.505591e-07
000060 68 2c 6a b6 2f ae fc b3 fe ef ca b0 f7 5b 13 b3
       -3.4894565e-06 -1.1766348e-07 -1.4765644e-09 -3.4309746e-08
000070 5c 90 10 b2 89 2a 0e 35 d2 ff 19 b2 38 18 b1 b3
       -8.414727e-09 5.296102e-07 -8.963939e-09 -8.24661e-08
000080 3a 91 8d b3 42 c2 33 b2 19 41 aa 31 02 28 90 b3
       -6.592241e-08 -1.046334e-08 4.955052e-09 -6.7128e-08
000090 a7 54 ea 32 ee 35 e6 b2 15 25 63 b2 d5 9e 31 b3
       2.727968e-08 -2.6800048e-08 -1.32215705e-08 -4.135548e-08
0000a0 f5 6d 28 b2 a0 c8 c1 34 86 d2 7e b4 e1 9a 2f 33
       -9.803888e-09 3.6095025e-07 -2.3732181e-07 4.0886224e-08
0000b0 d2 66 0e b6 fd 07 6f b3 59 85 b0 b3 bf 4a 2b b1
       -2.1219498e-06 -5.565379e-08 -8.2198945e-08 -2.4926263e-09
0000c0 a6 25 8a b2 d8 59 28 b3 9a 20 57 32 d7 38 d7 b2
       -1.6082435e-08 -3.919726e-08 1.252206e-08 -2.5055142e-08
0000d0 a0 93 ba b3 89 88 be 37 4f 71 22 b2 1b ab e2 b2
       -8.688153e-08 2.2713344e-05 -9.4554045e-09 -2.6387672e-08
0000e0 70 6c dd 32 ee 6e 86 b3 94 47 db 33 ff 2a 45 b3
       2.5777098e-08 -6.260039e-08 1.0211002e-07 -4.590674e-08
0000f0 5e 8d 7f b2 a3 c0 23 b3 9d ea 06 b1 24 ed ed 33
       -1.4875097e-08 -3.8126597e-08 -1.9632929e-09 1.1079308e-07
000100 5d 8a f4 31 d3 56 db 33 8b 74 07 32 ef 5b be 32
       7.1170647e-09 1.02137754e-07 7.884533e-09 2.2160718e-08
000110 f3 ae de 30 f5 28 2f b1 ae 4a 5e b2 22 36 fe 32
       1.620235e-09 -2.5489133e-09 -1.2939081e-08 2.9594108e-08
000120 1f 16 44 b5 c1 c7 07 33 81 71 2d 33 29 c7 2b 33
       -7.304788e-07 3.1613812e-08 4.0382933e-08 3.9995175e-08
000130 8a e6 41 b5 a9 e4 44 34 b3 c4 22 b2 b7 aa 34 b3
       -7.223358e-07 1.8337109e-07 -9.474365e-09 -4.206478e-08
000140 a1 40 83 34 81 9e 94 33 e3 a0 92 b1 f4 30 18 33
       2.4447675e-07 6.920619e-08 -4.26745e-09 3.543478e-08
000150 30 ad 1c b3 54 82 b1 34 fd 41 8e b0 43 75 1f 33
       -3.6479094e-08 3.3063645e-07 -1.0350615e-09 3.712672e-08
000160 60 cd b2 32 fb 7d be 33 ba 02 76 b1 01 40 97 33
       2.0815321e-08 8.87048e-08 -3.5799261e-09 7.043128e-08
000170 bf bd cd 32 08 c4 9e b2 db 82 e5 b2 bb f2 34 31
       2.3951428e-08 -1.8482766e-08 -2.6718615e-08 2.6331424e-09
000180 77 f1 d9 b1 0d f3 ff b1 59 10 8d b2 c8 5e 3d 32
       -6.3429826e-09 -7.4491084e-09 -1.6421994e-08 1.1022799e-08
000190 13 ed 29 b2 f9 c4 0c b4 39 d5 9a b2 44 b8 ec b2
       -9.890999e-09 -1.3110174e-07 -1.8024922e-08 -2.755781e-08
0001a0 77 b0 81 35 7e f2 25 33 7f 74 86 33 8a 63 9c 30
       9.662607e-07 3.86376e-08 6.261052e-08 1.1378785e-09
0001b0 fd 73 9f 32 b4 da 31 33 5a ea eb b3 70 4f 1a 32
       1.8562782e-08 4.1409933e-08 -1.09856686e-07 8.982042e-09
0001c0 97 83 9e 34 98 02 01 b5 1e 10 68 b0 fc ba 47 32
       2.9525538e-07 -4.806002e-07 -8.442401e-10 1.162584e-08
0001d0 04 db 05 b3 72 fe 01 32 b2 e4 bd 32 bd 6e 19 32
       -3.116567e-08 7.566642e-09 2.2106494e-08 8.930951e-09
0001e0 3c 46 87 38 d3 81 99 3d 4c a0 8b ba 70 b7 f9 3b
       6.450384e-05 0.07495465 -0.0010652631 0.0076207444
0001f0 df 9a 01 ba a2 7d 0c 3e 7a 7b 7a b9 c3 d3 3d 3b
       -0.0004944037 0.137198 -0.00023887857 0.002896533
000200 de bd 50 3e 59 8c 8c b6 ac 89 75 b8 20 c4 6a 3a
       0.20384929 -4.1886638e-06 -5.854077e-05 0.00089556165
000210 e5 33 07 bf bd 17 6a 3b 58 10 20 3b 76 7d f6 38
       -0.5281356 0.0035719716 0.0024423804 0.00011753563
000220 96 9c 35 bf 4d e7 a6 3b b2 f9 71 3d 70 1b 20 3b
       -0.70942056 0.005093491 0.05907602 0.0024430417
000230 44 0e 86 be 7a 1f 71 3b 57 dd 92 3a e5 2d 5e bc
       -0.2618276 0.0036792443 0.001120488 -0.013560747
000240 ff 34 86 3d 28 22 19 3c 9b c2 cf 39 d3 f3 ed b9
       0.06553077 0.009346522 0.0003962711 -0.00045385826
000250 f8 b1 83 ba 69 b1 3c 3a b8 2e 02 3a f6 70 a1 3b
       -0.0010047546 0.0007198067 0.0004966068 0.004926796
000260 af 11 5b 39 a1 39 f2 39 76 93 87 ba d2 c3 17 ba
       0.00020892055 0.00046200774 -0.0010343629 -0.00057893724
000270 2b f6 68 3a 30 e4 22 3a e6 b8 ba b9 e8 b3 77 b9
       0.00088867795 0.0006213812 -0.00035614445 -0.00023622776
000280 7c a0 cd 39 38 9e 7e bd 0f eb 87 3a 29 05 af b8
       0.00039220217 -0.062162608 0.0010369736 -8.3456114e-05
000290 d3 4c 35 3f c4 3b d8 3a 14 a9 66 3b 3d 9f 81 ba
       0.7082035 0.0016497304 0.0035195993 -0.0009889376
0002a0 b6 d2 87 b9 c6 a1 4d 3b 34 03 ce b8 f8 0e 16 38
       -0.00025906198 0.0031376942 -9.823442e-05 3.5776728e-05
0002b0 67 7e ae 3e 36 69 5e 3e 6a de 9d ba c6 a8 c4 37
       0.34080812 0.21719822 -0.0012044434 2.3443612e-05
0002c0 58 31 4e ba 1c 89 ea 39 29 c2 75 3b 05 f3 e2 b9
       -0.0007865629 0.00044734112 0.0037499762 -0.00043287143
0002d0 a0 bc 8a b9 44 9e b3 3b 6c c2 74 b9 51 3a 6a 3a
       -0.00026461948 0.005481513 -0.00023342081 0.00089350814
0002e0 7c 1a de b9 a5 a8 8b 3d 98 52 1f b8 44 22 c4 39
       -0.00042362872 0.06819276 -3.7985476e-05 0.00037409563
0002f0 5f 9f 05 3e de 1e 94 b9 1c 2a b1 38 6a 59 1d 38
       0.13049076 -0.00028251758 8.447861e-05 3.751499e-05
000300 69 c1 88 bd c6 05 02 3a 76 d8 3a b9 53 45 b4 b9
       -0.06677515 0.0004959967 -0.0001781898 -0.00034383926
000310 ff ec 7b 3d a3 70 9e 3a 03 fc 10 3d 9c 39 8a 3a
       0.061505314 0.0012088012 0.035396587 0.0010545733
000320 87 e9 08 be e3 b5 62 39 fa 16 06 b9 14 df 2b bc
       -0.13370334 0.00021620798 -0.00012787795 -0.010490198
000330 6c f1 4f 3c 8e 21 c6 3a c0 8c 16 39 eb ae d8 b9
       0.012691837 0.0015116201 0.00014357548 -0.00041329055
000340 e5 14 1a ba 27 cf 60 3a e1 f5 20 39 5b 80 ef 39
       -0.00058777473 0.000857579 0.00015350386 0.00045681265
000350 0d 45 a6 39 63 3a bc 39 0d 10 c5 37 91 8b 24 39
       0.00031713434 0.00035901656 2.3491704e-05 0.00015692251
000360 19 33 28 b9 b6 c7 73 39 98 c9 0b 3a e3 ae c7 b7
       -0.00016040764 0.00023248684 0.0005332469 -2.3804087e-05
000370 ec f8 f6 38 02 ae 80 3e 62 54 74 3a 7e 13 30 39
       0.000117765594 0.25132757 0.00093204353 0.0001679193
000380 b5 2b 7e 3e 29 56 91 39 03 a2 13 39 9f 64 8d b9
       0.2482136 0.0002772075 0.00014079367 -0.00026968584
000390 98 5e 90 b9 c3 c9 e8 38 a9 5b e5 39 43 28 00 b9
       -0.00027536298 0.00011100203 0.00043746576 -0.0001222203
0003a0 62 65 19 3e 64 cb 05 3e e3 82 c6 b8 57 ed e6 37
       0.1498008 0.13065869 -9.465755e-05 2.7528657e-05
0003b0 ca 1e 76 b8 f1 3f bd b8 ed 9a 84 b9 7a 8c 88 38
       -5.8679645e-05 -9.024132e-05 -0.0002529243 6.511151e-05
0003c0 92 2e 6b 3a e9 13 e4 3d bf ca 88 3a b9 c3 f9 bb
       0.0008971478 0.1113661 0.00104364 -0.007622209
0003d0 b6 9f 2f 3a 68 d1 20 3e b7 99 0b ba 7b 9f 33 bb
       0.0006699519 0.15704882 -0.00053253345 -0.002740829
0003e0 48 9b 6a 3e 1c f2 3f 3a ab 1e 0b b9 37 55 0b bb
       0.22910798 0.0007322149 -0.00013267498 -0.0021260509
0003f0 a7 bf ce be 06 b6 4c bb b9 39 35 bb a0 99 f5 ba
       -0.40380594 -0.0031236424 -0.0027652814 -0.00187378

bias f4 [60]
000000 0d 5f 89 b6 83 26 98 b3 e6 33 9a 3e 18 bd 04 3e
       -4.0939835e-06 -7.085057e-08 0.3011772 0.12962759
000010 93 39 36 3e 2e e5 cf b5 3c b4 fa 3d 91 66 8c b6
       0.177954 -1.5489402e-06 0.12241408 -4.1842654e-06
000020 30 a7 92 31 0e f4 34 31 2a 66 a4 39 a3 77 d1 3e
       4.2681663e-09 2.6332176e-09 0.00031356636 0.40911588
000030 32 82 aa b5 5e fc 9e 38 9f 4d b3 3e 7f fa 36 3e
       -1.2703879e-06 7.581034e-05 0.35020158 0.17868994
000040 47 d0 81 3e 6f 3c 0f 3e ca 7b 30 3e a8 46 a7 3e
       0.25354216 0.13987897 0.17234722 0.32671094
000050 3a a2 a7 3e 14 b1 b6 3e a9 16 8b 3d 9d 3a f7 37
       0.32740957 0.35681975 0.067914315 2.9471988e-05
000060 71 71 9c 3e f3 c1 4d 3e 44 f9 f8 3e e8 9c a2 b4
       0.305553 0.20093517 0.48627675 -3.0289016e-07
000070 d6 c1 87 3e 69 a9 9e 3e 85 46 39 34 f7 a3 70 3e
       0.26515073 0.30988625 1.7255122e-07 0.23500048
000080 95 27 44 3e bb 0a bf b5 75 80 8a 3e 0a 78 1b 3e
       0.19155724 -1.4233732e-06 0.2705113 0.1518251
000090 02 83 66 39 6f e7 95 3e e2 c0 95 3e 1a a2 a2 35
       0.00021983313 0.29278132 0.2924872 1.2117118e-06
0000a0 ac 93 70 34 80 d2 71 b8 a6 06 54 b9 7a eb 74 35
       2.2405465e-07 -5.765492e-05 -0.00020220372 9.1239747e-07
0000b0 57 3c 14 38 d8 58 f3 b8 40 dc 92 3e cc 99 38 38
       3.5342146e-05 -0.000116036914 0.28683662 4.4012253e-05
0000c0 6f d6 aa 3e 07 86 04 3e 1b f1 bb 3e ef ea 31 3d
       0.33366725 0.12941752 0.36707386 0.04343694
0000d0 a0 33 fe 35 62 28 8a b5 7f 73 41 3e cf d8 b3 3e
       1.89395e-06 -1.0293554e-06 0.18891715 0.3512635
0000e0 4c 04 f4 39 fb 68 f5 b8 10 54 8f b6 de 90 15 36
       0.00046542508 -0.000117020645 -4.2715183e-06 2.2287054e-06

weight f4 [60, 60]
000000 4e 36 e8 ac 90 46 3e 29 d6 93 85 33 09 a4 3a 33
       -6.5998656e-12 4.2249678e-14 6.220186e-08 4.345569e-08
000010 89 7a 8b 33 25 40 59 2c e9 9b 35 33 80 df 02 ad
       6.494981e-08 3.0873162e-12 4.2284146e-08 -7.439271e-12
000020 78 ea 20 a8 88 c4 04 29 b4 62 73 2f df 81 91 33
       -8.9326265e-15 2.948035e-14 2.2135788e-10 6.775712e-08
000030 2a 84 25 2d 3a 55 c9 31 95 3e 5a 33 3e b4 8a 33
       9.40851e-12 5.859559e-09 5.0814e-08 6.4589116e-08
000040 a1 5e 59 33 de 36 7e 33 b3 5a 88 33 d8 f0 59 33
       5.0610314e-08 5.9188885e-08 6.3494916e-08 5.0743296e-08
000050 d8 f9 59 33 80 73 90 33 ed 5c 07 33 dd 88 8a ad
       5.075148e-08 6.726532e-08 3.1516652e-08 -1.5749563e-11
000060 4d b6 59 33 7c 63 54 33 8c 0b 92 33 f1 e4 40 ad
       5.069005e-08 4.9450577e-08 6.800755e-08 -1.0964772e-11
000070 7b 3b 59 33 f5 fa 59 33 27 0f fb 27 91 80 86 33
       5.0578347e-08 5.0752494e-08 6.9682923e-15 6.263247e-08
000080 c9 90 8d 33 a2 d2 08 2b a9 7d 59 33 49 5f 46 33
       6.5921604e-08 4.860922e-13 5.0638537e-08 4.618713e-08
000090 b2 a6 34 31 28 9d 59 33 e6 e4 59 33 fa 29 4e 2c
       2.6288203e-09 5.0667182e-08 5.073243e-08 2.9297662e-12
0000a0 70 95 21 b5 dd 44 a3 ac 7c 86 6c 31 58 7e 15 ac
       -6.0194634e-07 -4.640384e-12 3.4418965e-09 -2.1244308e-12
0000b0 13 0c 59 ac 2e 19 08 38 7b af 59 33 1c 23 00 ac
       -3.0844257e-12 3.2448377e-05 5.068385e-08 -1.8209384e-12
0000c0 ea 12 5a 33 51 5c 70 33 79 b8 5a 33 5a c2 c6 32
       5.0774283e-08 5.5963316e-08 5.0924857e-08 2.3138615e-08
0000d0 6f 41 4e 2a 58 83 4c b7 92 34 8c 33 70 66 5a 33
       1.8319177e-13 -1.2189928e-05 6.5288205e-08 5.0850247e-08
0000e0 b2 8e 57 b5 1f 9e 99 b3 55 c2 67 2d a0 53 8c 2a
       -8.030139e-07 -7.15338e-08 1.317398e-11 2.4927022e-13
0000f0 b7 44 6a 33 64 99 29 34 73 4f 3e 3e 13 3f 70 3d
       5.4544866e-08 1.5795155e-07 0.18584995 0.058653902
000100 6e c7 16 3e fb 78 53 35 b3 42 63 3d f9 9b 50 36
       0.14724514 7.8779675e-07 0.05548353 3.1085203e-06
000110 22 4a ce b0 8a 2f 8e b0 95 7c 1d b5 2f 70 3c 3e
       -1.5009542e-09 -1.0345371e-09 -5.866835e-07 0.1840217
000120 1c bc 2e 36 09 6d d9 33 a0 c9 2e 3e 3b d4 68 3e
       2.6037515e-06 1.0124683e-07 0.17069101 0.2273721
000130 26 8a f1 3d 15 f8 bc 3d fa fb 05 3e e4 1e 22 3e
       0.11793928 0.092270054 0.13084403 0.15832096
000140 70 69 22 3e 0d 0d 26 3e f6 0e 06 3d 61 3e 50 36
       0.15860534 0.16215916 0.03272911 3.1030725e-06
000150 31 c3 15 3e c3 cf bb 3d 75 07 6c 3e 6f 7d 1a 37
       0.14625241 0.09170487 0.2304972 9.20832e-06
000160 fe 27 ff 3d de 55 17 3e 7d f8 ad 32 ec 63 02 3e
       0.124588 0.1477885 2.025285e-08 0.1273343
000170 ea 41 2b 3e bf 17 15 b4 23 d8 01 3e a5 0b 8c 3d
       0.16724363 -1.3885345e-07 0.12680106 0.068381585
000180 3e 53 ac b4 4a ba 0d 3e cd e1 0d 3e 83 6c b6 35
       -3.2098063e-07 0.13840595 0.13855667 1.3591638e-06
000190 29 7f 64 b4 1f df 51 34 0b cb 71 36 15 44 b1 b5
       -2.1280415e-07 1.9545813e-07 3.6029985e-06 -1.3207342e-06
0001a0 f7 f5 26 b3 b0 cc 9b b5 ff b8 0a 3e 29 9a 7a b5
       -3.887359e-08 -1.1607972e-06 0.13547133 -9.335659e-07
0001b0 92 de 25 3e bc d6 95 3d 7b 10 36 3e e0 c6 a4 3c
       0.16198185 0.07316348 0.17779724 0.020114362
0001c0 af 44 9a b3 cd 3f 91 b4 ec 68 91 3e f6 b9 2c 3e
       -7.183677e-08 -2.7054776e-07 0.28400362 0.16867813
0001d0 96 ae 1f 35 fa df 95 b5 b5 04 68 b6 2f e5 89 b3
       5.948617e-07 -1.1166551e-06 -3.4573434e-06 -6.421248e-08
0001e0 1a d6 91 33 80 26 29 34 ba 0b 80 3e ff 61 a9 3d
       6.7910335e-08 1.5753358e-07 0.25008947 0.082706444
0001f0 a3 fc 4a 3e ad c2 52 35 a4 b9 a0 3d e2 9f 50 36
       0.19822936 7.8514387e-07 0.07847908 3.108748e-06
000200 d4 bb cb b0 66 d9 90 b0 30 e3 57 b5 f1 9f 79 3e
       -1.4823578e-09 -1.0539167e-09 -8.042434e-07 0.24377419
000210 a9 ae 2f 36 86 0a 9b b2 12 9b 69 3e e3 f8 9a 3e
       2.6178698e-06 -1.804916e-08 0.22813061 0.3026801
000220 f3 ec 22 3e 89 c7 00 3e 43 0b 35 3e 44 ce 57 3e
       0.15910701 0.12576117 0.17680077 0.21074778
000230 3e aa 57 3e d0 17 5e 3e cd 0a 44 3d 65 00 50 36
       0.21061036 0.21688771 0.047861863 3.0994645e-06
000240 ef 8b 48 3e 31 51 00 3e 1d b1 9a 3e 47 17 1a 37
       0.1958463 0.12530972 0.30213252 9.184535e-06
000250 aa 1b 2c 3e 25 02 4b 3e bc 58 a0 32 51 48 30 3e
       0.16807428 0.19825037 1.8666803e-08 0.17215087
000260 93 48 66 3e bd a4 01 b4 54 93 2e 3e 13 66 c3 3d
       0.22488622 -1.2073993e-07 0.17048389 0.095409535
000270 64 f2 0f b5 73 e8 3d 3e b5 69 3e 3e ee 1d b8 35
       -5.3624376e-07 0.18545704 0.18595012 1.3717779e-06
000280 e7 b1 6a b4 e4 e7 c4 34 e3 ba 47 36 0c 89 b0 b5
       -2.1857669e-07 3.6676568e-07 2.9762093e-06 -1.3152908e-06
000290 51 2e 69 b3 2a 2c 44 b5 34 8b 39 3e 92 0c a3 b5
       -5.4291664e-08 -7.3079957e-07 0.18119508 -1.2148105e-06
0002a0 36 9e 5c 3e cc 17 ce 3d 5e 04 71 3e ea ba fb 3c
       0.21544728 0.10063133 0.23536822 0.030728776
0002b0 e9 02 ac b3 9f fc 8e b4 65 7d c0 3e 7f 21 65 3e
       -8.0099035e-08 -2.6633367e-07 0.37595668 0.22376059
0002c0 4e 59 0d b4 1e 5d 41 b5 a4 8e 69 b6 97 70 9a b3
       -1.3164137e-07 -7.2033606e-07 -3.4802733e-06 -7.191664e-08
0002d0 e3 22 79 27 84 26 75 26 ce aa d3 2f 4f 2a aa 2f
       3.4574604e-15 8.505365e-16 3.850204e-10 3.0952882e-10
0002e0 93 eb d4 2f 85 17 db a7 bd 25 a7 2f 05 2f 7b a9
       3.872996e-10 -6.081021e-15 3.0403938e-10 -5.577398e-14
0002f0 70 9d 15 25 e0 78 8d a5 1f 47 c0 31 f7 82 d4 2f
       1.2977032e-16 -2.454151e-16 5.596021e-09 3.8655631e-10
000300 ce 04 64 aa 80 e7 97 b8 1a 20 bd 2f 4f 85 cc 2f
       -2.0252135e-13 -7.243361e-05 3.440171e-10 3.7202105e-10
000310 3b 9d bc 2f 3b 16 bb 2f 1f d5 ce 2f 23 10 bd 2f
       3.430872e-10 3.4030898e-10 3.7622613e-10 3.4390366e-10
000320 e5 27 bd 2f 2d 8f d8 2f 7c af 99 2f 7f e9 9d a9
       3.4407246e-10 3.9391904e-10 2.7955227e-10 -7.012706e-14
000330 6d ec bc 2f cf 63 bb 2f 5f 50 d0 2f 29 d1 8d aa
       3.4364991e-10 3.408602e-10 3.7892087e-10 -2.5191765e-13
000340 54 aa bc 2f c0 e9 bc 2f 66 91 cf a4 48 bf d0 2f
       3.4318026e-10 3.436309e-10 -9.0018254e-17 3.7970893e-10
000350 05 66 d6 2f 0c 62 ad a6 f9 aa bc 2f 70 bd b2 2f
       3.8998862e-10 -1.2030862e-15 3.4318484e-10 3.2512615e-10
000360 be 8a e8 b3 92 c7 bc 2f c3 c1 bc 2f 05 60 0c aa
       -1.0828579e-07 3.4338804e-10 3.4334677e-10 -1.2467811e-13
000370 85 cc 95 b0 f4 b6 b5 28 79 af 4d ab e9 7a 50 28
       -1.0899305e-09 2.017438e-14 -7.307415e-13 1.1572971e-14
000380 b6 d4 a7 a9 49 3c 43 a8 3f bf bc 2f 80 1f 6b 28
       -7.453189e-14 -1.0837747e-14 3.433289e-10 1.3051951e-14
000390 82 06 bd 2f 16 08 ad 2f 23 27 bd 2f 14 d6 8b 2f
       3.4383524e-10 3.1474262e-10 3.4406708e-10 2.5436064e-10
0003a0 84 da 37 26 60 34 d6 ad e2 25 cb 2f c1 fd bc 2f
       6.3787023e-16 -2.4352242e-11 3.6952402e-10 3.4377304e-10
0003b0 dc be c0 2a 15 51 b2 26 d4 74 9e a8 ba 94 9c 26
       3.4238487e-13 1.2373208e-15 -1.759219e-14 1.0864987e-15
0003c0 68 0a 85 33 21 29 29 34 49 94 61 3e 24 f1 91 3d
       6.195188e-08 1.5754314e-07 0.22029223 0.07126072
0003d0 05 db 32 3e 4a 0d 53 35 7f 6b 8a 3d cb a3 50 36
       0.17466362 7.8622963e-07 0.067587845 3.1089755e-06
0003e0 7e c3 cd b0 1b 56 91 b0 46 e6 6d b5 3e 82 5d 3e
       -1.4971275e-09 -1.0574611e-09 -8.862447e-07 0.21631715
0003f0 cb b2 2e 36 32 87 37 33 a3 b7 4d 3e 23 48 89 3e
       2.6032092e-06 4.2730967e-08 0.20089583 0.26812848
