Total_RCS/epoch_200_batch_255_lr_0_0019819414761434403_wd_0_1808248925678225/torch_model_5_ELU.pth (torch, 95093 bytes, 15 tensors)

weight f4 [60, 3]
0	0x3eb43d6e	0.35203117
1	0x3f8d9287	1.1060342
2	0x3f1ac189	0.6045156
3	0xbeaf4f36	-0.3424012
4	0x3ee79de4	0.45237648
5	0xbf485342	-0.7825204
6	0xbeab1143	-0.33411607
7	0x3f8f6efb	1.1205744
8	0x3f61c01b	0.88183755
9	0xbac5de4c	-0.0015096157
10	0xb98f79b2	-0.00027365756
11	0x3a9ddbe2	0.001204368
12	0xbeb54113	-0.3540121
13	0x3f1dafd8	0.6159644
14	0x3dd4efe9	0.10397322
15	0x3e0493cb	0.12947004
16	0xbe9c0990	-0.30476046
17	0xbfb3c76c	-1.4045234
18	0x3e680824	0.22659355
19	0xbee0d19d	-0.43909922
20	0xbfbc498d	-1.4709946
21	0x3e54e3ae	0.20789978
22	0x3f9165f1	1.1359235
23	0x3f148512	0.5801555
24	0xbef3c9d2	-0.47614914
25	0xbf49c232	-0.78811944
26	0xbf25ce5e	-0.64768016
27	0xbe489269	-0.19587101
28	0x3f91d03d	1.1391674
29	0xbe297eda	-0.16552296
30	0xbe88a903	-0.26691446
31	0xbf03e9bd	-0.5152853
32	0xbf8dd1c7	-1.1079644
33	0x3f99a341	1.2002946
34	0x3fa975a7	1.323903
35	0x3d325d16	0.043545805
36	0xbee90cf0	-0.45517683
37	0xbf39437d	-0.72368604
38	0xbed36f34	-0.4129578
39	0x3ede219a	0.4338501
40	0xbf8df406	-1.1090095
41	0x3edf71a0	0.43641376
42	0xb895e7c1	-7.148041e-05
43	0x3a22ba2c	0.00062075513
44	0xba192614	-0.0005842161
45	0xbec4ff37	-0.38475963
46	0x3fb79ccb	1.4344724
47	0x3f7ca995	0.9869626
48	0x38436b0a	4.659131e-05
49	0x3a1322a1	0.0005612765
50	0xba3590b9	-0.00069261674
51	0x3e1006fa	0.14065161
52	0xbf202daa	-0.6256968
53	0x3f7e9738	0.9944949
54	0xbe4f056b	-0.2021691
55	0xbf7cac7a	-0.9870068
56	0xbf822793	-1.0168327
57	0x39869a80	0.00025673583
58	0x39d0e5fd	0.00039844206
59	0xba81c838	-0.0009901589
60	0x3e96288a	0.29327804
61	0x3fb2ad58	1.395915
62	0x3f163ef5	0.58689815
63	0x3fa26e4e	1.2689912
64	0x3d41d49c	0.0473219
65	0xbf0d547f	-0.55207056
66	0xbdc87d45	-0.09789518
67	0x3f1cd386	0.6126026
68	0xbde8dcde	-0.11370252
69	0xbed5f489	-0.41788128
70	0xbf03d50b	-0.5149695
71	0x3f110f67	0.5666413
72	0xbd033b41	-0.03203893
73	0x3f2c6f2c	0.67357135
74	0xbdf70731	-0.120619185
75	0x3fb5735a	1.4175828
76	0xbd8a886e	-0.06764303
77	0x3d87d507	0.066324286
78	0x3f6917ea	0.91052115
79	0x3dfa35c9	0.1221729
80	0xbe5a09a7	-0.21292745
81	0x3e7a9285	0.24469955
82	0xbdbe6a55	-0.09297625
83	0xbead4d6f	-0.3384814
84	0xba57c92a	-0.0008231575
85	0xb9694c1f	-0.00022248969
86	0x3aa2638a	0.0012389284
87	0xba440339	-0.0007477287
88	0xb9a55f8e	-0.00031542446
89	0x3a8d5a63	0.0010784384
90	0xbe99177b	-0.29900727
91	0xbee835e0	-0.45353603
92	0x3f199bc9	0.60003334
93	0xba63786f	-0.0008677309
94	0xb9341089	-0.00017172298
95	0x3aae96f2	0.0013320132
96	0xbf15d971	-0.58534914
97	0xbf890ee7	-1.0707673
98	0x3c0f03f5	0.008728971
99	0x38c3b7ab	9.3325354e-05
100	0x3a0c52a9	0.00053528935
101	0xba40a8b8	-0.000734936
102	0xbe137a87	-0.14402209
103	0x3eb9fdaf	0.36326358
104	0xbec2cae2	-0.38045412
105	0x3a9f1e78	0.0012139818
106	0x39954267	0.00028468968
107	0xba97e230	-0.0011587795
108	0x3fe6a13a	1.8017952
109	0x3e5a6af1	0.21329857
110	0x3e018e23	0.12651877
111	0xbd229d58	-0.039700836
112	0xbeabd67f	-0.33562085
113	0xbf0f56a3	-0.5599157
114	0x3f389d55	0.7211507
115	0xbf0e0553	-0.55476874
116	0x3e67aed1	0.22625281
117	0x3f6541fb	0.89553803
118	0xbf630750	-0.88683033
119	0xbe710f8d	-0.23541088
120	0x3ee53c73	0.44772682
121	0xbec2de7d	-0.3806037
122	0xbfb74b3d	-1.4319836
123	0x3c9e7863	0.019344514
124	0x3f89bf70	1.0761547
125	0x3f553200	0.8327942
126	0x3e3af97d	0.18259235
127	0xbeda2354	-0.42605078
128	0x3ea3170c	0.3185352
129	0xbea7d024	-0.32775986
130	0xbf547fb3	-0.83007354
131	0xbf23ea10	-0.64029026
132	0x3a16d425	0.0005753658
133	0x39dc025a	0.00041963422
134	0xba5b36b8	-0.0008362341
135	0x3e76ebe6	0.24113426
136	0xbf867d11	-1.0506917
137	0xbe4e2795	-0.20132287
138	0xba16b752	-0.0005749363
139	0x3b480149	0.0030518344
140	0x3aea1475	0.001785888
141	0x3e41fb50	0.18943524
142	0xbf30cfb1	-0.6906691
143	0xbf4e993d	-0.80702573
144	0xbeacc040	-0.33740425
145	0xbf1f2eb6	-0.6218065
146	0xbeaf6983	-0.34260187
147	0x3e2073e4	0.15669209
148	0xbf13382b	-0.5750758
149	0xbdd6a625	-0.10480908
150	0xbe2231f8	-0.15839374
151	0xbf00e728	-0.50352716
152	0xbfcc86b0	-1.5978603
153	0xba34fa4f	-0.0006903754
154	0xb9e8374e	-0.00044291693
155	0x3a604aed	0.00085560867
156	0x3ce6882a	0.0281411
157	0x3d485686	0.04891064
158	0xbfaa9ec5	-1.3329703
159	0xbf34e999	-0.7066894
160	0xbf48785b	-0.7830865
161	0x3f3278c1	0.69715506
162	0xbb1034ae	-0.0022004056
163	0xbaa6a9ca	-0.0012715396
164	0x3b4c8cae	0.0031211781
165	0x3e4e96f1	0.20174767
166	0xbeebc884	-0.4605142
167	0xbbe428e4	-0.0069628824
168	0x3ae57c70	0.0017508399
169	0x3954113d	0.00020224317
170	0xbac514e3	-0.0015036132
171	0x38cb0a40	9.6817035e-05
172	0x3a0c56e6	0.0005353525
173	0xba41078c	-0.00073634903
174	0x3e34c1f8	0.17652118
175	0xbf7d334f	-0.98906416
176	0x3e100a4e	0.14066431
177	0xbeab9982	-0.33515555
178	0x3e794f5a	0.24346676
179	0xbf7ff97b	-0.9999005

bias f4 [60]
0	0x3f8015e7	1.0006684
1	0xbf75a150	-0.9594927
2	0x3edccd94	0.43125594
3	0xbab3ae28	-0.0013708519
4	0xbe991792	-0.29900795
5	0xbf513e87	-0.81736034
6	0xbf3c9222	-0.7366048
7	0x3f484eba	0.7824513
8	0xbf7fac33	-0.9987213
9	0xbe91e929	-0.284982
10	0xbf768e9c	-0.96311355
11	0x3e254bc9	0.16142191
12	0xbf6cb333	-0.92460936
13	0xbe461a60	-0.19345999
14	0x39a0d493	0.00030675958
15	0x3f0be85d	0.54651433
16	0x39f62aac	0.0004695257
17	0xbf1ffd2d	-0.6249569
18	0xbf7edcb1	-0.995555
19	0x3a6a3b9b	0.00089352735
20	0x3f658124	0.8965018
21	0x3f6d68e5	0.9273818
22	0xbe2985ab	-0.16554897
23	0xbdc6fb1b	-0.09715863
24	0xbdb4fc18	-0.088371456
25	0xbedd8c36	-0.43271035
26	0x3f4e809a	0.8066498
27	0x3c9f81d5	0.019471088
28	0xbaafb942	-0.0013406652
29	0xba931cef	-0.0011223833
30	0x3d8d52d8	0.06900567
31	0xbabefa23	-0.0014570396
32	0xbf3ffd59	-0.7499595
33	0x3a0b4350	0.00053124595
34	0xbee50aa8	-0.44734693
35	0x3a96a88e	0.0011494325
36	0x3df04562	0.11731984
37	0xbf00980c	-0.50232005
38	0x3f801962	1.0007746
39	0x3eb74e05	0.35801712
40	0xbed2170c	-0.41033208
41	0x3f45d5a1	0.77279097
42	0x3ed8c580	0.4233818
43	0xbf6e27ed	-0.9302967
44	0x3a27c091	0.0006399239
45	0xbb1b7905	-0.0023723256
46	0x39c0df3d	0.0003678742
47	0xbedf93c6	-0.4366743
48	0xbf3a5a6b	-0.72794217
49	0x3d363f2e	0.044493847
50	0xbf9370db	-1.1518816
51	0xba54e141	-0.00081207237
52	0xbf5dc387	-0.86626476
53	0xbea042f2	-0.31301075
54	0xbb2a109c	-0.0025949841
55	0x3e3d65dd	0.18495889
56	0x3ad72430	0.0016413983
57	0x3a0b9eb3	0.0005326077
58	0xbf1d49f6	-0.6144098
59	0xbf86a491	-1.0518972

weight f4 [60, 60]
0	0xbb8372ff	-0.0040115113
1	0xbb57b0e5	-0.0032911834
2	0xbb2909ea	-0.0025793263
3	0xb9ca3419	-0.00038567258
4	0xbb28c5d0	-0.002575267
5	0x3b14a97d	0.002268403
6	0x3b4e9978	0.003152458
7	0xbb83c323	-0.004021065
8	0xbc38404a	-0.011245796
9	0xbb78725e	-0.0037909965
10	0xbbbe0859	-0.005799335
11	0xbbb98991	-0.005662151
12	0xbc07918f	-0.00827445
13	0x3b2c3ea7	0.002628246
14	0x38cf5343	9.886038e-05
15	0xbb89524d	-0.004190719
16	0x391d84bd	0.00015022136
17	0x3c056483	0.00814164
18	0xbbf5b3b3	-0.0074982285
19	0x399d4152	0.0002999404
20	0xbb980bdd	-0.004640086
21	0x3ad18c2a	0.0015987207
22	0xbb5b8e63	-0.0033501617
23	0x3a072392	0.00051551417
24	0xbb64405a	-0.0034828396
25	0xbb473944	-0.0030399123
26	0x3a2cdd07	0.0006594215
27	0xbad3e0a0	-0.0016164966
28	0xb9e31787	-0.00043314343
29	0xb9b6f003	-0.00034892568
30	0x3aca80dc	0.001544978
31	0xb9fab4e4	-0.0004781849
32	0xbc042f43	-0.008067909
33	0x3932cc8d	0.00017051604
34	0xbb2c3911	-0.0026279131
35	0x39aa8dc9	0.00032530565
36	0xbbd0b4de	-0.0063692173
37	0xbae9520a	-0.0017800939
38	0x3a37d61c	0.0007012801
39	0x3ae7e1f2	0.0017691238
40	0x3b63bc3c	0.0034749648
41	0xbb3d7364	-0.002890789
42	0x3b0bd32f	0.0021335592
43	0xbc07141b	-0.00824454
44	0x393fa4cd	0.00018276573
45	0xba8022cf	-0.0009775999
46	0xb99703a2	-0.0002880367
47	0xb8aa10c1	-8.109352e-05
48	0xbbb772f5	-0.0055984207
49	0x3a075ac0	0.0005163364
50	0xbb2d28ea	-0.0026422092
51	0xb969cad2	-0.00022296168
52	0x3a93fdd1	0.0011290853
53	0xbb5b30dd	-0.0033445873
54	0xba0e1247	-0.00054195937
55	0x3aa4994a	0.0012557891
56	0x39f4b43b	0.0004667359
57	0x3932fae1	0.00017068863
58	0x3b71423e	0.0036813165
59	0xbb8ab427	-0.0042329016
60	0x3da19bf3	0.07891073
61	0xbeac7b84	-0.33687985
62	0xbe415c89	-0.18882956
63	0xbb9968cc	-0.004681682
64	0xbea8490c	-0.3286823
65	0x3e485237	0.19562612
66	0x3ea15308	0.3150866
67	0xbd4be847	-0.049782064
68	0xbe48b59d	-0.1960053
69	0xbf0273c9	-0.50957924
70	0xbc93f284	-0.018059976
71	0x3b458f80	0.0030145347
72	0xbe2d900c	-0.16949481
73	0x3e9c5abb	0.30537972
74	0x3b9f1520	0.004854813
75	0xbe977837	-0.29583904
76	0x3ba3cf59	0.004999083
77	0x3ea8b024	0.32946885
78	0x3cbbc15c	0.02291935
79	0x3bb34576	0.005470927
80	0xbdabea43	-0.08394291
81	0x3f1e2094	0.6176846
82	0xbe93eb31	-0.28890374
83	0x3d0829f1	0.033243123
84	0xbe879d92	-0.26487404
85	0x3e81278f	0.25225493
86	0x3ee193e9	0.4405816
87	0x3e02afe9	0.12762417
88	0xbbaff1c3	-0.0053693964
89	0xbba8004c	-0.0051269885
90	0x3de4d585	0.11173538
91	0xbbb3d83e	-0.0054884246
92	0xbe2dcc81	-0.16972543
93	0x3ba5a129	0.005054612
94	0xbe73fe0c	-0.2382738
95	0x3ba1e35f	0.004940435
96	0x3ee481d9	0.44630316
97	0x3c458833	0.012056398
98	0x3f29bbe6	0.66302335
99	0x3f1b6e77	0.6071543
100	0x3ed3e769	0.4138749
101	0xbd1a31e3	-0.037645232
102	0x3eb3d34b	0.3512214
103	0xbde93476	-0.11386959
104	0x3b9acbeb	0.004724016
105	0x3e8578a9	0.2606862
106	0x3a3046cb	0.0006724416
107	0x3e6d70d6	0.23187575
108	0xbe0bdd04	-0.1365853
109	0x3e2e0608	0.16994488
110	0x3de0cf7d	0.10977075
111	0xbb9b10da	-0.0047322335
112	0xbcf260ac	-0.029587112
113	0xbd0f3734	-0.034964755
114	0xbc078834	-0.008272219
115	0x3e626ec2	0.22112563
116	0x3baf3aa5	0.005347567
117	0x3ba551c9	0.00504515
118	0x3e1b685e	0.15176532
119	0xbe88f29f	-0.26747605
120	0xbe95c31a	-0.29250413
121	0x3d4dd82f	0.050254997
122	0x3c796789	0.015222439
123	0x3b608887	0.0034261064
124	0x3d3da15f	0.046296474
125	0x3e43d5f1	0.19124581
126	0x3e17cd3d	0.14824386
127	0xbe833abd	-0.2563075
128	0x3e552616	0.2081531
129	0xbde886cd	-0.11353836
130	0x3ea2ad26	0.31772727
131	0xbf811061	-1.0083123
132	0x3def9fe9	0.11700422
133	0xbe4def65	-0.20110853
134	0xbb9ff5d6	-0.004881601
135	0x3c51d43d	0.012806949
136	0xbbaa4157	-0.0051957774
137	0xbd334e58	-0.043775886
138	0x3dfcd4c4	0.12345269
139	0xbbc2cf65	-0.0059451335
140	0xbeb7ad23	-0.3587428
141	0xbf0207aa	-0.50792944
142	0xbd4f13be	-0.050555937
143	0x3e6ddbe8	0.23228419
144	0xbdb3486c	-0.08754048
145	0xbf0cd10c	-0.5500648
146	0xbed147a6	-0.40874976
147	0xbd69d3a7	-0.057086613
148	0x3ba45a6c	0.005015662
149	0x3b9bf41e	0.0047593256
150	0x3e68e32a	0.22742906
151	0x3ba69480	0.0050836205
152	0x3e322eda	0.17400685
153	0xbbad4781	-0.005288065
154	0xbb55fdca	-0.003265249
155	0xbb7ebdd8	-0.003887048
156	0xbf562c8c	-0.83661723
157	0x3d825f19	0.06365795
158	0xbe2e7baa	-0.17039362
159	0xbeef7559	-0.46769217
160	0x3d92632a	0.0714782
161	0xbdd0ddd6	-0.10198562
162	0x3d027952	0.03185398
163	0x3df3e507	0.11908918
164	0xbb85056e	-0.004059485
165	0xbdfea1e9	-0.12433226
166	0x3be89f0f	0.0070990394
167	0xbccc2d0a	-0.02492382
168	0x3de3788e	0.11106978
169	0xbd46159a	-0.048360445
170	0x3ec4ab5b	0.38411984
171	0x3b84d41b	0.0040536053
172	0x3e157146	0.14593992
173	0x3e9e0c9e	0.30869
174	0x3bfdb97c	0.0077430587
175	0xbd5c07ea	-0.053718485
176	0xbb815ee1	-0.003948078
177	0xbbacf6d5	-0.005278448
178	0xbe510b4e	-0.20414469
179	0x3e1015c5	0.14070804
180	0x3e7adeb1	0.24499013
181	0x3c985a81	0.018597843
182	0x3e827c2f	0.2548537
183	0xbc3acb60	-0.011401027
184	0x3e71736c	0.23579186
185	0xbf04b8af	-0.51844305
186	0xbf13fd51	-0.57808405
187	0x3e63f784	0.22262388
188	0xbeb2180e	-0.34783977
189	0x3e832f89	0.25622204
190	0xbf00378a	-0.50084746
191	0xbea2ad07	-0.31772634
192	0xbe8bfc46	-0.27340907
193	0xbed8cda6	-0.42344397
194	0x3c48a268	0.012245752
195	0x3ed61495	0.41812578
196	0x3c52fa79	0.0128771
197	0xbec7e1a1	-0.3903933
198	0xbf263062	-0.64917576
199	0x3c72d880	0.014822125
200	0x3ea3ffc6	0.32031077
201	0xbe871dcb	-0.26389918
202	0x3e41fa6f	0.18943189
203	0xbcb219cf	-0.021740822
204	0x3e229ee2	0.15880921
205	0xbeb10b7f	-0.34579083
206	0xbe77d399	-0.24201812
207	0xbcc69900	-0.024242878
208	0xbc7093bb	-0.014683659
209	0xbc5e3d1a	-0.013564372
210	0xbdbff5b6	-0.093730375
211	0xbc7a5407	-0.015278823
212	0xbe85ef16	-0.2615897
213	0x3c569727	0.013097561
214	0x3e4b4174	0.19849187
215	0x3c3dbb01	0.01158023
216	0xbef8f66e	-0.4862551
217	0xbde396b1	-0.111127265
218	0xbeee8381	-0.46584705
219	0xbef059c0	-0.46943474
220	0xbec39747	-0.38201353
221	0x3e8413d0	0.25796366
222	0xbe8ed99e	-0.27900404
223	0xbec388a4	-0.38190186
224	0x3c369f96	0.011146447
225	0xbebaa559	-0.36454275
226	0x3b9df873	0.004820877
227	0xbe9588e1	-0.29205993
228	0xbe292743	-0.16518883
229	0xbe66dbf0	-0.22544837
230	0xbf5503b3	-0.8320877
231	0xbc3e6162	-0.011619898
232	0xbe98da99	-0.29854277
233	0x3d039626	0.032125615
234	0xbcd8223c	-0.026383512
235	0xbe68fa74	-0.2275179
236	0x3c51c652	0.012803631
237	0x3c564baf	0.013079568
238	0xbed85902	-0.42255408
239	0xbe3c8ba9	-0.18412651
240	0xbe6de81a	-0.23233071
241	0xbb94a59c	-0.0045363437
242	0xbe8aae4f	-0.27086112
243	0x3ad4855a	0.0016214058
244	0xbd9011e1	-0.0703466
245	0x3d9324ed	0.071847774
246	0x3db4391e	0.08799957
247	0xbe5a2552	-0.21303299
248	0x3e129341	0.14313985
249	0xbdd414f2	-0.103555575
250	0x3df4f259	0.11960287
251	0xbdcd6de0	-0.100307226
252	0x3de1505a	0.11001654
253	0x3dac800e	0.08422862
254	0xb983198b	-0.00025005298
255	0xbea58a8c	-0.32332265

bias f4 [60]
0	0xbbc674d3	-0.006056407
1	0x3d2e65f1	0.042577688
2	0x3ea0331a	0.31288987
3	0x3ec5e277	0.3864934
4	0xbd8a1d50	-0.06743872
5	0x3eba5bcf	0.3639817
6	0xbe18d4c0	-0.14924908
7	0xbbcea151	-0.0063058515
8	0x3e8abe1f	0.27098176
9	0x3b335971	0.0027366544
10	0x3b8e65d5	0.0043456354
11	0xbc1da457	-0.009621701
12	0xbaa4ccce	-0.0012573244
13	0xbb439bee	-0.002984758
14	0x3b1969dd	0.0023409047
15	0xbc10ec98	-0.008845471
16	0xbbd29701	-0.0064266925
17	0xbdaac2d9	-0.083379455
18	0xbb653512	-0.003497426
19	0xbc026626	-0.007958924
20	0x3ee160a6	0.4401905
21	0xbb6bdae8	-0.0035988633
22	0xbdbafdd1	-0.09130443
23	0x3e875062	0.26428515
24	0xbe619798	-0.22030485
25	0xbe2e1c35	-0.17002948
26	0x3de45e84	0.1115084
27	0xbe049069	-0.12945713
28	0xbb04ab51	-0.0020243714
29	0xba851dfa	-0.0010156028
30	0x3b8cafb8	0.0042934082
31	0xbea1e33a	-0.31618673
32	0x3b02a0fa	0.0019932375
33	0xbdedae9b	-0.11605569
34	0xbef9e1c4	-0.48805058
35	0x3bbb3e28	0.0057141967
36	0x3b6a8df3	0.0035790175
37	0x3e433b74	0.19065648
38	0xbeef0c9d	-0.4668931
39	0x3bad0d64	0.0052811373
40	0x3b56ecdb	0.0032794985
41	0xbceaa890	-0.02864483
42	0xb9b5521e	-0.00034584192
43	0xbbb34d1b	-0.005471838
44	0xbe3f5412	-0.18684414
45	0xba11bd1f	-0.0005559492
46	0xbe0573aa	-0.13032404
47	0x3ed9dfdd	0.42553607
48	0x3f2eb5a9	0.6824594
49	0xbe282829	-0.1642157
50	0xbba7a328	-0.0051158853
51	0x3bbc3d16	0.0057445867
52	0x3a416bbb	0.0007378419
53	0xbc41090d	-0.011781943
54	0xbec74c4e	-0.38925403
55	0xbe8e17a8	-0.27752423
56	0x3af70721	0.0018846729
57	0xbf1b7b25	-0.6073478
58	0xba6a8700	-0.0008946508
59	0x3e4a37f3	0.19747905

weight f4 [60, 60]
0	0x3b8ae0bb	0.0042382157
1	0xbdd1d349	-0.102453776
2	0xbd9b364d	-0.075787164
3	0xbc11257c	-0.008859035
4	0xbc895db6	-0.016768318
5	0xbd94a50f	-0.07258045
6	0xbcd0dcb5	-0.025495866
7	0xbb926400	-0.0044674873
8	0xbcb65b36	-0.02226029
9	0x3bacece0	0.005277261
10	0xb9b6a72d	-0.000348383
11	0x3ad9b29d	0.0016609017
12	0x3b8c1b61	0.0042757248
13	0xbb5cb735	-0.0033678536
14	0xb99818ce	-0.0002901018
15	0xbc2a9845	-0.01041228
16	0xbb92a0c6	-0.004474732
17	0xbbcdf92a	-0.006285806
18	0x3b4fdcfb	0.0031717408
19	0x3aae281e	0.0013287102
20	0xbcad4bfd	-0.021154398
21	0x3b8a795f	0.0042258943
22	0xbd94acd2	-0.07259525
23	0xbd5816d4	-0.052756146
24	0xbd3842ff	-0.044985767
25	0xbb7e9ad3	-0.0038849607
26	0xbc02f18b	-0.007992159
27	0xba53283b	-0.0008055006
28	0xbba6164b	-0.0050685755
29	0x3ab69edb	0.0013932841
30	0x3b43f75c	0.0029902076
31	0xbcd7c5d6	-0.026339453
32	0x3ae043af	0.0017110015
33	0xbd81c5f6	-0.06336586
34	0xbd818cc0	-0.06325674
35	0xbb4c8f31	-0.0031213278
36	0x3bf3d80b	0.007441526
37	0xbcf8739b	-0.030328562
38	0xbd715737	-0.058921065
39	0x3b0ebc25	0.0021779623
40	0x3bd9f111	0.006651052
41	0x3ba4dd2b	0.005031248
42	0x3adc76ca	0.001682007
43	0x3b8186d1	0.003952839
44	0x3ce6ad8b	0.028158924
45	0xbb7b7690	-0.003837023
46	0xbc97b22a	-0.018517572
47	0xba9e702f	-0.0012087877
48	0xbd877d9e	-0.066157565
49	0xbd9ff45a	-0.07810278
50	0xbbb991e7	-0.005663145
51	0x3c0fd1ed	0.008778078
52	0x3b5eb98f	0.0033985113
53	0x3b6defaa	0.003630618
54	0xbcc8681e	-0.02446371
55	0xbc0e1c10	-0.008673683
56	0x3be5839b	0.007004214
57	0x3d1ab4ef	0.037770208
58	0x3b132429	0.0022451973
59	0xbcadca4a	-0.021214623
60	0xbbe26f26	-0.0069102226
61	0x3ef992ba	0.48744756
62	0x3dab5c89	0.08367259
63	0x3e3d8a24	0.18509728
64	0xbe0b2641	-0.13588811
65	0xbed169b7	-0.40900967
66	0x3e429b03	0.19004445
67	0xbbb27c09	-0.005446915
68	0xbf277192	-0.6540767
69	0x3c26a0d4	0.01017018
70	0x3c32e120	0.010917932
71	0xbc5e56fd	-0.013570544
72	0x3b2121c7	0.0024586783
73	0x3b382f06	0.00281042
74	0x3bc508e5	0.006013023
75	0xbc43197c	-0.011907931
76	0xbb88990b	-0.004168635
77	0xbd1932ad	-0.037401844
78	0x3b888e53	0.004167357
79	0xb8a8caa8	-8.048612e-05
80	0xbf359078	-0.70923567
81	0xbb354cd6	-0.0027664206
82	0xbe94597b	-0.28974518
83	0xbf0d10c5	-0.55103713
84	0x3e08b440	0.1335001
85	0x3cd6390f	0.026150255
86	0xbea1cd22	-0.31601816
87	0x3c97046d	0.018434728
88	0x3b4867c4	0.0030579427
89	0x3b726823	0.003698834
90	0x3bf3a3bd	0.0074352906
91	0xbe35be4c	-0.17748374
92	0x3b35c2c5	0.00277345
93	0xbe1d3393	-0.15351705
94	0x3e49a67f	0.1969242
95	0x3c481fcf	0.012214615
96	0x3b97756b	0.0046221516
97	0xbf48dc7e	-0.78461444
98	0x3f9d42e0	1.2286034
99	0x3bf7d51b	0.007563246
100	0x3bc35271	0.0059607555
101	0xbd2a238d	-0.04153781
102	0x3b471d68	0.0030382518
103	0xbbb46bfd	-0.0055060373
104	0xbe122ad1	-0.14274146
105	0x3c05ec22	0.008173974
106	0xbe897abf	-0.2685146
107	0xbf05ae13	-0.5221874
108	0xbe455369	-0.192701
109	0x3e9a8aef	0.30184123
110	0x3ab555cc	0.0013834774
111	0x3b2a6bc3	0.0026004172
112	0x3b6ba9c2	0.0035959338
113	0xbc870c21	-0.016485276
114	0x3e582aa4	0.21110016
115	0xbdc1cc1b	-0.09462758
116	0x3c49333f	0.012280284
117	0xbeb530ac	-0.35388696
118	0x3b763f07	0.0037574188
119	0x3e14134d	0.14460488
120	0x3c08d2a2	0.008351
121	0x3e4bf310	0.1991694
122	0x3bd867b2	0.0066041583
123	0xbf3e3859	-0.7430473
124	0xbd65032e	-0.055911236
125	0xbf2860f4	-0.6577294
126	0xbd941c4f	-0.07231962
127	0x3a9ed2fd	0.0012117323
128	0x3e55cf35	0.20879824
129	0xbb26b2f7	-0.0025436261
130	0xbc637b99	-0.013884448
131	0x3c16c12c	0.009201329
132	0x3c08da2a	0.008352796
133	0xbc179b8a	-0.009253392
134	0xbc0c90ce	-0.008579446
135	0xbbd4084b	-0.006470715
136	0x3b03c944	0.0020108977
137	0xbd0f37cb	-0.034965318
138	0x3b820596	0.003967951
139	0x3c2ffd74	0.01074158
140	0x3e03ff35	0.12890323
141	0x3c0b6930	0.008508965
142	0x3ec6dff1	0.3884273
143	0xbf534247	-0.82523006
144	0xbdf1e108	-0.118104994
145	0xbd2f48e0	-0.04279411
146	0x3e14d8ef	0.14535879
147	0xbd51acec	-0.0511903
148	0xbc247556	-0.010037741
149	0x3b9ea274	0.0048411433
150	0xbc2eb880	-0.010664105
151	0x3fa9f92b	1.3279165
152	0xbbdaa0a8	-0.0066719837
153	0x3ea2e668	0.3181641
154	0x3df378f3	0.118883036
155	0xbc8aec42	-0.01695836
156	0xbc25155c	-0.010075893
157	0x3ddcc738	0.107801855
158	0xbe8290bf	-0.25501058
159	0xbc3fd719	-0.011708998
160	0xbc221bbf	-0.0098943105
161	0x3d922ca2	0.07137419
162	0x3b9da1b7	0.0048105377
163	0x3bf16beb	0.007367601
164	0x3e52e2c4	0.20594317
165	0xbbfa60f8	-0.007640954
166	0x3f3a8f48	0.7287488
167	0x3e76c970	0.2410028
168	0xbeb5da9e	-0.35518354
169	0xbe35396d	-0.17697687
170	0xbbf78132	-0.007553243
171	0xbb1c0845	-0.002380864
172	0x3b5ef8ab	0.003402273
173	0x3c3f47b7	0.011674813
174	0x3db470a6	0.088105485
175	0x3f890746	1.0705345
176	0xbb9f458b	-0.004860585
177	0x3d5b73ec	0.05357735
178	0x3bb6e51c	0.005581511
179	0xbe10556a	-0.14095083
180	0x3bb77587	0.005598727
181	0x3e219034	0.15777665
182	0xbe3adafe	-0.18247601
183	0x3d8ac9ad	0.06776748
184	0x3d9f496d	0.07777677
185	0xbd894be4	-0.06703928
186	0x3d70fe96	0.058836542
187	0xba65863e	-0.00087556604
188	0x3dd55ebe	0.10418461
189	0xba52ddf4	-0.0008043938
190	0xbc0e2953	-0.008676845
191	0x3b5dd1ac	0.0033846898
192	0x3b83e6ac	0.004025301
193	0xb9ece721	-0.00045185632
194	0xbb139691	-0.0022520164
195	0xba96ccb5	-0.0011505099
196	0xba820964	-0.0009921012
197	0x3ba0144b	0.0048852316
198	0x3ab578a0	0.0013845153
199	0x3a9dd788	0.0012042383
200	0x3e420df4	0.18950635
201	0x3baa7210	0.0052015856
202	0x3e4233c2	0.18965057
203	0xbdac6d37	-0.084192686
204	0xbdfeaffa	-0.124359086
205	0xbe328320	-0.17432833
206	0xbe76a1af	-0.24085115
207	0xbe03b129	-0.1286055
208	0xbafc3e99	-0.001924473
209	0x39a02f49	0.00030552808
210	0xbb49ddd6	-0.003080239
211	0x3c017088	0.007900365
212	0x3a32f971	0.0006827331
213	0xbec0f043	-0.37683305
214	0x3ef594d5	0.47965112
215	0xbc07c4e0	-0.008286685
216	0x3af4c454	0.0018674233
217	0xbd3984ed	-0.045292784
218	0xbe958af2	-0.2920757
219	0xbb575bcb	-0.003286111
220	0xb9548aa4	-0.00020269543
221	0xbd2ee53d	-0.042699087
222	0x39d9644c	0.00041464192
223	0x3bbc3c65	0.0057445043
224	0x3e083fd4	0.13305598
225	0xbba3651f	-0.00498642
226	0x3cd8e0a4	0.026474304
227	0x3e8cfcc2	0.2753659
228	0xbd0dac72	-0.034588285
229	0xbe602f73	-0.218931
230	0xba5164d8	-0.0007987744
231	0x3b11a603	0.0022224195
232	0x3a56e68e	0.00081978075
233	0x3b4dd06b	0.0031404744
234	0xbe57047f	-0.20997809
235	0x3b9f71d2	0.0048658634
236	0xbaf586d3	-0.0018732197
237	0xbca79cc6	-0.020460498
238	0x3a082b46	0.00051944365
239	0x3e5cc0a5	0.21557863
240	0x3c016cf8	0.007899515
241	0xbe945342	-0.2896977
242	0x3d956202	0.07294084
243	0xbda43c5c	-0.08019325
244	0xbd55996a	-0.05214826
245	0x3e0e153e	0.13875291
246	0xbcfe4ef2	-0.031043503
247	0x3b61f6f7	0.0034479478
248	0x3de49b32	0.11162414
249	0xbc1bb9c6	-0.009504741
250	0xbc5d93f7	-0.013524047
251	0x3c30d4c8	0.0107929185
252	0xba5e5e14	-0.00084826467
253	0xbb982c32	-0.0046439404
254	0xbc26cfd6	-0.010181388
255	0x3b7513fd	0.0037395947

bias f4 [60]
0	0xbca30ec9	-0.019904511
1	0xbe6b3119	-0.22967948
2	0x3c082496	0.008309504
3	0x3e993f3a	0.2993105
4	0xbdae8683	-0.0852175
5	0x3dd7dc9b	0.10540124
6	0xbbd77035	-0.0065746554
7	0x3b6eba79	0.0036427064
8	0x3e2c12f0	0.16804099
9	0xbbcd0596	-0.0062567694
10	0x3b6f28fd	0.0036492937
11	0xba4769dc	-0.0007607022
12	0xbcc406ec	-0.023929082
13	0xbc8aa50d	-0.016924405
14	0xbdddc8b5	-0.108292975
15	0x3e00d50b	0.1258127
16	0xbdd61640	-0.104534626
17	0xbc4be95e	-0.012445776
18	0xbcbed7ed	-0.02329632
19	0xbc54ceb3	-0.012988734
20	0x39ccdb41	0.0003907327
21	0x3b8aa5df	0.004231199
22	0xbdc896da	-0.09794398
23	0xbe89aa58	-0.26887774
24	0xbc39109a	-0.011295462
25	0xbbe58b08	-0.007005099
26	0xbae20626	-0.0017244264
27	0xbcee1e9f	-0.029067336
28	0x3b6f6b12	0.0036532325
29	0x3e0f1db8	0.1397618
30	0x3e8cc705	0.2749559
31	0x3dad3c51	0.0845877
32	0x3f4e6908	0.80629015
33	0x3b75daff	0.0037514565
34	0xbc5700ea	-0.0131227765
35	0xbda2d110	-0.07950032
36	0xbbb38d05	-0.0054794573
37	0xbcbf4a16	-0.023350757
38	0xbc28a56d	-0.010293347
39	0x3d1439fc	0.03618811
40	0x3d0d9127	0.034562256
41	0x3a55d744	0.0008157382
42	0xbc1035b1	-0.0088018635
43	0xba80add3	-0.0009817429
44	0xbe821871	-0.25409272
45	0x3d822733	0.06355133
46	0x3de04b7d	0.10951898
47	0xbdb94c76	-0.09047787
48	0xbdbe2538	-0.09284443
49	0x38c6952a	9.46916e-05
50	0x3ddb0a78	0.10695356
51	0xbc6f7853	-0.01461609
52	0xbd36dbbe	-0.044643156
53	0x3d1f69be	0.038919203
54	0x3b30ee97	0.002699768
55	0x3b036414	0.0020048665
56	0xbe6417bc	-0.22274679
57	0xbecb45f0	-0.39701796
58	0xbe16fc57	-0.14744698
59	0x3e4800dd	0.1953158

weight f4 [60, 60]
0	0x3d17af72	0.037032552
1	0xbf36a926	-0.7135185
2	0x3e217091	0.15765597
3	0x3d47215f	0.04861581
4	0xbdd62e78	-0.10458082
5	0xbcda3c00	-0.026639938
6	0x3e4cea5c	0.20011276
7	0x3d1161a4	0.035493508
8	0xbe367ec1	-0.1782179
9	0x3afcd5f0	0.0019289833
10	0xbc144c1e	-0.009051351
11	0xbba17028	-0.0049267
12	0x3d1c9a32	0.03823299
13	0x3ed1c7a3	0.40972623
14	0xbd90e888	-0.07075602
15	0x3dea3de2	0.114375845
16	0xbd15042a	-0.036380924
17	0x3bf440a7	0.007453996
18	0x3d0387c8	0.032111913
19	0x3cff23b8	0.031144962
20	0x3a1fd99f	0.0006097797
21	0xbd03162f	-0.032003578
22	0xbcc2039f	-0.023683367
23	0xbdd1c420	-0.10242486
24	0xbef146e9	-0.47124413
25	0x3cfa24dd	0.030535156
26	0x3d0ad7dd	0.03389727
27	0xbdc76767	-0.09736519
28	0xbc1ff720	-0.009763509
29	0x3e57aa47	0.2106105
30	0x3e3a8aa7	0.18216954
31	0x3e07b913	0.13254194
32	0xbe339bc2	-0.17539886
33	0xbc12c0d2	-0.008957105
34	0x3d57a04a	0.052643098
35	0x3cccd09a	0.025001813
36	0x3cc94b5b	0.024572065
37	0x3d1d1aae	0.03835552
38	0xbf19fa08	-0.6014714
39	0x3d205d99	0.03915176
40	0x3cc21da0	0.023695767
41	0x3d63d42f	0.055622276
42	0x3d01bcb3	0.0316741
43	0x3d4f2e0c	0.050581023
44	0x3cb8f04f	0.022575526
45	0x3e05abfa	0.13053885
46	0xbe5a7223	-0.21332602
47	0xbc6f5094	-0.014606614
48	0xbde9f5de	-0.114238486
49	0xbb665dc7	-0.003515111
50	0xbead1136	-0.33802193
51	0x3dd9acb6	0.10628645
52	0x3d1fd4d1	0.039021317
53	0xbe2340e8	-0.15942729
54	0xbc08aa26	-0.008341348
55	0xbb280aa1	-0.00256411
56	0xbb94537a	-0.0045265527
57	0xbc826643	-0.015917903
58	0xbe6aa4e7	-0.22914468
59	0xbe7ad987	-0.24497043
60	0x3c850af8	0.016240582
61	0xbe04c6d6	-0.12966475
62	0xbe13667e	-0.14394566
63	0xbd924094	-0.071412235
64	0x3c6037aa	0.013685146
65	0x3d347612	0.044057913
66	0x3d238c22	0.039928563
67	0x3e10a9e8	0.14127314
68	0xbe098d92	-0.13432911
69	0x3deb5095	0.11489979
70	0x3cad0651	0.021121176
71	0x3adc51d5	0.0016809056
72	0x3cb6da17	0.02232079
73	0x3c5e48c8	0.013567157
74	0xbded882d	-0.11598239
75	0x3e638d10	0.2222178
76	0xbd9a4091	-0.07531846
77	0x3db05f4f	0.08611929
78	0xbba0c07b	-0.004905758
79	0x3b1c3217	0.0023833567
80	0x3c481c49	0.012213775
81	0xbd5dff7c	-0.054198727
82	0xbe80da9e	-0.25166792
83	0xbcf52a8c	-0.029927514
84	0xbcbeb0cd	-0.023277665
85	0xbbb6e34b	-0.0055812947
86	0x3ba85c18	0.0051379316
87	0x3d8f1f00	0.06988335
88	0x3cb59a57	0.022168322
89	0xbe08d7f4	-0.1336363
90	0x3e38ae36	0.18035206
91	0x3e1748dd	0.14773889
92	0xbe757987	-0.2397214
93	0x3c8f8896	0.017521184
94	0xbbd345e5	-0.006447541
95	0xbd6a2f5c	-0.05717407
96	0xbc739690	-0.01486744
97	0x3ca37de8	0.019957498
98	0xbd700a85	-0.058603782
99	0x3d92ecef	0.07174098
100	0xbe1becfd	-0.15227123
101	0xbc23dfa4	-0.010002051
102	0xbbaf768f	-0.0053547095
103	0x3ce0003b	0.02734386
104	0xbccab864	-0.024746127
105	0xbcd37ad5	-0.025815407
106	0xbd101d8e	-0.035184436
107	0x3b4354f8	0.0029805284
108	0x3dae90cc	0.085237116
109	0x3bb12596	0.005406092
110	0xbc66e83e	-0.014093457
111	0xbd063608	-0.032766372
112	0x3d082a42	0.033243425
113	0x3dded91f	0.10881256
114	0x3c747016	0.0149193015
115	0x3cc478f0	0.023983449
116	0x3da4c0ee	0.08044611
117	0xbe3b42fd	-0.18287273
118	0x3d9ff053	0.0780951
119	0xbd5126d0	-0.051062405
120	0x3a93cbc1	0.0011275933
121	0x3b2d9d5f	0.0026491506
122	0xbc04e3eb	-0.0081109805
123	0x3af28fd1	0.0018505995
124	0x3c1ffe38	0.0097652
125	0x3af7c199	0.0018902301
126	0x3beb1539	0.007174161
127	0xba783d4a	-0.0009469582
128	0xbbf54f0a	-0.007486229
129	0x3b587cfb	0.0033033479
130	0xbbfa274a	-0.007634078
131	0xbba4fb67	-0.0050348523
132	0x3b51bfdf	0.0032005233
133	0x3c4eb2ae	0.012615843
134	0xbc1b5e9b	-0.009483005
135	0xbbc19c84	-0.0059085507
136	0xbc988b87	-0.01862122
137	0x3b3824e9	0.0028098172
138	0xb9a8ba3b	-0.0003218221
139	0xb91febb4	-0.00015251228
140	0xbbdb6d6a	-0.006696393
141	0xbb8bcd7f	-0.0042664404
142	0x3b5a876c	0.0033344878
143	0xbc975e42	-0.018477563
144	0x3b0609f6	0.0020452715
145	0xba828de0	-0.0009960495
146	0xb8c0cfd9	-9.193988e-05
147	0xbbe1b61a	-0.0068881633
148	0xbc0645be	-0.008195339
149	0xbad04cbb	-0.0015892008
150	0x3a4b0d55	0.0007745822
151	0xbc158f2d	-0.009128374
152	0xbc317d6d	-0.0108331265
153	0xbbba1c0c	-0.005679613
154	0x36879b7f	4.0414157e-06
155	0x390bb9da	0.00013325308
156	0x39f1c39e	0.00046112848
157	0x3af7da7d	0.0018909719
158	0xb9eae612	-0.00044803374
159	0x3bbcc20a	0.005760436
160	0xbbf103f2	-0.0073552066
161	0xba1d1ef5	-0.00059936877
162	0xba7689c3	-0.00094046834
163	0x3b04dc37	0.002027286
164	0x3c3bbfdb	0.011459316
165	0x3c0da1a8	0.008644499
166	0xb8cd706f	-9.796104e-05
167	0xbc9b3a3a	-0.018948663
168	0xbca4df98	-0.020126149
169	0xbbfd82f5	-0.0077365586
170	0xbc8e8022	-0.017395083
171	0xbacfe9d0	-0.0015862528
172	0x3b9ef499	0.0048509357
173	0xbbb6442a	-0.005562325
174	0xbb8f1d7d	-0.004367529
175	0xbc2606f9	-0.010133498
176	0xbc3d7e7f	-0.011565804
177	0xbcb79a33	-0.022412395
178	0xbc6b53d9	-0.014363253
179	0x3b74fed9	0.0037383346
180	0x3dafa443	0.08576252
181	0x3dbb742d	0.09153018
182	0xbc1a832c	-0.009430688
183	0x3c7e1a65	0.015509223
184	0x3df47c42	0.11937763
185	0xbc88c67a	-0.016696204
186	0xbd998c44	-0.07497457
187	0x3e238090	0.15967011
188	0xbd9c002b	-0.076172195
189	0x3de18503	0.11011698
190	0xbb8f73ff	-0.0043778415
191	0xbb25c8fb	-0.0025296796
192	0x3dadeee6	0.08492832
193	0x3e00cfb8	0.12579238
194	0x3ec1f98b	0.378857
195	0x3e66e70e	0.22549078
196	0xbebce909	-0.36896542
197	0x3de25eb2	0.11053218
198	0x3de3e1b9	0.111270376
199	0x3d8f8c72	0.0700921
200	0xbaf76681	-0.0018875153
201	0x3df4d3a7	0.11954432
202	0xbcedcf8d	-0.029029632
203	0xbd652f63	-0.055953395
204	0xbd47871c	-0.048712835
205	0x3d7e5239	0.062090132
206	0xbc5bd7ef	-0.013418182
207	0x3df5f3a9	0.12009365
208	0xbb9d6d8b	-0.0048043183
209	0xbe42cfb7	-0.1902455
210	0x3c90c387	0.01767136
211	0x3b8a1949	0.00421444
212	0xbf22f79b	-0.63659066
213	0xbb61bc2a	-0.003444443
214	0x3e42f475	0.19038565
215	0x3e2d33ef	0.16914342
216	0x3d1fe591	0.03903729
217	0x3db514bd	0.08841846
218	0xbdc77aa8	-0.09740192
219	0x3b20bf4b	0.0024528082
220	0x3df61838	0.12016338
221	0x3cc6a068	0.02424641
222	0x3d7b38a3	0.06133331
223	0x3db76aff	0.08955955
224	0xbc12685b	-0.008936013
225	0xbd3c852f	-0.04602545
226	0x3d9788af	0.07399117
227	0xbea3d17a	-0.31995755
228	0x3e80b47a	0.25137693
229	0xbb06baae	-0.0020558047
230	0xbd9e54dd	-0.0773103
231	0x3df6c76a	0.12049754
232	0x3daaa3ee	0.08332048
233	0xbe30c1a6	-0.17261371
234	0xbb0862a1	-0.002081074
235	0xbb741e42	-0.003724948
236	0xbb891b19	-0.0041841385
237	0xbd848ea2	-0.064725175
238	0x3ea5b537	0.32364818
239	0x3df428b3	0.11921825
240	0x3cef3e38	0.029204473
241	0xbd5526d7	-0.052038994
242	0x3dad0e74	0.08450022
243	0x3d74f9b1	0.059808437
244	0xbd7fbad5	-0.062434036
245	0xbe94a101	-0.29029086
246	0x3de33acf	0.11095201
247	0x3c88df5b	0.016708067
248	0x3ce98541	0.028505923
249	0xbbac0670	-0.005249791
250	0xbc7ce699	-0.015435838
251	0xbbe4e903	-0.006985785
252	0x3d0b5b1c	0.034022436
253	0x3d2fca4e	0.042917542
254	0xbdf39352	-0.118933335
255	0xbd7672eb	-0.060168188

bias f4 [60]
0	0xbd5c69e7	-0.053811934
1	0xbd3dccfe	-0.046338074
2	0xbbd1cbf2	-0.006402486
3	0xbdfdbf37	-0.12389987
4	0xbd97e9df	-0.07417654
5	0x3cf00f8d	0.02930429
6	0xbb8753f1	-0.0041298796
7	0xbd269a88	-0.040674716
8	0x3a9432da	0.0011306659
9	0x3bacd0ce	0.005273915
10	0x3dc9f723	0.09861591
11	0x3b1f4f61	0.0024308788
12	0xbd8d34de	-0.06894849
13	0xbd1e4496	-0.038639627
14	0x3c8c6d71	0.01714203
15	0xbd1c775c	-0.038199767
16	0xbe881992	-0.2658201
17	0xbe52c6d8	-0.20583665
18	0xbda197ca	-0.078902796
19	0xbab75de3	-0.0013989772
20	0xbd3126e8	-0.043249995
21	0xbbb4fd43	-0.005523355
22	0xbe0e86f4	-0.13918668
23	0xbbc4835c	-0.0059971046
24	0xbdbbd495	-0.09171406
25	0xbd23b284	-0.039965168
26	0x3b4c30f2	0.0031157103
27	0xbcd4b7c7	-0.025966538
28	0xb9de7195	-0.00042427765
29	0x3b7b7ac0	0.0038372725
30	0xbab68634	-0.0013925494
31	0xbbeec353	-0.007286468
32	0xbe300625	-0.17189844
33	0x3b03644f	0.0020048802
34	0xbc5dab1f	-0.013529568
35	0xbd6e44aa	-0.058170952
36	0x3b299326	0.002587506
37	0xbdac304e	-0.08407651
38	0xbdeb7c9b	-0.11498376
39	0x3b2cd82f	0.0026373973
40	0xbe061991	-0.1309569
41	0xbd8ce5f7	-0.068798
42	0xbd8d6991	-0.06904901
43	0xbe09ec1c	-0.13468975
44	0xbd905ae3	-0.07048585
45	0xbe61f829	-0.22067322
46	0xbd923ba8	-0.07140285
47	0xbd50cdd0	-0.050977528
48	0x3b94f93a	0.0045463117
49	0xbdb93992	-0.09044184
50	0xbd72fe53	-0.059324574
51	0xbcdafda5	-0.026732275
52	0x3b7445e5	0.0037273106
53	0x3b05e6d8	0.0020431783
54	0xbdfb596e	-0.12272917
55	0xbbbd9207	-0.00578523
56	0x3c19ad41	0.009379686
57	0xba682682	-0.0008855836
58	0x3e0ac40a	0.13551345
59	0x3e1e58f6	0.15463623

weight f4 [60, 60]
0	0xbe83bba1	-0.25729087
1	0xbe948d31	-0.2901397
2	0xb9a91b48	-0.00032254518
3	0xbd8d2862	-0.06892468
4	0xbec0818e	-0.37598842
5	0xbecad476	-0.3961522
6	0x3e0a1ad0	0.1348679
7	0x3d92c709	0.07166869
8	0xbba4a8b6	-0.0050249947
9	0xbaa829b8	-0.0012829816
10	0xbea4377a	-0.32073575
11	0xbb3dcb12	-0.002896015
12	0xbe402824	-0.18765312
13	0x3e30149c	0.17195362
14	0xbccc4d58	-0.024939224
15	0x3d47bff6	0.048767053
16	0x3ec6c0d4	0.3881899
17	0xbe6c9eae	-0.23107406
18	0xbe1d08f5	-0.15335448
19	0xbb51f775	-0.0032038365
20	0xbc40b1a2	-0.011761101
21	0xbb8f8087	-0.0043793353
22	0xbf0f528e	-0.55985343
23	0xbb9e8dfd	-0.0048387037
24	0x3eb47b98	0.35250545
25	0x3c25a8d8	0.010111056
26	0x3a0941fd	0.0005235968
27	0xbd14ef03	-0.03636075
28	0x3b1dbfb5	0.0024070565
29	0xbb67f887	-0.0035395937
30	0xbb11192b	-0.0022140245
31	0xbc30953f	-0.010777771
32	0xbee7f9ca	-0.4530776
33	0xbaa69e4e	-0.0012711973
34	0xbc35853c	-0.011079129
35	0xbd4dbf94	-0.05023153
36	0xbba6e49e	-0.0050931713
37	0xbe1bc797	-0.15212856
38	0xbe0012bd	-0.12507148
39	0xba875eea	-0.0010327969
40	0x3ec31f3c	0.38109767
41	0xbe3169ac	-0.17325467
42	0xbdfb2b83	-0.122641586
43	0x3d43f235	0.04783841
44	0xbeb5966c	-0.35466325
45	0xbf278e44	-0.65451455
46	0xbe18e1b5	-0.1492985
47	0x3de45995	0.11149899
48	0xbc036025	-0.008018528
49	0xbe043dcf	-0.12914203
50	0xbd2e534a	-0.0425599
51	0xbddb9c67	-0.10723191
52	0xba8366de	-0.0010025164
53	0xbaf222ea	-0.001847354
54	0xbe814edd	-0.2525548
55	0xbc0b31af	-0.008495732
56	0xbbbffead	-0.005859217
57	0xbb725e64	-0.003698253
58	0x3c948933	0.018131828
59	0xbeb8eea6	-0.36119574
60	0x39ecd481	0.00045171755
61	0xb84e0082	-4.91147e-05
62	0xbb2aa883	-0.0026040382
63	0x3a61b713	0.0008610349
64	0x38665109	5.4911743e-05
65	0xbb60061f	-0.0034183336
66	0xbbd4dbe7	-0.006495941
67	0xbb271f97	-0.0025501007
68	0x3b5a8baa	0.0033347406
69	0x3b0cc0b9	0.0021477176
70	0xbb98c4c7	-0.0046621296
71	0x3b40db86	0.0029427721
72	0xb90bcfb7	-0.00013333453
73	0x3aea52ac	0.0017877421
74	0x3a61f461	0.0008619484
75	0x3c02a798	0.007974528
76	0xbb2de40c	-0.0026533632
77	0xbb1c8ec1	-0.00238888
78	0xbb75b01d	-0.0037489005
79	0xbac6f7e2	-0.0015180076
80	0xb9f289af	-0.0004626042
81	0x3b3f2314	0.0029165195
82	0xbad330e1	-0.001611259
83	0xbad7ed51	-0.0016473924
84	0xbafeb61f	-0.0019432938
85	0xba0377a9	-0.0005015084
86	0x3b0778a1	0.0020671266
87	0xb79e1baf	-1.8847959e-05
88	0xbb086d50	-0.0020817108
89	0x3b185e81	0.0023249688
90	0xbb97e693	-0.004635641
91	0x3b1c88d1	0.002388526
92	0xb9d888b7	-0.0004130059
93	0xba8ae02c	-0.0010595373
94	0xbb52e8f8	-0.0032182317
95	0xb93cac5e	-0.00017993289
96	0x3b4613bc	0.0030224165
97	0x3a143ee7	0.0005655125
98	0x3ad357ab	0.001612415
99	0x3afa1196	0.0019078727
100	0xbb652305	-0.00349635
101	0xb8c3bae7	-9.333138e-05
102	0xb8f46899	-0.000116543095
103	0x3acc45b9	0.0015584744
104	0xb8d108a9	-9.96751e-05
105	0xbac82ea8	-0.0015272694
106	0xb8d3ff05	-0.00010108765
107	0x3b0a430b	0.002109709
108	0x3b55e5df	0.0032638235
109	0x3b5fb88b	0.0034137096
110	0xb946d470	-0.0001896189
111	0xbb165088	-0.0022936184
112	0x3a90c536	0.0011045102
113	0x3aa9d314	0.0012956583
114	0xbad7765d	-0.0016438473
115	0xbbba5646	-0.005686554
116	0x3b242c7f	0.0025050936
117	0x3b248bdf	0.0025107784
118	0xbae80756	-0.0017702382
119	0x3b5175ae	0.0031961012
120	0x3b0dbdd5	0.0021628041
121	0xbbcce560	-0.0062529296
122	0xbbdfba0e	-0.0068275994
123	0xbbed1bd0	-0.0072359815
124	0x3a993c5d	0.0011690963
125	0x3c949e36	0.018141847
126	0xbb2144c5	-0.002460764
127	0xbc62f2c4	-0.013851825
128	0x3b49226f	0.003069069
129	0xbc3182bf	-0.010834395
130	0xbc304bd9	-0.010760271
131	0xbc82af3e	-0.015952703
132	0xba977769	-0.0011555973
133	0x3c89a10e	0.01680043
134	0x3a2232a1	0.0006187354
135	0x3b283e23	0.0025671802
136	0xbc08735f	-0.008328288
137	0x3b65f0be	0.003508612
138	0xbb0bae9b	-0.002131379
139	0xbc7c8618	-0.01541283
140	0xbac396b0	-0.0014922228
141	0xbb8fce8a	-0.004388635
142	0x3c84c765	0.01620836
143	0xbcc7fdbc	-0.024412982
144	0xbb889e5e	-0.0041692695
145	0xbac311b0	-0.0014882591
146	0xbbbfeca3	-0.0058570667
147	0x3a7a731f	0.00095538975
148	0xbb8bf537	-0.0042711752
149	0xbbb7a822	-0.00560476
150	0xbc2aac76	-0.010417094
151	0x3c11613e	0.008873282
152	0xbc019b6d	-0.007910592
153	0x3bf4fe09	0.0074765724
154	0xbbd4d13c	-0.0064946692
155	0xba9a3508	-0.0011765072
156	0x3b985049	0.0046482426
157	0xb997d518	-0.00028959732
158	0xba990d8f	-0.0011677014
159	0xbbf6d79b	-0.0075330264
160	0xbc2616f6	-0.01013731
161	0xba7e70e3	-0.00097061525
162	0xba9148cd	-0.0011084318
163	0x3917307d	0.00014418545
164	0x3943fc3c	0.00018690614
165	0x3bb5d680	0.005549252
166	0xba8cca49	-0.0010741438
167	0x3b3fd418	0.0029270705
168	0xbc90d881	-0.017681362
169	0x3c5f272a	0.013620177
170	0x3a503679	0.00079426874
171	0xbc2bad0d	-0.01047827
172	0xba00c05f	-0.0004911478
173	0xbac5e6ef	-0.0015098731
174	0xbbd10528	-0.0063787885
175	0xbc463f87	-0.012100107
176	0x3bf5f025	0.007505434
177	0xbc18d81c	-0.009328868
178	0x3baa6b7f	0.005200803
179	0xbb9c9be0	-0.004779324
180	0x3950b25c	0.0001990287
181	0xba2607a2	-0.0006333535
182	0xbb6aed75	-0.0035847102
183	0x3a831638	0.0010001129
184	0x3a5efd75	0.0008506396
185	0xba50b14b	-0.0007960989
186	0xbbf72dd0	-0.007543303
187	0xbb33dbd1	-0.0027444253
188	0x3babd0cb	0.005243396
189	0x3a35b156	0.0006931027
190	0xbba5cc24	-0.005059736
191	0x3a957845	0.0011403641
192	0xb90c1999	-0.00013360976
193	0x3bd1eefc	0.006406663
194	0x39d5782e	0.00040716067
195	0x3bb04d5e	0.0053803166
196	0xbb515ab5	-0.0031944935
197	0xbb548268	-0.003242636
198	0xbb36bc6a	-0.00278833
199	0xbb85056e	-0.004059485
200	0xba2fc2d1	-0.000670475
201	0x3b87f56c	0.0041491296
202	0x3a0797aa	0.0005172441
203	0xbbb0ae20	-0.005391851
204	0xbab4ef1a	-0.0013804168
205	0xba429d1e	-0.0007423925
206	0x3b1821c1	0.0023213478
207	0x37b9de4f	2.2157239e-05
208	0xbb6ff1a6	-0.003661254
209	0x3ae003ea	0.001709101
210	0xbbcba236	-0.0062144054
211	0x3b753955	0.0037418206
212	0xba215d35	-0.00061555515
213	0xb9aa4eb7	-0.00032483574
214	0xbb1ff6f5	-0.0024408672
215	0xb95e43eb	-0.00021196871
216	0x3b949c32	0.0045352215
217	0x3a690266	0.0008888602
218	0x3a88992a	0.0010421623
219	0x3a45578c	0.0007527999
220	0xbb729443	-0.003701464
221	0xb859734c	-5.184421e-05
222	0xb8de80b8	-0.00010609761
223	0x3aa2e17b	0.0012426818
224	0xb9834763	-0.00025039454
225	0xb84b0777	-4.8405924e-05
226	0xb8a3977c	-7.800662e-05
227	0x3b25dacb	0.0025307413
228	0x3b119a6f	0.0022217294
229	0x3b726152	0.0036984277
230	0xb9376f60	-0.0001749373
231	0xbb8a211f	-0.004215374
232	0x3ac8d990	0.0015323628
233	0x3ac45ec2	0.0014981853
234	0xbafb67b0	-0.0019180682
235	0xbc13a452	-0.009011345
236	0x3b3d48e7	0.0028882565
237	0x3b2a4fae	0.0025987434
238	0xb6bbaf52	-5.5934443e-06
239	0x3b23a327	0.0024969073
240	0x3a78661f	0.00094756664
241	0xbb8dcd4e	-0.0043274527
242	0xbc048b6b	-0.00808988
243	0xbba0bc39	-0.0049052504
244	0x3b076272	0.0020658043
245	0x3c6ced96	0.014460942
246	0xbbd9a1da	-0.0066416087
247	0xbc70a7fa	-0.014688486
248	0x3bdc7452	0.0067277336
249	0xbbedab54	-0.00725309
250	0xbc388e05	-0.011264329
251	0xbc423969	-0.011854508
252	0xba9cdef3	-0.00119683
253	0x3c973b90	0.018461019
254	0x39221ee5	0.00015461033
255	0x38eb1d3d	0.00011211119

bias f4 [60]
0	0x3df3d5a6	0.119059846
1	0x38d037ca	9.9286044e-05
2	0x3a94b137	0.0011344318
3	0x38691107	5.5567387e-05
4	0x3aa3ddde	0.0012502035
5	0x3932055a	0.00016977396
6	0x3a9bc641	0.0011884646
7	0xbae86bfe	-0.001773238
8	0x39b30b77	0.00034150083
9	0xba966c36	-0.0011476341
10	0x3e139a20	0.14414263
11	0xbaa21857	-0.0012366873
12	0xba047651	-0.0005053031
13	0xba9bfc3e	-0.0011900736
14	0x3dc21d98	0.09478301
15	0xbd94d42b	-0.0726703
16	0x3e675de6	0.22594413
17	0x37ec0d1b	2.8139495e-05
18	0xb7bbe1d0	-2.239729e-05
19	0xba99dcf3	-0.0011738822
20	0xba91b5b0	-0.0011116769
21	0xbdc7302b	-0.09725984
22	0xbaa0cd18	-0.0012268154
23	0x38fd5b1a	0.00012080949
24	0xbe2cd2df	-0.16877316
25	0xb8212232	-3.8417238e-05
26	0xba519b53	-0.00079958624
27	0x392f4e20	0.00016718404
28	0x3858ae68	5.166084e-05
29	0xbb1542f1	-0.0022775496
30	0xbe44aba3	-0.19206099
31	0x3a96dbff	0.0011509656
32	0x386e26c0	5.677971e-05
33	0xbab69bae	-0.0013931894
34	0x3e3b2183	0.18274502
35	0xb98cb0ea	-0.00026834692
36	0xb962b7c0	-0.00021621492
37	0x3a9f46d7	0.0012151849
38	0x3e303ff9	0.17211904
39	0xba1f0442	-0.0006066003
40	0x3e24b0b2	0.16083029
41	0xbd942b56	-0.07234828
42	0xba7907d8	-0.0009499765
43	0xba83de1f	-0.0010060704
44	0xbe03b12e	-0.12860557
45	0xbdc6da80	-0.09709644
46	0x3deb81c0	0.11499357
47	0x399acfbb	0.0002952794
48	0xb9da1a47	-0.00041599778
49	0x38857b50	6.364903e-05
50	0x3da95aad	0.08269248
51	0xbac23581	-0.0014816971
52	0x3aa9290a	0.0012905907
53	0xb9acd5be	-0.00032965647
54	0x39b25a0d	0.000340179
55	0xbaac8cf8	-0.001316457
56	0xbe4ae9e8	-0.1981579
57	0xba8cec17	-0.0010751513
58	0xb99346fa	-0.00028090907
59	0x3ac3d084	0.0014939462

weight f4 [60, 60]
0	0xba8cba65	-0.0010736702
1	0xb817fb78	-3.6235404e-05
2	0xb863ff6d	-5.43589e-05
3	0xb82a157d	-4.055117e-05
4	0xb88edb41	-6.811927e-05
5	0x37c17351	2.3061091e-05
6	0xb872bb89	-5.7871952e-05
7	0xb8606e5f	-5.3508553e-05
8	0xb7303cdc	-1.0504587e-05
9	0x37ec84d8	2.8195253e-05
10	0xba65f2ed	-0.00087718555
11	0x39f727a7	0.00047141055
12	0xb8a02905	-7.637035e-05
13	0x37f371b9	2.9020814e-05
14	0xbacee510	-0.0015784819
15	0x39158a88	0.00014261354
16	0x3ac5891f	0.0015070772
17	0xb817b251	-3.6167276e-05
18	0x375c0d37	1.3116099e-05
19	0x37e8f8a5	2.777234e-05
20	0x37e64820	2.7451722e-05
21	0xb8988ee2	-7.274539e-05
22	0x37e5fdb9	2.7417076e-05
23	0x37225a96	9.677044e-06
24	0x3917b622	0.00014468332
25	0xb7eda3cf	-2.8328881e-05
26	0xb8c6758f	-9.463273e-05
27	0xb74ad24c	-1.2089102e-05
28	0xb802b907	-3.1166735e-05
29	0xb794ada5	-1.7723834e-05
30	0x3a1f77a8	0.0006083199
31	0xb79685f2	-1.7943767e-05
32	0xb8a1e253	-7.7192344e-05
33	0xb89a9d85	-7.3726325e-05
34	0x3a432d3f	0.0007445402
35	0x3792371c	1.7430219e-05
36	0x369950d4	4.569165e-06
37	0xb8c869da	-9.5564596e-05
38	0x39e53106	0.0004371481
39	0x37a781e1	1.9968431e-05
40	0xbaccec8e	-0.0015634464
41	0x390cc815	0.00013425977
42	0x38363202	4.3438755e-05
43	0x38396b98	4.420764e-05
44	0xb81d2bd2	-3.7472528e-05
45	0x3a0e5c4f	0.0005430625
46	0x392b1353	0.0001631503
47	0xb65242c2	-3.1331297e-06
48	0x37a3fd5b	1.9549092e-05
49	0x378aecbb	1.6561118e-05
50	0x3a328805	0.00068104296
51	0xb85e25ce	-5.2964133e-05
52	0xb88bd8f6	-6.6684486e-05
53	0xb4d487ba	-3.958683e-07
54	0xba463431	-0.0007560878
55	0xb759c4af	-1.2980002e-05
56	0x391e884e	0.00015118832
57	0x38870128	6.437517e-05
58	0x39c507cc	0.00037580577
59	0xb8d35e4d	-0.00010078829
60	0x3630e5bc	2.6359767e-06
61	0xb8a8b546	-8.044629e-05
62	0xb96bb892	-0.00022480104
63	0xb8d73802	-0.00010262431
64	0xb98d235d	-0.00026919963
65	0x38304703	4.2027805e-05
66	0xb991f77e	-0.0002784095
67	0xb8d23542	-0.000100235
68	0xb83db9fe	-4.523433e-05
69	0x39588243	0.00020647892
70	0x3a265abf	0.00063459197
71	0xb8c275d4	-9.272588e-05
72	0xb9500f36	-0.00019842092
73	0x395bced0	0.00020962511
74	0x396c41b9	0.00022531197
75	0xb92ee822	-0.0001668041
76	0x3a13dd8a	0.0005640617
77	0xb8b76c15	-8.746252e-05
78	0x3795acb0	1.7842598e-05
79	0x395589f1	0.0002036465
80	0x395197a5	0.00019988285
81	0x39a005a6	0.00030521787
82	0x394cdaec	0.00019536511
83	0x3725b477	9.876784e-06
84	0xba72b88d	-0.00092590676
85	0xb5d6f46e	-1.6015381e-06
86	0xb9760901	-0.00023463742
87	0xb8020f59	-3.100871e-05
88	0xb8a88af3	-8.0367456e-05
89	0x3a161731	0.00057255017
90	0xb94d6582	-0.00019588138
91	0xb90ab320	-0.00013227435
92	0xb973d6f2	-0.00023254359
93	0xb91fb846	-0.00015232069
94	0xbaad7d80	-0.0013236254
95	0xb7c83fe2	-2.3871606e-05
96	0x34d4829b	3.9583105e-07
97	0xb9c8ef32	-0.00038325187
98	0xbac53218	-0.0015044836
99	0xb86c4547	-5.6331304e-05
100	0x3a8fbf5b	0.0010967063
101	0xb92c6d6e	-0.00016443964
102	0x3947bb93	0.00019047996
103	0x395f07a8	0.0002126979
104	0xb8c7ac43	-9.521146e-05
105	0xb9a76a64	-0.0003193199
106	0xba712fea	-0.000920056
107	0xb6910dba	-4.3229347e-06
108	0x37a88077	2.0086982e-05
109	0x37c27583	2.3181323e-05
110	0x396371d2	0.00021690808
111	0xb8b61ae1	-8.683443e-05
112	0xb99c4a07	-0.00029809793
113	0xb83ee1d1	-4.5509838e-05
114	0x38a0cfd0	7.6681026e-05
115	0x37db544d	2.614609e-05
116	0xba380b80	-0.00070207566
117	0x39531b73	0.00020132754
118	0xb8766a01	-5.8749694e-05
119	0xb9bd4ddd	-0.00036106902
120	0x3d74ad7d	0.059735764
121	0x3758e6e9	1.2928366e-05
122	0x37ca3922	2.4106881e-05
123	0xb91d3682	-0.00014992993
124	0xb9763cbb	-0.00023483012
125	0x39b32775	0.00034170938
126	0xb967da0f	-0.0002211111
127	0xb99e9cb7	-0.0003025287
128	0xb83b7835	-4.4696226e-05
129	0x3a8bcdc9	0.0010666187
130	0x3c16c6ff	0.009202718
131	0x3b55d723	0.0032629452
132	0xb9bf3057	-0.00036466375
133	0x3a903dc1	0.0011004732
134	0x3e1d36a4	0.15352875
135	0xbc18df88	-0.009330638
136	0x3ce0a3ff	0.02742195
137	0xb8180b02	-3.6249876e-05
138	0x3a78b8f6	0.00094880105
139	0x3a89227e	0.001046255
140	0x3a8c7acc	0.0010717749
141	0xbd9112fe	-0.070837006
142	0x3a7b2f6d	0.0009581957
143	0x3abc58a3	0.0014369678
144	0xbdc09e29	-0.09405167
145	0x3a4d4408	0.0007830267
146	0xb9e4c7c9	-0.000436364
147	0xb98fc143	-0.00027419077
148	0xb96a45ac	-0.00022341934
149	0x3b56ef74	0.0032796534
150	0xbe0a9fef	-0.13537572
151	0x395d4579	0.00021102083
152	0xb9aa7478	-0.00032511703
153	0xb9d62c04	-0.00040850055
154	0x3d454357	0.048159923
155	0x39bed658	0.00036399323
156	0x39f273c2	0.00046244083
157	0xb823afd2	-3.9025974e-05
158	0x3dfafab2	0.122548476
159	0x399b7a9f	0.00029655264
160	0x3cc23978	0.023709044
161	0xbc06153e	-0.0081837755
162	0x3a3ed21b	0.0007279233
163	0x3a61be5b	0.0008611434
164	0xbd6a99b4	-0.05727549
165	0xbd43f24a	-0.047838487
166	0x3dd793e6	0.10526256
167	0x3a2ac2aa	0.00065139926
168	0x39c4644c	0.0003745876
169	0x39a7ad7d	0.0003198198
170	0xbd3220c9	-0.043488298
171	0xb98107ef	-0.00024610708
172	0xb913cc15	-0.00014095039
173	0x39dd1052	0.00042164564
174	0x3b127a5c	0.0022350764
175	0x38c9eef5	9.628936e-05
176	0xbdee484d	-0.11634884
177	0x3a3386f8	0.000684842
178	0x3a62e292	0.00086549774
179	0xb8a89270	-8.0381404e-05
180	0x3df10756	0.11768977
181	0xb88ddbeb	-6.764367e-05
182	0xb93aaed2	-0.00017803468
183	0xb99043be	-0.00027516292
184	0xb9fc4e74	-0.00048123638
185	0x39a6e6a7	0.00031833837
186	0xba13590f	-0.0005620876
187	0xb9ac35b2	-0.00032846403
188	0xb9dd431c	-0.00042202405
189	0x3a39cfac	0.00070881355
190	0x3d534c92	0.051586695
191	0x3a20b6a5	0.0006130732
192	0xba032853	-0.0005003262
193	0x3a37bafe	0.000700876
194	0x3e8977c5	0.2684919
195	0xbd214486	-0.03937199
196	0x3d88d87e	0.066819176
197	0xb917906e	-0.00014454286
198	0x3a4a65c6	0.0007720854
199	0x3a35e27e	0.0006938352
200	0x3a3e2c0e	0.00072544895
201	0xbe184dec	-0.14873475
202	0x3a26afca	0.0006358592
203	0x3a843acc	0.0010088324
204	0xbe3e064b	-0.18557088
205	0xb854355f	-5.0594444e-05
206	0xba14954d	-0.00056679995
207	0xba30ca7c	-0.000674404
208	0xb9b2a11c	-0.00034070842
209	0x3b2567f3	0.002523896
210	0xbe865014	-0.2623297
211	0xb8ed4fe4	-0.000113159214
212	0xba112493	-0.0005536761
213	0xba09ea27	-0.00052610267
214	0x3ddf485e	0.10902475
215	0xb782d513	-1.5596428e-05
216	0x39e44f25	0.00043546516
217	0xb994b3e5	-0.00028362792
218	0x3e60980c	0.21933001
219	0xb9c5e96f	-0.0003774869
220	0x3d9a5d72	0.075373545
221	0xbd192082	-0.037384517
222	0x39d6ca6e	0.00040968083
223	0x3a003711	0.0004891018
224	0xbdff92a7	-0.124791436
225	0xbddd0906	-0.10792737
226	0x3e44c443	0.19215493
227	0x38280cf7	4.0066396e-05
228	0x3964bfbc	0.00021815201
229	0x399bd1ef	0.00029720317
230	0xbc5af9a4	-0.013365183
231	0xb9ab3f84	-0.00032662984
232	0xb9deae12	-0.00042472832
233	0x39a5c98a	0.0003162141
234	0x3a4de3f9	0.00078541
235	0xb811f918	-3.480268e-05
236	0xbe6b3961	-0.22971107
237	0x396e5f08	0.0002273285
238	0x378c8310	1.6750331e-05
239	0xb98c3d4c	-0.0002674855
240	0x3ac24f81	0.0014824719
241	0x3914232f	0.00014127487
242	0x3a0ccd94	0.00053712097
243	0x3938223e	0.00017560364
244	0x39fa2cf7	0.00047717217
245	0xb8b8d4e7	-8.81346e-05
246	0x3a0e85d9	0.0005436815
247	0x3917b07b	0.00014466226
248	0x38a85cf1	8.028176e-05
249	0xba124900	-0.0005580336
250	0xba7be5bd	-0.0009609124
251	0x398f65b3	0.00027350857
252	0x39921c6b	0.00027868463
253	0xba13b34d	-0.0005634323
254	0xba9bb63c	-0.0011879872
255	0x3a09d5f5	0.00052580173

bias f4 [60]
0	0xb9312a12	-0.00016895708
1	0x3936840d	0.00017406065
2	0x3cddd8a6	0.027080845
3	0x3d88c2fe	0.06677817
4	0xb97c154e	-0.0002404053
5	0x3db664f7	0.08905976
6	0xba2ffaf0	-0.0006713113
7	0xb98fae53	-0.00027404967
8	0x39326e90	0.0001701659
9	0x39ae5611	0.0003325199
10	0xb9bb3b17	-0.00035711445
11	0x3934a5a2	0.0001722784
12	0x3dd9e966	0.1064022
13	0x389addb4	7.384588e-05
14	0x38dba450	0.00010473339
15	0x39a53318	0.0003150932
16	0x3dcb5db6	0.09929983
17	0x3d960027	0.07324248
18	0x368b2080	4.1463063e-06
19	0x39764967	0.00023487733
20	0x389afafe	7.390043e-05
21	0xb997f0e0	-0.0002898043
22	0x3e1f6b3e	0.15568253
23	0xb967900d	-0.0002208354
24	0x3d86656a	0.06562312
25	0x3df174f7	0.117898874
26	0x3a8036cb	0.0009781955
27	0xb7b76f04	-2.1866996e-05
28	0x3d74ec3d	0.059795607
29	0x3932e76a	0.00017061611
30	0x383dcc91	4.525163e-05
31	0x3940f587	0.00018402013
32	0xb97225a6	-0.00023092944
33	0x37c1ccd0	2.3102766e-05
34	0x3e0155c0	0.12630367
35	0x39168577	0.00014354834
36	0x3d8754ef	0.06607997
37	0x3d3c1514	0.04591854
38	0xb94f29a8	-0.00019756577
39	0x3dbe5297	0.092930965
40	0xb8be17ba	-9.0643254e-05
41	0x392e6807	0.00016632686
42	0x38233451	3.8910952e-05
43	0x3e0cd8fd	0.1375465
44	0x3db2673a	0.08711095
45	0x3e0dadee	0.1383588
46	0x3ad13924	0.0015962464
47	0x382aafc0	4.069484e-05
48	0x37ea857c	2.7957132e-05
49	0x3927fa47	0.00016019597
50	0x3e07c7bd	0.13259788
51	0x3c9ebb86	0.019376528
52	0xb7c28024	-2.3186272e-05
53	0x3951e525	0.00020017156
54	0x383f3d78	4.5595196e-05
55	0x38d9c188	0.00010383414
56	0x3dd8f018	0.10592669
57	0xb9adf296	-0.00033177872
58	0x3934ac62	0.00017230355
59	0x3e0b6149	0.1361133
