Total_RCS/epoch_200_batch_255_lr_0_0019819414761434403_wd_0_1808248925678225/torch_model_5_ReLU.pth (torch, 95029 bytes, 15 tensors)

weight f4 [60, 3]
0	0x3b55a5b2	0.0032599983
1	0x3886f5b5	6.4353844e-05
2	0x3a99781e	0.0011708771
3	0xbd5f56ba	-0.05452607
4	0x3f4df941	0.80458456
5	0xbbdcab97	-0.0067343223
6	0xbd1800be	-0.037110083
7	0x3ed851a8	0.422498
8	0x3ee0b019	0.43884352
9	0x3b29215b	0.0025807235
10	0x38423477	4.6302066e-05
11	0x3a85e4a0	0.001021523
12	0xbf26c4bb	-0.65143937
13	0x3e5000b1	0.20312764
14	0x3e79b15d	0.24384065
15	0x3e9aba23	0.30220136
16	0x3e813a34	0.25239718
17	0x3cfa8b08	0.030583873
18	0x3fa49ecd	1.2860962
19	0xbeb6a094	-0.35669386
20	0xbebf5da8	-0.37376142
21	0x3cac6087	0.021042122
22	0x3f4dad57	0.8034262
23	0x3f80138d	1.0005966
24	0xbdfe5458	-0.12418431
25	0xbefade3c	-0.48997676
26	0xbf48e1ad	-0.78469354
27	0xbd842da4	-0.06454018
28	0x3fb1b0f9	1.3882133
29	0x3e9adfab	0.3024877
30	0xbdce78fc	-0.1008167
31	0xbf08bc9c	-0.53412795
32	0xbf4b9c63	-0.795355
33	0x3f83f9b9	1.0310584
34	0x3e065815	0.13119538
35	0x3e3da361	0.18519355
36	0xbf470203	-0.77737445
37	0xbd521bbe	-0.05129599
38	0xbcef964d	-0.029246474
39	0xbc95b45a	-0.018274475
40	0xbf35f9b7	-0.7108416
41	0x3dc58798	0.09645003
42	0xbb89f167	-0.0042096856
43	0xbd0a0be9	-0.033702765
44	0xbc137d29	-0.0090020085
45	0xbee4e8eb	-0.44708952
46	0x3f3e8578	0.7442241
47	0x3f057196	0.52126443
48	0xbbeeebe0	-0.007291302
49	0x3ac497f3	0.0014998898
50	0x3a06fa5f	0.00051490025
51	0x3dead826	0.11467008
52	0xbf03660f	-0.51327604
53	0x3ed2cbe4	0.4117118
54	0xbc404d04	-0.011737112
55	0xbf6b8246	-0.91995656
56	0xbf8ecf41	-1.1156999
57	0x3f3f6447	0.74762386
58	0x3f8e7520	1.1129494
59	0x3e8c33c1	0.27383235
60	0x3f033864	0.5125792
61	0x3ed70764	0.41997826
62	0x3efe78bb	0.49701485
63	0x3f4e2395	0.80523044
64	0xbec40b27	-0.3828976
65	0xbf0f662f	-0.56015295
66	0x3c261723	0.010137352
67	0x3f07d2cf	0.53056043
68	0xbf015ca7	-0.50532
69	0xbe8c0f91	-0.27355626
70	0xbee9f8fb	-0.4569777
71	0x3d19af7f	0.03752088
72	0x3dae19fb	0.08501049
73	0x3f3f29c5	0.7467311
74	0xbd0db93c	-0.03460048
75	0x3f92c0b2	1.1465056
76	0x3e00a316	0.12562212
77	0x3bd667b6	0.006543125
78	0x3c90e2e1	0.01768631
79	0x3d0279c7	0.031854417
80	0x3cb39d2e	0.021925535
81	0x3e6f5fa0	0.23376322
82	0x3d8c6c3a	0.0685658
83	0xbe05e2cb	-0.13074796
84	0xb5de7122	-1.6573215e-06
85	0xb187a7eb	-3.948107e-09
86	0xb567ad7f	-8.6306676e-07
87	0xbf036e12	-0.5133983
88	0x3e8b62fb	0.27223954
89	0x3d5b449b	0.053532224
90	0xbee13d3d	-0.43992034
91	0x3e815f60	0.25268078
92	0x3f044258	0.5166373
93	0xbf2eaf92	-0.6823665
94	0x3ec17362	0.37783343
95	0x3f22eaaa	0.6363932
96	0xbd8dfe69	-0.069332905
97	0xbf0685f7	-0.52548164
98	0xbda4577c	-0.08024499
99	0x3fdd17ff	1.7272948
100	0xbe8de534	-0.2771393
101	0xbea8145c	-0.32828033
102	0x3bd1b220	0.006399408
103	0xbd827813	-0.063705586
104	0xbf30ed0d	-0.6911171
105	0x3cb1a64d	0.021685744
106	0x3a0ad700	0.000529632
107	0xba39123f	-0.0007059909
108	0x3f1a54ec	0.6028583
109	0x3f2e7574	0.6814797
110	0xbddbef5e	-0.10739015
111	0x3e97b919	0.29633406
112	0xbe95af12	-0.2923513
113	0xbf05bd74	-0.5224221
114	0x3f7750e3	0.966078
115	0xbd2aa066	-0.041656874
116	0xbc9f305d	-0.019432241
117	0x3fc1f207	1.5151986
118	0x3d66fe3c	0.0563948
119	0x3d7eadad	0.06217735
120	0xbbf383f2	-0.0074315006
121	0x3bd2fee3	0.0064390763
122	0x3c7046c2	0.0146653075
123	0x376bf610	1.4064382e-05
124	0x37bcbd93	2.2499624e-05
125	0xb9e8e7f1	-0.00044423298
126	0x3f45c854	0.772588
127	0x3db769f5	0.089557566
128	0x3ccad468	0.024759486
129	0xbe19bde9	-0.15013851
130	0xbf401a2e	-0.7503995
131	0xbedbe03a	-0.4294451
132	0x1a7e2a51	5.2560152e-23
133	0x800038a8	-2.0324e-41
134	0x9cd1bf7c	-1.3879957e-21
135	0x3dfd468b	0.12366971
136	0xbf57db29	-0.84318787
137	0xbecdfc0d	-0.40231362
138	0x254f28be	1.7968192e-16
139	0x80000012	-2.5e-44
140	0x16053546	1.0760465e-25
141	0x3fc1aca1	1.5130807
142	0xbe0c3544	-0.13692194
143	0xbd846a7f	-0.06465625
144	0xbe6a3045	-0.22869976
145	0xbeb113a3	-0.34585294
146	0x3d4f806c	0.050659582
147	0xb8ca7415	-9.6537326e-05
148	0xbf1d9ce5	-0.6156753
149	0xbf816986	-1.0110328
150	0xbbe21224	-0.006899135
151	0xbe8f25c9	-0.27958515
152	0xbf852c63	-1.0404171
153	0x341d63a8	1.4658019e-07
154	0x2a4c36f7	1.813791e-13
155	0xb41eaf3b	-1.4778645e-07
156	0x3ceb881a	0.028751422
157	0xbe696821	-0.22793628
158	0xbf5f248a	-0.8716513
159	0xbe2c0c12	-0.1680148
160	0xbd10516e	-0.035233907
161	0x3d95efba	0.07321115
162	0xbdf9f257	-0.12204426
163	0x3f3b1ee0	0.73093987
164	0xbe577d96	-0.21044001
165	0xba131f15	-0.00056122366
166	0xbf6f0270	-0.93363094
167	0x3d55ba5b	0.052179676
168	0xbd956ab7	-0.07295745
169	0xbcd7218c	-0.026261114
170	0x3e34ac2c	0.17643803
171	0x3cfaf865	0.030636022
172	0xba8b0813	-0.0010607265
173	0x3c0e200a	0.008674631
174	0xbb6f9350	-0.003655631
175	0xbf8498d7	-1.0359143
176	0xbcad645e	-0.021166023
177	0xbeb7acba	-0.35873967
178	0x3deae43d	0.11469314
179	0xbf2037ef	-0.6258535

bias f4 [60]
0	0xbc6c1f55	-0.014411767
1	0xbf5c5ccc	-0.86079097
2	0xbdbf9d34	-0.09356156
3	0xbc75f887	-0.015012867
4	0xbed207d9	-0.41021612
5	0xbe1f6aa5	-0.15568025
6	0xbf2bc069	-0.6709047
7	0x3f48b17a	0.7839581
8	0xbf29f685	-0.66391784
9	0xbf01c799	-0.50695187
10	0xbf393718	-0.7234969
11	0xbf1435af	-0.57894415
12	0xbf70e7e9	-0.94103867
13	0xbf097697	-0.5369658
14	0xbd8d7471	-0.06906975
15	0x3e1a76c4	0.15084368
16	0xbc7ac010	-0.01530458
17	0xbf7baa87	-0.9830708
18	0xbf586439	-0.8452793
19	0x3d10f218	0.03538713
20	0x3ebdb0cf	0.37048957
21	0x3ee32d18	0.4437034
22	0xbec8e4aa	-0.39236957
23	0xbeda08dd	-0.42584887
24	0x3e0aea70	0.13565993
25	0xbf99be85	-1.2011267
26	0xbda7b9f7	-0.08189767
27	0x3d70f405	0.058826465
28	0xb7a7b3cd	-1.9991678e-05
29	0xbf5a2151	-0.85207087
30	0x3bd8b53b	0.006613401
31	0xbf175d2a	-0.5912653
32	0xbf2c9496	-0.67414224
33	0x3ee91326	0.45522422
34	0xbf0bf4d9	-0.5467048
35	0xbd984e8e	-0.07436858
36	0xbd3444d8	-0.044010967
37	0xbf05c9f9	-0.5226131
38	0x3f587a11	0.8456126
39	0x3e7e2e85	0.24822433
40	0xbd5f430b	-0.054507297
41	0xbabaa767	-0.0014240564
42	0xbf7fdc02	-0.9994508
43	0xbf29fdc1	-0.6640282
44	0xa39a5523	-1.673277e-17
45	0xbe80506b	-0.25061354
46	0xa6fa0af3	-1.7350203e-15
47	0xbeecec07	-0.46273825
48	0xbf073d94	-0.52828336
49	0xbf4580f4	-0.7714989
50	0xbf4a52c0	-0.79032516
51	0xb709be75	-8.210181e-06
52	0xbf078087	-0.5293049
53	0xbe8c8547	-0.27445433
54	0xbecec4c0	-0.40384483
55	0xbe72baf3	-0.23704128
56	0x3d2d857e	0.042363636
57	0xbda3b5c7	-0.07993656
58	0xbf03bb8c	-0.5145805
59	0xbf7885f0	-0.9707937

weight f4 [60, 60]
0	0x800000d7	-3.01e-43
1	0x000001b3	6.1e-43
2	0x32baa1a1	2.172675e-08
3	0xb3c94292	-9.371901e-08
4	0x81a22f05	-5.957687e-38
5	0xac553491	-3.02983e-12
6	0xb8843f0c	-6.305994e-05
7	0xbb2165c5	-0.002462731
8	0x8e49b83f	-2.4863874e-30
9	0xb7ca438c	-2.411173e-05
10	0x8f00cdd7	-6.3505306e-30
11	0x33b4db0c	8.4217476e-08
12	0x00000082	1.82e-43
13	0xb1a80311	-4.889792e-09
14	0x8000008f	-2e-43
15	0xb7b8e175	-2.2039496e-05
16	0x00000165	5e-43
17	0x2cb69a64	5.189892e-12
18	0xb0e42c48	-1.6601769e-09
19	0xb9c14b93	-0.00036868136
20	0xb9a0d75e	-0.0003067804
21	0xbb9f56ec	-0.004862657
22	0xaeb518e9	-8.235352e-11
23	0xab721cf4	-8.601585e-13
24	0xb86dfe9e	-5.6742334e-05
25	0xa261ab08	-3.058373e-18
26	0xa7046fb7	-1.837924e-15
27	0xb58fb6da	-1.0707547e-06
28	0xb12ebb3d	-2.5426765e-09
29	0x80000057	-1.22e-43
30	0xb647f86c	-2.9797911e-06
31	0xab1151f3	-5.1628076e-13
32	0x80000018	-3.4e-44
33	0xbbea28f8	-0.007145997
34	0x80000070	-1.57e-43
35	0xa62deec7	-6.0345036e-16
36	0xb90d1e67	-0.00013458134
37	0x95175113	-3.0558163e-26
38	0xbbdd6603	-0.0067565455
39	0xbb2fcf28	-0.0026826356
40	0x00000052	1.15e-43
41	0xb207a100	-7.894641e-09
42	0x0000005a	1.26e-43
43	0xa881a986	-1.4395396e-14
44	0x2b3516e9	6.433591e-13
45	0xb6cfb812	-6.1905093e-06
46	0x399802ac	0.0002899369
47	0xb92959f3	-0.00016150605
48	0x80000329	-1.134e-42
49	0xa667e192	-8.044993e-16
50	0x0035a64c	4.926937e-39
51	0x2d415728	1.0990132e-11
52	0xa1fda3d1	-1.7187309e-18
53	0x8000001f	-4.3e-44
54	0xac62737f	-3.2180645e-12
55	0xb8b6ea77	-8.722109e-05
56	0xaf3b6bbc	-1.7045826e-10
57	0x80000049	-1.02e-43
58	0xb74f142e	-1.234286e-05
59	0x0000006c	1.51e-43
60	0x000000d9	3.04e-43
61	0x8000001b	-3.8e-44
62	0x8000000a	-1.4e-44
63	0x0000017b	5.31e-43
64	0x80000005	-7e-45
65	0x00000019	3.5e-44
66	0xa344e61c	-1.0673909e-17
67	0xb179152e	-3.6246308e-09
68	0xa5e276f5	-3.928536e-16
69	0x8de7e204	-1.4290885e-30
70	0xa5ab0020	-2.9663856e-16
71	0x85472cf9	-9.365195e-36
72	0x8000000c	-1.7e-44
73	0x9c886b46	-9.027455e-22
74	0x80000002	-3e-45
75	0x9a9689cd	-6.2261175e-23
76	0x000001b9	6.18e-43
77	0x80000014	-2.8e-44
78	0xb12460fd	-2.3920272e-09
79	0xa59f10e8	-2.759356e-16
80	0xa563a627	-1.9745406e-16
81	0xb5786055	-9.252738e-07
82	0x80000006	-8e-45
83	0x997b254b	-1.2983927e-23
84	0x9d429e7d	-2.5757623e-21
85	0x80000004	-6e-45
86	0x35583a23	8.055087e-07
87	0x00000281	8.98e-43
88	0x00000154	4.76e-43
89	0x80000023	-4.9e-44
90	0x9149ad12	-1.5909436e-28
91	0x8000001b	-3.8e-44
92	0x8000000a	-1.4e-44
93	0xb51ca3a7	-5.8352674e-07
94	0x00000008	1.1e-44
95	0x80000014	-2.8e-44
96	0x939b34b4	-3.917947e-27
97	0x0000000f	2.1e-44
98	0xb5005c45	-4.7817986e-07
99	0xaf2dfb74	-1.5823592e-10
100	0x80000001	-1e-45
101	0x2ee559c5	1.04296606e-10
102	0x80000006	-8e-45
103	0xab86225e	-9.530811e-13
104	0x31b6a764	5.3159273e-09
105	0xafbc1cd0	-3.4217473e-10
106	0xb7c39a41	-2.3317642e-05
107	0xa775ff52	-3.413899e-15
108	0x0000001a	3.6e-44
109	0xaa2f9ac8	-1.5596823e-13
110	0x915d7c33	-1.7472098e-28
111	0xaba0e732	-1.1432853e-12
112	0x9e47e4fc	-1.0582325e-20
113	0x8000000b	-1.5e-44
114	0x80000018	-3.4e-44
115	0xb1814ecd	-3.7633527e-09
116	0x80000015	-3e-44
117	0x2feaf7ed	4.2740514e-10
118	0xaf8e1f35	-2.5851823e-10
119	0x0000001d	4e-44
120	0x800000cb	-2.84e-43
121	0x0000000a	1.4e-44
122	0x01f75f50	9.0870237e-38
123	0xb34d95f5	-4.7866667e-08
124	0x8505cc67	-6.291173e-36
125	0x0000000a	1.4e-44
126	0x89a13f9a	-3.881915e-33
127	0xb564d062	-8.5239856e-07
128	0x80000000	-0.0
129	0xa2d5c560	-5.7942745e-18
130	0x8000001c	-3.9e-44
131	0x800fef37	-1.463347e-39
132	0x8000001d	-4e-44
133	0x80000004	-6e-45
134	0x8000002b	-6e-44
135	0xac205f02	-2.2790107e-12
136	0x00000061	1.36e-43
137	0x00000019	3.5e-44
138	0x8000000e	-2e-44
139	0xae961611	-6.82513e-11
140	0xaf86abf4	-2.4496638e-10
141	0xb0b30e3b	-1.3028009e-09
142	0x00000019	3.5e-44
143	0x80000013	-2.7e-44
144	0xa6670522	-8.015118e-16
145	0x00000012	2.5e-44
146	0xab8bc242	-9.930461e-13
147	0x01ea3fab	8.6049383e-38
148	0x800001bc	-6.22e-43
149	0x80000016	-3.1e-44
150	0xa4c7e639	-8.6692505e-17
151	0x890a3f54	-1.6640923e-33
152	0x80000005	-7e-45
153	0xb49f43f6	-2.9665506e-07
154	0x80000021	-4.6e-44
155	0x335e8f33	5.1818642e-08
156	0xa50d4c6c	-1.2255693e-16
157	0x0000001f	4.3e-44
158	0xb4fc83a4	-4.703444e-07
159	0xb293b5e8	-1.7195774e-08
160	0x00000008	1.1e-44
161	0x337a1000	5.8222213e-08
162	0x0000001d	4e-44
163	0x0000000d	1.8e-44
164	0xb00ff57b	-5.2371946e-10
165	0x00000008	1.1e-44
166	0xae467e88	-4.513237e-11
167	0x2502a831	1.1332688e-16
168	0x0000000f	2.1e-44
169	0x8000001b	-3.8e-44
170	0x00000014	2.8e-44
171	0x2cb25153	5.068093e-12
172	0x80000014	-2.8e-44
173	0x00000018	3.4e-44
174	0x8000000e	-2e-44
175	0x8000001a	-3.6e-44
176	0x00000017	3.2e-44
177	0x2c13c7d9	2.1000894e-12
178	0x80000004	-6e-45
179	0x0000001f	4.3e-44
180	0x3a128c2d	0.0005590346
181	0xbf1fef9d	-0.62474996
182	0xbea953b9	-0.33071688
183	0xbaac512e	-0.0013146752
184	0x3e66c5e2	0.22536424
185	0xbe2a46bc	-0.16628546
186	0xbd686b89	-0.05674318
187	0x3e1e754d	0.15474434
188	0x3c44b1e7	0.012005306
189	0xbf05dc28	-0.52289057
190	0xbd4362f8	-0.047701806
191	0xbec6b9f2	-0.3881374
192	0xbf717688	-0.9432149
193	0xbe417ffa	-0.18896475
194	0x381ea7e6	3.7826503e-05
195	0x3d975f46	0.07391219
196	0xbb9ddc59	-0.0048175273
197	0xbeb88b5c	-0.36043823
198	0xbfc83a28	-1.5642748
199	0xbdaf3396	-0.08554761
200	0x3e0777d9	0.13229312
201	0xbf012de8	-0.5046067
202	0x3ddec12f	0.108766906
203	0x3db3960e	0.08768855
204	0x3b85f47f	0.004087984
205	0x3f35c869	0.71008927
206	0x3c331765	0.010930871
207	0xbe11c601	-0.14235689
208	0x30f65d0c	1.7925301e-09
209	0xbda398e4	-0.07988146
210	0xbdc5df79	-0.09661765
211	0x3e5d9f1b	0.21642725
212	0xbdac8611	-0.08424009
213	0x3e8b32ef	0.27187297
214	0xbdc5ee90	-0.09664643
215	0xbd046071	-0.032318536
216	0xbdf053e3	-0.1173475
217	0xbebfe06b	-0.37475905
218	0x3e065fa0	0.13122416
219	0x3d099e06	0.03359797
220	0xbb62ab36	-0.0034586913
221	0x3118b1f3	2.2220064e-09
222	0xbf87169b	-1.0553774
223	0x3cc4a279	0.024003254
224	0x8585b50d	-1.2573767e-35
225	0xbedbff79	-0.42968348
226	0x000013ef	7.151e-42
227	0x3df3febe	0.119138226
228	0x3dce17e4	0.100631505
229	0xbf8b2dbe	-1.0873334
230	0xbf22ead4	-0.6363957
231	0x29e6679f	1.0232027e-13
232	0xbf13971c	-0.5765245
233	0x3ce9b40c	0.028528236
234	0x3e6ea87e	0.23306462
235	0xbe0fbfd1	-0.14038016
236	0x3dc7bf93	0.09753337
237	0xbbcf8a95	-0.006333659
238	0xbf02495d	-0.50893193
239	0xbe224d9f	-0.15849923
240	0xb1a3f870	-4.7721684e-09
241	0x393e8a8b	0.00018171423
242	0x3ece0210	0.4023595
243	0x2b6a531b	8.324883e-13
244	0xbd8358a8	-0.06413394
245	0xbe332ce9	-0.174976
246	0xbe279e01	-0.16368867
247	0xbf52e323	-0.82377833
248	0x3e8d8c3c	0.27646053
249	0xb47ebe02	-2.3724718e-07
250	0x3d00ad43	0.031415235
251	0x3e63efb0	0.22259402
252	0x3ef962d4	0.48708212
253	0x3f13af12	0.5768901
254	0xbb0266b9	-0.0019897653
255	0xbdceca4f	-0.10097181

bias f4 [60]
0	0xbc064656	-0.00819548
1	0xb8304e09	-4.2034346e-05
2	0xb6755ad2	-3.656071e-06
3	0x3f18f19e	0.5974368
4	0xbb221e75	-0.0024737392
5	0x3d986cb8	0.074426115
6	0x3eca27b4	0.39483416
7	0x3e33bdb9	0.17552842
8	0x3e04367c	0.12911409
9	0xbe893cca	-0.2680419
10	0x3d4da493	0.05020578
11	0x3f053862	0.5203916
12	0xbeb7ed45	-0.3592321
13	0x3de33b80	0.11095333
14	0xbe3a7e06	-0.18212137
15	0xb85013c3	-4.960947e-05
16	0xb833aa2d	-4.2835414e-05
17	0x3eefc7cb	0.46832117
18	0x3ea36e20	0.31919956
19	0x3daedba0	0.08537984
20	0xbb266496	-0.0025389544
21	0x3e8e421e	0.27784818
22	0x3a56726b	0.0008180502
23	0x3ed19159	0.40931204
24	0xbd384375	-0.044986207
25	0xbc9be6ed	-0.019031012
26	0xbde12bad	-0.109946586
27	0xb8b01707	-8.396623e-05
28	0xbd339739	-0.04384539
29	0x3ca5362d	0.020167435
30	0x3ea9b060	0.33142376
31	0xbc58a06e	-0.013221843
32	0xb9256d2a	-0.00015776293
33	0xbdbdf757	-0.09275692
34	0xb58196fa	-9.655189e-07
35	0xbef5fc85	-0.4804422
36	0xbe8ef770	-0.27923155
37	0x3d213992	0.039361544
38	0x3e1eed1b	0.15520136
39	0x3e3fe8a8	0.18741095
40	0xbf050975	-0.51967555
41	0x3cc17050	0.023613125
42	0xb4913622	-2.7047741e-07
43	0xb6024634	-1.9412373e-06
44	0xb6915d51	-4.3322e-06
45	0x3e8ad8db	0.27118573
46	0x3e428b17	0.18998371
47	0xbe1938fa	-0.14963141
48	0xbd9302f6	-0.07178299
49	0xb71d0eaf	-9.361348e-06
50	0xbe117c6e	-0.14207622
51	0xb4170776	-1.4065685e-07
52	0xbb67a7c7	-0.0035347806
53	0x3e90a1e1	0.28248504
54	0xbe2f84b5	-0.17140467
55	0x3e8d3609	0.27580288
56	0x3e112d3c	0.14177412
57	0xbca15a22	-0.019696299
58	0xb7dbe977	-2.621555e-05
59	0x3e95daff	0.29268643

weight f4 [60, 60]
0	0x3590e321	1.0794939e-06
1	0x366b4d1a	3.5062608e-06
2	0xaf4601b8	-1.8008606e-10
3	0xb9610e48	-0.00021462992
4	0xa3846b96	-1.4357033e-17
5	0x232ac711	9.2578724e-18
6	0x27f52aa2	6.8047383e-15
7	0xa157f024	-7.3162657e-19
8	0xa19aced4	-1.0490193e-18
9	0xb9a7c257	-0.00031997517
10	0xb806c3c4	-3.213041e-05
11	0xa30e7dce	-7.724476e-18
12	0x2117ff8e	5.1499014e-19
13	0x2133bba1	6.0895884e-19
14	0xa0b7e341	-3.115179e-19
15	0x2d43e83a	1.1136031e-11
16	0xae4f8137	-4.7181117e-11
17	0xa0fe5a49	-4.308902e-19
18	0x2198f070	1.0363564e-18
19	0x23bd4c31	2.052369e-17
20	0xb105f20d	-1.9491637e-09
21	0xa25c7c96	-2.9881515e-18
22	0xb7dc4080	-2.6256079e-05
23	0xa15f215d	-7.5599495e-19
24	0xad42d4d3	-1.107488e-11
25	0x02ada6a1	2.5515706e-37
26	0x2043cba4	1.6584522e-19
27	0x3354cde4	4.9547353e-08
28	0x028b1f50	2.0442187e-37
29	0xb4a343ac	-3.0410354e-07
30	0xa1af4242	-1.1876e-18
31	0xacdfeb0d	-6.364137e-12
32	0x2fcdea75	3.7455875e-10
33	0xb291a5a7	-1.6955552e-08
34	0xb51a8c8d	-5.7574e-07
35	0x231dbf5b	8.551508e-18
36	0xa24475e7	-2.662537e-18
37	0xb74ac7f0	-1.208669e-05
38	0xa3433fda	-1.0584492e-17
39	0xa1faad1e	-1.6986483e-18
40	0x217587ce	8.3188965e-19
41	0x230a2c1a	7.490334e-18
42	0xb4a53446	-3.077168e-07
43	0xb81d2864	-3.7469334e-05
44	0x2f64bb80	2.0803093e-10
45	0xa226335b	-2.2524382e-18
46	0x20dede7e	3.7755496e-19
47	0xb3384e63	-4.291213e-08
48	0xbb3a1d5d	-0.002839885
49	0xafdbe63b	-3.9999457e-10
50	0x23aa5ad8	1.846991e-17
51	0x30ec621d	1.7199145e-09
52	0xb1e79b11	-6.740614e-09
53	0xa2e5cab9	-6.2285215e-18
54	0xa2f8ba04	-6.7417486e-18
55	0xa1220693	-5.4896436e-19
56	0xa10071b0	-4.351855e-19
57	0x80000020	-4.5e-44
58	0xac04a839	-1.885171e-12
59	0xa3703592	-1.302177e-17
60	0xb29374a6	-1.7166098e-08
61	0xa980e2e1	-5.723699e-14
62	0x9d395f1a	-2.4533712e-21
63	0x3ed02da4	0.4065982
64	0xbeba6eff	-0.36412808
65	0xbe8dafe0	-0.27673244
66	0x3e68b2af	0.22724412
67	0xbce47d70	-0.027891845
68	0x3c345449	0.011006423
69	0xbf24d307	-0.643845
70	0xbdd32c6f	-0.103112094
71	0xbe373cf4	-0.17894346
72	0xbf399fd1	-0.72509485
73	0x3c902386	0.017595064
74	0xbecc6c17	-0.39926216
75	0x95df8da5	-9.029246e-26
76	0x30038522	4.7846715e-10
77	0x3f2a6220	0.66555977
78	0xbf2681bd	-0.65041715
79	0xbe9bbb02	-0.30416113
80	0xb7928d37	-1.7470315e-05
81	0x3d85a5f4	0.06525794
82	0x3d37fd82	0.0449195
83	0x3f1005c6	0.5625881
84	0xbba7b38e	-0.00511784
85	0x3c8a51ba	0.016884673
86	0x3cf63568	0.030054763
87	0xaa1581bf	-1.3278873e-13
88	0xbae060ef	-0.0017118732
89	0xbd2e38d5	-0.042534668
90	0x3f1195b1	0.56869036
91	0x036b85ca	6.9213875e-37
92	0x2f54c94a	1.93528e-10
93	0xbe5b8b39	-0.21439828
94	0x2cd53966	6.0601966e-12
95	0xbe18c673	-0.14919452
96	0xbf2a6fc8	-0.66576815
97	0xbced6eba	-0.028983463
98	0x3e62ecc4	0.22160631
99	0x3f3f1319	0.74638516
100	0x8000002c	-6.2e-44
101	0xbe7d2015	-0.2471927
102	0x0b05cc75	2.5768685e-32
103	0x36fcda30	7.5355856e-06
104	0x1ff95602	1.0559789e-19
105	0x3f0e4254	0.5556996
106	0xbf1dad2f	-0.6159238
107	0xbe0fafcd	-0.14031906
108	0xbdb6072d	-0.088880874
109	0x2f989011	2.7751004e-10
110	0x2f20f257	1.4638012e-10
111	0x894ac027	-2.4405215e-33
112	0xb5091d9a	-5.1079553e-07
113	0xbd82b8cd	-0.06382904
114	0xbd773ef5	-0.060362775
115	0x3c582b98	0.013193987
116	0xbecd2e7c	-0.40074527
117	0x39f1e846	0.0004614016
118	0x33a23dde	7.5549664e-08
119	0x3e941e74	0.28929484
120	0xb708dd74	-8.157793e-06
121	0x2d9d7535	1.7900884e-11
122	0x1fa54b8d	7.0005206e-20
123	0x3e4fb8fc	0.2028541
124	0x3f07da78	0.5306773
125	0xbb788f9f	-0.0037927402
126	0xbd646ddc	-0.055768833
127	0x3f029f01	0.5102387
128	0x3e89499f	0.2681398
129	0x3e351a06	0.17685708
130	0xbe9526ef	-0.29131266
131	0x3e0f02ca	0.13965908
132	0x3e034619	0.12819709
133	0x3e3fb74b	0.18722264
134	0x3ba16901	0.0049258475
135	0x00000007	1e-44
136	0x80000003	-4e-45
137	0xbf0af526	-0.54280317
138	0x3eb2b242	0.34901625
139	0xbdc29a2a	-0.09502061
140	0xad3df97f	-1.0798805e-11
141	0x3d398ab7	0.045298304
142	0xbc82106c	-0.015876971
143	0x3de42e86	0.11141686
144	0xbbbdafeb	-0.0057887933
145	0xbaa302b8	-0.0012436723
146	0xbdab9770	-0.08378494
147	0x0000000a	1.4e-44
148	0x3953b485	0.00020189777
149	0x3cb90c57	0.022588892
150	0xbe394b85	-0.18095215
151	0x25aacf18	2.963063e-16
152	0x30091f7d	4.9885057e-10
153	0xbe932750	-0.2874093
154	0x00000378	1.244e-42
155	0x34418b71	1.8025254e-07
156	0x3ddddfb9	0.10833687
157	0xbd5493b8	-0.051898688
158	0xbea4d70b	-0.32195315
159	0x3f2bc50e	0.67097557
160	0x2c3010c8	2.502042e-12
161	0xbcaa75cb	-0.020808121
162	0x00000009	1.3e-44
163	0xabdceee1	-1.5698242e-12
164	0x80000008	-1.1e-44
165	0xbe780063	-0.24218898
166	0x3e48c292	0.19605473
167	0xbe159a0c	-0.14609545
168	0xbe43ec94	-0.19133216
169	0x0000001c	3.9e-44
170	0x3caead63	0.021322912
171	0x8895a6ca	-9.006823e-34
172	0x285b11ca	1.21607995e-14
173	0x3db54d38	0.08852619
174	0x3e50cdfa	0.20391074
175	0x3e165a9a	0.14682999
176	0x3e1297f3	0.14315777
177	0x34c17215	3.6032057e-07
178	0xaa8b6a97	-2.4765322e-13
179	0xbd8f5df7	-0.07000344
180	0xba0e304a	-0.0005424066
181	0xb5d764cd	-1.6048085e-06
182	0x340247cc	1.2133313e-07
183	0xbe0229e8	-0.12711298
184	0x3e9341f6	0.28761262
185	0xbd716f37	-0.058943953
186	0x3d1c4162	0.03814829
187	0x3e937a63	0.2880431
188	0x3ed28e06	0.4112398
189	0xbcbb33da	-0.022851873
190	0xbe12e5be	-0.14345452
191	0x3e893619	0.26799086
192	0x3e7a71c3	0.24457459
193	0xbce0f817	-0.027462048
194	0xbb962b48	-0.0045827962
195	0xad5799a9	-1.22554545e-11
196	0x32bb2e2a	2.1790658e-08
197	0xbe1e86ef	-0.1548116
198	0x3dbfb782	0.09361173
199	0xbdc0b42c	-0.09409365
200	0x3885d504	6.3816115e-05
201	0x3ce0b532	0.02743015
202	0xbd8dac6a	-0.06917651
203	0x3d0608d9	0.03272328
204	0x3d37d484	0.044880405
205	0xbc9070b3	-0.017631864
206	0x3e1c9e4f	0.15294765
207	0x8000000b	-1.5e-44
208	0xbc8f02a8	-0.017457321
209	0x3c2323ee	0.009957297
210	0xbe1c9c15	-0.15293916
211	0x3aac5b14	0.0013149702
212	0x39c8ca85	0.00038297861
213	0xbd924c06	-0.071434066
214	0xb6107fc0	-2.1532032e-06
215	0x3f280577	0.6563334
216	0x3e32afe9	0.17449917
217	0x3dd5a573	0.104319476
218	0xbd78e95e	-0.06076943
219	0x3da80d54	0.08205667
220	0x3bd95061	0.0066318964
221	0x3e031753	0.12801866
222	0xb1926d0d	-4.261557e-09
223	0x34a3dcb9	3.0521713e-07
224	0xaed6b709	-9.764107e-11
225	0xbde4d877	-0.111741
226	0x3dba280e	0.09089671
227	0x3d9b85af	0.075938575
228	0xbe4be5f3	-0.19911937
229	0x2bf2db1c	1.7255949e-12
230	0x3cfc20bf	0.030777333
231	0x324e6bcc	1.2015288e-08
232	0x399ead5a	0.00030265265
233	0x3e9ce52e	0.306436
234	0xbd38faa3	-0.0451609
235	0x3e89c0f7	0.26905033
236	0x3e342dca	0.17595592
237	0x3b0841b1	0.0020791108
238	0xb7e59c28	-2.7371643e-05
239	0x3cd17a16	0.02557091
240	0x33e926b1	1.0856946e-07
241	0x35cb736b	1.515827e-06
242	0x80000072	-1.6e-43
243	0xbc9defd3	-0.019279396
244	0xbc1794eb	-0.009251813
245	0x3c847488	0.016168848
246	0xbc944c0d	-0.01810267
247	0xbb976384	-0.0046200175
248	0xbcf058c7	-0.029339207
249	0xbcfd2524	-0.0309015
250	0xbd1fdd58	-0.03902945
251	0xbc9cadaa	-0.019125778
252	0xb93f352c	-0.00018234988
253	0x3c6f66d6	0.01461192
254	0x3abe59c4	0.0014522602
255	0xb2185e31	-8.868981e-09

bias f4 [60]
0	0xbb908d77	-0.004411395
1	0x3d959671	0.07304085
2	0xbe4cba70	-0.19992995
3	0x3eff55df	0.49870202
4	0xbd0a7971	-0.03380722
5	0xb39e8159	-7.3809765e-08
6	0x3e7d8caa	0.2476069
7	0xba2d557b	-0.0006612164
8	0x3efcac0b	0.49350008
9	0xbb6d51e7	-0.0036212148
10	0xbd4da619	-0.05020723
11	0xbc416989	-0.011804947
12	0xbb8d6137	-0.0043145674
13	0x3eb5c2e5	0.35500255
14	0xbe665db8	-0.22496688
15	0xb4afeffe	-3.2770907e-07
16	0xbe18335e	-0.14863345
17	0xbe9de416	-0.30838078
18	0xbe859ab4	-0.26094592
19	0xb57f5556	-9.511908e-07
20	0x3d1859cb	0.03719501
21	0xb8ecd74e	-0.000112934606
22	0xbcb27ac4	-0.021787055
23	0x3efdc4ec	0.49564302
24	0xb8398184	-4.4228058e-05
25	0x3e5f998a	0.21835914
26	0xb402b107	-1.2171596e-07
27	0x3e9f7e41	0.31151012
28	0xbe5d70b3	-0.21625023
29	0x3e517265	0.20453794
30	0x3e89dd09	0.2692645
31	0xbdd7b8d2	-0.105332986
32	0xb30adc86	-3.2331194e-08
33	0x3e05e4e3	0.13075595
34	0xb8b203d4	-8.4884145e-05
35	0xba3b3c99	-0.00071425136
36	0xb4821746	-2.423132e-07
37	0xae998922	-6.981994e-11
38	0xb9712f63	-0.00023001204
39	0xb92ab461	-0.0001627966
40	0x3e05a2a3	0.13050322
41	0xbe29767d	-0.16549106
42	0xbd24ec11	-0.040264193
43	0x3ca7658a	0.02043416
44	0x3ed7d366	0.42153472
45	0x3efa8578	0.48929954
46	0x3dfd798a	0.12376697
47	0xbe9ec838	-0.3101213
48	0x3df9f079	0.1220407
49	0x3f115656	0.56772363
50	0xb8810b3c	-6.153292e-05
51	0xb7a09672	-1.9143543e-05
52	0x3d61a6e4	0.0550908
53	0x3ef75d72	0.4831348
54	0xb503f874	-4.916285e-07
55	0xbd6e32d8	-0.058153957
56	0xbd4be225	-0.049776215
57	0x3e8de4c4	0.27713597
58	0xbe6e370e	-0.23263189
59	0xb13d6d17	-2.756513e-09

weight f4 [60, 60]
0	0xabfc62e1	-1.7933121e-12
1	0xb7b619ac	-2.1708045e-05
2	0x80000018	-3.4e-44
3	0xbabf72f7	-0.0014606406
4	0xb3aba037	-7.991951e-08
5	0xb0181cf4	-5.533842e-10
6	0x9b86d760	-2.2307623e-22
7	0xacb1227b	-5.0344707e-12
8	0xbab4e566	-0.0013801276
9	0x36c8f4a7	5.9889458e-06
10	0x37ae5e6e	2.0786389e-05
11	0x35bfe537	1.4297319e-06
12	0x2ca0762f	4.5605945e-12
13	0xb9055f6f	-0.0001271942
14	0xb92cc5d9	-0.00016476902
15	0x2c90ab09	4.111715e-12
16	0x80000017	-3.2e-44
17	0x8000000a	-1.4e-44
18	0x00000000	0.0
19	0x2d46c0d1	1.1297811e-11
20	0x0000001a	3.6e-44
21	0xb952adab	-0.00020091857
22	0xad014211	-7.347471e-12
23	0xba83fc00	-0.0010069609
24	0x2a7801a5	2.2027395e-13
25	0xb55c12e2	-8.1983865e-07
26	0x2ff82895	4.5139772e-10
27	0xb2b12e72	-2.0626633e-08
28	0xb49b7ba7	-2.896097e-07
29	0xb29fa654	-1.8585673e-08
30	0xb90de5f3	-0.0001353247
31	0x34304fc9	1.6420303e-07
32	0xab0440bd	-4.6985663e-13
33	0x80000012	-2.5e-44
34	0xb39cc85d	-7.300762e-08
35	0xac60a2c2	-3.1922663e-12
36	0x2fef36a0	4.351266e-10
37	0x3707c7f6	8.093184e-06
38	0x2b6a4736	8.3232325e-13
39	0x38b96e0f	8.8419874e-05
40	0xa10ff5f8	-4.877582e-19
41	0xae52c32d	-4.7921823e-11
42	0x324c15f1	1.1879352e-08
43	0x80000014	-2.8e-44
44	0xa3bea975	-2.0671609e-17
45	0xb9f2f94b	-0.00046343575
46	0xb28f69b4	-1.669546e-08
47	0x00000003	4e-45
48	0xa3113daa	-7.873524e-18
49	0xbb0dfe14	-0.0021666335
50	0x2f243306	1.493384e-10
51	0xb3432062	-4.5431428e-08
52	0xb5e9aa0f	-1.7409346e-06
53	0xba7c5277	-0.00096253253
54	0x382875ad	4.0163915e-05
55	0x32b57e51	2.1128615e-08
56	0x336a8c7f	5.461015e-08
57	0x80039169	-3.2767e-40
58	0x80000016	-3.1e-44
59	0xb595830c	-1.1139505e-06
60	0x1fcbd975	8.6333597e-20
61	0xb828779e	-4.0165723e-05
62	0xb6cde14a	-6.135703e-06
63	0xb70077db	-7.657301e-06
64	0xb1185ecd	-2.21728e-09
65	0xa7b00e86	-4.886556e-15
66	0xb88b48ff	-6.641633e-05
67	0x1e0905e3	7.253937e-21
68	0xb79caf07	-1.8678153e-05
69	0xb0bb70c4	-1.3638091e-09
70	0x398f9c89	0.00027391713
71	0x802b82b5	-3.995815e-39
72	0x155f565d	4.510262e-26
73	0x384b51f9	4.8475315e-05
74	0x36144b78	2.2097647e-06
75	0x27ca5868	5.6162113e-15
76	0x377811ef	1.4786127e-05
77	0x3506ed4a	5.026419e-07
78	0x37c0486b	2.2921906e-05
79	0x00000167	5.03e-43
80	0x37e24d33	2.6977248e-05
81	0xaf4006e4	-1.7464746e-10
82	0xb3a111ad	-7.500362e-08
83	0x38a149b4	7.6908065e-05
84	0xa93d8cb7	-4.208848e-14
85	0xb8aae893	-8.149552e-05
86	0x1fa9b1c7	7.186839e-20
87	0x34c1cfb8	3.6100187e-07
88	0xb81b2b2c	-3.6995087e-05
89	0x35513ad9	7.79442e-07
90	0x37a66b49	1.98387e-05
91	0xb7881a2f	-1.6224656e-05
92	0x2f9dfddc	2.8738512e-10
93	0x37b9d2e3	2.215192e-05
94	0xaaaa5845	-3.0259316e-13
95	0xb726cc58	-9.9419485e-06
96	0x800002af	-9.63e-43
97	0x363ccd19	2.8133566e-06
98	0x332b2af2	3.98531e-08
99	0x8000002c	-6.2e-44
100	0xb694b54a	-4.4318485e-06
101	0x37741360	1.4548044e-05
102	0xad90a6f7	-1.6445052e-11
103	0x350a63e1	5.155435e-07
104	0xb7c13b78	-2.3035085e-05
105	0x38a3df08	7.8139885e-05
106	0xb84466f6	-4.682593e-05
107	0x37c8c9a7	2.393576e-05
108	0x37f8acc5	2.9644356e-05
109	0x37e69822	2.7488979e-05
110	0x30859c14	9.721384e-10
111	0x9f963ddf	-6.362983e-20
112	0xb813b72c	-3.5218123e-05
113	0x38ec604c	0.000112712936
114	0xb4d7c270	-4.0188343e-07
115	0x9d6211ab	-2.9919985e-21
116	0x3609d494	2.0538328e-06
117	0xb829f793	-4.052331e-05
118	0xb79fe027	-1.9058656e-05
119	0x2529055c	1.4660229e-16
120	0x0000003c	8.4e-44
121	0xa16db1be	-8.0533963e-19
122	0x21e26af0	1.5342662e-18
123	0xb6f2fe30	-7.2417533e-06
124	0x8000008c	-1.96e-43
125	0x2d1e0589	8.982489e-12
126	0x2133e4f4	6.0950576e-19
127	0x2bc593e7	1.4038743e-12
128	0xb7532d55	-1.2587135e-05
129	0x838825b7	-8.0020205e-37
130	0x01291fbe	3.1063172e-38
131	0x014720a9	3.657396e-38
132	0x359814cb	1.1330934e-06
133	0xaf099158	-1.2511714e-10
134	0xb49ecec0	-2.9580224e-07
135	0xac8ed33c	-4.0593345e-12
136	0xa10cfe2c	-4.777024e-19
137	0x209ca718	2.6538001e-19
138	0x1e8ab5c6	1.4686498e-20
139	0x2f46e9e7	1.8091094e-10
140	0x2040eb50	1.6340891e-19
141	0xae16835a	-3.4222715e-11
142	0xa9308dd3	-3.9202863e-14
143	0xb4d56ec5	-3.9754937e-07
144	0xb15bdadc	-3.1993102e-09
145	0xa1a57e84	-1.1214323e-18
146	0x2ea6fad7	7.593364e-11
147	0xa24f2a7f	-2.8076228e-18
148	0x213b353e	6.342853e-19
149	0xa8be78f9	-2.1146701e-14
150	0xac3a984d	-2.6516734e-12
151	0xb7e86456	-2.7703278e-05
152	0xae8400d0	-6.0028094e-11
153	0xa01911c1	-1.2965478e-19
154	0x33bc9a5e	8.7825114e-08
155	0xb3141e9f	-3.4486785e-08
156	0xaf8c7fac	-2.5556568e-10
157	0xaeaa3314	-7.739778e-11
158	0x9e25a273	-8.768621e-21
159	0xb55124ef	-7.791231e-07
160	0xa12d999e	-5.881799e-19
161	0x21ab4e76	1.1608179e-18
162	0x30542e91	7.7191326e-10
163	0x2203a4e9	1.7841113e-18
164	0xa2189d7d	-2.0683215e-18
165	0xb3275ea1	-3.8968782e-08
166	0xa25ce9b3	-2.993928e-18
167	0x20a04bee	2.71553e-19
168	0x2201827f	1.7551844e-18
169	0xb71da0cc	-9.395368e-06
170	0xb7aa58ea	-2.0306983e-05
171	0xb6089c1a	-2.0356442e-06
172	0x9f6a5f19	-4.963009e-20
173	0xb58461d7	-9.863242e-07
174	0x2e1cc7e2	3.5647825e-11
175	0x3705830b	7.957929e-06
176	0x32d8815a	2.5204532e-08
177	0x2178629e	8.4156187e-19
178	0x1cc57e5e	1.3069032e-21
179	0x362efdc9	2.6075743e-06
180	0x37e8fba5	2.7773736e-05
181	0x89a19143	-3.8895944e-33
182	0x8000000c	-1.7e-44
183	0xab238a75	-5.810138e-13
184	0xad22f303	-9.262593e-12
185	0x30bb7d7d	1.3641707e-09
186	0x0000001c	3.9e-44
187	0xae87f516	-6.182625e-11
188	0xab228328	-5.773598e-13
189	0x34c57c24	3.6784434e-07
190	0xb98f6cd4	-0.0002735617
191	0xad00c87e	-7.320476e-12
192	0x38091c82	3.2689895e-05
193	0x9f020efa	-2.754096e-20
194	0x88c9370d	-1.211019e-33
195	0xac8c0bcc	-3.980349e-12
196	0x00000017	3.2e-44
197	0x0000003e	8.7e-44
198	0x80000002	-3e-45
199	0x2d422ef2	1.1038047e-11
200	0x00000047	1e-43
201	0x34ab3313	3.1888393e-07
202	0x36add113	5.180141e-06
203	0xaa8ecf87	-2.5368268e-13
204	0x1ed39870	2.240354e-20
205	0x8000000f	-2.1e-44
206	0xb3a9806d	-7.893036e-08
207	0x00000002	3e-45
208	0x80000010	-2.2e-44
209	0x00000007	1e-44
210	0xa0119787	-1.2332114e-19
211	0x3086429a	9.768713e-10
212	0xaf9b4407	-2.8242672e-10
213	0x8000000e	-2e-44
214	0x2c764f73	3.5002806e-12
215	0x2d0e8add	8.102599e-12
216	0x2eaec853	7.9481886e-11
217	0x2e30f8df	4.023881e-11
218	0x389ef491	7.579581e-05
219	0xb7f22a62	-2.8868384e-05
220	0x0000001a	3.6e-44
221	0x8000001c	-3.9e-44
222	0xb0b043a7	-1.2824913e-09
223	0x0000000f	2.1e-44
224	0x00000017	3.2e-44
225	0xa50a700a	-1.2007552e-16
226	0x00000009	1.3e-44
227	0x80000021	-4.6e-44
228	0x00000011	2.4e-44
229	0xae02db46	-2.9753332e-11
230	0xb0a3271f	-1.187093e-09
231	0x36f9c7fb	7.444059e-06
232	0x8039809d	-5.280761e-39
233	0xaa2e6c20	-1.5491818e-13
234	0xad7890e9	-1.4129344e-11
235	0xb4854a04	-2.4827034e-07
236	0xb4d87eca	-4.0325386e-07
237	0x8000000f	-2.1e-44
238	0x0000002d	6.3e-44
239	0xb75b9f69	-1.3090533e-05
240	0x2b68d0b8	8.2712613e-13
241	0xb4c1fd91	-3.6133545e-07
242	0x80000487	-1.624e-42
243	0xb99fe4ed	-0.00030497406
244	0x39efd793	0.00045746248
245	0xb244c285	-1.145293e-08
246	0x0c7d32d9	1.9505712e-31
247	0x357d7fbf	9.443574e-07
248	0xb92fe09c	-0.00016772974
249	0xb14e4df7	-3.0021263e-09
250	0x373ef13a	1.1381047e-05
251	0xb62ec4f0	-2.6042653e-06
252	0xb1445596	-2.8570404e-09
253	0xb6c324a7	-5.8157198e-06
254	0xb5582ea3	-8.0534136e-07
255	0x2cbf3fce	5.4356302e-12

bias f4 [60]
0	0xbc295398	-0.010334872
1	0xb9d176d8	-0.00039952132
2	0xb985ed0e	-0.00025544356
3	0xb61fb7a1	-2.3799732e-06
4	0xbbc94f85	-0.0061435127
5	0x3e3499c7	0.17636786
6	0xb77cb338	-1.5062098e-05
7	0xbc0f8547	-0.008759803
8	0x3e2dd737	0.16976629
9	0xbcc0f313	-0.023553407
10	0xb7bc7baa	-2.2468932e-05
11	0xb9aaec85	-0.00032601148
12	0xba972f88	-0.0011534551
13	0xb065c04b	-8.358298e-10
14	0xb2a71b4c	-1.9453772e-08
15	0xb9bfc730	-0.00036578765
16	0xb385872c	-6.217883e-08
17	0xb40d51f5	-1.3161464e-07
18	0xb17fd6fa	-3.7229584e-09
19	0x3ccd1f37	0.025039298
20	0xbda9b688	-0.08286768
21	0x3e3d1aaa	0.18467203
22	0xb9222fee	-0.00015467379
23	0x3d260201	0.040529255
24	0x3e40aa1f	0.18814896
25	0xb4b5f5ac	-3.3892627e-07
26	0xbd370235	-0.04467984
27	0xb9185bc9	-0.00014530042
28	0xb8c6b56f	-9.4751704e-05
29	0xbd509531	-0.05092353
30	0xba36289c	-0.00069488003
31	0xbc9a03b9	-0.018800603
32	0xb4a9ce27	-3.16287e-07
33	0xb8104164	-3.4393175e-05
34	0xb7389b14	-1.1003362e-05
35	0xb87dc189	-6.0500144e-05
36	0xad5fd818	-1.2724065e-11
37	0xbc138f83	-0.009006384
38	0xb4343dde	-1.6786313e-07
39	0xb626fd13	-2.4883236e-06
40	0xb1b4ca63	-5.261698e-09
41	0xbd1d5402	-0.038410194
42	0xbca286e5	-0.019839713
43	0xb9107b75	-0.00013778901
44	0xb9d89f63	-0.00041317483
45	0xbaa22971	-0.001237197
46	0xb9ebe17c	-0.00044990692
47	0xb98a8db1	-0.0002642698
48	0xbb0d2e2d	-0.0021542415
49	0xb3c52b3a	-9.18139e-08
50	0xaf2e90ff	-1.5876721e-10
51	0xbd728c54	-0.05921586
52	0xbec118e9	-0.37714317
53	0x3e78d1d0	0.24298787
54	0xb30f4dd8	-3.336558e-08
55	0xb304fc57	-3.0963147e-08
56	0xb31b3e9b	-3.614569e-08
57	0xb88c67b8	-6.695039e-05
58	0xbd9c17ef	-0.076217525
59	0x3e62031f	0.22071503

weight f4 [60, 60]
0	0x1f82fce6	5.547553e-20
1	0xb73cc494	-1.1251443e-05
2	0x21995144	1.0389194e-18
3	0x80000016	-3.1e-44
4	0x23eb8771	2.5536113e-17
5	0x3d156d8a	0.036481418
6	0x0000001c	3.9e-44
7	0xb59c05ec	-1.1624629e-06
8	0x3ca89dbf	0.020583032
9	0xb7e256fa	-2.6981801e-05
10	0x8000000d	-1.8e-44
11	0x800659b2	-5.8319e-40
12	0x01e9013e	8.5592465e-38
13	0xac5061b1	-2.9612807e-12
14	0x2c0eaecb	2.0276443e-12
15	0x152a3616	3.4373893e-26
16	0x2a95fccb	2.6643127e-13
17	0x8000001b	-3.8e-44
18	0xa876f727	-1.3709336e-14
19	0x3e4b9aba	0.19883242
20	0x39661cea	0.0002194528
21	0x3d71fa22	0.059076436
22	0x37d1831a	2.497579e-05
23	0xbcc66955	-0.024220148
24	0x3d56389c	0.05230008
25	0xb3dcc6a9	-1.02806844e-07
26	0x36132459	2.1925864e-06
27	0x044aeb95	2.385316e-36
28	0x3e79fa6a	0.24411932
29	0x2ea3924c	7.4383694e-11
30	0xaa6a820a	-2.0828491e-13
31	0xbba3ebc1	-0.0050024693
32	0xb3280209	-3.91174e-08
33	0x348061d0	2.3913026e-07
34	0x2f32262f	1.6202571e-10
35	0x17cf8670	1.3410998e-24
36	0xabb10776	-1.2578677e-12
37	0x249cd57f	6.801589e-17
38	0x07083aea	1.0248816e-34
39	0x0000000f	2.1e-44
40	0xa132fab4	-6.064055e-19
41	0xbd0ca4f7	-0.03433701
42	0xb7c391de	-2.3313736e-05
43	0xb6e8d7be	-6.9392545e-06
44	0x8000000e	-2e-44
45	0x1926254d	8.589532e-24
46	0x0d688261	7.1647457e-31
47	0x90307ac9	-3.480447e-29
48	0xa07cfe6b	-2.142941e-19
49	0x28614c09	1.25064965e-14
50	0xaca85366	-4.7841063e-12
51	0x3d3e9222	0.04652608
52	0xbe94a14c	-0.2902931
53	0x3d969f08	0.073545516
54	0xb0983d15	-1.1076816e-09
55	0x30d65755	1.559537e-09
56	0x24631005	4.9236348e-17
57	0xb62d72fb	-2.5845936e-06
58	0x3c2b0b69	0.010439732
59	0x3e10e4e3	0.14149813
60	0xb59359ad	-1.0978453e-06
61	0xb8a291ec	-7.751942e-05
62	0x3595f745	1.117333e-06
63	0x8000002e	-6.4e-44
64	0x37f22aa5	2.8868506e-05
65	0xb543a0e4	-7.287729e-07
66	0x2b1ae153	5.502449e-13
67	0xb553789e	-7.8779146e-07
68	0xb35089e5	-4.855419e-08
69	0x35d1f407	1.5642735e-06
70	0x2b540027	7.531774e-13
71	0xb1c9714c	-5.8627503e-09
72	0x303137de	6.4471617e-10
73	0x2c9c5a00	4.4437787e-12
74	0xad8cdaed	-1.601338e-11
75	0xb304e5b8	-3.0942573e-08
76	0xb614b360	-2.2158129e-06
77	0xad9eb27b	-1.8041782e-11
78	0x2f046885	1.2042463e-10
79	0x335166b4	4.8755012e-08
80	0xb62710c6	-2.4894703e-06
81	0xb540e30f	-7.185599e-07
82	0x3610d63d	2.1582375e-06
83	0x33d5470a	9.931507e-08
84	0xb5164127	-5.5974164e-07
85	0x2d188215	8.669084e-12
86	0xb4e131c9	-4.194574e-07
87	0xada3c825	-1.8619837e-11
88	0xb4daefd4	-4.0780162e-07
89	0xb89c685f	-7.4581e-05
90	0x2c72597e	3.4439947e-12
91	0xb50a91f6	-5.162141e-07
92	0xb2c610c4	-2.3057858e-08
93	0x2c70d950	3.4226684e-12
94	0xb8bfd47a	-9.1471666e-05
95	0x2a8a644d	2.4583322e-13
96	0x29525d2e	4.6710188e-14
97	0x2a73720c	2.1622304e-13
98	0x844fecdc	-2.4441494e-36
99	0x37c23722	2.3152275e-05
100	0xb6326cf2	-2.6587481e-06
101	0x34382a2d	1.7151679e-07
102	0x3012ec1b	5.3450017e-10
103	0xae77e32f	-5.6363077e-11
104	0x31162bc2	2.1852746e-09
105	0x000000b4	2.52e-43
106	0x32c38e0b	2.2765581e-08
107	0xb61588d6	-2.228238e-06
108	0x2d94d3cc	1.6919709e-11
109	0xafde0d77	-4.0391132e-10
110	0x39a3c319	0.00031235142
111	0x2f0c661e	1.2769205e-10
112	0x348d591c	2.6328132e-07
113	0xb60f841f	-2.1385565e-06
114	0xacd0fb84	-5.9396394e-12
115	0xb7e143a7	-2.6853593e-05
116	0xb3b1dda9	-8.2825245e-08
117	0xb98edf19	-0.0002725057
118	0xb99a482e	-0.00029426947
119	0xb649ba51	-3.0059784e-06
120	0x00000014	2.8e-44
121	0xb79ea49b	-1.8911718e-05
122	0xa056d0a2	-1.8195536e-19
123	0x00000019	3.5e-44
124	0x8000005b	-1.28e-43
125	0x3c441ded	0.0119700255
126	0x8000000f	-2.1e-44
127	0xaf79b922	-2.271219e-10
128	0xbc0c8b0e	-0.008578075
129	0x34eeca51	4.447816e-07
130	0x00000017	3.2e-44
131	0x00040531	3.69204e-40
132	0x8000000f	-2.1e-44
133	0xab70a6fd	-8.549687e-13
134	0xa71ac92c	-2.1480849e-15
135	0x80000014	-2.8e-44
136	0x29b21ace	7.909438e-14
137	0x8000000f	-2.1e-44
138	0xa7585643	-3.0022784e-15
139	0x3db3bdd5	0.08776442
140	0x3912610e	0.000139598
141	0x3c437121	0.0119288275
142	0xb73f655e	-1.14080885e-05
143	0xbccce82a	-0.025013048
144	0x3c4b972f	0.012426182
145	0x33248926	3.830896e-08
146	0x21b0fc39	1.1992987e-18
147	0x8493c3fc	-3.4739517e-36
148	0x3e03262d	0.12807532
149	0x2b11b669	5.1767493e-13
150	0xaa2c9e1c	-1.5331524e-13
151	0xbb8d8a18	-0.0043194406
152	0x308d3640	1.0274519e-09
153	0x33df4a21	1.0397731e-07
154	0xaf0e0009	-1.2914837e-10
155	0x80000005	-7e-45
156	0xabbd9dbe	-1.347304e-12
157	0x00a4e3b9	1.5142713e-38
158	0x80000018	-3.4e-44
159	0x80000019	-3.5e-44
160	0xa1824e7a	-8.829915e-19
161	0xbcd53921	-0.026028218
162	0xb78e151e	-1.6937553e-05
163	0x35c20062	1.4454238e-06
164	0x8000000b	-1.5e-44
165	0x00000013	2.7e-44
166	0x80000013	-2.7e-44
167	0x94f57937	-2.4786489e-26
168	0x018f3644	5.260777e-38
169	0xa894bc5d	-1.651299e-14
170	0xabf8d46e	-1.7680421e-12
171	0x3cf1e7dc	0.029529504
172	0xbe32c94b	-0.174596
173	0x3d41c424	0.047306195
174	0x2fb4bae4	3.2874603e-10
175	0x3016c8aa	5.4854843e-10
176	0xa562596d	-1.9632674e-16
177	0x35bbdeca	1.3997426e-06
178	0xbb8542d7	-0.004066806
179	0x3d1f5b7e	0.038905613
180	0xb29bae09	-1.8123517e-08
181	0xa902ab2e	-2.9014273e-14
182	0x38ed6275	0.0001131938
183	0x369622ad	4.474385e-06
184	0x303ae6e1	6.7994504e-10
185	0xb0bba6e9	-1.365348e-09
186	0xb34d30f1	-4.7774794e-08
187	0xb2bf973e	-2.2304103e-08
188	0xb114f875	-2.1678066e-09
189	0x2c117593	2.0671006e-12
190	0xaf55b775	-1.9437414e-10
191	0xb47bb65d	-2.344254e-07
192	0x331dd827	3.6751e-08
193	0xb2ff0260	-2.9686987e-08
194	0xb9a2c64a	-0.00031046785
195	0x00000040	9e-44
196	0xb73457e2	-1.0749298e-05
197	0xae41c7a6	-4.4060443e-11
198	0x28459c8e	1.0969644e-14
199	0xb0ee91fe	-1.7358273e-09
200	0xb8932eb2	-7.018204e-05
201	0xb0ce15d7	-1.499468e-09
202	0xb80b2190	-3.317144e-05
203	0x2fc89fbb	3.6493283e-10
204	0xb0e9fc1b	-1.7024634e-09
205	0x2b3cb4ae	6.704176e-13
206	0x2d94749b	1.6877435e-11
207	0xb10cfac0	-2.0515216e-09
208	0xb0f0638a	-1.7490589e-09
209	0x32b30adc	2.084328e-08
210	0x37864839	1.6007676e-05
211	0x2cd42cb3	6.030365e-12
212	0x2f8359f3	2.3892674e-10
213	0xab0353c3	-4.665679e-13
214	0xb3967d56	-7.007718e-08
215	0x31f9658d	7.2583988e-09
216	0xb0608719	-8.168271e-10
217	0xb684f5a1	-3.9625015e-06
218	0x80000097	-2.12e-43
219	0xb3c47c41	-9.149563e-08
220	0x31e8dfda	6.7775376e-09
221	0xb10e17ec	-2.0677318e-09
222	0xb694792c	-4.42485e-06
223	0xad433649	-1.109652e-11
224	0xae972732	-6.8736475e-11
225	0x0000005b	1.28e-43
226	0xaf467789	-1.8050463e-10
227	0xab8e2e38	-1.0102535e-12
228	0x800001c9	-6.4e-43
229	0x2d3c35e6	1.0698531e-11
230	0xae7f8f64	-5.8107644e-11
231	0xb43fe00c	-1.7869769e-07
232	0xb01acd94	-5.631702e-10
233	0xb0d05e37	-1.5160769e-09
234	0x3244e42d	1.1460583e-08
235	0xb1c231f0	-5.6518203e-09
236	0x27b71f65	5.082674e-15
237	0x325ae96f	1.2742347e-08
238	0x319a17fc	4.4847166e-09
239	0xb16f71df	-3.4843806e-09
240	0xb89d2f83	-7.495193e-05
241	0xa7eb5a6b	-6.5323634e-15
242	0xb576f7d9	-9.2002807e-07
243	0x2f9c29fa	2.840606e-10
244	0xb5c916fb	-1.4982355e-06
245	0xb63395b1	-2.676021e-06
246	0xb2d94472	-2.529325e-08
247	0x00000097	2.12e-43
248	0xb61adb9d	-2.307562e-06
249	0x2bd488ad	1.5101441e-12
250	0xb583e8d3	-9.828021e-07
251	0x35dfbe4b	1.6670177e-06
252	0xb210a5c6	-8.419596e-09
253	0xb4dedac1	-4.1509887e-07
254	0x30f64432	1.7918238e-09
255	0xb1062edd	-1.9526205e-09

bias f4 [60]
0	0x3db23879	0.087021776
1	0xb5c0366f	-1.4320957e-06
2	0x3bfa8126	0.00764479
3	0xb011cc48	-5.3040994e-10
4	0xb7048e9e	-7.901019e-06
5	0xb7d1a2ce	-2.4990553e-05
6	0xbd1816e6	-0.037131213
7	0xb545d4f9	-7.3698135e-07
8	0xb611fdd7	-2.1754438e-06
9	0xbbdf497c	-0.00681418
10	0xb7ed7fb1	-2.8312063e-05
11	0xb8801b2b	-6.108576e-05
12	0xb348b061	-4.6726544e-08
13	0xbb86472e	-0.0040978407
14	0x3e6de2f6	0.2323111
15	0xb060212e	-8.1537876e-10
16	0x3e115c07	0.14195262
17	0xbc6d796b	-0.01449428
18	0x3e208721	0.15676548
19	0xb9f186cd	-0.00046067536
20	0x3e3bb7e8	0.18331873
21	0x3e2bac4d	0.16764946
22	0x3e79f40c	0.24409503
23	0x3e0a3d04	0.13499838
24	0x3e552742	0.20815757
25	0xb5aaac80	-1.2716191e-06
26	0x3e2e5ac6	0.17026815
27	0x2fc8ef74	3.654993e-10
28	0x3e282a44	0.16422373
29	0x3e39842a	0.18116823
30	0x3dae7444	0.0851827
31	0x3e013f96	0.12621912
32	0x3e1c9e7b	0.1529483
33	0x3daa4b97	0.08315199
34	0x3dbbe0ac	0.09173712
35	0xb38fa356	-6.688667e-08
36	0xb7fcab07	-3.0120382e-05
37	0x3e4e484d	0.20144768
38	0x3e869fd0	0.26293802
39	0xb2af83c2	-2.0432598e-08
40	0x33a27ed4	7.566783e-08
41	0xb810bbaf	-3.450707e-05
42	0xb74ed137	-1.2327268e-05
43	0x2e189e37	3.470132e-11
44	0x3df8a67b	0.12141129
45	0x3e48400a	0.19555679
46	0xb18fcd16	-4.1851633e-09
47	0xb42b4f31	-1.5954426e-07
48	0xb58f9854	-1.0698664e-06
49	0xb67ade59	-3.7382326e-06
50	0x3e4ff4c9	0.20308222
51	0x3e522cdf	0.2052493
52	0xbdd70d50	-0.10500586
53	0xb2d29a80	-2.4517476e-08
54	0x3e698605	0.2280503
55	0x3e78e3bd	0.24305625
56	0xb8818ce7	-6.1774444e-05
57	0x3e5136f2	0.20431116
58	0xb2705613	-1.398941e-08
59	0x3e4e7338	0.2016114

weight f4 [60, 60]
0	0x3cf34bd7	0.02969925
1	0x344afff9	1.8905838e-07
2	0x3c041228	0.008060969
3	0xb040dd8d	-7.0164036e-10
4	0xb529fd9b	-6.332645e-07
5	0x36cef19d	6.167406e-06
6	0xb920819f	-0.00015307077
7	0x30c28be2	1.4155115e-09
8	0x36011c59	1.9238998e-06
9	0x3b2fea69	0.00268426
10	0x3696e2f8	4.496771e-06
11	0xb4c62f59	-3.6914824e-07
12	0xb0731fc3	-8.844802e-10
13	0x3a9d72ce	0.0012012364
14	0x3dd8e477	0.10590451
15	0x2f8a50d3	2.5159483e-10
16	0x3d57f2e5	0.052721877
17	0xb6f31474	-7.2443454e-06
18	0x3d6e2d62	0.05814875
19	0x80095e57	-8.60362e-40
20	0x3da42302	0.0801449
21	0x3d8e934b	0.06961688
22	0x3dce29da	0.10066576
23	0x3d37d381	0.04487944
24	0x3dac00ee	0.08398615
25	0x284d2817	1.1388479e-14
26	0x3d8853b3	0.06656589
27	0xb1ba694b	-5.425283e-09
28	0x3d9a38ee	0.0753039
29	0x3d95075e	0.07276796
30	0x3d0c223a	0.03421233
31	0x3d53847f	0.05164003
32	0x3d7771de	0.060411327
33	0x3d0dc8bc	0.034615263
34	0x3d0f1087	0.03492787
35	0x3309641b	3.1988844e-08
36	0xb7a300ae	-1.943143e-05
37	0x3da46151	0.08026374
38	0x3de1addb	0.110194884
39	0x30e33d98	1.653393e-09
40	0x31e100cf	6.548454e-09
41	0x33bf8604	8.918508e-08
42	0x33ea4731	1.0909424e-07
43	0x2ed2fb9d	9.59439e-11
44	0x3d295171	0.041337434
45	0x3db0ebd5	0.086387314
46	0xb133ba03	-2.6153664e-09
47	0xb263b07c	-1.3253267e-08
48	0xb34746e5	-4.6397776e-08
49	0xb392f740	-6.843629e-08
50	0x3daa251e	0.08307861
51	0x3da43786	0.08018403
52	0x3e12a82e	0.14321968
53	0xab2b3056	-6.0818483e-13
54	0x3dc08106	0.09399609
55	0x3dd02734	0.101637274
56	0x364e637d	3.0754302e-06
57	0x3dacdfcd	0.08441124
58	0xb1802512	-3.7295047e-09
59	0x3dc9dec9	0.09856946
60	0xae583bb0	-4.9165727e-11
61	0xacd67c38	-6.096037e-12
62	0x2e0e85da	3.2405946e-11
63	0x3407fe21	1.2665306e-07
64	0x33fb78bd	1.17100605e-07
65	0xb3050f9c	-3.0980672e-08
66	0x331ff844	3.724587e-08
67	0x2e9f19ca	7.235064e-11
68	0xaeae1262	-7.9158693e-11
69	0xaf9384e7	-2.6833577e-10
70	0x2da0f24e	1.8297499e-11
71	0x2ec694fa	9.030461e-11
72	0xacaa23a6	-4.8356484e-12
73	0x2cbf0c4f	5.429913e-12
74	0xb00b0462	-5.0574134e-10
75	0xb02221d0	-5.8983307e-10
76	0xaf844d9b	-2.4065802e-10
77	0xb4c45703	-3.6571154e-07
78	0xaf91c0f2	-2.6512442e-10
79	0xac215b6a	-2.2930221e-12
80	0xafe3e64a	-4.145469e-10
81	0xafc2d863	-3.5442146e-10
82	0xb00c422f	-5.1025756e-10
83	0xaf498fab	-1.8331885e-10
84	0xafecbc63	-4.3062007e-10
85	0xafa6d254	-3.034467e-10
86	0xafb958f4	-3.371451e-10
87	0x3455e0ef	1.9919001e-07
88	0xafd36544	-3.845263e-10
89	0xafd34d14	-3.8435444e-10
90	0xaeb1eeb0	-8.0914275e-11
91	0xaf7e0800	-2.3104008e-10
92	0xafa2e5c6	-2.9630892e-10
93	0xaebdcf2f	-8.631528e-11
94	0xaed9f5da	-9.9116895e-11
95	0x338da16e	6.595188e-08
96	0x343e8576	1.7743682e-07
97	0xafe50359	-4.1657236e-10
98	0xb016300c	-5.463796e-10
99	0xb2125c73	-8.519339e-09
100	0x2d0080f3	7.30459e-12
101	0x85a6931a	-1.5664602e-35
102	0x360e8467	2.1236717e-06
103	0xb78eaedd	-1.7009146e-05
104	0xaf1894d1	-1.387719e-10
105	0xaff0e3f7	-4.3817724e-10
106	0xadaafb0f	-1.9438255e-11
107	0x310dd48e	2.0639024e-09
108	0x302a3986	6.1927385e-10
109	0x2c1f74cb	2.2660092e-12
110	0xafe889ae	-4.2298381e-10
111	0xafe0f1e8	-4.0917247e-10
112	0xae591db6	-4.9366476e-11
113	0xaf98e004	-2.7807812e-10
114	0xb001b8e7	-4.719269e-10
115	0xb00c697f	-5.108162e-10
116	0x329826be	1.7712747e-08
117	0xafebbab0	-4.28789e-10
118	0xacfaba09	-7.1260814e-12
119	0xb0047405	-4.8186194e-10
120	0x3d9ea8db	0.077470504
121	0xb3e04530	-1.0443398e-07
122	0x3cf25621	0.029582085
123	0xb0f4a3a5	-1.7799847e-09
124	0xb18cb55d	-4.095155e-09
125	0xb6d990fb	-6.483982e-06
126	0xbb828560	-0.0039831847
127	0x31d1e57b	6.1087895e-09
128	0x367ce95c	3.768676e-06
129	0xbb75c915	-0.0037503887
130	0xb56dbc9e	-8.8563854e-07
131	0xb6a897ed	-5.0244766e-06
132	0x31c3ecbe	5.7021614e-09
133	0x3c3cd2ec	0.011524897
134	0x3e56f58e	0.20992109
135	0x301e2b30	5.754144e-10
136	0x3df5bf6c	0.119994015
137	0xbaa6090c	-0.0012667491
138	0x3e053a60	0.1301055
139	0x8013a1be	-1.802897e-39
140	0x3e278fb2	0.16363409
141	0x3e1864e4	0.14882237
142	0x3e4a88c3	0.19778733
143	0x3dd7f2c6	0.10544352
144	0x3e31ef6d	0.1737649
145	0x288efffe	1.5876186e-14
146	0x3e11f3d4	0.1425317
147	0xb1cd15bf	-5.9687575e-09
148	0x3e239345	0.15974148
149	0x3e1f4d66	0.15556869
150	0x3db11ec7	0.086484484
151	0x3df2380d	0.11827097
152	0x3e08a7f9	0.13345326
153	0x3db23df8	0.08703226
154	0x3db34ae0	0.08754516
155	0xb38c6c73	-6.538985e-08
156	0x3766be5d	1.3753391e-05
157	0x3e2a876e	0.16653225
158	0x3e5c9054	0.21539432
159	0xb0cd2a5c	-1.4927752e-09
160	0x32814e42	1.5053164e-08
161	0x340ed812	1.3303386e-07
162	0x32121e4d	8.505208e-09
163	0x2ed4aeb4	9.6716773e-11
164	0x3dcae72c	0.09907374
165	0x3e33feb3	0.17577629
166	0xb1909416	-4.207787e-09
167	0x326a851d	1.3650859e-08
168	0xb39bfdb5	-7.263899e-08
169	0x33a93a97	7.880333e-08
170	0x3e2cf34e	0.16889688
171	0x3e291355	0.16511281
172	0x3e8dd42c	0.27700937
173	0xac56dbc2	-3.053322e-12
174	0x3e3ec8e9	0.18631329
175	0x3e4943b7	0.19654737
176	0x35a1f2d0	1.2066102e-06
177	0x3e30ed45	0.17278011
178	0x314bb207	2.9641585e-09
179	0x3e4595ba	0.19295397
180	0xb5d93f96	-1.6186266e-06
181	0x2e3acbdf	4.2472578e-11
182	0x3431af35	1.654815e-07
183	0xb84ca830	-4.8794027e-05
184	0xacc377bb	-5.555526e-12
185	0x2b28efaf	6.001822e-13
186	0xb6faae4c	-7.4708714e-06
187	0x369e2883	4.713483e-06
188	0x30ce9e29	1.5033425e-09
189	0xada8ad1f	-1.917627e-11
190	0xb2c9842f	-2.345959e-08
191	0x37add17b	2.0720754e-05
192	0x365e66d6	3.3140436e-06
193	0x35005be1	4.781742e-07
194	0xb6209d43	-2.3933396e-06
195	0xb488226e	-2.5357025e-07
196	0xb5f6158b	-1.8334698e-06
197	0x32b2d5b5	2.081911e-08
198	0xb5fc21ab	-1.8785262e-06
199	0x302ee27d	6.362269e-10
200	0xb60e9e61	-2.1251838e-06
201	0xb606864d	-2.004573e-06
202	0xb61e0fb5	-2.3552977e-06
203	0xb5edaad5	-1.7707595e-06
204	0xb6107555	-2.1525968e-06
205	0x32b9cf29	2.163104e-08
206	0xb6041797	-1.9683264e-06
207	0x2ed8cb40	9.858647e-11
208	0xb60af553	-2.07064e-06
209	0xb60925a0	-2.0436491e-06
210	0xb5e2ae55	-1.688905e-06
211	0xb5f588ca	-1.8293733e-06
212	0xb6002377	-1.909413e-06
213	0xb5e3d24a	-1.697402e-06
214	0xb5e471e8	-1.7020475e-06
215	0xb197b810	-4.415604e-09
216	0x2ddbfa70	2.5008634e-11
217	0xb60e214d	-2.1179033e-06
218	0xb6259a08	-2.4676574e-06
219	0xb90b7df4	-0.00013302994
220	0xb1b92298	-5.3881415e-09
221	0x29ac00be	7.638463e-14
222	0xb104fe04	-1.935292e-09
223	0x2c913f60	4.128184e-12
224	0xb5ea8ca5	-1.7475292e-06
225	0xb612dd5c	-2.1884543e-06
226	0xaae670ba	-4.0934427e-13
227	0xb2c73b17	-2.319352e-08
228	0xb36af75d	-5.4707346e-08
229	0x330d211c	3.2859234e-08
230	0xb60fe7b3	-2.1443527e-06
231	0xb60d8e66	-2.1093524e-06
232	0xb61a6469	-2.3006235e-06
233	0x3925010a	0.00015736013
234	0xb617fb1a	-2.2646914e-06
235	0xb61ed332	-2.3666767e-06
236	0xb10c89e0	-2.0451054e-09
237	0xb61124bd	-2.1628068e-06
238	0xb82d6c00	-4.1346997e-05
239	0xb61c6f7f	-2.331071e-06
240	0x3d4692f8	0.048480004
241	0xb4301c6e	-1.640162e-07
242	0x3c8028e9	0.015644507
243	0x2f5dbc23	2.0166672e-10
244	0xb5154d23	-5.5619074e-07
245	0x365a4105	3.2522378e-06
246	0xba8ceb9e	-0.0010751372
247	0xb1d9e7cf	-6.341885e-09
248	0x364a7c0b	3.0172548e-06
249	0x37dcee6c	2.6337068e-05
250	0xb7132ad4	-8.7718545e-06
251	0x3703ee37	7.863672e-06
252	0x30c42d8c	1.4273822e-09
253	0x3b8bfe88	0.004272286
254	0x3e167b4e	0.14695475
255	0x2e8f702f	6.522815e-11

bias f4 [60]
0	0x3ce66e1a	0.028128672
1	0xb04f91b0	-7.5513196e-10
2	0x3d9c6163	0.076357625
3	0xb5c618ee	-1.4759405e-06
4	0x3d4395e9	0.047750387
5	0xad0d08e8	-8.0169e-12
6	0x3d849902	0.064744964
7	0xb22e1038	-1.0131821e-08
8	0xb3d3991e	-9.853305e-08
9	0xbcaa4b65	-0.020787904
10	0xb81834e2	-3.6288875e-05
11	0x3d876c04	0.06612399
12	0x3dc1b285	0.09457878
13	0xb9610af6	-0.00021461755
14	0xb1189f71	-2.2209543e-09
15	0xb88c3194	-6.684955e-05
16	0x3dbad1e6	0.09122066
17	0xa7b286a3	-4.95509e-15
18	0xb14350f4	-2.8422251e-09
19	0x31855191	3.8800825e-09
20	0x309ad20c	1.1264674e-09
21	0xb4993f4a	-2.854452e-07
22	0x3de67bea	0.112541035
23	0xaf395f3b	-1.6859485e-10
24	0x3d5e8028	0.054321438
25	0x3da3321e	0.079685435
26	0x3db21463	0.08695295
27	0x3d1d681d	0.03842937
28	0x3dc5b067	0.09652787
29	0xb0d2b5e3	-1.5331206e-09
30	0x33cc12d0	9.502912e-08
31	0xb1895ee8	-3.9980144e-09
32	0xba85ff1c	-0.0010223123
33	0x302169b0	5.872165e-10
34	0x3dae29aa	0.085040405
35	0xaf7988b3	-2.2694983e-10
36	0x3d9666cd	0.073438264
37	0x3db6bac1	0.08922339
38	0x3d5e9542	0.054341562
39	0x3db96abf	0.09053563
40	0x3d06f491	0.03294808
41	0xb8059f2f	-3.1857922e-05
42	0xb8d1526f	-9.981251e-05
43	0x3ddf6b30	0.10909116
44	0x3d8f8ff2	0.07009877
45	0x3da8d8ee	0.08244501
46	0xbca8e28b	-0.020615837
47	0xad231dde	-9.272109e-12
48	0xaadbdf68	-3.9057234e-13
49	0xb3998681	-7.149084e-08
50	0x3dcbf11d	0.09958098
51	0x3d1eeb18	0.03879842
52	0x3d8c9054	0.06863466
53	0xb05e8eff	-8.096634e-10
54	0x2fc84cbe	3.6434317e-10
55	0x34891563	2.55338e-07
56	0xb22e388d	-1.0140991e-08
57	0x3be04fba	0.0068454416
58	0xb737a417	-1.0945855e-05
59	0x3db9c72d	0.09071193
