Total_RCS/epoch_200_batch_255_lr_0_0019819414761434403_wd_0_1808248925678225/torch_model_3_ELU.pth (torch, 49095 bytes, 9 tensors)

weight f4 [60, 3]
000000 09 c8 b8 3e d2 70 a8 3f a2 20 5d 3f 6a 6d d1 be
       0.36090115 1.315943 0.8637792 -0.4090379
000010 0a 29 d6 3e 69 36 a4 bf da 83 15 bf 26 37 de 3f
       0.41828185 -1.2829105 -0.58404315 1.736058
000020 b3 2c 9d 3f 9d 74 98 bf b0 26 cf be 93 b9 9c bd
       1.2279266 -1.1910588 -0.40459204 -0.07652583
000030 14 b3 33 bf 41 97 cf 3f 18 05 57 3f c0 7f e7 3d
       -0.70195127 1.6218034 0.8399215 0.11303663
000040 96 e2 96 be e8 5c cf bf 6a a3 a8 3e 91 f1 37 bf
       -0.29469746 -1.6200228 0.32937175 -0.71852976
000050 9b f5 e6 bf 17 93 3d 3e e8 d1 a5 3f 34 b0 69 3f
       -1.8043703 0.18513142 1.2954683 0.9128449
000060 52 93 18 bf cb 1a 47 bf d4 8a 3a bf 18 4b f2 bc
       -0.5959979 -0.7777526 -0.72868085 -0.029576823
000070 a8 6e fb 3f b9 1f 09 be d6 39 a1 be be e7 33 bf
       1.9643145 -0.13391007 -0.31489438 -0.70275486
000080 89 4d a1 bf 8f b6 15 3f 39 5f c0 3f 78 d3 1c 3d
       -1.2601787 0.5848169 1.502906 0.03828761
000090 04 0d 39 bf 15 ee 67 bf 3c 0e d4 be b0 4d 4f 3f
       -0.72285485 -0.9059766 -0.4141711 0.80977917
0000a0 13 2b b1 bf 1f fc b7 3e ca 34 93 bf 4d 47 c8 be
       -1.384127 0.3593454 -1.1500485 -0.39116898
0000b0 76 f1 96 bd ee 3d 05 bf a3 16 ec 3f 55 67 a7 3f
       -0.07370274 -0.5204762 1.8444408 1.307841
0000c0 9d ed 3a 3a 1f 34 be 38 44 2a ef b9 12 5d bd 3d
       0.0007130744 9.069614e-05 -0.00045617123 0.092462674
0000d0 6a 2a 2f bf e7 38 0e 3f 1b dc 3e be e1 24 a5 bf
       -0.68424094 0.55555576 -0.18638651 -1.290188
0000e0 13 e9 a1 bf c8 74 58 3f 46 5a 45 3f f0 18 31 3e
       -1.2649254 0.84553194 0.7709087 0.17294669
0000f0 83 b9 62 3e 24 ea c8 3f a9 8d 85 3f 37 0b e5 3f
       0.2214108 1.5696454 1.0433856 1.7894047
000100 4a 26 62 3e 9e 86 61 bf c2 43 f6 bd 11 70 bf 3f
       0.22084919 -0.88096035 -0.120246425 1.4956075
000110 4d 30 a7 be 6d 88 61 bf f6 cf 82 bf 9e 64 2c 3f
       -0.32654038 -0.88098794 -1.0219715 0.6734103
000120 78 37 5b 3d 4a ff 36 3f d4 00 a7 bb d8 dd af 3f
       0.053519696 0.7148329 -0.0050965343 1.3739576
000130 ee dd aa 3e 31 51 0b 3e d8 5a a9 3f 00 f9 9d 3e
       0.33372444 0.13605191 1.3230848 0.30854034
000140 da ca 9f be a4 a1 66 40 5b ef 59 3f 33 48 d0 be
       -0.3120945 3.6036158 0.8513085 -0.40680084
000150 11 1d ab 39 1a 2e 9f 39 4a fe 24 b9 78 3e d2 b8
       0.00032637318 0.00030361192 -0.00015734989 -0.00010025216
000160 75 76 d6 b8 21 54 06 39 f0 a1 2e bf 49 8a 69 bf
       -0.000102263795 0.00012810576 -0.68215847 -0.9122663
000170 70 a8 86 3f 87 f1 88 bf 00 54 9a be f1 26 8a bd
       1.0520153 -1.0698708 -0.30142212 -0.06745709
000180 d6 32 11 bf be 5b 68 bf 29 28 0e bf e4 1e 60 3f
       -0.56718194 -0.9076499 -0.5553003 0.87547135
000190 db 8f cd 3e ed 4b ec bd 5b 9f 28 be 11 de 41 3e
       0.40148816 -0.11537919 -0.1646704 0.18932368
0001a0 dd c8 99 bf 68 3e 3e 3a 11 45 1d 3b 22 73 9e 3a
       -1.2014424 0.0007257224 0.0023997466 0.0012088756
0001b0 6c f1 7d 3f 38 ca 8b 3f 37 fa 00 be 64 ba 32 be
       0.99196506 1.0921087 -0.1259545 -0.17453915
0001c0 ce 22 ba bf 4e 0d ba bf ec ac 14 3f 7a 4d 1f bd
       -1.4541872 -1.453531 0.5807636 -0.038892247
0001d0 73 58 22 3f ce 29 99 3f 48 23 e0 be de fa 71 3d
       0.6341621 1.1965883 -0.43776917 0.059077136
0001e0 e9 75 21 3f dc 2f 54 bf 9d fd 04 c0 fd cb 25 bc
       0.6307054 -0.8288553 -2.0779793 -0.010119435
0001f0 80 ca a7 3f 8f f5 98 3f 1a 9c 04 3f 73 5a 5e bf
       1.3108673 1.1949939 0.5180069 -0.86856765
000200 2a f5 e9 3e c1 9a e9 be af 13 26 bf 3d f0 54 bf
       0.45694858 -0.4562588 -0.64873785 -0.83179075
000210 81 ed f5 3e 21 79 96 bf 88 ba de bf 9d 04 10 3f
       0.48032764 -1.1755716 -1.7400675 0.5625704
000220 c8 23 c8 bf 0f 59 55 be 4a 17 15 3a e6 6a 37 38
       -1.563592 -0.20834754 0.0005687369 4.3730157e-05
000230 d5 c1 a9 39 e9 bf 36 3f bf a8 66 bf 26 ba eb be
       0.00032378608 0.7138658 -0.90101236 -0.46040457
000240 f2 a9 eb be 4a 18 e8 be 7d 0a 21 bf 72 1a f8 3e
       -0.46028095 -0.4533103 -0.6290663 0.48457676
000250 dc 69 a3 bf ee 76 02 bf 02 ce 65 be 5c d6 43 bf
       -1.2766681 -0.5096272 -0.22441867 -0.7649896
000260 90 93 00 c0 9a 23 7c 3e 98 ae de be 0f ef ab bf
       -2.0090065 0.24622956 -0.4349258 -1.343233
000270 ae 6b d8 be b3 b5 2f 3f 9a 5d 05 c0 53 0c 3f bf
       -0.42269653 0.68636626 -2.083838 -0.7462818
000280 18 f7 b9 bf 36 46 cd 3e 52 33 b6 bc c4 81 d6 bd
       -1.4528532 0.4009263 -0.022241268 -0.104739696
000290 0f 1e a2 bf 7c 2b 00 3f 70 76 b3 bf f1 4c c9 be
       -1.2665423 0.5006635 -1.4020519 -0.39316514
0002a0 21 0b da 39 18 06 cd b9 a9 26 4b ba ad 57 d8 bb
       0.00041588492 -0.00039105187 -0.0007749596 -0.0066022486
0002b0 f2 cd e9 bc cd bd 62 bc 87 70 24 3f 7a 75 ab bf
       -0.028540585 -0.013839197 0.64234203 -1.3395226
0002c0 c3 22 74 3e 63 df d9 be 16 00 26 3f ae 75 91 bf
       0.23841386 -0.42553243 0.6484388 -1.1364038

bias f4 [60]
000000 8d 88 a5 3f 93 9f a2 bf a0 a7 24 3f 9b 69 9f bf
       1.2932297 -1.2704948 0.64318275 -1.2454103
000010 c0 92 47 3e 4e b5 85 bf 5a f6 56 bf ad d7 8c 3f
       0.19489574 -1.0445955 -0.8396965 1.1003319
000020 de 1c a7 bf ba 8f cd be e1 4e a1 bf 8a 66 15 3f
       -1.3055685 -0.40148717 -1.2602197 0.5835959
000030 97 27 99 bf e2 b8 02 bf 2b f8 9b bf 58 3d 50 3f
       -1.1965207 -0.5106336 -1.218511 0.81343603
000040 5b e0 ba 39 29 d8 de be 00 22 8c bf 18 01 a5 3f
       0.00035643842 -0.43524292 -1.0947876 1.2890959
000050 af d7 a5 3f af d0 a9 3f 2a 35 1c bf f2 e6 1c bf
       1.2956446 1.326681 -0.6101862 -0.61289895
000060 ef da 43 3d b0 a5 49 bf 0a 9b 9d 3f ae 23 7c 3f
       0.047816213 -0.78768444 1.2312939 0.9849194
000070 08 db 17 ba 34 2a 9b 38 00 90 29 be b7 9b 93 bf
       -0.0005792831 7.398837e-05 -0.16558838 -1.1531895
000080 95 aa 8f bf ee d1 63 3f 22 c4 7c bf cc 33 57 3b
       -1.1223933 0.889922 -0.98736775 0.003283727
000090 71 21 fc 3e 04 1e 50 bf 41 76 b7 3f 99 99 4f 3f
       0.49244264 -0.812958 1.4332963 0.81093746
0000a0 cf d5 f8 be ba d2 88 3f e8 63 80 3f 6d 40 9a bf
       -0.48600623 1.0689309 1.0030489 -1.2050911
0000b0 74 2d 13 bf 3e b4 db 3c e7 c9 8e b9 d0 54 b4 be
       -0.5749123 0.026819345 -0.0002723478 -0.35220957
0000c0 c9 10 8b bf b1 1b f9 bc 00 33 bd bf e6 6f 28 bf
       -1.0864497 -0.030408712 -1.4781189 -0.65795743
0000d0 07 17 a6 bf 8c df 1f bf d6 b9 71 bf 57 aa 12 3d
       -1.2975777 -0.6245048 -0.9442419 0.03580698
0000e0 e5 0b 91 b7 3c 3c 9a bc 36 32 54 bf bd f5 b7 bf
       -1.7290886e-05 -0.01882755 -0.82889116 -1.4371868

weight f4 [60, 60]
000000 87 eb ff bd 44 be 05 3e 99 c1 e8 3d 40 7b 8c 3e
       -0.12496095 0.13060862 0.11365051 0.27437782
000010 28 fc 2a 3e 12 9a 2e bd c8 94 9e bd ab c9 82 bd
       0.16697752 -0.0426274 -0.077432215 -0.06386121
000020 91 48 70 3e 17 2c cc be 72 ca 93 3e 38 02 03 bf
       0.23465182 -0.39877388 0.2886539 -0.5117526
000030 97 89 83 3e a7 03 13 bf 0e 51 86 3e fc 6d 1e 3e
       0.2569091 -0.5742745 0.26233715 0.15471643
000040 28 ec b6 3b 3d 04 73 be 6e 4f 8e 3e 80 51 a4 be
       0.0055823512 -0.23732086 0.27794975 -0.3209343
000050 46 03 fb bd a5 40 4e bf aa c4 9e be 4b 6f 12 3e
       -0.12256484 -0.8056739 -0.31009418 0.14300267
000060 6f 3d b3 bd e0 63 00 bf 3a a8 23 bf 45 5a ac bf
       -0.08751952 -0.501524 -0.6392857 -1.3465048
000070 6e e9 0b 3c 8a 6a 96 ba 22 6d e7 3c 2e 45 7b 3e
       0.008539541 -0.0011475843 0.02825028 0.24538109
000080 13 21 83 3e 7b 2f f9 be 31 bd 9c 3d 8a ab 4c 3c
       0.2561117 -0.48669037 0.07653273 0.01249207
000090 65 5b 1a bf 88 da f7 3e c6 58 32 be f9 0a 50 bf
       -0.60295707 0.48408914 -0.17416677 -0.8126674
0000a0 ee ee 60 bd d6 51 7b 3c 1d 4c 8c be 5d d1 56 3e
       -0.05491536 0.015339335 -0.2740182 0.20978303
0000b0 5d be c8 bc 8b d9 00 bf 89 a9 5c bb ac be 14 bf
       -0.024504835 -0.50331944 -0.0033670387 -0.5810344
0000c0 98 79 42 3e 7d 8e 8b be 63 0c a9 3e d9 ff a1 bd
       0.18991697 -0.27257147 0.33017263 -0.07910127
0000d0 19 25 b0 3e 56 a0 81 3e 09 4d 0e 3c 7f d3 a0 be
       0.34403303 0.2531764 0.008685359 -0.3141136
0000e0 34 23 96 3b b5 e8 69 3c 44 08 04 bf 3b 88 8f bd
       0.0045818333 0.014276673 -0.5157511 -0.07008406
0000f0 f4 e2 b0 ba 21 d5 77 bb 43 a5 0a b9 7f b5 55 3b
       -0.0013495372 -0.0037816244 -0.0001322227 0.00326094
000100 18 6b 99 3a be d3 c9 bb 5b f0 99 bb 75 5f 9b ba
       0.001170489 -0.006159275 -0.004697842 -0.001185401
000110 19 bc a0 b9 be d0 82 3b 10 e2 21 bb fe 7f d3 3a
       -0.00030657722 0.003992169 -0.0024701394 0.0016136167
000120 be de f1 ba be 63 67 3a 79 05 47 3b cb bf 05 3a
       -0.0018453223 0.00088268134 0.0030368252 0.0005102127
000130 ae d1 02 39 ed e6 d6 bb 75 1d bf ba eb 13 d1 3a
       0.00012475878 -0.00655829 -0.0014580922 0.0015951371
000140 9e ef 01 ba 19 a6 6c 3b 79 ef e2 3b 83 d8 4e bb
       -0.0004956665 0.0036109744 0.00692552 -0.0031562157
000150 13 19 98 3a c2 4b 41 bb 39 65 41 3b cf b6 40 3b
       0.0011604152 -0.0029494618 0.0029509796 0.0029405837
000160 54 f7 c8 38 07 7e 85 b8 4e b0 bc bb 17 fb 53 3b
       9.5828116e-05 -6.3654086e-05 -0.005758322 0.0032345706
000170 8c de 9b ba dc 76 ed 3a ac f4 a3 bb dd 08 30 3a
       -0.0011891886 0.0018117088 -0.0050035324 0.0006715188
000180 64 12 39 ba 24 6e 86 bb fb 3c 85 bb ed 30 35 3b
       -0.00070599304 -0.0041024853 -0.0040661073 0.002764757
000190 e1 89 48 bb 6f 2a 4a bb a9 22 06 bb 30 72 9d ba
       -0.003059976 -0.0030848046 -0.0020467436 -0.001201218
0001a0 a6 6d 03 bb 5c fc 09 3b b2 71 e9 b9 6b 75 19 3b
       -0.002005437 0.002105496 -0.00044525933 0.0023415934
0001b0 bd a8 bf ba f0 95 6b 39 7d b6 ed bb 58 0d 58 bb
       -0.0014622431 0.00022467203 -0.0072544203 -0.0032966938
0001c0 31 6d 07 bc 29 0b 2f bb 8d df ae bb 93 ab d1 39
       -0.008265779 -0.0026709533 -0.005336708 0.0003999142
0001d0 a1 64 98 38 59 65 73 ba 74 7f b6 ba f5 fe a8 ba
       7.2666684e-05 -0.00092848163 -0.0013923482 -0.0012893366
0001e0 e3 72 82 be d2 bd 09 3d 15 cc 86 be b5 2c ab 3d
       -0.25478277 0.033628292 -0.26327577 0.083581366
0001f0 a9 13 40 be a7 46 2e 3c 99 e5 6c bd 57 9a 62 be
       -0.187575 0.010636962 -0.05783615 -0.22129188
000200 3f 87 c1 3d 57 09 12 be dd 53 fb 3d a0 7d 67 be
       0.09449624 -0.14261375 0.12271855 -0.22606516
000210 fc b0 05 3e b8 23 3f 3e 61 01 a2 3d 40 7d 9c be
       0.13055795 0.1866597 0.07910419 -0.30564308
000220 95 67 7a bb 1a 93 1d 3e fc 9a 17 3e 66 85 93 be
       -0.0038208712 0.15388146 0.14805216 -0.28812712
000230 d6 c8 9c be 26 0a a8 be db c1 f9 bd f5 92 d3 3e
       -0.30621976 -0.32820243 -0.12195178 0.41323057
000240 2d 27 de bd 62 09 f1 bd 2b 7c 93 be 18 78 08 bf
       -0.10847316 -0.11769368 -0.2880567 -0.5330825
000250 51 42 b9 bb d4 0d 7c 3a 13 ca dc 3e 0c e2 26 3d
       -0.0056536575 0.00096150977 0.4312292 0.04074292
000260 eb 09 d1 3d 56 4d 59 be 68 b5 9b 3b 8e 66 80 bc
       0.1020697 -0.21220908 0.00475185 -0.015673902
000270 71 14 83 be 92 78 39 3e f7 37 87 3d 55 1f 4e be
       -0.25601533 0.181124 0.06602471 -0.2012914
000280 1c e2 d6 bd 60 aa 37 be 45 af 88 3e 6c 6d 8d 3d
       -0.10492346 -0.17936087 0.2669622 0.06905636
000290 3b da b4 bb 11 ed 54 3e 5f 0d fe 3a f8 62 e3 bd
       -0.005519179 0.20793559 0.0019382647 -0.11102861
0002a0 d8 4e ac 3c e1 2d 08 3e 3f e0 5b 3e 83 27 cd bd
       0.02103369 0.13298751 0.21472262 -0.10017302
0002b0 03 94 d8 3d 6f 2a fd 3e ae fa fb b9 55 d1 2e 3e
       0.10575106 0.49446437 -0.00048061222 0.17072041
0002c0 05 d1 3f bb d6 bf ed 36 51 9c 47 3e 1a 9e 0f 3d
       -0.0029268872 7.085483e-06 0.19493224 0.035062887
0002d0 8e 58 d6 ba e9 ca 82 bb 30 c9 fc ba fc cb 56 3b
       -0.0016353296 -0.003991474 -0.0019286033 0.0032775393
0002e0 76 0f 33 ba 75 5e 05 bc 89 17 dc bb b5 a5 ef ba
       -0.0006830612 -0.008140196 -0.006716673 -0.0018283637
0002f0 5b 4a 55 38 38 83 89 3a a7 a0 3a bb 49 a0 2d 3a
       5.0852406e-05 0.0010491377 -0.0028477104 0.00066233106
000300 47 69 4d b9 42 7a 90 3a 89 a8 45 3b 04 2b a7 ba
       -0.00019589542 0.0011022764 0.003016027 -0.0012753909
000310 21 48 32 b9 d4 a3 d1 bb e6 75 41 bb b0 f0 9e 3a
       -0.00017002273 -0.0063977037 -0.0029519736 0.0012126174
000320 c9 5f 9b ba 05 ba 14 b9 db 23 5a 3b d4 f3 4c bb
       -0.0011854108 -0.00014183678 0.0033285532 -0.0031273263
000330 1e 38 84 ba 28 16 0a bc 06 38 b2 3a 5e 46 0f bb
       -0.0010087525 -0.008428134 0.0013597019 -0.002186201
000340 26 9e 02 b9 1b 41 81 37 d0 d0 b9 bb d2 f1 36 3b
       -0.00012456681 1.5408315e-05 -0.0056706443 0.0027915132
000350 db 60 6d b9 13 73 88 39 03 e2 c1 bb ec ee 0f 3a
       -0.00022638163 0.00026025678 -0.0059168353 0.0005490619
000360 97 b0 61 bb d6 c2 63 bb 6c 27 07 bb af f8 62 3b
       -0.003443753 -0.0034753582 -0.0020622863 0.003463309
000370 e4 75 9c bb e9 bf 67 bb bf 42 18 39 ba 13 8d ba
       -0.004774796 -0.003536219 0.00014520714 -0.0010763325
000380 fe c7 31 bb de 53 6e 3b 8a 27 96 b9 40 f7 e4 b9
       -0.0027127261 0.0036365907 -0.00028639688 -0.00043671764
000390 37 e0 a9 ba a5 5a cd 3a c8 a4 f6 bb 67 6d ab bb
       -0.0012960498 0.0015667273 -0.0075269677 -0.0052315476
0003a0 8d 7f f9 bb b8 d9 66 ba ef e5 da bb 1e c6 0d 3b
       -0.007614082 -0.00088062463 -0.0066802423 0.002163298
0003b0 36 7f 98 b8 9d 61 86 b8 bd 04 d5 ba 8a e0 39 bb
       -7.27162e-05 -6.4078e-05 -0.0016252022 -0.0028362595
0003c0 52 52 b4 3d 9a fa bd 3d 99 2e f9 be c1 47 37 bf
       0.08804764 0.09276314 -0.48668364 -0.7159386
0003d0 96 50 20 bf d4 32 b0 3e ea b8 a3 3e 63 63 56 3d
       -0.62622964 0.3441378 0.31977016 0.052340876
0003e0 75 d5 45 be 30 08 51 be 81 c1 e6 3d 9e 2b f7 bd
       -0.19319709 -0.2041328 0.11267377 -0.12068866
0003f0 86 7d cc be 79 66 9e bd 7d 9e 2d bf 27 50 e7 be
       -0.39939517 -0.07734389 -0.6781996 -0.4517834

bias f4 [60]
000000 f4 01 c6 3e 4e 5a c0 3b cb 79 21 bd 5c 05 04 3c
       0.38673365 0.00587014 -0.03942279 0.008057918
000010 21 09 e1 bd 6a d4 90 3b 16 ae b8 3e 9e 6b 09 3e
       -0.10988069 0.004419853 0.36070317 0.13419959
000020 0b 57 5c 3e 08 11 98 3b f8 60 bf 3d 0f 12 0f 3c
       0.2151758 0.004640702 0.09344667 0.008732333
000030 7b 36 b3 3b 99 67 88 be 2e 3f ea 3b 42 f2 0b bd
       0.005469141 -0.2664154 0.007148645 -0.034166582
000040 9d 02 d5 3b 18 34 31 bf 42 4c ae 3b 91 01 e6 3b
       0.0065005557 -0.69220114 0.0053191492 0.0070192297
000050 ca 2c 68 3c 3c bd 78 3e 21 a3 01 bf 9f ea f0 3b
       0.014170835 0.24290937 -0.5063954 0.0073521878
000060 0d 3f 4b 3d 74 8d 2f 3f 36 9f fa be b9 cf 3b be
       0.049620677 0.68575215 -0.48949593 -0.18340959
000070 13 1b 4c 3e f6 2b c6 3e 2e ca cc 3e 00 be ca be
       0.19932203 0.38705415 0.39998 -0.39598083
000080 75 3b 2e 3f 70 32 3b be 35 c2 86 bf 82 9a 21 bf
       0.68059474 -0.18280959 -1.0528017 -0.63126385
000090 f6 ec cd 3b 2c 62 0e 3c 2d 28 7a bd c3 6e a4 ba
       0.0062843515 0.008690398 -0.06107347 -0.0012545217
0000a0 f7 42 dc 3b aa de ab be 67 cc 2d 3a f3 db da 3b
       0.00672185 -0.33568317 0.00066298846 0.006679052
0000b0 8e c5 61 bd 72 33 1b 3d bf 4c 84 be fe 99 c5 3d
       -0.055120043 0.03789086 -0.25839803 0.09648512
0000c0 aa f9 0c 3c d5 50 cb 3d 04 1c 8c 3b fc f2 ef bd
       0.008604446 0.09927527 0.0042758007 -0.117162675
0000d0 61 2d 06 bb 19 81 88 3d 0e 6e 35 bd 87 24 cc be
       -0.0020473825 0.066652484 -0.04429441 -0.39871618
0000e0 ea d7 e8 3b b6 35 bc be 79 9b 1b b9 4d b1 74 be
       0.007105817 -0.36759728 -0.0001483987 -0.2389576

weight f4 [60, 60]
000000 20 b3 6e ba 51 23 4a b9 ed 76 8a 3b ae 14 9f ba
       -0.0009105671 -0.00019277378 0.004225603 -0.00121369
000010 16 e7 29 ba a7 f6 1a 3b ff c3 1f bb a0 f9 63 bc
       -0.0006481273 0.0023645551 -0.0024378297 -0.013914496
000020 55 ec c1 bb a3 12 fb 38 63 71 04 bc 36 ef 9f ba
       -0.0059180656 0.00011972084 -0.008083674 -0.0012202028
000030 2a 92 77 ba bb bf 87 bc 31 57 80 39 a8 19 c6 ba
       -0.00094440824 -0.016570916 0.00024479025 -0.0015113847
000040 c6 09 8c 39 f4 e3 67 bb 7d 22 69 39 55 3c 8a 39
       0.00026710163 -0.0035383673 0.0002223346 0.00026366362
000050 75 0e 46 bc d8 e8 75 3b 2f cd 98 bb 14 73 f5 39
       -0.012088408 0.003752282 -0.0046631317 0.0004681578
000060 0e 2b 18 3c 6a 6a 3d bc 36 32 00 3a 52 8f 10 bb
       0.009287609 -0.011561016 0.00048902945 -0.0022058082
000070 a2 ab 98 3a 20 b5 66 bb 30 02 72 3b be af cf 3a
       0.001164783 -0.0035203174 0.0036927573 0.0015845222
000080 ea 3b 05 bc 7f 38 36 3b 1f 4f 02 3c 50 ec 1c 3c
       -0.00813196 0.002780467 0.007953434 0.009577826
000090 fc 0f f5 b9 19 cd 9c ba 2b aa 88 bb eb 90 91 3a
       -0.0004674195 -0.0011962979 -0.004170676 0.0011105811
0000a0 4d b6 90 39 e8 06 73 3b cb 83 b3 bb a2 a1 34 3a
       0.00027601645 0.0037082974 -0.0054783574 0.000689054
0000b0 b3 c6 57 bc d5 b6 47 bb 9b bd b8 b9 a9 59 80 bb
       -0.013169932 -0.0030473967 -0.00035236482 -0.0039169383
0000c0 dd 88 97 ba d9 33 23 bc a5 f0 4c ba db 5a 47 ba
       -0.0011561174 -0.009961092 -0.0007817841 -0.0007604786
0000d0 d3 d7 a7 3b a5 34 54 3b 60 5c 30 bb 82 c9 bb bb
       0.005122164 0.0032380011 -0.0026910529 -0.0057308087
0000e0 f0 6c 0f 3a 9d cb 4e 3b ff 5b 86 38 3f 7d 8f 3b
       0.000547125 0.0031554468 6.4067535e-05 0.004378944
0000f0 04 09 87 3e ce 4d 48 3c 66 02 55 be 18 35 ab 3c
       0.26374066 0.012225581 -0.20801696 0.02089934
000100 c4 71 04 be a2 f4 ae 3a 82 ae 86 3e 46 1f d1 3e
       -0.12934023 0.0013348053 0.26305014 0.40844172
000110 58 58 ab 3e 4b 39 89 3c 81 29 6e 3e de 41 80 3c
       0.33465838 0.016750952 0.2325802 0.015656408
000120 76 d5 83 3c 5a 9d be be ae d7 3b 3c 43 39 c9 3d
       0.016092997 -0.37229425 0.011464996 0.09825375
000130 74 f6 5e 3c 0c c5 17 be cb 66 62 3c c1 ad 39 3c
       0.013608564 -0.14821261 0.013818453 0.01133293
000140 48 76 aa be 4a 84 f4 be 51 97 92 bd c1 3f ce 3b
       -0.33293366 -0.4775718 -0.071577676 0.006294221
000150 38 57 5c 3c 9d 43 c5 3d 0b 6b c7 bc e2 f8 0b be
       0.013448529 0.09632037 -0.024343034 -0.1366916
000160 69 ab 97 bc ad 00 71 3c 36 75 fb 3e 61 cb 3e be
       -0.018514352 0.014709634 0.49112862 -0.1863227
000170 d2 fa 4c 3f 1b ae e0 bc 11 05 e2 bd 49 77 3c be
       0.8007022 -0.02742677 -0.110361226 -0.18404879
000180 62 46 85 3c 54 d9 7d 3c 85 ae 0a be f7 24 22 bc
       0.016268913 0.01549371 -0.13543136 -0.009896508
000190 55 1a 4b 3c b1 22 ff bd cb 1d 90 3c 64 91 ca 3b
       0.012396415 -0.12457789 0.017592331 0.0061818827
0001a0 1d da 8b 3d 2a 6b a5 3d b2 bd 9c 3d a7 10 81 3e
       0.06828711 0.080770805 0.07653369 0.25208017
0001b0 a4 d9 76 3c b1 4a 67 bd 3b bc 5b 3c 91 1b 70 3e
       0.015066538 -0.056467716 0.013411577 0.23448016
0001c0 89 ed 7d bc 94 58 50 3e c8 01 28 be e5 e1 b1 bd
       -0.015498527 0.2034629 -0.1640693 -0.08685664
0001d0 fa dd 01 3c b6 93 e2 be 5b a7 a2 bb d6 c9 d4 bb
       0.0079264585 -0.4425332 -0.004963798 -0.0064937873
0001e0 5a b0 52 3e 02 8a a5 ba 4c 1b d6 3c 1d af 29 b9
       0.20575085 -0.001262963 0.026136063 -0.00016182331
0001f0 4a 5d 06 3e d9 92 2f 39 47 6d 1e 3e 4a 44 0b 3d
       0.13121524 0.00016744006 0.15471373 0.034000672
000200 71 5f d2 3d c2 6d 1b bb fa 19 ef 3d 99 8a 30 bb
       0.1027211 -0.0023716544 0.116748765 -0.002693808
000210 2c 52 8a ba 37 f8 04 be 97 d7 fa ba e1 62 51 be
       -0.0010553054 -0.12985311 -0.0019137737 -0.20447876
000220 f1 bb e9 ba 35 37 fa be 51 39 ce ba 50 63 fe ba
       -0.00178325 -0.48870245 -0.0015733634 -0.001940826
000230 22 67 c7 be 52 33 f5 be 92 b1 71 be 49 36 bb ba
       -0.38945872 -0.47890717 -0.23602894 -0.0014283146
000240 d9 d6 60 be d6 81 fa 3e 2e bf 22 bf 81 e6 d6 be
       -0.21956958 0.48927182 -0.6357297 -0.41972736
000250 0a d1 75 3e 85 1d 5a bf b0 e8 3f bc c8 39 2b be
       0.24005523 -0.85201293 -0.011713192 -0.1672126
000260 27 4a 90 bb 33 8c 06 3d b4 36 34 be 7f 49 b8 bd
       -0.004403371 0.03284855 -0.17598993 -0.08998393
000270 36 64 ac ba 07 f5 2a bb 83 14 c8 3d f2 f9 2a bb
       -0.0013152424 -0.002608599 0.09769537 -0.002608892
000280 78 15 f8 ba 44 64 6f 3c a8 3d e6 3b aa eb d3 ba
       -0.0018927297 0.0146113075 0.007026393 -0.0016168256
000290 b1 7c 0c be cd 8d 50 3e e6 b8 b4 3e cb cd 9a 3a
       -0.13719441 0.20366593 0.35297316 0.0011810599
0002a0 32 d7 28 bb 90 dd d3 3d 0c 61 dd b9 13 b1 95 3d
       -0.0025763032 0.10344994 -0.0004222471 0.07309165
0002b0 4e 01 29 bb 9e 8e 89 3e 5a 33 7a 3c 8b 90 57 3c
       -0.0025788131 0.2686662 0.015271032 0.01315702
0002c0 ec ee e5 ba ef f3 b8 3d d1 d2 59 bb 04 e1 e1 bc
       -0.0017542518 0.09030902 -0.0033237229 -0.027573116
0002d0 a1 d0 98 be 18 fc 08 3b 46 7c 90 bd 8a 3e 5e bc
       -0.2984667 0.0020902213 -0.07054953 -0.013564715
0002e0 36 22 86 3d 97 15 06 bc 3b a9 3d bd 1f aa b1 bc
       0.06549494 -0.008183858 -0.04630397 -0.021687565
0002f0 66 44 23 3e 2a a0 8d 3b 44 ff 39 bd 71 28 29 bc
       0.1594406 0.0043220716 -0.045409456 -0.010324583
000300 73 a6 00 3a 52 42 00 be 4a d8 6e ba 5c 29 01 bd
       0.00049076154 -0.12525299 -0.0009111209 -0.031533584
000310 d8 74 58 b8 23 d8 9f be 27 31 9a 3b 89 64 9b b9
       -5.1607232e-05 -0.31219587 0.0047055664 -0.00029638808
000320 1c 1a 14 be 7f 34 ca be 57 76 a1 be fc 84 0d 3b
       -0.14463085 -0.39493176 -0.315356 0.0021594157
000330 09 1c aa 3e fb 7a 1b 3e b3 d9 34 be 77 71 d3 be
       0.33224514 0.15183632 -0.1766117 -0.41297504
000340 c6 d6 f2 3d 78 54 9c be 8d 37 9e 3d 94 f6 0e be
       0.11857371 -0.30533195 0.07725439 -0.1396125
000350 19 fb 63 bd 86 9e 8c 3b 9d b1 6b be 7f c2 e9 be
       -0.055659387 0.0042913584 -0.23016973 -0.456562
000360 ca c8 69 bb 95 c9 28 bc 14 14 8b 3d 10 80 b0 ba
       -0.0035672658 -0.010301967 0.06790939 -0.00134659
000370 26 bc 22 38 e2 ba ed 3c 73 63 75 3c 79 8d ae 3b
       3.8799037e-05 0.029019777 0.014977324 0.0053269234
000380 9e 4f 4a be a7 32 7d 3d 4e 6d 6f 3e a5 a1 c0 3d
       -0.19756934 0.061815884 0.2338154 0.09405831
000390 cd 10 29 bc ec 78 5f bd 56 3b 41 3b 9d 81 87 3e
       -0.010318947 -0.05455868 0.002948483 0.26466075
0003a0 71 8f 04 bc e9 6d c7 3d 85 9a ff 3c 4f fc 47 be
       -0.00809084 0.097377606 0.03120161 -0.19529842
0003b0 dd 6a 23 3b 15 e5 d2 bd 61 1b 50 3b 1b 10 3f bd
       0.0024935522 -0.102976 0.00317546 -0.04664622
0003c0 a5 1c 96 bf 06 3a bc ba 3f 7e 07 bf 89 33 f2 3a
       -1.1727492 -0.0014360554 -0.5292701 0.0018478493
0003d0 1f 61 e8 3d 3c b7 32 3b 5e f2 7a be f2 2b 89 3b
       0.113466494 0.002726986 -0.24506518 0.004186147
0003e0 de eb a2 3e ba 0e 43 bc e4 8f c9 be f7 2e 16 bb
       0.31820577 -0.011905367 -0.39367592 -0.0022916177
0003f0 94 c1 bd 39 72 23 2a 3e 59 ef b5 bb a8 8d 13 bf
       0.00036193116 0.16615084 -0.005552214 -0.57638025

bias f4 [60]
000000 d7 69 8b bb 04 86 84 3e b9 68 c5 bc e9 fe 85 bd
       -0.0042545605 0.25883496 -0.024097787 -0.06542761
000010 fa da f1 3d a6 15 05 3e 4d fd b7 3d b1 c9 74 3b
       0.118093446 0.1299654 0.0898386 0.0037351663
000020 29 dc 19 3f 60 74 9e bd b1 1b 9d 3e 92 76 b4 bd
       0.6010156 -0.077370405 0.3068519 -0.08811678
000030 b9 d5 51 ba d1 0f 4a 3b 06 8d 2f ba 34 58 3c 3d
       -0.00080045644 0.0030832181 -0.00066967343 0.045982555
000040 2a cd b7 ba ac b1 99 be 3b 1b 4b 3e be 71 b5 ba
       -0.0014022936 -0.30018365 0.19834606 -0.0013843102
000050 6d 6e 79 3a 0a ec fa 3a 72 c7 13 bb 74 94 10 be
       0.0009515051 0.0019143831 -0.0022549299 -0.1411913
000060 02 4f 4c 3b 3e 47 e8 3a 46 8a 0b bd 3c 8c 4f be
       0.0031175022 0.0017721427 -0.034067415 -0.20268339
000070 43 69 b1 3d 2f e7 a7 3a b8 b7 0d be d1 1d 8b bd
       0.08662655 0.0012809987 -0.13839614 -0.067927964
000080 40 88 40 3d 8b 5d f2 bd 83 65 da 3a 68 0c 45 3d
       0.047004938 -0.11834248 0.0016662333 0.048107535
000090 ac b3 09 3b a1 6c 23 3b 06 e3 95 ba 19 1b 30 3e
       0.0021011634 0.0024936574 -0.0011435456 0.17197837
0000a0 aa 97 01 bb e8 8f a5 bd e3 a0 e6 bc 7c 92 8d ba
       -0.0019774237 -0.080840886 -0.028152889 -0.0010801102
0000b0 b0 9e f2 3a 56 cf a6 3b ea 7c ae 3d 2e 3f 7a 3b
       0.0018510427 0.0050906343 0.08519919 0.003818463
0000c0 09 8c e0 bd fa 72 15 3d 03 24 01 3f 53 c8 00 3f
       -0.109642096 0.036486603 0.50445575 0.5030567
0000d0 4b 04 46 bd 73 38 85 3b 0d bd 9d 3b 28 d5 64 3b
       -0.048343938 0.004065567 0.0048137964 0.003491709
0000e0 ca ed 08 3d 46 2c ad b8 f9 4b 30 be 8d 92 95 3a
       0.0334299 -8.2575294e-05 -0.17216481 0.0011411473

weight f4 [60, 60]
000000 1c f8 f9 b9 6c 05 81 3d 90 22 de 3d 5b 20 cb bd
       -0.00047677837 0.06299862 0.10846436 -0.09918281
000010 72 aa 23 3e d2 4a b2 3e 1c 16 2c 3d d1 44 66 3e
       0.15982988 0.34822708 0.042013273 0.22487189
000020 c3 9d 6e 3d 3c 39 9a be b3 6d ae 3e 3a ba 68 be
       0.058255922 -0.3012179 0.3406807 -0.2272729
000030 11 8b ed ba 2f 73 92 39 35 76 c3 ba ed 33 aa 3d
       -0.001812311 0.00027933109 -0.0014912548 0.08310685
000040 65 53 14 3a 32 d9 bd be e5 3f 6a 3d 77 67 da b9
       0.00056581787 -0.3707977 0.05718984 -0.00041657288
000050 50 97 a3 b9 8e 53 e4 39 a6 c3 97 ba 27 90 bd be
       -0.0003120252 0.00043549802 -0.0011578694 -0.37024042
000060 b0 59 ee b9 6c 42 05 ba 91 7f 0f be 9b ac 96 be
       -0.0004546172 -0.0005083445 -0.14013506 -0.29428563
000070 ef db 0b 3e bb 5d 41 3a 6d 3a 50 be 81 9c 9e be
       0.13658117 0.00073763327 -0.20334788 -0.30978778
000080 16 4f 55 3e a5 30 88 be 06 cb 65 ba de 2f a0 be
       0.2083095 -0.26599613 -0.00087659096 -0.3128652
000090 c2 40 a0 b9 e9 7b 3c ba e6 04 b9 38 44 db bc 3e
       -0.00030565826 -0.0007190095 8.8224e-05 0.36886036
0000a0 44 a7 30 3e 84 9c ff be 15 26 62 3e 86 cd 03 ba
       0.17251307 -0.499241 0.2208484 -0.0005027879
0000b0 4d 02 d6 b9 3c 14 19 b8 63 f6 12 3e 1c cd ad ba
       -0.00040818975 -3.6496887e-05 0.14351802 -0.001325998
0000c0 eb 82 3e be 02 59 bc 3d be 21 f9 3e 7e db 49 3e
       -0.18604629 0.091966644 0.48658556 0.19712636
0000d0 85 46 e9 bd 14 71 fc 38 02 3c f0 b9 4e 05 c1 b9
       -0.11390404 0.00012037359 -0.00045821076 -0.0003681578
0000e0 22 ae 50 3e f1 92 08 3a c8 6b 7e be 0e 28 2b ba
       0.20378926 0.0005209884 -0.24845803 -0.0006529101
0000f0 69 90 07 ba 71 03 8a 3d 27 8d fe 3d 46 fb e0 bd
       -0.000517136 0.06738938 0.124292664 -0.109854266
000100 2c 6c 37 3e de 10 c7 3e 38 ca 4d 3d b1 f5 6e 3e
       0.17912358 0.38880056 0.05024168 0.23335911
000110 47 fd 8d 3d f1 e5 ae be f8 96 c8 3e 69 7a 83 be
       0.069330744 -0.34159806 0.3917768 -0.2567933
000120 9e c1 f1 ba b3 b4 8d 39 df 02 c8 ba 4f 96 bd 3d
       -0.0018444543 0.00027028247 -0.0015259645 0.09257185
000130 94 a4 04 3a f0 7a d4 be 03 67 7d 3d c7 b0 ee b9
       0.00050599244 -0.41500044 0.061865818 -0.00045526607
000140 7c 17 bd b9 43 79 e1 39 a4 df 99 ba df 8c d7 be
       -0.00036066386 0.0004300569 -0.0011739624 -0.42099664
000150 af ca fa b9 e4 8a 0f ba 4b d6 23 be 54 b9 a8 be
       -0.00047834727 -0.00054757134 -0.15999715 -0.32953894
000160 04 c4 f0 3d 8b 57 38 3a 2d e0 68 be 72 48 b3 be
       0.11756137 0.0007032088 -0.22741766 -0.3501621
000170 34 6c 71 3e 29 08 9a be c9 67 63 ba 08 92 b6 be
       0.23576432 -0.3008435 -0.0008674828 -0.35658288
000180 c1 6b ac b9 08 cf 41 ba fd dd 50 38 ee 53 da 3e
       -0.0003288668 -0.0007393216 4.9797807e-05 0.42642158
000190 ae 70 46 3e 2a 5f 0f bf d7 37 75 3e db 3d 1a ba
       0.19378921 -0.56004584 0.23947082 -0.0005883851
0001a0 c8 8d da b9 65 3e 99 b8 44 69 27 3e c1 39 b2 ba
       -0.00041685835 -7.3072304e-05 0.1634875 -0.0013597534
0001b0 f3 8a 57 be b4 e4 d3 3d fa 89 03 3f 92 76 68 3e
       -0.21049099 0.10346356 0.5138241 0.22701481
0001c0 5d 44 04 be 14 70 19 39 88 b5 fa b9 63 51 dd b9
       -0.12916704 0.0001463297 -0.00047818967 -0.00042213043
0001d0 e9 65 6e 3e 9b d6 04 3a ba e2 90 be 86 47 38 ba
       0.23281063 0.0005067379 -0.2829798 -0.0007029701
0001e0 30 48 24 b9 24 f8 8f bb f1 de 01 bb 89 82 00 3b
       -0.00015667151 -0.0043935943 -0.0019816721 0.0019609055
0001f0 7c c5 d6 ba 30 39 1a 3b 14 22 0c bb 99 7b 81 ba
       -0.0016385759 0.0023532622 -0.0021382617 -0.0009878754
000200 8e 4e d3 bb ab dc ff 38 58 7f 30 bb 9c 2a 3c bb
       -0.0064485734 0.0001220045 -0.0026931372 -0.002871192
000210 31 78 37 39 29 f5 05 ba 07 33 f0 39 f5 37 83 3a
       0.00017497015 -0.0005110079 0.00045814386 0.0010011183
000220 e2 f4 c9 38 7e 2f 4c bb 2b ed ba ba 26 cc 45 b7
       9.63004e-05 -0.0031156237 -0.0014261355 -1.1789647e-05
000230 cb 49 62 39 65 10 9b b9 23 1d 91 39 4b a0 0c 3b
       0.0002158053 -0.0002957612 0.00027678264 0.0021457847
000240 5b dd 77 b9 59 7d ab 39 e0 0e a1 3a 00 8a 02 3b
       -0.00023638217 0.00032709053 0.0012287758 0.001991868
000250 ee a7 5e bb c9 cd 5d b9 ec cd 4a ba 92 cc 63 3a
       -0.0033974606 -0.00021152863 -0.0007736373 0.0008689846
000260 22 10 3c 3b 91 04 55 bb 37 8d 4c b9 8f f1 7c bb
       0.002869614 -0.0032503942 -0.00019507563 -0.0038596129
000270 0e 0e f7 b9 ac fe 71 b9 80 08 b2 39 a0 94 0d bb
       -0.00047121983 -0.00023078424 0.0003395714 -0.002160348
000280 ce 02 67 bb 59 df 64 3b 54 32 0f bb 2d e7 ab 38
       -0.0035249474 0.0034923165 -0.0021850066 8.196975e-05
000290 e4 a2 b4 b8 2c 68 29 39 1f 95 59 bb 02 32 a7 b9
       -8.6134096e-05 0.00016155903 -0.0033200455 -0.0003188998
0002a0 73 40 0d 3b 27 88 45 bb 43 3c 11 3b 03 01 0a 3b
       0.0021553307 -0.0030140968 0.0022161163 0.0021057732
0002b0 28 40 cd 3a 1a a8 28 ba 1c a5 50 b7 21 d1 71 39
       0.0015659379 -0.00064337405 -1.2436209e-05 0.00023061458
0002c0 77 9b 40 bb 5e 51 99 39 b8 b8 39 3b 7f 17 a8 38
       -0.002938954 0.00029243057 0.002833886 8.015241e-05
0002d0 ff 69 04 ba fd db 86 3d 32 54 f9 3d 75 b8 dd bd
       -0.0005051195 0.06584928 0.12174262 -0.10826198
0002e0 46 f4 33 3e bf 05 c3 3e 63 cc 48 3d e2 37 76 3e
       0.17573652 0.3809032 0.049023043 0.24044755
0002f0 e6 86 6b 3d 6d 96 ab be 63 67 c2 3e 03 0d 81 be
       0.057501696 -0.33513203 0.37969503 -0.2520524
000300 35 30 ef ba fa 82 9a 39 6d df c5 ba d5 a0 ba 3d
       -0.001824862 0.00029470754 -0.0015096493 0.091127075
000310 54 40 11 3a e8 ca d0 be 70 04 39 3d 59 f3 df b9
       0.00055408967 -0.40779805 0.045170248 -0.00042715183
000320 d1 e3 aa b9 82 b7 e4 39 24 5e 97 ba dd 3f d3 be
       -0.00032594663 0.00043624273 -0.0011548442 -0.4125966
000330 a5 67 f1 b9 ef fa 08 ba 78 8b 20 be 47 2c a8 be
       -0.00046044323 -0.00052253803 -0.15678203 -0.3284628
000340 b1 47 f4 3d 3a 56 3d 3a c6 73 64 be 59 fa af be
       0.119277366 0.00072226266 -0.22309789 -0.34370688
000350 38 39 6c 3e 7d f8 96 be a7 b3 61 ba c9 a4 b2 be
       0.23068702 -0.29486457 -0.0008609839 -0.34891346
000360 50 33 a3 b9 d2 68 3f ba c1 5c a6 38 90 bb d0 3e
       -0.00031128014 -0.0007301691 7.9327736e-05 0.407681
000370 6e da 43 3e c8 f4 0c bf 34 2d 67 3e 82 be 15 ba
       0.19126293 -0.55061007 0.22575837 -0.0005712287
000380 4c 2a d6 b9 94 ff 67 b8 45 3d 1c 3e f9 b7 b1 ba
       -0.00040848774 -5.5312717e-05 0.15257747 -0.0013558856
000390 5f 86 53 be 67 8a cf 3d 97 45 0d 3f e2 2e 86 3e
       -0.20656727 0.1013382 0.5518431 0.26207644
0003a0 de c7 01 be 8a 3c 1b 39 d8 3f f6 b9 d3 f5 d2 b9
       -0.126739 0.00014804504 -0.00046968344 -0.00040237475
0003b0 f6 05 6b 3e b3 25 03 3a 56 02 8e be 51 8c 38 ba
       0.22951493 0.0005002871 -0.27736157 -0.0007039952
0003c0 89 08 01 ba fd e6 80 3d da ec ea 3d 2b d6 d3 bd
       -0.00049222313 0.062940575 0.11470957 -0.10343584
0003d0 6d 60 2b 3e c3 2f ba 3e ab 94 3a 3d 82 1e 65 3e
       0.16736002 0.36364564 0.045551937 0.22374919
0003e0 cc d1 3a 3d 3d 34 a2 be 02 46 b9 3e 98 7d 74 be
       0.045610234 -0.3168048 0.36186224 -0.23876035
0003f0 d7 df ed ba af 34 8a 39 aa 2e c7 ba 0f e1 b1 3d
       -0.0018148375 0.00026360663 -0.0015196402 0.08685505

bias f4 [60]
000000 1c 99 fe 3d 10 55 10 3e 13 fe d2 ba bd 99 0d 3e
       0.12431547 0.14094949 -0.0016097449 0.13828178
000010 59 e9 05 3e 09 7e 09 b5 f5 83 18 3e f6 43 50 b4
       0.13077296 -5.121988e-07 0.14894088 -1.9396234e-07
000020 3c 0f 33 39 c6 af 10 3e 10 b0 11 3e 08 ea 01 3e
       0.00017076446 0.14129552 0.14227319 0.12686932
000030 4b ca 0c 3e e8 a7 2d be 94 9a 02 3e 14 e8 fd 3d
       0.13749044 -0.16958582 0.1275428 0.12397781
000040 42 37 0c 3e e8 3d c3 37 3a 1c 9f b8 4f c7 08 3e
       0.13692954 2.3274639e-05 -7.5869684e-05 0.1335728
000050 76 3f 93 b9 bb b3 02 3e 89 0d a5 ba 85 04 6a 35
       -0.00028085307 0.12763874 -0.0012592535 8.717837e-07
000060 81 68 fd 3d f0 2c 68 36 65 88 90 39 ce 6d 09 3e
       0.12373448 3.459685e-06 0.00027567442 0.13420793
000070 9f b2 d2 bd 27 a6 1d 39 f3 48 0d 3e e4 a3 0c 3e
       -0.102879755 0.00015034583 0.13797359 0.13734394
000080 59 15 b1 38 39 9f 04 3e e1 0f 15 3e 14 66 0f 3e
       8.443994e-05 0.12951364 0.14556839 0.14003783
000090 34 09 8d be ff 15 8b b9 43 7b 8f bd 9b c3 f3 b4
       -0.27546084 -0.00026528534 -0.07005932 -4.54046e-07
0000a0 bc 93 7b b9 68 7d 8f b9 81 bf 99 38 27 3e 11 3e
       -0.0002399226 -0.0002736852 7.331279e-05 0.14183865
0000b0 e3 3c bc b5 1d 32 7b bd bd bb ff 3d 3e de fe 3d
       -1.4024812e-06 -0.06132709 0.1248698 0.12444733
0000c0 1b a5 fd 3d 13 ee 05 be 73 81 78 bd b2 3b 9a bd
       0.12385007 -0.130791 -0.060670327 -0.07530917
0000d0 54 52 6b bd ad 6a 84 b8 02 a8 01 3e d2 88 09 3e
       -0.05745156 -6.3141204e-05 0.12661746 0.13431099
0000e0 dc 23 3e be ea 22 02 3e 95 9b 35 b8 f4 d4 08 3e
       -0.18568367 0.12708631 -4.329866e-05 0.13362485

weight f4 [1, 60]
000000 cc ca 9d 3f 6c a9 b2 3f 4a 96 aa 3a 00 8f af 3f
       1.2327514 1.3957953 0.001301476 1.3715515
000010 b1 f4 a5 3f 60 48 9d b6 f5 cc bc 3f de b5 cf b4
       1.2965299 -4.68739e-06 1.4750048 -3.868908e-07
000020 d3 40 ec 38 b9 21 b3 3f 15 b5 b4 3f 5d f0 a0 3f
       0.000112654314 1.3994666 1.4117762 1.2573353
000030 5a cf ae 3f 02 f0 f8 bf 1c 0f a2 3f bf 63 9d 3f
       1.3657029 -1.9448245 1.2660861 1.2296065
000040 15 ab ad 3f b7 aa 2d b7 3d f4 40 38 3e 75 a9 3f
       1.3567835 -1.0351351e-05 4.600383e-05 1.3238904
000050 9c 5b 0e b9 7a 09 a2 3f db 22 42 3a db 88 e4 36
       -0.00013576302 1.2659142 0.00074057066 6.8108616e-06
000060 74 50 9d 3f ad 41 60 b4 20 a6 bf b8 a9 59 aa 3f
       1.2290177 -2.0885518e-07 -9.138533e-05 1.3308612
000070 d5 0f 96 bf 2c 2b 32 39 6f 2c af 3f 1f 11 ae 3f
       -1.1723582 0.00016991486 1.3685435 1.3598975
000080 93 f7 58 38 c5 49 a4 3f 1f 95 b8 3f 0b b8 b1 3f
       5.1728985e-05 1.2835013 1.4420508 1.388429
000090 66 5c 9d c0 5f 87 bf 38 38 27 44 bf af 8a bf b5
       -4.917529 9.1328046e-05 -0.76622343 -1.4270971e-06
0000a0 e5 c2 ec 38 86 41 73 b9 b1 74 bc 39 a3 5d b4 3f
       0.00011289659 -0.00023198695 0.00035945096 1.4091076
0000b0 d3 42 26 b6 95 b2 14 bf 6b aa 9e 3f 07 2d 9e 3f
       -2.4774824e-06 -0.58084995 1.2395757 1.2357491
0000c0 b8 29 9d 3f c3 18 ae bf a2 21 9b bf 88 6e 5f bf
       1.2278357 -1.3601307 -1.2119639 -0.8727803
0000d0 d7 84 b0 c0 22 35 b4 38 67 b0 a0 3f 62 ac aa 3f
       -5.516216 8.5929656e-05 1.2553834 1.3333857
0000e0 24 97 8e c0 d3 6c a1 3f 52 78 a1 38 35 b3 a9 3f
       -4.45595 1.2611336 7.69949e-05 1.3257815
