Total_RCS/epoch_200_batch_255_lr_0_0019819414761434403_wd_0_1808248925678225/torch_model_5_Softsign.pth (torch, 95029 bytes, 15 tensors)

weight f4 [60, 3]
000000 8c ad 0f bc 8a f3 17 3b a2 75 3e bb 52 ce c5 ba
       -0.008769404 0.0023185932 -0.0029061814 -0.0015091395
000010 0b e7 56 3a d0 4b e0 b9 30 3a 09 bc fb de 27 3b
       0.000819788 -0.00042781094 -0.008375689 0.0025615084
000020 d5 0c 45 bb 27 ff 4f 3c 29 9f 92 3e a0 de 3e 3f
       -0.0030067463 0.01269511 0.28637055 0.7455845
000030 89 15 77 3b 8a 6d 8d bb 61 dc 50 3b 40 f9 45 3f
       0.0037702045 -0.0043160366 0.0031869637 0.7733345
000040 dc 62 74 bf 34 22 8b bd da b8 c1 3e 93 80 2b 3d
       -0.9546335 -0.06793633 0.37836343 0.041870665
000050 22 64 8f 3e ea 6c be 3d 9f a6 a7 bd f3 7b 55 3f
       0.28006083 0.092981175 -0.08186077 0.83392256
000060 2c 9b 10 3e 83 87 69 bf a9 55 82 be f7 7e 88 bc
       0.14121693 -0.912224 -0.2545598 -0.016662104
000070 16 df 3c bf 18 48 65 bf ac 5a fc be 03 9e 71 3f
       -0.737779 -0.8956313 -0.49287927 0.9438173
000080 fb 9f 3c bd 84 b8 ec ba 78 a2 dc 3a 0a cd 0e bb
       -0.046051007 -0.0018060361 0.0016833087 -0.0021789693
000090 54 89 48 bf 7e 0c 1c bf d3 3c 58 3e 88 f5 0b 3d
       -0.78334546 -0.6095656 0.21116953 0.034169704
0000a0 36 e1 65 bf da 55 33 bf 98 9a b3 bd 99 56 85 bf
       -0.8979677 -0.70052874 -0.08769721 -1.0417053
0000b0 53 df 7a bf a0 12 15 b7 9a 6e 06 3b 38 a1 d7 b8
       -0.97997016 -8.8854285e-06 0.00205127 -0.00010282028
0000c0 db 7a 5f 3c 81 95 a2 3e e8 29 1a 3f 49 5e 05 bf
       0.013640131 0.31754687 0.60220194 -0.5209699
0000d0 be 34 21 bf 5d 5c 3c be 63 5b 0e 3f d4 96 75 3d
       -0.62971103 -0.18394609 0.55608195 0.059958294
0000e0 33 1e 29 3e aa be 03 3c 6f ef 04 3e d2 cb 86 3f
       0.16515426 0.008041063 0.12981962 1.0530951
0000f0 11 cb 37 bc fe d0 57 ba e4 1e 5e 3b de 33 82 3f
       -0.011217848 -0.00082327414 0.0033892924 1.0172079
000100 53 d9 8e be 34 79 6d be 7e 0f e9 be b4 29 4f bf
       -0.2790018 -0.23190767 -0.45519632 -0.8092301
000110 21 11 f9 bb 9d 95 22 bc 06 f1 5a 38 b4 94 86 b9
       -0.007600919 -0.009923366 5.219972e-05 -0.00025669264
000120 cf 32 11 bc e3 f6 b1 bd 9b fb a3 bd 7d 9f 9a 3f
       -0.008862211 -0.08689668 -0.08006974 1.2079922
000130 f8 3b 51 be 1e 3b d2 bd eb 0b cd bb 2e bb bc 3a
       -0.20433033 -0.10265182 -0.0062575242 0.0014399046
000140 5f 03 08 3b 9e bd 8b 3a 11 55 16 bb 55 ec 51 3a
       0.0020753962 0.0010661369 -0.0022938887 0.00080079335
000150 fc 8b 06 c0 1e 5a 0e 3e 2d c0 86 3d f8 3c 7f be
       -2.102294 0.13901564 0.06579623 -0.24925601
000160 d7 51 67 bf 9b fc 24 3d 65 05 2f 3b 5f 5c 86 bb
       -0.9035925 0.040279966 0.0026706096 -0.004100367
000170 68 e3 3c 3b ff 6a c2 bd 1d ff 6a bf f6 5f a6 be
       0.0028822068 -0.09493064 -0.9179552 -0.32495087
000180 82 2e eb bd 87 02 4a 3d ca c2 56 bf cb 17 0c bc
       -0.1148348 0.049318817 -0.83890975 -0.008550595
000190 ca 29 8b bd 0b 24 83 bd 12 28 b2 be 52 b9 0e bf
       -0.0679508 -0.06403359 -0.34796196 -0.55751526
0001a0 57 47 af 3c 9e 94 21 3c a3 c3 c7 ba 08 a5 e6 3a
       0.021396322 0.009862093 -0.0015240799 0.001759679
0001b0 dd 89 6d 3b 97 54 84 bb 5e 2e 84 3b 70 23 8a 3c
       0.0036245503 -0.004038404 0.0040338477 0.016862601
0001c0 1c ff 2f 3f 60 4f 63 3f 2a 3d a5 3b bc 21 30 3a
       0.6874864 0.8879299 0.0050426917 0.0006718894
0001d0 18 b0 d3 3a e3 92 b2 bb f2 32 f2 be 91 fe 53 bf
       0.0016150502 -0.005449639 -0.47304493 -0.8281031
0001e0 e2 4d 8f bc ae bc 19 be a6 65 8f 3f 38 e9 74 3f
       -0.017493192 -0.15013382 1.1202896 0.95668364
0001f0 13 af c1 bc ef f3 55 bc 95 f4 1d 3b 87 81 1d 3f
       -0.023643052 -0.013058647 0.002410208 0.6152577
000200 a1 b7 79 3f a1 f3 cc be 24 eb 0d 3f 3c 90 e1 3b
       0.9754582 -0.40029624 0.5543692 0.006883649
000210 54 b6 35 bd 38 c8 7a bf d2 27 8a bf 00 ae 2d be
       -0.044363335 -0.9796176 -1.0793402 -0.16960907
000220 a2 a6 cf be df a3 08 bd 9e 27 25 bd f5 13 8c bf
       -0.40556818 -0.033359405 -0.040320985 -1.094359
000230 ed f8 96 3d e3 29 11 3f 24 b5 81 3e df 85 80 bd
       0.073716976 0.5670454 0.25333512 -0.06275534
000240 69 1e 08 bf db 07 04 3f 59 b1 46 be ae 4b ab bd
       -0.531714 0.51574486 -0.1940359 -0.08364044
000250 93 00 97 be aa 5d 68 bd 5b ae 24 be 1d 24 ef be
       -0.29492626 -0.05672995 -0.16082136 -0.4670724
000260 a0 87 9c bd 96 5a e8 3b 43 81 46 bb 1e bd 74 3b
       -0.07643056 0.007090877 -0.0030289448 0.0037344168
000270 1f ee f4 3a 4b 51 6b 3d 4d 38 2e 3d 1d 83 5d 3b
       0.0018686688 0.057450574 0.04253416 0.0033800073
000280 46 bd 8a bb 57 c9 5a 3b c7 d7 28 bf 5d 48 05 bf
       -0.004233989 0.0033384168 -0.6595425 -0.5206354
000290 2d b4 99 3b ff 40 5b bb 14 4f 0b bf 86 9f 63 bf
       0.004690668 -0.0033455489 -0.5441754 -0.8891529
0002a0 02 b9 32 bf 78 38 55 be 3e 87 f5 3d d5 77 0d bd
       -0.6981355 -0.20822322 0.11988686 -0.03453811
0002b0 e7 6c 8b be 99 66 97 3e d3 34 4e 3f e4 6b 71 3f
       -0.27231523 0.29570463 0.80549353 0.94305253
0002c0 5d 70 e4 bd 09 4a 10 3d 2c 46 4a bf 88 49 af 3d
       -0.11154244 0.035226855 -0.79013324 0.08558947

bias f4 [60]
000000 56 6e 43 bb 70 e2 c6 b9 fd c8 33 bb 55 ff 17 3f
       -0.0029820404 -0.00037934212 -0.002743303 0.5937398
000010 68 26 e0 3a 65 80 8f bd 25 77 f3 bd 83 4c 31 3f
       0.001710129 -0.07006911 -0.118879594 0.6925737
000020 71 c3 92 be 26 e2 3a bf 9b 1d 4b bf 9b a0 93 38
       -0.28664735 -0.73001325 -0.7934205 7.039421e-05
000030 c6 20 55 bf d6 95 21 bf c5 8b 5a bf 13 76 44 ba
       -0.83253133 -0.63119256 -0.8536952 -0.0007494401
000040 b1 99 fd 3e a6 1f 5f bf ad a3 2a bf c9 d5 4f 3f
       0.4953132 -0.87157667 -0.66656 0.81185585
000050 63 9c 8d bb 26 c7 62 3f aa 4e 0f bf 11 6e 7e bb
       -0.0043216213 0.88585126 -0.55979407 -0.003882293
000060 86 bd 9f bd 7c 77 f7 be f0 2a 98 ba 9e 6f e7 39
       -0.077998206 -0.48333347 -0.0011609476 0.00044142915
000070 32 58 27 bf bf 31 88 bf a3 8b bf 3a b0 85 82 bc
       -0.6536895 -1.0640181 0.0014613759 -0.015932888
000080 72 83 2e bf e1 a3 83 bd da c9 c5 be 94 6c 71 3b
       -0.6816932 -0.06427742 -0.38630563 0.00368384
000090 f0 8a bb 39 57 70 38 3f ed bc 9e 3a a9 1d 28 bf
       0.00035770936 0.72046417 0.0012110748 -0.6567026
0000a0 1d 41 53 3f 6a 3c 91 3f df 10 47 3f 78 c3 d3 be
       0.8252123 1.1346562 0.7776012 -0.41360068
0000b0 74 18 6b bf 83 b9 74 be e6 e0 89 3e 79 f9 e0 be
       -0.9183419 -0.23898892 0.26929396 -0.43940333
0000c0 7c e7 74 bf 6a c4 24 be a0 3e 8a be f1 ce 05 3b
       -0.9566572 -0.16090551 -0.27000904 0.0020417536
0000d0 c1 e9 29 3d 39 7a b2 3a 5f 19 4a bf 51 00 35 bf
       0.04148269 0.0013616747 -0.78944963 -0.7070361
0000e0 dd 4a c7 3d 5b 58 15 3e eb 38 ac 3e 28 2b 6b bf
       0.09731076 0.14584486 0.33637175 -0.91862726

weight f4 [60, 60]
000000 e5 b6 66 3c 44 50 d1 3b 49 44 55 3c 41 91 84 bd
       0.014081691 0.0063877422 0.013016769 -0.064730175
000010 dc a3 b6 3b 36 25 d0 3e 7e 82 b9 3d dd b4 69 bd
       0.005573733 0.4065339 0.090580925 -0.05705725
000020 7b b1 d2 3d 65 7e a5 3a 58 71 b5 bc 7d 61 f3 ba
       0.10287758 0.001262617 -0.022148773 -0.0018568482
000030 3d 1a ad be bb 7f b7 bc 18 73 be bd 35 ee 82 3a
       -0.3380908 -0.022399774 -0.09299296 0.0009989204
000040 39 33 77 bd fa 1c 84 be a7 2f 13 3e b9 5c 09 bd
       -0.060351584 -0.25803357 0.14373647 -0.033535693
000050 e1 31 10 3d bc 6c 5a 3e 22 63 71 be 6c f1 c9 3c
       0.03520382 0.21330541 -0.23572972 0.024651252
000060 20 28 75 3c 48 de 88 3e 34 52 db 3c 3f 07 87 bb
       0.01496318 0.26732087 0.026772596 -0.004120737
000070 17 f5 4f bf 10 2b 2c be 9f 21 25 3c 77 53 72 bd
       -0.8123335 -0.16813302 0.010078817 -0.05916163
000080 27 52 57 3d ac ac c6 3c 76 8f 4d be 23 40 97 bc
       0.05256858 0.024252258 -0.20074257 -0.0184632
000090 88 17 97 3a 9f 9e d8 bb 7e 95 ae bc 15 ba 29 3d
       0.0011527399 -0.006610706 -0.021311518 0.041437227
0000a0 aa 7c e8 bd b9 53 87 3e cd 51 79 bc a5 aa 40 bd
       -0.11351903 0.26431063 -0.015217257 -0.04703774
0000b0 df ff 82 bd 2d 95 d4 bd 1a 19 97 be e7 7c 41 3e
       -0.0639646 -0.103800155 -0.29511338 0.18895303
0000c0 9d 7d 37 bd 8f 0c 7c bd 2c ea b7 bd eb 8a 1b bc
       -0.04479753 -0.061535414 -0.089802116 -0.00949357
0000d0 0f 80 bd 38 6a 1c af 3b 83 20 a0 be f5 df f3 3c
       9.036075e-05 0.0053439634 -0.31274804 0.029769877
0000e0 a9 f2 a1 be 61 f1 ac bd 35 04 19 3f e2 46 ef bd
       -0.31630448 -0.08444477 0.59772044 -0.11683442
0000f0 d9 1b b7 bb 88 55 94 bb 98 90 d7 bb 1e 71 1c be
       -0.0055880365 -0.0045267977 -0.006578516 -0.15277526
000100 d9 45 53 3c e8 9f 5c bd 51 25 5f 3d ce f1 70 be
       0.012895071 -0.053863436 0.054478947 -0.23529741
000110 a3 8d 5c 3e cd 0c b1 3e 67 12 8d be e9 09 c0 bb
       0.21538405 0.3458008 -0.27553102 -0.0058605564
000120 74 95 42 3e ac 71 9d 3e 6d dc f5 3e 05 e4 fe ba
       0.19002324 0.30750787 0.48019734 -0.0019446617
000130 62 52 b3 bd e6 7e 2d 3e 4d a3 b4 bd eb 08 c5 be
       -0.08755948 0.16942939 -0.0882021 -0.38483366
000140 d7 88 73 bb 34 f1 30 3d 07 51 db 3e 8f 40 89 ba
       -0.003716042 0.04319878 0.42835256 -0.001047151
000150 6a 15 93 bc 51 29 7e 3d 08 66 0a 3b e9 13 65 3b
       -0.017954547 0.06205112 0.0021117944 0.0034954494
000160 39 40 2f bf 1a 48 d4 3d 5e 59 2b 3c 54 90 14 3f
       -0.6845737 0.10365315 0.0104583185 0.5803273
000170 2d 60 7b 3e f6 21 a3 bc 0c ee 8c 3e 5e 7a 58 3b
       0.24548407 -0.019913655 0.27525365 0.003303192
000180 8d c0 49 3c a1 17 a9 be 11 cf df ba dc e0 79 3e
       0.012313974 -0.3302584 -0.001707526 0.24402183
000190 9e cb f4 be 55 5c 1e bc 71 bb b9 be 9b a4 08 be
       -0.47811598 -0.009665568 -0.3627582 -0.13344042
0001a0 d7 52 f1 3e 84 f9 55 3e 17 76 02 3f 8e 46 5a be
       0.47133514 0.20895964 0.5096144 -0.21315977
0001b0 c6 ea 16 be 8a 4e 0e 3e 13 a7 79 3e b8 4f 0b 3c
       -0.14737996 0.13897148 0.2438014 0.008502893
0001c0 ba 28 4c 3b c8 08 31 3c 49 03 10 3e 4d 06 98 3e
       0.0031152205 0.010805316 0.14063753 0.29692307
0001d0 4f 59 3f 3d 5b bb d3 bb df 18 b6 be 33 d2 ba 3e
       0.04671603 -0.0064615435 -0.3556585 0.36488494
0001e0 bb e8 68 3a 97 94 15 3c 0c 33 6a 3a 70 84 b9 3a
       0.0008884777 0.009129665 0.0008933998 0.0014153849
0001f0 6b af 50 3c ce 61 7f 3f b2 ff c1 3e 8a 47 9f 3e
       0.012737135 0.99758613 0.37890393 0.31109267
000200 8e 30 98 3e f9 16 ca 3c 95 e9 c7 be a9 d7 c2 bb
       0.29724544 0.024669157 -0.39045396 -0.005946119
000210 9d 92 04 bf d3 58 71 3d 72 dd 20 be a2 23 dc ba
       -0.51786214 0.0589226 -0.15709475 -0.0016795287
000220 23 78 ea bc ec a3 10 bf 66 60 98 3e 3a be 7a 3e
       -0.028621739 -0.56500125 0.29761046 0.24486628
000230 e0 a2 a7 3c cf 05 27 3f 91 ab 93 be de 54 db 3b
       0.020463407 0.6524324 -0.28841832 0.0066934666
000240 ac 02 dd bc 4d 8f 05 3f ff 29 ef 3c 33 10 7b 3b
       -0.026978813 0.52171785 0.02919483 0.0038309216
000250 ba 2f b7 bf 23 d7 5c be a1 35 91 3c 22 6f 37 3b
       -1.431144 -0.21566443 0.017725768 0.0027989824
000260 3f cf 9d be 01 23 d6 bc 07 78 60 be 7c 92 8e bb
       -0.3082218 -0.026139738 -0.21920787 -0.0043509584
000270 82 39 6c 3c 38 54 b4 bc 51 8f a4 ba 92 3e 3e 3c
       0.014418008 -0.022012815 -0.0012554919 0.011611598
000280 2b 2a 9b 3e d9 10 44 3f ee af ad 3c 49 6a d3 be
       0.3030561 0.7658821 0.021202054 -0.41292027
000290 cf 3f ad bd 99 af a2 bd f9 8e 8c 3c 2f 9f 92 3e
       -0.08459436 -0.07943649 0.017158018 0.28637072
0002a0 e3 0b ca be 54 5b e4 bc fb 9f 71 bd 43 31 93 3b
       -0.39462194 -0.02787558 -0.05899046 0.0044919564
0002b0 af 1d a9 3c b9 05 94 3c f3 78 12 bf e6 c9 1d 3b
       0.020644037 0.018069135 -0.57215804 0.002407664
0002c0 2f 14 0a bf fa 20 b5 3d 50 63 40 3f b8 52 fa bc
       -0.5393705 0.088441804 0.7515154 -0.030557021
0002d0 e6 6b d2 3c c2 91 5d 3c 7f 42 db 3c 9c 1b 0c be
       0.025686216 0.013523521 0.026765106 -0.13682407
0002e0 17 a3 9a bc 10 27 52 3e 19 49 8c 3d 80 38 9c bd
       -0.018876595 0.20522714 0.0684988 -0.07627964
0002f0 56 2f 08 3e cd 52 d6 3d a3 9a 85 be 0c cb de 3a
       0.13299307 0.10465012 -0.2609454 0.0016997769
000300 d6 eb 45 be c2 44 ae 3d 80 a5 25 3d 2c 63 01 3c
       -0.19328246 0.08509208 0.040441036 0.00789718
000310 b8 44 de bd 8d f8 41 be a1 28 84 3b ea 9c 4c be
       -0.10852951 -0.18942471 0.0040331637 -0.19981733
000320 9a 6c a0 3c 53 cd a5 3e 1a d3 b6 bd 65 ff 9f 3c
       0.019583035 0.32383212 -0.08926983 0.019530961
000330 24 2b aa 3c 65 0c ab bd 03 a1 b3 3b 92 38 02 bc
       0.020772524 -0.083519734 0.0054818406 -0.007948058
000340 f0 12 63 3d bd 23 d0 3d cc bf 5b bc b3 38 6e 3e
       0.055437982 0.101630665 -0.013412427 0.23263817
000350 a3 c3 9d 3d ff fb 93 3c 23 82 f4 bc 84 b6 ca bc
       0.0770333 0.018064497 -0.02984721 -0.024745233
000360 d6 31 9b bb 48 28 e1 bd d3 d7 02 bc 48 31 04 3e
       -0.0047361655 -0.10994011 -0.007986027 0.12909424
000370 27 2e 1f be 23 14 d4 3e a9 cc 02 be 34 c2 46 be
       -0.1554495 0.41421613 -0.12773384 -0.1941002
000380 e1 1e 94 3d e5 4b 50 3c 81 7b 0b bd 17 7d 22 bd
       0.07232452 0.012713407 -0.03405333 -0.039670076
000390 0b 6d 89 be 21 a9 df 3c 0d d0 2c 3c c1 b2 c8 bc
       -0.26841006 0.027302327 0.01054765 -0.024499299
0003a0 44 6e 62 bc 05 e8 72 bc 04 7d 4b be 4b c8 02 3e
       -0.013820235 -0.014825826 -0.19871908 0.12771718
0003b0 02 2c 9e 3d 69 26 a2 3c 10 1b 15 bd 38 04 01 3e
       0.077232376 0.019793706 -0.036402762 0.12599266
0003c0 7e 07 f5 bc 44 f9 c4 bc 49 59 e2 bc db 4b 7e 3e
       -0.0299108 -0.02404464 -0.027630465 0.24833624
0003d0 1c 87 bc 3a 07 f7 94 bd 39 76 0d 3e ea 1c ba 3e
       0.0014383527 -0.07273679 0.1381463 0.36350185
0003e0 45 6f 74 bd 71 a0 00 bf fc f4 a1 bc ee 6e 01 3c
       -0.059676427 -0.50244814 -0.019770138 0.007899983
0003f0 16 75 cc bd 91 c6 d1 be 2f 7a 36 bf 5c 9b 02 bc
       -0.0998327 -0.40971807 -0.7128019 -0.007971611

bias f4 [60]
000000 0d 73 06 3e cc 4d d7 3e 36 e9 3c 3e 0f be a9 3e
       0.13129826 0.42051542 0.18448338 0.33152816
000010 28 48 8f 3c 2d 26 8d bb 3f 59 89 ba d0 29 f1 3b
       0.017490461 -0.0043075294 -0.0010478868 0.0073597208
000020 6d 81 f1 3e 43 cd cc be 15 c4 4f 3e c1 b5 ec bd
       0.47169057 -0.40000352 0.20289643 -0.11558104
000030 e2 7c 18 be d2 4a fc 3a 38 55 f7 3e 0a b4 aa bd
       -0.14891389 0.0019248372 0.48307204 -0.08335121
000040 27 cf 87 ba c9 48 76 bb c1 31 68 ba 58 a3 83 3a
       -0.0010361419 -0.0037580004 -0.00088575116 0.0010043187
000050 e3 bf 1d bc 13 9b 6e 3b 60 86 4d 3d 4d c4 ad bb
       -0.009628269 0.003640835 0.050176978 -0.005302942
000060 22 fc 03 3c f5 3c 3b be fc 4c 41 ba 3a 3d 07 3c
       0.008055719 -0.18284972 -0.0007373837 0.008254344
000070 39 71 ee bb 12 8e f5 3a 65 6b 3f 3b b5 98 ee be
       -0.007276681 0.0018734357 0.00292083 -0.4660088
000080 04 31 ad 3e 41 57 6b 3b 67 10 24 be 05 ec 99 3c
       0.33826458 0.0035910162 -0.16021882 0.0187893
000090 fd 86 a9 ba 89 7a e4 3d 5f 61 ba be 12 17 ea 3c
       -0.0012933906 0.11156184 -0.36402413 0.028575454
0000a0 0c 0f a8 3d 36 7b 86 bb 1d ac 45 3e 06 3d 23 bb
       0.08205995 -0.0041040434 0.19303937 -0.00249082
0000b0 cb 12 d4 ba e6 ba a2 be e5 52 b3 ba a6 fc 99 3e
       -0.0016179917 -0.31783217 -0.0013681321 0.30075568
0000c0 83 8c 48 3a e1 a0 03 bf 57 85 38 3e 13 82 85 3b
       0.00076503324 -0.51417357 0.18019615 0.004074344
0000d0 6f 84 1f 3c a3 14 37 39 36 d6 3d be fd 83 9b bc
       0.0097361645 0.00017459928 -0.18538746 -0.018983835
0000e0 f4 84 0f bc 7a 79 45 bb 2f 76 6c be a7 4a d7 3e
       -0.008759726 -0.003013222 -0.23091958 0.42049143

weight f4 [60, 60]
000000 d6 b7 29 3d b3 5a 08 3e db 6e a3 be c2 35 6f 3c
       0.041435085 0.13315849 -0.31920514 0.014600219
000010 17 af 62 bd 0f 7e 47 bb b3 ef d3 bb a7 58 ff 3a
       -0.05534276 -0.0030440127 -0.0064677834 0.0019481377
000020 f7 ec fc 3e 55 c3 93 be a1 e8 01 3d f4 cf 17 3e
       0.4939954 -0.28859964 0.031715993 0.14825422
000030 86 2f 98 be cd d9 9f 3b a2 23 1f bd ef 7e d3 bc
       -0.29723758 0.004878259 -0.03885234 -0.025817363
000040 df f3 0c 3f 93 6b 8f bb b9 57 05 3b 8e a2 cf 3b
       0.5505962 -0.0043768375 0.0020346476 0.0063365167
000050 53 48 b7 bb a0 35 e9 3b 58 22 2d 3e 01 84 23 bb
       -0.0055933385 0.0071169883 0.16907632 -0.0024950507
000060 5f f3 00 3c 4a 2c 29 3f 55 3c 90 bb 36 87 da 3b
       0.007870524 0.66083205 -0.0044017234 0.0066689504
000070 ab 8b 40 bb 01 0b 7e 3b 0d 2b d8 3b b1 f5 95 be
       -0.0029380124 0.0038763883 0.006596929 -0.2928901
000080 42 19 d2 3d f3 b7 33 3c 3f 4f d6 bc 23 98 db be
       0.10258724 0.01096915 -0.026160834 -0.4288951
000090 d2 e1 49 bc 26 93 b6 3e ce 92 2b be 95 a3 bb bc
       -0.012321906 0.3565914 -0.1675522 -0.02290515
0000a0 ef 16 43 bd 73 b9 8d ba 06 86 45 3e f2 51 34 bb
       -0.047629293 -0.0010812714 0.19289407 -0.0027514664
0000b0 6a 9d bd bb 87 e3 f4 bc 79 18 f1 bb 1f 92 c8 3e
       -0.0057865875 -0.02989365 -0.0073576537 0.39173982
0000c0 40 60 f2 3b 37 c3 34 3e b7 6b b7 3e 37 36 e8 3b
       0.007396728 0.17652594 0.35824367 0.007086541
0000d0 52 7e 91 3b c7 b6 00 bb 30 96 9c 3e 40 eb 05 3e
       0.0044401074 -0.0019640194 0.30583334 0.13078022
0000e0 af 9f c7 bb d4 bd 7b 3a de 26 9e 3d f6 88 24 3e
       -0.006092034 0.0009603177 0.07722257 0.16067871
0000f0 4d 79 db 3c 39 22 62 3e 34 7d b1 be 52 2a 47 be
       0.02679124 0.22083367 -0.34665835 -0.19449738
000100 93 3d 5f be 61 fd fa bb 38 0c 7b bc 51 16 ee ba
       -0.21800832 -0.0076595997 -0.015322737 -0.001816461
000110 06 a4 e0 3d 7c 54 d9 bd ff ba bc 3e 67 ae 7c be
       0.10968785 -0.10611817 0.36861417 -0.24675904
000120 8c 6f 97 be 40 d9 7b 3c b3 07 5a 3e e7 a8 1a 3e
       -0.2957729 0.015371621 0.21292 0.15103494
000130 aa 88 72 be 56 69 47 bc 14 08 38 bc f4 88 91 3c
       -0.23684946 -0.01217111 -0.011232395 0.0177655
000140 77 36 90 3b da 81 2c bc f9 25 80 be fb 52 0c bc
       0.004401024 -0.010529006 -0.2502897 -0.008564706
000150 20 9e b4 bb 1d f9 0c 3f d5 04 80 bc 7f f7 29 bc
       -0.005512014 0.55067617 -0.015627304 -0.010373949
000160 f1 16 29 bb a4 08 6c 3c 4d 51 7a 3c 17 bf 0d bc
       -0.0025801028 0.014406357 0.015278173 -0.008651516
000170 2b 55 52 bc 12 8d 10 3c 4c 5b 68 3c 91 ef bc bd
       -0.012837688 0.008822696 0.014181923 -0.09225381
000180 3e 89 71 bc 9a 85 73 3e d6 e9 5a bf d4 52 3b 3e
       -0.014742194 0.23781434 -0.85513055 0.18293315
000190 e9 24 f1 3d 4f d2 17 bc 32 fd 27 bf bf 19 7b bc
       0.11774618 -0.00926645 -0.6562072 -0.015325963
0001a0 3f 17 92 bc e0 26 9f 3e fe 66 39 bc b3 3e 8d 3e
       -0.01783335 0.31084347 -0.011316059 0.27586898
0001b0 bc a1 8b 3c ef 11 cc 3e 8a a5 20 be 42 9e 13 bc
       0.017044894 0.39857432 -0.15688148 -0.0090099
0001c0 d4 d1 66 3c ad 34 09 bc ea f0 36 be f6 a7 5c 3d
       0.014088113 -0.008374375 -0.17865339 0.053871118
0001d0 86 02 03 3c 10 58 3b bc 39 3e 6c be ac 40 05 bd
       0.007996207 -0.01143457 -0.23070611 -0.03253238
0001e0 f7 0d aa bd 63 49 85 3c 3c 53 b2 3d 5e f6 f5 be
       -0.08303445 0.016270345 0.08707282 -0.48039526
0001f0 54 7b 92 bd b2 51 30 bb ab 45 84 3b c4 ae 83 3b
       -0.07152429 -0.0026904163 0.0040366254 0.0040186364
000200 1a 17 b1 3d 3f bf 3a 3f 82 10 1e 3d ff a2 20 bb
       0.086469844 0.7294807 0.03858996 -0.0024511216
000210 29 b7 02 be 5d d2 7a bb af 91 16 bd 41 b8 17 3e
       -0.12765183 -0.003827236 -0.03676003 0.14816381
000220 45 b8 15 3c 11 20 a3 3b 57 d6 99 3b e6 0f c8 bb
       0.009138172 0.004978188 0.0046947408 -0.006105411
000230 40 c7 8d bc 11 7f 31 3c 25 3f 29 bf 4e 46 2a b9
       -0.017306924 0.010833518 -0.66111976 -0.00016238654
000240 80 d4 40 3c 56 75 c7 be 1e d4 b4 3b b9 65 52 3c
       0.011769414 -0.38956708 0.0055184504 0.012841635
000250 e5 45 43 bc 44 5b ac bb ec 8d 3d bb 39 0e e1 bd
       -0.01191852 -0.005259903 -0.0028923703 -0.10989041
000260 d5 f0 25 3e f8 f3 08 bb e7 be 84 3c 62 13 76 3e
       0.16205151 -0.002089737 0.01620431 0.24030831
000270 62 a9 7e 3b 1a d7 1a 3f 67 64 9a be 30 08 b6 3e
       0.0038858284 0.6048447 -0.30154726 0.35553122
000280 c5 77 16 3e 1e 4a e9 39 7e 13 85 be c3 32 1a 3c
       0.14694126 0.00044496445 -0.25991434 0.009411517
000290 d7 76 0b 3c 90 c9 21 bd a1 dd 00 3a 30 46 09 3e
       0.00851222 -0.039498866 0.0004915838 0.1340568
0002a0 66 c0 39 bb 96 63 db 3e 73 06 07 3e bc 6e 25 3c
       -0.0028343438 0.42849416 0.13186054 0.010097202
0002b0 1d c9 58 bb 56 2d ae 3b 66 3b d7 3e e5 e0 84 be
       -0.0033078857 0.005315463 0.42037505 -0.2595283
0002c0 10 2f 30 bc e1 a6 f9 3a 03 97 db 3e 34 6e 93 3e
       -0.010753408 0.0019046926 0.4288865 0.28795016
0002d0 3b f6 c2 3a 6a 86 1b 3c 5b 0d 96 b9 fa 39 83 3b
       0.0014874408 0.009492496 -0.0002862018 0.004004714
0002e0 70 99 27 bb bd 18 1c bc 71 ee 86 bc 1a d9 07 bc
       -0.0025573634 -0.009527382 -0.01647112 -0.008291507
0002f0 03 53 2d bc ca 54 0b 3c f9 55 12 b9 35 7b 11 3a
       -0.010578874 0.008504102 -0.00013955672 0.00055496703
000300 43 67 ed 3b f2 a4 79 3c 50 4a 5d bc 3c ba 59 3c
       0.007244976 0.01523708 -0.013506487 0.013289031
000310 4a 38 5b bb 04 cd 5d bc 5b 3b 41 bc 69 e8 a5 3c
       -0.00334503 -0.013537649 -0.011793937 0.020252423
000320 da 55 09 3d 0b cf 8b bc 48 84 81 bb 87 30 14 bc
       0.03352914 -0.0170665 -0.0039525367 -0.009044773
000330 0d 11 c3 bc c0 f3 cf bc 5f fc 88 bc d2 51 a2 bc
       -0.023811841 -0.025384784 -0.016721902 -0.019814406
000340 99 1d 26 bb 91 09 68 3c ee 8c 81 3c f6 51 c2 3b
       -0.0025347231 0.014162437 0.01581427 0.0059301807
000350 08 dd f0 39 58 11 3c 3c 76 42 3f bc 49 69 4b 3b
       0.00045941048 0.011478744 -0.01167356 0.0031038097
000360 8e 58 9e bc f9 73 1e 3c 47 3d 1c bb 90 e0 4e 3b
       -0.019329336 0.009671205 -0.0023840235 0.0031566955
000370 d8 fb ba 3a 2e 18 1a 3b 28 64 60 bc fc 03 9c bc
       0.0014265729 0.0023512947 -0.013695754 -0.019044869
000380 c6 9b cf bc 8e 5c e7 b9 e8 9d 6c bc 6e 25 5f 3c
       -0.025342833 -0.00044128712 -0.014441945 0.013619764
000390 84 30 96 3c 74 72 75 bb ca c3 27 bc af 90 80 bc
       0.01833368 -0.0037452253 -0.010239551 -0.01569399
0003a0 98 9f 2e 3c 3c de 5d bc ca 3b 62 3b d5 2c 98 bc
       0.010658167 -0.013541754 0.00345205 -0.018576065
0003b0 69 dd a1 3c 80 44 20 bc 0b 33 38 ba d0 c6 58 ba
       0.019758897 -0.009781957 -0.0007026649 -0.00082693715
0003c0 7c 1c 28 bc d9 af 81 bd c1 0c e9 3e 56 cd 3f bc
       -0.010260697 -0.063323684 0.45517543 -0.011706671
0003d0 59 88 dc 3d f1 8a 23 ba 3b 6e cd 3a db 45 e7 3a
       0.10768194 -0.00062386604 0.001567311 0.001764472
0003e0 f2 6d 22 be a7 78 3d 3e 7f a6 ce bc d2 e5 a9 bc
       -0.15862253 0.18503056 -0.025225876 -0.02073947
0003f0 09 0a df 3d e9 26 11 ba 63 0f ec bd 5e 41 dc be
       0.10890586 -0.0005537109 -0.11526372 -0.4301862

bias f4 [60]
000000 f1 b8 2c 3e 83 aa cd 3e 2b 77 3c 3f 59 3c 91 ba
       0.16867425 0.40169153 0.73619336 -0.0011080607
000010 d1 b6 ba be c7 cf e8 3e 91 f3 03 3f e7 4f b0 3e
       -0.36467603 0.45471022 0.5154353 0.3443596
000020 00 23 b4 3e 6c 30 f1 b9 c2 5a ff 3e 9e 24 6a 3e
       0.35182953 -0.0004600318 0.4987393 0.22865531
000030 5c bf 11 bf 8a a1 04 ba 6a fc b9 be 9f e7 c0 be
       -0.56932616 -0.00050594716 -0.3632539 -0.37676713
000040 82 80 bf 3e 1c 3e 96 be 8f de 9f 3e b0 4b 8c be
       0.3740273 -0.2934426 0.31224486 -0.27401495
000050 50 08 8a 3d b2 7c 1a bf f2 64 c3 be 3e 97 62 be
       0.06739867 -0.6034652 -0.38162953 -0.22128007
000060 7f 24 66 3a 97 b7 f6 bd 90 1a e8 be 46 19 06 3f
       0.0008779242 -0.12046736 -0.45332766 0.52382314
000070 20 86 a3 3e 56 5e 09 3e 08 90 bd 3b 6f a3 d6 be
       0.31938267 0.13414893 0.005784992 -0.41921565
000080 e0 13 65 3e a0 35 b5 ba eb 88 5b be 57 35 99 bc
       0.22370863 -0.0013825186 -0.21438949 -0.018702192
000090 00 cd 23 be d0 18 94 bc 69 0e 04 3f a8 bd 63 bd
       -0.1599617 -0.018078238 0.5158449 -0.055600792
0000a0 a0 18 fc 3e 5b 70 d6 be 9d 79 9e 3c dc 0e 11 bf
       0.49237537 -0.41882595 0.0193451 -0.566633
0000b0 3f 14 ee be b1 e8 3d 3e a4 98 fd 3e 07 e9 1b bf
       -0.46499822 0.18545796 0.49530518 -0.60902447
0000c0 93 21 8f be a5 fe 48 3f e4 1d 92 3a 38 fc c1 be
       -0.27955303 0.78513557 0.0011147824 -0.3788774
0000d0 5b 33 aa be c6 73 14 3f ce 7d 10 3e 90 9d c4 3d
       -0.33242306 0.57989156 0.1411049 0.09600365
0000e0 7c 81 0b bf 12 66 a0 be 78 21 04 bf 61 3f 27 3b
       -0.5449445 -0.31327873 -0.5161357 0.0025519955

weight f4 [60, 60]
000000 b7 d6 cf bc 47 a3 12 3d 00 ee b0 3e 8e ed 93 bc
       -0.025370939 0.035800245 0.3455658 -0.01805761
000010 b7 51 22 be c5 e4 5a 3e 5a 64 3d 3e e8 a5 a7 3d
       -0.15851484 0.21376331 0.18495312 0.08185941
000020 10 d3 4b 3d 0b fc 4a bc 68 b3 95 3d 0c dd 1f bc
       0.04976183 -0.012389193 0.0730961 -0.0097572915
000030 3f a0 d3 bd 13 45 e2 bb 48 fe c7 bd 9f b6 49 be
       -0.10333299 -0.006905207 -0.09765297 -0.1969857
000040 0a e1 ac 3d f8 95 e4 bc 8a 7f d7 3e 71 82 23 be
       0.0844136 -0.027903542 0.42089492 -0.15967728
000050 b2 32 e0 bb 2e d1 52 be 57 a3 3a be ee 8c 74 bd
       -0.006841981 -0.20587608 -0.18226372 -0.059704714
000060 32 13 27 39 ae e5 94 bd 3f 1e 6c be 71 73 14 3e
       0.00015933512 -0.072703704 -0.23058413 0.14497162
000070 6c 9a e0 3e 49 01 e9 3e 21 c1 b2 3b cc f4 ee be
       0.43867815 0.45508793 0.0054551517 -0.4667114
000080 d2 58 61 be 4b 5c 93 bb 34 ba 77 bd d9 25 1c 3c
       -0.22006539 -0.004497086 -0.06048031 0.009530508
000090 3b bd 96 ba cb 6c ad be 0a 5c b8 3e 1c 18 7a 3d
       -0.0011500487 -0.33872065 0.3600772 0.06105815
0000a0 e0 7f 52 3e e3 05 cb be bc 62 4d bd 8f a3 ae 3d
       0.20556593 -0.3965293 -0.05014299 0.0852729
0000b0 0a 92 09 bf 12 10 92 3c 49 92 7f bd a3 1f 18 bd
       -0.5373846 0.017829929 -0.062395368 -0.037139546
0000c0 88 da 2b be 06 49 55 bd 0a 99 8c 3b 7d 6d ba bd
       -0.16782582 -0.052071594 0.0042907046 -0.091029145
0000d0 9f ff c8 be 8a 25 da 3d 61 5e 94 3d e1 93 61 bc
       -0.39257523 0.10651691 0.07244564 -0.013768167
0000e0 96 ef 08 bf 7f e5 55 be 28 08 1c 3e 9f f2 13 3c
       -0.5349058 -0.20888327 0.15237486 0.009030013
0000f0 cf 9c 38 bb 6c cf 1a b9 32 2b fd 3a e6 07 6d ba
       -0.0028169637 -0.00014763855 0.0019315241 -0.00090420095
000100 52 c7 dc ba d7 2f 87 ba 13 7f 12 3b 8c a4 84 3a
       -0.001684407 -0.001031394 0.0022353574 0.001011984
000110 f9 92 d3 3b 65 c8 3f bb 04 9f 8a ba f6 6d 37 3b
       0.0064567295 -0.0029263732 -0.0010575955 0.0027989126
000120 a4 07 b5 3a fd cc 58 bb 7c ec 1d bb a6 6c 9a ba
       0.0013811481 -0.0033081167 -0.0024097254 -0.0011781647
000130 33 e9 21 bb 0c ae b5 3a ec c1 c7 b9 80 4d 29 bb
       -0.0024705648 0.0013861074 -0.0003810072 -0.0025833547
000140 95 b2 4a 3a c3 54 71 ba 5d 33 cc ba f3 dd 4b bb
       0.0007732299 -0.0009206051 -0.0015579272 -0.0031107634
000150 37 b3 55 bb f4 3e a8 3a aa 7c 04 bb d8 27 0d 3a
       -0.003260804 0.0012836144 -0.0020215907 0.00053846603
000160 b3 8f 98 ba 6a 4f 5e bb 87 4c eb 3b b5 21 fc 3b
       -0.0011639505 -0.0033921846 0.0071807536 0.007694448
000170 5b 19 96 bb 5a e8 0a bb b0 0f 25 3b 9d fd b2 3b
       -0.0045806593 -0.0021195621 0.0025186352 0.005462362
000180 11 02 a6 3b b6 f3 28 3a 54 56 89 ba 72 46 1e 3b
       0.0050661643 0.0006445007 -0.0010477998 0.0024150875
000190 ef 9f 1d 3b 81 bd 36 bb 45 48 32 3b b3 dc a6 ba
       0.0024051627 -0.002788395 0.002720372 -0.0012730568
0001a0 ea e2 14 bb 64 dd 74 bb 7c 2f 97 3b a3 71 35 bb
       -0.002271826 -0.0037363404 0.004613815 -0.002768614
0001b0 19 df ac 3b 7b 1d 14 bb 18 b8 9d 3b c6 a2 d4 bb
       0.0052756188 -0.002260058 0.0048132055 -0.0064891307
0001c0 b6 c3 33 ba 83 c5 b9 ba 5a 5d 6b bb eb 3e 7c bb
       -0.00068574713 -0.0014173243 -0.0035913796 -0.003848965
0001d0 1e e6 23 bb a3 c3 2d bb d2 57 e1 3a 26 14 3f 3b
       -0.0025008987 -0.0026514314 0.001719231 0.0029156297
0001e0 d8 66 17 3e ec 8a cd bd db 32 65 3e 60 87 8e 3b
       0.14785326 -0.10036263 0.22382681 0.004349634
0001f0 7c e6 b7 3d 57 07 fc bc 73 eb 7d 3e 76 be 8c bd
       0.08979508 -0.030765219 0.24796848 -0.06872265
000200 39 b1 98 bd 8a bc c6 3b a2 30 0d 3e f7 7b 60 be
       -0.074556775 0.006064956 0.13788083 -0.21922289
000210 17 1e 39 be 64 af ea 39 54 a9 8e 3e 4b 44 89 be
       -0.18077885 0.00044762634 0.27863562 -0.26809916
000220 08 45 c1 bd 2d a5 56 3d 32 ea f8 3d ec 89 6e 3d
       -0.09436995 0.052403618 0.12154044 0.058237
000230 d6 e4 39 3f 5b 4d b6 3e d1 5a 04 bc eb bb 07 3e
       0.726148 0.35605893 -0.008078293 0.13255279
000240 67 86 aa bb cc 3a 52 bf a9 65 ab bd 52 38 cc bd
       -0.0052040103 -0.82120967 -0.083689995 -0.0997168
000250 a9 61 15 bd f9 b1 72 3e dc bd 32 bc 74 aa 96 bd
       -0.03647009 0.23700704 -0.010909524 -0.0735673
000260 9c 3b 01 3f 8e 40 9a b9 b0 74 0b 3d d5 ad e3 bb
       0.5048158 -0.00029421266 0.03404683 -0.0069482126
000270 3b 66 2d 3c ba 4d 49 be dd f9 28 3e d7 71 fc 3e
       0.010583456 -0.19658557 0.16501565 0.49305603
000280 79 28 0b 3e 20 10 48 3d c6 e3 ba 3e 53 f2 f4 3d
       0.13589658 0.048843503 0.36501902 0.11960282
000290 5c 77 71 bf 32 3d 3e 3e a3 bf a8 3c 45 a0 ea bd
       -0.9432275 0.18578032 0.020599192 -0.1145635
0002a0 a4 ca 26 3e 5e 2b 37 3f 90 5a 3d bc 49 61 02 3d
       0.16288239 0.7155055 -0.011557236 0.03183106
0002b0 ff f3 52 bd dc ca 3b 3e 72 57 07 bf c7 ef 28 bc
       -0.051502224 0.18339103 -0.52867806 -0.010311074
0002c0 9d 85 ff 3b 7d 13 73 be ec 62 7c 3a 15 e0 2b bb
       0.0077979104 -0.23737903 0.00096277776 -0.0026226093
0002d0 df 3c 97 bd 97 95 c6 be bd 94 11 bf 0f 46 14 bd
       -0.07384657 -0.38786003 -0.5686758 -0.036199626
0002e0 25 4a 73 3e 4b 91 87 be 1a cd d0 bd e6 38 33 be
       0.23758753 -0.26478037 -0.1019537 -0.17502174
0002f0 85 22 40 bf d5 1e 10 bd 85 e8 6b be 50 3c 4c be
       -0.7505267 -0.035185654 -0.23037918 -0.19944882
000300 b2 69 83 3e d6 16 f2 bc a4 00 48 3f e2 48 6c 3e
       0.25666577 -0.029551905 0.7812598 0.23074678
000310 b4 70 59 be 40 a7 ae 3d b3 48 af bd 39 a1 03 3f
       -0.21234399 0.08527994 -0.08558788 0.5141788
000320 3e 7f 8e be fa 45 76 3f 38 db 8e 3e 12 55 9a 3e
       -0.27831453 0.96200526 0.27901626 0.30143028
000330 12 80 b6 bc a0 26 94 3e 35 d9 b5 3e d4 61 93 be
       -0.022277866 0.2893572 0.35517278 -0.28785574
000340 40 fa 82 bd 2c c6 25 bf 0e c6 4f 3c b0 1e b3 3e
       -0.06395388 -0.6475551 0.012681497 0.3498435
000350 90 66 25 bf e9 31 75 bc 59 5e 84 bd 93 66 e9 3c
       -0.6460962 -0.014965513 -0.06463308 0.028491294
000360 c3 dd 51 bd cc da 55 3e ca 51 12 bf f2 65 13 be
       -0.05123688 0.20884246 -0.5715605 -0.14394358
000370 8d 71 6a be ef 6e 6a 3e 67 50 5e bb 7d 72 d9 3d
       -0.22894879 0.2289388 -0.0033922435 0.1061754
000380 a2 80 68 3e 78 09 05 bf 50 66 6f be ff 44 97 be
       0.2270532 -0.51967573 -0.23378873 -0.29544827
000390 13 2f 03 3e f0 9a eb be 39 7b 55 3c 6d d2 c7 3e
       0.12810926 -0.46016645 0.013029867 0.3902773
0003a0 38 30 20 3d f9 f5 83 be ea c6 a1 bc 62 84 e2 3c
       0.039108485 -0.257736 -0.01974817 0.027651016
0003b0 5c 4b a9 3e ec ab ab 3b 96 98 08 3f 81 15 e2 3c
       0.33065307 0.0052390005 0.5335783 0.027598144
0003c0 b6 78 d2 38 b3 b6 4f bb 46 33 4f ba d1 cc 82 3a
       0.000100360645 -0.003169459 -0.00079040637 0.0009979253
0003d0 66 65 8f 3b 7b 9b 01 bb 17 71 77 bb 1e a5 71 bb
       0.0043761013 -0.0019776511 -0.0037756616 -0.00368721
0003e0 af 80 7f bb d9 99 32 3b f7 f2 77 3a 60 aa 4a ba
       -0.0038986614 0.0027252345 0.0009458507 -0.00077310763
0003f0 87 a0 6c ba 06 e8 1b 3b 82 c7 5b 3a 68 52 44 3b
       -0.0009026606 0.002378942 0.0008383916 0.0029956345

bias f4 [60]
000000 81 24 fe 3e 3a 2b 29 bb 63 c4 1a 3f e3 7b 42 bf
       0.49637225 -0.0025813119 0.6045591 -0.75970286
000010 26 da 31 37 0f 2d 9d 3e 70 d1 a6 3e 10 d8 92 be
       1.0600814e-05 0.3069844 0.32581663 -0.28680468
000020 b6 a2 fb 3a b5 16 ff bc 06 1b a2 3e f3 3d 0e bb
       0.0019198272 -0.031138757 0.31661242 -0.0021704405
000030 95 2e 2d be a3 c6 ce 3e c8 34 c4 be e8 4b a5 3e
       -0.16912301 0.40385923 -0.3832152 0.32284474
000040 a9 1e 82 3e 82 ab de be 87 99 22 bb 1d d2 c3 be
       0.25414017 -0.43490225 -0.0024810748 -0.3824624
000050 9f 6b d3 be ad 4f d8 ba 0d b0 3a be 0e 56 98 3e
       -0.41293046 -0.0016503237 -0.1823122 0.29753155
000060 4d 4c 26 3b 86 dc 40 3a 43 52 cc be 0f 44 56 be
       0.0025375069 0.00073570793 -0.3990651 -0.209244
000070 72 66 c2 be 5c 7b 84 3e 0c 9c d8 3e 78 b5 d7 3e
       -0.37968785 0.25875366 0.42306554 0.42130637
000080 cc a5 8a be 5c df b0 be 17 1b a2 3e d6 5d a1 be
       -0.27079618 -0.3454541 0.31661293 -0.31516904
000090 d5 06 92 3e 30 b2 c5 be 20 ca 8c 3e 13 5b c1 be
       0.28520837 -0.3861251 0.2749796 -0.37764797
0000a0 f0 f1 bb 3d bb fe b7 be 5c 07 8c be d6 25 c8 be
       0.09177005 -0.3593653 -0.27349365 -0.39091367
0000b0 7a cb 44 bb 6d 45 8d bb e3 f4 3f bf 75 1a bc 3e
       -0.0030028508 -0.0043112547 -0.7498304 0.36738935
0000c0 81 8e 90 3e 62 e6 82 3a a6 49 91 be 79 f8 5f bb
       0.28233722 0.0009986872 -0.28376502 -0.00341752
0000d0 a6 d2 5e be 52 58 7a bb 9c dc f9 3c a1 02 20 3e
       -0.21760044 -0.0038199616 0.030500703 0.15626003
0000e0 47 60 cc be 4f bc 63 bb e1 39 8c 3e f9 8a a7 3e
       -0.39917204 -0.0034749692 0.27387908 0.32723215

weight f4 [60, 60]
000000 87 46 fc 3c 60 c5 eb 3a d9 4b 55 3d 44 40 96 be
       0.030795349 0.00179879 0.052074287 -0.29345906
000010 7f bb 17 3a 04 1d 02 be 95 58 24 bc 1b e3 32 3d
       0.0005788132 -0.12706381 -0.010030885 0.043673616
000020 7e ff 95 39 71 99 8d bc 84 23 3a bc c1 34 51 bc
       0.0002860985 -0.01728508 -0.011361007 -0.012768925
000030 1e 03 ff 3e b8 01 30 bf 0e f2 f4 3c e1 fb 74 3d
       0.49807066 -0.6875262 0.029900577 0.059810523
000040 4c e3 7d 3b f4 fb fb 3d be 9f 2c 3c 40 e4 09 3d
       0.0038740216 0.123039156 0.010536132 0.03366494
000050 16 5e f4 bd 57 b3 76 ba c1 9c 9c bd 95 15 a2 bb
       -0.11932008 -0.0009410879 -0.07647086 -0.0049464204
000060 23 71 56 bc d1 d1 66 bb f7 9c 2f 3d 23 64 27 3c
       -0.013088497 -0.0035220275 0.042874303 0.010216746
000070 e2 65 1a 3e 10 68 4c 3b 3b e3 0a 3d ce 20 7a 3e
       0.15077928 0.0031189956 0.03390811 0.24426576
000080 89 d3 88 3e f9 07 8d 3e 0c 4a 1d bc e0 36 ee 3d
       0.2672389 0.27545145 -0.009600174 0.1163156
000090 d3 71 3a be 27 5e 8f 3e a3 89 f5 bc f3 dc e6 bd
       -0.18207483 0.2800152 -0.029972857 -0.112726115
0000a0 8b 1b f4 bd 20 d9 ca 3c bf ff 6d 3e b3 21 08 3d
       -0.11919316 0.024761736 0.2324209 0.033235263
0000b0 bc bf 7b 3c b2 a8 ac 3c c6 13 3e be b8 42 59 be
       0.015365537 0.021076534 -0.1856223 -0.21216857
0000c0 e4 8c 67 3d 7c b1 80 bb 5d 97 4a bc e2 27 41 3c
       0.05653085 -0.003927408 -0.012365189 0.011789294
0000d0 e6 71 3e 3c 76 95 23 bb 27 ba 87 be 98 8e ad 3e
       0.011623835 -0.0024960912 -0.2650921 0.33897853
0000e0 0b b2 ef 3c bc b5 67 3c f0 de a2 b9 86 e5 45 bc
       0.029259702 0.01414245 -0.0003106515 -0.012078648
0000f0 f3 8e d1 bb 5e 56 14 ba 78 25 85 bd 42 13 b6 bd
       -0.0063952147 -0.00056586217 -0.06501287 -0.08890392
000100 56 c9 8c 3a 29 75 c9 3d 94 f6 6e bc 4f 66 47 3e
       0.0010741155 0.098368 -0.014585156 0.19472621
000110 80 f2 3f 37 6c 9c 4e 3b cc 8a a8 bd 79 5c 8c 3a
       1.1440949e-05 0.003152634 -0.082295984 0.0010708711
000120 ab 0b 3e 3e 64 42 36 be dc 32 db 3d 82 9a 14 bd
       0.18559138 -0.17798764 0.1070306 -0.036280163
000130 ad 57 76 bd e5 2e 12 3e 8a 67 00 39 8f de cc 3d
       -0.060142208 0.14275701 0.00012245603 0.10003387
000140 d8 3c 05 bd 9d 71 0f ba 4d 98 29 3e 8c 65 9c bd
       -0.03252873 -0.0005471947 0.16562004 -0.07636556
000150 ab 9c cb b9 37 19 23 ba a6 17 80 3d b0 cd 51 3d
       -0.00038835904 -0.0006221714 0.062545106 0.05122155
000160 2b e9 51 3e 00 8b 7d bd ce bf 61 bd 52 60 42 3d
       0.20499103 -0.06190014 -0.05511456 0.04745514
000170 5b 43 0d 3e 6d 9f b0 3d d4 83 ab bd 7c 73 a5 3d
       0.13795225 0.08624158 -0.083747536 0.080786675
000180 9b 71 c5 bd 58 06 45 3e 88 22 cf bc bc e5 41 bc
       -0.09640809 0.19240701 -0.02528502 -0.011834558
000190 4e 7e 80 bd e6 37 cb 3d d7 68 36 3e fb 47 e1 3d
       -0.06274091 0.09922771 0.1781343 0.11000057
0001a0 9c 12 8e ba 57 c8 f7 ba 6a 8f 15 bd 24 65 d8 bd
       -0.0010839286 -0.001890431 -0.036513723 -0.10566166
0001b0 2a d0 10 3b e0 f0 da b9 50 21 1a 3e 84 f3 6c 39
       0.0022096732 -0.00041759666 0.1505177 0.0002259743
0001c0 99 22 63 3d b9 ab 79 3a 75 b9 a6 3d 58 8f 09 3d
       0.055452917 0.0009524185 0.08140842 0.03358397
0001d0 f1 fd be 3d 28 7e 0b b9 84 b4 8a bd 27 a0 b3 bd
       0.09325779 -0.0001330307 -0.06772712 -0.08770781
0001e0 8c fd b5 3b 3d 62 16 3a 89 cc 84 3d b6 f7 b6 3d
       0.005553907 0.00057366845 0.064843245 0.08933966
0001f0 39 fb 8b ba d8 b0 cc bd f7 30 77 3c 6a 38 49 be
       -0.0010679729 -0.09994668 0.015087358 -0.19650427
000200 5f d9 25 b8 39 21 58 bb 75 97 a9 3d 5e 15 8b ba
       -3.9541508e-05 -0.0032978787 0.08280841 -0.0010611226
000210 b2 57 3f be 06 4e 37 3e 3c 90 dc bd e1 a4 15 3d
       -0.18685797 0.17900857 -0.10769698 0.036534194
000220 e8 32 78 3d 57 09 13 be e7 f3 fb b8 f1 07 ce bd
       0.060595423 -0.14359032 -0.00012014043 -0.100601085
000230 c7 90 05 3d c8 9e 0f 3a 25 47 2b be a9 7c 9d 3d
       0.032608774 0.00054786773 -0.16726358 0.07689793
000240 71 60 bb 39 b1 6f 25 3a 91 f8 80 bd 77 da 52 bd
       0.00035739274 0.0006310894 -0.0629741 -0.051477876
000250 0c 52 53 be 5d 78 7f 3d ce b4 63 3d 5d a3 45 bd
       -0.20636767 0.062370647 0.05559235 -0.0482515
000260 9f 2c 0e be 4a c0 b1 bd 79 b1 ac 3d c5 e2 a6 bd
       -0.13884209 -0.08679254 0.08432288 -0.081487216
000270 f3 a3 c5 3d a4 9c 46 be e4 48 d4 3c dd 27 3d 3c
       0.096504115 -0.19395691 0.025913663 0.011545149
000280 33 e2 81 3d f6 b2 cc bd 91 28 37 be e9 c5 e2 bd
       0.06341972 -0.099950716 -0.17886569 -0.110729046
000290 72 92 92 3a 0c e4 fb 3a 31 b1 14 3d 64 39 da 3d
       0.001118256 0.0019217744 0.036301795 0.10655478
0002a0 07 3c 2b bb 14 62 dd 39 29 3d 1b be 49 66 4a b9
       -0.0026128308 0.0004222548 -0.1516005 -0.00019302325
0002b0 ad 4e 64 bd 80 24 6f ba 86 1d a9 bd 6d 7e 0a bd
       -0.055739094 -0.00091225654 -0.08257584 -0.033811975
0002c0 0b 29 c0 bd 46 52 28 39 26 ae 8b 3d c7 d2 b4 3d
       -0.09382828 0.00016052378 0.068203256 0.08829265
0002d0 59 af 38 3e 26 84 90 38 ae f0 96 3e fa 23 98 be
       0.1803564 6.89107e-05 0.294805 -0.29714948
0002e0 c6 be 17 3a 95 84 2c 3e b0 f6 a4 3e 8d d7 be 3c
       0.00057886203 0.16847451 0.32219458 0.023296142
0002f0 00 42 65 b9 81 c2 20 bd 98 e8 25 3d c0 21 36 b9
       -0.00021863729 -0.039247993 0.04050502 -0.00017369445
000300 f1 7f 9d 3d b2 2f 10 bd 05 aa 51 bd d8 6c 6c 3e
       0.076904185 -0.035201736 -0.051187534 0.23088396
000310 a5 b9 98 3c 10 cd f9 bd 52 64 65 3a f2 16 83 bd
       0.01864321 -0.12197316 0.00087506056 -0.06400861
000320 0e e9 53 be 01 35 08 b5 d5 8d c3 bc 8b 17 02 3d
       -0.20694372 -5.074108e-07 -0.023871342 0.031760734
000330 0b 6e 9c ba 8a 63 b3 b8 84 d6 2e be 27 66 01 bc
       -0.0011934651 -8.553926e-05 -0.17074019 -0.00789789
000340 18 c9 03 bd 8e cd a3 3c b8 d7 5b 3e 46 2a 77 3e
       -0.0321742 0.019995477 0.21469009 0.2413722
000350 73 30 32 3e 2c 3b e1 bc 3c 45 0b 3d 21 3b fa bc
       0.17401294 -0.027494036 0.034001574 -0.030545773
000360 e9 d0 9e 3e 06 36 bc bd bc 21 8a 3e ac 15 ad be
       0.3101876 -0.09189992 0.26978862 -0.33805597
000370 50 0e 80 3e b0 f7 2e bd 31 18 e6 bd 01 4d 59 bd
       0.2501092 -0.042716682 -0.11235083 -0.053051952
000380 22 16 6e 3a 33 81 c9 39 66 a9 d3 be b4 8d a5 3d
       0.00090822775 0.00038433968 -0.41340178 0.08083668
000390 ec de 8b 3e c0 29 23 b8 d1 92 d8 bc 5a a5 ac 3a
       0.27318513 -3.890111e-05 -0.026437195 0.0013171837
0003a0 a1 25 13 bc d8 c2 40 3a b2 b6 5f 3d 0a eb b5 3d
       -0.008981139 0.0007353253 0.05461759 0.08882721
0003b0 59 60 b7 bd b8 3f 9a 3a d7 6a be 3c bd c8 1a 3d
       -0.08953924 0.0011768257 0.023244305 0.037789095
0003c0 73 6a 37 be 1a 2c e7 b8 f1 21 96 be 81 78 97 3e
       -0.17911701 -0.00011023153 -0.2932277 0.29584125
0003d0 fd 5b 14 ba de de 2a be bf 50 a4 be 88 5e bb bc
       -0.0005659459 -0.1668658 -0.32092854 -0.022872224
0003e0 6c ef 92 39 9e 98 1f 3d 1e ac 25 bd 1b 82 00 39
       0.00028025673 0.038963906 -0.040447347 0.000122555
0003f0 20 06 9c bd a7 e6 11 3d f3 bf 50 3d 7e 84 6b be
       -0.07618356 0.035620358 0.050964307 -0.2299976

bias f4 [60]
000000 ca 66 33 be 1f 62 88 be bb fe 8a 3e e2 2b 19 3e
       -0.1751968 -0.2663736 0.2714747 0.14958146
000010 83 71 13 be 73 1a 8c be 4c f5 86 be 39 2a 17 3e
       -0.1439877 -0.2736393 -0.26359022 0.147622
000020 e6 74 16 3e e1 47 88 be 70 64 84 be bc 06 1b 3e
       0.1469303 -0.2661734 -0.25857878 0.15139288
000030 81 1a 8c be 07 48 8d 3e 9f 55 19 be 05 60 89 be
       -0.2736397 0.27594015 -0.14974068 -0.2683107
000040 69 03 18 be 6c d9 15 be b1 6d 86 3e 43 1b 16 be
       -0.14845051 -0.14633721 0.26255563 -0.14658837
000050 e0 86 17 be 7c cd 82 be 1f 0b 8c 3e 0c 75 14 be
       -0.14797544 -0.25547397 0.27352235 -0.14497775
000060 f8 42 1b 3e 03 32 18 3e 31 42 8a 3e 16 2a 8e be
       0.15162265 0.14862828 0.27003625 -0.27766484
000070 68 38 1b be 01 72 13 be 38 b4 89 be fd a2 19 be
       -0.15158236 -0.14398958 -0.26895308 -0.15003581
000080 0f 51 87 3e 03 24 81 be 3c 30 c0 bd 3e d0 1c 3e
       0.2642903 -0.25222787 -0.093842 0.15313813
000090 78 d6 1c 3e ee 2a 8e 3e d4 d9 8e 3e 51 c4 88 be
       0.15316188 0.27767128 0.27900565 -0.26712278
0000a0 c2 5f 82 3e 04 b0 8b be c6 40 19 be cf f4 8b be
       0.25463682 -0.27282727 -0.14966115 -0.27335212
0000b0 bf a0 1b 3e 42 a6 86 3e 92 00 8b 3e 38 f2 8a be
       0.15198039 0.2629872 0.27148873 -0.27137923
0000c0 fc 18 18 be c4 96 1a 3e a9 41 88 3e e7 92 8b 3e
       -0.14853281 0.15096575 0.26612595 0.27260515
0000d0 7b d9 8b be c4 67 18 3e ea f0 13 be 94 f0 8d 3e
       -0.27314362 0.14883333 -0.1444737 0.2772261
0000e0 ec f3 17 3e d8 34 16 be ff 74 8b be f6 00 1e be
       0.14839143 -0.14668596 -0.27237698 -0.15430054

weight f4 [60, 60]
000000 74 ea b6 3d 76 d9 36 3c bd e2 3d bc 19 cb 92 3e
       0.08931437 0.011160245 -0.011589703 0.28670576
000010 57 01 92 be ec 8e 49 3c 59 c6 45 3c 5a 38 93 3e
       -0.28516647 0.012302142 0.012071216 0.2875393
000020 d9 aa 92 3e fc be 46 3c 6e a3 60 3c 28 76 92 3e
       0.2864597 0.012130495 0.01371084 0.2860577
000030 c4 93 40 3c d0 8d 46 bc 28 5d 91 be 26 f5 4a 3c
       0.01175398 -0.012118772 -0.28391385 0.0123875495
000040 bb 3a 91 be 8c 07 90 be d4 df 55 bc 53 32 8f be
       -0.2836512 -0.28130758 -0.013053853 -0.27968082
000050 95 e9 92 be 23 01 5b 3c 87 0f 45 bc 0d 1c 92 be
       -0.28693834 0.01336697 -0.012027628 -0.28537026
000060 a4 5b 91 3e 92 46 8f 3e cc 82 3d bc ae 97 3c 3c
       0.2839023 0.27983528 -0.011566829 0.011510773
000070 04 a9 92 be 23 63 93 be 18 cb 4a 3c 77 21 91 be
       -0.28644574 -0.28786573 0.012377523 -0.28345844
000080 23 b0 52 bc f2 cc 74 3c ca d1 ab be ab 6e 93 3e
       -0.012859377 0.014941441 -0.33558494 0.2879537
000090 e5 d4 91 3e 1e 0d 41 bc a6 4d 40 bc cc b7 4a 3c
       0.28482738 -0.011782913 -0.011737263 0.012372922
0000a0 b7 6f 67 bc 87 2a 45 3c 79 94 91 be c8 49 3f 3c
       -0.014125756 0.012034065 -0.28433588 0.011675306
0000b0 6f 18 93 3e 6b f7 41 bc 3b 1b 3e bc b3 ed 40 3c
       0.2872958 -0.011838774 -0.011603172 0.011775422
0000c0 cb 8a 91 be 7e 69 91 3e 05 3d 4f bc 30 d5 3e bc
       -0.28426203 0.28400797 -0.0126488255 -0.011647508
0000d0 47 02 41 3c 34 c4 92 3e 38 1d 91 be 29 e0 43 bc
       0.011780328 0.28665316 -0.28342605 -0.011955299
0000e0 cb 68 90 3e cf df 8f be e0 06 4a 3c 95 be e6 be
       0.2820495 -0.2810044 0.012330741 -0.45067278
0000f0 b2 33 56 3e bf 9c 1d 3e 78 d7 1f be be 01 f3 3c
       0.20918158 0.15391825 -0.15609539 0.029663917
000100 49 df e6 bc 45 93 22 3e 08 f8 1f 3e d3 07 f6 3c
       -0.028182643 0.15876491 0.1562196 0.030033028
000110 2a 41 f0 3c 3c b4 20 3e 70 95 22 3e e8 81 f0 3c
       0.029327948 0.15693754 0.15877318 0.02935882
000120 5b a4 20 3e a2 4f 22 be fd 40 e5 bc eb b0 21 3e
       0.15687697 -0.1585069 -0.02798509 0.15790145
000130 5f 5c e3 bc 55 28 d7 bc 84 09 22 be 34 fa d0 bc
       -0.027754007 -0.026264349 -0.15823942 -0.025509931
000140 72 47 f3 bc 6b 10 21 3e 9c ab 21 be 1e b1 e8 bc
       -0.029697154 0.15728919 -0.1578812 -0.028404769
000150 e1 e2 e6 3c 49 a2 d2 3c 9d b6 1f be a0 2e 1f 3e
       0.028184356 0.02571215 -0.15597005 0.1554513
000160 9f 25 f2 bc 62 69 f5 bc 85 d5 21 3e 7a 24 e4 bc
       -0.029558955 -0.029957477 0.15804107 -0.027849425
000170 23 0c 22 be 26 72 23 3e 5a a0 2f be 18 45 f9 3c
       -0.15824942 0.15961513 -0.17151013 0.030428454
000180 d5 01 eb 3c 7a fb 20 be 30 96 20 be 8c 78 21 3e
       0.028687397 -0.1572093 -0.15682292 0.15768641
000190 1c 80 22 be fc 89 21 3e 0b cb e7 bc e8 37 20 3e
       -0.15869182 0.15775293 -0.02829506 0.15646327
0001a0 72 fd f5 3c 3e 28 1f be f1 f7 1f be c7 7c 20 3e
       0.030028079 -0.15542695 -0.15621926 0.15672599
0001b0 c9 d0 e6 bc c3 02 e7 3c 87 03 22 be fb 2c 20 be
       -0.028175728 0.02819956 -0.15821658 -0.15642159
0001c0 91 af 20 3e 06 25 f2 3c ce ac de bc 6f bb 21 be
       0.15691973 0.02955867 -0.02718201 -0.15794156
0001d0 a8 95 db 3c bc 35 d6 bc fd 77 22 3e 7f f3 9c be
       0.02680476 -0.02614867 0.15866084 -0.30654523
0001e0 72 1f 56 be 75 87 1d be 55 c5 1f 3e 7d b0 f2 bc
       -0.20910433 -0.15383704 0.1560262 -0.029625172
0001f0 31 5b e7 3c f2 88 22 be bc de 1f be 86 cc f5 bc
       0.028241726 -0.15872553 -0.1561231 -0.030004751
000200 1c 3c f0 bc d8 9e 20 be 28 82 22 be dd 2b f0 bc
       -0.029325537 -0.15685594 -0.15869963 -0.02931779
000210 8a 97 20 be 60 4e 22 3e 79 33 e5 3c 18 b2 21 be
       -0.15682808 0.1585021 0.027978646 -0.15790594
000220 33 71 e3 3c 59 a4 d7 3c a0 00 22 3e c1 7f d1 3c
       0.027763939 0.026323484 0.15820551 0.025573613
000230 6c 09 f3 3c 13 f5 20 be 16 a8 21 3e 87 15 e9 3c
       0.029667579 -0.15718488 0.15786776 0.028452648
000240 c9 52 e6 bc c4 d2 d2 bc 5b a7 1f 3e 93 24 1f be
       -0.028115647 -0.025735267 0.15591185 -0.15541296
000250 b6 be f1 3c f3 6f f5 3c 3a d2 21 be 95 fc e3 3c
       0.029509883 0.029960608 -0.15802851 0.027830401
000260 2b fb 21 3e 5a 65 23 be 91 a0 2f 3e 8d c3 f8 bc
       0.15818469 -0.15956631 0.17151095 -0.030366683
000270 e3 a9 ea bc 7a ef 20 3e 3b 8c 20 3e 78 70 21 be
       -0.028645461 0.15716353 0.15678494 -0.1576556
000280 f5 6d 22 3e 6c 82 21 be 3d a5 e7 3c 8b 2a 20 be
       0.15862258 -0.15772408 0.028277034 -0.15641229
000290 97 8c f5 bc 56 0f 1f 3e 9d ed 1f 3e 88 6d 20 be
       -0.029974265 0.15533194 0.15617986 -0.15666783
0002a0 3a cd e6 3c 82 d2 e6 bc 6f f1 21 3e 97 20 20 3e
       0.028174032 -0.02817655 0.15814756 0.15637432
0002b0 d7 a1 20 be 99 e3 f1 bc ee 3f df 3c 9b b7 21 3e
       -0.15686737 -0.029527472 0.027252164 0.15792696
0002c0 92 cc db bc a6 b8 d6 3c fe 6f 22 be cb dd 9c 3e
       -0.026830945 0.026211094 -0.15863034 0.30637965
0002d0 06 33 b6 bd 84 6e 39 bc 2f dc 3f 3c e4 08 93 be
       -0.08896451 -0.011317853 0.011710211 -0.2871772
0002e0 7e 41 92 3e 2f 1e 4a bc 71 b2 47 bc 9b 75 93 be
       0.28565592 -0.012336298 -0.01218854 -0.28800663
0002f0 6f e8 92 be 0f 4a 48 bc c2 5b 61 bc 5f b3 92 be
       -0.28692958 -0.012224688 -0.013754787 -0.28652474
000300 dd 25 42 bc 59 55 47 3c fd 99 91 3e 56 c5 4b bc
       -0.011849848 0.012166345 0.28437796 -0.012437185
000310 52 78 91 3e 12 46 90 3e 05 85 56 3c 11 70 8f 3e
       0.2841211 0.2817846 0.013093238 0.28015187
000320 08 27 93 3e 8c 8b 5c bc 80 36 46 3c 4f 5b 92 3e
       0.28740716 -0.013461005 0.012097955 0.28585288
000330 e2 98 91 be 8f 84 8f be d5 8d 3f 3c 2b ee 3e bc
       -0.28436953 -0.28030822 0.01169153 -0.011653463
000340 51 e6 92 3e 68 a1 93 3e 51 9b 4b bc 7c 5e 91 3e
       0.28691342 0.2883408 -0.012427167 0.28392398
000350 1c 8e 53 3c b9 1a 75 bc 6b c6 ab 3e 78 ac 93 be
       0.0129122995 -0.014959984 0.33549818 -0.2884252
000360 14 12 92 be 99 92 42 3c c1 24 42 3c 56 b9 4b bc
       -0.28529418 0.011875772 0.011849583 -0.012434324
000370 bd 22 68 3c c9 22 46 bc 96 d1 91 3e a8 1e 41 bc
       0.0141684385 -0.012093254 0.28480214 -0.011787094
000380 b5 55 93 be 10 28 44 3c 96 fe 3f 3c 8d 86 42 bc
       -0.28776327 0.011972442 0.011718413 -0.0118729
000390 f8 c7 91 3e 02 a6 91 be ea 2f 50 3c 70 9a 40 3c
       0.28472877 -0.28446966 0.012706736 0.011755571
0003a0 6d 95 42 bc 74 01 93 be 61 5d 91 3e 18 d7 44 3c
       -0.011876446 -0.28712046 0.28391555 0.012014173
0003b0 0e a7 90 be 30 1e 90 3e f7 ce 4a bc 16 bb e6 3e
       -0.28252453 0.2814803 -0.012378446 0.4506461
0003c0 97 99 b6 bd c2 1e 38 bc a3 92 3e 3c 4d e7 92 be
       -0.08916014 -0.011237802 0.011631641 -0.28692093
0003d0 ba 1e 92 3e 8f a3 49 bc f3 b3 46 bc c2 53 93 be
       0.28539068 -0.012307062 -0.012127864 -0.2877484
0003e0 ba c6 92 be cb 61 47 bc 71 f6 60 bc 83 92 92 be
       -0.2866724 -0.012169312 -0.013730631 -0.28627405
0003f0 27 15 41 bc 60 af 46 3c 48 79 91 3e 28 4b 4b bc
       -0.011784828 0.012126774 0.28412843 -0.012408055
