Total_RCS/epoch_200_batch_255_lr_0_0019819414761434403_wd_0_1808248925678225/torch_model_3_Tanh.pth (torch, 49095 bytes, 9 tensors)

weight f4 [60, 3]
00000000: 485c 853e e2ee 063f ffc3 833e 97d9 d3be
00000010: c8cf 4cbf 7a7e dcbe dd9c 923d f8ed 7bbf
00000020: c430 a0bf 495c b23a 30f3 563b 3e56 1b3b
00000030: ab05 81bf f368 70bd ec6a d23c bc71 6c3c
00000040: 6df0 3a3d 0521 dcbf bbf2 c73d 9579 02bf
00000050: 7649 b8bf a39c fe3e c22c 293f 4925 29bd
00000060: 4779 37bf 411a 49bf 3ffe 23be 2d36 eb3b
00000070: 7bec b2bb 7798 4e3b 2ae8 30bf 858a 2abf
00000080: c74b 5dbc 3d6c cc3e d629 30bf d059 df3d
00000090: 94e4 ebbd 02d2 51bf daa9 78bf e8f6 203c
000000a0: ffb5 13be 80db 3e3d 4646 153c 531d 12be
000000b0: ed42 2c3d 2577 0dbf dfc7 5c3f 30c4 2f3d
000000c0: dd2c 1bbf 2ddf d53e b759 33be 2369 deb9
000000d0: b33d 3cbb 0ca9 a63a 0621 edbc df80 afbf
000000e0: b807 73bf 3c2c 9fbd a281 d63e 737b 923d
000000f0: 7158 f7ba 43f2 c639 c819 beb9 48f3 193f
00000100: 3fb3 2b3f 2d4d 55bd a424 5bbc 4ead 033f
00000110: 79cf 94bf 088c 0b3f 506f 58bf cb81 09be
00000120: cc3a 16bb af8e 8cba 4693 adba 534c 8f3f
00000130: 9e98 4abc 6b37 c2bd 0d2f c23e ff4d 203f
00000140: 15d0 f0bc a632 a73f 85e1 5b3e 0635 f5be
00000150: 40ad 8ebe f870 973f 1195 7d3e fcf2 0e3b
00000160: e86e a8b9 2a0d 8439 ad37 0fbc c1ad 36bc
00000170: a475 8cbb fb5e 443f e20b d33d 62d3 203e
00000180: 9725 03bf 8014 31bf bbad 083d d745 623f
00000190: 881f f13e 55a4 3cbd 54de 1dbf 74e6 d43e
000001a0: 92ff 11be 65ea 9abf 9f47 0a3f 6f1e 3dbe
000001b0: 659d 4f3f 0fce dcbe 4515 40bd dcbf 19bb
000001c0: 5994 97ba fe76 22ba 0dd7 143f 8624 3b3f
000001d0: 8a79 073d e485 e93d 93c0 cdbe fd26 923d
000001e0: 97ba 1fbc 70aa 3c3e 8147 09bd 2ea0 8d3f
000001f0: a4c4 9fbd e648 12be 00a0 683e 1be0 fb3e
00000200: 2046 c5bd 2fbe 69be b3f9 5cbf 21bd 4fbe
00000210: 72d7 8d3e 0e4f 8abf d23b 763c 0f08 8e3d
00000220: bda6 d7be e8d1 45bd e02d a7bd 12c4 d73e
00000230: 83b2 2a3d 66b8 493f fcde 63bf bfc7 e83c
00000240: 8758 3c3c a58e 8ebe c61d 333d b723 033e
00000250: 46fe 05bf 452b 2bbe 4cbd 483a d21b 6dbf
00000260: a6e0 90bf 0eaa 96bc ff2f db3e ebda 2b3d
00000270: a797 eb3a 39cf 36bf a76f 8ebf a2c8 3b3c
00000280: 6c39 57be 54b4 253d 12a5 1e3e e26b 6fbf
00000290: 1253 61bf c6b7 183c 4f93 3bbe c374 083d
000002a0: 7bdc a8bf 6d0b a5be 97ec 843e 6277 05bd
000002b0: 81d0 c8be 5ce2 9b3d 6d7e 4a3e ea64 82bf
000002c0: 4c7d 8f3d 3e3d 28be 6c5a 35bf ea60 42bf
0.26046968 0.52708256 0.2573547 -0.41376945 -0.8000455 -0.43065244 0.071588255 -0.98409986
-1.2514882 0.0013607825 0.003279876 0.0023702527 -1.0079855 -0.058693837 0.02568575 0.014431413
0.045639444 -1.7197577 0.09763094 -0.5096677 -1.4397418 0.4972888 0.6608392 -0.041295324
-0.7166943 -0.78555685 -0.16014956 0.007178089 -0.0054603196 0.0031523982 -0.69104254 -0.66617614
-0.013506836 0.3992633 -0.68813837 0.10905802 -0.11518207 -0.8196107 -0.9713417 0.009824492
-0.14424895 0.04659605 0.009110993 -0.14268999 0.042056013 -0.55259925 0.8624248 0.04291171
-0.6061533 0.41771832 -0.17514692 -0.00042421473 -0.00287233 0.0012715175 -0.02894641 -1.3711203
-0.9493365 -0.07772109 0.41895777 0.07152452 -0.0018870962 0.00037946002 -0.00036258833 0.6013684
0.6707038 -0.052075554 -0.013375435 0.51436317 -1.1625816 0.54510546 -0.8454485 -0.13428418
-0.002292323 -0.0010723675 -0.0013242743 1.1195167 -0.012365488 -0.094832264 0.37926522 0.6261901
-0.029396096 1.3062332 0.21472748 -0.47892016 -0.27866554 1.183135 0.24763896 0.002181231
-0.0003212609 0.0002518681 -0.0087413015 -0.011149825 -0.004286485 0.7670743 0.10305001 0.15705636
-0.5122923 -0.69171906 0.033368807 0.8838782 0.4709437 -0.046055157 -0.6166737 0.41582072
-0.14257649 -1.2102782 0.54015535 -0.1846864 0.8109954 -0.4312596 -0.046895284 -0.0023460304
-0.0011564597 -0.0006197541 0.5814064 0.73102605 0.033074893 0.11402491 -0.40185985 0.07136343
-0.009749076 0.18424392 -0.033515457 1.1064508 -0.07801178 -0.14285621 0.22717285 0.49194416
-0.09632516 -0.22826456 -0.8631851 -0.2028699 0.27703434 -1.0805376 0.015028911 0.06935131
-0.421194 -0.048295885 -0.08163047 0.42141777 0.04167415 0.78796995 -0.8901212 0.028415559
0.011495716 -0.27843204 0.043729566 0.12806593 -0.52341115 -0.16715725 0.0007657602 -0.92620575
-1.1318557 -0.018391635 0.42810056 0.041956823 0.0017974273 -0.71409947 -1.1127824 0.011461409
-0.21017998 0.040455177 0.15492657 -0.9352399 -0.8801738 0.009321159 -0.18317913 0.033314478
-1.3192285 -0.3223528 0.25961754 -0.032584555 -0.39221576 0.07611534 0.1977479 -1.0187047
0.0700632 -0.16429612 -0.708411 -0.7592913

bias f4 [60]
00000000: 326d f63e 4069 37bf b6aa 57bf dba9 1d3a
00000010: d2b0 81bf b3a3 9bbf 6a1b 6abf 5e87 e73e
00000020: b4b3 64bf 95a7 e23b ed42 2bbf e771 fa3e
00000030: 2f49 56bf bfbb b93c 12d8 983c 0590 0fbf
00000040: 3da2 40bf f721 ba3a 37bb 56bf f4fa 283c
00000050: 2b09 ceb9 6186 053f 4f63 48bf 3cfb f23e
00000060: f228 17bb 9965 70bf b15b c83e ac42 683f
00000070: 3132 393f 9a50 dc39 20f8 8fba 1d66 1ebf
00000080: 37b9 f5be 327f 403f 1412 3ebf 430c 53be
00000090: 125c 5a3f 1b48 b4ba 6639 183f 8700 0e3e
000000a0: 1619 0ebc c8f0 893f 3949 643e 9658 ecbe
000000b0: 4a42 843f 468a 90bb 7576 6abc 8249 28bf
000000c0: 25c7 173c 8ee3 ecbc 03a2 55bf 9a48 743d
000000d0: 43aa 49bf 1567 573c b554 0dbf 422e 053c
000000e0: e95c e6bd 0b44 d7bc 8d7b 7abf da5f 3ebf
0.48130184 -0.71644974 -0.8424486 0.0006014385 -1.0132086 -1.2159332 -0.9144808 0.45220464
-0.89336705 0.00691695 -0.66898996 0.48915026 -0.8370542 0.022672532 0.018657718 -0.5607913
-0.75247556 0.0014200796 -0.8387942 0.010313738 -0.00039298213 0.5215817 -0.7827653 0.47457302
-0.0023065177 -0.93905026 0.39132455 0.90726733 0.7234221 0.00042021723 -0.0010983981 -0.6187456
-0.4799287 0.75194085 -0.74246335 -0.20610146 0.8529674 -0.0013754399 0.59462583 0.13867389
-0.008672973 1.0776606 0.22293557 -0.46161336 1.033273 -0.0044110147 -0.014310469 -0.65737164
0.009263788 -0.0289171 -0.83450335 0.05963955 -0.78775424 0.013147135 -0.5520738 0.0081287045
-0.1124819 -0.026277563 -0.97844774 -0.7436501

weight f4 [60, 60]
00000000: b4d9 97ba 3abd 023a 9379 533a cd0b f4b8
00000010: 4f6e 9f3a 9f11 683b c6e9 2a3b 2c5c 60ba
00000020: 0bf4 f83a 7ba3 ad3a 29d5 9d3a 971d 363b
00000030: 73e9 9fb6 a1c0 ee38 4285 1f39 d397 2fbb
00000040: 92ac 58bb e34f c738 1219 05ba 794f bbba
00000050: 4372 9835 e18d 1aba 81a9 a43b a4eb 113b
00000060: e90f 9c38 6c92 3e3b b89f 9fba 4ca6 763a
00000070: 391c 4dba c3ed 3c36 43fb e5bb 5a69 e3ba
00000080: 21e5 8f3a 1f6a 5939 ac8e 50bb 7baf 1bb9
00000090: 173d 493a 7e18 bb38 9093 02bb 9204 c43a
000000a0: 7ecb cfb9 ada8 05bb 8883 1839 29ce 423b
000000b0: b1b4 b33a b2e6 b83a e803 bdba c9a7 c8ba
000000c0: c6e4 213a 07b4 963a 9801 3c3a 0b41 b0ba
000000d0: 2f53 653a b1a7 e239 65a9 9139 f29f cc39
000000e0: 7afc b8ba 9c0d 9e39 518e 43ba dd3d 0fba
000000f0: b635 91bd 49ec d9bd 193a 24bf fce7 59ba
00000100: 96e2 3bbd 3a67 c4bf 2218 84bf 5552 55be
00000110: 7ec2 94bd eb91 0d3d 81fb c63d 9a8e 9f3e
00000120: 7d7f 05bf 79bf da3d 1c6a d63d 6f9a 95be
00000130: f6eb 7bbe 616b 193c f22e cdbe 6ebf 3bbe
00000140: 25f6 cfbb 1101 30be 8fef 54bf 5046 883e
00000150: 3b2c 55bc 3072 3ebe 93ef 6abe 0b9f 13be
00000160: bc5b 133d 98fb bc3b 1157 49bd 2937 00bd
00000170: c38d 513e 123d c6bd 3091 66be c14b 4abd
00000180: 1b36 3a3e aedd 38bc d957 f6bd 6553 763e
00000190: 896c f4bd 601c 953c c738 7ebe 9bfe 453e
000001a0: d55a af3e 9ef1 4d3e d709 50be fceb 28be
000001b0: 815b 2b3e c451 523e f41f 23bf 256a 5abe
000001c0: fdf1 22bf 0b3a 083e a762 86be 4ec5 f33d
000001d0: b905 083e e1d9 7e3e d9e6 42bd 1869 a4be
000001e0: 42f6 5c3e e7a4 59be f15e 71bd 0a9e 65bb
000001f0: a5ef 8e3e afc4 90bd 9e6d 12be 9aa5 863e
00000200: b28c f0bd c750 26bc 7676 3abe fc9c 48be
00000210: 1af2 0fbe 693f 9fbc 6374 9dbc 9640 6c3e
00000220: 0e5d 8d3e 3408 50bb 4cb7 1dbc 27b2 5c3d
00000230: 7c54 32ba bb91 753e 013d 67bd a7d2 4ebe
00000240: 2770 bc3a 52a2 413f 4ee0 7d3e 643c 83be
00000250: 8753 c9be 3f33 1f3a 6221 603c a6d2 1c3f
00000260: 052b 88be 89eb 783a ac81 8d3e da79 87b9
00000270: 7b92 adbe 4676 3d3a 15cd 803e 0281 83bd
00000280: 4332 d13c f3c7 b3be 766c 423e 8b41 69be
00000290: 2c91 0abf 52a2 55bd c8dc 3e3d 33c0 133f
000002a0: 9bd9 3abd 2396 87bd 2384 c4bd b95a a43d
000002b0: 8786 0dbe ae1b f6bc 0500 a0bc 75c2 d1bc
000002c0: 3826 f8bd 75d9 ddbd c75a cf3e ab6e 17be
000002d0: 1d53 1a3d b2ba 4cbd 292b 81bd ca37 ef3b
000002e0: e273 363b fdaa 0d3e d8ca a73d eea8 783e
000002f0: cd67 50be f8f9 bcbc 9b89 50be 8139 8cbe
00000300: 19a5 bfbc 563a a2bd 21ed 9bbd c92c 813e
00000310: c505 583e 72cf bdbb 0111 51be 0410 003e
00000320: 3642 423a 4310 733e f566 973e 1435 6cbe
00000330: 732d 30bb 9700 37be 65aa 783e b7f2 323e
00000340: 5247 f73e b4b8 c1ba 10e4 bb3c 78b7 94be
00000350: b4e1 80be 4610 143e ffac 463e 79de 293e
00000360: 42a9 11be 694f 95bb bc5f 663e 23c9 4bbe
00000370: 3970 b23d 34c9 93bc ffdf 7f3e dc03 59be
00000380: bbd7 55bd ca8a 10be 390d 153e 28e0 c4be
00000390: 77ed 06be cf14 f7bd a538 4dbd 2d2e 193e
000003a0: cce9 c33c c81c cfbd ca06 90bd e96c b1bd
000003b0: 90ea a9bd 6ab2 54be 2521 09bf 3748 ef3b
000003c0: 0fee b5bd 31e5 003e 790c 783d e3fa c63a
000003d0: 0e1c d73d d09e 12be 6154 75bd 8ffd a2be
000003e0: ac97 723e 00aa 56bc 2186 883e 43bd 2a3e
000003f0: 4513 173d fc05 a53d ec6c 9f3d bd92 ebbd
-0.0011585266 0.00049873034 0.0008067127 -0.00011637025 0.0012163612 0.0035410894 0.0026079281 -0.00085586566
0.0018993629 0.0013247574 0.0012041676 0.0027788633 -4.7657463e-06 0.00011384604 0.00015213064 -0.0026793375
-0.0033061844 9.5039395e-05 -0.0005077283 -0.0014290652 1.1358137e-06 -0.00058957754 0.0050250893 0.0022265697
7.441623e-05 0.0029078973 -0.0012178337 0.00094089354 -0.0007824335 2.8152579e-06 -0.007018478 -0.0017350123
0.001097832 0.00020734266 -0.003182332 -0.00014847323 0.00076766446 8.921417e-05 -0.001992438 0.0014954975
-0.0003963373 -0.0020394728 0.00014544849 0.0029724932 0.0013710466 0.0014106838 -0.001442072 -0.0015308793
0.00061757525 0.0011497744 0.00071718683 -0.0013447119 0.0008748052 0.0004323102 0.00027782764 0.0003902908
-0.001411333 0.00030146248 -0.00074598665 -0.00054642354 -0.07090323 -0.10640771 -0.6415115 -0.00083124614
-0.045870386 -1.5344002 -1.0319865 -0.20832188 -0.07263659 0.034562986 0.09715939 0.31163484
-0.52147657 0.10681052 0.104694575 -0.29219386 -0.2460173 0.00936398 -0.4007488 -0.18334743
-0.0063464814 -0.17187907 -0.8317804 0.26616144 -0.013011034 -0.18598247 -0.22942953 -0.14416139
0.035976157 0.005767297 -0.0491553 -0.031302605 0.20464234 -0.09679617 -0.22516322 -0.04938865
0.18184702 -0.011283321 -0.12028474 0.2405525 -0.11934764 0.018202007 -0.24826346 0.19335406
0.34248987 0.20111701 -0.20316254 -0.16496271 0.16734125 0.20539004 -0.6372063 -0.21329553
-0.63650495 0.13303392 -0.2624714 0.11902867 0.13283433 0.24887802 -0.047583435 -0.3211143
0.21578315 -0.21254312 -0.058928434 -0.0035036826 0.2791721 -0.070687644 -0.14299628 0.2629822
-0.117455855 -0.010151095 -0.18209252 -0.19591135 -0.14057198 -0.019439416 -0.019220537 0.23071513
0.27610058 -0.003174317 -0.009626221 0.053880837 -0.000680275 0.23981373 -0.056454662 -0.20197545
0.0014376686 0.75638306 0.24792597 -0.25632012 -0.3932154 0.0006073005 0.013679834 0.61258924
-0.2659532 0.00094955467 0.27637994 -0.00025839993 -0.33900818 0.0007227402 0.25156465 -0.06421091
0.025536662 -0.35113487 0.18986687 -0.22778909 -0.54127765 -0.052156754 0.046597272 0.5771515
-0.04561768 -0.06620433 -0.095955156 0.080251165 -0.1382085 -0.030042496 -0.01953126 -0.02560542
-0.12116665 -0.10832492 0.40498945 -0.1478831 0.03767692 -0.049982734 -0.0630706 0.0073003517
0.0027840068 0.13834758 0.08192986 0.24283192 -0.20352097 -0.023068413 -0.20364992 -0.27387622
-0.023394154 -0.07921283 -0.07613588 0.2522948 0.21095951 -0.0057925517 -0.20416643 0.1250611
0.0007410379 0.23736672 0.29570737 -0.23067123 -0.0026882559 -0.17871319 0.2428375 0.17475401
0.482966 -0.0014779777 0.022935897 -0.29046226 -0.25172198 0.14459333 0.1940193 0.16588773
-0.14224723 -0.0045565856 0.22497457 -0.19900946 0.08712811 -0.018040277 0.24987791 -0.21192878
-0.05220769 -0.14115444 0.14555825 -0.38452268 -0.13176523 -0.12064516 -0.05010285 0.14959021
0.023915194 -0.101129115 -0.07032545 -0.08663351 -0.08296692 -0.20771185 -0.535662 0.00730231
-0.08883297 0.1258743 0.06055877 0.0015180971 0.10503398 -0.14318395 -0.059894923 -0.31834075
0.2369067 -0.013102055 0.26664832 0.1667376 0.03688361 0.08057782 0.07784447 -0.115025975

bias f4 [60]
00000000: f901 c83a 0dd7 7a3e c78a 73be 8f6d 783e
00000010: 6b96 563d 8245 553b bc2e d0be 7ef5 093e
00000020: 57b0 f9bd 16ba 09be 8ce2 d03b d79a a7be
00000030: 940a cdbe 39dd 08be 2361 f4bb 013a b0bd
00000040: 8e95 6e3e 33aa f63d 9d04 613a 8b51 213d
00000050: dcea b23d 75d3 30bb 4478 c2bd 9051 dd3d
00000060: f728 9a3c 3b98 1c3e 1d50 c8be 5d55 8cbe
00000070: 53a3 1ebe 7494 cd39 cef2 47bb 2a0d c83e
00000080: bb1d 133c b9cc efbe 2a47 b0bb fe04 52be
00000090: c415 eabb 8545 393e c607 b93e 8c96 cb3e
000000a0: beeb 703d 6231 233e f802 183e 208d 113e
000000b0: 7a3d febd e21c 063e 6e1e e83e 6e94 f6bd
000000c0: cd6a f5bb c2bb 55ba 7158 b83e 3710 46ba
000000d0: 18ea 6e3b 01e4 553e bc6f 2d3c c92f b7bd
000000e0: 00b4 9fbc 8a72 c83e 2a00 1cbe 4c53 b23d
0.0015259377 0.24496098 -0.23783408 0.24260543 0.052389544 0.003254265 -0.40660655 0.13472554
-0.12191837 -0.13449892 0.0063746627 -0.3273532 -0.40047133 -0.1336564 -0.0074578687 -0.08604813
0.23299238 0.12044182 0.0008583756 0.039384406 0.08736202 -0.0026981507 -0.09495595 0.108065724
0.018818362 0.15292446 -0.39123622 -0.27408877 -0.15491991 0.00039211253 -0.0030509713 0.39072543
0.008979256 -0.46835878 -0.005379577 -0.20509717 -0.007143708 0.18092926 0.36138743 0.39763296
0.05881857 0.15936807 0.14844882 0.14213991 -0.124140695 0.13096955 0.45335716 -0.120400295
-0.0074895383 -0.0008153283 0.36004975 -0.0007555517 0.0036455449 0.20887758 0.010585722 -0.08944661
-0.01949501 0.39149886 -0.15234438 0.08707294

weight f4 [60, 60]
00000000: db54 22bc 78dc e9bd 8d89 8e3d d9ef 2b3d
00000010: 88cf c53c b934 04bd c381 5a3e 270e bebd
00000020: fe44 caba 9cf4 6d3d 0ec1 3bbc da64 683d
00000030: a0c7 e73d b30d b83c 3b95 7c3c 2dc3 4ebd
00000040: 4880 40bd bde5 c53c f89d df3a 1162 1f3e
00000050: b7e8 c13c b50f 313b 3ad5 1e3d 56c9 e0bd
00000060: f35f 81bd 2f24 693d 3d91 833e c01b 063e
00000070: 3a93 b13d 1626 bbbc 3729 c23b df56 64bd
00000080: 171c d7bb b7e5 d93e 9d79 d33b ed93 7a3d
00000090: 177d 7f3c 9d6a cbbb 6bca 19bc 3fa0 57bd
000000a0: 8393 4d3d 5134 bdbb dd75 b5bd fa99 c5bd
000000b0: b28a 8bbd 46ba 2d3d 87ad 73bd 85be 233d
000000c0: e1f2 213d 88ab ec3b 3a7a 35be 67a3 49bc
000000d0: 153a 863b 3945 b7bd 8631 45bb d468 533d
000000e0: b29c 9d3d 7755 63be 3e5a f73d 7a57 e0bc
000000f0: 261a 51bc e396 0e3e d7a5 c43d a8cb 483d
00000100: 22da e73d 771f 32bc 9c90 a23e cb46 5c3d
00000110: 8595 433e b285 febd 579d 27bc 63cb cb3d
00000120: 1c2a 6d3c 1b0b 76be 5ca3 143c efc7 33bf
00000130: 9ea2 dbbd 4cc9 5bbd 52ab ad3b a508 25be
00000140: 8c16 8b3d e2a8 373b 3e52 a53d 0a70 96bc
00000150: b866 f4bd a9e4 24be c02a f5bc d37d 1fbd
00000160: 1b07 273e 0a90 24bc a423 f73b 8923 ef3d
00000170: 01fe 6cbb 2691 55bd b421 04bc 8100 3bbd
00000180: 8b59 153c 7cf2 163c 81b8 07be 831d 1dbe
00000190: bd20 1d3c d206 1dbd 8ebe 243e 6dde ff3e
000001a0: 86da 273e ed5d a93e 44a9 48be 32b6 8f3d
000001b0: cf3e 5a3e d0ee e03b f153 a0bd 277f 66bc
000001c0: 0ecd 433c 273f 153f cdc6 44bb a2c6 c4be
000001d0: c9b4 023e b8b1 82ba 093a bfbc f094 9a3d
000001e0: d263 5a3a 0f76 d1bb c2c8 a4be 6c65 a93d
000001f0: f4ae dcbd 6f62 33bc d425 eebc cbc0 b33d
00000200: 6005 a03c 92b7 f1bd 38b7 94bb 0d37 c3bd
00000210: 6325 b1be 8cc0 06be 8189 f33a 90fa fd3d
00000220: c480 76bd f0ca 423e f0bb 8f3b 3fac b2be
00000230: 8574 963e aec1 933b 07ce 943d 5f97 90bd
00000240: 3cc1 893e 182a 2b3e 57d9 4dbe 28e9 033e
00000250: c17e 1dbe 40e7 0cbc 5d50 153c cfec 563d
00000260: 26f0 643b fd65 c8be 2292 073a 422a d8bd
00000270: ccfe 203b 64bd 5cbe 610e a53d 3042 353d
00000280: 148f fbbd e171 2abe a73d f43e 3092 c53d
00000290: 1048 2bbd 11ea fabd cd86 0e3e d04b dbbc
000002a0: 4ad0 14be d0f5 99ba 6d3c 91bd 53d9 01bb
000002b0: fb4c 963b 1655 843c 2d55 263c 6482 d6bd
000002c0: 9c49 27be 35e5 c23d 2de5 05bf c0eb 4dbb
000002d0: 720f 993b a60d 8e3e e863 6ebf 8329 03be
000002e0: 31ca 083b 179f 443b ee87 74bc fd5b 243e
000002f0: c9fe 513e 6906 92be 4006 c8bb 698f 253e
00000300: ac84 35be 3935 14bf e87e 863b 250d 09bf
00000310: 868e 4fbd 7cef 03bd 1752 eaba c80f ebbb
00000320: 0308 bcbc 4745 613b d020 41be 5af5 1e3e
00000330: 3ff4 67bc 1f1a b9be 705f 82be d318 2cbe
00000340: bd3d fb3d 23f2 27bb 6e98 31bb 701a 053e
00000350: ecc4 0fbc 29b4 2bbe 7925 003b 41c8 6dbe
00000360: 76b1 8b3b deab 0b3d cd4b 88be 1cfa e5bd
00000370: e632 f1bd ff65 30be 2b35 783f d956 ecbd
00000380: ccea 703e b26d 4d3e 469b 353f 918f a93a
00000390: f9b8 8b3c 89a2 9bbb afe8 2c3f 0d0f 8a3b
000003a0: e5c4 23bb 2799 72bd 8c6d 18bc 17a1 edbe
000003b0: 6f25 4a3e f0c9 673b 19ac 82bf d507 7c3d
000003c0: 480c ef3b a4be 04bf e563 ecbd 2970 36be
000003d0: 9e0e 2a3e 7f47 7fbc 5116 bb3e e7f9 393e
000003e0: 5b8c 9e3e 304f 23be 2199 303c de45 dfbc
000003f0: ab33 113e 9923 9fbe 237d 21bc 6ca8 9bbd
-0.009907926 -0.11419004 0.069598295 0.041976783 0.02414681 -0.032276843 0.21338563 -0.09280043
-0.0015431938 0.058094606 -0.011459602 0.056736805 0.11317372 0.02246747 0.015416439 -0.050479103
-0.04699734 0.0241574 0.0017060628 0.15564753 0.023670537 0.0027017419 0.038777567 -0.10975902
-0.06317129 0.056919273 0.25696746 0.13096523 0.08670659 -0.02284531 0.0059253233 -0.05574691
-0.006564628 0.4255807 0.0064537064 0.06117623 0.015593789 -0.0062077777 -0.009386639 -0.052643057
0.050189506 -0.005774059 -0.08860371 -0.09648509 -0.068135634 0.042413972 -0.05949166 0.039976615
0.039538268 0.0072225966 -0.17722407 -0.012307025 0.0040962794 -0.0894875 -0.0030089333 0.051613644
0.07695903 -0.22200571 0.12077759 -0.027385462 -0.012762582 0.13924746 0.09601944 0.049022347
0.113209024 -0.01087176 0.31750953 0.05377845 0.19100006 -0.12427844 -0.010230384 0.09950902
0.014475372 -0.24027674 0.009072151 -0.7022695 -0.10724376 -0.05365877 0.005299964 -0.16116579
0.0679141 0.0028024246 0.08072327 -0.018363971 -0.119336545 -0.16102852 -0.029927611 -0.038938355
0.16311304 -0.010044107 0.0075420905 0.116767 -0.003616214 -0.052140377 -0.008064676 -0.045654777
0.009115587 0.009213086 -0.13253976 -0.15343289 0.009590325 -0.038336582 0.16088316 0.49974385
0.16391954 0.33079472 -0.1959582 0.07017173 0.21313022 0.006864406 -0.078285106 -0.014068401
0.011950744 0.5829949 -0.003002572 -0.38432795 0.12764277 -0.0009971177 -0.023343103 0.07547939
0.00083309144 -0.0063922475 -0.32184416 0.08271298 -0.10775557 -0.010948761 -0.029070772 0.08777007
0.019533813 -0.118025914 -0.004538443 -0.095319845 -0.34598836 -0.13159388 0.0018580408 0.12401307
-0.060181394 0.19022727 0.0043864176 -0.34897038 0.29385772 0.0045091724 0.07265859 -0.07060122
0.2690524 0.16715276 -0.2010244 0.12881911 -0.15380384 -0.008600056 0.009113398 0.052471932
0.0034933179 -0.3914031 0.0005171617 -0.10554935 0.0024565933 -0.21556622 0.08059383 0.044252574
-0.12283149 -0.16645004 0.47703287 0.09647024 -0.04181677 -0.12251676 0.1391861 -0.026769549
-0.14532581 -0.0011746231 -0.070916034 -0.0019813373 0.0045868135 0.016153853 0.010152143 -0.10474089
-0.16336673 0.09516374 -0.5230282 -0.0031421036 0.0046710307 0.27744788 -0.93121195 -0.12808804
0.0020872469 0.0030002051 -0.014924986 0.16050716 0.20507349 -0.28520516 -0.0061042607 0.16167988
-0.17726392 -0.5789371 0.004104484 -0.5353568 -0.05067303 -0.032210812 -0.0017877248 -0.007173512
-0.022953039 0.0034373568 -0.18860173 0.15523282 -0.014157354 -0.3615274 -0.25463438 -0.16806345
0.12267635 -0.0025626502 -0.0027098912 0.12998366 -0.008774977 -0.16767944 0.0019553585 -0.23220922
0.0042630984 0.034099452 -0.2662033 -0.11229345 -0.11777286 -0.17226408 0.9695613 -0.115400024
0.23527068 0.20061377 0.70940053 0.0012936463 0.017055975 -0.0047496003 0.67542547 0.00421322
-0.0024989184 -0.05922809 -0.009303462 -0.46411964 0.19740842 0.0035368167 -1.020877 0.061530907
0.007295165 -0.51853395 -0.11542491 -0.17816223 0.16607139 -0.015581011 0.36540464 0.18161736
0.30966458 -0.15948176 0.010778696 -0.027254995 0.14179866 -0.31081846 -0.009856495 -0.07600483

bias f4 [60]
00000000: a7fe 00bf a033 09bc c255 ac3d 6459 c2bd
00000010: 0232 c43d 587f d8be 000f 36bd 90a2 db3d
00000020: b267 cb3d 8295 9bbe 631a 393c 7b19 bd3d
00000030: 4ae6 833e ad17 fa3c c72a 6f3e 11b1 b2bd
00000040: 634d b93e 78bc 34be a8c1 a8bd 44d6 09bd
00000050: 6665 0bbe 991b ecbe 4eb4 063e ef23 563e
00000060: 9d0b 4d3e 7711 183e d5d1 3c3e 52cb f23e
00000070: f684 743d 59ce c6bc 9b62 47be 7b0f 6bbe
00000080: 9440 7fbd 7937 3c3d d6ee 603e eb96 43bd
00000090: d006 c2bd ae43 a7bd 7793 23be a4da e4bb
000000a0: 00a4 e03d edad 9a3c f3d2 c33d 96c8 45be
000000b0: 359a d6bb 3a3d f4bd ada4 143e 3b37 24be
000000c0: 374f 693e 4ae9 b6be 111c 883d a61d 2a3d
000000d0: d84d f439 55b7 a33d 65ff 5d3e c668 ce3d
000000e0: 1382 483a 329e e0bc 59cf 74bd 8ef0 6c3e
-0.5038857 -0.008374125 0.084147945 -0.09489706 0.09579851 -0.42284656 -0.0444479 0.10724366
0.09931888 -0.30387503 0.011297795 0.09233376 0.25761634 0.030528868 0.23356162 -0.08725179
0.36191854 -0.1765002 -0.08240062 -0.033651605 -0.13612899 -0.46114805 0.13154718 0.20912145
0.20023961 0.14850412 0.1843942 0.47420746 0.059697114 -0.024268316 -0.19471209 -0.22955124
-0.062317446 0.04595134 0.21966109 -0.04775135 -0.09473956 -0.08167206 -0.15974222 -0.006984072
0.109687805 0.018881762 0.0956172 -0.19314799 -0.0065491446 -0.119257405 0.14515944 -0.16036694
0.22784124 -0.3572486 0.06645978 0.04153218 0.00046597305 0.07993952 0.21679457 0.10078578
0.0007648777 -0.027419183 -0.059768055 0.2313864

weight f4 [60, 60]
00000000: d0f6 b83c 1700 e63e 4256 913d b7e5 c33e
00000010: 8e83 e83d 8418 b4bd 40c0 0c3e bcae 27be
00000020: 39b2 f03e b07f 993d 99e2 733d 8a2b 253d
00000030: 9666 95bd 5d56 06bd e054 423e 44a5 5fbd
00000040: ca92 6bbb 06a4 9cbe 84d6 013e f66b 35bd
00000050: 4560 d03d de24 c53c 9f54 a83d 4d34 25bd
00000060: 42fd 53bd add0 64be 4095 81be f93b 23be
00000070: 7f08 9bbe 3ef5 9fbc e9cb f03a c347 19bd
00000080: 049d 55be 42a4 c8bd 1a26 babe f700 4fbe
00000090: 1fbb d4be 50f0 96be 06ec 00be 7b17 f73a
000000a0: a0d0 6abd 0995 58bd 5b0e 233e c541 f1bc
000000b0: a0c7 473b 665c 11bf 4aef 203c ad33 4bbd
000000c0: fad0 42be 0f15 1dbe ac42 2c3f 4c76 91bd
000000d0: 3bdc 15bb 00b0 0fbc 463b 203e 6c1e 5f3d
000000e0: 43bf 9e3d b51a 1cbe 4b9a 7fbc dcd7 a8bd
000000f0: a0eb 8dbe a44e e43c bbec 3d3e 9ecb c53d
00000100: ab30 5cbd dd78 083d 4fda 363b 8f4a 1a3d
00000110: 680d 333e bf94 33be c4aa aabd 07a0 b63d
00000120: ecdc d4bc 8926 c83d 0b0a fdbb 794c e13d
00000130: f96a 723e f546 49bd 1b0e 523d badd b03d
00000140: ee76 f73c 69d5 8cbe 8fcc 9bbd 173d 8cbd
00000150: 1b95 14be 4827 8cbd 8cb3 34bb fb87 113e
00000160: c6e9 0d3c 1f4d 963d fdd1 d8bd cdb2 20be
00000170: 5345 1f3d 2fd1 16bd 4a65 e83b 8fc2 e8bc
00000180: 2c9b b3bd 6eb6 e0bc 080b dfbd 802f 9bba
00000190: 2fae a93d 1c2b 05be 4fa3 8e3d 13fe adbd
000001a0: cd8f 9cba 4c65 cabc a8c1 153e a272 67bd
000001b0: 9054 6c3d 0de4 0e3d 7609 79ba 92b3 413e
000001c0: 5968 e6b9 5d4e ca3d 6961 dabd ca6d ddbb
000001d0: 27eb a7bc de1f c63c 68bf 973c fc54 2ebd
000001e0: e0b4 203e 7b69 82be 53c7 a3be ae09 293f
000001f0: 30b6 693d 1001 7dbd 0666 46be d8bc 4a3e
00000200: b911 aabe 8dd0 c93d 9e49 1d3e 0d24 1f3d
00000210: 5400 823e 8d25 473e c0ff 04be 313c d0bb
00000220: 9dc1 473d a069 b43e b578 b53d c867 2bbe
00000230: ddc2 80bd 2599 1c3e 5a2d 523e 4100 e63e
00000240: 54c6 d5be 6ead 3a3e 3c4f cc3e a651 96bd
00000250: 5abf 0b3e 330a 09bf e0d0 f73e 97fd 2d3f
00000260: 83ca f9bd 96ca 2e3e 5b0a e9be 70d7 7c3e
00000270: 5aab 73bd e65e 013e e3d1 6b3e b7f2 233b
00000280: 0a42 78bd 66f5 4a3d b811 45be f0fe 393d
00000290: b747 bd3a 8bc5 7dbe 885a 9cbe 6f7e 9d3e
000002a0: 6ab1 d7bc 2f21 ae3c f545 703e 0bef 15bc
000002b0: 47f5 84bb 0afe 37be 6b0e a1bd 95d6 97be
000002c0: 699f cb3d bb12 153e ff08 b73d ea3f e1bd
000002d0: c8eb 8dbe 4d51 e43c 26ee 3d3e 2ec9 c53d
000002e0: a22d 5cbd 7576 083d 01f3 363b 324b 1a3d
000002f0: 2f0d 333e a294 33be eaa9 aabd d49e b63d
00000300: 9cdf d4bc d927 c83d 60eb fcbb 274c e13d
00000310: 436b 723e 9948 49bd d90d 523d e7db b03d
00000320: 4478 f73c 97d5 8cbe 9dcb 9bbd 8440 8cbd
00000330: c893 14be 5928 8cbd ecb3 34bb d787 113e
00000340: fedc 0d3c b74b 963d d1d1 d8bd bdb2 20be
00000350: dd3f 1f3d bbd2 16bd 7f7e e83b 10cb e8bc
00000360: 419a b3bd 51bf e0bc 8a0a dfbd 9505 9bba
00000370: 77af a93d 682b 05be 6da3 8e3d 8efc adbd
00000380: 1d77 9cba 8265 cabc 8bc1 153e 0272 67bd
00000390: 4f52 6c3d 39e6 0e3d 171c 79ba 97b3 413e
000003a0: adb1 e7b9 9b4d ca3d ce5e dabd b37f ddbb
000003b0: 62eb a7bc c124 c63c e3bb 973c b152 2ebd
000003c0: 13fa 9c3d 6bc5 c1bd 82fe 673d ccc0 8ebd
000003d0: addd e1bd ba2d 413e b497 0dbd 7d79 243e
000003e0: 6a9c 79bb 2f08 f73d 9f19 eebd d466 253d
000003f0: c4d8 abbd 6db9 a7bc 2697 6fbe 6c47 ef3c
0.022578627 0.44921944 0.070965305 0.38261196 0.11353217 -0.087937385 0.13745213 -0.1637525
0.47010973 0.074950576 0.059542272 0.040324725 -0.07294957 -0.032797206 0.1897769 -0.05460097
-0.0035945647 -0.3059389 0.12679487 -0.044292413 0.10174612 0.024065431 0.08219265 -0.04033308
-0.051755197 -0.22345228 -0.2530918 -0.15940847 -0.3027992 -0.01952612 0.0018371317 -0.037421953
-0.20860678 -0.09796955 -0.36357194 -0.20215212 -0.41549012 -0.2948022 -0.12590036 0.0018851602
-0.057327867 -0.052876506 0.15923445 -0.029450307 0.0030483976 -0.56781614 0.009822676 -0.04960983
-0.1902503 -0.15340064 0.67289233 -0.071026415 -0.0022866863 -0.008769989 0.15647611 0.054472372
0.07751324 -0.15244563 -0.015600751 -0.08244297 -0.2771883 0.02786953 0.18547337 0.096579775
-0.05375735 0.03331839 0.0027901118 0.03766876 0.17485583 -0.17537211 -0.08333352 0.089172415
-0.02598425 0.09772975 -0.0077221445 0.11000914 0.2367362 -0.049139936 0.051282983 0.08636041
0.030208077 -0.2750657 -0.07607376 -0.068475895 -0.14510004 -0.0684343 -0.0027572839 0.14212029
0.008661693 0.073389284 -0.10586927 -0.15693207 0.038884472 -0.036820587 0.0070921527 -0.028413085
-0.08769831 -0.02743074 -0.10890776 -0.0011839718 0.08285176 -0.13004726 0.069647424 -0.084957264
-0.0011944711 -0.024706505 0.14624655 -0.056505807 0.057697833 0.034885455 -0.0009500006 0.18916157
-0.00043946764 0.09878228 -0.10663111 -0.0067574726 -0.020497872 0.024185117 0.018523887 -0.042561516
0.15693998 -0.254711 -0.3198801 0.66030395 0.057058513 -0.06176859 -0.19374856 0.197986
-0.33216646 0.09854231 0.15360114 0.03885274 0.25390875 0.19447918 -0.12988186 -0.0063548316
0.04876863 0.35236835 0.08860914 -0.16738808 -0.06287167 0.15292795 0.20525113 0.4492207
-0.41752875 0.1823022 0.399042 -0.07339792 0.13647214 -0.5353119 0.48401546 0.6796507
-0.12196829 0.17069468 -0.45515713 0.24691558 -0.059489585 0.12633857 0.23029284 0.0025016495
-0.060609855 0.049550436 -0.1924504 0.045409143 0.0014440928 -0.24782388 -0.3053782 0.30760524
-0.026329715 0.021256058 0.23464186 -0.009151231 -0.0040575597 -0.17968002 -0.07864078 -0.296559
0.099425144 0.14557926 0.08937263 -0.10998519 -0.2771895 0.027870798 0.18547878 0.096575126
-0.053754456 0.033316094 0.0027915838 0.037669368 0.17485498 -0.17537168 -0.0833319 0.08917013
-0.025985532 0.09773225 -0.0077184886 0.11000853 0.2367373 -0.0491415 0.051282737 0.08635693
0.030208714 -0.27506706 -0.076071955 -0.06848243 -0.14509499 -0.06843633 -0.0027573062 0.14211975
0.008658646 0.0733866 -0.10586894 -0.15693183 0.038879264 -0.036822062 0.0070951576 -0.02841714
-0.08769656 -0.027434977 -0.10890682 -0.0011827225 0.082854204 -0.1300484 0.06964765 -0.084954366
-0.0011937354 -0.024706606 0.14624612 -0.05650521 0.057695683 0.034887526 -0.0009502782 0.18916164
-0.00044192132 0.09878083 -0.10662614 -0.0067596077 -0.020497981 0.024187448 0.018522209 -0.04255933
0.07664885 -0.094614826 0.056639202 -0.06970367 -0.110286094 0.188651 -0.034568503 0.16061969
-0.0038087615 0.12062108 -0.116259806 0.040381268 -0.08390954 -0.02047416 -0.23397502 0.029208861

bias f4 [60]
00000000: 4d2f 8bbd cce2 ae3e 5d7a 46be 30e3 ae3e
00000010: 10ca 73bd bce2 aebe 70f0 acbd 4818 68be
00000020: fab7 9c3d 3aa4 20be e47a a0bd 43a0 693d
00000030: bdd0 123e bae2 aebe 4be1 653e c841 8e3d
00000040: 1a40 933d d893 32bc 90be 023e 452a 46bd
00000050: 8576 0bbe 1e37 133e f1e1 aebe b7e2 aebe
00000060: 5998 c13d 9546 54bd c483 61be 23ca cd3b
00000070: ab03 503d d5e2 aebe b81c 09ba 28e3 ae3e
00000080: c138 fbbd f13b ec3c ee75 773d 7e02 ecbd
00000090: 0461 9ebd d3dc 93bc 8b49 c03d 35e3 aebe
000000a0: e2e2 aebe 97e2 aebe 0550 7bbd 37bb cf3d
000000b0: 58a3 e3bd 16e3 aebe 0dc7 00be cfe2 ae3e
000000c0: 3fe3 ae3e c11c e23b 485f f7bd 8e9c 8abe
000000d0: a80f 43bd 4fef 753d 7ac9 dcbd 9ee2 ae3e
000000e0: 27cf 9dbd 8566 6f3e 37e3 aebe c266 6a3e
-0.06796131 0.34157407 -0.19382615 0.34157705 -0.059518874 -0.3415736 -0.08444297 -0.22665513
0.07652278 -0.15687647 -0.078359395 0.057037603 0.1433744 -0.34157354 0.22449224 0.069461405
0.07189961 -0.0108995065 0.12768006 -0.048380155 -0.1361943 0.14376494 -0.34156755 -0.34157345
0.09452886 -0.051825125 -0.22022921 0.0062802 0.050784748 -0.34157434 -0.00052304147 0.3415768
-0.12266684 0.028837176 0.0604152 -0.11523913 -0.07733348 -0.018049633 0.09389027 -0.3415772
-0.34157473 -0.3415725 -0.06135561 0.1014313 -0.1111514 -0.34157628 -0.12575932 0.34157416
0.3415775 0.0069004004 -0.1207872 -0.27072567 -0.047622353 0.060042676 -0.10780616 0.3415727
-0.07705527 0.23378952 -0.34157726 0.22890761

weight f4 [1, 60]
00000000: 57ff 1741 fc94 1741 3c58 1bc1 f794 1741
00000010: 36b2 1741 f494 17c1 ed48 1a41 706a 1ac1
00000020: f00d 1cc1 8a3c 1b41 68e4 1741 f9b5 1b41
00000030: 69a0 1841 fa94 17c1 57b6 1941 cd6d 1941
00000040: 98ef 1841 e2e6 18c1 c601 1cc1 f788 1841
00000050: b44c 18c1 070a 1941 f494 17c1 f894 17c1
00000060: 73dd 1b41 ac28 1bc1 5490 1cc1 0b6b 1c41
00000070: 9c8b 1ac1 f794 17c1 4d85 1b41 f894 1741
00000080: e9a2 1ac1 ba1e 1941 f732 1a41 d28d 1d41
00000090: 1fe3 1bc1 aa5d 18c1 9f4e 19c1 f794 17c1
000000a0: f794 17c1 f194 17c1 9d92 19c1 c8e4 1941
000000b0: 58c8 18c1 f694 17c1 46f1 1841 f894 1741
000000c0: fb94 1741 b944 1bc1 fb0a 19c1 5bac 19c1
000000d0: 1f47 1bc1 dea5 17c1 bd9e 1941 f694 1741
000000e0: e4e9 1bc1 5269 1841 f994 17c1 60c3 1c41
9.499839 9.473873 -9.709042 9.473868 9.481009 -9.4738655 9.642804 -9.650986
-9.753403 9.70228 9.493263 9.731927 9.539163 -9.473871 9.607017 9.589307
9.558495 -9.556368 -9.750433 9.533439 -9.518726 9.564948 -9.4738655 -9.473869
9.741565 -9.69743 -9.785236 9.776134 -9.659084 -9.473868 9.720044 9.473869
-9.664773 9.570002 9.637443 9.847124 -9.7429495 -9.522867 -9.581695 -9.473868
-9.473868 -9.473863 -9.598294 9.618355 -9.548912 -9.473867 9.558905 9.473869
9.473872 -9.704278 -9.565181 -9.604579 -9.704864 -9.477995 9.601254 9.473867
-9.744602 9.525713 -9.47387 9.797699
