Total_RCS/epoch_200_batch_255_lr_0_0019819414761434403_wd_0_1808248925678225/torch_model_4_ReLU.pth (torch, 79675 bytes, 13 tensors)

weight f4 [60, 3]
0.20100911 0.25419992 0.24297737 -0.11087536 0.08878964 -0.45076707 -0.07444746 1.5163358
0.49472898 0.020068508 0.0023429831 -0.002292469 -0.7436912 0.44521725 0.38433525 1.1946518
-0.15774362 -0.10286946 1.3534064 -0.09711672 -0.09476485 0.002014872 0.5069016 0.91883224
-0.6344986 -0.13435808 -0.06269555 -0.014622579 1.3737767 -0.03615833 -0.0071587167 -0.19260603
-1.0580194 0.7326566 0.7866087 0.19398753 -0.8710943 -0.043398883 -0.03432824 0.0021484164
-0.84953445 0.0023480994 0.22222298 0.30020985 0.31185445 -0.101432145 0.191616 0.33388624
0.05450532 1.0536327 0.04102577 -0.5202298 -0.65981907 0.07097251 0.0139568625 -1.0316519
-1.0695556 0.82551056 1.2788403 0.1921882 0.70086557 0.3970638 0.16012152 0.33213708
0.30061772 -0.16220565 -0.0032008337 0.53066224 -0.6038169 -0.4949711 0.028814338 0.0856174
-0.02418068 0.98964196 -0.008333876 0.6643926 0.02901469 0.418719 0.5968077 0.015244347
-0.14351422 0.6568965 0.07814056 -0.13306199 1.04196755e-10 -2.3166812e-18 1.0298585e-12 0.00087608397
0.0004077281 -4.1180814e-05 0.0004601296 6.4044825e-06 -3.651294e-05 -0.8265637 0.4484575 0.7121473
-0.16285037 -0.50031435 -0.08983258 0.5705582 -0.52916354 -0.720621 -0.06471164 0.13030085
-0.6951117 0.00020682754 4.6374946e-05 6.552834e-05 0.39182687 0.37810665 -0.07651122 0.008592464
-0.6211595 -0.5528072 1.6340799 -0.0019682609 -0.019561935 1.6189363 -0.12559374 -0.043697935
0.77619845 -0.5419169 -0.54750025 -0.0056236354 0.6800369 0.64383173 0.0070141023 -8.558027e-06
0.0010627565 -0.23914571 -0.66592073 -0.87253726 0.0014543696 2.4653484e-06 0.00021094365 0.04156875
-0.7637037 -0.23609154 0.008402926 0.0010101962 -0.001694016 1.7877961 0.056204766 0.02683047
1.2253529e-05 2.1350477e-11 -4.1034235e-07 0.00014652987 -0.80172884 -1.0518379 0.008658884 -0.42914134
-1.1759725 0.051694263 0.097380824 0.071358874 0.08443525 -0.026631122 -0.41811275 -5.603326e-11
-2.1808705e-10 -1.1286827e-11 -0.08150869 -0.011891434 -0.72891885 -0.0004412084 -0.9052612 0.026169071
-0.08647466 -0.13654712 0.23587777 0.005080928 0.0044964748 0.0067219106 -0.026881993 -1.0455177
0.02990315 0.057721574 0.03928077 0.00420037
00000000: 55d5 4d3e 7e26 823e 0fcf 783e 9f12 e3bd
00000010: 58d7 b53d f1ca e6be e977 98bd 4b17 c23f
00000020: 1e4d fd3e b666 a43c bc8c 193b 3f3d 16bb
00000030: 8c62 3ebf 84f3 e33e 97c7 c43e 5aea 983f
00000040: 8b87 21be 39ad d2bd 6c3c ad3f 22e5 c6bd
00000050: 1314 c2bd f10b 043b 4ec4 013f 9738 6b3f
00000060: 806e 22bf 2a95 09be 8666 80bd 8b93 6fbc
00000070: ead7 af3f c21a 14bd ab93 eabb 843a 45be
00000080: 2e6d 87bf 628f 3b3f 305f 493f aba4 463e
00000090: 0900 5fbf 07c3 31bd c59b 0cbd 72cc 0c3b
000000a0: 177b 59bf 92e2 193b 6c8e 633e 1bb5 993e
000000b0: 63ab 9f3e a8bb cfbd fc36 443e 23f3 aa3e
000000c0: f840 5f3d 70dd 863f a30a 283d c82d 05bf
000000d0: e7e9 28bf 095a 913d 53ab 643c 2b0d 84bf
000000e0: 33e7 88bf a954 533f 0ab1 a33f fccc 443e
000000f0: ed6b 333f f24b cb3e e5f6 233e df0d aa3e
00000100: 91ea 993e 3d19 26be 14c5 51bb 7bd9 073f
00000110: bf93 1abf da6c fdbe 0c0c ec3c 2d58 af3d
00000120: 9016 c6bc 2d59 7d3f cf8a 08bc a215 2a3f
00000130: 37b0 ed3c 5662 d63e 64c8 183f 6dc3 793c
00000140: 64f5 12be 5e2a 283f 2808 a03d 6741 08be
00000150: 8f21 e52e dff0 2aa2 90f0 902b 00a9 653a
00000160: 57c4 d539 90b9 2cb8 8d3d f139 16e6 d636
00000170: 7925 19b8 ae99 53bf 399c e53e 494f 363f
00000180: 3fc2 26be 9a14 00bf 25fa b7bd 1a10 123f
00000190: 4377 07bf 9e7a 38bf 8987 84bd 966d 053e
000001a0: d7f2 31bf d8df 5839 b882 4238 426c 8938
000001b0: 889d c83e 3297 c13e eab1 9cbd 68c7 0c3c
000001c0: 4f04 1fbf c684 0dbf 8829 d13f f0fd 00bb
000001d0: 5a40 a0bc 4e39 cf3f a59b 00be 9bfc 32bd
000001e0: f1b4 463f 11bb 0abf fa28 0cbf 7946 b8bb
000001f0: e616 2e3f 28d2 243f 8ed6 e53b 7294 0fb7
00000200: 314c 8b3a 9de2 74be c879 2abf 9a5e 5fbf
00000210: 8ca0 be3a 5d72 2536 c130 5d39 fe43 2a3d
00000220: 1682 43bf fbc1 71be 6dac 093c 8f68 843a
00000230: bf09 deba 81d6 e43f f836 663d 93cb db3c
00000240: 8294 4d37 00cd bb2d 064d dcb4 d0a5 1939
00000250: 1a3e 4dbf a0a2 86bf fedd 0d3c 6ab8 dbbe
00000260: 4486 96bf 5dbd 533d 996f c73d 9a24 923d
00000270: 63ec ac3d 8329 dabc e012 d6be d86f 76ae
00000280: 0cca 6faf 5a8f 46ad 07ee a6bd 4ad4 42bc
00000290: 6d9a 3abf fd51 e7b9 33bf 67bf 8560 d63c
000002a0: a019 b1bd 02d3 0bbe f189 713e ea7d a63b
000002b0: 2a57 933b 7943 dc3b a037 dcbc 86d3 85bf
000002c0: 73f7 f43c 756d 6c3d dfe4 203d 42a3 893b

bias f4 [60]
0.3576136 -0.5802308 -0.44628933 -0.036526795 -0.33467197 -0.93361926 -0.435623 0.7063222
-0.36364368 -0.5512978 -0.77858716 -0.25222802 -1.0589565 -0.75245476 -0.35763842 0.15168387
-0.9412418 -0.8384523 -0.762679 -0.15600812 0.29414064 0.12714274 -0.4341565 -0.3947465
-0.045232613 -0.6595007 0.54317045 0.47025168 -1.2105595e-09 -0.002581906 -0.0034056343 -0.76855713
-0.5232895 -0.39061952 -0.63368577 -0.0011522362 0.007964251 -0.3144811 0.72281533 0.042922214
0.41207603 0.5058218 -0.014613101 -1.0497464 -0.005623915 -0.42707855 -0.019332964 -0.40570635
-4.8084592e-05 -0.7950588 -0.78537095 -0.08954453 -0.37956357 -7.0243394e-10 -0.6341672 -0.20614074
0.0561958 -0.041440587 -0.560218 -0.13285352
00000000: 2119 b73e 018a 14bf 0980 e4be 1f9d 15bd
00000010: 205a abbe ac01 6fbf fa09 dfbe 88d1 343f
00000020: 812f babe da21 0dbf 7d51 47bf 0824 81be
00000030: e38b 87bf e0a0 40bf 621c b7be 0453 1b3e
00000040: 39f5 70bf cfa4 56bf ee3e 43bf 98c0 1fbe
00000050: 9a99 963e b531 023e c349 debe 371c cabe
00000060: d545 39bd 0ad5 28bf 380d 0b3f d4c4 f03e
00000070: c760 a6b0 3235 29bb 1031 5fbb 29c0 44bf
00000080: 4df6 05bf 48ff c7be 3b39 22bf a206 97ba
00000090: 7d7c 023c ab03 a1be 6d0a 393f 34cf 2f3d
000000a0: a1fb d23e 8a7d 013f ca6b 6fbc 175e 86bf
000000b0: d248 b8bb 0aaa dabe 2a60 9ebc beb8 cfbe
000000c0: 70ae 49b8 f988 4bbf 120e 49bf 1f63 b7bd
000000d0: 2856 c2be 6515 41b0 c858 22bf 8f16 53be
000000e0: 912d 663d 9bbd 29bd 726a 0fbf c10a 08be

weight f4 [60, 60]
-0.110668086 0.015913494 -0.3526195 -2.5995016e-24 0.006028902 2.201868e-09 -0.005630915 0.04319424
-0.073765725 -0.27495462 -0.04783549 -0.011261787 -0.14611664 -0.024480177 0.00232309 -0.007968888
-4.4964373e-11 0.2810023 -0.0015474975 -0.010918344 -0.054564066 -0.05823803 -0.030276246 0.07769305
0.10201021 -0.15948021 0.0022605606 -0.04467691 1.7e-44 -4e-45 -3.1e-44 0.053564053
0.015022337 0.06556148 0.05003663 -3.8e-44 -0.025963614 -0.04224155 -0.14075258 -0.117135696
-0.08035353 -0.011294312 1e-44 -0.15561646 -2.7e-44 0.03427205 -3.8e-44 -0.0068394993
-2.4e-44 -0.092164464 -0.34891623 0.02662148 -0.00027913475 6e-45 -0.015093282 0.1875837
0.13665612 2.9438222e-32 -0.12172661 2.10182e-13 -2.1765789e-11 -1.29e-43 -5.451305e-12 9.795634e-21
-7.4026126e-11 2.5851357e-12 9.216612e-12 -3.00069e-07 -1.7403952e-12 -1.352053e-11 -4.1388012e-14 -2.5912206e-11
-2.8869268e-11 -7.947582e-12 4.10952e-12 5.2125915e-11 7.694316e-12 1.2693951e-11 1.3387459e-13 8.366303e-12
2.0071195e-11 2.0153762e-11 -1.2537748e-12 2.17961e-11 1.9953912e-11 1.2057005e-12 -2.6486527e-11 -2.2234875e-11
-5.8696465e-09 -3.156929e-11 -6.951477e-07 9.849057e-11 1.1881365e-12 6.8282545e-15 -6.6194265e-28 -1.3e-44
-2.4963549e-11 -1.2340203e-13 -3.682135e-09 3.2082028e-11 -9.0161704e-14 -7.07281e-08 -2.9e-43 -1.4672202e-13
6.954134e-10 -2.0220802e-12 -6.1031856e-06 4.607327e-13 7.583474e-09 4.5596736e-14 -9.718149e-14 4.7672405e-10
2.634129e-28 -1.3862317e-05 8.753109e-15 4.533771e-12 -2.234691e-11 6.471815e-13 -1.5728591e-13 2.0148911e-13
-0.05741133 0.028156392 0.049742967 7.745307e-08 0.1368366 1.71e-43 -0.046656914 -0.032609873
0.4743928 -0.011489485 0.045942858 0.02931862 0.03233652 -0.089549184 -0.11777014 0.06328308
-0.10194775 -0.12625638 0.19931541 -0.038502753 -0.17707808 -0.24443701 0.046303555 0.08341111
-0.2765477 -0.03356255 -0.15616426 -0.15537201 -3.8e-44 -2.8563413e-18 -4e-45 -0.09229058
-0.022429658 -0.10760465 0.034904305 1.8777325e-11 0.041222673 0.09480347 0.07456956 -0.098260276
-0.2279457 -0.14695916 2.694387e-08 -0.016791997 -1.3526186e-09 0.043620445 6.824249e-09 0.006521336
6.272405e-24 0.07759204 0.102627 -5.731518e-05 -0.022889713 -3.4e-44 0.094253585 -0.13566433
0.15576097 -9.0113506e-05 -0.2389725 0.0023155266 -7.4771854e-19 3.5039973e-21 -7.277259e-14 8.7e-44
-7.0302194e-19 -1.8299107e-19 6.039535e-19 -1.0688683e-09 2.1965288e-20 -1.125622e-18 1.5129078e-20 -4.491306e-19
-9.245885e-21 -9.942832e-20 -6.8498096e-20 6.481044e-19 1.05426696e-19 1.4e-44 2.805652e-17 -1.4102311e-18
-1.5327867e-18 -9.913443e-19 -2.9611396e-19 2.2213165e-20 1.5327338e-18 4.9839e-20 6.6464433e-19 7.7065316e-19
-4.5158908e-09 2.6778837e-08 2.3728571e-05 -1.8723603e-20 6.100518e-22 3.623467e-19 -2.5385192e-20 -3.360696e-10
-1.028357e-18 3.7287195e-20 -1.4293393e-11 -1.4944745e-17 -2.0038977e-13 -5.2053438e-11 -3.95e-43 4.7183634e-21
4.2e-44 3.448938e-19 6.3e-44 -1.8802628e-18 -7.608616e-09 2.0582267e-19 6.173851e-21 4.60993e-33
1.1375431e-20 -3.0214464e-10 -2.8990435e-21 -3.0134878e-14 -3.49046e-19 -2.8582889e-08 1.5661221e-18 -5.725883e-17
-0.00089012284 3.8668225e-07 -0.0014309695 2.02e-43 -0.0014149037 -7.4444355e-25 -9.841011e-07 -0.002532207
-0.00143282 -0.00055802136 -9.827916e-09 -0.0001345897 -2.2937966e-05 -2.2192183e-18 2.8423033e-08 5.1007974e-06
00000000: f3a5 e2bd 045d 823c 8b8a b4be 6f20 4998
00000010: 188e c53b ac4f 1731 8a83 b8bb 72ec 303d
00000020: 7c12 97bd dac6 8cbe 26ef 43bd 5c83 38bc
00000030: 9a9f 15be a78a c8bc fc3e 183b f08f 02bc
00000040: 62c1 45ae 89df 8f3e 66d5 caba dbe2 32bc
00000050: 927e 5fbd 008b 6ebd e405 f8bc 891d 9f3d
00000060: bbea d03d c84e 23be ea25 143b 23ff 36bd
00000070: 0c00 0000 0300 0080 1600 0080 fb65 5b3d
00000080: 4020 763c 1945 863d 36f3 4c3d 1b00 0080
00000090: a5b1 d4bc 7a05 2dbd 7221 10be d7e4 efbd
000000a0: 6490 a4bd c70b 39bc 0700 0000 ec59 1fbe
000000b0: 1300 0080 d960 0c3d 1b00 0080 e11d e0bb
000000c0: 1100 0080 b9c0 bcbd 26a5 b2be 4a15 da3c
000000d0: d558 92b9 0400 0000 d049 77bc f115 403e
000000e0: 95ef 0b3e 1cda 180b cd4b f9bd d6a4 6c2a
000000f0: 3374 bfad 5c00 0080 fecc bfac c808 391e
00000100: 01c9 a2ae aae9 352c ee23 222d 2b19 a1b4
00000110: 58f0 f4ab 0edb 6dad 2165 3aa9 1aed e3ad
00000120: d0ef fdad bad0 0bad 4497 902c 9040 652e
00000130: 1e5c 072d 7950 5f2d b9ba 162a 7b2e 132d
00000140: 508c b02d 3d46 b12d ff73 b0ab 74b8 bf2d
00000150: 3784 af2d f0af a92b 5bfa e8ad 7d94 c3ad
00000160: f5ad c9b1 dcd7 0aae 309a 3ab5 4395 d82e
00000170: 2137 a72b 8803 f627 2bc7 5192 0900 0080
00000180: ea94 dbad 37f0 0aaa ce08 7db1 2719 0d2e
00000190: af06 cba9 2fe3 97b3 cf00 0080 be31 25aa
000001a0: 5e27 3f30 8f4a 0eac f7c9 ccb6 4aaf 012b
000001b0: 7948 0232 7559 4d29 51d5 daa9 790a 0330
000001c0: 30f5 a611 3392 68b7 97ae 1d28 9484 9f2c
000001d0: c590 c4ad 572a 362b 9416 31aa 48db 622a
000001e0: 2528 6bbd 3ca8 e63c 48bf 4b3d 4754 a633
000001f0: e51e 0c3e 7a00 0000 521b 3fbd ee91 05bd
00000200: 9de3 f23e 653e 3cbc 942e 3c3d 9a2d f03c
00000210: 4c73 043d 9065 b7bd 7931 f1bd 8f9a 813d
00000220: fbc9 d0bd 5a49 01be 5719 4c3e 10b5 1dbd
00000230: f553 35be b24d 7abe cca8 3d3d 72d3 aa3d
00000240: a997 8dbe e278 09bd 86e9 1fbe d719 1fbe
00000250: 1b00 0080 c3c2 52a2 0300 0080 d802 bdbd
00000260: 67be b7bc d45f dcbd d1f7 0e3d c72a a52d
00000270: 1bd9 283d 5228 c23d edb7 983d af3c c9bd
00000280: 996a 69be 767c 16be 3272 e732 5f8f 89bc
00000290: 09e7 b9b0 5aab 323d bb7a ea31 eeb0 d53b
000002a0: e4a6 f218 93e8 9e3d 1b2e d23d b565 70b8
000002b0: 3583 bbbc 1800 0080 0608 c13d 97eb 0abe
000002c0: ce7f 1f3e 52fb bcb8 35b5 74be 17c0 173b
000002d0: 04b0 5ca1 9560 841d 8bde a3a9 3e00 0000
000002e0: d67e 4fa1 a809 58a0 7041 3221 76e7 92b0
000002f0: cf74 cf1e cc1c a6a1 dee3 8e1e 598f 04a1
00000300: 5ba6 2e9e bbc4 ea9f 8fbc a19f 6249 3f21
00000310: 87ee f81f 0a00 0000 4b63 0124 061d d0a1
00000320: 0b33 e2a1 ee4b 92a1 7acb aea0 23cc d11e
00000330: 0c31 e221 a75b 6b1f 1b2b 4421 e874 6321
00000340: 322a 9bb1 4907 e632 b80c c737 e5d6 b09e
00000350: 7960 381c 49e4 d520 a1c1 ef9e 97c1 b8af
00000360: 3bc2 97a1 7415 301f b873 7bad 48d7 89a3
00000370: 6b9e 61aa f6ee 64ae 1a01 0080 3641 b21d
00000380: 1e00 0000 e196 cb20 2d00 0000 29bd 0aa2
00000390: 0cb7 02b2 16fe 7220 d33d e91d 2f7d bf09
000003a0: 35e0 561e 141b a6af a80b 5b9d 26b7 07a9
000003b0: 570a cea0 7086 f5b2 6c1e e721 a607 84a4
000003c0: 2257 69ba 3499 cf34 5e8f bbba 9000 0000
000003d0: 4a74 b9ba e564 6697 7515 84b5 62f3 25bb
000003e0: 76cd bbba 2e48 12ba a2d7 28b2 a620 0db9
000003f0: e86a c0b7 d9bf 23a2 e926 f432 8427 ab36

bias f4 [60]
0.1739304 -4.0244626e-07 0.4442673 -2.2841915e-09 -0.0004814143 0.07799731 -0.00043086807 0.1600838
-0.004436008 -0.05456129 -0.56161124 -1.337247e-05 -0.004334862 0.016135832 0.056817 0.0558774
-0.034547567 0.3304031 -0.09904229 0.019796189 -0.0020032607 -0.019757846 0.34558675 -0.1714397
0.66377425 -0.008202518 0.251527 -0.004075251 0.19315372 0.1013226 -0.04491088 0.1480998
0.40792936 0.4623917 -0.0445561 -0.12817927 -0.8692689 -0.039212823 0.025078656 -0.1067699
-6.7100673e-06 -9.286043e-08 0.3674666 -0.047296923 -0.00022836642 -0.008377617 -0.45971274 -2.8508406e-05
-0.113009796 -0.0037493785 0.4021991 -0.030711178 -4.788092e-05 -2.9606088e-06 0.050133742 -0.00093702914
0.25580594 0.14054675 -0.00019536614 -2.7628412e-06
00000000: d01a 323e cb0f d8b4 0177 e33e ecf7 1cb1
00000010: 5566 fcb9 0ebd 9f3d 22e6 e1b9 02ed 233e
00000020: ef5b 91bb a97b 5fbd c1c5 0fbf 525a 60b7
00000030: 750b 8ebb 4b2f 843c f1b8 683d b3df 643d
00000040: c081 0dbd 982a a93e afd6 cabd 9e2b a23c
00000050: 2349 03bb 35db a1bc bff0 b03e e48d 2fbe
00000060: 1ced 293f db63 06bc 26c8 803e af89 85bb
00000070: 17ca 453e 3982 cf3d 79f4 37bd 79a7 173e
00000080: 1edc d03e 9bbe ec3e 7580 36bd 6d41 03be
00000090: 6888 5ebf a09d 20bd c171 cd3c 2daa dabd
000000a0: 0a27 e1b6 906a c7b3 9524 bc3e 6bba 41bd
000000b0: a575 6fb9 4642 09bc 785f ebbe 5625 efb7
000000c0: ae71 e7bd 22b8 75bb 0aed cd3e 0296 fbbc
000000d0: bfd3 48b8 dfae 46b6 0a59 4d3d f6a2 75ba
000000e0: fff8 823e 7deb 0f3e 33db 4cb9 4069 39b6

weight f4 [60, 60]
1.5e-44 -1.6428706e-07 -1.5546634e-08 5.0353176e-12 1.0437169e-10 3.5e-44 -2.281275e-07 7e-45
-1.0970087e-05 -2.9261556e-12 4.2e-44 8.4425864e-07 -1.18926735e-11 -6.1902465e-30 1e-44 1.8e-44
6.4887423e-10 5.0952764e-16 -3.5e-44 -2.7e-44 2.2494682e-09 5.210277e-05 -9.482678e-13 -3.5e-44
-1.0011194e-05 -2.7180349e-08 -3.8248782e-32 -1.7769024e-09 -3.8326618e-16 3.8e-44 6.168355e-10 -4.537758e-39
3.1e-44 3.830346e-19 -8.8729805e-26 -1.4e-44 -5.9e-44 -2.985387e-12 1.8e-44 -2.3296985e-05
-2.980536e-07 5.7621024e-09 3e-44 1.5e-44 3.8979987e-08 3.488611e-08 -9.068117e-20 -1.8958498e-12
-5.584906e-07 3.266242e-13 -5.6488182e-12 -2.8e-44 5.5e-44 -1.5562599e-09 -8.0485436e-20 -7.6e-44
-3.5e-44 -6e-45 2.2511647e-07 2.611109e-08 -2.6230504e-11 -4.435261e-12 8.811425e-12 -1.3582364e-12
4.0622997e-10 2.1206418e-12 -2.86e-43 -7.873175e-12 -7.08311e-29 3.475914e-14 1.1727671e-11 -5.230973e-07
3.607841e-08 -6.500162e-14 3.9288624e-12 1.8065928e-13 -0.00013020096 2.2457595e-11 -2.9001836e-12 5.3798745e-12
3.08e-43 -3.2784823e-07 1.5825158e-12 -5.1642635e-12 3.995965e-11 -6.6033836e-06 -1.0148249e-11 -4.2751174e-07
-2.3929327e-11 -2.5159383e-11 1.6319939e-06 2.2110416e-11 6.855651e-12 4.523884e-12 -3.234873e-12 -4.9105364e-12
5.0500614e-13 8.561343e-06 4.865202e-11 4.1740753e-11 -1.5760879e-10 1.5304811e-24 1.3771252e-12 -1.9556707e-12
-0.0002707161 1.46e-43 2.1009658e-08 6.1569966e-07 -0.0010090937 2.7251585e-07 9.401935e-12 1.4446441e-12
-5.3699953e-08 -2.6037117e-10 7.1447197e-12 -9.475635e-10 -4.077602e-13 3.5298e-12 1.1416487e-09 2.5661508e-05
5.7915444e-05 -2.4361423e-11 -0.0071814014 7.181929e-05 -5.8213274e-11 7.493336e-21 4.102692e-07 -2.7035438e-07
-1.1247648e-10 0.00021315026 2.4484995e-08 8.174744e-07 1.355328e-09 -5.9355557e-06 -1.687151e-20 -5.2575007e-08
-1.0835699e-09 -0.0043151444 -6.513967e-05 -6.2676526e-22 1.37593e-06 -1.7790835e-10 -3.028066e-05 -0.00038444746
-0.010980842 -1.0508477e-08 -0.0005390866 6.1424845e-07 -0.0034373929 -0.00021406788 -6.690058e-05 -0.00015981281
-2.448058e-17 -0.0051161135 -1.3509131e-12 -3.6212208e-07 1.8976382e-10 -3.2140103e-11 -0.002230907 -9.084337e-11
2.732556e-05 6.543254e-08 1.4075519e-19 -7.064917e-21 0.00024517762 -1.0607596e-05 -0.0155013995 -2.13e-43
-0.049545757 2.9970006e-11 -0.00058458635 -1.4583051e-07 6.7480237e-06 2.7922477e-11 -1.67956e-07 -3.3710312e-09
7.935605e-21 -7.1067166e-21 -2.7919207e-08 -2.495713e-08 -0.21094106 4.39444e-12 0.0049778027 5.5464693e-19
0.0004524935 -0.14038613 6.0371783e-09 -0.20026506 1.6412967e-07 0.027470205 -0.078133784 1.9311712e-09
-4.9691064e-11 0.12130431 -0.15587853 0.056625403 -0.00543305 -0.13736996 -0.48991236 0.13311543
-1.304442e-19 -0.0033542535 0.11156853 0.21820363 -0.1788522 0.00016188723 0.0058051758 -0.0033741994
0.044069435 0.06673557 -0.044720266 -0.10961115 -0.094847806 -0.14745466 0.09856816 -0.12190995
0.120861545 0.0032909638 -0.33816206 -0.031967763 4.588829e-10 -5.01711e-07 0.16292574 -0.13812135
-1.2458549e-12 0.007461494 -0.4673795 -1.982856e-06 -0.024612905 -1.5540135e-08 -0.013197971 -0.21066974
7.770854e-08 -8.2390284e-07 0.05707363 -1.8727795e-07 0.16813186 0.15535036 -9.999971e-10 2.7168165e-09
-6.065134e-15 1.617949e-05 -6.170185e-15 4.5468543e-05 -5.2e-44 2.8836932e-17 6.206403e-11 -1.2799303e-15
1.16e-43 -1.532261e-14 -8.113244e-16 -4.2573878e-09 -8.91654e-10 -9.933474e-16 -6.1955727e-16 6.19475e-19
00000000: 0b00 0000 e266 30b4 698b 85b2 1c2a b12c
00000010: 0a84 e52e 1900 0000 36f3 74b4 0500 0000
00000020: 2a0c 38b7 efe8 4dac 1e00 0000 03a1 6235
00000030: d737 51ad 321b fb8e 0700 0000 0d00 0000
00000040: 775c 3230 81dc 1226 1900 0080 1300 0080
00000050: 1095 1a31 ec88 5a38 f374 85ab 1900 0080
00000060: c0f5 27b7 387a e9b2 5a99 468b 3237 f4b0
00000070: 1bf0 dca5 1b00 0000 f18d 2930 6c69 3180
00000080: 1600 0000 8d1a e220 32af db95 0a00 0080
00000090: 2a00 0080 f313 52ac 0d00 0000 e56d c3b7
000000a0: 2d04 a0b4 fdfb c531 1500 0000 0b00 0000
000000b0: f36a 2733 afd5 1533 671d d69f 9868 05ac
000000c0: 2feb 15b5 82df b72a 08c0 c6ac 1400 0080
000000d0: 2700 0000 07e4 d5b0 760a be9f 3600 0080
000000e0: 1900 0080 0400 0080 8bb7 7134 e54a e032
000000f0: d8b9 e6ad 480d 9cac 2103 1b2d a027 bfab
00000100: c953 df2f 163a 152c cc00 0080 a181 0aad
00000110: 0394 b390 8f8a 1c29 bc50 4e2d f96a 0cb5
00000120: a2f4 1a33 e25e 92a9 0c3c 8a2c 7e67 4b2a
00000130: 8e86 08b9 028a c52d 1015 4cac 9a49 bd2c
00000140: dc00 0000 1e03 b0b4 24b8 de2b 8db3 b5ac
00000150: 91be 2f2e a292 ddb6 a787 32ad c484 e5b4
00000160: 0e7c d2ad e54d ddad e20a db35 3b7c c22d
00000170: 3736 f12c 862b 9f2c 4ba2 63ac 2ec6 acac
00000180: 8725 0e2b b0a2 0f37 4ef9 552e e993 372e
00000190: ee4a 2daf 9ad4 ec17 2ad0 c12b 3b9e 09ac
000001a0: e6ee 8db9 6800 0000 ba78 b432 8f46 2535
000001b0: 9143 84ba 4b4e 9234 8d66 252d ca50 cb2b
000001c0: b9a3 66b3 fc23 8faf ea61 fb2c 6d3b 82b0
000001d0: 708c e5aa 3963 782c 31e8 9c30 ab43 d737
000001e0: 3cea 7238 0c49 d6ad f651 ebbb b09d 9638
000001f0: 2903 80ae 8d8b 0d1e f842 dc34 3925 91b4
00000200: a156 f7ae 1681 5f39 1353 d232 6a70 5b35
00000210: 5d46 ba30 092a c7b6 cf58 9f9e d5ce 61b3
00000220: baec 94b0 0e66 8dbb 989b 88b8 9d6d 3d9c
00000230: 98ac b835 c09c 43af 3903 feb7 aa8f c9b9
00000240: fde8 33bc c588 34b2 7d51 0dba d5e2 2435
00000250: e245 61bb 6977 60b9 fa4c 8cb8 6d93 27b9
00000260: 23cb e1a3 12a5 a7bb c61f beab ae69 c2b4
00000270: c4a5 502f 8a5a 0dae 6934 12bb 45c4 c7ae
00000280: 3139 e537 eb83 8c33 a52c 2620 d873 059e
00000290: 2f8b 8039 47f7 31b7 95f9 7dbc 9800 0080
000002a0: 7ef0 4abd 3acf 032e ed3e 19ba 9695 1cb4
000002b0: 156d e236 d49b f52d 6557 34b4 cfa7 67b1
000002c0: 3be6 151e f93d 069e fcd2 efb2 4f61 d6b2
000002d0: ef00 58be 999d 9a2c d61c a33b f0b3 2321
000002e0: a63c ed39 62c1 0fbe 956f cf31 4912 4dbe
000002f0: 9f3b 3034 3209 e13c 9b04 a0bd 86b5 0431
00000300: 2a8b 5aae 656e f83d 9f9e 1fbe 0af0 673d
00000310: ba07 b2bb b6aa 0cbe cbd5 fabe 694f 083e
00000320: 5700 1aa0 09d3 5bbb 0b7e e43d c670 5f3e
00000330: 0825 37be 46c0 2939 5839 be3b ac21 5dbb
00000340: 2782 343d a9ac 883d 992c 37bd d07b e0bd
00000350: 913f c2bd 5bfe 16be 1ade c93d edab f9bd
00000360: 4286 f73d 36ad 573b 9423 adbe a1f0 02bd
00000370: 0746 fc2f 51ad 06b5 01d6 263e af6f 0dbe
00000380: a756 afab 8c7f f43b 5e4c efbe 3511 05b6
00000390: 01a1 c9bc 1e7d 85b2 4d3c 58bc cfb9 57be
000003a0: b9e0 a633 2c2a 5db5 0ac6 693d 9216 49b4
000003b0: c22a 2c3e 2a14 1f3e 4570 89b0 beb2 3a31
000003c0: fd84 daa7 31b9 8737 e94d dea7 7ab5 3e38
000003d0: 2500 0080 a4fc 0424 f17a 882e 1875 b8a6
000003e0: 5300 0000 8803 8aa8 2dd9 69a6 6148 92b1
000003f0: 9218 75b0 0d28 8fa6 4293 32a6 35d6 3621

bias f4 [60]
-0.00013428161 -0.000119298646 -0.02416872 0.28425726 -2.2303248e-06 0.5216665 -7.36181e-05 0.30680734
-8.288953e-09 -0.013069276 -8.794353e-07 0.36299944 -0.0034571036 -1.0555145e-05 -0.12964165 -0.00038177214
-0.012793086 -0.0051906505 -2.3764018e-05 -8.591993e-05 -0.00048454327 -0.05755212 0.6499743 -1.0873226e-06
-6.5106354e-10 -0.0057700993 -8.15519e-09 -0.006351768 0.027287582 -0.03149162 -0.058535073 -3.8553353e-08
-2.177188e-06 0.48878697 -0.00079401536 0.022509579 0.19599405 0.039690122 -8.410627e-07 0.2717481
-0.015704041 0.36800796 -0.15497869 -0.077381656 -0.00096424285 0.50646204 0.68270266 -3.944054e-05
-0.07404729 0.5991682 -0.04138105 0.17548619 -0.0039637587 0.1262068 -0.003589644 -2.2694817e-06
-0.0032346298 -2.4670064e-07 0.27026504 -0.067773454
00000000: f2cd 0cb9 f92f fab8 7bfd c5bc 2b8a 913e
00000010: b0ac 15b6 f08b 053f 6b63 9ab8 da15 9d3e
00000020: 3367 0eb2 8420 56bc 5512 6cb5 10db b93e
00000030: 9390 62bb 0116 31b7 c8c0 04be 9728 c8b9
00000040: 179a 51bc 5516 aabb d758 c7b7 e92f b4b8
00000050: 4c0a feb9 c6bb 6bbd b764 263f 1ff0 91b5
00000060: 86f6 32b0 1a13 bdbb e81a 0cb2 7e22 d0bb
00000070: 358a df3c 5bfd 00bd 79c2 6fbd dc95 25b3
00000080: ce1b 12b6 4942 fa3e 7825 50ba 0266 b83c
00000090: aab2 483e 1c92 223d 63c5 61b5 9122 8b3e
000000a0: c3a5 80bc 8a6b bc3e bcb2 1ebe 467a 9ebd
000000b0: 3ec5 7cba 7fa7 013f 9ac5 2e3f f56c 25b8
000000c0: 1ba6 97bd 1663 193f 2d7f 29bd a7b2 333e
000000d0: 6be2 81bb 5b3c 013e 3c40 6bbb 664d 18b6
000000e0: 15fc 53bb 4772 84b4 2e60 8a3e cfcc 8abd

weight f4 [60, 60]
-3.3862096e-07 1.6973085e-05 -9.7367094e-20 1.9883757e-18 6.453671e-11 -1.8266586e-11 1.6180416e-06 -7.988019e-19
1.6828373e-08 -1.5140247e-11 2.45e-43 -1.7605216e-11 -4.46e-43 6.8245626e-12 -8.809005e-19 1.2192235e-18
-1.6966893e-11 -6.9327113e-11 4.3965727e-07 3.6828302e-21 -1.8008003e-06 -1.610861e-14 -1.9546445e-10 2.79e-43
1.3831884e-10 3.0051591e-05 -3.842944e-09 -1.681759e-11 5.4696413e-19 -3.767705e-08 2.9147915e-07 -3.709412e-39
-1.7096042e-07 -4.729741e-13 -2.2045662e-14 2.3080351e-18 -2.8675397e-19 -6.171876e-12 -1.4429498e-09 -5.802714e-14
-1.1806162e-09 -2.606164e-11 -3.7534507e-16 -6.8611977e-15 7.567472e-24 -2.2000228e-11 -2.9935182e-10 8.050041e-09
-4.638816e-09 -5.464643e-11 6.580409e-14 -1.068449e-12 -8.175564e-06 9.336714e-19 3.231336e-18 -8.3666803e-13
9.1e-44 4.1687095e-20 -2.5397797e-18 4.6414055e-19 -0.000107481035 1.7603169e-08 3.6738815e-10 -1.1460314e-11
-1.0890075e-08 -3.9445042e-10 1.5491829e-09 1.3e-44 -1.4739045e-05 1.499353e-20 -3.3459513e-11 -1.9635589e-09
1.6509236e-07 6.1077225e-07 -1.3e-44 -1.491337e-09 3.011952e-09 4.866029e-08 2.3663466e-08 -2.6477596e-12
3.7398587e-12 -2.11834e-09 -9.425112e-09 -2.396619e-12 4.8e-44 5.545797e-07 -7.3e-44 -3.060297e-05
1.1172094e-17 4.2638462e-12 9.5213615e-08 -3.9822123e-07 1.0314071e-16 -1.2115353e-10 1.2156507e-05 -1.1e-44
1.299913e-18 -7.649363e-07 -4.711123e-12 -3.8323764e-11 1.4192482e-09 -6.650772e-09 -1.875811e-10 -5.8405315e-16
1.482932e-08 -2.6335083e-09 -1.3103971e-06 -1.0908626e-09 1.04004895e-10 -1.4964931e-07 -5.705169e-07 4.0432393e-12
-1.5075193e-07 -1.9554428e-11 8.246988e-10 -4e-45 2.3960009e-08 4.2227355e-10 -2.0347503e-14 3.42219e-15
1.04173786e-07 -4.163607e-10 5.7521816e-06 -0.021500139 0.00012634312 -0.06026389 1.7125342e-09 -0.076825984
0.00047437646 -3.2831963e-07 2.2912148e-09 -0.05697202 -2.693711e-05 3.796165e-10 -0.057432447 -8.6288975e-07
-1.8197157e-05 0.00013442924 6.9776406e-14 -4.1815618e-12 1.7423294e-11 0.0008223098 -0.039203532 -1.9584654e-06
-8.213816e-12 4.955873e-06 1.0802379e-08 1.4093876e-05 5.532847e-10 1.2523612e-05 1.2365116e-05 -2.7096377e-05
-6.61026e-09 -0.061409973 -6.788211e-08 -0.046121217 -0.041647248 -8.3421866e-05 -1.8795814e-10 -0.05523764
-5.094084e-08 -0.05939685 0.0011258236 -0.051398885 6.2164945e-10 -0.057481024 -0.05817898 2.7009023e-11
9.219095e-09 -0.047728512 -1.7502895e-08 -0.056226615 1.0949392e-10 -0.023700159 -0.00013339592 -6.979208e-09
-4.612761e-13 -9.6119726e-09 0.005567729 0.0029984775 -1.7963899e-13 -1.612672e-06 1.3318306e-07 1.0267512e-13
-0.00020550474 1.1521216e-13 -5.890531e-06 -3.625551e-14 2.7572317e-10 -6.4158145e-10 1.3556909e-06 -8.579987e-12
5.470892e-10 6.086714e-08 -1.678884e-14 -3.033997e-09 -6.913847e-09 -6.225481e-10 3.717562e-11 -6.21843e-14
4.78617e-13 -2.0243392e-13 -1.0899755e-06 7.763451e-10 -4.6869654e-06 3.4807003e-06 -1.4199759e-07 -6.4e-44
5.962244e-15 0.00025530442 1.08257993e-13 5.5181294e-12 6.14e-43 2.849689e-14 3.2845872e-11 -8.208364e-16
1.3945519e-14 3.0334096e-13 1.6167708e-09 -9.5848005e-09 -6.2923897e-07 3.8933744e-14 9.104668e-14 5.3912855e-15
1.39789e-07 -5.360559e-11 -3.4199253e-08 1.9658658e-11 -9.641688e-09 1.1607097e-13 8.825549e-08 -4.6164828e-09
-2.298565e-06 -1.440658e-14 -4.209127e-12 6.718483e-05 9.1e-44 2.673881e-07 -1.5150073e-13 -2.2555405e-14
-9.887783e-09 -6.073701e-07 -4.9348428e-09 -9.8053015e-14 -1.954637e-10 -1.399415e-07 -4.1730243e-12 -0.0
-3.8e-44 5.11e-43 -2.12874e-11 -5.352229e-07 8.673272e-08 -1.1246228e-11 3.2e-44 -6.5775413e-07
00000000: b6cb b5b4 6c61 8e37 cce6 e59f 5bb7 1222
00000010: f0ea 8d2e b2ac a0ad 7c2b d935 c4c3 6ba1
00000020: fc8d 9032 ce2c 85ad af00 0000 6cdb 9aad
00000030: 3e01 0080 321e f02c 7bff 81a1 f6ec b321
00000040: 0c3e 95ad b273 98ae 090a ec34 2622 8b1d
00000050: 07b3 f1b5 ed17 91a8 5aea 56af c700 0000
00000060: 4b15 182f 4d17 fc37 e50a 84b1 d9ed 93ad
00000070: 716f 2121 5bd2 21b3 977c 9c34 5564 2880
00000080: 3e91 37b4 6021 05ab d691 c6a8 8d4d 2a22
00000090: 0945 a9a0 5127 d9ac 4851 c6b0 5eaa 82a9
000000a0: 3d43 a2b0 993d e5ad 285f d8a5 6133 f7a7
000000b0: 4e60 1219 1c84 c1ad 0692 a4af 744c 0a32
000000c0: 7563 9fb1 6956 70ae 7a2d 9429 ef5e 96ab
000000d0: c829 09b7 1cc9 8921 366e 6e22 4980 6bab
000000e0: 4100 0000 9bdc 441f 1567 3ba2 78fd 0821
000000f0: 7167 e1b8 c735 9732 49f9 c92f aa9c 49ad
00000100: 0e17 3bb2 f6d9 d8af 07eb d430 0900 0000
00000110: b747 77b7 229c 8d1e 1028 13ae 4bef 06b1
00000120: 3e44 3134 f3f3 2335 0900 0080 c2f7 ccb0
00000130: d2fa 4e31 8efe 5033 8344 cb32 cc51 3aac
00000140: a795 832c 3b92 11b1 15ec 21b2 a6a5 28ac
00000150: 2200 0000 6dde 1435 3400 0080 b05b 00b8
00000160: b916 4e23 5005 962c 3d78 cc33 1ccb d5b4
00000170: 87d3 ed24 b035 05af cdf3 4b37 0800 0080
00000180: 53d5 bf21 0656 4db5 06c2 a5ac b98c 28ae
00000190: 5b0f c330 cf84 e4b1 633f 4eaf 8457 28a6
000001a0: 0ac4 7e32 2bf9 34b1 e7e0 afb5 51ed 95b0
000001b0: 8db5 e42e 4aaf 20b4 9f25 19b5 4342 8e2c
000001c0: 60de 21b4 a800 acad 05b1 6230 0300 0080
000001d0: 9ed0 cd32 b825 e82f 2646 b7a8 4398 7627
000001e0: 25b6 df33 8fe5 e4af dd02 c136 0f21 b0bc
000001f0: f97a 0439 45d7 76bd 715e eb30 f156 9dbd
00000200: bbb5 f839 e843 b0b4 7a73 1d31 7e5b 69bd
00000210: 01f7 e1b7 46b2 d02f 493e 6bbd 55a1 67b5
00000220: 19a6 98b7 93f5 0c39 5c1f 9d29 2920 93ac
00000230: c541 992d 4790 573a e293 20bd 2e6e 03b6
00000240: bd7f 10ad a04a a636 5e95 3932 bd74 6c37
00000250: f315 1830 811c 5237 c573 4f37 074d e3b7
00000260: 7620 e3b1 0689 7bbd 96c6 91b3 9ae9 3cbd
00000270: 4e96 2abd c6f2 aeb8 83a9 4eaf dd40 62bd
00000280: 0cca 5ab3 1d4a 73bd 5f90 933a a387 52bd
00000290: b1e0 2a30 3971 6bbd 154d 6ebd ea92 ed2d
000002a0: 0262 1e32 f97e 43bd 4659 96b2 e14d 66bd
000002b0: 99c7 f02e d626 c2bc 32e0 0bb9 c3cd efb1
000002c0: 72d6 01ab e721 25b2 7f71 b63b 1b82 443b
000002d0: 6a41 4aaa fd72 d8b5 1501 0f34 2d34 e729
000002e0: c27c 57b9 a5b7 012a 47a7 c5b6 c247 23a9
000002f0: 9694 972f 485b 30b0 2ff5 b535 d4f0 16ad
00000300: fb61 1630 10b6 8233 6e38 97a8 a47e 50b1
00000310: d78e edb1 ee1f 2bb0 0780 232e cf06 8ca9
00000320: fdb7 062b 9beb 63aa 464b 92b5 6e66 5530
00000330: ba44 9db6 fa95 6936 0078 18b4 2e00 0080
00000340: ffcf d627 61da 8539 7cc6 f329 e426 c22c
00000350: b601 0000 ad56 0029 2a75 102e 0997 6ca6
00000360: 5b38 7b28 0ac4 aa2a 1135 de30 66aa 24b2
00000370: f9e8 28b5 8d57 2f29 d604 cd29 d53d c227
00000380: e818 1634 87c2 6bae 7ae2 12b3 5deb ac2d
00000390: 98a4 25b2 2eaf 022a f886 bd33 039f 9eb1
000003a0: 0c41 1ab6 50c3 81a8 7218 94ac 95e5 8c38
000003b0: 4100 0000 8a8d 8f34 1d93 2aaa 3929 cba8
000003c0: eede 29b2 280a 23b5 568f a9b1 b7cb dca9
000003d0: 24ea 56af d442 16b4 43d3 92ac 0000 0080
000003e0: 1b00 0080 6d01 0000 f73e bbad 3dac 0fb5
000003f0: d141 ba33 82d8 45ad 1700 0000 8590 30b5

bias f4 [60]
-1.8164182e-09 -9.309052e-07 -0.052281816 -2.114872e-06 -5.1254574e-05 0.55182725 -0.0014365566 -3.4584568e-06
0.2573448 -2.3372095e-05 -0.0027664583 -5.2240002e-06 -7.573487e-06 0.44341555 0.006512689 -0.06856056
-1.7650088e-08 0.29209587 -2.4564498e-10 -0.0007113906 -3.2946232e-08 0.13121833 -0.039544556 -8.7372564e-07
0.497146 -0.012429095 -1.9696587e-08 5.9655586e-06 -0.00027138818 -1.141229e-07 0.31993383 0.01854473
-2.4595494e-07 -0.044562753 -0.0010167635 0.15178902 -3.963278e-08 -0.031817093 0.33571288 -3.5978967e-06
-0.022515815 -0.11609929 -0.032392595 -0.02026615 -2.2740305e-05 0.19579174 -1.6745341e-06 0.28910333
0.37630358 -9.1024594e-05 -3.3949868e-07 -7.6084135e-09 -0.0003471779 0.5819935 -0.00035719454 -0.004390223
-9.533949e-08 -4.6979226e-10 -2.775412e-07 -2.5527223e-05
00000000: 89a5 f9b0 51e3 79b5 7525 56bd 39ed 0db6
00000010: 2efa 56b8 8d44 0d3f d74a bcba d617 68b6
00000020: b3c2 833e 310f c4b7 784d 35bb d249 afb6
00000030: c21f feb6 5d07 e33e 6568 d53b 7b69 8cbd
00000040: f49c 97b2 978d 953e 750b 87af 9d7c 3aba
00000050: c480 0db3 195e 063e 79f9 21bd f889 6ab5
00000060: ec89 fe3e 67a3 4bbc 4131 a9b2 c22b c836
00000070: 1b49 8eb9 ba13 f5b3 5ece a33e 1eeb 973c
00000080: ca0b 84b4 6f87 36bd ec44 85ba 956e 1b3e
00000090: b438 2ab3 a452 02bd 8fe2 ab3e 6573 71b6
000000a0: 1673 b8bc 77c5 edbd 19ae 04bd 3205 a6bc
000000b0: 6fc2 beb7 a17d 483e 8ec0 e0b5 5a05 943e
000000c0: ddaa c03e 75e4 beb8 5844 b6b4 28b6 02b2
000000d0: 6e05 b6b9 87fd 143f d745 bbb9 dcdb 8fbb
000000e0: 70bd ccb3 b122 01b0 f900 95b4 4b23 d6b7

weight f4 [60, 60]
1.3518961e-05 -5.7433463e-12 -5.7198024e-11 -0.00010099864 7.229873e-10 -1.1950438e-08 1.1919975e-10 -1.6268521e-09
-1.523464e-09 -2.3066464e-09 -3.3766634e-07 4.8239434e-07 -4.267061e-21 -1.08696785e-08 6.1203603e-10 -6.986406e-08
-3.758191e-12 -1.7188418e-09 -3.595446e-07 -2.7247512e-07 -6.4251634e-07 -4.5742463e-09 4.098783e-11 -7.7818877e-13
-1.1458402e-08 5.5232237e-09 -3.1085454e-11 -9.800007e-15 -3.014972e-07 4.597946e-12 -2.5987035e-09 2.5667812e-09
1.6851875e-08 4.515063e-10 5.4403704e-10 -1.5164423e-09 -2.1787937e-07 -2.0820473e-10 -3.932136e-09 -1.8880597e-07
5.189439e-05 -1.958342e-09 -4.29468e-05 -2.5529603e-10 1.884201e-13 -2.6188172e-09 4.0663378e-10 -2.1224966e-09
-6.3380563e-09 8.067753e-09 -2.3561768e-07 -7.951632e-12 -1.4667894e-08 -1.2317164e-08 2.0265495e-07 8.058551e-07
-6.891355e-09 -3.1701276e-12 2.3024533e-08 -2.7391446e-12 6.446845e-06 -2.874176e-06 3.2045526e-05 2.8867756e-08
-6.1707743e-07 -2.4674046e-06 -4.253834e-09 1.134984e-06 -1.2553174e-06 2.290499e-12 -8.951369e-12 5.022449e-25
-1.2794253e-11 1.0711951e-08 -7.636299e-08 2.0675217e-05 -8.71241e-11 -1.6858991e-06 1.6831574e-08 4.625434e-09
3.1278072e-10 3.0385138e-07 -0.0002935539 1.6158954e-11 -7.9363883e-07 -2.3332168e-08 4.4264654e-11 5.2905824e-14
2.2208153e-09 -1.2644978e-13 5.731248e-07 -3.8852274e-08 -1.7653136e-09 -9.855186e-10 4.1399856e-10 -9.037624e-07
-3.7291702e-22 3.754773e-09 1.0303895e-06 6.2485294e-15 -2.9547555e-23 -5.2580276e-06 -1.02687636e-07 1.9110236e-11
-3.5452377e-08 -4.451844e-06 -3.444202e-08 -2.9473073e-09 1.1979228e-06 -5.6317378e-11 -1.2031171e-22 -2.0622509e-11
1.9479175e-11 -3.1955196e-06 2.8382048e-11 1.1312425e-23 -1.8751924e-10 -3.8300025e-09 -5.1454954e-06 -1.850421e-07
1.0245732e-18 -6.9525896e-09 0.00061058346 4.290901e-14 -2.5796584e-17 0.2183976 -5.089e-31 2.3011504e-38
0.02392733 -8.145462e-27 -5.5832705e-30 7.0177156e-16 -1.5294037e-14 0.14294517 0.33778402 0.0056619933
2.6575712e-13 0.42297062 7.646095e-11 3.1064946e-09 -1.6209133e-11 0.18741067 -4.2422525e-06 2.8681588e-17
0.17111106 0.35706848 -1.02736236e-10 5.9635613e-07 -3.342843e-14 4.4436624e-25 0.062314365 0.045151412
4.736755e-15 8.781339e-05 6.54253e-16 0.1785996 -9.9817724e-11 0.019554509 0.077202894 1.5141593e-32
-2.272754e-05 0.37003273 0.00010409572 -1.3314823e-06 2.5553015e-12 0.59028125 -2.4940605e-09 0.04952181
0.09449807 1.9694902e-27 4.1008686e-08 1.0025874e-12 0.00048698622 0.2425285 6.567363e-24 -1.3666114e-08
-1.7304038e-11 -1.07487394e-10 -4.628188e-10 -2.3954988e-14 -1.5808443e-13 -1.8066821e-08 0.0013234178 -3.365608e-16
-8.161804e-11 0.32915667 3.1470874e-16 -1.7322343e-35 0.070234746 -6.8736846e-14 -5.110267e-16 -8.801543e-11
-1.6224957e-14 0.2348171 0.5409914 0.011762298 -3.1270922e-13 0.7117154 1.7642054e-10 3.23933e-06
2.2027234e-11 0.3042704 -0.00030291817 -1.0628102e-14 0.27087042 0.5841997 -5.5194377e-10 -4.4159206e-06
-4.854788e-08 2.963783e-17 0.12516558 0.089142665 -1.7655627e-15 0.00081141153 1.6731823e-09 0.3114164
1.3485858e-13 0.036118843 0.14501987 -1.1060639e-17 -0.00037858542 0.5964932 0.0013658772 -6.0591617e-07
1.974088e-12 0.97787184 5.09452e-09 0.10694896 0.16866523 3.0653357e-27 -2.1059074e-07 1.8102269e-12
0.0011575036 0.35836217 -2.1287215e-15 -7.12226e-06 -2.41262e-11 9.894668e-11 -5.3004284e-10 -3.5715642e-14
-1.5167668e-20 -2.9783709e-09 0.00037837136 -4.0067555e-15 -1.0932006e-21 0.18075594 -1.9366295e-37 -1.3437609e-38
0.013140049 -5.1448736e-33 -9.882501e-37 -4.974698e-19 -2.6686239e-15 0.113682374 0.27802297 0.0036708657
00000000: 7fcf 6237 7713 caac 408f 7bae 3bcf d3b8
00000010: b5bb 4630 954e 4db2 bf0f 032f c597 dfb0
00000020: 2062 d1b0 f482 1eb1 8248 b5b4 e37d 0135
00000030: 7b34 a19d 5abd 3ab2 353c 2830 2c08 96b3
00000040: c63a 84ac 5f3c ecb0 6f07 c1b4 b248 92b4
00000050: 6379 2cb5 7f2b 9db1 3244 342e 690a 5bab
00000060: 96da 44b2 cac6 bd31 1cb7 08ae 8e8a 30a8
00000070: 76dd a1b4 9ec6 a12c e094 32b1 4b63 3031
00000080: aac1 9032 dd37 f82f 348b 1530 126b d0b0
00000090: 3af2 69b4 6cec 64af 6f1b 87b1 97ba 4ab4
000000a0: 2da9 5938 8493 06b1 c621 34b8 b959 8caf
000000b0: 6524 542a b8f6 33b1 9e8c df2f 5bdb 11b1
000000c0: 22c6 d9b1 5a9a 0a32 18fe 7cb4 f8e2 0bad
000000d0: 14fe 7bb2 769b 53b2 5e99 5934 f151 5835
000000e0: 00c9 ecb1 f113 5fac 7cc7 c532 0bc0 40ac
000000f0: fa51 d836 f8e1 40b6 9f68 0638 def8 f732
00000100: 3da5 25b5 b095 25b6 1f29 92b1 c155 9835
00000110: 617c a8b5 f62d 212c 6279 1dad f16f 1b17
00000120: 3114 61ad a907 3832 fffc a3b3 b16f ad37
00000130: 8296 bfae 0d47 e2b5 0695 9032 bfed 9e31
00000140: f9f3 ab2f 0421 a334 23e8 99b9 bb22 8e2d
00000150: 720a 55b5 fb6b c8b2 92ad 422e 4344 6e29
00000160: ff9c 1831 ab5e 0eaa d6d8 1935 87de 26b3
00000170: 739f f2b0 da72 87b0 1e99 e32f 149a 72b5
00000180: 1d6a e19b 5503 8131 ea4b 8a35 8320 e127
00000190: 1ae2 0e9a 1d6e b0b6 2085 dcb3 6d18 a82d
000001a0: 4d44 18b3 0c61 95b6 67ed 13b3 9489 4ab1
000001b0: 50c8 a035 bbaf 77ae ac72 119b c365 b5ad
000001c0: 3457 ab2d 9c72 56b6 b1a6 f92d 6ad0 5a19
000001d0: f92d 4eaf 0f99 83b1 78a7 acb6 fcaf 46b4
000001e0: 4833 9721 a0e3 eeb1 900f 203a b83e 4129
000001f0: 76ee eda3 9fa3 5f3e c225 258d b692 fa00
00000200: 3f03 c43c 6656 2194 ff7b e28e 9a45 4a26
00000210: a6c1 89a8 3860 123e 07f2 ac3e 3e88 b93b
00000220: a39b 952a 9b8f d83e b023 a82e 087a 5531
00000230: b993 8ead 95e8 3f3e ac58 8eb6 3e45 0424
00000240: bd37 2f3e aed1 b63e 5ceb e1ae 4815 2035
00000250: 5b8c 16a9 5286 0917 593d 7f3d b0f0 383d
00000260: dba8 aa27 7428 b838 5a93 3c26 d0e2 363e
00000270: 6280 dbae c730 a03c 8d1c 9e3d 423d 9d0a
00000280: 05a7 beb7 ee74 bd3e f74d da38 62b5 b2b5
00000290: 38d0 332c ac1c 173f fa63 2bb1 62d7 4a3d
000002a0: 3488 c13d 020a 1c13 8721 3033 051a 8d2b
000002b0: 2f52 ff39 6459 783e 0310 fe18 34c8 6ab2
000002c0: 3b35 98ad 065e ecae f56f feaf 71c4 d7a8
000002d0: bcfc 31aa 5c31 9bb2 8876 ad3a 9c03 c2a5
000002e0: df7a b3ae 3987 a83e d06a b525 e733 b885
000002f0: 3cd7 8f3d 18c8 9aa9 1d4b 13a6 488c c1ae
00000300: 3424 92a8 e573 703e 6a7e 0a3f a7b6 403c
00000310: 260a b0aa fb32 363f f8f9 412f 4463 5936
00000320: ecc0 c12d 54c9 9b3e fdd0 9eb9 7875 3fa8
00000330: 87af 8a3e 1d8e 153f 97b7 17b0 782c 94b6
00000340: f582 50b3 2cae 0824 682b 003e 6e90 b63d
00000350: c471 fea6 e8b4 543a def5 e530 f871 9f3e
00000360: 57d6 172a 5af1 133d 1780 143e 6408 4ca3
00000370: e07c c6b9 c7b3 183f 3c07 b33a 3ea6 22b5
00000380: 02ea 0a2c cf55 7a3f df0b af31 0e08 db3d
00000390: 94b6 2c3e 65dc 7213 be1e 62b4 4cc4 fe2b
000003a0: 60b7 973a 3f7b b73e fb63 19a7 bffb eeb6
000003b0: 5f37 d4ad 0796 d92e 73b2 11b0 55d9 20a9
000003c0: 2c41 8f9e 0eac 4cb1 2560 c639 cc5b 90a7
000003d0: 2633 a59c 1618 393e d8cc 8382 9652 9280
000003e0: 5c49 573c aeb5 d589 5d24 a883 c1d3 12a1
000003f0: 6c4b 40a7 4ed2 e83d 0759 8e3e e892 703b

bias f4 [60]
-5.5473897e-09 -2.0187583e-06 0.17284639 0.28500438 0.13955712 0.14597252 -6.3931734e-06 -1.4561696e-11
-0.00020784409 -7.5756197e-06 0.10766621 0.16117482 0.11235421 -0.01059711 0.1613794 0.12415999
0.14578849 -9.308371e-08 0.13296357 0.14281368 0.12469011 4.035943e-12 0.14058274 0.11782653
0.16934614 -2.4402627e-06 0.15627305 -7.06388e-10 -2.217783e-09 0.15619358 0.1307814 -5.5400585e-07
0.17809944 0.10955096 -4.111329e-07 1.9426803e-10 -1.7648573e-09 0.17536862 0.16611995 -3.087043e-09
-2.6801114e-08 0.13964553 0.1145124 -9.664318e-10 -0.0015365437 -3.568703e-07 0.15297057 -0.005860214
0.17502433 0.11950403 0.16795135 0.14691205 -5.5882992e-08 -5.4146267e-07 -1.6974037e-09 0.17980827
-1.6317081e-10 0.16679361 -2.327205e-11 -4.616829e-09
00000000: 5b9b beb1 017a 07b6 a5fe 303e 18ec 913e
00000010: 10e8 0e3e d279 153e f184 d6b6 0616 80ad
00000020: b9f0 59b9 1432 feb6 1a80 dc3d 030b 253e
00000030: f719 e63d 809f 2dbc a440 253e 9847 fe3d
00000040: 9449 153e 50e5 c7b3 9a27 083e c03d 123e
00000050: 875d ff3d 8b00 8e2c ecf4 0f3e 094f f13d
00000060: 1369 2d3e 65c3 23b6 0b06 203e a32b 42b0
00000070: a767 18b1 36f1 1f3e 8feb 053e feb6 14b5
00000080: b35f 363e 415c e03d adb9 dcb4 9799 552f
00000090: 658f f2b0 d593 333e 591b 2a3e d623 54b1
000000a0: 4638 e6b2 3dff 0e3e 7a85 ea3d 4cd3 84b0
000000b0: da65 c9ba e197 bfb4 51a4 1c3e 0a07 c0bb
000000c0: 9439 333e 87be f43d 70fb 2b3e 1d70 163e
000000d0: 0004 70b3 0859 11b5 154a e9b0 a91f 383e
000000e0: 8068 33af f2cb 2a3e ffb3 ccad 0fa2 9eb1

weight f4 [60, 60]
7.045595e-06 0.00011573952 -1.2336863e-16 -1.189717e-09 1.01076766e-16 -1.2389452e-16 9.607832e-09 3.6399243e-08
-1.4619412e-08 7.564108e-07 8.5034657e-17 1.5396874e-16 6.794154e-17 9.7837916e-09 1.4527937e-16 -1.05549245e-16
-8.0474694e-17 5.75364e-06 7.8208795e-17 -2.577074e-17 -9.034567e-17 -3.7041687e-09 7.0511814e-17 -3.3372996e-17
7.187829e-17 -2.9276872e-09 -2.2592195e-17 -1.920288e-07 -5.6088233e-30 -3.3735804e-17 7.1509407e-17 -2.8e-43
-2.4348851e-16 9.7853905e-17 -4.897109e-07 6.722987e-10 -4.470049e-11 -1.6516039e-16 1.6934961e-16 -4.0973572e-07
6.168753e-07 4.95118e-17 2.622086e-17 3.3094747e-07 5.839594e-05 3.7240547e-10 -1.1885676e-16 -1.2953221e-07
-2.354253e-16 -6.422268e-17 1.3117383e-16 -9.10749e-17 -5.772937e-05 -0.0003682971 3.9549446e-05 -2.4070718e-16
1.8292413e-06 1.4809067e-16 -8.904822e-10 -9.163868e-10 3.9242838e-11 -0.00020663699 -0.008708989 -0.015652975
-0.0067033092 -0.007239655 4.8928933e-07 4.971596e-08 -8.523488e-06 -1.7431474e-07 -0.004675368 -0.008085909
-0.0050379275 -7.988499e-06 -0.008058544 -0.0057541477 -0.0071401573 2.456535e-07 -0.0063227424 -0.0069883773
-0.005837518 1.05375195e-10 -0.006793397 -0.0053437334 -0.008487504 1.9286683e-10 -0.0077351583 -1.206322e-07
-6.142625e-07 -0.0077446816 -0.006293856 -3.7980797e-06 -0.008978161 -0.004831152 -2.7570676e-08 -9.8104486e-08
-1.517281e-07 -0.008799073 -0.008260169 4.7209248e-08 -3.9447428e-11 -0.006850873 -0.0051738275 -8.275402e-08
-5.2731847e-12 -1.3084225e-07 -0.0075438106 2.1985116e-12 -0.008925209 -0.0054394873 -0.00840134 -0.007158029
-7.3742214e-08 -4.6317284e-05 -2.9031533e-10 -0.009041415 -9.56532e-09 -0.00836903 -9.749006e-07 -2.6069446e-13
-4.0843973e-10 3.8488116e-07 0.2370703 0.38936198 0.19364792 0.20467263 1.9444867e-06 4.2675013e-12
-3.222787e-05 -1.3929284e-05 0.15505159 0.2226625 0.16136988 -0.0027554864 0.22293162 0.17470965
0.20245272 3.551676e-08 0.18586348 0.19966063 0.17611498 3.4162934e-13 0.19536087 0.16666102
0.23190312 -2.1767842e-06 0.21501131 -3.3912313e-09 -6.923379e-10 0.2156941 0.18531732 -1.2237746e-07
0.24260622 0.15772463 9.586113e-08 -1.5690975e-11 2.9580444e-10 0.23826195 0.22696556 -3.0078229e-09
-1.8715694e-08 0.19656059 0.16389412 -7.7643474e-26 7.6722466e-07 -2.6303744e-07 0.21069585 -7.309755e-05
0.24099377 0.16850968 0.22889164 0.20259148 3.5208967e-09 -4.469762e-07 4.8883614e-10 0.24291675
3.921068e-10 0.22870417 -3.5352593e-12 -9.91256e-10 -1.100163e-09 2.2682339e-06 0.18536921 0.30556124
0.15097694 0.1601896 3.2948253e-07 -3.455818e-12 9.308663e-06 -1.2550246e-05 0.12055033 0.17425166
0.12559678 -0.0040704273 0.17399138 0.13600665 0.15809429 3.072829e-08 0.14485258 0.15606184
0.13742033 1.5416278e-12 0.15249859 0.12983304 0.1810918 -2.3156476e-06 0.16834256 -1.5388408e-09
-7.1847345e-10 0.16812693 0.14442134 -1.3447922e-07 0.18934047 0.12267957 1.2882232e-07 -1.1129482e-11
-6.3420846e-10 0.18622112 0.17711963 -8.9570995e-10 -1.7642376e-08 0.15350291 0.1275163 1.7193316e-31
-1.501027e-09 -1.6898609e-07 0.16496342 -9.401015e-06 0.18880862 0.13127077 0.17941909 0.15841016
8.719753e-10 -5.6550135e-07 -9.2795527e-10 0.19049251 4.722201e-10 0.17882264 4.348655e-12 -1.2927792e-09
5.496035e-08 5.896043e-19 -2.9154066e-07 -2.3112572e-05 -2.0595042e-08 -4.8531344e-08 -1.856234e-10 1.5140596e-05
-9.635486e-09 0.000112432754 -2.759343e-10 -1.4380859e-07 -7.201942e-10 2.2720988e-06 -1.3920122e-07 -3.542485e-09
00000000: 3369 ec36 2fb9 f238 fe3b 0ea5 7283 a3b0
00000010: 3111 e924 35d7 0ea5 b10f 2532 6455 1c33
00000020: db28 7bb2 280c 4b35 9a13 c424 8d83 3125
00000030: 9ba9 9c24 9215 2832 e77e 2725 4761 f3a4
00000040: e08f b9a4 640f c136 5356 b424 70b1 eda3
00000050: ac52 d0a4 6d8c 7eb1 d496 a224 e1e7 19a4
00000060: 74bd a524 6b30 49b1 5060 d0a3 7a30 4eb4
00000070: 5a85 e38e 3594 1ba4 b4e3 a424 c800 0080
00000080: 905c 8ca5 c0a2 e124 ad74 03b5 d1cc 3830
00000090: 4798 44ae be6a 3ea5 2f3f 4325 a6f9 dbb4
000000a0: 5997 2535 3755 6424 41d8 f123 13ad b134
000000b0: 2aee 7438 69bb cc2f 5308 09a5 8b15 0bb4
000000c0: a4b6 87a5 6116 94a4 ae3b 1725 2201 d2a4
000000d0: 7022 72b8 0018 c1b9 e5e1 2538 1cc2 8aa5
000000e0: 4184 f535 a7bc 2a25 1dc6 74b0 fde4 7bb0
000000f0: 8297 2c2e b2ac 58b9 26b0 0ebc ab3a 80bc
00000100: 6fa7 dbbb a13a edbb b557 0335 4787 5533
00000110: 1a00 0fb7 452b 3bb4 d433 99bb c37a 04bc
00000120: 3315 a5bb 5806 06b7 fc07 04bc 4a8d bcbb
00000130: fbf7 e9bb 5ce2 8334 022f cfbb c2fe e4bb
00000140: a648 bfbb f6b8 e72e 259b debb 7c1a afbb
00000150: 2c0f 0bbc 300f 542f 3677 fdbb 2087 01b4
00000160: cce3 24b5 19c7 fdbb b13c cebb 83e2 7eb6
00000170: 2319 13bc a44e 9ebb 8fd4 ecb2 83ad d2b3
00000180: b4ea 22b4 fd29 10bc a955 07bc 1ec3 4a33
00000190: db7d 2dae 4a7d e0bb 3689 a9bb 81b6 b1b3
000001a0: a088 b9ac a57d 0cb4 1232 f7bb ddb4 1a2c
000001b0: 0a3b 12bc ba3d b2bb c6a5 09bc e68d eabb
000001c0: 365c 9eb3 ce44 42b8 409a 9faf 7122 14bc
000001d0: b954 24b2 421e 09bc 54d9 82b5 08c2 92aa
000001e0: c88a e0af aaa1 ce34 8fc2 723e 745a c73e
000001f0: a44b 463e b495 513e 077e 0236 3c26 962c
00000200: 692c 07b8 d2b1 69b7 d8c5 1e3e a301 643e
00000210: 253e 253e 6495 34bb 3048 643e 16e7 323e
00000220: c44f 4f3e 178b 1833 ff52 3e3e d673 4c3e
00000230: 7c57 343e fa51 c02a ae0c 483e 30a9 2a3e
00000240: 0378 6d3e de14 12b6 ed2b 5c3e 2c0b 69b1
00000250: f34e 3eb0 eade 5c3e d3c3 3d3e dc66 03b4
00000260: c46d 783e 9182 213e 37dc cd33 ef04 8aad
00000270: c69e a22f f1fa 733e a969 683e 2eb2 4eb1
00000280: 3fc4 a0b2 2e47 493e dcd3 273e 663c c095
00000290: 47f3 4d35 9737 8db4 a7c0 573e f34b 99b8
000002a0: 12c7 763e cd8d 2c3e 9262 6a3e 2474 4f3e
000002b0: 45f4 7131 f1f7 efb4 c95e 0630 2bbf 783e
000002c0: 2090 d72f 6d31 6a3e 92c5 78ac b83c 88b0
000002d0: 8b34 97b0 f637 1836 6dd1 3d3e 8672 9c3e
000002e0: b399 1a3e be08 243e bce3 b034 7c2e 73ac
000002f0: 672c 1c37 e58e 52b7 17e3 f63d 076f 323e
00000300: 719c 003e 3861 85bb cc2a 323e 5445 0b3e
00000310: 78e3 213e 1dfa 0333 3c54 143e adce 1f3e
00000320: eab7 0c3e fff6 d82b 9728 1c3e f4f2 043e
00000330: 2170 393e 8666 1bb6 fe61 2c3e 267f d3b0
00000340: 137e 45b0 7729 2c3e 30e3 133e 5e65 10b4
00000350: 78e2 413e 6d3f fb3d 6952 0a34 bbca 43ad
00000360: 7454 2eb0 c0b0 3e3e d95e 353e fc35 76b0
00000370: ff8b 97b2 de2f 1d3e a293 023e 982e 5f0c
00000380: b14c ceb0 8b72 35b4 2cec 283e 0db9 1db7
00000390: 0c57 413e d86b 063e a3b9 373e 4636 223e
000003a0: cfaf 6f30 f5cc 17b5 0c13 7fb0 7810 433e
000003b0: 89cd 0130 481d 373e 3401 992c a0ad b1b0
000003c0: 8b0d 6c33 3e05 2e21 0b85 9cb4 dfe1 c1b7
000003d0: fae8 b0b2 c770 50b3 5818 4caf 5d04 7e37
000003e0: 5189 25b2 e0c9 eb38 4db2 97af ce69 1ab4
000003f0: 29f7 45b0 5c7a 1836 5777 15b4 0e70 73b1

bias f4 [60]
9.094756e-17 -0.0010071525 0.047632072 0.03734544 4.124576e-18 -0.00017240398 0.04419655 -2.8360894e-10
1.2130046e-08 0.0383691 0.046707455 -8.913431e-05 2.2741085e-06 0.004868642 8.376638e-07 7.205029e-17
0.04431588 0.04575824 7.801867e-08 0.040027663 1.4770234e-10 -1.4355862e-05 0.04393402 -3.0757843e-07
0.04312173 0.042876028 0.043758128 0.043512367 0.040463924 -5.6562844e-13 0.00022169962 -4.8255324e-06
0.00307427 0.043810714 0.048070613 0.034021266 0.0007263172 0.041357942 8.660726e-05 -0.000106102954
0.044341844 -4.0105538e-06 4.8841835e-06 -2.0599837e-16 0.04982027 1.757388e-07 -6.824538e-14 0.029058233
0.03476705 -7.952955e-09 0.047919758 0.0480061 2.1980086e-05 -3.4268724e-06 -3.4201368e-09 0.03875456
2.3649072e-07 3.4372316e-10 2.3444651e-27 0.042948883
00000000: f7b5 d124 6e02 84ba d919 433d 88f7 183d
00000010: 852b 9822 57c7 34b9 7107 353d 69ea 9baf
00000020: 8264 5032 eb28 1d3d 5150 3f3d 9eed bab8
00000030: e39c 1836 2189 9f3b d1db 6035 fc22 a624
00000040: 9184 353d fe6c 3b3d 388b a733 0cf4 233d
00000050: 8366 222f f5d9 70b7 29f4 333d 4221 a5b4
00000060: 69a0 303d c69e 2f3d b93b 333d 063a 323d
00000070: 80bd 253d d335 1fab 0a78 6839 02eb a1b6
00000080: b179 493b dd72 333d b1e5 443d e259 0b3d
00000090: 5266 3e3a f266 293d eba0 b538 9783 deb8
000000a0: cb9f 353d 6592 86b6 d1e2 a336 fd7f 6da5
000000b0: 5710 4c3d b7b2 3c34 c8ac 99a9 880b ee3c
000000c0: e567 0e3d 77a1 08b2 8247 443d 0ba2 443d
000000d0: e061 b837 38f9 65b6 af07 6bb1 1abd 1e3d
000000e0: 13ee 7d34 bcf6 bc2f 67bf 3913 2beb 2f3d

weight f4 [1, 60]
-0.0020364828 -0.01416972 0.9747068 0.7738222 -0.003632209 0.00044376747 0.9072358 0.014183395
7.2377015e-06 0.7939715 0.95578945 0.00031155426 -8.5796055e-06 -0.02379097 2.215297e-06 -0.0055829296
0.9095846 0.93800086 7.248266e-07 0.82606244 -2.0119073e-06 5.252063e-05 0.9016033 -8.0212664e-07
0.88636607 0.8819014 0.89897984 0.8941075 0.8341873 -7.661761e-05 1.1969601e-05 3.627978e-06
-0.0113703655 0.89983547 0.98345333 0.7082456 0.012163137 0.85233134 0.00049137446 -0.00034566698
0.90989304 -0.00018128895 4.2636337e-05 0.01474961 1.017816 7.235562e-06 0.0002266107 0.6122329
0.72300273 2.1008638e-08 0.9801726 0.9819578 -9.851232e-05 -1.8637256e-05 -0.00042815215 0.80076665
-9.568372e-06 0.014841139 0.0024908823 0.8830307
00000000: 8376 05bb 1d28 68bc 6386 793f 3619 463f
00000010: 5b0a 6ebb 76a9 e839 9b40 683f 7861 683c
00000020: 62db f236 b741 4b3f 9eae 743f 1b58 a339
00000030: 20f1 0fb7 48e5 c2bc 83aa 1436 02f1 b6bb
00000040: 89da 683f d320 703f b491 4235 d478 533f
00000050: 4e04 07b6 9949 5c38 79cf 663f b951 57b5
00000060: e3e8 623f 4ac4 613f 8b23 663f 3be4 643f
00000070: 4d8d 553f c4ad a0b8 0bd1 4837 3078 7336
00000080: c54a 3abc 9e5b 663f 99c3 7b3f 954f 353f
00000090: e547 473c 6332 5a3f 95cf 003a a33a b5b9
000000a0: c0ee 683f 6218 3eb9 6bd4 3238 59a8 713c
000000b0: cb47 823f 01c9 f236 599e 6d39 4cbb 1c3f
000000c0: b516 393f 7c76 b432 97ec 7a3f 9661 7b3f
000000d0: 6698 ceb8 3457 9cb7 9c79 e0b9 0bff 4c3f
000000e0: d887 20b7 4028 733c 123e 233b 4d0e 623f
