Total_RCS/epoch_200_batch_255_lr_0_0019819414761434403_wd_0_1808248925678225/torch_model_4_SELU.pth (torch, 79675 bytes, 13 tensors)

weight f4 [60, 3]
00000000: 8a7b a33e 0e4c 263f 0b2d 413f 5f66 e5be
00000010: b2b6 603f f9b0 6ebe 673d 9fbe 8db6 373f
00000020: 527f 0f3f 68e0 0abc 1ca1 bdbd 85be e93d
00000030: 4709 f0be 4a19 373f 7ada 733e e6f7 21bc
00000040: 5d0f c1bc 69c3 bcbf bb5a af3e 96e4 1dbf
00000050: 28bc babf 5606 913d 27c0 973f c307 373f
00000060: 4bde 25bf a1d6 4abf 7269 d9be 748d 663d
00000070: 18ea 033f b9a5 9ebd cc6e 06bf 732e 23bf
00000080: fde4 73bf 3a80 e63d 3571 c53e 8a90 b6bd
00000090: 1f7b bfbe 8925 0cbf 0f75 f1be d8c3 0f3f
000000a0: 72b3 62bf 1652 0e3f de6c 58bf 8d33 adbd
000000b0: 1599 033e c489 89be f0fb b33f 2ab2 833f
000000c0: 714a 90bb b4f6 723b 2673 1fbb 487b 00bf
000000d0: 2900 67bf be2d be3e 3963 26bc e738 55bf
000000e0: 1532 96bf aff8 bc3e 7012 153f 1541 a5bd
000000f0: b42c 683e 6889 733f a3fc 793f e7c7 aa3e
00000100: 5ac7 853e 4488 21be 1191 df3a dcae cd3b
00000110: 5bb7 573b 0a53 68bd 02be b0be 1e50 b83e
00000120: 8a2b 0d3b cfcb c23b 11d9 a93b 8d89 0240
00000130: e704 113f b63d 123e 7c6c 30bb 07b3 123a
00000140: 3dbf 28b8 63ea ec3f a8d8 afbb a774 19be
00000150: 5a9e 6639 c395 9f3b afe8 623b 9674 98b9
00000160: b918 a13b 3484 293b c7af 1abf 470f 82be
00000170: f13c 463f 24e4 64b9 c7ab 983b ddfb 263b
00000180: c750 30bf c5e0 68bf 827b 3d3e 3ed9 493e
00000190: fe90 dcbe d5c1 843c d87d 4fbd 1251 723e
000001a0: 7868 f9bc b303 03be af47 213e 4a32 863e
000001b0: b4d8 6c3f 366c 723f 822d c13c f553 96be
000001c0: ae10 a5bf c9b3 02bf 9cf0 f43e 8d17 dd3e
000001d0: 7be2 f63e 30ab 433f 9872 59bf b421 b1bd
000001e0: ea44 fb3e cea4 75bf a560 05bc d1a7 193d
000001f0: 53b0 833f edcd 7d3f cfcd 5d3d c594 18be
00000200: 7168 4c3c 6913 90bd 554b 29bf c313 69bf
00000210: 3e7d df39 3858 9a3b 4b4a 653b 4adc a93e
00000220: 2d7b 96bf 0acb 33be a871 be3b 755f 533d
00000230: 311b 073d 0639 403e 9ac4 e9be 8901 18bf
00000240: d12a 5ebe e16c 53bf 97a5 ccbe 8974 a73e
00000250: adf1 84bf a01e 3bbe 6a6f 61bd 277b 0abf
00000260: 5beb c6bf 8c5d ab3e 3e30 babe 4550 053d
00000270: a8a2 68bd 311a a9be d8df 68bf 92cb f0be
00000280: 9d4a 86bf 69f7 513f 698a c1b9 0e26 dd3b
00000290: 9e9d 643b c405 d83c 103f f0be d59d fe3c
000002a0: 12ac 36b9 b699 9f3b 5b2c 213b 6ae5 b4be
000002b0: 38ec fbbe 23ae dd3d fad2 8d3d 0bd5 74bf
000002c0: 4353 e9bd 20a5 10be 563f 083e 2572 5fbf
0.3193019 0.649598 0.75459355 -0.44804665 0.8777877 -0.23309697 -0.31101534 0.71762925
0.5605365 -0.008476354 -0.09259245 0.11413292 -0.46882078 0.71522963 0.23813811 -0.009885764
-0.023566896 -1.4747134 0.3424891 -0.6167692 -1.4588671 0.070812866 1.1855515 0.7149622
-0.6479232 -0.7923375 -0.4246326 0.056287244 0.51529074 -0.07746453 -0.5251281 -0.6374275
-0.95271283 0.11254926 0.38562933 -0.089142874 -0.3739862 -0.54744774 -0.4715962 0.5615821
-0.8855506 0.55594003 -0.8454112 -0.08457098 0.12851365 -0.2686292 1.406126 1.0288746
-0.0044034054 0.0037073316 -0.0024330108 -0.5018811 -0.9023462 0.37144274 -0.010155492 -0.8328995
-1.1734034 0.3690848 0.5823126 -0.08069054 0.22673303 0.9513154 0.9765112 0.33355638
0.26128656 -0.15774637 0.0017056783 0.0062769484 0.0032915685 -0.056719817 -0.34519964 0.35998625
0.0021540844 0.005944706 0.005183347 2.0396454 0.56648105 0.14281353 -0.002692013 0.0005596135
-4.0232426e-05 1.8509029 -0.0053664036 -0.14985906 0.000219935 0.004870148 0.0034623554 -0.00029078563
0.0049162772 0.0025866153 -0.60424465 -0.2540228 0.7743674 -0.00021828763 0.0046591493 0.0025479712
-0.68873256 -0.9096797 0.18504146 0.19711778 -0.4307937 0.016205708 -0.050657123 0.23663738
-0.030445322 -0.1279438 0.15750001 0.26210243 0.9251816 0.94696367 0.02358127 -0.2936093
-1.2895715 -0.5105558 0.4783982 0.4318203 0.48219666 0.76433086 -0.8494048 -0.086490065
0.49076015 -0.95954597 -0.008140718 0.037513558 1.0288185 0.9914234 0.054151352 -0.14900501
0.012476073 -0.07034952 -0.6613057 -0.9104578 0.00042627187 0.0047102235 0.003498691 0.3317588
-1.175634 -0.17557922 0.0058118887 0.051604707 0.032984916 0.18771753 -0.45657808 -0.5937734
-0.2169602 -0.8258801 -0.39970085 0.32706097 -1.0386254 -0.18273401 -0.055037893 -0.54094166
-1.5540575 0.33469808 -0.3636493 0.032547254 -0.056795746 -0.33027795 -0.9096656 -0.47030312
-1.049152 0.8201814 -0.00036914952 0.0067489212 0.0034883986 0.026369937 -0.46923113 0.03108112
-0.00017420974 0.0048706187 0.0024593088 -0.3533128 -0.49203658 0.108242296 0.06925006 -0.9563758
-0.11392834 -0.1412549 0.1330541 -0.87283546

bias f4 [60]
00000000: d307 843f a89e 62bf 5f60 e63d f78b af3d
00000010: 3465 99be 6508 a5bf b0b9 56bf 073c 1f3f
00000020: d869 7ebf 2d55 a4be e4e9 4ebf 000c e83d
00000030: 7c21 7ebf 5f8e 6abc 0d4c 5bbf 845a 0c3f
00000040: 419d ee3b 0550 c0be fce3 7fbf a434 cc3e
00000050: c2d6 773f 395b a73e ae98 f03b 8f91 653e
00000060: 2373 713b 9c04 a4be 2714 a33b 525a a73e
00000070: 2378 033c 234e 043c 3906 6abd 30ed f23b
00000080: 5c39 74bf e63b 6f3e 200f 42bd ff85 cb3d
00000090: 4b15 ed3e 32cb a0be 81a8 7b3f a422 8d3d
000000a0: 67d0 013f c111 473f baf5 9c3d ed48 67bf
000000b0: d685 f93b ee81 be3d a022 e23c 3897 6abe
000000c0: 4584 20bf f801 15be dfa1 b0bf f526 f73e
000000d0: 850c 0ebf 0b32 433d aa58 0c3c d896 f83c
000000e0: e684 f83b 17de 69be 15ec b6be 9197 7fbf
1.0314888 -0.8852334 0.1124885 0.08571618 -0.29960024 -1.2893187 -0.83877087 0.6220097
-0.99380255 -0.32096234 -0.8082564 0.11330414 -0.99269843 -0.0143161705 -0.8566292 0.54825616
0.0072819297 -0.3756105 -0.9995725 0.39883912 0.9681207 0.32686785 0.0073424196 0.22418807
0.0036842308 -0.32034767 0.0049767676 0.32686096 0.008024248 0.00807527 -0.05713484 0.007413529
-0.95400023 0.23362693 -0.047377706 0.09937667 0.46305308 -0.31405026 0.9830399 0.06891373
0.5070862 0.77761465 0.07664056 -0.9034565 0.0076148314 0.09302126 0.027604401 -0.22909248
-0.6270183 -0.14551532 -1.3799399 0.4827191 -0.55487853 0.047655147 0.008566061 0.030345365
0.007584202 -0.22838627 -0.3572699 -0.99840647

weight f4 [60, 60]
00000000: f7e7 253b 2531 2bb8 2169 bd39 fed8 a73a
00000010: 5027 78ba 3255 9e3a e246 933b a4db 9c39
00000020: 11c6 753b b801 53bb c052 a33b 8296 2dbb
00000030: 3380 eeba 9d39 c83b 1a26 553b 4df8 e13a
00000040: 8e92 6738 6987 1c3b 3531 d7ba 32c1 07bb
00000050: c112 4d3b e8cb 7aba 55ec a536 6cd8 af3a
00000060: a8ce 0438 0fd4 5aba d239 b338 4615 a23a
00000070: e26a 3cb8 6f86 f2b6 efad 5d3b 71f2 01b6
00000080: 6aef 993b 5978 0e3a 83e7 f9ba b2d4 cb3a
00000090: adca a4bb 36d6 b53b 2193 e93a 2964 1739
000000a0: 96ad 36ba 5cdc 0b3b 095b 443a c3f7 aeba
000000b0: 5204 55b8 8fe8 5dbb 173c 37ba 801f 553a
000000c0: 2823 0539 47f9 9bba 4323 05bb bcb2 983a
000000d0: 986d 7f3b ab1b 413b 1c96 36b8 f6f2 4a3a
000000e0: 4d35 b334 f2af 453b 19fc 45b8 53bf f739
000000f0: ab34 063a 80be 9439 9bb5 7a3a a36a bb3a
00000100: 7a9a 7db9 573b 033a ae0a 273b 28ca 173a
00000110: 9c53 013b 04e4 1bbb 74ac ab3b 99b9 1ebb
00000120: bd47 c5ba 0c09 f83a b1e7 a93a f0ea 393b
00000130: ec71 363a 36d4 173b 00fa 69ba f000 e1ba
00000140: ed53 3f3b cd01 c1ba 0067 8238 da91 543a
00000150: b761 a1b8 aaca cbba 75f7 8439 ef3b 813b
00000160: c107 f537 0de3 0739 a8b6 e03a d626 e238
00000170: 21fb 613b 68ea 61b7 a023 adba 9d1f ba3a
00000180: 085b 04ba 32a2 883b 45b1 d4b8 475a ea3a
00000190: fedd 05bb ae0c ec3a 143d 193a 048d 6bba
000001a0: 4886 2c37 c3ef 95ba 5228 15ba c7a7 91b9
000001b0: ea95 bc39 c1d7 4439 50b6 c7ba 5928 f737
000001c0: a69c d83a 34a2 3e3b 01f9 0439 bbb9 2f3a
000001d0: 434d c438 272d 083b 449d bab9 ba75 06ba
000001e0: e17e 29be f3dd dfba e603 9a3c bc74 4e3d
000001f0: 1864 b4bc 7555 7b3e c4d1 083d 0969 3fbe
00000200: c7d2 6c3e 9909 eb3b ecff 6b3d 2850 f9bd
00000210: 084b 3e3e 3c44 da3e 2cf2 523e 69f4 09be
00000220: 6883 4a3c 5247 c83e 8276 453e b320 63be
00000230: 3797 26be e924 45be f8ce b43b 9ed6 303e
00000240: b927 1a3c 46f1 a93d 05f6 67b9 20df fbbd
00000250: 6ec8 b13b 5be7 5c3b 2d6f a53e cdf9 9c3b
00000260: 4cd6 f83e f4c4 993d 68ce 0fbd e615 743d
00000270: 3cb0 35be e19e 783e 43f0 1ebe 908a 423e
00000280: 45bb 473e 9a06 22be e3d6 a73c 8e88 043e
00000290: 4763 bd3b f64f 943e e574 f83b 5961 44bd
000002a0: 517a 1a3e 412b 923e 8631 953e 3068 2e3d
000002b0: 1911 b5bb b83a 043f a34d 983a 4678 ff3d
000002c0: 0d09 b23b 4eb9 4e3e 6a5c a53e dee5 de3d
000002d0: 619d 4ebb 50ff 94bb 7022 3a3c 8bc4 733a
000002e0: 463c 673c 58dc b1ba 9768 02bc 19de dfba
000002f0: 46ad 063c d0a8 0ebc 81eb 733b c453 1fba
00000300: 9d24 cc3b b5fc 1fba b851 d63b 1f9f 9c3b
00000310: 3a87 47bb c313 c63b d83e ca3a 4aed 61bb
00000320: dd78 82bb 90ce 89b9 1863 043a 5734 bf3b
00000330: c1fe 083b 4971 063c 723c 19ba 15af 953b
00000340: aa3f 963a 69dc 2139 ef55 0c3c b066 ee39
00000350: a490 943a a7c0 caba d5e7 a43a b682 063c
00000360: f266 b5bb 4666 b13b 3cca 71bb ab32 00bc
00000370: 7bde 3bbb afd2 cab9 006d 1abb c66f 4d3b
00000380: 0adc b03a 7bc1 bcbb dc36 f13a b454 d4bb
00000390: f27a 2c3b 7aa6 30bc 17b0 cc3b db44 133a
000003a0: ea67 32bb a110 0f3c 6e47 c9b9 5646 9f39
000003b0: 0929 383a f021 893b 22a9 fabb 6af0 4bbb
000003c0: 4600 783b a0d7 a739 e3ed bfbb 8df9 f539
000003d0: 1075 28bc 5f2c 25bb 598c 2f3a c425 1c3a
000003e0: f4b2 5ebb a65b 3d3b e2aa bebb 20e6 2539
000003f0: 1788 0ebc 3ffa ed3b e0a3 bc39 f808 d6ba
0.0025315264 -4.0815346e-05 0.00036127216 0.0012805758 -0.0009466307 0.0012079834 0.004494534 0.00029918284
0.003750209 -0.003219707 0.00498423 -0.0026487415 -0.0018196165 0.0061103837 0.003252393 0.0017240137
5.521118e-05 0.0023884422 -0.0016417863 -0.0020714519 0.0031291696 -0.00095671276 4.944896e-06 0.0013415939
3.1663716e-05 -0.0008347639 8.546155e-05 0.0012365959 -4.4922235e-05 -7.227812e-06 0.0033825596 -1.9363617e-06
0.00469773 0.00054348033 -0.0019066188 0.0015551059 -0.0050290436 0.0055492176 0.0017820337 0.00014437795
-0.00069686153 0.0021341061 0.0007490372 -0.0013348985 -5.078718e-05 -0.003386054 -0.000698985 0.0008129999
0.00012696965 -0.0011899852 -0.0020315207 0.0011649947 0.0038975235 0.0029465954 -4.353198e-05 0.00077418925
3.338013e-07 0.0030164686 -4.7203244e-05 0.0004725406 0.00051195425 0.00028370693 0.00095638045 0.0014298748
-0.00024185507 0.0005006096 0.0025488543 0.00057903165 0.0019733673 -0.002378703 0.005239064 -0.0024219512
-0.0015051287 0.0018923595 0.0012962726 0.0028368793 0.00069597247 0.002316726 -0.00089254975 -0.0017166417
0.002919431 -0.0014725268 6.218068e-05 0.0008108892 -7.695279e-05 -0.001554807 0.00025361372 0.003943912
2.9209887e-05 0.00012959186 0.001714428 0.000107837535 0.003448196 -1.3465622e-05 -0.001320947 0.0014200095
-0.0005048965 0.004169726 -0.00010141967 0.0017879688 -0.0020426507 0.001800915 0.0005845588 -0.00089855515
1.0283264e-05 -0.0011439252 -0.0005689907 -0.0002778156 0.0003596985 0.00018772391 -0.0015236828 2.9463483e-05
0.0016526177 0.002908838 0.00012681262 0.0006703396 9.3603994e-05 0.0020778866 -0.00035593857 -0.0005129237
-0.16552307 -0.0017079696 0.018800687 0.050404295 -0.022020385 0.24544318 0.033403173 -0.18692411
0.2312728 0.007172775 0.057617113 -0.12173492 0.1858331 0.42630184 0.20600194 -0.13472141
0.012360431 0.39116913 0.19283488 -0.22180443 -0.16268621 -0.19252361 0.0055178367 0.1726937
0.009408885 0.082979724 -0.00022121526 -0.12298417 0.0054255044 0.0033707235 0.32311383 0.0047905208
0.48600996 0.07508269 -0.035108954 0.059591196 -0.1774301 0.24279357 -0.1552134 0.1899817
0.19505031 -0.15822831 0.020488208 0.12942716 0.005779657 0.28967255 0.0075822943 -0.0479444
0.15085723 0.28548625 0.29139346 0.04257983 -0.00552572 0.516521 0.0011619817 0.12474112
0.005433208 0.20187876 0.3229707 0.108836874 -0.003152691 -0.004547037 0.01136075 0.00092990015
0.014113491 -0.0013569696 -0.0079595065 -0.001707974 0.008220023 -0.00870724 0.0037219229 -0.00060778507
0.0062299506 -0.0006103025 0.0065405034 0.004779711 -0.0030445592 0.0060448362 0.0015430106 -0.003447371
-0.003981693 -0.00026284577 0.00050501665 0.005835097 0.0020903798 0.00820572 -0.0005845494 0.0045679905
0.0011463065 0.00015436266 0.00856541 0.00045471406 0.001133461 -0.0015468792 0.0012581298 0.008209875
-0.0055359537 0.0054138033 -0.0036894223 -0.00782458 -0.0028666544 -0.00038685414 -0.0023563504 0.003134714
0.0013493311 -0.0057603694 0.001840319 -0.006479824 0.0026318398 -0.010781879 0.0062465775 0.0005617865
-0.0027222582 0.008731992 -0.00038390927 0.00030379248 0.00070251577 0.004184954 -0.0076495567 -0.003111864
0.003784196 0.00032013375 -0.0058572157 0.0004691597 -0.010281816 -0.002520345 0.00066966336 0.0005956555
-0.0033981176 0.0028893738 -0.0058187107 0.00015821354 -0.008699439 0.0072624977 0.0003598025 -0.0016329577

bias f4 [60]
00000000: 01f6 e73b 52d2 e33b 46e5 58be 7da4 383c
00000010: bf35 21ba b855 d1bd f190 6c3c 1824 3ab9
00000020: 2edc 4e3b 0ab1 88be ab45 0b3d 3642 3b3b
00000030: 04f0 debe 71e9 12bf 06a3 ad3c 5d6d 0b3c
00000040: 3996 7abb 746d 013b b638 34bd 4e13 e238
00000050: 3877 b63b 1445 3f3c 4189 623d 0f9a dd3e
00000060: d6c9 a83b a3f4 cebe 7e73 0c3a 6185 9abc
00000070: 6317 05be 54fd 963b 2556 433d 7eac 7abd
00000080: fadf 13be 0c58 66be 2fe2 d83a 6f74 dabe
00000090: 793c ed3b 7034 333b 622a aa3b 51d9 e93b
000000a0: 2504 743b e4af 6638 167d e0be a68d 1a3c
000000b0: 7bdb d4bd 8bb3 c5be 4674 b33c df6a 1ebb
000000c0: 2a03 aa3e e492 0ebe d08d f93a 39e8 95b9
000000d0: d3ac c7bd 8d2c 56be 1791 3c3c e014 c03b
000000e0: 8067 653c a812 a23b 9c3b db3b b315 68bd
0.0070788865 0.0069525624 -0.21181211 0.011269686 -0.00061496714 -0.10221428 0.014438854 -0.00017751788
0.0031564343 -0.2669757 0.034001987 0.00285734 -0.43542492 -0.57387453 0.0211959 0.008509961
-0.0038236512 0.0019749077 -0.043999396 0.000107801156 0.005568411 0.011674184 0.055306677 0.432816
0.005151014 -0.40421018 0.0005357786 -0.018862428 -0.12997203 0.004607836 0.047689576 -0.061199658
-0.14440909 -0.22494525 0.00165469 -0.42666957 0.007239875 0.0027344488 0.0051930407 0.007136502
0.0037233916 5.5000084e-05 -0.43845433 0.009433186 -0.10393425 -0.38613543 0.02190603 -0.0024172587
0.3320554 -0.13923222 0.0019039456 -0.00028592514 -0.097497605 -0.20915432 0.0115092015 0.0058618635
0.014001727 0.0049460717 0.0066904556 -0.05666132

weight f4 [60, 60]
00000000: df72 c0ba 3464 84ba d80e 87bd 2231 b438
00000010: a13f cfbb b728 83bd 2574 8e39 0604 fa3a
00000020: 907a e3b7 7227 b23d 50e6 abbd e817 03bb
00000030: e0cd ba3d 6546 ba3d 13ae 1c39 fefd 52bb
00000040: df2d d8bb 70c5 ffbb aa58 f6bd e5f5 24ba
00000050: d142 cab9 981a 343b e21c 1bbe 4b73 4fbe
00000060: bc6c c83a 21af 63bb b75b 84bd 2ee7 283b
00000070: fea0 f13d fa45 f6ba 16f3 4c3d 4297 663d
00000080: f85f a3bb f7f9 6f3d 7364 8c3a d404 533e
00000090: 65ac bd3a e740 a93a 9731 74ba 3e9a b739
000000a0: ab96 42ba 0e0c 6aba c935 ae3d 7bf9 1dbb
000000b0: c41b 863d 59a8 8f3d df78 f4bc 8ac2 7939
000000c0: ec90 d1be c158 01bd ff80 42ba d335 35bc
000000d0: 92e5 33bd 49ba 153d d7d3 c53a 0717 663b
000000e0: b1e5 35bc 43e3 5938 a3ee 3b3a cbb6 b2bc
000000f0: c42a e6b8 408c 91b8 e6e5 433b bc42 42bb
00000100: 1911 d239 e32f b53c b613 5cbb 1ada 9abb
00000110: 13fa f238 12e1 cc3d b7b9 0cbe e65d e6ba
00000120: a548 c03d bb07 ce3d 943d 153d 84c1 00bb
00000130: d8f6 8e39 7d34 1f3a 8df3 e8bc d285 02bb
00000140: bc59 06ba 78a1 3aba 084f 03be 4611 1dbe
00000150: 21b3 4bb8 8614 253d 4268 f3bd e2c3 fb3b
00000160: 654e ba3c e7ea 9938 36a0 ffbc e526 09bd
00000170: 84e6 29bd 4c48 a63d 5e99 50b9 d288 cf3b
00000180: e5f0 dcb9 c803 84ba dd72 10bb 4545 24ba
00000190: 9a94 96ba 17d7 d3ba 8318 903d 9999 8cbb
000001a0: 694c 733c 2263 613d 52a4 81bd b013 59bb
000001b0: 81d0 54be f1fd 033d b86d d5ba b96e 01bb
000001c0: 3e98 7e3d f737 ce3a 5587 c2ba ffb2 b9b8
000001d0: e8e2 05bc 3fea e6ba 983c 0439 f7c7 bebc
000001e0: ec29 403a 36d6 5e38 3742 0f3f 1669 ebbb
000001f0: bda8 b23b 4683 62be 5826 31bc 1d3c 90bb
00000200: 5b1a 20bb ec4e da3e cca4 8b3d ab3f fe3a
00000210: 4b26 473f c1f8 263e f06a ed3e 66a5 c8bb
00000220: 3afe 22ba 2bf2 c23b ad52 353e 498a 523b
00000230: d33b 8bb9 b2c2 46bb 022c 1f3e 291b e9be
00000240: 6631 ebb9 a810 153f a316 5abe d969 003d
00000250: 5687 cb3e dcf2 6f3a f572 3a3e d4d9 003d
00000260: 55bc 9f3e 2b59 f43e 76ab 123b 7e74 4bbe
00000270: 4f1c 4a3b 2549 1b3b 9db2 e43a 26ec 48ba
00000280: deb3 98ba faef 31bb 3943 063f 591c f7bb
00000290: fe03 933e 4236 313f 46c9 9c3d 160c e33a
000002a0: b870 fabe 9a01 603e d802 03bb 8842 7c3b
000002b0: 8d1d 3a3c ad73 d73e b0fb 85bb 38fd 4e3a
000002c0: a485 ff3d c64b 6039 4cef 76ba c24c 4a3e
000002d0: e7e5 813a 691a fa3a 302d e4be df53 193b
000002e0: 74fe 8fba 2068 493c 49ac ee3a 2d77 22bb
000002f0: e5b7 1fbb 9bec 49be 0250 b8bd c647 ddba
00000300: 75fa 88be 6250 eb3b ea15 11be 2218 b1bb
00000310: 2fd8 07ba 3760 053b 137b e9be 5c7f 10bc
00000320: 33ed 803b 4411 9a3b 8519 163d 6d21 00bd
00000330: eb71 aa3b 8953 e8be 61be 163f 2505 2b3d
00000340: 4ac5 9cbe 6607 933b fba6 1b3c 9d3a 3dbf
00000350: c166 3cbe 9e75 953c 6526 a438 ad67 083f
00000360: 497e 573a fbeb 01bc 5bac 87ba 2910 dfb9
00000370: 0e10 7bb9 0ae3 4abb 9530 3cbe 310d 57b9
00000380: 5933 9d3e c327 d4bd cea6 1dbf 0f67 11bc
00000390: 040d 793d cbb2 67bc 1b76 a1bb ca3f 62bb
000003a0: 40f2 23be 54f2 dc3d bd2b 123b 5148 283b
000003b0: 0b24 d93d 7930 8339 f81e 3e3a 5c38 be3e
000003c0: b315 fdb8 7d83 69b8 7bd0 643b 361b 43bb
000003d0: 93a1 c739 8966 b53c 7b61 5abb 0bd9 99bb
000003e0: f23f e838 53be cf3d fd9e 0dbe bfc4 e8ba
000003f0: e7cc c23d 92ec cf3d a6cd 163d a730 01bb
-0.0014682672 -0.0010100664 -0.06594628 8.5922205e-05 -0.006324724 -0.0640425 0.00027170885 0.0019074685
-2.7117581e-05 0.0869893 -0.08393538 -0.0020003263 0.09121299 0.09095458 0.00014942167 -0.0032194848
-0.006597265 -0.007805519 -0.1202863 -0.00062927447 -0.00038578224 0.0027481671 -0.15147737 -0.20258825
0.0015291194 -0.0034741836 -0.06462806 0.002577256 0.11798285 -0.0018789165 0.050036512 0.056296594
-0.0049858056 0.058587994 0.0010711089 0.2060731 0.0014470933 0.0012913019 -0.0009315251 0.000350194
-0.0007422964 -0.0008928188 0.085063525 -0.0024105 0.065482646 0.07014532 -0.029842792 0.00023818962
-0.4093088 -0.031578783 -0.00074197346 -0.011060196 -0.043920107 0.03655461 0.001509304 0.003510894
-0.011102126 5.1948486e-05 0.00071690435 -0.021815678 -0.0001097522 -6.9402624e-05 0.0029891669 -0.0029641828
0.0004006706 0.02211756 -0.0033581085 -0.0047257068 0.00011586039 0.10003866 -0.1374272 -0.0017575591
0.09388856 0.10060068 0.03643568 -0.0019646594 0.00027268264 0.000607319 -0.028436447 -0.001991619
-0.0005125066 -0.00071193976 -0.12823117 -0.1533862 -4.85658e-05 0.040302776 -0.1188512 0.007683263
0.02274246 7.3393625e-05 -0.031204324 -0.03348436 -0.041479602 0.08119258 -0.0001989356 0.006333449
-0.0004214115 -0.0010071928 -0.002204112 -0.00062664255 -0.0011488379 -0.0016162124 0.07035925 -0.004290771
0.014849761 0.05502618 -0.0633017 -0.0033123307 -0.20782663 0.0322246 -0.0016283309 -0.0019749834
0.06215691 0.0015733232 -0.0014841357 -8.854828e-05 -0.008171774 -0.0017617418 0.00012611074 -0.02328871
0.00073304656 5.3128424e-05 0.5596041 -0.007184158 0.005452244 -0.2212039 -0.0108123645 -0.0044016973
-0.0024429772 0.42638338 0.06818542 0.0019397637 0.77792805 0.1630583 0.4637065 -0.0061232327
-0.0006217692 0.005949279 0.1770732 0.0032125881 -0.00026556719 -0.003032845 0.15544131 -0.45528534
-0.00044859498 0.5822854 -0.21297698 0.031350944 0.3975169 0.00091533153 0.18207915 0.031457737
0.31198373 0.4772428 0.002238003 -0.19868657 0.0030839627 0.002369472 0.001744825 -0.00076645834
-0.0011650284 -0.0027151094 0.52446324 -0.007541221 0.28713983 0.69223416 0.07655577 0.0017322327
-0.48914123 0.21875611 -0.0019990709 0.0038491804 0.0113595845 0.4208044 -0.0040888414 0.0007896009
0.12476662 0.00021390532 -0.0009419813 0.19755843 0.0009910435 0.0019081357 -0.44565725 0.0023395938
-0.0010985867 0.012292892 0.0018209304 -0.0024790273 -0.0024371084 -0.19719164 -0.08999635 -0.0016882352
-0.26753584 0.0071812132 -0.14168516 -0.005404488 -0.0005182055 0.0020351538 -0.4560171 -0.008819427
0.0039345264 0.0047017653 0.03664543 -0.031281877 0.0052015684 -0.45376232 0.58884245 0.041752953
-0.3061927 0.004486966 0.00950026 -0.7391756 -0.18398573 0.01824456 7.827281e-05 0.53283197
0.0008220417 -0.007929797 -0.0010351049 -0.00042545915 -0.00023943206 -0.003095808 -0.18377908 -0.00020508912
0.30703238 -0.103591464 -0.6158265 -0.008874669 0.06080343 -0.014141749 -0.0049274093 -0.0034522885
-0.1601038 0.10788408 0.0022303902 0.002567787 0.10602578 0.00025022382 0.00072525395 0.37152374
-0.00012068022 -5.5673987e-05 0.0034914303 -0.0029770858 0.0003807662 0.02214362 -0.0033322263 -0.004695063
0.00011074533 0.10143723 -0.1383018 -0.001775883 0.09511738 0.10152544 0.036817215 -0.0019712837

bias f4 [60]
00000000: 947e 53bd 075b 8bbd 8330 32be 7f24 393e
00000010: 33c9 8cbd 688a 97bd 7362 9a3d 3a7b 99bd
00000020: e022 44bd 1faa 92bd 4e4b b7bd 1128 f83c
00000030: 459c 9fbd 6c48 90bb 42b9 1ebd 573c e1bb
00000040: 3520 88bd 59de 66bd 8eed 7abe d445 f13b
00000050: 8938 d43c 046f 96b9 d30f a13d 4790 3fbd
00000060: cafc 8cbd f8d2 27be 2d2f 46bc b13a 91bc
00000070: 08dc 0fbc eb14 6f3d 0659 63be 6e8c 96bd
00000080: b56a 183d 331d 27bc 7abf 88bd ae17 6ebb
00000090: 3bf5 a8bc df33 793c e8b3 5bbb abc1 533d
000000a0: 4985 89bc 5f84 91bd 9e3b 85bc 779a 913b
000000b0: 6c86 76bd 7739 413d 4390 b93d 3ad4 523d
000000c0: 21fa 19bd 69c4 05be 750c 91bd 2af6 0abb
000000d0: 9960 5b3e 7eed 5a3d 7769 8fbb 550f 4e3c
000000e0: e303 953c 0cb3 edbc 5c8e f2bc 3541 cc3c
-0.051634386 -0.068044715 -0.17401318 0.18080328 -0.06874313 -0.07399446 0.07538309 -0.07494207
-0.047884822 -0.07161354 -0.0894991 0.030292543 -0.07793478 -0.0044031646 -0.038750894 -0.006873648
-0.06646768 -0.05636439 -0.24504682 0.0073630605 0.025905864 -0.00028692943 0.07864346 -0.046768453
-0.06884153 -0.16389072 -0.0120962085 -0.017728182 -0.008780487 0.05836956 -0.22201928 -0.073510036
0.03721114 -0.010199833 -0.06677146 -0.0036330032 -0.020624747 0.015210121 -0.003352398 0.051698368
-0.016787188 -0.07105326 -0.01626378 0.0044434625 -0.06018679 0.047173943 0.09060719 0.051471926
-0.037592057 -0.13063206 -0.07082454 -0.0021203854 0.21423568 0.053449146 -0.004376586 0.012576898
0.01819033 -0.02901604 -0.029608898 0.024933437

weight f4 [60, 60]
00000000: 70de 8dbd 1694 763c c5bc 2cbf af98 77be
00000010: d6f7 873c 51bb d23c 37e2 333f b1ad c2bc
00000020: 21c4 8abb 29fa ab3c eeea ee3e 3911 00be
00000030: 6e48 49be 0688 0f3f b34d b5bd 2649 673d
00000040: 8c57 583c 6d29 223e 7e35 0fbf 6838 f8bd
00000050: 0440 eb3c 8101 cbbb 21a7 bfbe 8301 bbbd
00000060: 9eed 87be 1356 cdbe 9dde 853e d252 963b
00000070: 07f5 e5be 3254 183e 832e aebe b38d c63c
00000080: 418e c6be bd7d 913e 1fc1 833c 2a59 2abb
00000090: 14d9 b8bd 20d8 abbe c0d7 44bc 8ec9 9c3e
000000a0: 9ac8 d43e 6494 9f3c 02d9 9db9 c87b a43e
000000b0: f687 32bc ef58 ce3e 4092 2bbe d3a9 74bc
000000c0: e9d7 05be 5c8d 3e3e 71ae a03c b487 2b3e
000000d0: 224a 883d fe3b 1ebc b955 9aba 331d bd3b
000000e0: b564 0a3c e55b 0a3e ac08 1c3d 35f0 b93d
000000f0: 31da 48bc 74a4 6a3b e313 39be bf75 bfbd
00000100: 12c4 7b3b 1161 d33a 0d8d febd 2bcd b03e
00000110: 1ed6 593c afca a23b e418 653d 705c 053e
00000120: a235 3a3f 5ec6 07be 9e69 29be 3f25 5c3d
00000130: 6085 403b 4bd8 abbd 8c05 7fba 4ff6 1c3e
00000140: f29e d53d bd90 ec3c 4378 c6bd be99 3dbe
00000150: 383b 09be 1eb9 acbd 8453 39be 245d 713c
00000160: d545 a23d 7fad 533c 12f7 033f 64cd b53b
00000170: dab7 973c 55d1 a5bd 432f 5c3b e334 233d
00000180: 6143 563c 4b0f 133e 787a f9bd a478 7c3d
00000190: 05e8 4f3a 074b 9a3b f889 043e dde7 013e
000001a0: ccbb afba e8c2 0abe 1cc8 853d 25a9 ed3d
000001b0: b293 a0be 29c9 7cbd dd43 993b c5d0 693c
000001c0: 7f77 a03d a759 8d3d af05 0c3d 494f 203e
000001d0: f601 733e 97a7 33bd ad90 863d 546a c9bc
000001e0: 350e 20be 3183 d7bd adae 21be 15c8 79be
000001f0: 6eab dbbd 975c 09be d58f 1a3d d125 a63d
00000200: 3271 da3c 4407 d9bd 28c1 ad3d e9b3 c93c
00000210: 31a0 b3be 45b4 66bc 69ed c1be 6137 3a3e
00000220: 2110 d8bd 7132 91be f0ab a3be 3050 ae3e
00000230: 432f 023d 5d9b 343a 9e46 56bd 52d3 143e
00000240: 5ed4 1dbe 5615 fdbe c886 833d bea5 433c
00000250: 8b86 01bf 4d2b 5bbe 0d64 34bc 4987 ddbd
00000260: e988 31be d968 6ebe 105f e9bd 0494 9cbd
00000270: 01bd 74bd adb2 db3e 9a9f 3a3e dbb6 b7be
00000280: 6d9e 013f c6d6 d5bd a0d3 9b3e 1208 9ebe
00000290: 0ac1 c6bd 141b f13b 31f0 593e 354d a73e
000002a0: 7704 a23d a6a0 32be cfb1 dabd 0b37 573e
000002b0: 94f7 a8be 1c25 5ebd b3cf 083c 7084 0f3e
000002c0: f382 fcbe fd99 b1be be9b af3e 9184 dc3e
000002d0: f664 723d 388f 883d 306f 4c3d bbb4 aabd
000002e0: 69eb 883d f9db 8a3d d5b0 78ba 7e8e 533d
000002f0: 3f66 373d ccda 893d 57a4 be3c 7b08 0dbd
00000300: 3375 fc3c 2dc6 273c 5e0e de3c fed4 803b
00000310: 70f1 873d 0d1d 0d3d fc6a d7bd 744e 163d
00000320: 7bec a23c f699 493c be9a 42bd 8828 573c
00000330: 0865 333d b86f 303d adba d03c f8f7 1d3d
00000340: fde7 8eba 50fb 66bd c73d ca3c 0c82 8a3d
00000350: 3909 a6bd d550 963c 8f8b 883d dae0 093d
00000360: 817b 743d ccf9 383d 1d41 293a 7e05 d7bd
00000370: 7cd3 85bc fea4 893d 684a 693c 5111 8c3b
00000380: 6f77 853d 7cfe 37bd c5d7 91bc b49b 8a3c
00000390: f9eb 92bc 5b15 ae3c 719f 893d 8fcc 36bd
000003a0: 2558 a2bd 60f0 f1ba 22ff 553b a457 693c
000003b0: 3aa3 47bd 7cbd 5a3b 3e9f e4bb b85f b43c
000003c0: 2688 893d 0408 633d ea4b 3dbe 20ce 01bf
000003d0: 2d76 693d edfc 883d b9e7 473d b14f 733b
000003e0: 33a1 623c bfc5 6c3d 21f5 623d 494d 0abe
000003f0: 1d7c 153d dc21 02bd 2455 22bf 3728 8c3e
-0.06927192 0.015049955 -0.6747554 -0.24179338 0.01659767 0.025724085 0.7026705 -0.023764463
-0.004234806 0.02099331 0.46663612 -0.1250657 -0.19656536 0.5606693 -0.088527106 0.056466244
0.013204467 0.15836115 -0.55941 -0.12120134 0.028717048 -0.0061952476 -0.37432197 -0.09131148
-0.26548475 -0.40104732 0.26146403 0.0045875097 -0.44913504 0.14875868 -0.3401986 0.02423749
-0.38780406 0.28416243 0.016083298 -0.0025993087 -0.09025779 -0.33563328 -0.012014329 0.30622524
0.41559297 0.019479938 -0.00030107057 0.32125688 -0.010896673 0.40302226 -0.16755009 -0.014933067
-0.13070644 0.18608612 0.01961443 0.16750985 0.06654765 -0.009657858 -0.0011774815 0.005771303
0.008446862 0.13511617 0.038094208 0.09079019 -0.012259052 0.0035803588 -0.18073992 -0.0934863
0.0038416428 0.001612695 -0.12429247 0.3453153 0.013295678 0.0049680094 0.05593194 0.13023543
0.7273809 -0.13259265 -0.16544196 0.05374646 0.0029376373 -0.08390864 -0.00097283046 0.15328334
0.10430707 0.02887761 -0.09690907 -0.18515679 -0.13401496 -0.08433746 -0.18098265 0.014731679
0.07923476 0.012919783 0.51548874 0.005548166 0.018520284 -0.080965675 0.0033597506 0.03984536
0.013077588 0.14361303 -0.12181562 0.06163849 0.0007930997 0.004708651 0.12943256 0.12686105
-0.0013407408 -0.13550913 0.065323085 0.116045274 -0.31362683 -0.06171528 0.0046772794 0.014270966
0.07835292 0.069018655 0.034185108 0.15655245 0.23731217 -0.043860998 0.065705635 -0.024586834
-0.1563042 -0.1052307 -0.1578929 -0.24392731 -0.10726057 -0.13414226 0.037734825 0.08112682
0.026665304 -0.10597089 0.08484107 0.02462192 -0.35083154 -0.014081066 -0.37876442 0.18185188
-0.10549951 -0.28358796 -0.31967115 0.34045553 0.031783354 0.0006889606 -0.05231344 0.14533737
-0.15413043 -0.4943034 0.06422192 0.0119413715 -0.5059592 -0.21403237 -0.011010182 -0.10816819
-0.17337383 -0.23282184 -0.11395085 -0.07645419 -0.05975056 0.42909756 0.18224946 -0.35881695
0.50632364 -0.104413554 0.30434895 -0.30865532 -0.09704788 0.0073579643 0.21283032 0.32676092
0.07911008 -0.17444095 -0.106784455 0.21017091 -0.33001387 -0.05423461 0.008350301 0.14015365
-0.49318656 -0.34687796 0.3429851 0.4306989 0.059178315 0.06667942 0.049910724 -0.08335253
0.06685526 0.06780238 -0.0009486799 0.051649563 0.044775244 0.06731185 0.023271723 -0.034431916
0.030817604 0.01024012 0.02710646 0.0039316406 0.066378474 0.034451533 -0.105184525 0.036695912
0.019888153 0.012304774 -0.047510855 0.013132222 0.043797523 0.043075293 0.025479639 0.03856656
-0.0010902878 -0.056392014 0.02468766 0.06763086 -0.08107228 0.01834909 0.06667244 0.0336617
0.059688095 0.0451601 0.0006456541 -0.104990944 -0.016336195 0.06720923 0.014238931 0.004274525
0.06516921 -0.04492043 -0.017803082 0.016919948 -0.017934786 0.021250417 0.06719864 -0.044628676
-0.079269685 -0.0018458478 0.0032653292 0.014242087 -0.04873965 0.0033377102 -0.006976991 0.022018299
0.067154214 0.055427566 -0.1848599 -0.50705147 0.056997467 0.06688867 0.048804972 0.0037126357
0.013832378 0.057805773 0.055409554 -0.13506044 0.036495317 -0.031770572 -0.63411164 0.27374431

bias f4 [60]
00000000: a768 35bd 8ea5 ecbb 1a27 b93d 6f4a 25bd
00000010: ae2b 26bd 9356 4e3a 56eb aabc 906a 063c
00000020: ddf0 b8bc 896f e1bc 402c b93c 5f12 31ba
00000030: 0f1d 0bbc 0f32 c23c d379 c9bd 19bf 76bd
00000040: 7508 32b9 9cd9 203e f028 da3c c9c3 8ebc
00000050: abcf c5bb be87 74be c7c8 6939 2e4b bc3d
00000060: 5333 7e3d efde 263d 1540 51bc 5ec2 b5bd
00000070: b629 a0bc d89f b5bd d6ba 26bd 4d1a b538
00000080: f601 ccbd 6d27 7e39 5d95 f9b9 1a03 2abd
00000090: 9b8d 443a 1415 afbc 3cbb a0b9 1a55 d33a
000000a0: b54c 143d 9f9f ccbb a37b 9d39 de50 7ebd
000000b0: 3bd6 9339 cf1f f2bc 7290 99bd cebf 03bc
000000c0: 5e5a 93bd ca21 5ebc 89ac fdbb 70d6 773d
000000d0: 0e73 ef3a 173d 2e3d 7acb feb9 1f03 4b3a
000000e0: 220e f4bb 8aec 77bd 3907 233c 6bcd aebc
-0.044289257 -0.007221884 0.09040661 -0.04035419 -0.040569 0.0007871177 -0.02086417 0.008204117
-0.02257579 -0.027519004 0.022604108 -0.00067547517 -0.008490815 0.02370551 -0.09837689 -0.06024084
-0.00016978553 0.15708011 0.026630849 -0.017427342 -0.006036719 -0.23879907 0.00022295407 0.09194027
0.062060665 0.04073995 -0.012771626 -0.08874963 -0.01955114 -0.088683784 -0.040705524 8.6356515e-05
-0.099613115 0.00024238015 -0.00047604265 -0.041506864 0.00074979075 -0.021372356 -0.0003065708 0.0016123385
0.036205966 -0.0062446143 0.0003003749 -0.06208884 0.0002819764 -0.029556183 -0.07498254 -0.008041335
-0.071949705 -0.013557861 -0.007741515 0.060507238 0.0018268542 0.04253873 -0.00048598257 0.00077443005
-0.007447974 -0.060528316 0.0099504525 -0.021338185

weight f4 [60, 60]
00000000: 3028 91bb cbb2 df3a 459d 52bb f8e0 853a
00000010: 11b9 ca3a 3d75 ed3a 5b0f 0b3a 9ddc e83a
00000020: 3866 b3bb 8b4e 9238 2830 15ba 9bbd b839
00000030: c3cb ca3a e1ea 1fbb 097c f63a 7903 90ba
00000040: 099a d4b9 bfb7 853a 97d9 89b8 66cb 8e39
00000050: 2e5c b83a f4c0 4bbb ee46 853a 69b8 be3a
00000060: 3cec 9438 6100 743a adaa fd3a feda 7ebb
00000070: 0d7b 023a 7db8 17bb 8acc 2e3b b261 dd3a
00000080: eff7 e73a 7c52 8538 3559 b339 26be 053b
00000090: b17c 9639 db6b 0b3a 6977 ca39 534e 043a
000000a0: dc51 053b 00dd 063b 52fb 443b 195d 723b
000000b0: 926b f33a b23b c1ba 7858 b03a 190c 67ba
000000c0: d537 06b9 1c38 903a 5bae 093b 2129 ad3b
000000d0: 8b6f 713b 7099 f239 4e2c cdb8 4a2e a7b8
000000e0: 1d37 273b c7bb eb39 5a86 583b dbb5 0e3a
000000f0: 6068 453b aaa4 f039 dc40 2d3b e0e6 97ba
00000100: c424 efba 7301 64ba b058 21ba 1222 9dba
00000110: 7ca5 113b 4d3a 9fba 36cb 89ba 486f 0dba
00000120: 3f9e deba 72a6 c93a 5436 0bbb ed21 2739
00000130: bd34 5b39 4a50 faba 7e91 28ba 83f2 eab9
00000140: 6c5b e9b9 2bd2 273a 6f03 ddba ebf5 00ba
00000150: 845d adba 81fc fb3a 1f0a 94ba 7679 3e3b
00000160: 0036 3bba 474c 1a3b ad9d 9638 2d2e a4bb
00000170: 3b83 8cba 3942 1ab9 0865 6cb8 0dab d5b9
00000180: 1db1 27ba 8569 31ba d70c c3b6 f68e 82b9
00000190: 2d0d 3e3a 82d8 adbb c477 e7ba d1ef 9cbb
000001a0: 875a 58bb 2090 043a 36ea f5ba 1cb9 bc38
000001b0: 27bf 05bb 346d 56ba adda 0cbb 170c daba
000001c0: d507 43ba 0022 1bba 8200 0eba 1e5c 85b9
000001d0: a09f 1ebb e974 15ba 9bfa 15bb 20f9 38ba
000001e0: 4f6c 303e 5e4f 6d3e 87e4 e23e c4be 57be
000001f0: ca35 99be 1851 7fbb 46a5 1fbe 46a3 973e
00000200: db9e 9fbe d7be b23d 2b82 80be 8698 2bb9
00000210: f744 61bd 97ae 09be 0b2a b4be 32bc 06bf
00000220: 4cd8 18bb c6a9 123f d625 d63e f178 d6bd
00000230: 20e5 14be 7ced b7be 0bda bcbb c85e 573e
00000240: f921 773d cc82 b13d 9752 8cbd 7ec9 04be
00000250: 3494 0dbe 2f57 85be 8958 f23d bd56 f7bb
00000260: 4881 dabd de72 70bb e590 0ebc d8c4 ed3e
00000270: 1015 b5ba 8955 2abe 6d00 b43b fed9 14bc
00000280: d491 7b3e 5ff5 c5bc d482 dabb 1d07 a7be
00000290: 071b 3bbc 92a0 52be 5415 93be 023c b73d
000002a0: 3c78 ca3b 876c 97bd 1077 38bd 41ae 9a3e
000002b0: 09d6 77bb 0eac 1b3e ac03 e1ba 1e7d f0ba
000002c0: 2a27 25bd ffa1 97be fa5e 393e 6695 29be
000002d0: ba9e c8ba 5e82 14ba 7992 a53a be94 15b9
000002e0: 889f 87ba 0044 c139 69b2 58bb 2345 a5bb
000002f0: afa4 e83a 24d2 5eba 46e1 bfb9 f862 163a
00000300: da47 eaba ac93 d5ba cde1 0dbb 87d2 1a3a
00000310: 2d0a f6b9 9dfb f2ba 7715 e13a 64f4 26bb
00000320: 49be 4fbb 4204 c23a 0e91 073a 5031 cb3a
00000330: fff8 5c3a b8f2 9eba 623f cfba a50a 5339
00000340: c2eb 5abb bfa6 fe3a 8e70 d6ba 699d a13a
00000350: 45ce 41bb 37b5 b0b8 43d2 753a 50b3 8aba
00000360: dcad 9a38 b289 59bb af0b fb39 6912 cf3a
00000370: f53a ad3a 049c 8fba 7d95 83b8 d392 c4ba
00000380: 5124 473a 6f47 d7ba 09ae 12bb 2439 0db9
00000390: c89d 01ba 283b dfba ef09 d1ba c17c 25bb
000003a0: 7b1c 04ba 0e44 b4ba d312 20ba 20ab 3cb9
000003b0: 16d8 c6ba 3a36 db38 8a2d fdba fab2 5cbb
000003c0: 6cb6 af3b ceca c0ba a04d 56bb 719e 02bb
000003d0: 814c b6b9 7bb4 90ba 381e db3a 64a4 953b
000003e0: dae4 0dbb b637 3139 7c14 4b3a 409c 2dba
000003f0: e0d9 c03a c5b1 47ba c624 b4b8 f71e 6c39
-0.0044298396 0.0017066834 -0.0032137197 0.0010214141 0.0015466531 0.0018116605 0.00053047173 0.0017765943
-0.005474832 6.976452e-05 -0.0005691075 0.00035236482 0.0015472103 -0.0024401473 0.0018805276 -0.0010987363
-0.00040550556 0.0010201855 -6.573198e-05 0.00027235894 0.0014065558 -0.003109035 0.0010168233 0.0014550808
7.101192e-05 0.0009307918 0.0019353234 -0.0038887854 0.00049774424 -0.0023150735 0.0026672208 0.0016890077
0.0017697791 6.357298e-05 0.00034208005 0.0020407527 0.00028703132 0.0005318501 0.0003861741 0.00050470716
0.0020342981 0.0020578504 0.0030057025 0.003698176 0.0018571487 -0.0014742522 0.00134541 -0.00088137534
-0.00012800035 0.001100305 0.0021008465 0.005284444 0.0036840166 0.00046272157 -9.783414e-05 -7.9718026e-05
0.0025515028 0.00044962598 0.0033039064 0.00054439687 0.0030122027 0.00045899051 0.0026436364 -0.0011589192
-0.001824521 -0.0008697726 -0.0006154878 -0.0011988303 0.002222388 -0.0012148112 -0.0010512832 -0.00053953053
-0.0016984417 0.0015384688 -0.00212421 0.00015939 0.00020905114 -0.0019097414 -0.00064303714 -0.00044812643
-0.00044509338 0.0006401862 -0.0016861985 -0.0004919457 -0.0013226722 0.0019225032 -0.001129452 0.0029064096
-0.00071415305 0.0023544 7.181927e-05 -0.0050103874 -0.0010720262 -0.00014711254 -5.6360877e-05 -0.0004075397
-0.00063969364 -0.0006767738 -5.8129476e-06 -0.00024902046 0.0007249888 -0.0053053508 -0.0017659594 -0.0047893305
-0.0033012943 0.00050568767 -0.0018761817 8.999018e-05 -0.0020408125 -0.00081797247 -0.0021492646 -0.0016635683
-0.0007439827 -0.0005917847 -0.0005416946 -0.0002543637 -0.002420403 -0.000570132 -0.0022884968 -0.00070561655
0.17228816 0.23174807 0.44314978 -0.21068865 -0.2992385 -0.0038958248 -0.1559039 0.29616755
-0.31175885 0.08727806 -0.2509931 -0.0001636465 -0.05499741 -0.13445507 -0.35188326 -0.52630913
-0.0023322282 0.57290304 0.41825742 -0.104722865 -0.14540529 -0.35923374 -0.0057632974 0.2103225
0.060335133 0.08667526 -0.0685169 -0.12967488 -0.13826066 -0.26043078 0.11833293 -0.007548182
-0.1066919 -0.003668956 -0.008701538 0.46439242 -0.0013815481 -0.16634192 0.005493215 -0.0090851765
0.24567348 -0.024164854 -0.006668428 -0.32622615 -0.011420018 -0.20569065 -0.2872721 0.089469925
0.006178884 -0.07393747 -0.04503542 0.3021107 -0.0037816784 0.15202352 -0.0017167232 -0.0018347835
-0.040320553 -0.2961578 0.18102637 -0.16560897 -0.0015306093 -0.0005665178 0.0012632153 -0.00014265158
-0.0010347227 0.00036862493 -0.0033065325 -0.005043642 0.0017749275 -0.00084999413 -0.000365982 0.00057367934
-0.0017874197 -0.001629462 -0.002164948 0.0005906005 -0.00046928358 -0.0018538121 0.0017172535 -0.0025475258
-0.0031699112 0.0014802294 0.0005171456 0.0015502367 0.00084294373 -0.0012126779 -0.0015811736 0.00020126493
-0.0033404683 0.0019428356 -0.0016360448 0.0012330237 -0.002957241 -8.426088e-05 0.000937734 -0.0010582004
7.375676e-05 -0.0033193645 0.00047883156 0.0015798333 0.0013216423 -0.001095653 -6.274411e-05 -0.001499737
0.0007596659 -0.0016424487 -0.0022381565 -0.00013468094 -0.0004944471 -0.001703118 -0.0015948395 -0.002525136
-0.00050396443 -0.0013753192 -0.00061063207 -0.00017992826 -0.00151706 0.00010452834 -0.001931594 -0.0033676014
0.0053623226 -0.0014708878 -0.0032700077 -0.0019930864 -0.00034770745 -0.0011040115 0.001671738 0.004566716
-0.0021651299 0.0001690079 0.0007746888 -0.00066227093 0.0014713369 -0.0007617737 -8.5899184e-05 0.00022518249

bias f4 [60]
00000000: a5de 52ba c254 133a f5c5 1b3e 3594 6c3a
00000010: ba6e e739 e069 373a 6a50 af37 aee9 f239
00000020: 7d14 d139 bf56 8b3a 73e2 0c3a dfb2 663d
00000030: d4a6 613a 9753 8a39 6cf7 d639 3736 0fb9
00000040: bafd c3b9 2f6b b0bd a3bc 11bd 1957 f039
00000050: 9ef4 783a c24e 283a 4835 013a b414 2eba
00000060: 3c2f a939 2a7e 533a c76d de3d 2677 d739
00000070: c6b6 853a 2123 483a 276c c239 2429 bf39
00000080: e1cc bf39 07f1 513a 1a2f b43a 02ad d3bd
00000090: 27d5 893a 8d78 11ba d2dc 8e3a 37b0 c939
000000a0: e81e 6cbd 732e 513a 58ae 0539 7b49 bf39
000000b0: 1c33 9a39 1175 b239 3094 26ba 8903 5c3a
000000c0: bc27 ee3d 3e27 8a3c 0efd 853a bbe5 363a
000000d0: 217f 1eba 827a 0d3a 5b58 c23c dc42 773a
000000e0: a8c7 b439 cf9a 323a b3e3 d339 a923 92b9
-0.0008044041 0.0005620235 0.15212233 0.000902477 0.0004414225 0.00069966726 2.0899071e-05 0.00046331942
0.0003987885 0.0010630711 0.000537432 0.05632293 0.0008607928 0.0002638369 0.00041001604 -0.0001365774
-0.0003738234 -0.08614194 -0.03558029 0.0004584126 0.00094969 0.0006420427 0.0004928899 -0.0006640658
0.00032269384 0.0008067811 0.10860782 0.00041096768 0.0010201565 0.0007634629 0.00037083143 0.0003646101
0.00036583006 0.0008008633 0.0013746948 -0.10335733 0.0010515795 -0.00055492745 0.001089955 0.00038468998
-0.057646662 0.0007979639 0.00012748817 0.00036485106 0.00029411248 0.00034038027 -0.0006354479 0.0008392861
0.116286725 0.016864415 0.0010222511 0.00069769815 -0.00060461654 0.0005396978 0.023723772 0.0009432265
0.0003448103 0.00068132294 0.00040414705 -0.0002787386

weight f4 [60, 60]
00000000: 5aca d12d 22c8 ec2f 1ecf 9832 2793 5531
00000010: 6784 68b1 d918 8d2e ada0 08b0 ee1c 36b0
00000020: 1e2f beb0 2541 6a31 e004 a7b0 dbee 0ab4
00000030: 5b44 9e30 520d 47af 203d e9b0 8b7e fbae
00000040: ba43 cdaf b4b4 34b4 0cdb 00b5 0631 02b1
00000050: 6712 b7b0 31aa b4b0 a0f1 38b1 52a3 b730
00000060: 95dd c3b0 ede8 9d2f c179 61b3 1c22 e0b0
00000070: 4db7 f52f 6365 9eb0 f8f7 a0b0 ed34 6fb0
00000080: cd32 d0b0 12a5 7431 cf67 35b1 0e42 c1b3
00000090: b8db 6931 70a6 e82e 38c9 a331 57c3 80b0
000000a0: f18b 9335 455d 54b0 81f8 d8b0 42f4 12b1
000000b0: 37a4 ebaf 2e1f 5cb0 153c 472d c098 aaad
000000c0: f0c8 03b4 cdaf 0433 a90b 8f30 5182 abaf
000000d0: 234b be30 2674 c0af 7961 1db5 6b24 8eaf
000000e0: ebc3 d9ac fc37 b931 f046 58b0 1f7e 23b0
000000f0: b3f2 91b8 e5b6 39b9 dea7 7a3e 05d4 d539
00000100: 6841 21b9 a7c6 e7b8 6084 47b9 0749 4bb9
00000110: 3dbc 91b9 503d 5b39 0c41 4bb9 da5a ec3d
00000120: b474 d8b8 f36a a3b8 79e8 0439 2d83 5f39
00000130: b30a 5db9 292c 6b3e 5eb2 813e c910 8a39
00000140: c4ec c6b8 df6b 05b9 965f 6739 ce1d 9f39
00000150: f32c 1b39 5f72 46b9 cc34 2f3e a148 d2b7
00000160: c9a1 60b9 c0a0 a9b8 bd63 4939 0bb2 a8b9
00000170: e77b 8339 6311 073a 754e c5b9 ec9f a03e
00000180: df18 8d39 7ba0 8fb8 f408 1a3a bd81 7039
00000190: 7369 9e3e 234d 22b9 a9c0 2ab9 37cd 3138
000001a0: 520e 39b9 d6d4 a9b9 d96e 0db8 2b8f 78b9
000001b0: b590 4f3e 9e42 043e 7cbb deb8 6485 d2b8
000001c0: eeef 0539 f772 2db9 ea77 203e a4b8 2bb9
000001d0: 3981 cdb7 97e2 583a 0708 6539 7411 9db9
000001e0: 1b4a 18b8 de71 43b9 e458 973e e64c d039
000001f0: ffb4 14b9 6c25 c4b8 a4a3 38b9 e377 3db9
00000200: 02e6 9ab9 16ce 4a39 c675 4bb9 234f 133e
00000210: 88c2 08b9 94c3 c7b8 970f 1239 0885 5e39
00000220: dcd5 4fb9 f217 953e 013a a53e eac8 8639
00000230: d920 96b9 9bd2 00b9 4990 6a39 8899 9c39
00000240: 62b5 2639 303c 53b9 19aa 543e 6fcb 67b7
00000250: e2f0 6ab9 6b91 b9b8 7077 5839 52b9 a4b9
00000260: 9f2b 8439 2b3a 043a fbd3 c0b9 4c93 c63e
00000270: 4f7c 7c39 85c7 31b8 ca4f 103a 84ad 6f39
00000280: fa84 c33e 5f3c 2fb9 50cc 3bb9 933b 6c38
00000290: 4167 28b9 70eb a5b9 5af1 ecb6 dce7 81b9
000002a0: 99f7 7b3e baf9 293e cb5f 07b9 467f eab8
000002b0: 67ff 1c39 cbde 42b9 c219 4b3e 0e7b 40b9
000002c0: 75c2 06b8 94de 483a 22e9 6039 b209 8eb9
000002d0: d612 cdb5 9ee0 e3b5 4ba8 3d38 4ade 0836
000002e0: 2644 3936 99cf fbb5 2959 0bb5 8c2c 0eb6
000002f0: ed37 ccb5 2447 5835 6467 05b6 bfa1 3238
00000300: 2f5d 09b6 9158 13b5 92a8 ea36 56e0 2036
00000310: f590 0eb6 c740 84b7 cd50 b9b7 62d1 0536
00000320: bedc 31b6 612b 20b6 bf14 a336 12b2 aa35
00000330: d02d d236 6582 12b6 b6cd 3038 7cb4 0a36
00000340: 552f 48b6 fab2 55b4 43c7 fa36 1182 2034
00000350: 24f3 5b36 7df1 5d36 cd9c 66b6 c8ce b0b7
00000360: eb53 eb35 6bc3 9db5 f0ea 6336 20c4 0736
00000370: f684 19b7 4073 0cb5 071f 4235 8b04 a236
00000380: 8a4f f9b5 60b9 1eb4 2307 a4b5 9393 04b6
00000390: 8e65 6338 3205 feb7 387d d0b5 9534 0bb6
000003a0: c615 3634 63f6 0eb6 652f 4cb7 7ce8 35b6
000003b0: 2326 9e34 0d2a f836 7f07 c635 83ae c834
000003c0: 8807 5db8 e7a7 3cb9 0e72 8a3e bf1b d339
000003d0: 7053 1eb9 d3bb ceb8 a4ef 3eb9 6e2e 41b9
000003e0: 9604 95b9 08fc 5339 33d5 48b9 2707 063e
000003f0: 591a f0b8 af97 a7b8 6172 0739 424b 6139
2.3850411e-11 4.3070353e-10 1.7789315e-08 3.1079226e-09 -3.3835705e-09 6.4163515e-11 -4.9704846e-10 -6.6252326e-10
-1.3837711e-09 3.4088512e-09 -1.2152235e-09 -1.2939147e-07 1.1515441e-09 -1.8103677e-10 -1.6970354e-09 -1.1436637e-10
-3.7337405e-10 -1.6829546e-07 -4.800247e-07 -1.8945356e-09 -1.3320233e-09 -1.3145095e-09 -2.6912872e-09 1.3361421e-09
-1.4251095e-09 2.8723637e-10 -5.249763e-08 -1.630784e-09 4.4695483e-10 -1.1524829e-09 -1.1712009e-09 -8.7022906e-10
-1.514843e-09 3.5600505e-09 -2.6397975e-09 -8.999278e-08 3.4030858e-09 1.0579704e-10 4.7668003e-09 -9.368745e-10
1.0993082e-06 -7.7257695e-10 -1.5786698e-09 -2.138464e-09 -4.2862933e-10 -8.007984e-10 1.1325181e-11 -1.9394597e-11
-1.2273426e-07 3.0893535e-08 1.0407933e-09 -3.1197314e-10 1.3845675e-09 -3.5007125e-10 -5.86289e-07 -2.5855526e-10
-6.189262e-12 5.3905733e-09 -7.868115e-10 -5.9478283e-10 -6.959345e-05 -0.00017711108 0.24478099 0.00040784493
-0.00015378522 -0.0001105194 -0.00019027432 -0.00019386793 -0.00027796804 0.00020908308 -0.0001938382 0.11540766
-0.0001032142 -7.7923665e-05 0.00012675104 0.00021315804 -0.00021080188 0.22966065 0.25331396 0.00026333917
-9.485477e-05 -0.00012724054 0.00022065485 0.0003034905 0.00014798697 -0.00018925358 0.17109984 -2.5067771e-05
-0.00021422574 -8.08849e-05 0.00019206009 -0.0003217611 0.00025078582 0.0005152432 -0.00037633223 0.3137201
0.00026912146 -6.848663e-05 0.0005875968 0.00022936515 0.30939826 -0.0001547826 -0.00016284235 4.239121e-05
-0.0001764831 -0.00032392767 -3.3720255e-05 -0.00023704457 0.20270045 0.12916037 -0.000106207066 -0.00010038426
0.00012773249 -0.00016541393 0.15670744 -0.00016376615 -2.4498078e-05 0.00082735106 0.00021842132 -0.00029958377
-3.630864e-05 -0.00018639068 0.29560006 0.00039730145 -0.00014181806 -9.352979e-05 -0.00017608568 -0.00018069106
-0.00029544538 0.00019340994 -0.00019403463 0.14385657 -0.00013042439 -9.525489e-05 0.00013929453 0.00021221128
-0.00019820727 0.2911983 0.32270816 0.00025708164 -0.00028634703 -0.00012285488 0.0002236973 0.00029869028
0.00015898564 -0.0002014495 0.20768012 -1.38160385e-05 -0.00022405715 -8.8485736e-05 0.00020643859 -0.00031418592
0.00025209502 0.0005044068 -0.00036779032 0.38784254 0.00024078901 -4.2385906e-05 0.00055050536 0.00022857456
0.3818739 -0.0001671179 -0.00017909822 5.6322267e-05 -0.00016060194 -0.00031646667 -7.061445e-06 -0.00024777546
0.2460617 0.1659917 -0.00012910289 -0.00011181696 0.00014972464 -0.00018584279 0.19834045 -0.00018356388
-3.2129192e-05 0.0007662561 0.00021449153 -0.00027091574 -1.5279172e-06 -1.697819e-06 4.5217846e-05 2.0394968e-06
2.7606816e-06 -1.8761376e-06 -5.191128e-07 -2.1185579e-06 -1.5215461e-06 8.0569794e-07 -1.9878726e-06 4.2589145e-05
-2.046883e-06 -5.489065e-07 6.9933676e-06 2.3972439e-06 -2.1244025e-06 -1.576579e-05 -2.2091344e-05 1.9940421e-06
-2.6503544e-06 -2.3867108e-06 4.8601937e-06 1.2717812e-06 6.263821e-06 -2.1831595e-06 4.2153253e-05 2.0668658e-06
-2.9829873e-06 -1.9902282e-07 7.4737777e-06 1.4948479e-07 3.277507e-06 3.307213e-06 -3.436394e-06 -2.1077125e-05
1.7533288e-06 -1.1754286e-06 3.3962388e-06 2.0230727e-06 -9.150468e-06 -5.2321775e-07 7.231578e-07 4.828505e-06
-1.8575095e-06 -1.4782336e-07 -1.2221029e-06 -1.9755432e-06 5.4215598e-05 -3.0281579e-05 -1.5533651e-06 -2.074322e-06
1.6957992e-07 -2.1303065e-06 -1.2170382e-05 -2.7106425e-06 2.9457541e-07 7.3958713e-06 1.4754331e-06 3.7379877e-07
-5.269752e-05 -0.00017991626 0.27040142 0.0004026573 -0.00015099137 -9.8578304e-05 -0.00018209085 -0.0001842321
-0.0002842291 0.00020216417 -0.00019152909 0.13088666 -0.000114489994 -7.991434e-05 0.00012917213 0.00021485708

bias f4 [60]
00000000: b1b3 a533 a51e a53c 0c5c ce3c c164 82b7
00000010: f192 bb3c 6d86 9037 2a72 903c 6bd2 01b4
00000020: 4749 00b7 b984 a83c e291 d33c 6c62 bd29
00000030: cdb5 9435 1958 0c34 125c deae 25db 562f
00000040: 421c af3c 2205 d73c 3d1d 5238 8795 973c
00000050: cdc9 b235 ce09 b83c 22b0 c33c febe 95b4
00000060: e394 ac3c 31a1 b23c 380c bb3c 5716 af3c
00000070: 8d67 a13c 7b6d 0633 7aa3 893c 0535 0127
00000080: 5f23 d73c 622d d73c b4ec d63c 02a7 9b3c
00000090: 2147 8831 9c10 9736 2785 a2b0 10b1 47b3
000000a0: 991d b33c 69e8 b32c 050c db3c c92c 2235
000000b0: 26e5 db3c 6f1e 46b5 2324 6936 edbc da31
000000c0: 3e91 aa3c c1c9 16b4 5321 cd3c 9a4d da3c
000000d0: 50a9 e635 9300 dc3c 9981 193a 1abc 4db8
000000e0: d770 25b3 6034 532b 8d27 b4b2 8885 ab3c
7.716097e-08 0.020156214 0.025190376 -1.5544125e-05 0.022897216 1.7228735e-05 0.017632563 -1.2090611e-07
-7.646456e-06 0.0205711 0.025826398 8.4103595e-14 1.107977e-06 1.3070566e-07 -1.0111746e-10 1.9541042e-10
0.021375779 0.026247565 5.0095132e-05 0.018503917 1.3320765e-06 0.022465613 0.023887698 -2.7892378e-07
0.021067088 0.021805378 0.022832975 0.021372957 0.019702697 3.1298878e-08 0.016801585 1.7931088e-15
0.026261983 0.026266757 0.026235916 0.019000534 3.9662074e-09 4.5020843e-06 -1.1824896e-09 -4.6494335e-08
0.0218647 5.1132887e-12 0.02673913 6.0414874e-07 0.026842665 -7.3805035e-07 3.474074e-06 6.3661134e-09
0.02082121 -1.4043236e-07 0.025040304 0.026648331 1.7185612e-06 0.026855743 0.00058557984 -4.9050992e-05
-3.8519683e-08 7.5034944e-13 -2.0972744e-08 0.020937696

weight f4 [1, 60]
00000000: b5cb 34b3 3624 083f 5689 263f f348 8b35
00000010: 12c7 183f a9db 5ab7 3c71 f13e 8ea9 a8b4
00000020: 9248 a0b7 27a5 0a3f 7187 2a3f 15fa 832a
00000030: becc 01b5 7502 50b3 0027 ff2d c0b1 5e2d
00000040: c329 0f3f 2210 2d3f e221 1ab8 5dd1 fb3e
00000050: 51c5 89b4 29f4 153f 2290 1e3f bd33 dc35
00000060: b6b9 0d3f 310d 123f b345 183f ce97 0f3f
00000070: 1020 053f c992 82b3 9ea2 e73e 0dbc f3a6
00000080: 0653 2d3f cb0b 2d3f 4ecc 2c3f 5257 013f
00000090: 1d8a 1e32 abad 5236 87ac bcb0 61e9 3333
000000a0: 1e5d 123f 499e 9cac 7bf9 2f3f 3d1d 2335
000000b0: a25b 303f a123 ccb6 8df9 45b7 5bf2 b531
000000c0: f5f7 0b3f 23b6 8433 0177 253f 135c 2f3f
000000d0: 316a 1836 6a6d 303f a148 a1ba 28f0 3439
000000e0: 7c8a ddb3 b4d1 45ab 065e f5b1 79bb 0c3f
-4.2094786e-08 0.53180254 0.6505331 1.0377538e-06 0.5967876 -1.3044956e-05 0.47156703 -3.1415806e-07
-1.910728e-05 0.5415825 0.6661292 2.3443804e-13 -4.8354184e-07 -4.843101e-08 2.9007463e-11 1.2658707e-11
0.559231 0.6760274 -3.6748017e-05 0.4918317 -2.5661805e-07 0.58575684 0.6193868 1.6406335e-06
0.553615 0.5705138 0.5948135 0.5609101 0.5200205 -6.080297e-08 0.45241255 -1.6912483e-15
0.6770481 0.6759612 0.67499244 0.50523865 9.228214e-09 3.1393527e-06 -1.3727836e-09 4.1888942e-08
0.57173336 -4.45136e-12 0.6874005 6.076478e-07 0.6888982 -6.0838215e-06 -1.1800218e-05 5.295346e-09
0.5467523 6.1798595e-08 0.6463471 0.6849987 2.2711577e-06 0.6891695 -0.001230497 0.00017255603
-1.03163046e-07 -7.027948e-13 -7.1411277e-09 0.5497356
