Total_RCS/epoch_200_batch_255_lr_0_0019819414761434403_wd_0_1808248925678225/torch_model_3_Softsign.pth (torch, 49095 bytes, 9 tensors)

weight f4 [60, 3]
-0.07499402 -0.025455333 0.14675835 0.09016641 -0.026467875 -0.18206075 -0.08579484 1.1500853
-1.0898776 0.3576591 1.5596445 0.08891724 -3.2804756 -0.42861155 -0.17902792 -0.02850983
-0.38534164 -1.5611088 0.16276912 -1.8755602 -1.6541399 -0.00035959907 0.00012652733 0.000120852164
-0.8681435 -0.29357457 1.2723482 -1.2624949 -0.043778446 0.012299744 -0.030208098 -0.11958394
-1.778952 0.9301087 1.0578674 0.09521759 0.06932774 0.033434812 -0.14115064 1.6199399
0.42069644 -0.43908042 0.07495175 0.028712478 -0.14247264 -1.1634638 0.007166234 0.008643052
-1.0595938 1.8296945 -0.06329016 0.0443428 -0.6046642 -0.5109902 -0.89735395 -0.4900451
-0.42063227 -0.09807096 0.04055808 0.1967595 -0.07494676 -0.045018204 0.13451922 -0.029617269
-0.50742626 -0.7990204 0.026794016 -0.38504848 0.41471836 0.47469592 -1.6721038 0.025983296
0.5739576 3.2653751 -0.08867654 0.082529284 0.0011967616 -0.16641802 -0.1599412 -0.47072354
-0.03741067 2.212064 -0.08735485 -0.6144223 -1.2390381 0.40625668 -0.080659844 0.0002403659
-0.00046390897 2.1056252e-05 -1.5466286 1.6675746 0.4779079 0.17108603 0.65938544 0.42248762
0.089349166 -0.018037703 -0.17801484 1.6916363 0.8677586 0.06988386 -0.023008022 -0.60187346
-1.7474734 -0.075954475 -0.04046377 0.1377648 0.41531274 1.4096277 -0.005735001 -0.48069614
-0.827582 0.3901501 -0.08800646 0.018959384 0.17769197 -0.04719535 -2.1405709 -0.52525955
-0.07574855 -0.050996117 0.13342246 -0.9172546 1.3054818 -0.34284613 -0.07118254 -0.024217317
0.1434384 0.0771702 0.017398138 -0.15206951 -0.23326354 -1.4760896 0.06686523 0.6445482
1.0970271 -0.0019185808 -0.09233213 1.3769393 1.8129194 0.08777212 -0.009284576 -0.17408442
-0.30889118 -1.2255988 -0.9349743 1.0926389 0.8254009 -0.5549972 -0.009178076 -0.3401847
-1.9842516 -0.08412901 0.0061274366 0.17006178 -3.8413587 -0.5973805 -0.48109972 -0.02638276
-2.0890524 -1.694765 -0.00027054187 0.00020241161 0.00014617185 1.3566545 0.45188054 0.00058963464
-0.07839645 -0.021993201 0.15064952 0.074465886 -1.7621057 -1.4784586 -0.00023790839 0.00016195085
0.00014715968 -0.35390517 0.26235247 -1.3134
00000000: 7796 99bd b487 d0bc d247 163e 2ba9 b83d
00000010: 28d3 d8bc 226e 3abe 34b5 afbd ff35 933f
00000020: 1c81 8bbf 181f b73e 6ea2 c73f 3e1a b63d
00000030: 50f3 51c0 f972 dbbe 1853 37be 728d e9bc
00000040: 804b c5be 6ad2 c7bf f3ac 263e 5b12 f0bf
00000050: dbba d3bf 9288 bcb9 6cac 0439 0372 fd38
00000060: a73e 5ebf 684f 96be 4edc a23f 6f99 a1bf
00000070: 0751 33bd de84 493c f976 f7bc 6de8 f4bd
00000080: b3b4 e3bf 9b1b 6e3f 3368 873f 7101 c33d
00000090: b4fb 8d3d f1f2 083d cb89 10be 315a cf3f
000000a0: 8665 d73e 26cf e0be 4e80 993d 6e36 eb3c
000000b0: 59e4 11be 62ec 94bf bad2 ea3b 969b 0d3c
000000c0: c5a0 87bf 6e33 ea3f 459e 81bd cca0 353d
000000d0: 46cb 1abf 41d0 02bf fdb8 65bf 31e7 fabe
000000e0: 1d5d d7be 6dd9 c8bd 3b20 263d 537b 493e
000000f0: b07d 99bd 0265 38bd 68bf 093e ea9f f2bc
00000100: b0e6 01bf 9a8c 4cbf 207f db3c 1325 c5be
00000110: f755 d43e 580b f33e 7f07 d6bf ecda d43c
00000120: e3ee 123f e8fb 5040 0c9c b5bd 1d05 a93d
00000130: a8dc 9c3a 7c69 2abe a0c7 23be ad02 f1be
00000140: ee3b 19bd 7592 0d40 19e7 b2bd c84a 1dbf
00000150: cd98 9ebf e000 d03e fd30 a5bd bb0a 7c39
00000160: cf38 f3b9 f5a1 b037 edf7 c5bf 1673 d53f
00000170: 58b0 f43e 2d31 2f3e 7ccd 283f 4c50 d83e
00000180: b2fc b63d cec3 93bc 8649 36be 8a87 d83f
00000190: 6d25 5e3f 451f 8f3d 527b bcbc 6114 1abf
000001a0: 35ad dfbf 058e 9bbd 57bd 25bd 3712 0d3e
000001b0: dfa3 d43e ae6e b43f adec bbbb ce1d f6be
000001c0: 6adc 53bf c1c1 c73e bb3c b4bd b650 9b3c
000001d0: e2f4 353e e94f 41bd 1dff 08c0 6977 06bf
000001e0: 0e22 9bbd 4ee1 50bd e69f 083e 33d1 6abf
000001f0: 071a a73f 8789 afbe 27c8 91bd 6563 c6bc
00000200: 84e1 123e 690b 9e3d 8a86 8e3c 1cb8 1bbe
00000210: a3dc 6ebe 81f0 bcbf a3f0 883d 1c01 253f
00000220: 626b 8c3f e478 fbba a118 bdbd 8c3f b03f
00000230: be0d e83f dfc1 b33d 561e 18bc 3043 32be
00000240: fc26 9ebe 6ce0 9cbf 7a5a 6fbf 97db 8b3f
00000250: 794d 533f 4c14 0ebf a45f 16bc b02c aebe
00000260: f5fb fdbf d54b acbd aac8 c83b ad24 2e3e
00000270: d2d8 75c0 eeed 18bf b452 f6be a820 d8bc
00000280: 09b3 05c0 0fee d8bf 84d7 8db9 743e 5439
00000290: b545 1939 dba6 ad3f e35c e73e b691 1a3a
000002a0: 518e a0bd 162b b4bc de43 1a3e 9281 983d
000002b0: ae8c e1bf 223e bdbf 0c77 79b9 5ad1 2939
000002c0: e04e 1a39 0f33 b5be 1053 863e 7e1d a8bf

bias f4 [60]
0.61936766 -0.562392 -0.774408 1.4609768 -1.360884 -1.2510692 -1.2770401 -0.00038363188
-0.20877494 -1.7187155 -1.4242247 0.018904759 -0.548898 0.966803 -0.81302726 0.4799303
-0.61975926 -0.47015083 -1.0494125 0.7595539 0.942366 0.20451756 -0.5833967 -1.3753656
0.2820022 -0.52752024 0.7565867 1.8587041 0.9796223 -0.0005466901 -0.3339821 -0.737761
-0.5982671 0.5300529 -1.4121464 0.9437986 -0.24295385 -0.44337702 0.5511665 -0.31010184
1.0490298 0.89574444 0.92288643 -0.6015286 0.6435439 -0.4460561 1.4029363 -0.7365639
-1.0033318 0.3642927 -1.552498 0.85181653 0.0978295 -1.6070976 -0.00025292652 -0.2925044
0.92582035 -0.92502165 -0.00036274779 -1.4283656
00000000: e18e 1e3f ecf8 0fbf 9a3f 46bf 4a01 bb3f
00000010: 7231 aebf 0923 a0bf 0d76 a3bf 3322 c9b9
00000020: 19c9 55be dffe dbbf ff4c b6bf 27de 9a3c
00000030: 9484 0cbf 6780 773f 8e22 50bf 6db9 f53e
00000040: 8ba8 1ebf 9cb7 f0be 2653 86bf 2072 423f
00000050: e63e 713f 0d6d 513e 7c59 15bf fb0b b0bf
00000060: 9862 903e 910b 07bf aaaf 413f 04ea ed3f
00000070: 87c8 7a3f c04f 0fba b4ff aabe e8dd 3cbf
00000080: 0828 19bf 8cb1 073f 37c1 b4bf c99c 713f
00000090: e5c8 78be 5002 e3be 3f19 0d3f abc5 9ebe
000000a0: 9c46 863f 824f 653f 4942 6c3f c7fd 19bf
000000b0: 4bbf 243f 7761 e4be 6b93 b33f 748f 3cbf
000000c0: 2d6d 80bf 9384 ba3e 41b8 c6bf a610 5a3f
000000d0: d55a c83d 60b5 cdbf 399b 84b9 23c3 95be
000000e0: 9002 6d3f 38ce 6cbf 2f2f beb9 afd4 b6bf

weight f4 [60, 60]
0.0038403382 -0.0045174607 0.010318179 -0.0064278143 -0.0060095815 -0.00028161143 0.0041286303 2.474683e-08
0.0034009188 -0.0011754376 0.0033355844 -0.013886098 -0.0037521587 0.011893125 -0.0036204078 -0.0017034822
0.019693587 -0.0032052754 -0.006144694 0.00436215 0.0034560803 -0.011504442 0.007147124 0.0012812841
-0.0008973989 -0.004275186 0.0006349953 -0.013116768 -0.0033339604 5.215769e-05 0.012672603 0.007810771
-0.0043981317 0.0049200975 2.019528e-05 0.0034830812 -0.0050457106 0.0013120249 0.004461465 0.0012798226
0.003386306 -0.00021266963 0.00352417 -0.0039514806 -0.001187985 -0.01239876 -0.0034936876 -0.0041047735
0.0023572885 0.0032981874 0.001332084 0.0038843988 -0.00019534655 0.006376195 4.5892368e-05 -0.0038618338
0.0036105865 0.0009925461 8.6783366e-05 0.012246776 0.12745203 -0.12054907 0.02097883 0.06764375
0.060025256 -0.052427407 -0.015169623 -0.00017431928 0.032898296 -0.113293074 -0.025279429 -0.0045680357
-0.11526728 -0.041779507 -0.15515657 0.046425775 0.005825283 -0.03440797 -0.010918498 0.15051506
0.16998993 0.06674904 -0.10251597 -0.11781168 -0.025880007 -0.11305521 0.1044715 -0.012370126
0.09115172 0.00010446994 -0.053038012 -0.12338035 -0.12603335 0.0076104496 -0.04180273 0.17024617
-0.05587678 -0.05285053 0.1182541 0.045228817 0.1808344 0.14261864 0.16814537 -0.12487192
0.038430355 -0.055661343 0.042464804 -0.14629054 0.027406625 -0.02237842 -0.023711693 0.16078046
-0.030074608 0.014632751 -0.00012573121 -0.0068247193 0.1686402 0.013648329 -0.00018236038 -0.13134338
0.0024198696 -0.0024927047 -0.0038821013 0.0144539755 0.009427636 0.00032997102 0.00046141754 0.0004031419
0.008561372 0.014511958 -0.006486457 0.0014387892 -0.0027055896 0.017062536 -0.0017823963 0.005172343
0.018538222 -0.00060524116 0.0019278995 0.0017720594 0.0015560259 -0.0051293154 0.0050608614 0.0032261033
-0.0041734623 -0.002832402 0.0074352426 0.0133297695 -0.00871108 5.612593e-05 0.018288324 -0.0035750999
-0.0024002038 0.006127766 0.0037513324 0.001551613 -0.0004434994 0.009140174 0.002594022 -0.009456712
0.001397141 0.008161215 0.0014919649 -0.0024808599 -0.0013647435 -0.008447275 -0.005720988 -0.0019476659
-0.002059123 -0.007504617 -0.0023619062 0.0016435568 -0.0052350424 0.004480803 0.00036190532 -0.007275064
0.0015457737 -0.003764613 0.0004486848 0.0052656718 0.12727225 -0.15897432 0.3786388 0.039974168
-0.285043 -0.09200807 -0.48448575 -0.0051483796 -0.18498138 -0.31579003 -0.2557246 -0.3887033
-0.10967007 -0.25738683 -0.14898768 0.05746592 0.34539238 -0.39094025 -0.25153503 0.19182096
0.15567406 0.1613085 -0.35447726 -0.77770895 0.2011962 -0.13249202 0.06951316 -0.17179056
0.38454518 0.00017013711 0.28952697 -0.14319548 -0.15796502 0.23415332 -0.0967785 0.15794493
0.09996128 -0.28077936 0.15135123 -0.015104074 0.16646937 0.06484466 0.16227351 -0.13237925
-0.10077394 -0.13898148 0.53483945 -0.16582203 -0.011793611 -0.2581254 -0.13003534 0.17668173
-0.42240998 -0.363729 -0.004295095 0.13610308 0.16611946 -0.25558448 -0.0039465064 0.07076286
0.1277316 -0.12076676 0.021239527 0.066710874 0.059767522 -0.051764354 -0.014565991 -0.00017738012
0.033110753 -0.113964655 -0.024480462 -0.0046347664 -0.1155279 -0.041484084 -0.15549523 0.046532564
00000000: 2fae 7b3b 3507 94bb 940d 293c 6aa0 d2bb
00000010: 06ec c4bb 3fa5 93b9 7649 873b db92 d432
00000020: f3e1 5e3b 2411 9aba d299 5a3b 8482 63bc
00000030: c7e6 75bb 62db 423c 5d44 6dbb 6147 dfba
00000040: 7254 a13c 990f 52bb 6e59 c9bb 5ef0 8e3b
00000050: 687f 623b 217d 3cbc 6c32 ea3b c3f0 a73a
00000060: 6c3f 6bba dc16 8cbb d075 263a b6e7 56bc
00000070: 937e 5abb e5c3 5a38 c0a0 4f3c 7ff1 ff3b
00000080: 341e 90bb c538 a13b 0969 a937 6844 643b
00000090: 7d56 a5bb 40f8 ab3a 7b31 923b b8bf a73a
000000a0: caec 5d3b 1200 5fb9 c3f5 663b 6c7b 81bb
000000b0: 29b6 9bba 2b24 4bbc 5af6 64bb 5681 86bb
000000c0: bd7c 1a3b 6726 583b 5299 ae3a 6691 7e3b
000000d0: f1d5 4cb9 66ef d03b 8e7c 4038 d216 7dbb
000000e0: 979f 6c3b 5218 823a 77ff b538 b4a6 483c
000000f0: c982 023e 6ee2 f6bd ccdb ab3c ce88 8a3d
00000100: 0bdd 753d 1fbe 56bd 038a 78bc 7ac9 36b9
00000110: 5dc0 063d 3306 e8bd ce16 cfbc 76af 95bb
00000120: 4011 ecbd fd20 2bbd 5de1 1ebe f428 3e3d
00000130: 04e2 be3b 5fef 0cbd 80e3 32bc 9f20 1a3e
00000140: d711 2e3e b8b3 883d e5f3 d1bd 4047 f1bd
00000150: 4f02 d4bc 7d89 e7bd 27f5 d53d 12ac 4abc
00000160: c1ad ba3d df16 db38 633e 59bd d6ae fcbd
00000170: e30e 01be 1461 f93b 5739 2bbd 0355 2e3e
00000180: 0ddf 64bd cc79 58bd 352f f23d da41 393d
00000190: a72c 393e 9f0a 123e 4d2e 2c3e d9bc ffbd
000001a0: 2669 1d3d 26fd 63bd 93ef 2d3d 30cd 15be
000001b0: dc83 e03c f352 b7bc 063f c2bc a2a3 243e
000001c0: 065f f6bc 35be 6f3c b7d6 03b9 e5a1 dfbb
000001d0: 04b0 2c3e 3e9d 5f3c fe37 3fb9 e17e 06be
000001e0: ad96 1e3b a55c 23bb da6a 7ebb 5ed0 6c3c
000001f0: 5f76 1a3c f6ff ac39 6aea f139 ca5c d339
00000200: ff44 0c3c 90c3 6d3c 588c d4bb c195 bc3a
00000210: 4350 31bb bbc6 8b3c 4c9f e9ba c27c a93b
00000220: 78dd 973c 0ca9 1eba 93b1 fc3a 7244 e83a
00000230: 91f3 cb3a d113 a8bb 95d5 a53b 086d 533b
00000240: 8ac1 88bb d29f 39bb 56a3 f33b 1b65 5a3c
00000250: ebb8 0ebc c268 6b38 65d1 953c 394c 6abb
00000260: bd4c 1dbb 6dcb c83b ead8 753b 7e5f cb3a
00000270: 7b85 e8b9 abc0 153c 7800 2a3b 53f0 1abc
00000280: 4620 b73a 9eb6 053c 098e c33a ec95 22bb
00000290: 31e1 b2ba 7066 0abc 2077 bbbb d348 ffba
000002a0: 5af2 06bb 4ae9 f5bb 36ca 1abb 9d6c d73a
000002b0: b88a abbb b3d3 923b 1cbe bd39 a963 eebb
000002c0: 8f9b ca3a bab7 76bb 743d eb39 a88b ac3b
000002d0: a853 023e 2aca 22be f2dc c13e f4bb 233d
000002e0: 28f1 91be ba6e bcbd 840e f8be bdb3 a8bb
000002f0: c26b 3dbe 3baf a1be 56ee 82be 1e04 c7be
00000300: b49a e0bd 35c8 83be 3a90 18be 6261 6b3d
00000310: 45d7 b03e 5229 c8be 33c9 80be b76c 443e
00000320: 0569 1f3e 0e2e 253e 0b7e b5be ef17 47bf
00000330: 6006 4e3e fdab 07be ea5c 8e3d dde9 2fbe
00000340: 1be3 c43e d566 3239 e13c 943e d6a1 12be
00000350: 95c1 21be e3c5 6f3e ce33 c6bd 51bc 213e
00000360: 80b8 cc3d 50c2 8fbe d1fb 1a3e 1477 77bc
00000370: f276 2a3e 47cd 843d 072b 263e 6d8e 07be
00000380: 9162 cebd 2951 0ebe 3deb 083f 40cd 29be
00000390: fd39 41bc 0329 84be fc27 05be 0eec 343e
000003a0: 1f46 d8be b03a babe debd 8cbb 9b5e 0b3e
000003b0: 381b 2a3e f8db 82be b251 81bb 1eec 903d
000003c0: 13cc 023e 9054 f7bd 84fe ad3c b69f 883d
000003d0: cace 743d dc06 54bd 32a6 6ebc 1dff 39b9
000003e0: 249f 073d 4d66 e9bd 408b c8bc 3ddf 97bb
000003f0: e499 ecbd 37eb 29bd 243a 1fbe ee98 3e3d

bias f4 [60]
0.0031481816 0.36660257 -0.0001837333 0.26631615 0.36728802 0.20358849 -0.3051432 0.087362275
0.33581853 0.33477405 -0.0071058436 -0.30843523 -0.3682365 0.48918965 -0.44578952 -0.34608418
-1.0760266e-06 1.3002168e-05 -0.5642155 0.45537627 0.53171647 -0.35969535 0.24535419 0.0027684444
-0.0023215993 -0.004023829 -0.0026631488 -0.33326542 0.00017449644 0.35983488 0.3658556 -0.0014005534
0.027041715 -0.2087722 0.11177445 -0.24708372 0.004355334 0.37024367 0.5252291 -0.4720231
0.0006592438 0.3328018 0.36728203 -0.37830988 -0.35097048 -0.6117211 0.34585837 -0.0010179344
0.0004168935 -0.35655034 0.088808596 0.5192467 0.1243256 0.0012996888 0.002184569 0.4619528
-0.34020543 -0.00017122593 -0.36371124 -0.00029268232
00000000: b951 4e3b 55b3 bb3e 88a8 40b9 975a 883e
00000010: 2d0d bc3e 8079 503e bb3b 9cbe feea b23d
00000020: 68f0 ab3e 8167 ab3e 23d8 e8bb 39eb 9dbe
00000030: 7f89 bcbe 1177 fa3e 863e e4be f231 b1be
00000040: fe6b 90b5 e323 5a37 6d70 10bf 1427 e93e
00000050: 921e 083f fd29 b8be 213e 7b3e ca6e 353b
00000060: f925 18bb 53da 83bb 3988 2ebb c4a1 aabe
00000070: 08f9 3639 473c b83e 6d51 bb3e c692 b7ba
00000080: 9686 dd3c 61c8 55be 01ea e43d 8403 7dbe
00000090: 31b7 8e3b 9490 bd3e 6a75 063f 03ad f1be
000000a0: 1ad1 2c3a ff64 aa3e 640c bc3e d5b1 c1be
000000b0: 67b2 b3be c199 1cbf 5914 b13e 366c 85ba
000000c0: 8092 da39 c48d b6be 48e1 b53d 5aed 043f
000000d0: 6c9e fe3d 525a aa3a fc2a 0f3b 1485 ec3e
000000e0: 682f aebe 1c8b 33b9 5c38 babe 2873 99b9

weight f4 [60, 60]
-0.0012946016 -0.12605372 -7.260587e-05 -0.28331143 -0.12622759 0.014547618 0.28299254 -0.1677484
-0.11119432 0.06336583 -0.01982217 0.18610224 0.12729438 -0.27783504 -0.02682705 0.116252914
-0.00090087194 8.165637e-05 0.31187478 0.1200034 -0.05664383 0.12277088 -0.012130351 -1.07347505e-05
-0.00020265492 -0.0009276633 -0.0016832752 0.10955645 -0.00014433065 -0.21411787 -0.1257997 -0.00043416358
-0.16149673 0.1273868 -0.0012571219 0.14288513 0.00044939993 -0.1277777 -0.04868916 0.21790229
0.00032687184 -0.04301408 -0.12643641 0.12899792 0.23403455 0.29090846 -0.116322555 0.0011252763
7.523914e-05 0.12145617 0.09266056 -0.15373631 -0.23119973 -3.5054763e-05 0.0016145258 0.09464713
-0.102293156 -8.921199e-05 0.124689065 -0.0017204644 -0.0060286033 -0.18087894 -0.009977143 -0.15623543
-0.18130669 -0.17430213 0.022789761 0.015951786 -0.15752418 -0.42798734 0.02900563 1.6051066
0.18327017 -0.23456655 0.37299815 0.16522698 -0.022470955 -0.001138539 0.027082108 -0.33615497
-1.1750281 0.17564066 -0.3014863 0.011151441 -0.01660333 0.016546248 0.012969232 0.15478186
0.009011263 -0.1255608 -0.18031128 0.013985074 -0.11013234 0.15292716 -0.42220932 -0.013929675
-0.0020482934 -0.18375193 -0.5258395 1.5383435 -0.0029326568 0.007654628 -0.18179919 0.49457097
0.049478535 0.9594643 -0.16535626 0.01728805 -0.0050381143 0.17341325 0.080810264 -0.18164948
-0.21609673 0.01000577 -0.005564897 -0.5690257 0.79193145 -0.007392323 0.17866728 -0.015929803
0.0023304455 0.12256442 -8.596088e-05 0.23756559 0.12273074 0.046209585 -0.22611424 0.15860325
0.10939712 -0.00817161 0.12411609 -0.00014859205 -0.123654164 0.31148937 0.02216911 -0.11378119
-0.0016896306 0.00028712396 -0.3659635 -0.15312736 0.05169656 -0.11956293 0.06719013 0.0008798651
-0.001234159 7.4005664e-05 0.0018322554 -0.108052775 -0.00049379724 0.17842938 0.12228414 0.0009184195
0.08565041 -0.121316545 0.043198045 -0.14278896 -0.0006251382 0.12418906 0.07976295 -0.1965042
0.0010600343 0.12626837 0.122885376 -0.18561347 -0.22812606 -0.29068476 0.1137978 -0.0005995522
-0.0007046498 -0.11835105 -0.16088481 0.22350389 0.15112655 -0.0012605516 -0.0010381395 -0.14480051
0.049702875 0.0010941081 -0.12129352 0.0021879352 0.0011344008 0.114369385 4.43597e-05 0.29600093
0.11455068 -0.036205195 -0.29369643 0.15237993 0.098292544 -0.06907591 -0.013649673 -0.2454354
-0.11576986 0.2911235 0.041226797 -0.103760384 0.0011450421 0.00029149276 -0.3252184 -0.14210723
0.051681377 -0.11080175 -0.0042532743 5.089974e-05 -4.000519e-05 0.0007171607 0.0017101867 -0.09649072
8.7090644e-05 0.2144171 0.11410052 0.0005953161 0.19035058 -0.10849457 -0.0055418727 -0.12360245
-0.00031986745 0.11630385 0.036186446 -0.23045374 -0.0006473144 0.030993793 0.11481332 -0.12382662
-0.21213862 -0.30418724 0.103834346 -0.0006946775 7.7916644e-05 -0.10937779 -0.0825517 0.14735375
0.28301743 0.00013501162 -0.0014142131 -0.111645445 0.11012926 0.00026571137 -0.11287353 0.001462223
0.002989601 0.053561587 0.009381731 -0.30775258 0.053995967 -0.59463876 0.056864794 -0.12989421
0.032184944 0.36637586 -2.256475 -1.5414586 -0.05275762 -0.060262203 0.18520361 -0.038395368
00000000: 9faf a9ba 3a14 01be fb43 98b8 320e 91be
00000010: ce41 01be 2259 6e3c 66e4 903e 3dc6 2bbe
00000020: d9b9 e3bd f2c5 813d 1a62 a2bc 9691 3e3e
00000030: 7559 023e 6540 8ebe 67c4 dbbc 0216 ee3d
00000040: 7e28 6cba ee3e ab38 0dae 9f3e 58c4 f53d
00000050: 5c03 68bd 4d6f fb3d 61be 46bc 6719 34b7
00000060: c47f 54b9 6e2e 73ba 58a1 dcba 225f e03d
00000070: 7757 17b9 b741 5bbe a3d1 00be 73a0 e3b9
00000080: 665f 25be af71 023e 03c6 a4ba 7b50 123e
00000090: 709d eb39 28d8 02be 496e 47bd c721 5f3e
000000a0: ff5f ab39 882f 30bd 8c78 01be 0818 043e
000000b0: c1a6 6f3e f4f1 943e 853a eebd 027e 933a
000000c0: b5c9 9d38 03be f83d d2c4 bd3d 0d6d 1dbe
000000d0: 9fbf 6cbe c407 13b8 7f9e d33a 5bd6 c13d
000000e0: 137f d1bd 5317 bbb8 fb5c ff3d 3581 e1ba
000000f0: 978b c5bb 5438 39be 2c77 23bc 2efc 1fbe
00000100: 76a8 39be 427c 32be 98b1 ba3c 52ad 823c
00000110: 054e 21be 2821 dbbe 379d ed3c 2274 cd3f
00000120: 2dab 3b3e 3732 70be 9df9 be3e 4331 293e
00000130: 0215 b8bc 083b 95ba 4cdb dd3c 811c acbe
00000140: 5267 96bf 25db 333e 6a5c 9abe 89b4 363c
00000150: b503 88bc ff8b 873c e77c 543c 237f 1e3e
00000160: faa3 133c 0393 00be 85a3 38be a721 653c
00000170: 108d e1bd f098 1c3e d22b d8be 4b39 64bc
00000180: a93c 06bb 7729 3cbe 6b9d 06bf 71e8 c43f
00000190: d131 40bb acd3 fa3b 9129 3abe 6838 fd3e
000001a0: 01aa 4a3d 749f 753f 2753 29be ab9f 8d3c
000001b0: c416 a5bb 3e93 313e da7f a53d 5202 3abe
000001c0: 7648 5dbe 3eef 233c bd59 b6bb abab 11bf
000001d0: 05bc 4a3f 4d3b f2bb 8ef4 363e 387f 82bc
000001e0: 63ba 183b 0e03 fb3d e545 b4b8 6544 733e
000001f0: 415a fb3d 4346 3d3d 7e8a 67be e468 223e
00000200: 990b e03d 37e2 05bc 9430 fe3d 60cf 1bb9
00000210: 653e fdbd 897b 9f3e fe9b b53c 1d06 e9bd
00000220: 9876 ddba 2089 9639 915f bbbe 6bcd 1cbe
00000230: c6bf 533d 69dd f4bd fb9a 893d bfa6 663a
00000240: 81c3 a1ba 7d33 9b38 4a28 f03a c64a ddbd
00000250: 2c72 01ba 31b6 363e 1b70 fa3d 17c2 703a
00000260: 7b69 af3d cf74 f8bd 6ff0 303d 4537 12be
00000270: 50e0 23ba d556 fe3d c25a a33d 6638 49be
00000280: d9f0 8a3a 7f4c 013e 54ab fb3d 7511 3ebe
00000290: e199 69be a2d4 94be d20e e93d 442b 1dba
000002a0: 3fb8 38ba 0962 f2bd fdbe 24be 34de 643e
000002b0: ebc0 1a3e 1839 a5ba 2e12 88ba 9646 14be
000002c0: 3e95 4b3d 2d68 8f3a bd68 f8bd 7663 0f3b
000002d0: 2db0 943a 7f3a ea3d dd0e 3a38 6f8d 973e
000002e0: 8c99 ea3d e64b 14bd 615f 96be 7c09 1c3e
000002f0: 9a4d c93d ac77 8dbd e1a2 5fbc 6b53 7bbe
00000300: c018 edbd 240e 953e 6edd 283d 5380 d4bd
00000310: 3d15 963a 7fd3 9839 0783 a6be 8f84 11be
00000320: daaf 533d 07ec e2bd 0d5f 8bbb 2e7d 5538
00000330: 3fcb 27b8 d7ff 3b3a 5828 e03a ed9c c5bd
00000340: 6fa4 b638 2890 5b3e 89ad e93d fd0e 1c3a
00000350: 43eb 423e 6732 debd 9998 b5bb 4823 fdbd
00000360: e2b3 a7b9 b730 ee3d 3d38 143d 11fc 6bbe
00000370: 89b0 29ba b2e6 fd3c 3f23 eb3d d098 fdbd
00000380: de3a 59be 6ebe 9bbe 1aa7 d43d 051b 36ba
00000390: 2e67 a338 7601 e0bd de10 a9bd e7e3 163e
000003a0: a9e7 903e e891 0d39 1e5d b9ba 5ea6 e4bd
000003b0: 738b e13d 2d4f 8b39 3d2a e7bd 10a8 bf3a
000003c0: 2fed 433b 6563 5b3d d5b5 193c bf91 9dbe
000003d0: e02a 5d3d 3f3a 18bf 0feb 683d fd02 05be
000003e0: 5cd4 033d 9e95 bb3e 166a 10c0 844e c5bf
000003f0: 6018 58bd 80d5 76bd 04a6 3d3e 7644 1dbd

bias f4 [60]
-0.24115781 -0.36926207 0.23064722 0.23228621 0.24162358 0.19907945 0.23204242 -0.368569
0.23954429 -0.23144458 0.23821191 -0.22290497 -0.2343031 -0.33756274 0.31322473 0.13562502
0.22982132 0.1867474 -0.13507578 0.35519534 -0.3584157 -0.2332122 -0.20673358 0.34890693
-0.23359019 -0.2384862 -0.22899313 0.36387673 0.2085371 -0.27538046 -0.23148224 -0.23635969
-0.35382137 0.4334391 -0.23096396 0.23145545 -0.23536731 -0.23825781 -0.23177558 -0.52114695
0.23363751 -0.23896049 -0.35392505 -0.23665477 -0.23376751 0.29078278 0.2250322 0.29381013
-0.23745249 0.23581505 -0.29629773 0.21675134 -0.21168031 0.23604652 0.22211498 0.32780805
-0.3710057 0.3635993 0.23330465 0.32845896
00000000: 13f2 76be eb0f bdbe c92e 6c3e 70dc 6d3e
00000010: 2c6c 773e 7cdb 4b3e 879c 6d3e 13b5 bcbe
00000020: 194b 753e cfff 6cbe d3ed 733e 3341 64be
00000030: 27ed 6fbe 06d5 acbe fe5e a03e 49e1 0a3e
00000040: 4856 6b3e b63a 3f3e 4e51 0abe 2adc b53e
00000050: 4382 b7be 2ecf 6ebe f8b1 53be eea3 b23e
00000060: 4432 6fbe ba35 74be 2d7d 6abe 0d4e ba3e
00000070: c08a 553e abfe 8cbe ae09 6dbe 4608 72be
00000080: 1328 b5be bbeb dd3e d181 6cbe a802 6d3e
00000090: 2104 71be dbf9 73be 9456 6dbe e369 05bf
000000a0: ac3e 6f3e 0fb2 74be aa35 b5be a155 72be
000000b0: c060 6fbe 7be1 943e d76e 663e 486e 963e
000000c0: bf26 73be 8079 713e 56b4 97be 10f4 5d3e
000000d0: b9c2 58be 2eb6 713e 1c72 633e 75d6 a73e
000000e0: 76f4 bdbe b029 ba3e 6ae7 6e3e c62b a83e

weight f4 [60, 60]
-0.110824876 0.28760508 0.08532599 0.10640966 -1.27613 -0.16267838 0.10979834 0.2693469
0.10944293 -0.10787105 0.11183508 -0.075460464 -0.11050343 0.2862163 -0.31303158 -0.3569159
0.1027272 0.085410446 0.60224056 -1.3168329 0.24364808 -0.0969391 -0.052899484 -1.271174
-0.11017447 -0.1082453 -0.09419171 -1.341686 0.097581275 0.77622896 -0.10911087 -0.109421745
0.18300475 -1.4473058 -0.1085496 0.10237123 -0.10600013 -0.10414499 -0.10714371 -0.18667664
0.108213045 -0.10937749 1.2780684 -0.10608523 -0.09846011 -0.40432194 0.107980385 -0.88464093
-0.103746444 0.110279255 0.92675245 0.0654597 -0.05698064 0.11096669 0.07122466 -1.3798774
1.2813972 -0.12399875 0.10974854 -0.21982966 -0.26292804 0.39837658 0.26276207 0.26374096
-0.234464 0.33245695 0.26407945 0.39042786 0.26304257 -0.2639013 0.26349154 -0.26295885
-0.26386407 0.36725527 -0.3429299 0.7237564 0.2637391 0.27059758 0.43875065 -0.4357613
0.3817084 -0.26309216 -0.26416746 -0.3630669 -0.26386154 -0.26303515 -0.2633669 -0.45394218
0.26675847 0.33696318 -0.26413062 -0.2633647 0.3714205 -0.5022482 -0.264093 0.26346293
-0.2633032 -0.26291156 -0.26379865 0.48479596 0.26371878 -0.263074 0.3988789 -0.26310667
-0.2631678 -0.32487103 0.26501948 -0.3289703 -0.26296562 0.26356876 0.3329523 0.26348126
-0.2638321 0.2636139 0.2632514 -0.31038877 0.3042791 -0.36978358 0.26396865 -0.3919717
0.26292446 -0.3984016 -0.26274717 -0.26373282 0.23441057 -0.33241287 -0.26407745 -0.39041883
-0.26303136 0.26390055 -0.26348397 0.26293883 0.26386625 -0.36726335 0.34290257 -0.7236436
-0.26374695 -0.27060616 -0.43872687 0.4357422 -0.38166377 0.26308566 0.26414716 0.36308694
0.26386526 0.26302722 0.26335803 0.45397747 -0.2667599 -0.33701837 0.26413214 0.26335934
-0.37140894 0.50226104 0.26408732 -0.26345223 0.26328957 0.26290563 0.26380312 -0.48475835
-0.26372302 0.26307127 -0.3989006 0.26309657 0.26316017 0.32492957 -0.26501814 0.32900655
0.26296082 -0.26356906 -0.33301833 -0.26347455 0.26382154 -0.26360825 -0.26324385 0.31035534
-0.3043157 0.36970162 -0.26396468 0.39197773 -0.2629436 0.3983657 0.26276952 0.26374772
-0.23441288 0.3324453 0.26408798 0.39043903 0.2630485 -0.2639131 0.26349646 -0.26296136
-0.263876 0.36725327 -0.3429096 0.7236863 0.2637597 0.27061144 0.43875447 -0.43576345
0.3816621 -0.26310053 -0.26416934 -0.36309725 -0.26387754 -0.2630468 -0.263376 -0.45397544
0.2667669 0.33701673 -0.26414695 -0.26337478 0.3713808 -0.5022405 -0.26409754 0.26347017
-0.26330924 -0.26292342 -0.2638113 0.48475897 0.26373652 -0.26309115 0.39888126 -0.26311678
-0.2631768 -0.3249225 0.26502448 -0.32900137 -0.26297897 0.26357976 0.33301818 0.2634984
-0.26383808 0.2636205 0.26326758 -0.31036595 0.30431047 -0.3697068 0.26397845 -0.39194897
-0.10062268 0.21559465 0.0802239 0.10632231 -1.873696 0.041326836 0.10956572 0.19710118
0.10121749 -0.10790826 0.10587351 -0.07092241 -0.10843267 0.21559739 -0.24457666 0.19250654
00000000: 27f8 e2bd f940 933e 65bf ae3d 4fed d93d
00000010: 3a58 a3bf 2995 26be f4dd e03d d6e7 893e
00000020: 9d23 e03d 7feb dcbd ca09 e53d 048b 9abd
00000030: 9f4f e2bd f18a 923e ad45 a0be aebd b6be
00000040: a362 d23d aceb ae3d 702c 1a3f fb8d a8bf
00000050: e27e 793e 0288 c6bd 21ad 58bd d4b5 a2bf
00000060: 27a3 e1bd b6af ddbd 95e7 c0bd 5ebc abbf
00000070: b1d8 c73d f1b6 463f 8575 dfbd 8218 e0bd
00000080: 9965 3b3e 5141 b9bf 414f debd 02a8 d13d
00000090: 9916 d9bd f849 d5bd 296e dbbd 2928 3fbe
000000a0: cd9e dd3d 4e01 e0bd bf97 a33f 3743 d9bd
000000b0: 74a5 c9bd 4903 cfbe d224 dd3d d477 62bf
000000c0: 0479 d4bd 17da e13d a63f 6d3f bc0f 863d
000000d0: 8864 69bd 8142 e33d 3cde 913d d39f b0bf
000000e0: d304 a43f 0ef3 fdbd d8c3 e03d 071b 61be
000000f0: 819e 86be 04f8 cb3e c088 863e 0e09 873e
00000100: 5517 70be cc37 aa3e 6c35 873e 29e6 c73e
00000110: 84ad 863e 121e 87be 5de8 863e 8ba2 86be
00000120: 3119 87be e208 bc3e 8294 afbe 1948 393f
00000130: d008 873e c48b 8a3e eda3 e03e 1b1c dfbe
00000140: 496f c33e 04b4 86be f540 87be e8e3 b9be
00000150: dc18 87be 8bac 86be 07d8 86be 1c6b e8be
00000160: 9194 883e 7086 ac3e 213c 87be bdd7 86be
00000170: d42a be3e 5793 00bf 3337 87be 9de4 863e
00000180: adcf 86be 589c 86be 9e10 87be 2d37 f83e
00000190: 2606 873e a3b1 86be db39 cc3e ebb5 86be
000001a0: eebd 86be 7f55 a6be a2b0 873e cc6e a8be
000001b0: 6ea3 86be 7cf2 863e b978 aa3e 04e7 863e
000001c0: 0015 87be 67f8 863e e3c8 863e 47eb 9ebe
000001d0: 78ca 9b3e 4654 bdbe e626 873e 84b0 c8be
000001e0: 099e 863e 4bfb cbbe cc86 86be fd07 87be
000001f0: 5309 703e 0532 aabe 2935 87be fae4 c7be
00000200: 0cac 86be f91d 873e 5fe7 86be eb9f 863e
00000210: 7a19 873e f109 bcbe ed90 af3e b540 39bf
00000220: d709 87be e48c 8abe cfa0 e0be 9a19 df3e
00000230: 6f69 c3be 2ab3 863e 4c3e 873e 88e6 b93e
00000240: 5919 873e 81ab 863e ddd6 863e bc6f e83e
00000250: c194 88be ac8d acbe 543c 873e 09d7 863e
00000260: 5029 bebe 2e94 003f 7436 873e 36e3 86be
00000270: e4cd 863e 919b 863e 3411 873e 3f32 f8be
00000280: b406 87be 47b1 863e b33c ccbe 98b4 863e
00000290: eebc 863e 2b5d a63e 75b0 87be 8c73 a83e
000002a0: cda2 863e 86f2 86be 6181 aabe 23e6 86be
000002b0: 9e13 873e a9f7 86be e6c7 86be e5e6 9e3e
000002c0: 44cf 9bbe 8849 bd3e 6126 87be 4eb1 c83e
000002d0: 8ba0 86be 97f6 cb3e ba89 863e f109 873e
000002e0: ee09 70be 4536 aa3e 8a36 873e a0e7 c73e
000002f0: 4bae 863e 9e1f 87be 02e9 863e dfa2 86be
00000300: c11a 87be 9f08 bc3e d991 afbe 8143 393f
00000310: 830b 873e 958d 8a3e 6da4 e03e 631c dfbe
00000320: 3769 c33e 1db5 86be 3441 87be e2e7 b9be
00000330: f51a 87be 12ae 86be 38d9 86be 786f e8be
00000340: ac95 883e 758d ac3e 453e 87be 0fd9 86be
00000350: a025 be3e d592 00bf cb37 87be 90e5 863e
00000360: 78d0 86be e69d 86be 4612 87be 5432 f83e
00000370: 7908 873e e2b3 86be 2a3a cc3e 3eb7 86be
00000380: 1cbf 86be 3e5c a6be 4ab1 873e de72 a8be
00000390: 2ea5 86be edf3 863e 5c81 aa3e 43e9 863e
000003a0: c915 87be 44f9 863e 02cb 863e 49e8 9ebe
000003b0: 95ce 9b3e 364a bdbe 2f28 873e 89ad c8be
000003c0: 4313 cebd d8c4 5c3e 6e4c a43d 83bf d93d
000003d0: 45d5 efbf 5446 293d fe63 e03d e4d4 493e
000003e0: 1e4b cf3d 01ff dcbd 36d4 d83d c53f 91bd
000003f0: f311 debd 90c5 5c3e 4e72 7abe 6f20 453e

bias f4 [60]
0.20327829 0.33997914 -0.34038588 0.3398128 0.08038089 -0.3392419 0.33945158 -0.34044406
-0.3394543 0.33975935 0.33989707 0.33962435 0.3401232 -0.33985916 0.33951503 0.21651615
0.33957946 -0.32095587 -0.33957595 0.30479267 -0.25204897 0.34024945 -0.34066102 -0.3402032
0.3404175 -0.33978733 -0.18548751 0.33930743 -0.3400987 -0.3401005 0.33992395 0.33939493
-0.33972654 0.3396371 0.33953568 0.33933446 -0.3396767 -0.3407008 -0.3394955 -0.3396201
-0.3396272 -0.34028322 -0.18875264 0.24663869 -0.33935305 -0.3403565 0.33968887 0.339776
0.34039262 -0.34015644 -0.3398318 -0.3402189 -0.34001842 -0.33927548 0.33958185 0.34054253
-0.34019142 0.339313 -0.33966637 0.3398033
00000000: 2f28 503e bf11 ae3e 0f47 aebe f1fb ad3e
00000010: bc9e a43d 1db1 adbe 99cc ad3e af4e aebe
00000020: f4cc adbe f0f4 ad3e fd06 ae3e 3ee3 ad3e
00000030: a124 ae3e 0502 aebe ead4 ad3e 69b6 5d3e
00000040: 5cdd ad3e 5454 a4be e6dc adbe c90d 9c3e
00000050: 900c 81be 2d35 ae3e 1f6b aebe 1d2f aebe
00000060: 344b ae3e 9bf8 adbe 70f0 3dbe b4b9 ad3e
00000070: 6b21 aebe a721 aebe 830a ae3e 2cc5 ad3e
00000080: a3f0 adbe eae4 ad3e 9fd7 ad3e 3fbd ad3e
00000090: 1bea adbe 5670 aebe 5bd2 adbe b0e2 adbe
000000a0: 9ee3 adbe 9a39 aebe 5f48 41be da8e 7c3e
000000b0: afbf adbe 3543 aebe b3eb ad3e 1ff7 ad3e
000000c0: f147 ae3e fc28 aebe 6ffe adbe 2c31 aebe
000000d0: e516 aebe 84b5 adbe acdd ad3e 975b ae3e
000000e0: 922d aebe 6fba ad3e c0e8 adbe b3fa ad3e

weight f4 [1, 60]
12.24653 9.677945 -9.677947 9.677937 12.767713 -9.677946 9.677949 -9.677957
-9.677941 9.677954 9.677955 9.677944 9.677946 -9.677947 9.677945 12.184025
9.677948 -11.753947 -9.67794 12.134383 -12.135684 9.677944 -9.677954 -9.677947
9.677944 -9.677942 -12.150419 9.677946 -9.677947 -9.677942 9.677943 9.677944
-9.677955 9.677942 9.677946 9.677947 -9.677947 -9.677951 -9.677943 -9.677948
-9.677951 -9.677946 -12.156997 11.767744 -9.677944 -9.67796 9.677949 9.677949
9.67795 -9.677946 -9.677946 -9.677947 -9.677947 -9.677946 9.677949 9.677952
-9.677947 9.677951 -9.67795 9.677948
00000000: c9f1 4341 ddd8 1a41 dfd8 1ac1 d4d8 1a41
00000010: 8d48 4c41 ded8 1ac1 e1d8 1a41 e9d8 1ac1
00000020: d9d8 1ac1 e6d8 1a41 e7d8 1a41 dcd8 1a41
00000030: ded8 1a41 dfd8 1ac1 ddd8 1a41 c4f1 4241
00000040: e0d8 1a41 2b10 3cc1 d8d8 1ac1 6f26 4241
00000050: c32b 42c1 dcd8 1a41 e6d8 1ac1 dfd8 1ac1
00000060: dcd8 1a41 dad8 1ac1 1e68 42c1 ded8 1a41
00000070: dfd8 1ac1 dad8 1ac1 dbd8 1a41 dcd8 1a41
00000080: e7d8 1ac1 dad8 1a41 ded8 1a41 dfd8 1a41
00000090: dfd8 1ac1 e3d8 1ac1 dbd8 1ac1 e0d8 1ac1
000000a0: e3d8 1ac1 ded8 1ac1 0f83 42c1 ae48 3c41
000000b0: dcd8 1ac1 edd8 1ac1 e1d8 1a41 e1d8 1a41
000000c0: e2d8 1a41 ded8 1ac1 ded8 1ac1 dfd8 1ac1
000000d0: dfd8 1ac1 ded8 1ac1 e1d8 1a41 e4d8 1a41
000000e0: dfd8 1ac1 e3d8 1a41 e2d8 1ac1 e0d8 1a41
