Total_RCS/epoch_200_batch_255_lr_0_0019819414761434403_wd_0_1808248925678225/torch_model_1_ReLU.pth (torch, 86287 bytes, 7 tensors)

weight f4 [100, 3]
00000000: 63ed 8dbc c07d ab3e 1108 663e f670 e7bd
00000010: 9bb1 06bc 7810 59bf 5821 84bf a33b a23f
00000020: a8fa 353f 7e3d 06bf 7863 1c3d 4f6b 8c3e
00000030: c4f7 a9bf aa92 123f 3704 e73e a33c debb
00000040: 68c9 41bf 1afa a7bf f5be 8540 b1c2 1ebf
00000050: 365b 3bbf c4ab 6f3a 6bdd 753b c141 b63a
00000060: af62 52be 3a20 34be f7a3 acbd 6039 91be
00000070: e56f c13f 4440 c63c 44d6 03be 291f 93bf
00000080: e957 e0bf a5c2 0fbb ff1f 513f 56ce 9d3f
00000090: 235d c7be 1c78 5fbf 0b2e a1bf 90f1 a63d
000000a0: b496 22bf 4ef1 6e3f 12aa fdbe 470b a9be
000000b0: 75a3 ee3e aad9 92bf 1141 2a3f bb42 3a3f
000000c0: 1965 0f36 6a6b 752e fcfa eb34 2410 48be
000000d0: 1d90 9ebf a64d 073e 1b48 c83b 5697 9abf
000000e0: 2f43 c0bf 6805 3bbc 1090 ac3b ed83 9ebc
000000f0: 81a3 863d f302 ab3f 43d6 893f 876c b5bb
00000100: 066a a33c 90b3 6a3b 74c0 8cbe d195 2d3d
00000110: ea68 8ebe faa8 c0bf 4e54 2f3f a976 463f
00000120: ec7c 8d3d 6ed1 de3f c3a0 273d da24 4f3c
00000130: 2faf 06bd ccbe 893c 1e0f 3997 3073 1a12
00000140: c174 0000 69ad c83f fd54 0fbf 777d 7fbf
00000150: c120 81be baa1 a93e 8872 c2bc 4fc8 ca3b
00000160: 24d4 80bf 2976 b9bf cdf7 dd3b 2b9c 603a
00000170: f16d b9ba 2e23 59bf 9ee3 053f 6f65 403f
00000180: e5cb abbe 5ca4 63bf e88a 943c 165b f63c
00000190: e3d6 8bbf a7e2 46bf 5ac0 dbbd 0662 0cbf
000001a0: 1684 8ebf a201 88be defa e73e 346a a03e
000001b0: d89d c73f b144 babc afd3 4abf b081 973c
000001c0: 58ff a2be 3fb8 3cbf de91 e73f 246b e2bc
000001d0: d124 95bc 82ba 8140 1639 50be 8bd4 10be
000001e0: e7a1 c5be 3c00 03be 0988 02bf 9bd8 e61c
000001f0: 0f00 0080 00fd 2f25 f0e1 5e3d 65b2 ef3c
00000200: 18c9 513d 375f 07bf d482 b2bf 89e0 e4bd
00000210: a588 85be 2c23 acbe 10e2 683b b64d 85be
00000220: 95a5 c3bf 83ec e7be 03fd 62bd 3086 243e
00000230: 1007 403e 8f4d 4240 07ee a4be 30f5 9ebe
00000240: c123 b5bf 8fd6 4b3a b20e 6dbb 74e1 52bb
00000250: aaad e9bf bfe1 7abf 824d c2bb 91ab 35bf
00000260: 7e4b e2bf ab2f 3aba 0771 9f39 3c70 ae3a
00000270: 67fb ec99 fcaf 0080 a414 cc97 6546 6132
00000280: 79f7 0a31 40a6 5a30 ba74 8bbc abe7 ef3d
00000290: 61d8 62bf 70b4 d6bd 06d9 9abf 92b8 d6be
000002a0: 00ab afbe 0c42 1dbe 8481 383e 3e3a a5bd
000002b0: b203 a8be 1e41 8abb 15ea 85bf 17d9 03bf
000002c0: 548f b9bc 29f9 a5be 60ec be3e 2b7e 90bf
000002d0: 8969 04bf 8869 093d 1042 9d3c 4368 66be
000002e0: b11a 363f 3366 073f 6a29 9ebf e78c 263f
000002f0: 9af7 4e3f d8e2 f03f c731 a53e c06d da3e
00000300: d29b 18b8 1396 78b9 a6d2 143a 8894 a0be
00000310: 2fc6 fb3e 5286 8dbf dc5c 1f3d 37c8 c5be
00000320: 6853 2abf 8254 763f 4a45 a83f 5070 9f3d
00000330: 0a7b a2bd 564c 863e 0831 fc3d db4e 093c
00000340: 2610 67bf 4dc8 07c0 4884 083e 9f56 8dbf
00000350: 5b4a 3e3d e8ac f5bf 509b d03b ce42 f6b9
00000360: 2a12 99be 60b0 bebf e29e 2c3e 5eec f2be
00000370: 4d47 633f 8a6d 263f 25aa 58be 6a8a c1be
00000380: 9728 e8bc b72e b23c 4119 923c f836 cab9
00000390: 111e 06bf a8aa 0040 6326 fabc 77f7 70be
000003a0: 5d71 65be ba82 3f3d ec5b 8e3c b0ef 353c
000003b0: e385 73bb cf14 6cbd 50d1 97be 2d13 b4bf
000003c0: c0c6 f13f d23a 033d bab6 bebc 8370 22bc
000003d0: adcb 2ebf 5166 e7bf 929f dc3b 0276 e1bb
000003e0: 8013 6bbe 3732 71be 127d babe 2ef5 94bf
000003f0: fb8a a23e bb21 a6bf 2a41 ccbf 8d36 cc3f
-0.017325109 0.33494377 0.22464015 -0.113008425 -0.008221055 -0.84790754 -1.0322676 1.267445
0.71085596 -0.5243758 0.0381808 0.2742562 -1.3278737 0.5725504 0.45120403 -0.006782131
-0.75697947 -1.31232 4.17956 -0.62015826 -0.7318605 0.00091427215 0.0037516009 0.0013905094
-0.20545457 -0.17590418 -0.08429711 -0.28364086 1.5112273 0.024200566 -0.12874705 -1.1493884
-1.7526828 -0.0021936086 0.8168945 1.2328594 -0.38938245 -0.8729265 -1.2592176 0.08151543
-0.63511205 0.9333695 -0.49543816 -0.33016416 0.46609083 -1.1472676 0.66505533 0.7275807
2.1367507e-06 5.5801953e-11 4.3954776e-07 -0.19537407 -1.238773 0.13213214 0.0061121113 -1.2077434
-1.5020503 -0.011414863 0.005266197 -0.019350016 0.06574155 1.3360275 1.0768512 -0.005536619
0.019948017 0.0035812594 -0.2749058 0.042379204 -0.27814418 -1.5051568 0.68488014 0.7752481
0.069085926 1.7407663 0.0409248 0.012643063 -0.03288191 0.016814612 -5.9795805e-25 4.873581e-28
4.1883e-41 1.567792 -0.55989057 -0.9980082 -0.25220302 0.331312 -0.023736253 0.0061884294
-1.006474 -1.4489185 0.006773925 0.0008568193 -0.0014147145 -0.84819305 0.5230044 0.75154775
-0.33553997 -0.8892267 0.018132642 0.03007273 -1.0924953 -0.77689594 -0.107300475 -0.5483707
-1.113406 -0.26563746 0.45308584 0.31331027 1.5595045 -0.022737833 -0.79229254 0.018494457
-0.31835437 -0.7371864 1.809139 -0.02763898 -0.018206032 4.054017 -0.20334277 -0.14143579
-0.38600084 -0.12793058 -0.50988823 1.5276114e-21 -2.1e-44 1.526455e-16 0.05441469 0.02925987
0.05121717 -0.5287966 -1.3946176 -0.11175639 -0.26080814 -0.33620584 0.0035535134 -0.2603585
-1.5284907 -0.45297632 -0.055417072 0.16066813 0.18752694 3.0359838 -0.3221285 -0.31046438
-1.4151536 0.0007775807 -0.003617209 -0.0032177838 -1.8256123 -0.9800071 -0.00592965 -0.70964915
-1.7679288 -0.000710244 0.00030411055 0.0013308595 -2.4503369e-23 -6.3131e-41 -1.3188401e-24 1.311273e-08
2.0222315e-09 7.9544193e-10 -0.017023433 0.11714109 -0.8861142 -0.104836345 -1.209748 -0.4193769
-0.3431015 -0.15357226 0.18018156 -0.080677494 -0.3281532 -0.0042191884 -1.0462061 -0.5150313
-0.022651352 -0.32416657 0.37289715 -1.1288503 -0.51723534 0.033547908 0.01919654 -0.2250071
0.7113448 0.5289032 -1.2356389 0.6505875 0.8084656 1.8819227 0.3226454 0.42661858
-3.6384743e-05 -0.0002370703 0.0005677141 -0.3136332 0.4917464 -1.1056616 0.038906917 -0.38629314
-0.6653352 0.962227 1.3146145 0.07785094 -0.07933624 0.26230115 0.123140395 0.008380617
-0.90259016 -2.1216004 0.13331711 -1.104206 0.04645763 -1.9193392 0.006366171 -0.0004697055
-0.2989667 -1.4897575 0.16857484 -0.4744596 0.8878067 0.65010893 -0.21158655 -0.37800914
-0.028339667 0.021750791 0.017834308 -0.00038569397 -0.5238963 2.010416 -0.030535882 -0.235319
-0.22406526 0.04675553 0.017377816 0.011104509 -0.003715866 -0.057637032 -0.2965188 -1.4068352
1.8888779 0.032038517 -0.02328049 -0.00991452 -0.68279535 -1.80781 0.0067328895 -0.0068805227
-0.22956657 -0.23554312 -0.36423546 -1.1637323 0.3174666 -1.2979044 -1.5957386 1.5954148

bias f4 [100]
00000000: c9f1 353f 5695 1bbf b09d e4bd 73f7 cb3d
00000010: 1d36 033e 09db 81bf fff3 a13f c620 3cbc
00000020: 80bb e1bd dd46 f2bc f64a afbf ecc6 703f
00000030: 016c a6bf d93f 73bf 87a9 eebe d026 b93e
00000040: ae8e f4b6 df11 0bbf 0244 90bf 3094 44bd
00000050: 8196 5d3f a3da 07be 4b6d 0dbf e0d0 3abf
00000060: a49e 443e b24d 94bd b4ec 0598 5022 7d3f
00000070: 7e48 3b3f ff75 8dbf d244 c9bc ae72 4fbf
00000080: 6fa9 78bf debc b2bd a783 77bf 6cc4 3d3f
00000090: 1140 443f 737e 3ebe c8dc d33f 322f 1e3f
000000a0: 2e0a 62bf 6b95 5fab db9c 803d cc5f 7cbf
000000b0: 2937 513f 2a58 2dbf 9a31 433e 0195 83bf
000000c0: 5243 d1bf 1768 0bbf 9a73 9abf 44a7 d4bb
000000d0: f736 9da4 0121 2cb3 19cb 25bf dfdd abbe
000000e0: 82cd 543f 0d9f 863e d060 a0bf 7a3e 5bbf
000000f0: 898a 0c3e 989c 4fbe 2a9a ecbe 4338 75bf
00000100: 8675 acbc 822f 82bf e698 6cbe 2bdf 313f
00000110: fa76 093e 2ff8 8cbf 84e8 a0be 3e96 62bf
00000120: 6576 93bf 35de f13e 989b ee3e 5339 90bd
00000130: 8fd3 23bf 5d9e a03e 4880 62bd ef6e 79bf
00000140: 167f 64bf 9178 b1bf a14e c33e ee36 5dbf
00000150: 2743 2ebf 681c b83f ce6b f1bf 5ddd dbbe
00000160: fff5 4b3f 883a 86bf f77d 2bbf 0854 3ebc
00000170: f048 f0ae 9387 87bf 6eac debd bf9b b83e
00000180: a058 6f3f 1b1e abbd 4863 5b3f 0d00 edbf
0.7107206 -0.60774744 -0.11162889 0.099593066 0.12813611 -1.0144969 1.2652587 -0.011482423
-0.11022091 -0.029574806 -1.3694751 0.9405353 -1.300171 -0.950193 -0.46613714 0.36162424
-7.2883768e-06 -0.54324144 -1.1270754 -0.047992885 0.86557776 -0.13266997 -0.5524489 -0.7297497
0.19201142 -0.07241382 -1.7309352e-24 0.9888048 0.7315749 -1.1051635 -0.024568949 -0.8103436
-0.97133535 -0.0872743 -0.9668526 0.7412784 0.7666026 -0.18602924 1.6551752 0.61790764
-0.8829678 -7.9432874e-13 0.06279918 -0.98583674 0.8172479 -0.6771265 0.1906189 -1.0279847
-1.634867 -0.54455703 -1.2066529 -0.006489666 -6.818101e-17 -4.0076888e-08 -0.6476303 -0.33567712
0.8312608 0.2629322 -1.2529545 -0.85642207 0.13724722 -0.2027458 -0.46211368 -0.95788974
-0.021052133 -1.0170748 -0.23105201 0.6948115 0.13424292 -1.101324 -0.31427395 -0.885105
-1.1520506 0.47239843 0.46603084 -0.07042184 -0.6399469 0.31370822 -0.05529812 -0.97434896
-0.8925642 -1.3864919 0.38145927 -0.8641194 -0.68071216 1.4383669 -1.8861024 -0.42942324
0.79672235 -1.0486612 -0.6698908 -0.011616714 -1.0926893e-10 -1.0588249 -0.10872732 0.36056325
0.93494606 -0.083553515 0.85698366 -1.851564

weight f4 [100, 100]
00000000: ba32 6cac 1e00 0080 d9c8 a2a7 0e6a 0c80
00000010: e84f e4ab d003 c107 8629 d1ba 2500 0000
00000020: 0900 0000 3e90 cea7 8fe3 6a9d 79eb 51b3
00000030: 1300 0080 e316 e407 1700 0000 0fd5 82ac
00000040: da1f 47b7 9823 3d0e 09f6 e5a1 d279 03a8
00000050: e78c 84b3 7cda 77ad 2000 0080 47c2 aa90
00000060: 7c19 d2ab 2500 0080 89d4 3f27 f092 b9b7
00000070: b9c6 7cac 6b6c f698 8738 3795 1400 0080
00000080: 1500 0000 545b 78ad 0500 0080 c924 9cac
00000090: 8843 9cb6 390c 9b98 8d58 23b9 55f2 4eba
000000a0: 0800 0000 48b1 0738 0200 0080 0e00 0080
000000b0: 5f0c 97b0 839f 339d 3506 0000 8fef 7fb6
000000c0: 0100 0000 c8bd 56af a993 3396 44ba daac
000000d0: c5cc faab b5ce 81b0 0b00 0080 3820 a1a2
000000e0: 070d 44af af3d a59c 0800 0000 a662 0080
000000f0: d1f1 f392 dd15 4102 dbda 0911 71bd 1eae
00000100: fb26 4129 1300 0000 e529 ae10 0d46 93b1
00000110: 0500 0000 5f92 b8ab 1eff b7a3 81c1 67a9
00000120: 1a00 0000 cc3e 0dac c3f1 fba8 c9ab 51b4
00000130: ada8 4da3 f8f7 c599 d6d5 9cac 0a00 0080
00000140: 9c9c 83ae 84b4 8684 0e7d b8a4 0f00 0000
00000150: 601d 3eaf 7ab0 86b8 0800 0000 f5e3 a084
00000160: 2518 a9af 1b00 0000 2900 0080 5001 3739
00000170: 864e a737 2cb4 cf9d 4c1d 8f2b 875e 10a2
00000180: 728f 88b1 1079 3e2e 72a9 85af 0500 0080
00000190: 22f2 a13d 45aa 2cbc 0c2a d03e fbd6 9c3d
000001a0: cdfd 453e 5be3 efbd 9b78 613e 1dbe 3d3a
000001b0: 0ddf fbbc 69a5 0bbe 80e9 893e b06b 48bd
000001c0: 2281 7f3d e70a 7fbd e1fc 4c3d 602d 283e
000001d0: 0000 0080 8c77 e8be d037 e63d d021 62b7
000001e0: 60f3 cd3d 60e8 3439 1a8e fd3d 8645 89be
000001f0: 4ad4 91be 1f88 9db8 0f00 0080 28e0 d23e
00000200: 6a6d 723e 2588 03bd b7be 0580 2e96 a1be
00000210: 46fb a2be 0d00 8ebe e6da 86bd b5f3 1d3e
00000220: 2d46 12be 92d1 a43e 23cb 3abf 49bf 90be
00000230: 26b4 5f3e 1100 0000 0515 b0bc bdd6 f9be
00000240: 48b5 863e 17e2 16be 6ac8 0d3d 9288 c9bd
00000250: d12a 9d3e f833 e43e fdc5 2abe fda1 b0a8
00000260: 2800 0000 1200 0000 1ca3 c1bb 5494 c63d
00000270: be8a 5f3e 3d5a 883d 9e03 3dbe da34 9f3c
00000280: c0bd 333e 1b15 debd f3e0 11be 5a55 32bd
00000290: 85ca 470f dad9 dc3d 2272 433e 776d e7be
000002a0: 70fa b43d b057 cc3e bfc2 acbe d4fe b7bd
000002b0: 1a8a 04bf d43f 953d 5100 323e 8616 7cb5
000002c0: 7b66 a43d 7797 033e 9ef5 c539 451a 5d3d
000002d0: 5486 99bc dbad b1be e120 503e dec5 17bd
000002e0: 8a58 963e 0973 1fbf 50ca 863e 1d7f a6be
000002f0: d668 8a3e c3c1 ff3d 33a4 43be 8aea 3fb5
00000300: 3198 579b 3434 be3e fc9f aea7 a093 913d
00000310: e575 883e 0e90 afbb 92e2 7a3e 7140 823e
00000320: 59ab b33e a2ed bbbc 3eaa afbd acd9 c53d
00000330: 358c 7b3e df10 92bd a5fa 1c3e 9e32 be3c
00000340: 5d9c 983c ecf9 93bd 55dd 103e 2dc2 073e
00000350: 9a68 0a3e 41a6 3fbc 8d01 a8bd 4c5b 5e3d
00000360: 0700 0000 98e1 72be 1e7f 3e3b e5df f9b8
00000370: 4afa 323e 8b9c 77bc 05db 8c3d f910 0fbd
00000380: 1932 a2bd 1352 ad3b 1300 0000 bda2 db3e
00000390: 3fdb 043f 3a94 d0bd 8e2c 3e23 22c9 1fbd
000003a0: dc20 bdbe fc10 36be 085c 703d 6bff 8f3e
000003b0: 4566 ea3d 5bec 5a3e b38e 3cbc 2871 a4bd
000003c0: 74f8 293e 1c00 0080 3bf6 d43c a8bf 96be
000003d0: 5807 113f 0734 2a3c cb21 033e 8bb7 bdbd
000003e0: b7a0 433e 6c39 2b3e 3753 0cbe eddc 0034
000003f0: 1700 0000 6ae7 01b1 347d c93d 6d83 a23d
-3.3565776e-12 -4.2e-44 -4.518179e-15 -1.140071e-39 -1.6222553e-12 2.9041653e-34 -0.001595781 5.2e-44
1.3e-44 -5.7332873e-15 -3.1087287e-21 -4.8875766e-08 -2.7e-44 3.4319079e-34 3.2e-44 -3.7184765e-12
-1.186874e-05 2.3313186e-30 -1.5582769e-18 -7.298376e-15 -6.172359e-08 -1.4088838e-11 -4.5e-44 -6.735251e-29
-1.4928471e-12 -5.2e-44 2.662179e-15 -2.2122142e-05 -3.5921667e-12 -6.3698984e-24 -3.7001148e-26 -2.8e-44
3e-44 -1.4117447e-11 -7e-45 -4.4378706e-12 -4.657024e-06 -4.0078903e-24 -0.00015577879 -0.00078943867
1.1e-44 3.2351614e-05 -3e-45 -2e-44 -1.0990212e-09 -2.3772918e-21 2.227e-42 -3.8137402e-06
1e-45 -1.953061e-10 -1.4506098e-25 -6.2166123e-12 -1.7820403e-12 -9.444735e-10 -1.5e-44 -4.367325e-18
-1.7830724e-10 -1.0934729e-21 1.1e-44 -3.5388e-41 -1.5395068e-27 1.4185675e-37 1.0874834e-28 -3.60933e-11
4.288842e-14 2.7e-44 6.869545e-29 -4.286227e-09 7e-45 -1.3114612e-12 -1.9948946e-17 -5.146014e-14
3.6e-44 -2.0072164e-12 -2.7971445e-14 -1.9527137e-07 -1.1148791e-17 -2.0469476e-23 -4.4575272e-12 -1.4e-44
-5.98501e-11 -3.1669026e-36 -8.000913e-17 2.1e-44 -1.7290835e-10 -6.422489e-05 1.1e-44 -3.7825165e-36
-3.0758077e-10 3.8e-44 -5.7e-44 0.00017452729 1.9944517e-05 -5.4978737e-21 1.0168893e-12 -1.9565681e-18
-3.974429e-09 4.3308523e-11 -2.4312957e-10 -7e-45 0.07907511 -0.010538642 0.4065708 0.07658192
0.19335099 -0.117132865 0.22018664 0.0007238107 -0.030746007 -0.13637318 0.2693596 -0.048930824
0.06237901 -0.062266257 0.05004585 0.16423559 -0.0 -0.45403707 0.11241114 -1.3478522e-05
0.10056186 0.00017252704 0.12380619 -0.26810855 -0.28482276 -7.511698e-05 -2.1e-44 0.41186643
0.2367455 -0.03211226 -5.27593e-40 -0.3155989 -0.3183233 -0.27734414 -0.0658472 0.15424998
-0.14284582 0.3219114 -0.7296621 -0.2827094 0.21846065 2.4e-44 -0.021494398 -0.48796645
0.26310182 -0.14734684 0.034614958 -0.09840502 0.3069673 0.445709 -0.16677089 -1.9610176e-14
5.6e-44 2.5e-44 -0.0059093367 0.0969626 0.2183027 0.066578366 -0.18458411 0.019434381
0.17552853 -0.10843869 -0.14245968 -0.04353843 9.850461e-30 0.107837394 0.19086507 -0.45200703
0.0883683 0.3991065 -0.3374233 -0.089841515 -0.51773226 0.07287565 0.17382933 -9.391009e-07
0.08027359 0.12850748 0.00037757767 0.05398013 -0.01874081 -0.34702954 0.20325042 -0.037053935
0.29364425 -0.62284905 0.26326227 -0.32518855 0.27033108 0.12488129 -0.19105606 -7.1494344e-07
-1.7833559e-22 0.37149203 -4.8468157e-15 0.07108235 0.26652446 -0.005357749 0.24500492 0.2543979
0.35091665 -0.02294046 -0.08577393 0.09660658 0.24565203 -0.07132124 0.15329988 0.023217496
0.018629247 -0.07225403 0.14146931 0.13257666 0.13516465 -0.011697353 -0.08203421 0.054286286
1e-44 -0.2371887 0.0029067467 -0.00011914949 0.1747829 -0.015113006 0.06877712 -0.034928296
-0.079197116 0.005289325 2.7e-44 0.42897597 0.51897043 -0.10184522 1.03093555e-17 -0.039010175
-0.36939132 -0.17779917 0.058681518 0.28124556 0.114452876 0.21379225 -0.0115086315 -0.08029395
0.16598684 -3.9e-44 0.025996318 -0.29443097 0.5665183 0.010388381 0.1280586 -0.09263524
0.19104277 0.16721123 -0.13703619 1.2001301e-07 3.2e-44 -1.8903514e-09 0.09838334 0.07935224

bias f4 [100]
00000000: a0a4 00b3 64ec aa3e 4eb3 2e3f 8504 663e
00000010: 8e34 01af ba18 46bb 1bb6 89bd 9b90 16ab
00000020: 7641 af3e f6a7 9aae ba98 0fb5 0d1f 34ba
00000030: 0596 10b0 fb70 44b7 0c1c 20be 8a13 72ba
00000040: 946c 29b9 25df 813e 8c65 bd3e 2a1d b03e
00000050: 341f 94ab 5eda 3a3f 9854 fdba d498 0cb2
00000060: f624 ee3d 784a 09ba 7f66 ceb1 3c70 35bc
00000070: ec22 0f3e 395d 5dba 8592 a4b7 5e3c 7caf
00000080: 6cbf 71bd 61c0 d93e 065d 76b0 3dc8 dfb6
00000090: a284 22bc f40d 69b4 0110 4fbc f285 fabe
000000a0: 1950 94b7 0f6f 54bd 5be9 2a3f 0dcb f93e
000000b0: a072 1e3e f2e2 85ad d8a1 0db3 0a76 703e
000000c0: 69a9 31b7 9bff 2ab3 9077 67b2 d402 813d
000000d0: 7904 3fb9 956d fe35 441f b53e 3c16 5ab8
000000e0: efdb 873e 6203 6b3e 9475 8db6 d56c 6d3e
000000f0: d624 3cb2 e4a4 0dba 4a6a 55b3 3218 91af
00000100: ca7c 05b5 d4fe 123e 6249 b1b7 2bc9 d8bc
00000110: e19a 1fb0 9073 aaba 0a36 4a3e 2bf7 b93e
00000120: 013a 013f c550 1c3e 4097 d03e 8e2c 55b1
00000130: 237a cd3d 8e37 963e 8536 99bb 1ade dbbe
00000140: 8ee0 86b5 32c8 a6ba 9c0d c9b0 0972 bbb2
00000150: 50fb 5c3e 8b7f abb2 33d1 55bb 6d37 c4b1
00000160: c0c1 39bc eb39 f5b6 e30a cabd 8e46 8f3e
00000170: a0b6 a33e 46d6 5eba 3b57 94b6 bd55 96bc
00000180: 25ad 6d3e a9ea 5db1 6ddb 01ba cbd6 b7bd
-2.9952048e-08 0.33383477 0.6824235 0.22462662 -1.1751153e-10 -0.003022714 -0.06724187 -5.3491386e-13
0.3422963 -7.032945e-11 -5.34939e-07 -0.0006871082 -5.2600085e-10 -1.1708816e-05 -0.15635699 -0.0009234479
-0.00016157544 0.25365558 0.36991537 0.3439725 -1.0524693e-12 0.7298945 -0.0019327579 -8.183822e-09
0.116281435 -0.0005237232 -6.0070415e-09 -0.011074122 0.13978165 -0.0008444372 -1.9618552e-05 -2.2940713e-10
-0.059020445 0.42529586 -8.9626473e-10 -6.6692287e-06 -0.009919317 -2.1704892e-07 -0.012638093 -0.48930317
-1.7680273e-05 -0.051863726 0.6676232 0.48787728 0.15473413 -1.5221133e-11 -3.2976317e-08 0.23482528
-1.0589466e-05 -3.981368e-08 -1.3473155e-08 0.062993675 -0.00018216846 1.8956367e-06 0.35375416 -5.1995958e-05
0.26534984 0.22950509 -4.2158154e-06 0.23186047 -1.0951416e-08 -0.0005403294 -4.9689596e-08 -2.6392538e-10
-4.9727953e-07 0.14355022 -2.1134216e-05 -0.026463112 -5.806396e-10 -0.0013004411 0.19747177 0.36321387
0.5047913 0.15265186 0.40740395 -3.1020906e-09 0.10033061 0.2933926 -0.0046756887 -0.42942888
-1.0049132e-06 -0.0012724458 -1.4628543e-09 -2.1821522e-08 0.21580243 -1.996502e-08 -0.0032625913 -5.710652e-09
-0.0113376975 -7.3083115e-06 -0.09865358 0.27983516 0.3197527 -0.0008500557 -4.4208987e-06 -0.01835143
0.2321058 -3.2293122e-09 -0.00049536565 -0.089765154

weight f4 [100, 100]
00000000: bbd1 9aaa c39e c537 4dba a337 e4c7 0b38
00000010: 1d00 0000 2385 4229 05b7 c1b6 9100 0080
00000020: e344 dfb2 834f f135 6401 0000 f8b6 79b8
00000030: cc55 e62e 3e03 aeb3 fd55 7438 cfcc cbb8
00000040: 5097 29b9 25bb 6736 4789 9e37 03b0 0b38
00000050: 492d 7f37 bab2 a937 a090 c2ac 1891 6cb4
00000060: c9f1 4738 41d6 08ae 97b7 f7ac 32c0 80b2
00000070: 2bbf 9338 8dbd 0bb2 1636 f8b3 45f8 8da9
00000080: 3bbb 0335 da1b 0038 ba18 3528 e7af 9c35
00000090: 4552 88ac 1000 0080 b996 cb34 c2ff a538
000000a0: 358b a723 44cf 02b2 c8b5 a437 c309 9737
000000b0: 5cfd 2d36 8777 a9b9 5754 a537 5c6a c1b5
000000c0: fe46 25b2 2d6a 0000 bbf7 1eaf 5f4a b035
000000d0: e469 71b9 3a1d e131 86f5 2937 14f4 a4b5
000000e0: 78d0 1136 50f3 aa36 4101 0000 bed9 3836
000000f0: 1252 45b8 1667 0280 feee 39b1 2900 0080
00000100: 1e5c 4db8 0154 2238 41d1 6436 401a 7938
00000110: cdc0 63b6 ad00 0080 b040 fcb4 8378 3638
00000120: b90a ba36 5418 ae36 f6fc 5d38 0773 1aae
00000130: 1b9e 7238 cf0b ea36 0a1c 7eb9 e182 9c38
00000140: 3d12 fdae a2ca b3ac 38a6 72b9 64f2 802e
00000150: 0bed 3037 5a00 0000 585d adb6 3653 9222
00000160: 32f0 ba2d 7e60 9632 4c62 9b38 c10f f837
00000170: 4320 4b36 1d66 f3b1 f3c8 35ac a500 0000
00000180: 5bbb 6038 e69f dd27 5b5c 4f30 f3c6 63b8
00000190: 0a88 1426 547b 653e 8c5a 713e 1a16 f53d
000001a0: 484e f39f c06d 3abb 284b f93c 4817 2e29
000001b0: 7153 c53d bfdb f32d e131 9c33 a7fe ea37
000001c0: 95f6 2b27 fa45 dbad 5ca3 ffbc 34d4 5cad
000001d0: 5e02 aa9b 1418 a6bd 6e8f 6f3e dce1 283e
000001e0: 1646 2b2b d258 883e 81f0 49ba fa2c 2daa
000001f0: 7c32 733e 6b9e be33 2f46 9dab a651 4ebb
00000200: 4fc3 b03e 6d5b f1b6 31b4 7a27 0a11 14a9
00000210: 8336 2c3d 03c4 403e 7722 1c9f cf3e cf31
00000220: b47f d8b7 b81b 8aa9 4025 82bb 7be0 8fbd
00000230: 02bb 9235 5c66 fbbb 6ab5 643e 5f31 103e
00000240: 1b27 d53d d4ec a42a 68ac a330 734c f13d
00000250: 0fc7 06a3 82ae 190b 2351 94a7 bc09 d63c
00000260: 9419 0f33 2769 a134 5f5c 44be 810f 3931
00000270: d40c e83d f0b3 883c 748b 5d2f 3f72 213e
00000280: 282c 42aa 765f 6838 8cac cb2b de09 19aa
00000290: dcd4 4b2e 4ebd 273e 938a 6eb3 d62f a7ba
000002a0: 1500 0000 c659 a2b7 1837 d63d cb58 c83e
000002b0: 9f59 843d c27c a83d 8560 6b3e be92 0728
000002c0: 1517 433e 4d1e 023e 87a7 1c38 b67f 50be
000002d0: 4ffe 5dad 1c8b 0bb8 cca7 85ab aac2 dcaf
000002e0: ebdd c53c 0100 0000 ac6e 36ba bfe6 06a8
000002f0: de69 3cbb e5f6 ce32 e0aa 0e3e c8d9 bc3d
00000300: afed 813d f65c 68b6 c1a7 0db1 b918 ccba
00000310: 0408 103e 75ac 0829 b20a d434 4db0 45be
00000320: 686a 9327 7545 723e c600 793e 50ca 013e
00000330: 917b 44a2 48df 43bb 36a7 ff3c bea6 da28
00000340: 47ad d03d 1153 0d2f d04f c033 ba4a 3538
00000350: aa33 bf27 5ba3 b1ae 2486 07bd bc10 1eaf
00000360: cd3b 721b f7df aebd b733 7d3e 7b59 323e
00000370: d0ca 78ab 7b58 8f3e 5c63 5cba 4713 1aaa
00000380: 85c1 803e bf90 4d34 a317 56ac 5e17 31bb
00000390: e246 ba3e fb6d 45b7 355d 4928 7653 e1a8
000003a0: 2357 313d e03a 4c3e 5f73 bea0 4a7f 8232
000003b0: 258b 26b8 3437 baaa 2089 8fbb 025d 99bd
000003c0: df98 3f35 fc66 0cbc d76d 6c3e fc6f 1a3e
000003d0: 87d9 e13d 1e2f 692a 7003 c530 080e 003e
000003e0: 66a5 0aa5 f38d 0b0f 2c1e 5ea7 c1f3 e53c
000003f0: dd58 8b33 15f2 2633 9608 4fbe 43de ec31
-2.7501425e-13 2.355816e-05 1.9517867e-05 3.3326345e-05 4e-44 4.319213e-14 -5.7731545e-06 -2.03e-43
-2.5991943e-08 1.797904e-06 4.99e-43 -5.953663e-05 1.047443e-10 -8.103096e-08 5.8254216e-05 -9.717943e-05
-0.00016173464 3.4530615e-06 1.8898992e-05 3.3304106e-05 1.5209728e-05 2.0229596e-05 -5.5298682e-12 -2.2031998e-07
4.7670477e-05 -3.1113116e-11 -7.040545e-12 -1.4988562e-08 7.045114e-05 -8.133964e-09 -1.1558238e-07 -6.304726e-14
4.907376e-07 3.0543517e-05 1.005288e-14 1.16741e-06 -3.8744862e-12 -2.2e-44 3.7921362e-07 7.915452e-05
1.8165133e-17 -7.614123e-09 1.9634972e-05 1.8005148e-05 2.5926483e-06 -0.00032323247 1.9708807e-05 -1.4410575e-06
-9.620406e-09 3.8089e-41 -1.4458028e-10 1.3134667e-06 -0.00023022998 6.5516845e-09 1.013035e-05 -1.2289988e-06
2.1728029e-06 5.09472e-06 4.5e-43 2.754488e-06 -4.7044894e-05 -2.20651e-40 -2.7056895e-09 -5.7e-44
-4.89616e-05 3.8702045e-05 3.409645e-06 5.9390673e-05 -3.393786e-06 -2.42e-43 -4.6985724e-07 4.3504417e-05
5.5444802e-06 5.1884363e-06 5.2926094e-05 -3.511771e-11 5.7844543e-05 6.975118e-06 -0.00024233773 7.463038e-05
-1.1508348e-10 -5.1099827e-12 -0.0002314084 5.863823e-11 1.0545608e-05 1.26e-43 -5.1666684e-06 3.9661482e-18
2.125242e-11 1.7506178e-08 7.409285e-05 2.957124e-05 3.0268136e-06 -7.0838397e-09 -2.5833196e-12 2.31e-43
5.358025e-05 6.1513184e-15 7.5437406e-10 -5.4306303e-05 5.153218e-16 0.22410327 0.23569697 0.11967106
-1.0304401e-19 -0.0028446764 0.030431345 3.8655955e-14 0.09635056 2.7723488e-11 7.273389e-08 2.8013555e-05
2.386469e-15 -2.4928493e-11 -0.031205826 -1.2552671e-11 -2.812567e-22 -0.08110061 0.23394558 0.16492409
6.084867e-13 0.26630265 -0.00077033794 -1.5381091e-13 0.23749727 8.8763805e-08 -1.1175001e-12 -0.0031481772
0.3452401 -7.193003e-06 3.4792151e-15 -3.287738e-14 0.042044174 0.18824773 -3.3062794e-20 6.0316334e-09
-2.5808673e-05 -6.1332395e-14 -0.0039717257 -0.07025238 1.0932274e-06 -0.0076721143 0.22334829 0.14081334
0.104078494 2.9296585e-13 1.1908812e-09 0.1178216 -7.306307e-18 2.9598013e-32 -4.116622e-15 0.026127689
3.3318045e-08 3.0065095e-07 -0.19175862 2.6929856e-09 0.11330572 0.016687363 2.0149377e-10 0.15766238
-1.7245981e-13 5.5402015e-05 1.4471909e-12 -1.3592553e-13 4.6345913e-11 0.16380808 -5.5539726e-08 -0.0012755345
3e-44 -1.9353709e-05 0.10459727 0.39130244 0.06462406 0.08226921 0.22986038 7.525825e-15
0.19051774 0.12706871 3.734932e-05 -0.20361218 -1.2618863e-11 -3.326974e-05 -9.496791e-13 -4.0156084e-10
0.02415367 1e-45 -0.00069592404 -7.488529e-15 -0.0028749625 2.4093831e-08 0.13932371 0.09221226
0.06344163 -3.4624804e-06 -2.0613558e-09 -0.0015571333 0.14065558 3.034765e-14 3.949586e-07 -0.19305535
4.091606e-15 0.23659308 0.24316701 0.12674832 -2.6628369e-18 -0.0029887725 0.031207662 2.4275175e-14
0.101893 1.2853386e-10 8.9552145e-08 4.3223357e-05 5.3069164e-15 -8.078046e-11 -0.03308691 -1.4375962e-10
2.0037093e-22 -0.08538812 0.24726759 0.17416947 -8.838876e-13 0.27997193 -0.00084071397 -1.3684636e-13
0.25147644 1.9144771e-07 -3.042435e-12 -0.0027021985 0.36382204 -1.1767722e-05 1.11779525e-14 -2.5016213e-14
0.04329599 0.19944334 -3.2263598e-19 1.5191876e-08 -3.9707073e-05 -3.3078542e-13 -0.0043803602 -0.07488443
7.13755e-07 -0.008569475 0.23088776 0.15081781 0.11027818 2.0710904e-13 1.4334613e-09 0.12505352
-1.2025631e-16 6.8805675e-30 -3.0825045e-15 0.028070332 6.488856e-08 3.887006e-08 -0.20218119 6.893772e-09

bias f4 [100]
00000000: 8ba0 b437 0afa b03d d166 bb3d afc7 23b0
00000010: d233 d73d 67e1 f8b3 e909 3329 36d2 c43d
00000020: 55a6 cd3d 1b1d 6032 32dd 86b7 ebf7 9d2e
00000030: f603 f9bd d95e cc3d d7a2 bf3d 2672 91bd
00000040: 217b d23d 28b9 ddb9 842a cfb1 bd22 efbb
00000050: 7754 bf3d 5b18 4536 014e c8bc ccb0 59ae
00000060: a875 5637 f55d be3d 80ca b53d 59a6 91a1
00000070: b8c5 c93d 5393 c43d 6216 033e 38dc e82c
00000080: 6c7c b73d 6a98 c63d 5425 07b8 c119 d43d
00000090: d722 d43d f06b e5b2 571e 6cbd 8ea5 412d
000000a0: 684d bf3d 077e 262e e486 e03d 533a ba3d
000000b0: acdc ca3d 22be ce3d 31fd ca3d 3374 c03d
000000c0: 7478 a2b6 5473 af33 0fda c23d 7d1f 51b7
000000d0: 1a30 04ab 3f9d c63d 37ef f535 1d35 6ab9
000000e0: 1764 6238 5d22 eeb7 37a0 4ab8 2987 c53d
000000f0: ff23 c53d 9c68 1b12 519c a2bd 576e ba3d
00000100: c5ca bd3d 0853 b63d 908c b43d f2d5 11b6
00000110: 46d1 f8bb 5b0d 4f3a 0062 c7a4 291a 173e
00000120: de97 dc3d b9e7 6535 09ae 57bd cd1e b63d
00000130: 153e 12b2 f38a 9fb6 d6e6 673a 5155 9db3
00000140: 4972 d332 db11 802f ebb5 b83d bda0 64be
00000150: cd74 d03d 8267 2639 97cd cd3d 1c58 ba3d
00000160: fd2d 55a8 408f 8cb1 cea4 d73d 689c 4bba
00000170: 5141 cc3d b4ec 93b4 a412 20be edc3 cf3d
00000180: 7005 62a8 a21c e43d 750c c83d 497b d13d
2.153243e-05 0.08641441 0.0915047 -5.958282e-10 0.10507931 -1.15894004e-07 3.975458e-14 0.09610407
0.10041491 1.3045134e-08 -1.6077047e-05 7.1835725e-11 -0.121589586 0.09979028 0.09357231 -0.0710185
0.10277391 -0.00042290357 -6.0293264e-09 -0.0072978423 0.09342282 2.9369464e-06 -0.024451258 -4.9497115e-11
1.2782788e-05 0.09295265 0.088765144 -9.869614e-19 0.09852165 0.09598412 0.12801507 6.6182858e-12
0.089592785 0.096970394 -3.2221273e-05 0.10356475 0.10358208 -2.6708193e-08 -0.05764612 1.100754e-11
0.09340936 3.7855965e-11 0.10963228 0.09093156 0.09905371 0.10094859 0.09911574 0.09397163
-4.841999e-06 8.1700506e-08 0.095142476 -1.2464702e-05 -4.6962575e-13 0.09697961 1.8323543e-06 -0.00022335765
5.3975815e-05 -2.8387813e-05 -4.8309765e-05 0.096449204 0.09626006 4.9038317e-28 -0.07939971 0.09103077
0.09267191 0.08902556 0.08815873 -2.1731216e-06 -0.0075933067 0.00078984135 -8.646851e-17 0.14756073
0.10771154 8.564635e-07 -0.052656207 0.088925935 -8.512434e-09 -4.754745e-06 0.0008846348 -7.326401e-08
2.4615604e-08 2.3295751e-10 0.09019073 -0.22326942 0.10178528 0.00015869553 0.10048979 0.09098837
-1.1833847e-14 -4.090822e-09 0.10529481 -0.0007767142 0.099733956 -2.7553108e-07 -0.15632111 0.10144792
-1.2546699e-14 0.11138274 0.09768001 0.10228593

weight f4 [1, 100]
00000000: 2e9c 5638 abbb 633f 7ff8 703f c9c3 9fbb
00000010: 401e 8a3f abd2 0eb8 23a8 29bb c100 7d3f
00000020: 8c07 843f 9424 e637 b2ba 613a 842c 44bc
00000030: 01d0 e2c0 4a34 833f 3773 763f 6a94 b7bf
00000040: 8619 873f 6fda 3e3a cea1 65b8 3464 493c
00000050: 83ee 753f e2cc ee37 9aa8 6bbf a37c 37bb
00000060: 1b16 1eba cfd6 743f 31ec 693f b5db 713b
00000070: 8195 813f cbc1 7c3f ee3f a73f 0a12 54b8
00000080: a1f4 6b3f a042 7f3f 482e 21bb 1b21 883f
00000090: 2e1c 883f 5936 ad39 b2f0 d1c0 22d6 113b
000000a0: 46e3 753f a854 a638 b9d4 8f3f d775 6f3f
000000b0: 8858 823f 38cb 843f 1566 823f 705b 773f
000000c0: 07b4 8d39 654f 28b8 df79 7a3f 41df 563a
000000d0: 8703 663b 382a 7f3f b31a 77b7 3f26 b0b6
000000e0: cfe8 01bd d17d af3a 8ae8 d4b9 1ce8 7d3f
000000f0: 3767 7d3f 4be6 9e3b fd47 a5c0 0ccc 6f3f
00000100: f107 743f 7680 6a3f b637 683f 8fb1 9b3c
00000110: f7c3 2441 5a48 77bb a878 08bb 5a26 c03f
00000120: 717a 8d3f 77a4 a133 43a9 96bf a33f 6a3f
00000130: 0794 ea34 5635 96b8 124d e73b e147 a7bb
00000140: 82ff 7aba dd1f a3b2 cc92 6d3f 6a2b fcc0
00000150: c7ec 853f 64fb 95ba 6d12 843f d4b4 6f3f
00000160: 3718 eebb 56c4 c23c da50 8a3f 14c8 e53a
00000170: 7f27 833f 6a90 ff38 4386 86c0 4784 853f
00000180: e940 c43a e7f4 913f 5f89 803f c394 863f
5.116703e-05 0.88958234 0.94129175 -0.0048756343 1.0790482 -3.4051638e-05 -0.002588757 0.98829275
1.0314803 2.743517e-05 0.00086108886 -0.011973504 -7.087891 1.0250332 0.96269554 -1.4342167
1.0554664 0.0007280474 -5.4748547e-05 0.012291957 0.96067065 2.8467217e-05 -0.9205414 -0.0027997873
-0.00060305157 0.9564027 0.91376024 0.0036904637 1.012375 0.98733205 1.3066385 -5.056154e-05
0.9217015 0.99711037 -0.0024594236 1.0635103 1.06336 0.00033037624 -6.5606318 0.0022252877
0.96049917 7.931265e-05 1.1236793 0.93539184 1.0183268 1.0374517 1.0187403 0.966239
0.00027027747 -4.0128263e-05 0.9784221 0.00081967196 0.0035097317 0.99673796 -1.4728564e-05 -5.249661e-06
-0.031716164 0.0013388937 -0.00040609046 0.99182296 0.9898562 0.0048492304 -5.1650376 0.93670726
0.9532462 0.91602266 0.9071001 0.019005565 10.297843 -0.0037732334 -0.002082387 1.5011704
1.1052991 7.527063e-08 -1.1770405 0.9150335 4.36936e-07 -7.162492e-05 0.007058748 -0.005105004
-0.0009574817 -1.8990187e-08 0.9280212 -7.8802996 1.0462884 -0.0011442718 1.0318123 0.93635297
-0.00726607 0.02377526 1.0805924 0.0017530941 1.0246428 0.00012186247 -4.2038894 1.0430993
0.0014972958 1.1402863 1.0041922 1.0514148
