Total_RCS/epoch_200_batch_255_lr_0_0019819414761434403_wd_0_1808248925678225/torch_model_1_Tanh.pth (torch, 86287 bytes, 7 tensors)

weight f4 [100, 3]
1.3332937 0.1753906 -0.18312362 1.1568472 0.14135708 -0.022958318 -1.6252968 0.6754796
0.74912024 0.113768145 -0.9616369 -1.0517673 -0.2503451 -0.80449444 -0.85064054 -0.028661197
-1.293592 -0.40378764 -1.0412654 0.21596763 0.13540548 -0.013755325 -0.295817 -1.6193637
2.7198513 -0.009507899 0.053247415 -0.11783252 -0.8186854 -0.64524 -0.03995663 1.2375321
0.4659084 0.049939748 1.0971814 1.1056832 0.21345715 0.98561937 0.92713714 -0.5688505
1.0526989 0.11344878 -0.01974429 -1.005393 -1.2901028 0.05862511 1.2030426 0.36171412
0.23213577 1.0838399 0.7436511 -0.31689247 0.49850503 -0.02823611 0.091681615 -0.83754915
-1.634486 -0.5544645 0.48191413 -0.29512942 0.046125375 1.2608067 0.41407746 1.3061649
0.54152536 -0.652208 1.5303712 -0.18222126 -0.47685724 -0.1950595 -0.8888393 -0.853634
-0.15629856 -0.7887009 -0.36419535 0.7588383 0.734536 -0.09525259 -0.16228013 -0.96125084
-0.7299488 0.042976316 0.88983136 0.7057003 -0.017376132 -1.0859317 -1.2223016 0.020160133
-0.26482567 0.05109412 -0.30125976 0.33464193 -0.9541303 0.52359456 0.93473953 0.09994034
-0.36600643 0.8760848 0.40954256 0.93822795 0.59901917 -0.3507788 0.06432077 -1.1144887
-0.9999224 -1.1984284 -0.22230905 0.10769309 -2.0406895 -0.19136278 0.08864972 -0.055872265
-0.37636566 0.034290504 0.2563405 -0.8663076 -1.4008511 -0.9627766 -0.4200477 0.07949286
0.3877995 -1.2061183 -0.016825082 -0.37741897 -0.37193224 -0.39920098 -0.028548922 0.29629257
-0.04926131 0.114076726 0.1603925 1.2776555 0.6648439 0.73301494 0.12607662 -0.27493894
-0.4753854 0.04297655 -0.295613 0.8033502 1.0549725 -0.9337079 -0.96047676 -0.10251627
-0.22953892 -0.5921633 -1.1440418 -0.20589659 1.1672449 0.061142374 0.14086546 -0.85438657
-1.6520096 0.8583181 0.57069033 0.17391652 -0.33414245 -0.7178882 -0.07635008 0.2537957
0.70458275 0.5705533 0.10364932 1.1687253 -0.23251139 0.74166435 0.8128039 -0.072871156
1.1296523 0.24716659 0.0058284816 -0.16864818 -0.7397417 -1.0848318 0.50406724 0.9723309
-0.13270606 -0.2883482 -0.12888156 -0.28243178 1.6691508 -0.6503769 -0.121022165 0.0061038807
-0.16026248 0.037973583 -0.24486437 0.026011027 1.6011202 0.077109896 -1.1905077 -0.10821819
-0.069183186 -1.1645943 1.9288195 -0.8344038 0.81797904 0.005095822 1.4726341 0.12077557
-0.12923954 0.40375596 0.7074466 0.57496756 -0.060155064 -1.7002716 1.6647177 -0.6557499
-0.65019315 0.10811054 -0.30341768 0.031360082 -0.2274591 0.016872775 -0.29477867 0.047384508
1.1209337 -0.92311275 0.3497666 -0.7686932 -0.6655455 0.1804446 -0.05810489 1.1434593
1.2656515 0.5602257 -0.84830624 -0.07180399 0.08081823 -1.1593809 -1.1917021 0.019285394
-0.95131797 -1.3369313 0.45292738 0.072694145 0.42694902 0.19582014 0.4491437 -0.036975294
0.007841658 -0.17699298 0.04197334 -0.36755916 -0.15266107 -0.36119497 -0.35349956 -0.18196009
-0.32333636 -0.28557765 -0.47578177 0.04549078 0.7644289 0.818139 -0.07325729 0.042551745
00000000: 5ea9 aa3f 9899 333e c284 3bbe 9213 943f
00000010: e9bf 103e 1513 bcbc ba09 d0bf 3bec 2c3f
00000020: 58c6 3f3f 46ff e83d d62d 76bf 50a0 86bf
00000030: 3c2d 80be 59f3 4dbf 94c3 59bf e3ca eabc
00000040: 6c94 a5bf 41bd cebe 2f48 85bf 9e26 5d3e
00000050: bca7 0a3e 045e 61bc 5375 97be 4f47 cfbf
00000060: 0b12 2e40 05c7 1bbc f619 5a3d 2d52 f1bd
00000070: 5e95 51bf 732e 25bf 90a9 23bd 7467 9e3f
00000080: 8c8b ee3e 9f8d 4c3d 7170 8c3f 0787 8d3f
00000090: 8394 5a3e 8d51 7c3f dc58 6d3f 30a0 11bf
000000a0: d6be 863f d557 e83d c7be a1bc b8b0 80bf
000000b0: 1722 a5bf e220 703d 4dfd 993f 9832 b93e
000000c0: 00b5 6d3e 44bb 8a3f eb5f 3e3f bb3f a2be
000000d0: 0d3c ff3e 6a4f e7bc 92c3 bb3d 9f69 56bf
000000e0: d636 d1bf 63f1 0dbf 73bd f63e 341b 97be
000000f0: f6ed 3c3d 1d62 a13f f601 d43e 6930 a73f
00000100: 68a1 0a3f 1af7 26bf 34e3 c33f 3698 3abe
00000110: a226 f4be adbd 47be f98a 63bf c287 5abf
00000120: bb0c 20be 4de8 49bf d077 babe 3a43 423f
00000130: 8d0a 3c3f ca13 c3bd c32c 26be 8914 76bf
00000140: eddd 3abf ef07 303d fdcb 633f c6a8 343f
00000150: 6458 8ebc cfff 8abf 6174 9cbf dd26 a53c
00000160: 3b97 87be 1148 513d b83e 9abe 3056 ab3e
00000170: e241 74bf 4b0a 063f 174b 6f3f 85ad cc3d
00000180: 3265 bbbe 1847 603f 90af d13e b52f 703f
00000190: 5259 193f 4799 b3be 9cba 833d 91a7 8ebf
000001a0: eafa 7fbf 1a66 99bf fca4 63be 328e dc3d
000001b0: a89a 02c0 9bf4 43be fc8d b53d 51da 64bd
000001c0: 00b3 c0be 3374 0c3d 103f 833e 56c6 5dbf
000001d0: 174f b3bf 8778 76bf 7e10 d7be 27cd a23d
000001e0: a88d c63e 1662 9abf c1d4 89bc 0f3d c1be
000001f0: e76d bebe 1264 ccbe 6edf e9bc a9b3 973e
00000200: 3ac6 49bd 0fa1 e93d ee3d 243e 378a a33f
00000210: 3633 2a3f dea6 3b3f 3b1a 013e ccc4 8cbe
00000220: b765 f3be 2e08 303d 965a 97be 5ca8 4d3f
00000230: 5709 873f 7b07 6fbf cee1 75bf 0df4 d1bd
00000240: 400c 6bbe 0498 17bf f66f 92bf 8ed6 52be
00000250: 4868 953f 6d70 7a3d 093f 103e 14b9 5abf
00000260: 0d75 d3bf bcba 5b3f c318 123f 2c17 323e
00000270: b814 abbe 85c7 37bf 6e5d 9cbd 83f1 813e
00000280: 895f 343f c80f 123f 1846 d43d ca98 953f
00000290: 7717 6ebe b7dd 3d3f eb13 503f 793d 95bd
000002a0: 7298 903f 3d19 7d3e d9fc be3b 1cb2 2cbe
000002b0: b65f 3dbf c5db 8abf 8d0a 013f aeea 783f
000002c0: 19e4 07be 60a2 93be 87f9 03be e69a 90be
000002d0: bca6 d53f 1a7f 26bf 78da f7bd 1003 c83b
000002e0: d91b 24be 308a 1b3d babd 7abe 1415 d53c
000002f0: 82f1 cc3f cbeb 9d3d 8e62 98bf 80a1 ddbd
00000300: eaaf 8dbd 6d11 95bf 8fe3 f63f 7d9b 55bf
00000310: 1367 513f dafa a63b 467f bc3f 2f59 f73d
00000320: 5f57 04be 1ab9 ce3e 381b 353f 1331 133f
00000330: 2865 76bd 80a2 d9bf 7815 d53f 3adf 27bf
00000340: 0f73 26bf 0f69 dd3d 9059 9bbe 6e73 003d
00000350: 0aeb 68be c638 8a3c 3bed 96be 4216 423d
00000360: c17a 8f3f 1e51 6cbf 9c14 b33e 14c9 44bf
00000370: 3161 2abf 78c6 383e 65ff 6dbd e05c 923f
00000380: de00 a23f f46a 0f3f 992a 59bf f80d 93bd
00000390: 0784 a53d 9866 94bf b289 98bf 67fc 9d3c
000003a0: 9389 73bf 9120 abbf 19e6 e73e abe0 943d
000003b0: 1099 da3e 1385 483e 2af6 e53e 6873 17bd
000003c0: 4c7a 003c a63d 35be 3dec 2b3d b730 bcbe
000003d0: 2f53 1cbe 8cee b8be e5fd b4be bf53 3abe
000003e0: 588c a5be 3c37 92be ab99 f3be 8a54 3a3d
000003f0: 9db1 433f 8f71 513f eb07 96bd bd4a 2e3d

bias f4 [100]
1.5022115 -1.165054 -0.082755476 -0.66170084 -0.8461602 -0.5838369 0.73210055 -1.2239741
-0.637375 -0.560441 0.48315018 0.8803698 0.89264774 -0.8660183 -0.98381865 0.541331
0.7944271 -0.28881812 -1.1349483 -0.7673297 0.5629351 -0.008636453 1.5753382 -0.80037147
-0.42548284 0.6767732 -0.6844998 0.52256334 -0.9353797 0.022036988 -1.0123832 0.65192163
0.00090420904 0.6452384 -0.69157064 -1.3362219 -0.3106093 -0.06681091 -0.7838278 -0.9520374
1.1448673 -0.5580946 -0.026029237 1.0507867 0.70968217 -0.22583708 0.49277014 0.24528524
-1.0636659 0.77674055 -1.0965446 -0.46173844 -0.40265223 0.6050493 1.4331416 0.7304406
-1.0425333 -0.95553595 -0.4341367 -0.4122657 1.1039363 0.010332594 0.956749 -0.773199
1.4643034 -1.0318233 1.2231463 0.75897187 1.3382106 -0.43989983 -0.38253883 0.014252868
-0.08916414 -0.5480354 0.89850837 0.577453 -0.8207957 -0.9766779 0.66903776 0.17892045
0.012740856 0.16212495 -0.48619652 -0.23007381 0.768828 0.87940586 -0.68142325 -1.2123443
0.21602763 -0.27287537 0.96551454 -0.67356986 -0.8551929 -0.02078684 -0.6088621 -0.0009060646
0.029794615 0.826118 0.7183838 -0.64308685
00000000: 7748 c03f 7d20 95bf b47b a9bd 3a65 29bf
00000010: f49d 58bf 5676 15bf f16a 3b3f 2fab 9cbf
00000020: 022b 23bf 1079 0fbf 765f f73e ea5f 613f
00000030: 9084 643f 60b3 5dbf 8adb 7bbf ab94 0a3f
00000040: 935f 4b3f f8df 93be fc45 91bf b86f 44bf
00000050: 841c 103f e97f 0dbc afa4 c93f 25e5 4cbf
00000060: e3d8 d9be 0241 2d3f 613b 2fbf b6c6 053f
00000070: 0b75 6fbf ea86 b43c c695 81bf 56e4 263f
00000080: 7108 6d3a 582e 253f c60a 31bf 5209 abbf
00000090: 2f08 9fbe 29d4 88bd f0a8 48bf b9b8 73bf
000000a0: 038b 923f 4adf 0ebf 443b d5bc 2e80 863f
000000b0: bbad 353f d641 67be 5e4c fc3e 0e2c 7b3e
000000c0: 3426 88bf 78d8 463f 935b 8cbf fb68 ecbe
000000d0: 6f28 cebe 83e4 1a3f 2f71 b73f 28fe 3a3f
000000e0: bb71 85bf 019e 74bf 2a47 debe 7d14 d3be
000000f0: c94d 8d3f 0a4a 293c 81ed 743f 5ff0 45bf
00000100: 4b6e bb3f c912 84bf 0f90 9c3f fb4b 423f
00000110: 7c4a ab3f 8d3a e1be 21dc c3be dc84 693c
00000120: b09b b6bd 0c4c 0cbf a504 663f f6d3 133f
00000130: ab1f 52bf 9007 7abf 0f46 2b3f ec36 373e
00000140: 06bf 503c 1504 263e c0ee f8be 7898 6bbe
00000150: e9d1 443f be20 613f c171 2ebf 192e 9bbf
00000160: 5936 5d3e 52b6 8bbe f62b 773f 136f 2cbf
00000170: eced 5abf 2a49 aabc 63de 1bbf f784 6dba
00000180: d613 f43c 787c 533f 00e8 373f 57a1 24bf

weight f4 [100, 100]
-0.117069766 -0.09914353 0.06389676 -0.016735397 0.009228014 0.162875 0.025705935 -0.11820451
0.020669091 0.06877172 -0.16653326 0.024100065 -0.0054247095 -0.07247921 -0.0672353 -0.16150309
-0.06124779 -0.054903626 -0.12504743 0.011626195 -0.16716768 -0.23177324 -0.081503674 0.014336672
0.12860222 -0.18713063 0.059977952 -0.07785161 -0.05010785 0.05523195 -0.020045659 -0.17133188
-0.10738201 -0.17216523 0.019797921 0.123841144 0.09213148 0.08361016 -0.11137872 0.14446984
0.14337714 0.06866179 -0.060870063 0.07726728 -0.15932614 0.12533511 0.026733344 0.30239138
-0.038937468 -0.0595974 -0.13208789 -0.17371795 0.15720353 -0.06693644 0.0066338256 -0.18106273
-0.109412946 -0.04041331 -0.29741046 0.034061685 -0.18952475 0.035016507 0.1937593 0.0792238
0.10655637 0.021694904 -0.23383743 -0.06925638 0.11469679 0.2007242 0.015601657 0.0614401
0.05168969 0.19951282 0.05506755 0.044101473 -0.03376674 -0.08026102 -0.049145713 -0.11122776
0.038333118 0.08869497 0.04911171 0.12678742 -0.17672658 -0.121829085 0.17103776 -0.11203954
0.067521915 0.045857772 -0.2558014 0.13949208 -0.047816906 -0.05489652 -0.018136526 -0.004231464
-0.043001108 0.078999154 -0.012090066 0.06259828 -0.27277052 0.02880828 -0.0020520964 -0.055275273
0.018045638 0.110502355 -0.02246113 -0.111794524 0.029530467 0.021886567 -0.08669883 0.01835634
-0.019966967 0.034961667 -0.040839892 -0.10937498 -0.05426761 -0.00041438153 -0.08364256 -0.0058033103
-0.10843898 -0.08490868 -0.28436184 0.014362282 0.07203527 -0.2462216 0.031231545 -0.0084542995
-0.03362934 0.028915787 -0.09153613 -0.19924982 0.007813688 -0.26805618 -0.022989556 0.24169682
-0.015827892 0.05647856 -0.11686309 0.2241208 -0.020699196 0.049824364 -0.03051987 0.09113798
-0.18860826 0.11390213 0.097264126 0.034253944 -0.02399182 -0.08766443 -0.09405234 -0.004355205
0.14131045 -0.04141992 -0.12002122 -0.25594354 0.027228376 -0.018743357 -0.05367129 0.027924534
-0.014965491 0.019488238 0.17685907 0.10372924 0.22372124 0.062168192 -0.16679394 -0.065613836
0.22214665 0.20091824 0.019254114 0.03260656 0.057077445 0.23546529 0.048341848 -0.018753164
-0.04544054 -0.05458507 -0.018425187 -0.09482373 0.02119879 -0.013533359 0.03639319 0.11611711
-0.26202467 -0.13182324 -0.0044255527 -0.16582923 -0.0016871335 0.05699228 -0.005616565 0.14070581
-0.049863152 -0.02892207 0.0033428653 -0.0029652328 -0.03283194 -0.015952298 0.017045453 0.021380404
-0.19013166 0.43711382 -0.054712087 0.03565994 -0.031304747 0.0037943944 -0.2977313 0.2040567
0.057729512 -0.044901814 0.01988981 -0.025090262 0.02455891 -0.07131153 0.052099492 -0.008106994
0.059962023 -0.15557653 0.13779494 -0.16087535 0.009428921 -0.049715154 -0.17552462 -0.027973186
-0.035173163 -0.15691446 -0.04821646 0.042460542 0.04484733 0.063571654 -0.057069093 -0.06384018
-0.00819995 -0.20697813 0.014790573 0.16871786 0.039532986 0.041252237 0.078346044 0.17808388
0.030375833 -0.07644272 -0.068567984 -0.09353946 -0.07290759 0.026268512 -0.036245886 -0.23830599
0.011944493 -0.2222438 0.1403034 0.25449663 0.034734506 0.061341632 -0.46748868 -0.16247925
00000000: 46c2 efbd c30b cbbd 4edc 823d ac18 89bc
00000010: 1931 173c b4c8 263e 4195 d23c 3515 f2bd
00000020: 3a52 a93c 30d8 8c3d b287 2abe 806d c53c
00000030: c3c1 b1bb fb6f 94bd a9b2 89bd 1161 25be
00000040: f6de 7abd a0e2 60bd 6f0c 00be cc7b 3e3c
00000050: 012e 2bbe f755 6dbe 66eb a6bd 5ce4 6a3c
00000060: 4db0 033e 2c9f 3fbe 71ab 753d aa70 9fbd
00000070: e43d 4dbd e63a 623d cb36 a4bc a071 2fbe
00000080: 19eb dbbd 154c 30be 402f a23c 6da0 fd3d
00000090: 6eaf bc3d ce3b ab3d 871a e4bd e7ef 133e
000000a0: 75d1 123e 8d9e 8c3d e352 79bd 4f3e 9e3d
000000b0: 6426 23be d957 003e e3ff da3c 0bd3 9a3e
000000c0: e57c 1fbd 671c 74bd 0c42 07be 1ee3 31be
000000d0: f6f9 203e f915 89bd 9060 d93b 8268 39be
000000e0: e513 e0bd 6d88 25bd 2f46 98be 4484 0b3d
000000f0: c712 42be 786d 0f3d d768 463e 1640 a23d
00000100: 3a3a da3d 83b9 b13c 1473 6fbe 4ad6 8dbd
00000110: 27e6 ea3d a58a 4d3e 189e 7f3c 9da8 7b3d
00000120: 92b8 533d 174d 4c3e 838e 613d bfa3 343d
00000130: fe4e 0abd e45f a4bd 044d 49bd 61cb e3bd
00000140: 3003 1d3d b5a5 b53d 5c29 493d 90d4 013e
00000150: d0f7 34be 8781 f9bd 8624 2f3e fd74 e5bd
00000160: ee48 8a3d 5cd5 3b3d 67f8 82be 03d7 0e3e
00000170: a9db 43bd 2cdb 60bd 0d93 94bc 18a8 8abb
00000180: ee21 30bd 4fca a13d 6a15 46bc 8733 803d
00000190: 94a8 8bbe 58ff eb3c 777c 06bb 5368 62bd
000001a0: 72d4 933c 0f4f e23d 6700 b8bc 87f4 e4bd
000001b0: e1e9 f13c 754b b33c 288f b1bd 0960 963c
000001c0: c491 a3bc f733 0f3d bb47 27bd fdff dfbd
000001d0: b747 5ebd 5941 d9b9 ca4c abbd b229 bebb
000001e0: 4215 debd 9ae4 adbd e097 91be c74f 6b3c
000001f0: 3a87 933d 8421 7cbe 4cd9 ff3c e783 0abc
00000200: ebbe 09bd cde0 ec3c 4b77 bbbd 2508 4cbe
00000210: fc04 003c a93e 89be 9854 bcbc 5f7f 773e
00000220: 7fa9 81bc 1056 673d ea55 efbd ec7f 653e
00000230: 5c91 a9bc a214 4c3d ce04 fabc 8da6 ba3d
00000240: 8622 41be 8545 e93d 6a32 c73d dd4d 0c3d
00000250: 7e8a c4bc 6989 b3bd 839e c0bd 1cb6 8ebb
00000260: b0b3 103e efa7 29bd afcd f5bd 080b 83be
00000270: 0b0e df3c ab8b 99bc 6dd6 5bbd fec1 e43c
00000280: d231 75bc cca5 9f3c 8b1a 353e ff6f d43d
00000290: 2e17 653e 13a4 7e3d 08cc 2abe 8c60 86bd
000002a0: 697a 633e 83bd 4d3e ceba 9d3c 758e 053d
000002b0: 0aca 693d d01d 713e 1a02 463d 3ca0 99bc
000002c0: dc1f 3abd 9894 5fbd 6bf0 96bc f232 c2bd
000002d0: 16a9 ad3c 06bb 5dbc 0711 153d cfce ed3d
000002e0: 1928 86be acfc 06be 3a04 91bb 23cf 29be
000002f0: ce22 ddba bd70 693d 290b b8bb 2f15 103e
00000300: 4e3d 4cbd faed ecbc f913 5b3b 5a54 42bb
00000310: c97a 06bd 65ae 82bc e8a2 8b3c f525 af3c
00000320: e0b1 42be 62cd df3e c819 60bd 2810 123d
00000330: 6839 00bd 60ab 783b 3d70 98be 3df4 503e
00000340: c875 6c3d f7ea 37bd f4ef a23c 188a cdbc
00000350: c42f c93c c80b 92bd 4766 553d 33d3 04bc
00000360: bd9a 753d 744f 1fbe 1e1a 0d3e 82bc 24be
00000370: c37b 1a3c 1ea2 4bbd babc 33be 0628 e5bc
00000380: bc11 10bd 2fae 20be 9f7e 45bd 1beb 2d3d
00000390: d5b1 373d db31 823d 48c1 69bd a4be 82bd
000003a0: 1559 06bc 13f2 53be 2954 723c 60c4 2c3e
000003b0: 57ed 213d 1bf8 283d e473 a03d 9f5b 363e
000003c0: bdd6 f83c 008e 9cbd 5f6d 8cbd 9e91 bfbd
000003d0: 9350 95bd 1031 d73c 9176 14bd 7c06 74be
000003e0: d6b2 433c e193 63be b2ab 0f3e 624d 823e
000003f0: c545 0e3d 5d41 7b3d ad5a efbe f660 26be

bias f4 [100]
0.14907947 -0.08663431 0.032262556 -0.11713147 0.16037087 -0.20241545 -0.11701374 0.026673345
0.029236704 -0.15090135 -0.1402228 0.13478033 -0.057896566 0.109077595 -0.032205652 -0.19032896
0.14954223 -0.15994674 -0.12041021 0.24382766 0.11374397 0.17905627 0.1853743 -0.18426076
-0.08966334 -0.06408256 -0.019650059 0.086108804 -0.009395424 0.19887242 -0.0987347 -0.1740887
0.08512523 -0.09161362 -0.070691615 0.1119022 0.14875506 0.11910123 -0.030668383 -0.03172077
0.12864809 0.0070820013 0.12032963 -0.3009407 -0.0011630232 -0.26009127 -0.111989744 0.071891695
-0.08871341 -0.24929431 0.020503273 -0.26247954 0.020330096 0.33076602 -0.19226682 -0.022419445
-0.5080574 0.052172635 0.11565762 0.051610116 -0.03736312 0.2846238 -0.03532339 -0.15843481
-0.06474871 -0.1499199 -0.0039645624 -0.13748254 -0.056546107 -0.0167929 0.15620162 -0.053652473
0.27260458 0.18148942 0.116213135 -0.13464986 0.19003445 -0.10628502 0.113924526 0.39208978
0.0064225597 -0.26391715 0.54338473 0.05155878 0.07276551 -0.18794957 -0.28617147 0.089283496
0.3896741 0.005800424 0.12465806 0.041298177 0.10830667 0.1846159 0.12266144 -0.0070987274
-0.08552402 0.20692685 -0.035443723 -0.15781064
00000000: 4aa8 183e 546d b1bd be25 043d a0e2 efbd
00000010: 4338 243e ff45 4fbe e6a4 efbd 0f82 da3c
00000020: d081 ef3c e285 1abe 9196 0fbe db03 0a3e
00000030: f324 6dbd 1364 df3d 13ea 03bd 98e5 42be
00000040: 9921 193e 14c9 23be a199 f6bd f5ad 793e
00000050: 99f2 e83d 875a 373e c3d2 3d3e daae 3cbe
00000060: 6aa1 b7bd b83d 83bd 29f9 a0bc d059 b03d
00000070: 44ef 19bc 36a5 4b3e 6b35 cabd 4f44 32be
00000080: 2356 ae3d ec9f bbbd c4c6 90bd fb2c e53d
00000090: 3f53 183e 58eb f33d 433c fbbc a3ed 01bd
000000a0: 53bc 033e 2210 e83b 626f f63d e614 9abe
000000b0: 9570 98ba af2a 85be e15a e5bd f43b 933d
000000c0: 60af b5bd 0247 7fbe 7bf6 a73c b863 86be
000000d0: 4d8b a63c 2a5a a93e 98e1 44be fca8 b7bc
000000e0: 0d10 02bf f9b2 553d e7dd ec3d 2165 533d
000000f0: 120a 19bd 36ba 913e 42af 10bd bc3c 22be
00000100: f99a 84bd 9a84 19be 29e9 81bb 39c8 0cbe
00000110: e49c 67bd 4491 89bc 51f3 1f3e b2c2 5bbd
00000120: d492 8b3e 5dd8 393e 2701 ee3d a7e1 09be
00000130: 6498 423e f6ab d9bd 4351 e93d febf c83e
00000140: 5674 d23b 2620 87be 431b 0b3f 4d2f 533d
00000150: 1506 953d da75 40be 1185 92be 44da b63d
00000160: 5d83 c73e 7c11 be3b ba4c ff3d 4728 293d
00000170: e3cf dd3d f30b 3d3e ec35 fb3d 719c e8bb
00000180: 3827 afbd a2e4 533e 702d 11bd 1d99 21be

weight f4 [100, 100]
0.04667643 -0.008073419 0.12674257 -0.2871742 0.15278599 -0.36491698 0.20572151 0.024000203
0.03232077 0.27461356 -0.39582732 0.35983998 0.050788105 0.08177531 0.06558532 -0.17444956
-0.1795511 -0.19430903 -0.24437992 -0.031183036 -0.19463204 0.046827845 0.7086665 -0.1782202
-0.14595415 0.60856473 0.44177273 0.048124578 -0.12386832 -0.31756377 0.1886193 -0.17441404
0.037559684 0.2804265 0.0050170277 -0.6176633 0.35022533 -0.6166213 0.029042408 0.18678567
0.05585062 -0.68164617 -0.5303999 -1.1221787 0.0034525723 -0.047479555 0.07702423 -0.42834374
0.025634319 0.061227936 0.017244216 -0.06492083 -0.009196255 0.93514097 0.30131462 0.016862346
-0.16712342 -0.05791668 -0.15957181 0.005064729 0.03148954 0.16440701 0.10579716 0.111398175
-0.34394896 0.12309944 0.3599124 -0.37349838 0.039841726 0.23829088 -0.14494126 0.030622352
0.026719116 0.17991851 0.23983002 0.17254764 0.17454393 0.09587732 0.36756727 -0.24006885
0.005246095 0.0020616848 0.5275627 0.064447455 0.12449345 -0.17598064 0.9727849 -0.20195857
0.14595905 0.002903737 -0.16725957 0.03460458 -0.13969137 0.14067733 -0.13431625 0.0014730393
0.08324949 0.33455095 0.016687902 -0.029478488 -0.0163991 0.17197496 -0.2591279 0.114170775
0.01971129 -0.043638643 -0.03479188 -0.15979469 -0.21659485 -0.009689774 0.114572965 -0.13124837
-0.10391075 0.03303337 -0.1297013 0.17013958 0.02976833 0.13656187 0.06344903 0.018418167
0.01977266 0.16785243 -0.12403134 0.16728432 -0.19944386 0.25487804 0.052960105 0.033034172
-0.2918172 0.0707557 0.0041460115 0.0076640076 -0.055411115 -0.035036813 -0.13694383 -0.044260662
0.58522797 0.10287149 -0.19760707 -0.058782578 0.44135264 -0.33750126 -0.06639815 0.08941888
0.18330964 -0.057977375 -0.09197483 -0.5769317 -0.024027105 -0.0058023757 -0.07987309 -0.5486738
-0.10163751 0.094442904 -0.24733208 0.2953366 0.37413523 -0.10456593 0.08459429 0.040352747
-0.14198786 -0.11819278 0.14041114 -0.037612956 -0.07689823 -0.02846957 0.11103735 0.14205496
-0.116558015 0.047644574 0.036965806 -0.05703465 -0.36261383 -0.1656655 0.35800794 0.04384504
-0.16992703 -0.054413404 -0.094284646 0.0043403287 0.0016578445 -0.0104657905 0.25556386 0.341208
0.012851527 0.16915935 0.37923267 -0.007616944 0.013699449 0.0027995585 0.038809776 0.30490273
0.1181419 0.26759332 0.042650018 0.0023719086 -0.05914487 0.029083747 -0.05921248 0.018767823
0.015160721 0.03970514 0.10285282 -0.037103932 0.014776884 -0.03059066 0.095907345 0.011844715
0.02100735 0.05424898 -0.0026617935 -0.008300193 0.036866818 -0.04157802 0.015041288 0.10869501
-0.10755358 0.11221547 -0.017623793 -0.122496806 -0.0838283 -0.019691408 0.008495025 0.109394014
0.058086745 0.00047572056 0.0126411645 -0.014759779 0.056128174 -0.036434934 0.054366022 0.040947255
0.09391485 0.037606362 0.025700293 -0.024302423 -0.051302418 -0.016689768 0.013218815 0.05507177
-0.081553474 -0.010591 -0.020680439 0.025167484 -0.0050804326 0.08726699 0.018561438 0.005955395
0.027431166 0.061599504 -0.004847419 0.08700284 0.036952503 -0.03799708 0.013500676 0.005106236
00000000: c92f 3f3d 6046 04bc cec8 013e 7f08 93be
00000010: ee73 1c3e 66d6 babe a9a8 523e 139c c43c
00000020: c962 043d 269a 8c3e e1a9 cabe f23c b83e
00000030: 3007 503d d079 a73d 9951 863d e8a2 32be
00000040: 3edc 37be f2f8 46be bb3e 7abe 9173 ffbc
00000050: 9f4d 47be 8ece 3f3d 2b6b 353f 5b7f 36be
00000060: 0175 15be e6ca 1b3f 0930 e23e 471e 453d
00000070: acae fdbd b897 a2be 6b25 413e 9899 32be
00000080: 2fd8 193d 1094 8f3e e165 a43b 2f1f 1ebf
00000090: bc50 b33e e5da 1dbf 58ea ed3c be44 3f3e
000000a0: 9fc3 643d 5d80 2ebf 4ac8 07bf 8da3 8fbf
000000b0: 8d44 623b ec79 42bd e1be 9d3d df4f dbbe
000000c0: 10ff d13c 25ca 7a3d be43 8d3c 36f5 84bd
000000d0: e4ab 16bc 6665 6f3f e945 9a3e e722 8a3c
000000e0: 6722 2bbe 0a3a 6dbd cb66 23be 07f6 a53b
000000f0: 2dfb 003d 505a 283e 2eac d83d ba24 e43d
00000100: 141a b0be 8f1b fc3d 7046 b83e 2e3b bfbe
00000110: 1431 233d 8602 743e 7b6b 14be badb fa3c
00000120: 0ce2 da3c 8f3c 383e 0096 753e 54b0 303e
00000130: a5bb 323e 545b c43d c731 bc3e 9cd4 75be
00000140: 6fe7 ab3b 551d 073b 590e 073f 07fd 833d
00000150: 6cf6 fe3d 4534 34be 6e08 793f 3ace 4ebe
00000160: 4a76 153e 9f4c 3e3b 1846 2bbe 88bd 0d3d
00000170: 410b 0fbe b80d 103e 338a 09be ff12 c13a
00000180: b57e aa3d 434a ab3e 11b5 883c df7c f1bc
00000190: 6857 86bc 341a 303e 69ac 84be 5ed2 e93d
000001a0: 9279 a13c 6fbe 32bd ee81 0ebd 38a1 23be
000001b0: 0acb 5dbe dcc1 1ebc 3ba5 ea3d f965 06be
000001c0: 29cf d4bd 004e 073d 6bd0 04be 1239 2e3e
000001d0: b6dc f33c e0d6 0b3e 91f1 813d b2e1 963c
000001e0: 46fa a13c 82e1 2b3e 2504 febd 954c 2b3e
000001f0: 033b 4cbe 607f 823e b2ec 583d d74e 073d
00000200: 1069 95be 5de8 903d 44db 873b 5b22 fb3b
00000210: c4f6 62bd c382 0fbd 013b 0cbe ab4a 35bd
00000220: 80d1 153f 4aae d23d 8259 4abe 00c6 70bd
00000230: f9f8 e13e f7cc acbe c1fb 87bd 3f21 b73d
00000240: 86b5 3b3e af79 6dbd 4d5d bcbd ccb1 13bf
00000250: 7ed4 c4bc db21 bebb 8194 a3bd e375 0cbf
00000260: 5427 d0bd 486b c13d 9f44 7dbe 5c36 973e
00000270: a78e bf3e aa26 d6bd c53f ad3d ec48 253d
00000280: 4465 11be 0e0f f2bd f0c7 0f3e 0b10 1abd
00000290: d27c 9dbd 0439 e9bc 8d67 e33d db76 113e
000002a0: f8b5 eebd f526 433d 7569 173d 2a9d 69bd
000002b0: 85a8 b9be 38a4 29be d14c b73e db96 333d
000002c0: 5a01 2ebe 97e0 5ebd 4f18 c1bd 5139 8e3b
000002d0: 084c d93a b578 2bbc 44d9 823e d1b2 ae3e
000002e0: 368f 523c 1c38 2d3e c92a c23e 8f97 f9bb
000002f0: a773 603c cc78 373b 00f7 1e3d 361c 9c3e
00000300: 61f4 f13d fe01 893e c9b1 2e3d 0672 1b3b
00000310: e441 72bd 0a41 ee3c c988 72bd fabe 993c
00000320: ac64 783c dba1 223d 80a4 d23d 4bfa 17bd
00000330: be1a 723c 4499 fabc 126b c43d 5610 423c
00000340: 9b17 ac3c 2e34 5e3d 7c71 2ebb 88fd 07bc
00000350: a901 173d b74d 2abd bc6f 763c 7d9b de3d
00000360: 0d45 dcbd 39d1 e53d c65f 90bc 9bdf fabd
00000370: 2cae abbd e04f a1bc b82e 0b3c f809 e03d
00000380: 5eec 6d3d 226a f939 e31c 4f3c 00d3 71bc
00000390: a8e6 653d cc3c 15bd e8ae 5e3d 4fb8 273d
000003a0: 6e56 c03d 2109 1a3d 6c89 d23c e015 c7bc
000003b0: 7c22 52bd fbb8 88bc bb93 583c f092 613d
000003c0: 8205 a7bd e085 2dbc 066a a9bc 0a2c ce3c
000003d0: c279 a6bb 09b9 b23d 280e 983c 7925 c33b
000003e0: 53b7 e03c c34f 7c3d 19d7 9ebb 8c2e b23d
000003f0: 825b 173d d3a2 1bbd f031 5d3c 3652 a73b

bias f4 [100]
0.17265284 0.029507406 -0.17007871 -0.17007211 -0.03196428 0.17009026 0.17007911 0.026669947
0.13271765 -0.022326788 0.22236459 0.17007846 -0.05703005 -0.03394212 0.12848383 -0.054273665
-0.09011696 0.07564604 -0.17005767 0.17008601 -0.03994449 0.043458447 -0.17007726 -0.12428214
0.17008343 0.13063434 0.16638532 -0.06269112 0.19596028 -0.1700769 -0.092524484 0.03353438
0.17009626 0.21058074 -0.17008412 0.17007837 0.17009744 -0.22154786 -0.13540605 0.21751507
-0.17007676 -0.17008005 -0.1700709 0.17495073 0.21637808 0.07846385 0.0588603 0.17213593
-0.057527874 -0.1308708 -0.17842776 0.17008914 0.100418165 -0.1988755 0.17008215 0.036980484
0.12714681 -0.17009401 -0.014245501 0.17008665 0.17010304 -0.059659142 0.17008899 0.1700456
0.0074491655 0.07792638 -0.020863878 -0.036292285 0.22547744 0.17007326 0.17008044 0.17008606
-0.12900911 0.17008889 -0.098453686 -0.11535305 -0.0020829218 -0.022067916 -0.17008913 0.053386297
-0.110724546 0.03581375 0.0152628245 -0.1700943 -0.27779633 0.17007498 -0.016774567 -0.17010337
0.049150113 0.16997868 -0.17007984 -0.17009081 0.11706248 -0.1365432 -0.050143506 -0.17010373
-0.015538939 -0.018622234 0.014912938 -0.25900972
00000000: e8cb 303e 84b9 f13c 1d29 2ebe 6227 2ebe
00000010: faec 02bd 242c 2e3e 3829 2e3e ef7a da3c
00000020: 23e7 073e abe6 b6bc 8bb3 633e 0c29 2e3e
00000030: 5798 69bd e406 0bbd 4491 033e 104e 5ebd
00000040: 3e8f b8bd 50ec 9a3d 9923 2ebe 072b 2e3e
00000050: d59c 23bd 7c01 323d bc28 2ebe a287 febd
00000060: 5a2a 2e3e 02c5 053e ea60 2a3e 3464 80bd
00000070: d0a9 483e a428 2ebe 7a7d bdbd 595b 093d
00000080: b72d 2e3e 7aa2 573e 882a 2ebe 0629 2e3e
00000090: 062e 2e3e 71dd 62be e2a7 0abe 45bc 5e3e
000000a0: 9a28 2ebe 7729 2ebe 1127 2ebe 4926 333e
000000b0: 3792 5d3e a8b1 a03d 7f17 713d 6744 303e
000000c0: 59a2 6bbd ff02 06be c4b5 36be d92b 2e3e
000000d0: 0aa8 cd3d 05a6 4bbe 042a 2e3e d978 173d
000000e0: c632 023e 202d 2ebe f665 69bc 322b 2e3e
000000f0: 7e2f 2e3e 255d 74bd cf2b 2e3e 6f20 2e3e
00000100: 2118 f43b de97 9f3d b9ea aabc 38a7 14bd
00000110: 8fe3 663e af27 2e3e 9129 2e3e 0a2b 2e3e
00000120: f71a 04be c82b 2e3e 16a2 c9bd 383e ecbd
00000130: a181 08bb c6c7 b4bc d82b 2ebe 97ab 5a3d
00000140: 8dc3 e2bd 70b1 123d ed10 7a3c 332d 2ebe
00000150: 523b 8ebe 2328 2e3e d16a 89bc 942f 2ebe
00000160: a151 493d e40e 2e3e 6929 2ebe 492c 2ebe
00000170: 74be ef3d fbd1 0bbe 4763 4dbd ac2f 2ebe
00000180: 0997 7ebc a88d 98bc 6555 743c ec9c 84be

weight f4 [1, 100]
-6.9886985 6.043119 -5.7055893 -5.705587 -6.1706233 5.7055917 5.705593 -7.072526
-7.014949 7.059609 -7.039663 5.7055902 6.0127344 -7.081143 6.5581927 6.9872117
5.9906096 -7.0449786 -5.7055974 5.705591 -6.2149043 7.0805554 -5.705592 5.9526534
5.705595 -5.903184 -6.8490868 -6.2890925 -6.8068633 -5.7055874 6.921143 6.0695977
5.70559 -6.9698625 -5.705587 5.7055845 5.7055926 6.9708233 6.74235 -6.6618705
-5.705595 -5.705596 -5.7055883 -6.94731 -7.14154 -6.974017 -6.0329266 6.081969
-5.752501 5.9335976 -6.2839293 5.705591 6.0918818 6.9743915 5.705589 -6.055214
-7.0327263 -5.7055902 6.0736732 5.705597 5.7055917 6.7417884 5.705588 5.705598
-6.062688 6.0331206 -5.904324 -6.0594654 -6.513862 5.705591 5.7055907 5.7055893
7.045776 5.705593 -6.026797 -7.0246887 7.0765967 6.209957 -5.7055907 -6.859241
6.8899417 6.060003 7.1507096 -5.705587 -7.02586 5.7055893 6.1003337 -5.705595
-7.036139 5.705617 -5.7055883 -5.705592 -6.8147006 5.899838 -5.777623 -5.705594
-6.0203366 -6.023063 6.173076 6.5732684
00000000: 6ba3 dfc0 3b61 c140 3094 b6c0 2b94 b6c0
00000010: bf75 c5c0 3594 b640 3894 b640 2252 e2c0
00000020: 767a e0c0 51e8 e140 eb44 e1c0 3294 b640
00000030: 5268 c040 b998 e2c0 b7dc d140 3d97 df40
00000040: 13b3 bf40 7770 e1c0 4194 b6c0 3494 b640
00000050: 7fe0 c6c0 e993 e240 3694 b6c0 237c be40
00000060: 3c94 b640 e2e6 bcc0 b82b dbc0 3f40 c9c0
00000070: d3d1 d9c0 2c94 b6c0 017a dd40 253a c240
00000080: 3194 b640 1d09 dfc0 2b94 b6c0 2694 b640
00000090: 3794 b640 fc10 df40 55c1 d740 0b2e d5c0
000000a0: 3c94 b6c0 3e94 b6c0 2e94 b6c0 5d50 dec0
000000b0: 7f87 e4c0 262b dfc0 bc0d c1c0 7d9f c240
000000c0: 7d14 b8c0 08e0 bd40 f315 c9c0 3494 b640
000000d0: b2f0 c240 372e df40 2f94 b640 50c4 c1c0
000000e0: 180c e1c0 3294 b6c0 885b c240 4094 b640
000000f0: 3594 b640 bbbc d740 2d94 b640 4294 b640
00000100: 8a01 c2c0 530f c140 39f0 bcc0 24e7 c1c0
00000110: 8f71 d0c0 3494 b640 3394 b640 3094 b640
00000120: ff76 e140 3894 b640 85db c0c0 40ca e0c0
00000130: 7b73 e240 f8b7 c640 3394 b6c0 e77e dbc0
00000140: 677a dc40 8beb c140 9dd2 e440 2b94 b6c0
00000150: d8d3 e0c0 3094 b640 ef35 c340 3c94 b6c0
00000160: 0d28 e1c0 6a94 b640 2e94 b6c0 3694 b6c0
00000170: 0712 dac0 79cb bc40 4ae2 b8c0 3a94 b6c0
00000180: 99a6 c0c0 efbc c0c0 d789 c540 3758 d240
