Total_RCS/epoch_200_batch_255_lr_0_0019819414761434403_wd_0_1808248925678225/torch_model_5_Softplus.pth (torch, 95093 bytes, 15 tensors)

weight f4 [60, 3]
0	0x3ed9f71a	0.42571336
1	0x3e8b9d83	0.2726861
2	0x3d8acbac	0.067771286
3	0x3df4dd3c	0.119562596
4	0x3bc04631	0.0058677425
5	0x3d1b0b8a	0.0378528
6	0x3d963dd0	0.073360085
7	0x3ccf1e7e	0.025283094
8	0x3e864813	0.26226863
9	0xbd1f627e	-0.03891229
10	0xbd964087	-0.07336526
11	0x3d6ce259	0.05783305
12	0xbdb17d9f	-0.086665384
13	0xbd8cc369	-0.06873209
14	0x3f00adf5	0.5026544
15	0x400510ea	2.0791574
16	0x3f19fb9a	0.6014954
17	0xbfac5ef0	-1.3466473
18	0x3f218085	0.6308673
19	0xbf924cb5	-1.1429659
20	0xc0191d5a	-2.3924165
21	0xbeb0fb89	-0.34566906
22	0x404e21aa	3.2208047
23	0x40688e1d	3.633674
24	0xbdcf55f4	-0.10123816
25	0xbf332b7a	-0.69988215
26	0x3fd7bbd0	1.6854191
27	0x3e6d7be4	0.23191792
28	0x405be9a1	3.4361346
29	0xbd82a492	-0.063790455
30	0xbd46133f	-0.0483582
31	0xbda77b5d	-0.081778266
32	0x3ee8df9b	0.45483097
33	0x3ebe4dbf	0.3716869
34	0x3ff17441	1.8863603
35	0x3fab38ea	1.3376744
36	0x3d2a49ec	0.041574404
37	0x3c269375	0.010166992
38	0x3d79f805	0.061027545
39	0x3e2b7f89	0.1674787
40	0xbdb35881	-0.08757115
41	0x3f134ed0	0.57542133
42	0x3e893878	0.26800895
43	0x3ddb9b91	0.10723031
44	0x3e3d49fd	0.18485256
45	0xbaad2ff7	-0.0013213147
46	0xbd0405c6	-0.03223207
47	0x3ead5cba	0.33859807
48	0x3e821618	0.2540748
49	0x3e0a6825	0.1351629
50	0x3e047fb6	0.12939343
51	0x3e318156	0.17334494
52	0x3da97552	0.0827433
53	0x3dff3aa6	0.12462358
54	0xbfe63d09	-1.7987376
55	0xbfb60a70	-1.4221935
56	0xbf66a3bc	-0.9009359
57	0x3e877d18	0.26462626
58	0x3e18b538	0.1491288
59	0x3d27ad7d	0.040936936
60	0x3cec275e	0.028827365
61	0x401abf71	2.4179347
62	0x400b62bb	2.177901
63	0x3ed46647	0.4148428
64	0x3e8d8da7	0.27647135
65	0xbf1505be	-0.58211887
66	0xbf06a7dd	-0.5259989
67	0x3fb6452f	1.4239863
68	0xc025b4ab	-2.589152
69	0x3dd211e8	0.102573216
70	0x3cd5b035	0.026084999
71	0x3e5f119c	0.21784061
72	0x3e788b95	0.24271996
73	0x3db7baf0	0.089712024
74	0x3d0d6cab	0.034527462
75	0xbebdc5d6	-0.37065
76	0x403df48f	2.9680517
77	0x40329b39	2.790724
78	0xbf885da8	-1.0653582
79	0x3fafb015	1.3725611
80	0xbf9065da	-1.1281083
81	0x402422a2	2.5646138
82	0x3d276019	0.04086313
83	0x3da5e63b	0.081005536
84	0xbd291ee7	-0.041289236
85	0xbd999d90	-0.07500756
86	0xbe013b01	-0.12620164
87	0x3e4bd2df	0.1990466
88	0x3db33036	0.0874943
89	0x3dc94ff2	0.098297015
90	0x3dd9e1eb	0.106387936
91	0x3d71b3b0	0.059009254
92	0x3e9b81e6	0.30372542
93	0x3e9cee47	0.3065054
94	0x3dfad166	0.12246971
95	0x3d9a2464	0.07526472
96	0x3d69680b	0.05698399
97	0x3ac403bb	0.0014954725
98	0x3e487920	0.19577456
99	0x3eb646ee	0.3560099
100	0x3e368dd6	0.17827544
101	0x3dab6501	0.08368874
102	0x3cb1b693	0.021693503
103	0xbc9febc0	-0.019521594
104	0x3d07a6a1	0.033117894
105	0xbf7b9ae1	-0.982832
106	0xbf0ed27a	-0.5578991
107	0x3bf7e13d	0.0075646923
108	0x3f76335d	0.96172124
109	0x3fb7f482	1.4371493
110	0x3e01dcbb	0.12681858
111	0xbe77758c	-0.24165934
112	0xbe85aa08	-0.26106286
113	0x3f5effe6	0.8710922
114	0x3fcef370	1.6168041
115	0xc000a8a3	-2.0102928
116	0xbd8396f9	-0.0642528
117	0x3fc4374c	1.5329375
118	0xbfc292df	-1.5201072
119	0xbd9e464b	-0.07728251
120	0x40480ad3	3.1256607
121	0x3f04ce64	0.5187743
122	0x3d950a45	0.072773494
123	0xbdc107c4	-0.09425309
124	0xbf28dab0	-0.6595869
125	0x3f775528	0.96614313
126	0x3eafe617	0.34355232
127	0x3e1df143	0.15424065
128	0x3d5244af	0.051335033
129	0x3dd80ad4	0.1054894
130	0x3b102ec3	0.0022000528
131	0x3e564c0d	0.20927449
132	0xbf8d77a6	-1.1052139
133	0x3f9cae2b	1.2240652
134	0xbf8de444	-1.1085286
135	0xbe7e10dd	-0.2481112
136	0xbfce0517	-1.6095303
137	0xbe98ffc1	-0.29882625
138	0xbf2fc4db	-0.6865975
139	0xbecebf66	-0.403804
140	0x3e9688e2	0.29401308
141	0x3f144a0d	0.5792549
142	0xbfdbb02d	-1.716314
143	0xc0026cdc	-2.0378942
144	0x3e224cb3	0.15849571
145	0x3ceb0a8d	0.028691554
146	0x3d8badb8	0.068202436
147	0xbf145149	-0.5793653
148	0x3f6a3829	0.91491944
149	0xc008f385	-2.1398633
150	0x3e783cc0	0.24241924
151	0x3dc002ca	0.09375532
152	0x3e3a55ec	0.18196839
153	0x3eb3d564	0.35123742
154	0x3e331107	0.17486964
155	0x3dc60a85	0.09669975
156	0x3e475dea	0.19469419
157	0x3cec5b19	0.028852032
158	0xbd85fd02	-0.06542398
159	0x3e15b138	0.14618385
160	0xbba5fa8d	-0.0050652684
161	0x3ecea1f3	0.40357932
162	0x3e9d0120	0.3066492
163	0x3e0605a7	0.13088094
164	0x3da23827	0.079208665
165	0x3f6da56b	0.9283053
166	0xbfa37714	-1.2770715
167	0x3eaff742	0.3436833
168	0xbf721fc4	-0.9457972
169	0xbed3ddc3	-0.41380128
170	0xbe2e9b77	-0.17051493
171	0x3e369795	0.17831261
172	0x3d924b89	0.071433134
173	0x3d40d058	0.047073692
174	0xbf92b66c	-1.1461921
175	0xc0290564	-2.640954
176	0x3f7ccc79	0.987495
177	0x3d1f1587	0.03883889
178	0xbb877f86	-0.004135075
179	0xbabf7034	-0.0014605583

bias f4 [60]
0	0xbd334911	-0.043770853
1	0xbe93115d	-0.28724185
2	0xbe642050	-0.22277951
3	0xbdabb2fc	-0.08383748
4	0xbe6a54e7	-0.2288395
5	0x3f927b98	1.1443968
6	0xbebbfd15	-0.36716524
7	0x40600b5e	3.5006938
8	0xbf49ae07	-0.7878117
9	0xbdb80c38	-0.089867055
10	0xbe9e36ea	-0.3090127
11	0x3fa18e73	1.2621597
12	0xbe90518c	-0.28187215
13	0xbeafaf95	-0.34313646
14	0xbea27498	-0.3172958
15	0xbe29ffb5	-0.1660145
16	0xbddfc64b	-0.10926493
17	0xbe84450f	-0.25833938
18	0xbf392d91	-0.72335154
19	0xbdf7e498	-0.12104148
20	0x40022fc9	2.0341666
21	0xbd28b910	-0.041192114
22	0xbf0d04e0	-0.55085564
23	0xbe7614d4	-0.24031383
24	0xbe5e1d0d	-0.2169077
25	0x4012fb31	2.2965815
26	0xbed5f2c7	-0.41786787
27	0x3ece9b89	0.4035304
28	0x3b722013	0.0036945387
29	0xbe72ccf7	-0.23711
30	0xbdeb1594	-0.11478725
31	0xbe87e728	-0.26543546
32	0xbe98f98e	-0.29877895
33	0xbe2aa0cb	-0.166629
34	0xbe3a77f8	-0.18209827
35	0x3eccbf42	0.39989668
36	0x3f48cc98	0.78437185
37	0xbe91e4d2	-0.2849489
38	0x3faa773e	1.331764
39	0x3f1fd460	0.62433434
40	0x3fd7c14d	1.6855866
41	0xbef4c549	-0.47806767
42	0xbdeef35c	-0.11667511
43	0xbea1ea0a	-0.3162387
44	0xbf0ef501	-0.55842596
45	0xbf18780a	-0.59558165
46	0x3e418c81	0.18901254
47	0xbee435c8	-0.44572282
48	0xbe898e63	-0.26866445
49	0xbe8c3bcd	-0.27389374
50	0xbea9ddbe	-0.33176988
51	0xbda308c0	-0.07960653
52	0xbe303015	-0.17205842
53	0xbe8a1736	-0.26970834
54	0xbe75ce8e	-0.24004576
55	0xbf5e1087	-0.8674397
56	0x3e91238d	0.28347436
57	0xbe023957	-0.12717186
58	0xbf8ab96e	-1.0837839
59	0xbe8ae282	-0.27125937

weight f4 [60, 60]
0	0xbd3589dc	-0.044320926
1	0xbd395213	-0.045244288
2	0xbd34c763	-0.044135462
3	0xbd6792a8	-0.056536347
4	0xbd3589c1	-0.044320825
5	0xbdb264b8	-0.08710617
6	0xbdd47f5f	-0.103758566
7	0xbde7b3b2	-0.11313571
8	0xbccfa483	-0.025347
9	0xbcf2ca4a	-0.029637475
10	0xbd2ae02a	-0.041717686
11	0xbd568d97	-0.052381124
12	0xbd3f02da	-0.04663358
13	0xbd0ffb32	-0.035151668
14	0xbd1bc20a	-0.038026847
15	0xbd40451b	-0.046940904
16	0xbd3ab7b6	-0.045585357
17	0xbd2f5d21	-0.042813424
18	0xbdf8407b	-0.12121674
19	0xbd3e8be4	-0.04652013
20	0xbd9266ab	-0.071484886
21	0xbd6cc7a8	-0.057807595
22	0xbddd0b2a	-0.10793145
23	0xbd3306dd	-0.043707717
24	0xbd35de9f	-0.04440176
25	0xbd9f666c	-0.07783207
26	0xbdb243f9	-0.08704371
27	0xbd1564bb	-0.036473017
28	0xbd8364e5	-0.064157285
29	0xbd31d5a3	-0.04341663
30	0xbd3cb977	-0.04607531
31	0xbd2669f9	-0.040628407
32	0xbd3157bc	-0.04329656
33	0xbd2ce1a7	-0.042207386
34	0xbd52597f	-0.05135488
35	0xbdeb0d8b	-0.114771925
36	0xbd4c9709	-0.049948726
37	0xbd2e212c	-0.042512104
38	0xbde24eb2	-0.11050166
39	0xbd9683a1	-0.07349325
40	0xbd7daf9c	-0.061935052
41	0xbd15ee9b	-0.036604505
42	0xbd37cf28	-0.044875294
43	0xbd2a2ef8	-0.0415487
44	0xbdaa3e26	-0.08312635
45	0xbd878e13	-0.066188954
46	0xbdae9b4c	-0.08525714
47	0xbdc75394	-0.09732738
48	0xbd357404	-0.044300094
49	0xbde65c91	-0.112481244
50	0xbd1c7998	-0.0382019
51	0xbd37fcfd	-0.044919003
52	0xbd4a3ad8	-0.049372524
53	0xbd2106f1	-0.03931326
54	0xbd2919f8	-0.04128453
55	0xbce26378	-0.027635321
56	0xbde199d5	-0.11015669
57	0xbd479746	-0.04872825
58	0xbd83b70a	-0.06431396
59	0xbd460dd7	-0.048353042
60	0xbd358e51	-0.044325177
61	0xbd3955b4	-0.04524775
62	0xbd34caeb	-0.04413883
63	0xbd67962c	-0.0565397
64	0xbd358ced	-0.04432385
65	0xbdb26b3e	-0.08711861
66	0xbdd48475	-0.10376827
67	0xbde7b41b	-0.11313649
68	0xbccfae01	-0.025351526
69	0xbcf2d7ec	-0.029643975
70	0xbd2ae35f	-0.041720744
71	0xbd5692a1	-0.05238593
72	0xbd3f0650	-0.04663688
73	0xbd0ffed2	-0.035155125
74	0xbd1bc5d2	-0.038030453
75	0xbd404876	-0.046944104
76	0xbd3abbbd	-0.045589197
77	0xbd2f60e4	-0.04281701
78	0xbdf83fe6	-0.12121563
79	0xbd3e9005	-0.046524066
80	0xbd926869	-0.07148821
81	0xbd6ccd69	-0.057813082
82	0xbddd0ed9	-0.107938476
83	0xbd330a72	-0.043711133
84	0xbd35e296	-0.044405542
85	0xbd9f675a	-0.077833846
86	0xbdb24547	-0.0870462
87	0xbd1568f8	-0.03647706
88	0xbd8366cf	-0.064160936
89	0xbd31d96f	-0.04342025
90	0xbd3cbd21	-0.046078805
91	0xbd266de9	-0.040632162
92	0xbd315b30	-0.043299854
93	0xbd2ce5cd	-0.042211343
94	0xbd525d0c	-0.051358268
95	0xbdeb0dfe	-0.11477278
96	0xbd4c9e51	-0.04995567
97	0xbd2e2426	-0.042514943
98	0xbde25233	-0.110508345
99	0xbd968665	-0.073498525
100	0xbd7db79a	-0.061942674
101	0xbd15f22c	-0.036607906
102	0xbd37d360	-0.044879317
103	0xbd2a327d	-0.041552056
104	0xbdaa3f42	-0.08312847
105	0xbd878f67	-0.06619149
106	0xbdae9c08	-0.08525854
107	0xbdc757ab	-0.09733518
108	0xbd3577ba	-0.044303633
109	0xbde65fee	-0.11248766
110	0xbd1c7d55	-0.038205463
111	0xbd380138	-0.044923037
112	0xbd4a3ede	-0.04937636
113	0xbd210a88	-0.039316684
114	0xbd291df5	-0.041288335
115	0xbce26c1f	-0.027639447
116	0xbde19a7b	-0.11015793
117	0xbd479b34	-0.048731998
118	0xbd83b783	-0.064314865
119	0xbd461160	-0.048356414
120	0x3e4957d6	0.19662413
121	0x3eb118b0	0.34589148
122	0x3ea7b67d	0.32756415
123	0x3efdb96b	0.49555525
124	0x3e94b339	0.29042986
125	0xbf9066bf	-1.1281356
126	0xbee5d90e	-0.44892162
127	0x3eaf9199	0.3429077
128	0xbf07e40e	-0.5308236
129	0xbe5cf2ab	-0.21576945
130	0x3e70ac38	0.23503196
131	0xbe30701e	-0.1723027
132	0x3ecedf55	0.40404764
133	0x3c876806	0.016529094
134	0x3e3d8c9a	0.18510666
135	0x3ead3141	0.3382664
136	0x3e966207	0.29371664
137	0x3e9f375e	0.3109693
138	0x3e8261dc	0.25465286
139	0x3e936317	0.28786537
140	0x3d9e2e18	0.077236354
141	0x3e46c3d4	0.1941064
142	0x3d868128	0.06567603
143	0x3ea4f716	0.32219762
144	0x3e91b9bc	0.28462017
145	0x3e0f25a5	0.13979204
146	0x3f084622	0.53232014
147	0xbf512d4a	-0.8170973
148	0x3f09f082	0.5388261
149	0x3ea3cd47	0.31992552
150	0x3eb2bf7b	0.34911713
151	0x3e505f50	0.20348859
152	0x3e9eca6c	0.3101381
153	0x3e534281	0.20630838
154	0x3ef217eb	0.47283873
155	0x3f3de8b4	0.741832
156	0xbee09ff6	-0.4387204
157	0x3db59bcc	0.088676065
158	0xbf00eb5d	-0.50359136
159	0xbee1dd83	-0.44114313
160	0xbfdea600	-1.7394409
161	0xbe0b4684	-0.13601118
162	0x3e76e441	0.2411051
163	0x3e83dbf5	0.2575375
164	0x3f0aadde	0.5417155
165	0xbcd143b5	-0.02554498
166	0x3f2946ec	0.66123843
167	0xbeed9087	-0.46399328
168	0x3ea8e0ab	0.32983908
169	0x3e6df4a7	0.23237859
170	0x3e2c3f59	0.1682104
171	0x3e7bd9aa	0.24594751
172	0x3ebc806a	0.36816722
173	0x3e332504	0.17494589
174	0x3e4f6f92	0.20257404
175	0xbea988d8	-0.33112216
176	0x3f3c1a68	0.7347779
177	0x3ea40473	0.32034644
178	0xbee017a4	-0.43768036
179	0x3eece700	0.4626999
180	0xbd358a01	-0.044321064
181	0xbd395213	-0.045244288
182	0xbd34c79c	-0.044135675
183	0xbd67928b	-0.05653624
184	0xbd358a2f	-0.044321235
185	0xbdb2651a	-0.0871069
186	0xbdd47edb	-0.10375758
187	0xbde7b5bd	-0.11313961
188	0xbccfa98b	-0.0253494
189	0xbcf2d7af	-0.029643862
190	0xbd2ae07e	-0.041718
191	0xbd5691b5	-0.05238505
192	0xbd3f02f9	-0.046633694
193	0xbd0ffb6f	-0.035151895
194	0xbd1bc207	-0.038026836
195	0xbd404551	-0.046941105
196	0xbd3ab7d8	-0.045585483
197	0xbd2f5d44	-0.042813554
198	0xbdf83de7	-0.12121182
199	0xbd3e8c04	-0.046520248
200	0xbd9268e9	-0.07148916
201	0xbd6cc846	-0.057808183
202	0xbddd0c39	-0.10793347
203	0xbd330705	-0.043707866
204	0xbd35dea2	-0.044401772
205	0xbd9f68a7	-0.07783633
206	0xbdb2445d	-0.087044455
207	0xbd1560b7	-0.036469188
208	0xbd8364c1	-0.06415702
209	0xbd31d5ba	-0.043416716
210	0xbd3cb9c0	-0.046075583
211	0xbd2669e3	-0.040628325
212	0xbd3157e2	-0.043296702
213	0xbd2ce1a9	-0.042207394
214	0xbd525981	-0.05135489
215	0xbdeb0c26	-0.114769265
216	0xbd4c99b5	-0.049951274
217	0xbd2e21ed	-0.042512823
218	0xbde24cd1	-0.11049808
219	0xbd968161	-0.07348896
220	0xbd7dada2	-0.061933167
221	0xbd15ef3b	-0.0366051
222	0xbd37cf26	-0.044875287
223	0xbd2a2f0f	-0.041548785
224	0xbdaa3e74	-0.08312693
225	0xbd878ccc	-0.06618652
226	0xbdae9a8b	-0.085255705
227	0xbdc75244	-0.09732488
228	0xbd357403	-0.04430009
229	0xbde65d02	-0.112482086
230	0xbd1c7997	-0.038201895
231	0xbd37fd06	-0.044919036
232	0xbd4a3ac5	-0.049372453
233	0xbd210723	-0.039313447
234	0xbd2919f1	-0.041284505
235	0xbce25bf6	-0.027631741
236	0xbde19896	-0.110154316
237	0xbd479756	-0.04872831
238	0xbd83b682	-0.06431295
239	0xbd460dec	-0.04835312
240	0xbd358b50	-0.044322312
241	0xbd39545f	-0.04524648
242	0xbd34c9c1	-0.04413772
243	0xbd67954d	-0.05653887
244	0xbd358c72	-0.044323392
245	0xbdb264df	-0.08710646
246	0xbdd480b8	-0.10376114
247	0xbde7b48a	-0.11313732
248	0xbccfa912	-0.025349174
249	0xbcf2c5e9	-0.029635387
250	0xbd2ae2b3	-0.041720103
251	0xbd568e48	-0.052381784
252	0xbd3f0559	-0.04663596
253	0xbd0ffce9	-0.035153303
254	0xbd1bc3a0	-0.03802836
255	0xbd4047ad	-0.046943355

bias f4 [60]
0	0xbda806d6	-0.08204429
1	0xbda80ae5	-0.08205203
2	0x3f3a9394	0.72881436
3	0xbda807a0	-0.08204579
4	0xbda80850	-0.082047105
5	0xbda809ed	-0.08205018
6	0xbda80a4f	-0.08205091
7	0x3f4882da	0.78324664
8	0xbda8093b	-0.082048856
9	0xbda80b55	-0.082052864
10	0xbda80d70	-0.08205688
11	0xbda8093a	-0.08204885
12	0xbda80962	-0.08204915
13	0xbda8094f	-0.082049005
14	0xbda80ad4	-0.0820519
15	0xbdef0a24	-0.11671856
16	0xbda805df	-0.08204245
17	0xbda80abe	-0.08205174
18	0xbe24b4f1	-0.16084649
19	0xbda80d1a	-0.08205624
20	0xbda80785	-0.08204559
21	0xbda8096e	-0.082049236
22	0xbda80a6f	-0.08205115
23	0xbda80e1c	-0.08205816
24	0xbda80cd8	-0.08205575
25	0xbda80b76	-0.08205311
26	0x3e742ddc	0.23845619
27	0xbda80930	-0.082048774
28	0xbda80956	-0.08204906
29	0xbda80799	-0.08204574
30	0xbda80799	-0.08204574
31	0xbda806fb	-0.082044564
32	0xbda80b64	-0.082052976
33	0xbda80a6d	-0.082051136
34	0xbda807ca	-0.08204611
35	0xbda80990	-0.08204949
36	0xbda80e06	-0.082058
37	0x3f1aa03e	0.6040076
38	0x3bd63bde	0.0065378984
39	0xbda80bd1	-0.08205379
40	0xbda8079f	-0.082045786
41	0xbda80852	-0.08204712
42	0xbda807da	-0.082046226
43	0xbda80a7a	-0.08205123
44	0xbda80c69	-0.08205492
45	0xbe13d820	-0.14437914
46	0xbda8088d	-0.08204756
47	0xbda807bd	-0.08204601
48	0x3d100973	0.03516526
49	0xbda80980	-0.08204937
50	0x3ee51c6c	0.44748247
51	0xbe864b71	-0.26229432
52	0xbda80705	-0.08204464
53	0xbda80b40	-0.08205271
54	0xbda809e6	-0.08205013
55	0xbda80a50	-0.08205092
56	0xbda80c21	-0.082054384
57	0xbda80b9a	-0.08205338
58	0xbda80aaf	-0.08205163
59	0xbda80adf	-0.082051985

weight f4 [60, 60]
0	0x3b9f6b8b	0.004865115
1	0x3b9f2e47	0.0048578116
2	0xbe248f59	-0.16070308
3	0x3b9f1f15	0.004856
4	0x3b9f7459	0.0048661646
5	0x3b9f2d28	0.004857678
6	0x3b9f0ffb	0.0048542
7	0xbe1750a3	-0.14776854
8	0x3b9f48a5	0.004860955
9	0x3b9f6d7b	0.004865346
10	0x3b9f3c28	0.004859466
11	0x3b9f4960	0.004861042
12	0x3b9edb89	0.004847948
13	0x3b9f987a	0.0048704715
14	0x3b9f2cd4	0.004857639
15	0x3e17ab2b	0.14811389
16	0x3b9f4c1c	0.004861368
17	0x3b9f3903	0.0048590912
18	0x3d309cf0	0.043118417
19	0x3b9f6a8f	0.0048649977
20	0x3b9f47e5	0.0048608654
21	0x3b9f2ca3	0.004857616
22	0x3b9f2d92	0.0048577273
23	0x3b9f3cc7	0.00485954
24	0x3b9ef7dd	0.004851325
25	0x3b9f17e7	0.0048551443
26	0x3f1949a4	0.5987799
27	0x3b9fa91c	0.0048724543
28	0x3b9f745b	0.0048661656
29	0x3b9f69cd	0.0048649074
30	0x3b9f6328	0.0048641153
31	0x3b9f5030	0.004861854
32	0x3b9f58be	0.004862874
33	0x3b9f5283	0.004862131
34	0x3b9f3a9a	0.004859281
35	0x3b9f63a2	0.004864172
36	0x3b9f0714	0.0048531387
37	0x3f1a2581	0.60213476
38	0xbfeac03f	-1.8339919
39	0x3b9fdfa6	0.004878956
40	0x3b9f52e5	0.0048621767
41	0x3b9f4c72	0.004861408
42	0x3b9fa8a5	0.004872399
43	0x3b9f4377	0.0048603374
44	0x3b9f19c3	0.004855366
45	0xbeec4f3e	-0.46154207
46	0x3b9f00cc	0.00485239
47	0x3b9f31ab	0.004858216
48	0x3f4a0e53	0.7892811
49	0x3b9f46f4	0.004860753
50	0x3ef2451b	0.47318348
51	0xbd46d438	-0.04854223
52	0x3b9f61be	0.0048639467
53	0x3b9f3c08	0.004859451
54	0x3b9f6ce7	0.004865277
55	0x3b9f45cd	0.004860616
56	0x3b9f0727	0.0048531475
57	0x3b9f8402	0.0048680315
58	0x3b9f48ef	0.0048609893
59	0x3b9f5c86	0.0048633246
60	0x3bd4df19	0.006496322
61	0x3bd4ea61	0.0064976667
62	0xbd37f67f	-0.04491281
63	0x3bd4d670	0.0064952895
64	0x3bd4e314	0.0064967964
65	0x3bd5015d	0.0065004067
66	0x3bd4f13e	0.006498485
67	0xbeb76d03	-0.35825357
68	0x3bd4e120	0.0064965636
69	0x3bd4dbd2	0.006495931
70	0x3bd4e056	0.0064964695
71	0x3bd4df75	0.0064963647
72	0x3bd4e9bb	0.0064975894
73	0x3bd4e67b	0.006497202
74	0x3bd4f51c	0.006498946
75	0x3c31aa24	0.010843787
76	0x3bd4c841	0.0064935987
77	0x3bd4df45	0.0064963424
78	0xbd311150	-0.0432294
79	0x3bd4d99d	0.006495668
80	0x3bd4e17d	0.006496607
81	0x3bd4e7e6	0.006497371
82	0x3bd4f57d	0.006498991
83	0x3bd4fdab	0.006499966
84	0x3bd4f95a	0.0064994516
85	0x3bd4d081	0.006494582
86	0xbb6a03ad	-0.0035707757
87	0x3bd4d148	0.006494675
88	0x3bd4b821	0.0064916764
89	0x3bd4e31a	0.006496799
90	0x3bd4d6d6	0.006495337
91	0x3bd4cc16	0.0064940555
92	0x3bd4f429	0.0064988327
93	0x3bd4dec8	0.006496284
94	0x3bd4ed8b	0.006498044
95	0x3bd4d8ca	0.00649557
96	0x3bd4e94a	0.006497537
97	0xbd70220d	-0.058626223
98	0xbd0401ad	-0.03222816
99	0x3bd4c049	0.0064926487
100	0x3bd4dbe6	0.0064959405
101	0x3bd4dbf5	0.0064959475
102	0x3bd4d611	0.0064952453
103	0x3bd4d2ed	0.006494871
104	0x3bd4f5bc	0.0064990204
105	0xbcfcd2fc	-0.030862324
106	0x3bd4f5a9	0.0064990115
107	0x3bd4e947	0.0064975354
108	0xbda3e75f	-0.08003115
109	0x3bd4fbf5	0.006499762
110	0xbcb37fb5	-0.021911481
111	0xbda49bdf	-0.080375426
112	0x3bd4d090	0.006494589
113	0x3bd4ce27	0.006494302
114	0x3bd4d9e7	0.0064957025
115	0x3bd4cfff	0.0064945216
116	0x3bd4ece9	0.0064979685
117	0x3bd4c3b4	0.006493056
118	0x3bd4eeeb	0.006498208
119	0x3bd4f3d9	0.0064987955
120	0x3c5638a7	0.01307503
121	0x3c563292	0.01307358
122	0xbe873cfd	-0.26413718
123	0x3c56392f	0.013075157
124	0x3c564054	0.01307686
125	0x3c5647bc	0.013078626
126	0x3c563c7e	0.013075946
127	0xbf86673c	-1.0500255
128	0x3c5643b2	0.013077663
129	0x3c5637fe	0.013074873
130	0x3c56252c	0.013070386
131	0x3c562ae8	0.013071753
132	0x3c563d7f	0.013076185
133	0x3c563f11	0.01307656
134	0x3c563f7a	0.013076657
135	0x3e36993b	0.1783189
136	0x3c564139	0.013077074
137	0x3c56412d	0.013077063
138	0x3f3c668c	0.73593974
139	0x3c5646ca	0.013078401
140	0x3c563485	0.013074045
141	0x3c5638a7	0.01307503
142	0x3c5640e8	0.013076998
143	0x3c562738	0.013070874
144	0x3c56317b	0.0130733205
145	0x3c563b74	0.013075698
146	0x3da53072	0.08065881
147	0x3c563e48	0.013076372
148	0x3c563dea	0.013076285
149	0x3c563a48	0.013075419
150	0x3c563d18	0.013076089
151	0x3c563f2e	0.013076587
152	0x3c56247e	0.013070224
153	0x3c562e59	0.013072574
154	0x3c562ed2	0.013072686
155	0x3c562b9e	0.013071923
156	0x3c563547	0.013074226
157	0x3ead0889	0.33795574
158	0xbe8caf24	-0.27477372
159	0x3c5633d2	0.013073878
160	0x3c5644a1	0.013077886
161	0x3c563f33	0.013076591
162	0x3c561c43	0.013068262
163	0x3c563ae0	0.01307556
164	0x3c563557	0.013074241
165	0xbe94360f	-0.28947493
166	0x3c5636cd	0.013074589
167	0x3c563578	0.013074271
168	0x3ed37553	0.4130045
169	0x3c563779	0.013074749
170	0x3e359b8d	0.17735119
171	0x3f37a8cc	0.7174194
172	0x3c56459d	0.013078121
173	0x3c563f30	0.0130765885
174	0x3c5638aa	0.013075033
175	0x3c563f93	0.013076681
176	0x3c562024	0.013069186
177	0x3c563048	0.013073035
178	0x3c56476f	0.0130785545
179	0x3c5638a3	0.013075027
180	0x3b35382f	0.0027651896
181	0x3b355808	0.002767088
182	0x3b9411d5	0.0045187273
183	0x3b35342a	0.00276495
184	0x3b352d43	0.0027645386
185	0x3b35693a	0.0027681128
186	0x3b354290	0.0027658083
187	0xbe8b5df6	-0.27220124
188	0x3b352ba2	0.0027644415
189	0x3b35331e	0.0027648876
190	0x3b352074	0.0027637752
191	0x3b351863	0.0027632944
192	0x3b353d33	0.0027654886
193	0x3b3539b2	0.0027652797
194	0x3b3551dc	0.00276672
195	0x3bcedea1	0.0063131605
196	0x3b3507c9	0.0027623049
197	0x3b352d8e	0.002764556
198	0xbd8be837	-0.06831401
199	0x3b353b2d	0.002765368
200	0x3b354748	0.0027660895
201	0x3b353515	0.0027650048
202	0x3b354b5c	0.0027663326
203	0x3b356724	0.0027679885
204	0x3b354d21	0.002766438
205	0x3b350fb9	0.002762778
206	0xba9f990a	-0.0012176346
207	0x3b352774	0.0027641924
208	0x3b34dd5b	0.0027597758
209	0x3b3548f6	0.0027661896
210	0x3b3513dd	0.0027630248
211	0x3b351b31	0.0027634616
212	0x3b3537ac	0.0027651591
213	0x3b3521e5	0.002763861
214	0x3b3537da	0.0027651698
215	0x3b350c0a	0.0027625584
216	0x3b3539b6	0.0027652807
217	0xbdf4120c	-0.11917505
218	0xbe053fcb	-0.13012616
219	0x3b34fbd1	0.0027615915
220	0x3b352bb8	0.0027644467
221	0x3b352c68	0.0027644876
222	0x3b3519b4	0.0027633728
223	0x3b35143d	0.002763047
224	0x3b3560c8	0.0027676094
225	0xbd3fccde	-0.046826236
226	0x3b35547d	0.0027668767
227	0x3b354ad5	0.0027663012
228	0xbd137234	-0.035997584
229	0x3b35617d	0.0027676516
230	0xbdaff014	-0.08590713
231	0x3b9ace91	0.0047243317
232	0x3b350e39	0.0027626886
233	0x3b351523	0.0027631007
234	0x3b3513cb	0.0027630206
235	0x3b350e0d	0.0027626783
236	0x3b35350e	0.0027650031
237	0x3b34f8d9	0.0027614145
238	0x3b3573bf	0.0027687398
239	0x3b35505f	0.0027666313
240	0x3c92c839	0.01791774
241	0x3c92d219	0.017922448
242	0x3e50a869	0.20376743
243	0x3c92c9cd	0.017918492
244	0x3c92c086	0.017914068
245	0x3c92c39d	0.017915541
246	0x3c92c6ac	0.017917
247	0x3db5c51d	0.08875487
248	0x3c92cf24	0.017921038
249	0x3c92d708	0.0179248
250	0x3c92d703	0.017924791
251	0x3c92d73b	0.017924896
252	0x3c92cd90	0.017920285
253	0x3c92d0ce	0.017921831
254	0x3c92cc2a	0.017919619
255	0x3f36e5e6	0.7144455

bias f4 [60]
0	0x3d1587eb	0.036506575
1	0x3df6e0dc	0.12054607
2	0xbe5c5983	-0.21518521
3	0x3d1d14cf	0.038349923
4	0x3e6bcca5	0.23027284
5	0xbc572b8b	-0.01313294
6	0xbefddfca	-0.495848
7	0xbc868e3a	-0.01642524
8	0x3ccca640	0.024981618
9	0xbacc09c1	-0.0015566872
10	0xbcaa4968	-0.020786956
11	0x3d8b30f8	0.067964494
12	0x3d6db812	0.05803687
13	0x3e2e4799	0.170195
14	0xbed1560a	-0.40885955
15	0x3dd2d4b1	0.10294474
16	0xbeb345db	-0.35014233
17	0x3c866cfc	0.01640939
18	0x3d95cc61	0.07314373
19	0xbe7d5352	-0.24738815
20	0x3dd9439f	0.10608601
21	0xbdae07f6	-0.08497612
22	0xbc79862f	-0.015229746
23	0xbc86b110	-0.016441852
24	0xbeaa9648	-0.3331778
25	0xbf05c3e6	-0.5225204
26	0x3d9c5684	0.07633689
27	0x3e10a7e4	0.14126545
28	0x3e87a80a	0.2649539
29	0xbc5c939b	-0.013462926
30	0x3da9ec2c	0.08296999
31	0x3f0ca1e3	0.5493452
32	0xbc547b0b	-0.012968789
33	0xbf0c9437	-0.5491366
34	0xbc87f97f	-0.016598461
35	0x3e0feff8	0.14056385
36	0x3dcdd0a6	0.10049562
37	0x3e73fd55	0.23827107
38	0x3da32db8	0.079677045
39	0xbc213027	-0.009838141
40	0xbdbe11a5	-0.09280709
41	0x3cf03d98	0.029326245
42	0x3ea54b42	0.3228398
43	0x3d4aabc6	0.049480222
44	0x3dcc3bad	0.0997232
45	0x3e24a197	0.16077267
46	0xbbfc81c7	-0.0077059004
47	0xbdbdf16e	-0.09274565
48	0xbbebdfda	-0.007198316
49	0xbc801624	-0.015635557
50	0xbc7a5fdb	-0.015281643
51	0x3c3bc3ce	0.011460258
52	0x3ee5b381	0.44863513
53	0x3eea6a26	0.4578411
54	0x3e6840b6	0.22680935
55	0xbcb15436	-0.0216466
56	0x3dd5be1a	0.104366496
57	0xbc904e4b	-0.017615458
58	0xbc662ae8	-0.014048316
59	0xbc8696b4	-0.016429283

weight f4 [60, 60]
0	0xbdf98a41	-0.12184573
1	0xbca4cd32	-0.020117376
2	0x3d67fa17	0.05663499
3	0x3b3e4f8b	0.002903911
4	0xbf73576d	-0.95055276
5	0xbc2a884c	-0.010408472
6	0x3bde98ef	0.0067931334
7	0xbc1acfe6	-0.009448981
8	0xbd1b3c14	-0.03789909
9	0x3dba3bf8	0.090934694
10	0xbca1a008	-0.01972963
11	0xbd0e3ca0	-0.034725785
12	0xbd1b0fb1	-0.03785676
13	0x3d996579	0.074900575
14	0xbfa7cb41	-1.3108903
15	0x3dba526b	0.09097751
16	0xbf181a06	-0.5941471
17	0xbd0fb3d0	-0.035083592
18	0xbd31987b	-0.043358307
19	0xbd471094	-0.048599795
20	0x3e4d1dad	0.20030852
21	0xbe32b147	-0.17450438
22	0xbc3201f4	-0.0108647235
23	0xbc231f63	-0.009956214
24	0x3d4ab5aa	0.049489655
25	0xbd38c823	-0.04511274
26	0x3cd08025	0.02545173
27	0xbde62126	-0.11236791
28	0x3edf0c32	0.43563992
29	0xbe386eda	-0.18011037
30	0x39ae5a87	0.00033255314
31	0xbef14ee8	-0.47130513
32	0xbc24eb0e	-0.010065807
33	0x3eb05503	0.3443986
34	0xbc33d745	-0.010976617
35	0x3e53fa36	0.20700917
36	0x3cc09dd6	0.023512762
37	0x3e131baf	0.14366029
38	0xbf11bedb	-0.5693185
39	0xbc40bf81	-0.011764408
40	0xbebc10ed	-0.36731663
41	0xbd1c37d3	-0.038139176
42	0x3e9bc888	0.3042643
43	0xbd0e7c26	-0.034786366
44	0xbccc7897	-0.024959845
45	0xbccd0743	-0.025027877
46	0xbc4c7dab	-0.012481133
47	0xbec8ab39	-0.39193133
48	0xbc2c9be7	-0.010535217
49	0xbc255440	-0.010090888
50	0xbc0ce406	-0.008599287
51	0x3d9133f8	0.070899904
52	0x3ed306b0	0.4121604
53	0x3f025de4	0.50924516
54	0xbf2596b3	-0.64683074
55	0x3c941c4c	0.0180799
56	0x3d53287d	0.051552285
57	0xbc018176	-0.007904401
58	0xbf0f4d32	-0.55977166
59	0xbc1bec8d	-0.009516847
60	0xbd45dafa	-0.048304535
61	0xbb59e14a	-0.0033245855
62	0xbbe14fa6	-0.00687595
63	0xbb732427	-0.0037100406
64	0xbcdf53c6	-0.027261626
65	0xba849aa0	-0.0010116883
66	0xbd953c92	-0.072869435
67	0xba65c0e1	-0.0008764398
68	0xbb26ed62	-0.002547108
69	0xb95a6962	-0.00020829358
70	0xbaa1dfc2	-0.001235001
71	0xbb4ca11a	-0.0031223954
72	0xbb77dbd5	-0.003782024
73	0xbbb95cef	-0.0056568305
74	0xbd4e897f	-0.050424095
75	0xbc8917c7	-0.01673497
76	0xbd23f182	-0.04002524
77	0xbb19f594	-0.0023492323
78	0xbb5738f5	-0.0032840346
79	0x3a7fe865	0.00097621075
80	0xbc241cee	-0.010016663
81	0xbc8656f3	-0.016398882
82	0xba73982b	-0.0009292389
83	0xba574a0a	-0.0008212632
84	0xbd9a5e30	-0.07537496
85	0xbdd52c0e	-0.104087934
86	0xbb4f0e79	-0.003159432
87	0xbc1b79d4	-0.009489495
88	0xbd658fd4	-0.05604537
89	0xbd29dd90	-0.041471064
90	0xbbacdb5e	-0.005275174
91	0xbd7a31d8	-0.06108269
92	0xba80aaf1	-0.000981657
93	0xbbb579c5	-0.0055381977
94	0xba55d9bc	-0.000815775
95	0xbcacd5bb	-0.021098008
96	0xbb5737a7	-0.0032839568
97	0xbc86cd46	-0.016455304
98	0xbce9a664	-0.028521724
99	0xba9d6b59	-0.0012010142
100	0xbc958c26	-0.018255305
101	0xbb2e86bc	-0.00266306
102	0xbdd7f0a6	-0.10543947
103	0xbb3cfc34	-0.0028836848
104	0xbb576b2e	-0.003287028
105	0xbb6fe49a	-0.0036604763
106	0xbab80b9e	-0.0014041548
107	0xbb8ecd36	-0.004357959
108	0xbaac40e7	-0.0013141901
109	0xba6e9438	-0.0009101066
110	0xba678708	-0.0008832072
111	0xbbe676f8	-0.007033225
112	0xbd3f1c87	-0.046658065
113	0xbcdd78cb	-0.027035138
114	0xbe25b050	-0.16180539
115	0xba870582	-0.0010301324
116	0xbb87144f	-0.004122294
117	0xba589ebf	-0.0008263401
118	0xbcec0318	-0.028810069
119	0xba65c19e	-0.0008764508
120	0xbd45e37b	-0.048312645
121	0xbb5a825b	-0.0033341858
122	0xbbe08e34	-0.0068528894
123	0xbb739807	-0.0037169473
124	0xbcdf587c	-0.027263872
125	0xba8560c6	-0.0010175935
126	0xbd95408e	-0.072877035
127	0xba671cd3	-0.0008816246
128	0xbb27acaa	-0.0025585094
129	0xb959de4f	-0.00020777549
130	0xbaa1ee9b	-0.0012354435
131	0xbb4d5a7a	-0.0031334446
132	0xbb788661	-0.0037921893
133	0xbbb94d0b	-0.005654936
134	0xbd4e9992	-0.050439425
135	0xbc89038f	-0.01672533
136	0xbd2401ae	-0.040040664
137	0xbb1aaee2	-0.0023602773
138	0xbb57e8bf	-0.0032945124
139	0x3a80676c	0.0009796447
140	0xbc23e707	-0.010003812
141	0xbc865c80	-0.01640153
142	0xba7513be	-0.000934895
143	0xba587fed	-0.00082588085
144	0xbd9a5f1b	-0.07537671
145	0xbdd533e6	-0.104102895
146	0xbb4e7e92	-0.0031508547
147	0xbc1b46a3	-0.00947729
148	0xbd65907b	-0.05604599
149	0xbd29cfde	-0.041458003
150	0xbbacf3f2	-0.005278104
151	0xbd7a409f	-0.061096784
152	0xba816b19	-0.0009873837
153	0xbbb658e4	-0.005564796
154	0xba571b2a	-0.0008205647
155	0xbcacd825	-0.02109916
156	0xbb57dfbc	-0.0032939753
157	0xbc86ce7a	-0.016455878
158	0xbce9b5f6	-0.028529149
159	0xba9e4a52	-0.0012076593
160	0xbc957e03	-0.018248564
161	0xbb2f4530	-0.002674412
162	0xbdd7f023	-0.10543849
163	0xbb3db6b1	-0.0028948004
164	0xbb58182a	-0.0032973387
165	0xbb70832d	-0.003669928
166	0xbab8f9eb	-0.0014112567
167	0xbb8ec934	-0.0043574814
168	0xbaad2252	-0.0013209081
169	0xba7001c4	-0.00091555365
170	0xba68da67	-0.0008882642
171	0xbbe61ed5	-0.0070227184
172	0xbd3f17e5	-0.046653647
173	0xbcdd4f6c	-0.02701541
174	0xbe25b2e9	-0.1618153
175	0xba8733ae	-0.0010315084
176	0xbb86f906	-0.0041190414
177	0xba59d16d	-0.00083091
178	0xbcebf27c	-0.028802149
179	0xba671e61	-0.00088164775
180	0x3e9aae17	0.30210945
181	0x3cd8e656	0.02647702
182	0xbe960b6a	-0.29305583
183	0x3cb10e22	0.021613184
184	0x3d83a59a	0.0642807
185	0x3c892294	0.016740121
186	0xbea9acfb	-0.33139786
187	0x3c7a0986	0.01526106
188	0x3cb70272	0.022340033
189	0xbe20ede7	-0.15715753
190	0x3e8f4e26	0.2798931
191	0x3cca375f	0.024684606
192	0xbd38b25f	-0.045091983
193	0x3cc86b25	0.024465153
194	0x3ecdb9eb	0.40180907
195	0x3e1f3ec2	0.15551284
196	0xbe8758b2	-0.26434857
197	0x3cb812fd	0.022469992
198	0x3c65bffb	0.0140228225
199	0xbf61c66d	-0.881934
200	0xbcc3511b	-0.023842385
201	0xbd40c973	-0.047067117
202	0x3c8349f6	0.016026478
203	0x3c7834c8	0.015149303
204	0xbdc110fe	-0.09427069
205	0xbe4fb736	-0.20284733
206	0x3e01b3b5	0.12666209
207	0x3e838b4c	0.25692213
208	0x3e77b2c3	0.24189286
209	0xbe72ec22	-0.2372289
210	0x3c22a8c2	0.00992793
211	0xbd4b4bb4	-0.049632743
212	0x3c89a82b	0.016803822
213	0x3e92d626	0.28679007
214	0x3c7887cb	0.015169094
215	0xbd94c902	-0.07264902
216	0x3cfd9471	0.030954571
217	0x3c852713	0.016253984
218	0x3ee97415	0.45596376
219	0x3c951bea	0.018201787
220	0xbea165a9	-0.31522873
221	0x3cb6fc1b	0.02233701
222	0x3a3f4816	0.00072968134
223	0x3cd3a124	0.025833674
224	0x3ca6fc93	0.020384109
225	0xbc08d4f9	-0.008351558
226	0x3c995b8b	0.018720409
227	0x3eb4517b	0.35218415
228	0x3c9b8d7c	0.018988363
229	0x3c80a698	0.015704438
230	0x3c7fd5b6	0.0156149175
231	0x3db9d37c	0.090735406
232	0xbe240748	-0.16018403
233	0x3e7081f4	0.23487073
234	0x3db7331b	0.089452945
235	0x3c39f994	0.011351008
236	0xbd72766b	-0.059194963
237	0x3c72de00	0.014823437
238	0xbe3e762f	-0.18599771
239	0x3c7a5057	0.015277944
240	0xbd45e3a8	-0.048312813
241	0xbb5a4b3c	-0.0033309003
242	0xbbe0be6d	-0.006858638
243	0xbb736bfa	-0.0037143216
244	0xbcdf64d2	-0.027269755
245	0xba85195c	-0.0010154652
246	0xbd95417a	-0.07287879
247	0xba669cac	-0.00087971496
248	0xbb27702a	-0.0025549033
249	0xb959d8f3	-0.00020775553
250	0xbaa1d7df	-0.001234766
251	0xbb4d1cfb	-0.0031297791
252	0xbb787b7a	-0.0037915395
253	0xbbb95b37	-0.0056566256
254	0xbd4e94e9	-0.05043498
255	0xbc891395	-0.01673297

bias f4 [60]
0	0x3ed6946c	0.41910112
1	0xbd24fa4e	-0.04027777
2	0xbd24f975	-0.040276963
3	0x3e4c4b6d	0.19950648
4	0xbd24f90a	-0.040276565
5	0xbd24fc8c	-0.04027991
6	0xbd24fb58	-0.040278763
7	0xbd24f716	-0.040274702
8	0xbd24f75c	-0.040274963
9	0xbd250022	-0.04028333
10	0xbd24ff58	-0.040282577
11	0x3ec0a2b2	0.37624127
12	0xbd24fc37	-0.040279593
13	0xbd24fd6e	-0.040280752
14	0x3c2f6202	0.010704519
15	0xbd24f796	-0.04027518
16	0xbd24f900	-0.040276527
17	0xbd250100	-0.040284157
18	0xbd24fc49	-0.04027966
19	0x3ec2f61b	0.3807839
20	0xbd24fac4	-0.04027821
21	0x3d892af1	0.066976435
22	0xbd24f8f8	-0.040276498
23	0xbd24f842	-0.04027582
24	0xbd24ffd5	-0.040283043
25	0x3dfc8d3d	0.123316266
26	0x3ebca29d	0.36842814
27	0xbd2500b0	-0.04028386
28	0xbd24f8f8	-0.040276498
29	0xbd25036c	-0.040286466
30	0xbd25028d	-0.040285636
31	0xbd24f8d2	-0.040276356
32	0xbf58b852	-0.8465625
33	0xbd24fba6	-0.040279053
34	0xbd24ff74	-0.04028268
35	0xbd24f7bc	-0.04027532
36	0xbd24fa40	-0.04027772
37	0xbd24f80d	-0.040275622
38	0xbd24f7d5	-0.040275414
39	0xbd24fcb3	-0.040280055
40	0xbd250055	-0.04028352
41	0x3f225ec4	0.6342585
42	0xbd24f692	-0.04027421
43	0x3ddba7c2	0.10725357
44	0xbd24fb5b	-0.040278774
45	0xbd24faba	-0.040278174
46	0xbd24ff6f	-0.040282663
47	0xbe007fa6	-0.12548694
48	0xbd24fcf6	-0.040280305
49	0xbd24f906	-0.04027655
50	0x3e52fbd9	0.20603885
51	0xbd24fa30	-0.04027766
52	0xbd24ff07	-0.040282276
53	0xbd24fa56	-0.0402778
54	0xbd24f85e	-0.040275924
55	0xbd24f736	-0.04027482
56	0x3f03a40d	0.51422197
57	0xbd24fefb	-0.04028223
58	0xbd24ff7f	-0.040282723
59	0x3db95b4f	0.09050619

weight f4 [60, 60]
0	0x3edb4d1b	0.42832264
1	0x3b2ef5c2	0.0026696776
2	0x3b2e33a4	0.0026581073
3	0xbc4bacf5	-0.012431373
4	0x3b2e606f	0.0026607772
5	0x3b2e7e6c	0.0026625646
6	0x3b2ece98	0.0026673432
7	0x3b2ec8ee	0.0026670056
8	0x3b2edfb2	0.0026683626
9	0x3b2e8efe	0.0026635523
10	0x3b2ebba4	0.0026662135
11	0x3e9a39b0	0.30122137
12	0x3b2eeb69	0.0026690608
13	0x3b2e18e1	0.0026565122
14	0x3ee67e0c	0.4501804
15	0x3b2ed307	0.0026676075
16	0x3b2f001c	0.0026702946
17	0x3b2ef533	0.0026696443
18	0x3b2eb967	0.0026660801
19	0x3e98a018	0.29809642
20	0x3b2f0c8b	0.0026710357
21	0x3d96ba59	0.07359762
22	0x3b2ddcf7	0.002652941
23	0x3b2e1fd8	0.0026569273
24	0x3b2eed8a	0.0026691877
25	0x3e98190f	0.29706618
26	0x3ede98f7	0.43476078
27	0x3b2e719c	0.002661801
28	0x3b2f05fc	0.0026706448
29	0x3b275a34	0.0025535943
30	0x3b2f1503	0.0026715405
31	0x3b2ef072	0.002669361
32	0xbdd5ee30	-0.10445821
33	0x3b2d6063	0.0026455156
34	0x3b2d0af4	0.0026404234
35	0x3b2e809b	0.0026626948
36	0x3b2eb6b6	0.0026659197
37	0x3b2ec62e	0.0026668417
38	0x3b2ed221	0.002667554
39	0x3b2c02dd	0.0026246824
40	0x3b2eb39e	0.0026657353
41	0x3e518544	0.20460993
42	0x3b2e8665	0.0026630398
43	0x3ec07361	0.37588027
44	0x3b2ec5d1	0.00266682
45	0x3b2eb1f1	0.0026656354
46	0x3b2ee762	0.0026688208
47	0xbe52313c	-0.20526594
48	0x3b2f1341	0.0026714357
49	0x3b2edcaf	0.002668183
50	0x3e096884	0.13418776
51	0x3b2ebd41	0.0026663097
52	0x3b2ecaeb	0.0026671242
53	0x3b2de200	0.0026532412
54	0x3b2e9b4e	0.0026642862
55	0x3b2ec97b	0.0026670385
56	0x3ee345a8	0.4438908
57	0x3b2ebc21	0.0026662427
58	0x3b2eb37e	0.0026657279
59	0x3e94ffde	0.2910146
60	0x3c83d8d1	0.016094597
61	0xbb5d8fa5	-0.0033807543
62	0xbb5ddcec	-0.0033853604
63	0xbd8de2b3	-0.06928005
64	0xbb5dc0be	-0.0033836807
65	0xbb5d9601	-0.0033811333
66	0xbb5dbe16	-0.0033835224
67	0xbb5dab7d	-0.0033824139
68	0xbb5db3b1	-0.0033829028
69	0xbb5d9995	-0.0033813466
70	0xbb5da01c	-0.0033817356
71	0x3b14a293	0.002267991
72	0xbb5da3bf	-0.0033819524
73	0xbb5da26b	-0.0033818732
74	0x3c2b5228	0.010456599
75	0xbb5d99fc	-0.0033813706
76	0xbb5d9fca	-0.0033817166
77	0xbb5d851d	-0.0033801266
78	0xbb5dbb8d	-0.0033833713
79	0x3c5a9a4d	0.013342452
80	0xbb5d8f6b	-0.0033807408
81	0xbc1ad19e	-0.009449391
82	0xbb5dbbc5	-0.0033833843
83	0xbb5dc46c	-0.0033839
84	0xbb5d9f72	-0.003381696
85	0x3c2a0f51	0.010379628
86	0x3b98c88e	0.00466258
87	0xbb5da6b0	-0.0033821277
88	0xbb5da67b	-0.0033821154
89	0xbb5e309b	-0.0033903483
90	0xbb5d9f4d	-0.0033816874
91	0xbb5d9a46	-0.0033813878
92	0xbde4b26b	-0.11166843
93	0xbb5dc4eb	-0.0033839296
94	0xbb5dc2ea	-0.0033838102
95	0xbb5dad5d	-0.0033825256
96	0xbb5d8b28	-0.0033804867
97	0xbb5db40b	-0.0033829238
98	0xbb5d9fca	-0.0033817166
99	0xbb5dd33f	-0.0033847836
100	0xbb5dbc50	-0.0033834167
101	0xbd81f7ec	-0.063461155
102	0xbb5da7e6	-0.0033822
103	0x3c5a261c	0.01331475
104	0xbb5d8e3a	-0.0033806697
105	0xbb5db91c	-0.0033832258
106	0xbb5d94be	-0.003381058
107	0xbd0758de	-0.033043735
108	0xbb5d9270	-0.0033809207
109	0xbb5d8e36	-0.0033806688
110	0xbab1f5da	-0.0013577298
111	0xbb5da2a8	-0.0033818875
112	0xbb5d9943	-0.0033813275
113	0xbb5db7bf	-0.0033831445
114	0xbb5dbf51	-0.0033835957
115	0xbb5db47c	-0.00338295
116	0x3c52f609	0.012876042
117	0xbb5da907	-0.0033822672
118	0xbb5d93c8	-0.0033810008
119	0x3c949af3	0.018140292
120	0x3c8da45f	0.017290292
121	0xbb66999c	-0.0035186773
122	0xbb66e8e8	-0.0035234038
123	0xbd900658	-0.0703246
124	0xbb66cc25	-0.0035216894
125	0xbb66a11f	-0.003519125
126	0xbb66ca3d	-0.0035215758
127	0xbb66b6af	-0.0035204103
128	0xbb66bdab	-0.0035208266
129	0xbb66a4c7	-0.003519343
130	0xbb66ab87	-0.0035197453
131	0x3b5c48ee	0.0033612805
132	0xbb66addc	-0.0035198843
133	0xbb66aede	-0.0035199444
134	0x3c33d737	0.010976604
135	0xbb66a4df	-0.0035193486
136	0xbb66a939	-0.003519608
137	0xbb6690da	-0.0035181553
138	0xbb66c717	-0.0035213882
139	0x3c7467e5	0.0149173485
140	0xbb6699fb	-0.0035186994
141	0xbc11d09a	-0.008899832
142	0xbb66c864	-0.0035214657
143	0xbb66d030	-0.0035219304
144	0xbb66a95b	-0.0035196159
145	0x3c34b769	0.0110300565
146	0x3bbd8fbd	0.005784957
147	0xbb66b31b	-0.003520197
148	0xbb66b0ff	-0.0035200713
149	0xbb6744fa	-0.0035288916
150	0xbb66aa75	-0.0035196815
151	0xbb66a3e7	-0.0035192908
152	0xbde4924d	-0.11160717
153	0xbb66d21b	-0.0035220447
154	0xbb66d0c8	-0.0035219658
155	0xbb66b895	-0.0035205234
156	0xbb66959d	-0.0035184391
157	0xbb66bf28	-0.0035209153
158	0xbb66aa27	-0.0035196634
159	0xbb66e171	-0.0035229588
160	0xbb66c7b8	-0.0035214256
161	0xbd82e00f	-0.06390392
162	0xbb66b33c	-0.0035202047
163	0x3c71c9f4	0.014757622
164	0xbb669977	-0.0035186687
165	0xbb66c461	-0.0035212266
166	0xbb669ee0	-0.0035189912
167	0xbd113df6	-0.03545948
168	0xbb669cb6	-0.0035188622
169	0xbb6698b3	-0.003518623
170	0xba262580	-0.00063379854
171	0xbb66ade4	-0.0035198862
172	0xbb66a4c1	-0.0035193416
173	0xbb66c41a	-0.00352121
174	0xbb66cafc	-0.0035216203
175	0xbb66bf3a	-0.0035209195
176	0x3c605392	0.0136918
177	0xbb66b47a	-0.0035202787
178	0xbb669fc2	-0.0035190438
179	0x3c9e7137	0.019341094
180	0x3c5536f5	0.013013591
181	0xbb471465	-0.0030377146
182	0xbb475cb0	-0.0030420236
183	0xbd888406	-0.066658065
184	0xbb4741dc	-0.0030404245
185	0xbb47182f	-0.0030379405
186	0xbb473d04	-0.0030401358
187	0xbb472d65	-0.0030392047
188	0xbb4738f5	-0.003039894
189	0xbb471c28	-0.0030381773
190	0xbb472161	-0.0030384886
191	0xba07c136	-0.0005178632
192	0xbb472838	-0.0030388962
193	0xbb4720c9	-0.0030384532
194	0x3c17ac56	0.009257397
195	0xbb471ca2	-0.0030382057
196	0xbb47271a	-0.0030388297
197	0xbb470546	-0.0030368133
198	0xbb473c6e	-0.003040101
199	0x3c167993	0.009184259
200	0xbb47132b	-0.0030376415
201	0xbc319fa1	-0.010841281
202	0xbb4739df	-0.0030399484
203	0xbb4744f7	-0.0030406096
204	0xbb47252d	-0.0030387149
205	0x3c0f0e4e	0.008731438
206	0x3afb68b3	0.0019180983
207	0xbb4724fb	-0.0030387032
208	0xbb472aa7	-0.0030390413
209	0xbb4799d2	-0.0030456674
210	0xbb472163	-0.003038489
211	0xbb47206d	-0.0030384318
212	0xbde514d2	-0.11185612
213	0xbb4741de	-0.003040425
214	0xbb473d57	-0.0030401552
215	0xbb472eab	-0.0030392807
216	0xbb4710c2	-0.0030374979
217	0xbb4735a2	-0.0030396958
218	0xbb4723df	-0.003038637
219	0xbb474d63	-0.0030411116
220	0xbb473db8	-0.0030401777
221	0xbd7d2e62	-0.061811812
222	0xbb472957	-0.003038963
223	0x3c1a763b	0.009427602
224	0xbb47104b	-0.0030374702
225	0xbb473af1	-0.0030400122
226	0xbb471a8a	-0.0030380809
227	0xbcda3822	-0.026638094
228	0xbb471789	-0.0030379018
229	0xbb4711dd	-0.0030375638
230	0xbb590936	-0.0033117062
231	0xbb4724d0	-0.0030386932
232	0xbb471a60	-0.003038071
233	0xbb473687	-0.003039749
234	0xbb473fb0	-0.003040295
235	0xbb4737a8	-0.0030398164
236	0x3c331a39	0.010931545
237	0xbb472a51	-0.0030390213
238	0xbb4713ca	-0.0030376785
239	0x3c743d84	0.014907245
240	0x3c554407	0.013016707
241	0xbb4721e6	-0.0030385195
242	0xbb476a1f	-0.0030428243
243	0xbd889029	-0.06668121
244	0xbb474f3c	-0.0030412218
245	0xbb4725a1	-0.0030387419
246	0xbb474a6d	-0.0030409351
247	0xbb473ad8	-0.0030400064
248	0xbb474664	-0.0030406946
249	0xbb472993	-0.003038977
250	0xbb472ec6	-0.003039287
251	0xba097e69	-0.0005244972
252	0xbb4735a4	-0.0030396963
253	0xbb472e29	-0.0030392504
254	0x3c177dcc	0.009246301
255	0xbb472a02	-0.003039003

bias f4 [60]
0	0x3eed92c4	0.46401036
1	0xbd20c4f0	-0.039250314
2	0xbd171952	-0.03688938
3	0xbd35f84f	-0.04442626
4	0xbd35fedd	-0.04443251
5	0xbcee7e74	-0.029113032
6	0xbd37acfc	-0.044842705
7	0xbd216155	-0.039399464
8	0xbd35f6f0	-0.04442495
9	0xbd3e3228	-0.04643455
10	0x3ed70414	0.419953
11	0xbd3dfe93	-0.04638536
12	0x3e496408	0.19667065
13	0xbd3a7776	-0.045524083
14	0x3eb0298e	0.34406704
15	0xbd0aba37	-0.033868995
16	0xbd2c6ed3	-0.042097878
17	0xbd2f9be0	-0.042873263
18	0x3e94cb13	0.29061183
19	0xbd2e2160	-0.042512298
20	0x3c3a8b27	0.011385716
21	0xbd2f3cb3	-0.042782497
22	0x3f1961ff	0.59915155
23	0x3d7598fc	0.05996035
24	0xbd3de468	-0.046360403
25	0xbd2c2fd2	-0.042037793
26	0xbd3d11bf	-0.046159502
27	0xbd3bf7d8	-0.04589066
28	0x3c95be4d	0.018279219
29	0xbbde47f0	-0.006783478
30	0x3f046795	0.51720554
31	0xbd311e02	-0.04324151
32	0x3eed7cb3	0.463842
33	0x3d3de11c	0.04635726
34	0xbd36867f	-0.04456186
35	0xbd237dc2	-0.039914854
36	0xbd3e2c56	-0.046429
37	0x3f0d8572	0.55281746
38	0x3f194ef3	0.5988609
39	0x3cbfaafa	0.023396958
40	0x3d5f0e2f	0.054456886
41	0x3ef8a49b	0.48563084
42	0xbd0d1512	-0.034443922
43	0xbd2aa664	-0.04166259
44	0xbd19ea6d	-0.03757708
45	0x3e4314b4	0.19050866
46	0xbd1c8515	-0.038212854
47	0xbd36ddf7	-0.044645276
48	0xbd049e75	-0.03237768
49	0xbd209ca6	-0.03921189
50	0x3defb9fe	0.11705397
51	0x3f1717c6	0.5902065
52	0xbd3afd91	-0.045651976
53	0xbd3e1964	-0.046410933
54	0x3ed90c8f	0.42392394
55	0x3f38b540	0.72151566
56	0x3ec1fa94	0.37886488
57	0x3b6fe553	0.0036605194
58	0xbd37b9f2	-0.044855066
59	0x3e623aa5	0.22092684

weight f4 [60, 60]
0	0xbc745ea5	-0.014915143
1	0xbbffeb6c	-0.007810047
2	0xbc003638	-0.007825427
3	0xbbfef26b	-0.0077803633
4	0xbbfeef5b	-0.0077799982
5	0xbc012273	-0.0078817485
6	0xbbfee108	-0.0077782907
7	0xbbffe0be	-0.007808774
8	0xbbfeef66	-0.0077800034
9	0xbbfe9d92	-0.0077702487
10	0xbc6916d6	-0.014226636
11	0xbbfe9fb2	-0.007770502
12	0xbc2eb397	-0.010662935
13	0xbbfebf01	-0.0077742343
14	0xbc53d39c	-0.01292887
15	0xbc008ba0	-0.007845789
16	0xbbff5c3a	-0.0077929767
17	0xbbff3f6e	-0.007789544
18	0xbc43fe99	-0.011962556
19	0xbbff4cb7	-0.0077911275
20	0xbc07095a	-0.008241976
21	0xbbff44df	-0.0077901925
22	0xbc992df9	-0.01869868
23	0xbc0fb05e	-0.008770077
24	0xbbfea460	-0.00777106
25	0xbbff5f76	-0.0077933623
26	0xbbfea73a	-0.0077714
27	0xbbfeb443	-0.0077729537
28	0xbc08362e	-0.008313699
29	0xbc043e8a	-0.008071551
30	0xbc899a06	-0.016797077
31	0xbbff2de8	-0.007787455
32	0xbc6eb500	-0.014569521
33	0xbc0d599b	-0.008627321
34	0xbbfeeb8c	-0.007779544
35	0xbbffcc8f	-0.0078063677
36	0xbbfea2fe	-0.007770895
37	0xbc936c1d	-0.017995888
38	0xbc9fd575	-0.019510964
39	0xbc097c95	-0.008391519
40	0xbc0f2518	-0.008736871
41	0xbc7e8afb	-0.015536065
42	0xbc007d23	-0.007842335
43	0xbbff700a	-0.0077953385
44	0xbc00219d	-0.007820514
45	0xbc2debec	-0.01061533
46	0xbc000f42	-0.007816138
47	0xbbfeeba2	-0.0077795545
48	0xbc00b98f	-0.007856741
49	0xbbffe9e9	-0.0078098667
50	0xbc1b7961	-0.009489388
51	0xbc9af10b	-0.018913766
52	0xbbfebe86	-0.007774177
53	0xbbfe9df1	-0.007770293
54	0xbc686430	-0.014184043
55	0xbcc4f899	-0.024044322
56	0xbc576c76	-0.013148418
57	0xbc05eb19	-0.008173727
58	0xbbfee49d	-0.0077787177
59	0xbc3726ed	-0.011178714
60	0xbc745bb2	-0.01491444
61	0xbbffe350	-0.00780908
62	0xbc00322d	-0.007824463
63	0xbbfeea55	-0.0077793994
64	0xbbfee740	-0.007779032
65	0xbc011e67	-0.007880784
66	0xbbfed8ed	-0.0077773244
67	0xbbffd8a6	-0.007807809
68	0xbbfee74d	-0.007779038
69	0xbbfe957e	-0.0077692857
70	0xbc6913d8	-0.0142259225
71	0xbbfe979e	-0.007769539
72	0xbc2eaf19	-0.010661864
73	0xbbfeb6e4	-0.007773267
74	0xbc53cf9f	-0.012927919
75	0xbc008793	-0.007844823
76	0xbbff5422	-0.007792012
77	0xbbff3757	-0.0077885794
78	0xbc43fa3f	-0.011961519
79	0xbbff449a	-0.0077901604
80	0xbc07053e	-0.008240996
81	0xbbff3cc3	-0.007789226
82	0xbc992d25	-0.018698284
83	0xbc0fac2b	-0.008769075
84	0xbbfe9c4a	-0.007770096
85	0xbbff5750	-0.007792391
86	0xbbfe9f1f	-0.0077704336
87	0xbbfeac29	-0.007771988
88	0xbc083215	-0.008312722
89	0xbc043a73	-0.008070576
90	0xbc899909	-0.016796606
91	0xbbff25c0	-0.0077864826
92	0xbc6eb205	-0.01456881
93	0xbc0d556c	-0.008626323
94	0xbbfee375	-0.00777858
95	0xbbffc471	-0.0078054
96	0xbbfe9aea	-0.007769932
97	0xbc936b01	-0.01799536
98	0xbc9fd489	-0.019510524
99	0xbc097870	-0.008390531
100	0xbc0f20e8	-0.008735873
101	0xbc7e88ce	-0.0155355465
102	0xbc007918	-0.007841371
103	0xbbff67f4	-0.0077943746
104	0xbc001d8f	-0.007819547
105	0xbc2de779	-0.010614269
106	0xbc000b35	-0.007815172
107	0xbbfee387	-0.007778588
108	0xbc00b587	-0.0078557795
109	0xbbffe1c7	-0.007808897
110	0xbc1b7507	-0.009488351
111	0xbc9af02f	-0.018913357
112	0xbbfeb662	-0.0077732066
113	0xbbfe95d8	-0.0077693276
114	0xbc6860d6	-0.014183244
115	0xbcc4f835	-0.024044136
116	0xbc5768a2	-0.013147505
117	0xbc05e6ff	-0.00817275
118	0xbbfedc87	-0.0077777538
119	0xbc372280	-0.011177659
120	0xbc779d8e	-0.015113248
121	0xbc031e13	-0.008002776
122	0xbc036123	-0.008018765
123	0xbc029d84	-0.007972125
124	0xbc029be3	-0.007971737
125	0xbc045763	-0.008077475
126	0xbc02948c	-0.007969987
127	0xbc031870	-0.008001432
128	0xbc029bf7	-0.007971755
129	0xbc027209	-0.007961758
130	0xbc6c5cf5	-0.01442646
131	0xbc02732a	-0.007962028
132	0xbc32b3fa	-0.010907168
133	0xbc028302	-0.007965805
134	0xbc5737ab	-0.013135831
135	0xbc03b9fd	-0.0080399485
136	0xbc02d3e4	-0.007985089
137	0xbc02c4e9	-0.007981517
138	0xbc47ab4c	-0.012186836
139	0xbc02cbd8	-0.00798317
140	0xbc0a7cd1	-0.00845261
141	0xbc02c7a3	-0.007982167
142	0xbc9b0609	-0.018923776
143	0xbc136c56	-0.008997997
144	0xbc02756a	-0.007962564
145	0xbc02d58b	-0.007985483
146	0xbc0276cc	-0.007962894
147	0xbc027d7e	-0.00796449
148	0xbc0bb4eb	-0.008527021
149	0xbc07956b	-0.00827537
150	0xbc8b7abd	-0.0170263
151	0xbc02bbd7	-0.007979355
152	0xbc721763	-0.014776084
153	0xbc11044b	-0.008851121
154	0xbc0299fa	-0.007971281
155	0xbc030de7	-0.00799892
156	0xbc0274c6	-0.007962411
157	0xbc94f1a3	-0.018181628
158	0xbca173bf	-0.019708512
159	0xbc0d07c9	-0.008607813
160	0xbc12ddc4	-0.008964006
161	0xbc812451	-0.015764387
162	0xbc03aae3	-0.008036348
163	0xbc02de3e	-0.007987557
164	0xbc034bb5	-0.008013655
165	0xbc31f4ff	-0.010861634
166	0xbc0338af	-0.00800912
167	0xbc0299dd	-0.007971254
168	0xbc03ea00	-0.008051395
169	0xbc031d55	-0.008002599
170	0xbc1f7403	-0.009732249
171	0xbc9caf1f	-0.019126473
172	0xbc0282a6	-0.007965719
173	0xbc02722b	-0.00796179
174	0xbc6b9a63	-0.01438007
175	0xbcc74dbe	-0.024329063
176	0xbc5abfb6	-0.0133513715
177	0xbc0953d5	-0.0083818035
178	0xbc029654	-0.007970411
179	0xbc3b1441	-0.011418403
180	0xbc745db1	-0.014914916
181	0xbbffe98d	-0.007809824
182	0xbc003549	-0.007825204
183	0xbbfef085	-0.007780137
184	0xbbfeed77	-0.007779773
185	0xbc012187	-0.007881529
186	0xbbfedf2b	-0.0077780685
187	0xbbffdedf	-0.0078085507
188	0xbbfeed8c	-0.0077797826
189	0xbbfe9bb0	-0.0077700242
190	0xbc6915f0	-0.014226422
191	0xbbfe9dd2	-0.0077702785
192	0xbc2eb2c9	-0.010662743
193	0xbbfebd1c	-0.0077740084
194	0xbc53d2d6	-0.012928685
195	0xbc008ab7	-0.007845572
196	0xbbff5a5d	-0.0077927546
197	0xbbff3d8c	-0.0077893194
198	0xbc43fdd0	-0.011962369
199	0xbbff4ad5	-0.007790903
200	0xbc070866	-0.008241748
201	0xbbff42ff	-0.007789969
202	0xbc992ce7	-0.018698169
203	0xbc0faf70	-0.008769855
204	0xbbfea27c	-0.0077708345
205	0xbbff5d98	-0.0077931397
206	0xbbfea558	-0.0077711754
207	0xbbfeb25f	-0.0077727283
208	0xbc08353f	-0.008313476
209	0xbc043d9b	-0.0080713285
210	0xbc899941	-0.01679671
211	0xbbff2c06	-0.0077872304
212	0xbc6eb41c	-0.014569309
213	0xbc0d58ad	-0.008627099
214	0xbbfee9ad	-0.007779321
215	0xbbffcaac	-0.007806143
216	0xbbfea11c	-0.0077706706
217	0xbc936b35	-0.017995456
218	0xbc9fd445	-0.019510398
219	0xbc097ba3	-0.008391294
220	0xbc0f2429	-0.008736649
221	0xbc7e89c8	-0.015535779
222	0xbc007c34	-0.007842112
223	0xbbff6e24	-0.007795112
224	0xbc0020ac	-0.00782029
225	0xbc2deb1c	-0.0106151365
226	0xbc000e52	-0.007815914
227	0xbbfee9c3	-0.0077793314
228	0xbc00b8a1	-0.007856519
229	0xbbffe80a	-0.0078096436
230	0xbc1b787a	-0.009489173
231	0xbc9aeff7	-0.018913252
232	0xbbfebca0	-0.0077739507
233	0xbbfe9c15	-0.0077700713
234	0xbc686350	-0.014183834
235	0xbcc4f665	-0.024043271
236	0xbc576bad	-0.0131482305
237	0xbc05ea29	-0.008173504
238	0xbbfee2bd	-0.007778494
239	0xbc372621	-0.011178524
240	0x3e964a08	0.29353356
241	0x3d072d15	0.033001978
242	0x3d10921b	0.035295587
243	0x3cdc3554	0.026880898
244	0x3cdc31b0	0.026879162
245	0x3d27a1e6	0.040925883
246	0x3cd7aaff	0.026326654
247	0x3d06a578	0.032872647
248	0x3cdc4345	0.026887545
249	0x3cc55b01	0.024091246
250	0x3e8ee59a	0.27909547
251	0x3cc5f8a3	0.02416641
252	0x3e1aac44	0.15104777
253	0x3ccffddd	0.025389606
254	0x3e615649	0.22005571
255	0x3d1b0a16	0.037851416

bias f4 [60]
0	0xbca42fcf	-0.020042328
1	0xbca42df5	-0.020041445
2	0xbca484fd	-0.020082945
3	0xbca43003	-0.020042425
4	0xbcf6e9e6	-0.030140828
5	0xbcfa6ec7	-0.0305704
6	0xbca42f3b	-0.020042052
7	0xbca4183b	-0.020031085
8	0xbca47595	-0.020075599
9	0xbca42fcf	-0.020042328
10	0xbca42de8	-0.020041421
11	0xbca42eda	-0.020041872
12	0xbc99e0e9	-0.018784003
13	0xbca42f7f	-0.02004218
14	0xbca42f6e	-0.020042147
15	0xbca42f8e	-0.020042207
16	0xbcc25aa5	-0.023724863
17	0xbca44157	-0.020050688
18	0xbca4300b	-0.02004244
19	0xbca42fd0	-0.02004233
20	0xbca42f3d	-0.020042056
21	0xbca42f24	-0.02004201
22	0xbd639120	-0.055558324
23	0xbca42ef3	-0.020041918
24	0xbca42fd5	-0.02004234
25	0xbca2057f	-0.019778011
26	0xbca42de6	-0.020041417
27	0xbca42ee8	-0.020041898
28	0xbca42f3f	-0.02004206
29	0xbca4303f	-0.020042537
30	0xbca42e5b	-0.020041635
31	0xbca42ee5	-0.020041892
32	0xbca42f60	-0.020042121
33	0xbd0f279a	-0.034949876
34	0xbcafa686	-0.02144171
35	0xbca42e49	-0.020041602
36	0xbca4304b	-0.02004256
37	0xbca42eed	-0.020041907
38	0xbcaa3cea	-0.020781
39	0xbca49f63	-0.020095533
40	0xbcc7ec3a	-0.024404634
41	0xbca42e63	-0.02004165
42	0xbca42f93	-0.020042216
43	0xbd5ef788	-0.054435283
44	0xbcb1878f	-0.021671085
45	0xbcd66561	-0.026171388
46	0xbca42f18	-0.020041987
47	0xbcfbf150	-0.030754715
48	0xbca43094	-0.020042695
49	0xbca42e7f	-0.020041702
50	0xbd027267	-0.031847384
51	0xbca461ae	-0.020066109
52	0xbcc3ad12	-0.023886237
53	0xbd007dab	-0.031369846
54	0xbd22f9cd	-0.03978901
55	0xbca42eca	-0.020041842
56	0xbca42f97	-0.020042224
57	0xbca42f78	-0.020042166
58	0xbca430ef	-0.020042865
59	0xbcc20ccd	-0.023687745
