Total_RCS/epoch_200_batch_255_lr_0_0019819414761434403_wd_0_1808248925678225/torch_model_5_Tanh.pth (torch, 95029 bytes, 15 tensors)

weight f4 [60, 3]
000000 03 83 01 bb 47 e1 41 3c 32 14 ef bb 1e db 81 bc
       -0.0019761927 0.011833495 -0.0072961086 -0.015851554
000010 86 aa 33 be 09 f3 87 be c9 cb 54 bc 2a 32 dd be
       -0.17545518 -0.2655261 -0.012988039 -0.43202335
000020 23 c4 12 bf e4 94 89 bc 71 24 16 be 09 62 86 be
       -0.5733053 -0.01679463 -0.14662339 -0.2624667
000030 40 8d 70 bb 2f b8 2a 3c c3 11 0c 3b 45 0b 77 bc
       -0.0036705285 0.010419889 0.0021372891 -0.01507837
000040 a8 d4 23 be 1f 03 80 be 53 50 ca bb a4 99 af be
       -0.1599909 -0.2500238 -0.006174126 -0.34296906
000050 bc b6 dd be 97 e3 eb 3d 0e 03 67 3f 82 d0 6d bf
       -0.43303478 0.11518019 0.90239036 -0.9289628
000060 3b d1 6d bc aa ac c5 be da ab 37 3d d0 0d 8c 3a
       -0.014515216 -0.38608295 0.044841625 0.0010685269
000070 d9 63 1c bc 91 7c 80 3a 8a 19 b3 3d 8d 57 13 be
       -0.00954529 0.0009802749 0.087451056 -0.14388867
000080 02 5f 7d 3f 09 8b 6f 3f 69 5e da 3d 04 c3 3a be
       0.98973095 0.93571526 0.106625386 -0.18238455
000090 18 de df ba 86 99 75 3c 7e bd c2 ba de 0f 0c bc
       -0.0017079739 0.014990216 -0.0014857498 -0.008548705
0000a0 a6 16 b4 bd b8 15 fd bd e3 91 c8 b8 d8 9c f5 3a
       -0.08793382 -0.12357658 -9.563917e-05 0.001873876
0000b0 b9 4f 47 ba d3 31 52 b9 4b f5 00 bc 00 d4 93 3b
       -0.0007603127 -0.00020045722 -0.007870982 0.0045113564
0000c0 d1 c4 a1 be 94 b2 b8 3e be 95 45 3d 53 83 e5 3b
       -0.31595472 0.36073744 0.04823851 0.0070041805
0000d0 6f 1f 8a bc 26 23 73 3c cb db cb be c3 7c d0 bf
       -0.016860692 0.014839923 -0.39816126 -1.6288074
0000e0 6b cd 5f bf 38 14 26 3e 19 77 40 3f 38 b6 a0 3d
       -0.8742282 0.1621865 0.7518173 0.078472555
0000f0 58 cc 46 be 1d 4c cc 3d 69 27 8a be ef 31 83 3c
       -0.19413888 0.09975455 -0.26983193 0.016015021
000100 cc 99 36 3e 12 9c 89 3e 9a 62 88 bc 6a 1c a5 be
       0.17832106 0.26876885 -0.01664858 -0.3224824
000110 0b 1a d6 be 46 a4 d5 bd d5 b5 38 bf dc b3 c1 bd
       -0.41816744 -0.10431723 -0.72152454 -0.094581336
000120 44 ea 85 bd 3b 76 e8 be bf 5a e3 3c 1e f9 84 3f
       -0.06538823 -0.45402703 0.027753232 1.0388525
000130 49 5b 2b 3f a3 14 20 be db 5b c9 ba d0 19 9d 3b
       0.66936165 -0.15632872 -0.0015362458 0.004794337
000140 a1 11 17 bb 70 51 3a 3d d2 df d1 3e e3 2e 63 3f
       -0.002305128 0.04548782 0.40991074 0.8874342
000150 c7 fb 47 bf f5 4f f6 3d cd 72 98 be 86 aa e2 ba
       -0.78118557 0.12026969 -0.29775086 -0.0017293252
000160 1d 32 2f 3c af 8c 99 ba be ef 94 bd 9d b0 5c 3f
       0.0106931 -0.0011714901 -0.0727229 0.8620699
000170 bd 55 7f 3f e0 84 79 ba d7 11 3b 3c fb cf d0 ba
       0.997402 -0.0009518396 0.011417828 -0.0015931124
000180 fb 1f e3 3c ef 4e c2 be 74 6a 82 3d dc 02 34 3c
       0.02772521 -0.37950847 0.063679606 0.01098701
000190 13 c5 ac be cb c5 81 3f 1c bb 49 3d d1 84 03 3f
       -0.33744106 1.0138487 0.049250707 0.51374537
0001a0 ac 5d 55 3f 3e b6 b5 3a ec 1c 2b bc 51 7b ae 3a
       0.83346057 0.0013863517 -0.010443907 0.0013311898
0001b0 ab d3 db 3e 9f 0b c6 be bb 92 29 be 34 fd 05 bf
       0.42934927 -0.3868074 -0.1655988 -0.5233948
0001c0 31 90 13 3f 4a 42 c5 3e 2a b5 27 3d c4 ff cc 3f
       0.57641894 0.38527137 0.040944256 1.6015553
0001d0 d1 1c 14 3f 18 00 2a bd 70 0f dc be e0 d8 0b 3d
       0.5785647 -0.041503996 -0.42980528 0.034142375
0001e0 6e d8 53 3d 27 6a df 3e 88 a4 f9 bc d9 18 b2 bc
       0.051720075 0.43635675 -0.030473962 -0.021740364
0001f0 3d 81 00 bd 95 f9 5c be 89 61 40 bb bf 33 01 3c
       -0.03137325 -0.21579583 -0.002935501 0.007885872
000200 4d d1 ec b9 68 b2 ab ba 72 f5 31 3b 09 28 de 37
       -0.0004516937 -0.0013099434 0.0027154353 2.6483105e-05
000210 6c 7e 8b be 60 7b 9d bf 41 79 1f 3f b9 76 6e 3c
       -0.2724489 -1.2303276 0.62294394 0.014554673
000220 80 42 04 3e 0a 23 6f 3e de ba 68 3a 3b 92 5d ba
       0.12915993 0.2335321 0.0008877943 -0.0008452271
000230 22 3b 96 bb a8 ff 8e 3b f2 9b 9c bc 3e 16 fe 3a
       -0.004584686 0.0043639727 -0.01911733 0.0019385291
000240 70 d6 97 39 3d 44 6a bc 73 54 66 3b 32 61 a2 3c
       0.00028960733 -0.014298496 0.003514555 0.019821737
000250 87 4c ca bc f1 bc 25 3e 9a 95 8a bc 70 62 52 be
       -0.024694694 0.16185357 -0.016917039 -0.20545363
000260 53 74 99 be e5 21 e1 bc a5 fe 0e bc 70 be 57 be
       -0.2997156 -0.027481982 -0.008727704 -0.2106874
000270 62 96 64 bc de 8c 5e 3c f2 c6 34 be 78 7f a6 bb
       -0.01395187 0.01358339 -0.17654017 -0.0050811134
000280 bc 92 79 3c a8 44 3b bc 1c b7 88 bc 0a 8c 3e be
       0.015232738 -0.011429943 -0.016688876 -0.18608108
000290 a0 ad 90 be 6f d6 a3 3c 53 14 81 be 32 ab 5a 3f
       -0.28257465 0.01999971 -0.2521082 0.85417473
0002a0 af 84 f9 39 aa da 84 bb 3d dd 52 3a 63 d8 87 39
       0.00047591838 -0.004054387 0.00080438313 0.00025910427
0002b0 77 00 ee bb 34 e6 75 39 67 00 77 3c be 2d c5 be
       -0.007263239 0.00023450778 0.0150757795 -0.3851146
0002c0 58 be 6a 3d fe c4 bd 3c c1 e2 69 3e f5 ea a7 3e
       0.057310432 0.023165222 0.22840406 0.32796445

bias f4 [60]
000000 2e 33 85 3b c1 31 6e be 1d 5f f4 be 67 f7 6a be
       0.004064939 -0.23261167 -0.47728816 -0.22945939
000010 d8 4a a3 ba 54 af 60 be d9 6e b7 be 4d 3e ec be
       -0.0012458218 -0.21941882 -0.35826758 -0.46141282
000020 64 46 09 bc 02 33 82 39 3a 3d 3f 3f d2 6f 48 3f
       -0.008378599 0.00024833536 0.747028 0.78295624
000030 b9 90 59 ba 27 70 f5 bd 48 6b c4 39 f1 21 83 ba
       -0.00082994584 -0.11984282 0.00037463964 -0.0010004622
000040 2f ed 92 be 60 68 30 bc fc 7b a0 bf 41 a6 a3 3e
       -0.28696582 -0.010767072 -1.2537837 0.3196278
000050 a5 d5 ca be a4 0b 71 3e 26 c5 b6 be fe f5 82 be
       -0.39616123 0.23539597 -0.35697287 -0.25578302
000060 90 e6 ad bd d7 55 df be ff f6 3b 3b 91 2d 33 3f
       -0.08491242 -0.43620178 0.0028681157 0.69991404
000070 2d 0a d0 3e ed 8a e8 b6 f7 7b 1b 3f b7 c3 9e 38
       0.40632764 -6.930312e-06 0.6073603 7.570482e-05
000080 9c ae 4a 3d f7 11 31 3f 39 62 2e 3f cb 4f e1 37
       0.049482927 0.6916804 0.68118626 2.6859247e-05
000090 3b 7c a2 3e 78 5b 81 be 67 9a 13 3f f0 61 4f bd
       0.31735405 -0.25265098 0.57657474 -0.05063051
0000a0 cf 75 85 3d 13 d5 45 be aa 0d 7c 3a 10 34 b4 3a
       0.06516611 -0.19319563 0.0009615073 0.0013748426
0000b0 c2 fb 28 3e 61 d1 51 3e 80 3b 58 3b f0 1b 99 3a
       0.16502288 0.20490028 0.003299445 0.00116813
0000c0 27 f9 ee 38 85 c9 16 3e 92 9f 85 be fa 72 46 be
       0.000113951326 0.14725311 -0.26098305 -0.19379798
0000d0 70 3b 1c be 9b 1f ef 3b 62 a1 7c be 45 f7 1c 3f
       -0.15257049 0.007297469 -0.24670938 0.61314803
0000e0 ca e2 2a ba 96 3a 91 b8 73 41 02 3d f6 8b 94 3e
       -0.00065187796 -6.925051e-05 0.0318007 0.29013032

weight f4 [60, 60]
000000 e7 aa 8b bc 2d 02 fb 3d ad 6c 47 3e 47 33 af 3d
       -0.017049266 0.12256274 0.1947505 0.08554702
000010 65 67 db b9 62 08 e5 3d 99 cf 5c 3e a7 de de bd
       -0.0004184797 0.111832395 0.21563567 -0.10882311
000020 64 27 c4 3d ea ef 1a 3c 83 32 48 3e a6 65 56 3e
       0.09577826 0.009456614 0.19550519 0.20937213
000030 68 0f 36 bc 00 fc 9a 3d fa fb 81 bb 7e eb 7a 3c
       -0.011112072 0.075675964 -0.0039668055 0.015314935
000040 74 24 9d be ed 90 d5 3c b5 e1 d5 3c f0 c6 fe bd
       -0.30691874 0.026070083 0.026108602 -0.12440288
000050 cf 25 d5 bd d3 b6 fc bd c7 22 3e 3e 59 ec 06 3e
       -0.10407602 -0.123395585 0.18567954 0.13176097
000060 46 f9 b9 3d 33 3f 6c 3f 30 0f 10 bc 42 d6 10 bd
       0.09080748 0.92283934 -0.0087926835 -0.035360582
000070 39 1d 62 bf f3 08 10 bc 6a df 3c be 82 7e 31 bc
       -0.8832584 -0.008791196 -0.184446 -0.0108333845
000080 d4 63 03 3e 0a bc 1d 3e 45 5e d2 bd de 2f 1f 3c
       0.1283105 0.15403762 -0.10271887 0.009716002
000090 d9 cd a2 3e 0e 01 a9 be cf 42 15 be 06 be c1 3d
       0.31797674 -0.33008617 -0.14576267 0.09460072
0000a0 65 04 c6 bd d3 f8 19 3b 32 64 b1 bb 0c 3d 2c bb
       -0.09668807 0.0023494258 -0.0054135555 -0.0026281504
0000b0 4f e3 4d be 04 01 85 bd 47 e6 02 bc 69 b0 13 3c
       -0.20106243 -0.06494334 -0.007989473 0.009014227
0000c0 0a b9 11 3c cc a3 8a 3d a4 39 0d 3e 02 cd 97 bc
       0.008894214 0.06769523 0.1379152 -0.018530373
0000d0 ec ba 37 bc 30 f5 c3 bc 6a 0e fa 3d a2 c7 00 3e
       -0.011213999 -0.023920625 0.122097805 0.12576154
0000e0 75 2a 0f 3b 72 3d 04 b8 61 e2 02 3e e2 63 e7 bd
       0.0021845375 -3.1528478e-05 0.12781669 -0.11298348
0000f0 eb 9b 3d 3b 71 28 17 be c6 bf 60 be 6f 4b 28 be
       0.0028932046 -0.14761521 -0.21948156 -0.16435026
000100 29 19 0b bc 1d 71 11 be 12 39 36 be f1 90 d6 be
       -0.008489885 -0.14203306 -0.17795208 -0.41907457
000110 e7 b8 17 3e 19 5c 9a 3b e8 ae 64 3f e3 6a f7 3d
       0.14816628 0.004710686 0.89329386 0.12080934
000120 c2 fa 30 bc c2 2c 8a bd fa 92 13 3b 4a 13 00 bc
       -0.010801973 -0.06746818 0.0022518025 -0.007817099
000130 51 ea 77 be 89 74 52 3c fb 9e 4d bf e7 f6 e1 bd
       -0.24210478 0.012845167 -0.8032071 -0.11033421
000140 d7 52 c4 be 4a 72 18 3e 4d 57 44 be 1b 21 0c 3e
       -0.38344452 0.14887348 -0.19173928 0.13684504
000150 cb 38 ec 3d 4e af 09 be 71 c0 96 bb 4d 04 12 3f
       0.1153427 -0.1344578 -0.0046005775 0.5703781
000160 55 5d 74 3e 17 02 17 bc 75 16 25 3e 64 09 22 bc
       0.23863728 -0.009216807 0.16121848 -0.009889934
000170 c4 4f 4c 3e a8 19 5c 3f cb 36 df 3e 1b 81 00 3c
       0.19952303 0.8597665 0.4359649 0.007843281
000180 fe 27 55 3e a8 e6 23 be c6 75 7d bc 16 67 06 3e
       0.20816037 -0.16005957 -0.015469974 0.13125262
000190 73 8a f6 bd a5 e1 43 be 6b 7b a2 bb 77 1c e6 bb
       -0.12038126 -0.19129045 -0.00495856 -0.0070224362
0001a0 df 5b 3b 3e b4 c0 15 3e 52 4b c9 3a 1d 8a 90 3c
       0.18296765 0.14624292 0.001535753 0.017643983
0001b0 7b cd 19 3c 4e 95 29 3e 4d 64 25 be 4e 86 4f be
       0.009387369 0.16560861 -0.16151543 -0.20266077
0001c0 8b 1a 2d be 8b af 12 bc 4f f4 21 be 7a 40 31 3f
       -0.16904657 -0.0089529855 -0.15815853 0.6923901
0001d0 a4 b8 b4 b9 4f 49 da 3b 6c fe 3e 3e 3c 99 39 3e
       -0.00034469843 0.006661571 0.18651742 0.1812486
0001e0 cb 65 e7 bc b1 2a e3 bd 59 ab 4b be 17 34 e0 bd
       -0.02824678 -0.11092127 -0.19889583 -0.10947435
0001f0 0c 63 db bb 2d 0c d4 bd 92 6c 2d be d5 11 75 3e
       -0.006695157 -0.10353885 -0.16935948 0.23932584
000200 12 78 16 bc 8e c5 86 3c 2d 8c 14 3e 33 9e c7 3e
       -0.0091839 0.016451623 0.14506598 0.38987884
000210 e0 7f 01 bd 3a 75 2b bd 86 19 d9 bb de 1a ae 3c
       -0.03161609 -0.041859843 -0.006625357 0.021253046
000220 68 aa 08 be 2f c9 13 3d d1 87 3d bf 24 2d e4 3d
       -0.13346255 0.036080536 -0.74035364 0.111414224
000230 52 b2 32 be b4 8f e6 3d 3e 79 2c be 60 1f a3 bd
       -0.17450836 0.11257878 -0.16843125 -0.07964969
000240 42 e0 25 bd 36 73 99 3e 4b 71 97 bc b5 63 83 3e
       -0.040497072 0.2997071 -0.01848664 0.25662008
000250 bd af 61 be 20 94 a2 bc 43 bf 8b 3e 80 04 bf bc
       -0.22039695 -0.019846022 0.2729436 -0.023317575
000260 f0 26 95 3c 3a 74 42 3c d4 3d 92 3e 67 c0 a2 3c
       0.018207043 0.011868531 0.28562796 0.019867135
000270 59 4d 1b 3e ae e5 04 be 5e 66 1e 3e fb d5 d9 bc
       0.15166225 -0.12978241 0.15468737 -0.026591292
000280 03 79 04 3d 4e 7f bb bd 52 98 7c bc 95 77 20 bc
       0.03234197 -0.09155141 -0.015417175 -0.009794136
000290 8d 02 eb be cd 07 c6 3d 46 6d 54 bc 1e 05 b2 3c
       -0.45900384 0.09669457 -0.012965506 0.021730956
0002a0 85 42 d4 3c ce 29 86 3d 88 be 01 be c1 c2 bb bd
       0.025910625 0.06550942 -0.12670338 -0.09168006
0002b0 17 9a 90 bd 89 f1 0c bd 15 b2 f4 bd fa 88 a4 3c
       -0.0706064 -0.034410033 -0.11948029 0.020084847
0002c0 50 74 a1 3b c2 82 0e 3c 13 fa 0b 3c c0 77 0e 3e
       0.0049271956 0.008698167 0.008543509 0.13912868
0002d0 52 da b0 3b 09 f3 e9 bb 96 f7 a9 ba 3a b2 d8 bb
       0.0053971196 -0.0071395678 -0.0012967463 -0.006613043
0002e0 b9 24 e7 bb 71 b7 f2 bb c6 38 9f bb ea 65 5f 3c
       -0.007053938 -0.007407122 -0.004859063 0.013635138
0002f0 cd 69 0e bb 23 09 a8 ba 47 89 41 bc eb 58 52 bc
       -0.0021730543 -0.0012820106 -0.011812515 -0.0128385825
000300 c3 8b 7e bb 94 01 2b bc 34 0d 04 3c 8c fa 6a bc
       -0.0038840629 -0.010437388 0.0080597885 -0.014341962
000310 91 72 e0 3b 32 f7 11 3d 3b 36 f7 3b 8c 6c a0 ba
       0.006849595 0.035636134 0.0075443066 -0.0012239381
000320 ef bf 82 3b ce 20 e6 3b c7 ad 8d bb df 70 56 ba
       0.0039901654 0.0070229536 -0.0043236944 -0.0008180271
000330 c7 e0 79 ba 82 3b 95 bc 75 0c 60 3c 4b 4a 00 bc
       -0.00095320906 -0.018216852 0.013674845 -0.007830213
000340 cc 64 e4 3b 89 14 72 3b 06 fa 57 ba bd 9a c4 3a
       0.0069700237 0.003693851 -0.00082388555 0.0014999729
000350 c0 bb 3f bb 1a 67 29 bc 30 8b c7 bb ae a0 81 bb
       -0.0029256195 -0.010339523 -0.0060895905 -0.003955922
000360 88 7a 02 bc f5 aa d8 3b 51 dd 62 3c 73 27 df ba
       -0.007963784 0.0066121765 0.013846711 -0.0017025307
000370 24 d0 ba 3a 03 a5 cc bb 39 0f ff 3b a8 83 63 3b
       0.0014252705 -0.006245257 0.007783797 0.0034715924
000380 60 a5 e1 bb 12 97 ef 3b 79 68 9f 3b 13 7e fb 3c
       -0.0068861693 0.00731171 0.004864749 0.030699765
000390 df 33 f7 3a 33 e0 d6 3b 88 a1 d1 bb dd 6e bd bb
       0.0018860063 0.0065574883 -0.00639743 -0.005781038
0003a0 a4 d1 e0 bb ab 5e 67 bc c0 07 da bb 7b a8 0b bc
       -0.0068609286 -0.014121692 -0.006653756 -0.008524056
0003b0 09 67 79 bb 8e 36 b0 b9 94 bb 31 bb 10 83 ac 3b
       -0.0038055799 -0.00033609982 -0.0027119862 0.0052646473
0003c0 87 2e 1f bd b8 a1 1c 3c 30 62 3a 3a 81 d0 13 3c
       -0.03886273 0.009560041 0.0007109968 0.009021879
0003d0 ab f5 6b bc 8a 43 23 3c a4 47 a0 3b d7 7a 46 bc
       -0.0144018335 0.009964833 0.0048913527 -0.012114248
0003e0 d5 ed ca 3b 0f 75 a6 3c 22 6f 5d 3c ce 48 10 3a
       0.0061929026 0.02031949 0.013515266 0.0005504013
0003f0 d3 90 cb bc ff 26 72 3c 30 a9 fa bb e9 76 f7 3c
       -0.024849331 0.014779805 -0.0076495633 0.030208068

bias f4 [60]
000000 86 2b 5b be 21 4c 73 3e 44 98 66 3e 26 69 1f 3c
       -0.21403322 0.2375951 0.22519022 0.009729659
000010 a6 14 96 bb 4a 94 99 3e f5 a4 31 bc aa b5 30 bb
       -0.004580098 0.29995948 -0.0108425515 -0.002696375
000020 44 a0 12 3d 5a 43 cd 3e e4 e6 da be 3c 5d 85 be
       0.035797372 0.40090448 -0.4275428 -0.26047695
000030 9d 92 b9 3d 72 f9 2b 3c d3 d6 82 3c a5 3b e4 bd
       0.090611674 0.010496484 0.015971577 -0.11144189
000040 0f b9 b0 3e 16 01 42 bb 05 9b 9c 3b 79 19 c8 3e
       0.34516189 -0.0029602698 0.004779222 0.39081934
000050 a4 2d 3d 3c df 35 e1 bb 5b 2a c2 bc 7f d0 bd 3b
       0.011546526 -0.006872877 -0.023701837 0.005792677
000060 04 09 ae 3b c2 b0 6b 3e 6a 8d 6f 3b 69 87 94 3b
       0.0053111333 0.23016647 0.0036552795 0.0045327437
000070 03 63 8f be 73 07 85 be ce 79 28 3c 37 2a ca bb
       -0.28005227 -0.25982246 0.010282947 -0.006169583
000080 04 99 0f be 05 ad cc 3b 89 47 a2 3e 36 b3 e6 3b
       -0.14023215 0.0062462115 0.31695202 0.0070404066
000090 f3 95 f0 bb f1 bb 20 3f e5 63 56 be c5 e7 32 be
       -0.007342094 0.62786776 -0.20936544 -0.17471226
0000a0 f5 ed 04 be 28 19 a7 be cd 3e 4b ba af 3f c6 be
       -0.12981398 -0.3263638 -0.00077531935 -0.38720462
0000b0 03 61 d9 be 95 93 1c bc 6b 5c a7 3b d2 6f 3a 3e
       -0.42456827 -0.009556671 0.0051074526 0.18206719
0000c0 35 6d 9e 3b 54 eb 3a 3e 15 78 58 3a 1a 0e d6 3e
       0.004834796 0.18253833 0.000825764 0.41807634
0000d0 51 b9 b3 be 47 0f 94 bb b2 05 29 bb f6 1d a3 3d
       -0.35102323 -0.0045184228 -0.0025790748 0.07964699
0000e0 4b ef c5 3b 50 0a 42 bc c0 58 04 bf e4 61 dc be
       0.006040489 -0.011843279 -0.5169792 -0.43043435

weight f4 [60, 60]
000000 f3 bd 26 3f ca f8 bb be e6 ec 62 3d 6a de 64 bb
       0.6513359 -0.36713248 0.055401705 -0.0034922608
000010 ba 1f 9b ba 1c 7d 4f 3c 11 de bb 3a db 17 dd 3b
       -0.0011835017 0.012664106 0.0014333149 0.0067472286
000020 e0 b1 c4 3d 8b 83 68 3e c5 d1 93 3c 3d 03 49 be
       0.096042395 0.2270643 0.018044362 -0.19630142
000030 2c b4 0a 3d a3 73 d5 ba d6 92 f0 3a 4b cb fa bd
       0.03386323 -0.0016285073 0.0018354307 -0.12245806
000040 fd 52 4f be b3 7a 60 bb 15 fa 67 bb ac 96 a7 3d
       -0.20246501 -0.0034252822 -0.0035396863 0.08183035
000050 8e 6c be ba 98 34 09 bb 11 35 24 3e e5 dd 50 3a
       -0.0014528201 -0.002093589 0.16035868 0.0007967635
000060 50 5a a4 bc 8c 27 e7 3e 4c d4 01 bc 1c ce be 3b
       -0.020062596 0.4514736 -0.007924151 0.00582291
000070 03 37 48 be cc a7 32 be ae cd 2f 3c 31 3b aa bb
       -0.19552235 -0.17446822 0.01073019 -0.0051950444
000080 54 6d 7e 3e 6b bc 9a b8 8c c4 78 3e 0d a2 9c 3b
       0.24846393 -7.378388e-05 0.24293727 0.00478006
000090 ff c1 92 3c 67 da 83 be 2b df 9a 3d 01 d1 9b 3c
       0.01791477 -0.25752565 0.07562097 0.01902056
0000a0 17 44 fa bd 08 db 31 bc 8d 70 b2 3d 96 fe 13 bd
       -0.12220018 -0.010855444 0.087128736 -0.036131464
0000b0 58 fd 49 be 50 b6 0a 3c 93 3c ae 3b ef 1a a6 be
       -0.19725549 0.008466318 0.0053172796 -0.32442424
0000c0 ee 75 06 bc ca 6b 89 3e 98 a4 a0 ba 89 76 d2 3e
       -0.008206828 0.2684005 -0.0012256084 0.4110606
0000d0 e7 92 21 be ca c5 fa 3b 9c 04 a5 3b 0a 41 00 be
       -0.15778695 0.007652973 0.00503595 -0.1252481
0000e0 07 f5 df 3b 20 6b 31 3b 65 1c 08 3f 95 4b 5a be
       0.0068346295 0.0027071908 0.53168327 -0.21317895
0000f0 65 5d 80 bf 53 59 ae 3e ae f4 df be a3 aa 57 bc
       -1.0028502 0.34052524 -0.43741363 -0.013163242
000100 dd 72 65 3c ec 56 00 3e 64 3c f5 3b c3 35 02 3d
       0.014004436 0.12533158 0.0074840058 0.031789552
000110 6e 90 c9 3e c6 92 3e bc c1 15 81 3e b7 d0 14 3f
       0.39368004 -0.011631673 0.2521191 0.58130974
000120 f7 fe e9 3d 2a aa d2 bb b3 bd 64 bb d3 39 30 3d
       0.11425584 -0.0064289765 -0.0034903109 0.043023895
000130 21 40 a1 3e 89 19 9b bc 75 b5 e4 bc c6 c9 92 3d
       0.3149424 -0.018933075 -0.027918557 0.071673915
000140 22 76 dd bb 97 7f 7a 3b f1 4a d8 be 35 60 82 bc
       -0.0067584673 0.0038223022 -0.42244676 -0.015915016
000150 4e 1a 32 bd c6 1e 73 bf de 1c 17 bd e8 8c f5 bb
       -0.043482117 -0.9496883 -0.036892764 -0.007493604
000160 46 31 f3 bb b3 d0 a7 bd ea 86 5b 3c 7e d9 93 39
       -0.0074216453 -0.08194103 0.013398865 0.0002820007
000170 78 f5 01 be 9f dd a3 bb 3e 57 00 3c 52 72 f6 bb
       -0.12691295 -0.0050007845 0.0078333 -0.0075209523
000180 14 ed 21 3d 51 e4 2c 3e da 52 99 3e c1 cf 0b bf
       0.039532736 0.16883971 0.29946023 -0.5461388
000190 63 a0 8e bd a6 9b c0 bd fb f1 95 bd 4f 06 f9 bd
       -0.06964185 -0.094046876 -0.07321545 -0.121594064
0001a0 95 2e 97 3d 6e bf ef 3c cd 26 68 3a 2d 4f 10 3f
       0.07381932 0.029266085 0.00088558794 0.5637081
0001b0 17 48 74 bc 75 41 6f be 14 12 91 3c be 53 d0 be
       -0.014909766 -0.23364814 0.017708816 -0.4068889
0001c0 8a bb 9d bd 9c 30 9a 3c a0 67 84 bc c2 5e 3f 3e
       -0.07701786 0.018822007 -0.016162694 0.18688491
0001d0 3c fb 8e 3c f8 49 8e bc 72 3c 4d be 58 f8 a6 3d
       0.017453782 -0.017369255 -0.2004259 0.081528366
0001e0 7d 82 9c be b0 e1 ca 3d c0 02 c4 be 16 10 a7 bc
       -0.30568305 0.09906328 -0.38283348 -0.020393413
0001f0 94 51 b6 3c 26 06 68 3c b5 cc b6 3c 91 1e 81 3a
       0.022255696 0.014161622 0.022314409 0.0009851028
000200 3b a0 29 3e 1e 61 c8 bd 90 38 84 3d 5f a6 aa 3d
       0.1656503 -0.09784149 0.06456101 0.08332514
000210 b7 86 c8 3d a8 e1 ad bc ae 20 85 bc 06 7e b2 3d
       0.0979132 -0.021225765 -0.016250934 0.08715443
000220 bc 6b 00 3e d1 4f c6 3c 87 d1 28 bc 0f 80 10 bc
       0.12541097 0.024207981 -0.010303861 -0.008819594
000230 08 3e bd bc a1 6f d5 3c d8 56 46 3b 95 6b a4 bc
       -0.023100868 0.026054205 0.0030264165 -0.02007083
000240 71 ed 98 3c 0a 32 48 bf c8 dd 60 3c eb 8e ab bc
       0.018667908 -0.78201354 0.013724752 -0.020942172
000250 bb b9 62 3d e2 11 29 3d 23 45 d5 bc ee 84 c3 3c
       0.055352908 0.04127682 -0.026033944 0.023867097
000260 db a5 51 bd 84 4f bd bc 54 02 90 bd 67 c9 ba bc
       -0.051183563 -0.023109205 -0.07031694 -0.022801114
000270 42 f6 0e bd 12 35 57 bc 77 72 22 3e 1e 70 06 3e
       -0.03490282 -0.013135212 0.15863977 0.13128707
000280 3f 3e 01 be d6 e6 d4 3a 0d a9 83 3d a1 9f d6 bc
       -0.12621401 0.0016243111 0.06428728 -0.026199164
000290 84 53 05 3e cd 74 4e bc 1f d6 81 bc 8e 6e 46 3e
       0.1302014 -0.01260109 -0.015849171 0.19378111
0002a0 25 6f a2 bc d2 e5 03 bf ff ac 70 bc d8 a0 95 be
       -0.019828388 -0.5152255 -0.014689683 -0.29224277
0002b0 d1 ce 07 3d 79 98 23 3c 29 ef 71 3b 11 fb 20 3b
       0.03315622 0.009985083 0.0036916232 0.002456371
0002c0 5d af a3 bc 1d f1 09 3c d1 ac ca 3c 91 d0 20 3e
       -0.01998108 0.008419302 0.024740608 0.15704562
0002d0 f9 69 95 be bb a1 e4 3d 22 c9 ea 3d 39 6e 72 3c
       -0.29182413 0.1116366 0.11464144 0.014796787
0002e0 34 fe 39 bc 9f 42 e4 bd 3a 9c 4c bc 07 3f f1 bb
       -0.011352111 -0.111455195 -0.012488419 -0.00736225
0002f0 1c 85 a8 3e b3 8c b4 bd e4 af bf 3d e6 0a 3e 3d
       0.32914054 -0.08815899 0.0935972 0.046397112
000300 e8 12 e1 bd 1d 83 29 3c ce de 2c 3c 2c d7 96 bd
       -0.10989934 0.010346201 0.010551168 -0.073652595
000310 ab 03 aa 3e 9c bf a8 bb 7a d0 32 3c 86 9b 16 be
       0.33205923 -0.0051497947 0.0109139625 -0.14707765
000320 38 21 81 3c 12 2c 22 bc 75 88 02 be 7c 4f 31 3c
       0.01576291 -0.0098982025 -0.12747367 0.010822173
000330 91 92 0b 3c 34 98 4f 3e 39 60 bb 3b 9b d4 11 3c
       0.008518831 0.20272905 0.0057182577 0.008900787
000340 a2 79 2d bc a6 95 52 bd 5f cd 46 3c a5 9a 38 bc
       -0.010588082 -0.051412247 0.012133925 -0.011267339
000350 ff 5c 24 3e e7 70 0d 3c a6 bc 5f bb 2b 6d 3e 3c
       0.160511 0.008632875 -0.0034139543 0.011622707
000360 a5 78 c0 3b 4c 87 1e 3f 79 39 46 3d 6e 19 34 3e
       0.005873757 0.61925197 0.048394654 0.17587826
000370 5e e6 23 3c 77 e6 bc 3d 67 8e 88 3d d6 ea 3a 3e
       0.010003654 0.09223645 0.06667786 0.18253645
000380 aa 3d ff 3c 88 89 13 bc 21 41 08 3c dc 64 8a 3e
       0.031157333 -0.009004958 0.008316309 0.27030075
000390 74 75 4d 3c f0 4e 1c 3e ed 05 d6 3b 2d 4b b2 3e
       0.01254021 0.15264487 0.006531468 0.3482298
0003a0 b3 35 ea 3d c1 44 8d bc 35 dc d0 39 1f 7d bd bc
       0.114360236 -0.017244698 0.0003983692 -0.023130951
0003b0 c9 ff c2 3b 8e f7 88 bb 75 56 24 bf ae 17 37 3c
       0.005950902 -0.0041799014 -0.6419442 0.011175079
0003c0 ea 64 29 3e 10 77 66 be 51 68 05 be 58 60 48 3c
       0.16542402 -0.22506356 -0.13028075 0.012230001
0003d0 a4 6a e6 bb 09 b9 7f 3e c0 f2 83 bb 86 b7 6e bc
       -0.0070317555 0.24972929 -0.004026741 -0.014570123
0003e0 22 65 ec 3d 0c 37 77 3d 0d f8 9f bd 8c 0a 42 3f
       0.11542727 0.06035523 -0.07810984 0.75797343
0003f0 39 dc d9 be a2 48 53 3b d7 a9 e3 3b 6d 1e ad bd
       -0.4255083 0.0032239337 0.0069477367 -0.08453069

bias f4 [60]
000000 98 e3 b3 bc 94 3b 9a be 72 8d 06 be ad 3a 9c 3e
       -0.021959111 -0.3012358 -0.13139895 0.30513516
000010 11 75 c2 3e 83 9e 7e bb 8a 56 2a bd cc 18 10 3f
       0.3797994 -0.0038851805 -0.041586436 0.5628784
000020 af ff 3b bd 9c 3f e1 bd ee ac 5d 3e 07 a2 1c 3f
       -0.045898136 -0.10998461 0.21647999 0.61184734
000030 87 af c8 bd 96 63 d5 3c c5 3c 21 bf ee a8 e4 bd
       -0.09799104 0.026048463 -0.6298335 -0.11165033
000040 4b 0c 84 3e 88 7c 1a bc 7b e7 b8 3e 2d 02 4c bd
       0.2579063 -0.009429105 0.36114106 -0.049806762
000050 b3 57 a0 be dd 8c c2 be 0c bf 68 3b 72 64 de be
       -0.3131691 -0.37998095 0.0035514263 -0.4343601
000060 b8 ee b0 be 86 ab 6a 3d 33 a5 00 3a b1 61 97 bd
       -0.34557128 0.057292484 0.0004907429 -0.0739168
000070 5e e7 55 bb 9f 96 2b 3f 7d f7 b5 be 95 0a df be
       -0.0032639126 0.67026705 -0.3554038 -0.4356276
000080 4f bd 63 bc b6 99 36 3e e8 5c 16 3f f1 49 d3 be
       -0.013900115 0.17832074 0.58735514 -0.4126735
000090 f5 42 65 be 92 7a 41 bb ee b8 ab bb 49 ca e0 3e
       -0.22388823 -0.002952252 -0.005240551 0.4390433
0000a0 57 0a 30 bb b4 14 50 ba 87 4b 33 3e c2 d7 ff bc
       -0.0026861632 -0.00079376553 0.1750928 -0.031230811
0000b0 0a 28 3f ba 9d 50 d8 bb f9 80 90 3d 76 a1 00 3b
       -0.0007292038 -0.0066014067 0.070558496 0.0019627488
0000c0 fb 1e 9e bd d9 98 84 3b 72 ce 4a bb 7d 40 47 be
       -0.07720753 0.004046541 -0.0030945805 -0.19458194
0000d0 92 eb 84 bd a2 96 8e 3d d8 60 cf 3d 6d a5 53 bd
       -0.06490244 0.06962325 0.10125893 -0.051671434
0000e0 da 06 89 be 34 66 07 bf 86 0c 2b bf ed da 43 3b
       -0.2676304 -0.52890325 -0.66815984 0.0029885129

weight f4 [60, 60]
000000 25 06 70 bb 27 c0 1b ba 32 08 95 bb 29 f4 dd bb
       -0.0036624756 -0.00059414137 -0.004548096 -0.006773491
000010 67 1b 7a bb 2c b2 df bb 01 4b 2e 3c 04 53 ef ba
       -0.0038163306 -0.0068266597 0.0106379995 -0.0018258994
000020 31 73 24 bb be f6 a3 3b ad ea 43 3b 2b 51 21 3a
       -0.0025093073 0.005003779 0.0029894516 0.00061537576
000030 1e c9 fb 3b 84 76 b1 bb f3 9a 33 3a 0d 0d 2a bc
       0.007683887 -0.0054157395 0.00068513973 -0.010379088
000040 59 54 74 bb df 34 8d 3b 36 22 15 b9 49 7d 0a 3b
       -0.003728172 0.0043092812 -0.00014222492 0.0021131805
000050 8b a1 ed bb 9c 25 29 b9 d3 ef e8 3b 5a 2b 5b bc
       -0.0072519234 -0.00016131107 0.0071086674 -0.013377035
000060 1c cb 12 bc b8 ee 1e ba bf 80 09 3c d2 eb c8 3a
       -0.008959558 -0.00060627935 0.008392512 0.0015329069
000070 11 17 18 3c 3c 99 f2 3b 53 a9 63 3c 2b e4 55 3b
       0.009282843 0.007403521 0.0138953505 0.003263722
000080 3d f5 f3 3a ff 47 08 3c 28 28 05 3c a6 1c 60 bb
       0.0018612515 0.008317946 0.00812725 -0.0034196763
000090 81 e9 48 39 62 ff 2f 3c 46 6e 92 ba fe d2 bc b9
       0.00019160473 0.01074204 -0.001117178 -0.00036015356
0000a0 af fe 7a bb 20 74 8e b9 18 5b e8 3b 9b 20 7a bc
       -0.0038298776 -0.0002717087 0.0070909373 -0.015266563
0000b0 de 91 17 3c 6b 50 78 3a e8 6c 61 bb ac 14 83 3b
       0.009251086 0.00094724324 -0.0034397189 0.004000267
0000c0 70 34 0b ba e4 07 e9 3b e2 8e 40 3b 19 5d 07 ba
       -0.0005310243 0.0071115363 0.002938204 -0.0005163714
0000d0 a0 ef 2d bb 5d 0c d2 ba a8 01 78 ba fd 8c 84 bb
       -0.0026540533 -0.0016025413 -0.0009460696 -0.0040451274
0000e0 41 29 72 3b a1 9e 1e bb c0 21 66 3b 30 8f 81 3a
       0.0036950859 -0.0024203437 0.0035115331 0.0009884592
0000f0 d6 96 96 3b a4 bd 0a bc 82 72 03 3c fa b7 17 3c
       0.0045956178 -0.008468065 0.008022906 0.009260172
000100 d7 58 ba 39 b7 59 93 3b 2f ab b7 bc 30 bf 6c 3b
       0.00035542875 0.004496779 -0.022420494 0.0036124699
000110 ce aa e8 3b 9d 50 bb bb 1d 52 b2 bb 10 a5 8a 3a
       0.0071004396 -0.005716397 -0.0054419176 0.0010577757
000120 2a 56 bd bb dc ff 09 3c 91 3f fa 39 cc c2 44 3c
       -0.005778094 0.008422818 0.00047731076 0.012009334
000130 7c ac 40 3b 01 11 dc 3a 11 80 0b bc 63 99 24 b9
       0.0029399684 0.0016789736 -0.00851442 -0.000156974
000140 d8 9d 92 3c f4 50 d7 ba c1 5b be bb 57 2b 8e 3c
       0.017897531 -0.0016427324 -0.0058092778 0.01735465
000150 e4 38 0f 3c 42 78 97 3b 8d 58 86 3a d0 7b 34 bc
       0.008741591 0.00462249 0.0010249779 -0.011015847
000160 93 70 3b 3c 55 5c d0 bb c7 dd 38 bc 7d 92 90 bb
       0.011440414 -0.006358663 -0.011283345 -0.004411994
000170 69 84 84 bb c0 e8 3f bc f1 5b 1c ba 33 af 39 3c
       -0.004044105 -0.011713207 -0.0005964628 0.011333275
000180 4e 7e 6d bb 94 5b 6e 3c 1f e1 16 3c b5 7c dd 39
       -0.0036238614 0.014548201 0.0092089465 0.0004224532
000190 6e 7e 28 3b 09 e5 44 ba 8a a2 1f bc fc b5 db 3c
       0.0025710124 -0.00075109355 -0.009743342 0.026820175
0001a0 4b 2f 2e 3b 1d 73 8d 3b 55 96 0c 3b 2c 9f 26 bb
       0.0026578482 0.004316701 0.002145191 -0.0025424464
0001b0 f3 b5 cd bb d9 9b d4 bb e2 e6 67 bb 7d 36 c2 bb
       -0.0062777936 -0.006488305 -0.003538542 -0.0059269057
0001c0 6a 9a 1a 3c 18 71 7c 3b 05 d1 2e bb 0f a7 55 3c
       0.009436229 0.0038519558 -0.0026674878 0.013040318
0001d0 7b a1 3b 3b 5e 47 b9 3b 90 ef 7f bb 36 7d 6d b9
       0.0028630185 0.0056542596 -0.0039052702 -0.00022648726
0001e0 e0 cb 25 3e af a3 24 bd e6 8e ba bc 9e 82 de bd
       0.16191053 -0.040195163 -0.022773217 -0.10864757
0001f0 04 e6 14 3d 0c 64 87 3a 20 ef 58 bd cd 03 05 3c
       0.036352172 0.0010329499 -0.052962422 0.008118582
000200 2f b0 4b be a6 76 e9 3d 3f 2e 0e be d7 b2 30 be
       -0.19891427 0.113995835 -0.13884829 -0.17255722
000210 d8 78 e4 bb 2c 6c ea bb a8 5f 2a 3e a3 6f 70 bc
       -0.0069724135 -0.0071540084 0.16638052 -0.014675054
000220 29 b2 a2 bd 04 11 e0 3b 24 11 37 bd 60 92 19 3c
       -0.079441376 0.006837966 -0.04469408 0.009373277
000230 c0 df 1f bd a0 41 0e 3e d3 73 0e bb 5f dc b7 3c
       -0.039031744 0.13892221 -0.0021736517 0.022443948
000240 50 7d 4b 3e 79 bc 54 bd 61 2b c6 3b 5f 84 8e 3d
       0.19872022 -0.051937554 0.0060476516 0.069588415
000250 cf 63 b0 ba 4f 04 b5 bd a2 96 9f 39 82 7a 1a 3e
       -0.001345748 -0.088387124 0.00030439073 0.15085796
000260 16 6b 8a bd 97 89 1a be 2b a9 e1 3c 2b 1d 99 3d
       -0.06758706 -0.15091549 0.027546486 0.074762665
000270 6d 5a 0e 3e d7 7f 39 3b 18 1e 76 3c 4a 45 82 bd
       0.13901682 0.0028304958 0.015021823 -0.06360872
000280 0c 30 d5 3b ec ee 04 bc 52 7b 91 3d 5b f4 cd 3c
       0.006505972 -0.008113604 0.071035996 0.025140932
000290 d8 c6 0a 3b 00 07 78 3c d4 69 58 bd aa 96 76 bb
       0.002117565 0.015138388 -0.0528353 -0.0037626424
0002a0 7c 59 3f 3d fa da 32 3c 42 a6 06 bc 69 96 61 bd
       0.0467162 0.010916466 -0.00821835 -0.055075083
0002b0 c2 b1 95 3b 59 24 66 be eb cc 98 bc bc f2 50 bd
       0.0045683095 -0.22474803 -0.0186524 -0.05101274
0002c0 ac 72 dc 3d ec 4f 05 3e f4 5e 21 3d 3f 40 73 ba
       0.107640594 0.13018769 0.039397195 -0.0009279288
0002d0 5a fb cb bb 86 2c dc ba 9a 48 93 bb 15 7c 09 3c
       -0.006225032 -0.0016797937 -0.0044947388 0.0083914
0002e0 c1 06 96 bb 9e 5e 90 bb 15 2d 2f bc 67 c0 2f ba
       -0.004578442 -0.0044058105 -0.010691901 -0.00067043904
0002f0 2c 6d 5e bc 99 80 90 3b 7a 5d 3a bb ab bb bd 3a
       -0.013575833 0.0044098613 -0.0028437064 0.0014475485
000300 c8 19 be 39 c5 a0 82 3b 35 0d 8c bb 57 6b ad 3b
       0.00036258833 0.0039864504 -0.0042740353 0.005292337
000310 6c a0 61 3a a6 e5 c7 3b 15 02 71 3c 96 50 8f 3b
       0.00086069736 0.0061003743 0.014709969 0.0043736203
000320 c8 3d b5 3b 52 26 25 bc a4 fe d3 3b 0a fa 6a 3a
       0.0055310465 -0.010079937 0.0064695645 0.00089636503
000330 ca db d9 bb cd 85 8a 3b f6 9c 93 bb 64 19 01 bc
       -0.0066485154 0.004227376 -0.004504795 -0.007879589
000340 32 c4 12 3b 6a 59 00 bc 05 cd 81 bb 11 22 91 bb
       0.0022394774 -0.007833818 -0.003961208 -0.00442911
000350 bf b3 07 bc 8e 9e ac 3b fb f4 3c 3c 53 ba 5c ba
       -0.008282601 0.0052679246 0.011533017 -0.00084200985
000360 67 e4 f0 3b 94 4f 2d 3b 2b 04 05 bb c7 40 a4 3b
       0.0073514464 0.0026445137 -0.0020296674 0.005012605
000370 a4 01 d1 bb 7e f3 11 3c 6a 4a 40 bc 1a cd ec bb
       -0.0063783694 0.008908151 -0.011736492 -0.0072265984
000380 0e b9 02 bb 0b 1a 05 bb 1e 8a e7 ba ae 30 c9 3b
       -0.0019946727 -0.0020309712 -0.0017665063 0.0061398363
000390 ac 0d 55 bb a8 d9 4a 3a 0d fc eb 3b a0 14 1c 3b
       -0.003250937 0.0007738122 0.0072016777 0.0023816004
0003a0 41 ee ce 3b 44 11 ac 39 7b aa 0b bb 9f ef 0a 3c
       0.006315023 0.0003281926 -0.002131133 0.008479982
0003b0 3f 0b d8 ba 57 d0 3f bc b5 a7 7a 3b 2b d1 bb 3b
       -0.0016482844 -0.011707387 0.0038246934 0.005731722
0003c0 65 2e c3 ba 51 a6 94 3a 74 33 dd bb 56 fc 3c 3c
       -0.0014891146 0.001134107 -0.0067505185 0.011534771
0003d0 2e 54 51 39 9a e4 d7 b9 52 93 06 bc f0 f0 b9 3a
       0.00019963153 -0.00041178317 -0.008213835 0.0014186185
0003e0 c7 36 07 bc fc d7 80 3b ce c8 59 ba bd ad b4 39
       -0.008252806 0.0039319973 -0.00083078153 0.0003446172
0003f0 b1 b7 11 3b d1 ff c5 39 80 46 8f bb 94 b3 2c 3b
       0.0022234733 0.00037765366 -0.004372418 0.0026352154

bias f4 [60]
000000 80 80 f4 ba 40 67 96 3a d3 65 d7 be fc f4 b3 bb
       -0.0018654019 0.0011474863 -0.42069873 -0.005491851
000010 3e 59 c0 bb f1 0c b0 bd d8 be df bb 91 8d 5a bb
       -0.0058700135 -0.085962184 -0.0068281703 -0.003334854
000020 30 cb ef bb f8 0b ba 3e ba 72 74 bd ac 37 39 bd
       -0.007317923 0.36337256 -0.059679724 -0.04521911
000030 28 0a 73 3e f6 0a 00 bf a7 01 1c bb 50 ae af 3a
       0.23734343 -0.50016725 -0.0023804696 0.001340339
000040 2d f8 e8 3d 0f 4d 24 b9 29 c5 0a bf 18 0b ad be
       0.11375461 -0.00015668965 -0.5420709 -0.33797526
000050 f4 44 a6 3b 9f ea e5 3e 3c 61 b6 3b 6a 0d e5 bb
       0.005074138 0.44905564 0.0055657905 -0.0069901245
000060 78 50 3d 3a 28 ac 63 3a 08 16 75 3e d7 38 94 3a
       0.00072217686 0.0008685016 0.23934186 0.0011308443
000070 f6 4b d3 be 0b 97 8e be 0d bf 2b be 72 d6 e4 be
       -0.4126889 -0.27849612 -0.16772099 -0.4469486
000080 55 92 bb 3e 1c 28 dc b9 85 fe e4 3b 89 b6 8d 3e
       0.3663508 -0.00041991554 0.006988349 0.27678326
000090 a0 04 1a 3a c4 70 1d ba db d5 b3 3d ef 42 e0 ba
       0.0005875323 -0.0006005878 0.08781024 -0.0017109792
0000a0 ad da 79 3a b9 ff 9c 3d b1 23 fc 3e 4c 5f 71 3e
       0.00095311814 0.07665963 0.4924598 0.23571509
0000b0 ec a3 c3 3e 34 7a a9 bd 35 9f 45 3e 9f 94 d8 39
       0.38211 -0.082752615 0.19299014 0.00041309462
0000c0 d6 a7 82 3b 00 3d 96 39 95 38 25 bf 64 bf a2 be
       0.0039872928 0.00028655678 -0.6453946 -0.31786644
0000d0 d8 f4 57 bd d5 14 71 3b 51 3b 99 ba fb c6 db 39
       -0.052723736 0.0036786098 -0.0011690651 0.00041919187
0000e0 08 c6 1a 3a 63 58 1d be 1c 7c 45 be cb 17 1e bb
       0.0005904143 -0.15365748 -0.19285625 -0.0024123068

weight f4 [60, 60]
000000 b6 76 24 3b f6 9f fc ba 68 b2 7e 3b 4b a2 9c bb
       0.0025095171 -0.0019273746 0.0038863663 -0.004780089
000010 7e 12 d7 bb 64 3d 9d 3b db 37 06 bc 47 16 f4 3b
       -0.0065634837 0.004798578 -0.008192028 0.0074489447
000020 5e e7 57 3b f3 3b c5 bb e6 14 c8 bb 58 78 de bb
       0.0032944302 -0.0060191094 -0.006106007 -0.0067892484
000030 ca e6 b8 bb a5 91 1f bc e3 a6 7c 3b 1a 56 05 3c
       -0.0056427466 -0.009739314 0.003855162 0.008138204
000040 2e 4f 2f bb 05 99 74 ba af 21 3f bc d3 0f 9c bb
       -0.0026750076 -0.0009330663 -0.011665746 -0.0047626286
000050 aa 78 72 3b ca 48 28 bc da f5 f4 3b af c3 4e bc
       0.003699819 -0.0102712605 0.007475597 -0.012619897
000060 55 23 9a 3a f6 ee 3b 3c db 1a 1c bb 4f 7d f4 bb
       0.0011759797 0.011470547 -0.0023819718 -0.007461227
000070 7f 61 65 ba 78 73 c1 3b bb f8 13 bc ab 43 16 bb
       -0.0008750185 0.0059036575 -0.00903147 -0.0022928517
000080 e9 09 dc ba 65 15 7c 3a 84 45 30 bb 08 a7 ec 3b
       -0.0016787621 0.0009616225 -0.0026896903 0.00722206
000090 f9 e0 91 ba d0 07 e9 b9 0c 6d 78 3a 25 bc 8f 3b
       -0.0011129669 -0.00044447044 0.00094766985 0.0043864422
0000a0 24 e8 b6 3b e8 a6 e5 3b e9 9a db 3b 76 fc a6 bb
       0.0055818725 0.007008422 0.0067018163 -0.0050960137
0000b0 5a 03 03 bc 11 14 74 3b be 1a 84 3b 74 06 f3 3a
       -0.007996405 0.0037243406 0.004031508 0.0018541352
0000c0 d0 e0 8d bc 89 85 48 3b bc 1a 05 bc 63 83 5a 3b
       -0.017319113 0.0030597171 -0.00812405 0.0033342473
0000d0 e3 8d 51 bb e5 3d 41 3c 0b 7e 3e ba b2 0e d0 bb
       -0.003197544 0.011794542 -0.00072667067 -0.006349408
0000e0 74 f7 6a 3b 37 a0 d3 bb 11 bf 2a bb af 80 9a b9
       0.003585306 -0.006458308 -0.0026053826 -0.00029469046
0000f0 07 df 11 3b 15 56 16 bc 1d f8 8f b9 01 c4 52 bc
       0.0022258179 -0.009175797 -0.00027459944 -0.012864114
000100 04 b9 66 bc 77 3f d3 3b d7 63 fa bb e3 23 5c 3c
       -0.014082197 0.0064467746 -0.0076412964 0.01343629
000110 38 d1 fe 3b aa 11 f2 bb 4d c3 96 3b bc 38 09 bc
       0.0077764057 -0.0073873596 0.0046009184 -0.008375343
000120 a1 03 0b 3b 0f 8f fb bb ad bd d9 3b db 9f 23 3c
       0.002121188 -0.007676966 0.0066449256 0.009986843
000130 37 7e 1f bc 94 dc db bc 61 7c 91 bb 9e 77 28 3b
       -0.009734682 -0.026838578 -0.004439876 0.0025706063
000140 6c 5f 33 3c 23 a3 dc 3b 97 66 71 3c 9e 3b b8 ba
       0.010948043 0.0067333146 0.014733932 -0.0014055853
000150 4a 72 29 bc 4f 5f 24 3c e2 61 22 bc 4c e1 5b bc
       -0.01034219 0.010032489 -0.009911032 -0.013420414
000160 41 fc d6 3b 3d c1 23 3c 53 65 c4 bb d1 96 b6 ba
       0.0065608327 0.009994802 -0.005993524 -0.0013930445
000170 4f 9c b0 3a 80 f0 1d 3c 80 8d d1 3b ee 3d 13 bc
       0.0013474318 0.009639859 0.006395042 -0.008986933
000180 cd ca 1c bc 89 4c 52 3c 6f f4 a1 bc 73 d9 1d 3a
       -0.009569836 0.01283563 -0.019769875 0.0006021477
000190 f8 22 2e 3c a1 b7 3d 3b 1b 94 a2 3b a4 26 91 3c
       0.010628454 0.0028948563 0.004961503 0.01771862
0001a0 a7 d0 17 bc af ad aa 3a 59 0b ba bb fa fd f9 3c
       -0.009266055 0.0013021732 -0.0056776223 0.030516613
0001b0 57 07 58 bc fa 92 86 bb a6 63 0f bc 4e e1 bd bb
       -0.013185344 -0.0041068764 -0.008751785 -0.0057946807
0001c0 6d 17 03 bc 04 70 78 3c da af ef 3b f3 42 19 bc
       -0.008001191 0.015163425 0.0073146643 -0.009354341
0001d0 ac 2a d8 b9 a7 26 cf 39 cf b4 31 bc ad c4 b7 3b
       -0.00041230523 0.00039510915 -0.010846331 0.0056081624
0001e0 2f 53 95 3b 88 6d c3 bc 7c 4d 33 ba bf 63 74 bc
       0.0045570354 -0.02385594 -0.0006839854 -0.014916359
0001f0 78 e1 50 bc 74 34 83 b9 c6 42 c0 bb d4 17 9e 3c
       -0.012749068 -0.00025025348 -0.005867335 0.019298472
000200 2b 0c ae 3b 17 55 06 3c 4d 32 a2 bc a6 ed 8e bb
       0.005311509 0.008198998 -0.019799376 -0.004361826
000210 b4 97 85 3b f3 02 8f 3b ea cc 1e 3b f2 46 b9 3c
       0.0040769223 0.0043643652 0.0024231025 0.022616837
000220 7e d0 a3 bb 85 b7 95 bc cd 79 9f bb 24 df 12 bc
       -0.0049992194 -0.018275985 -0.0048668147 -0.008964334
000230 fc 52 a6 3b 24 cd 8a 3c df 2a 3c 3c dc ec 89 3a
       0.0050758105 0.016943522 0.011484831 0.001052286
000240 dd ca 77 bb fe 5c d7 3b d7 04 48 bc bb 49 e0 bc
       -0.0037810125 0.006572365 -0.012208185 -0.027378907
000250 ed 78 10 bb 5c ec 0b 3c 9e f7 00 3c d4 39 90 ba
       -0.0022044734 0.008540239 0.007871537 -0.0011003562
000260 cf bf d7 ba 09 96 b4 3b 76 86 4a bb c4 b4 02 bc
       -0.0016460362 0.0055110496 -0.00309029 -0.007977668
000270 5e df 4b bc 8e f3 68 3c 50 72 2a 3b 32 a5 3d 3b
       -0.012443392 0.014218224 0.0026008077 0.0028937575
000280 a4 87 ef 3c 06 fd 1f bc 99 f9 0c bb 35 e7 cc 3b
       0.029239483 -0.009764915 -0.0021511076 0.006253148
000290 fe 61 65 bc f2 31 2b 3c 44 df 86 bb b3 03 3d 3c
       -0.014000414 0.01044892 -0.004115971 0.0115365265
0002a0 98 ff 82 bc a2 de 43 bc 9c de 81 bc ed 2e 22 3c
       -0.015991017 -0.011954935 -0.015853219 0.009898883
0002b0 43 2b e3 bc 5f 89 7a 3c b6 50 8f 3a 9f d6 90 bb
       -0.02773059 0.015291541 0.0010934088 -0.004420116
0002c0 83 bc c4 ba bc e1 01 bc dd 30 11 bc 7a 3c 20 3b
       -0.0015009794 -0.007927354 -0.008861748 0.002445011
0002d0 37 12 cf bb 08 99 af bb 52 c4 44 bb 78 7b 71 3c
       -0.00631931 -0.005358819 -0.0030024243 0.01473891
0002e0 38 9b 1b 3c 89 44 45 ba 8b 45 6a 3c e5 c6 b1 ba
       0.009497456 -0.0007525166 0.014298807 -0.0013563304
0002f0 7b 49 71 3c c0 55 c3 3b 48 1a a4 3a b6 79 84 3b
       0.014726992 0.00596115 0.001252004 0.0040428294
000300 c3 35 f5 ba 0d 05 ad bb eb 98 12 bb f0 db d0 3b
       -0.0018708039 -0.005280143 -0.0022368978 0.006373875
000310 ff ff ba bb b7 04 80 bc a5 64 d4 3a 65 ed 15 bb
       -0.0057067866 -0.015627248 0.0016204311 -0.0022877094
000320 3b 05 09 bc ab 3a 0a 3c a7 57 1e bc 16 47 6b 3c
       -0.008363063 0.008436839 -0.009664453 0.01436021
000330 da 33 25 bb d9 72 8a bb c1 0c 99 bb 1f 1e b1 bb
       -0.0025207908 -0.0042251167 -0.00467071 -0.005405202
000340 fa 78 7d bb b6 8f 4b b9 eb 95 43 3c 42 a4 ed ba
       -0.0038676844 -0.00019413125 0.011937599 -0.0018130618
000350 d5 da 12 bb eb 01 57 3b 12 00 5b bc ea fe c1 bc
       -0.0022408266 0.003280754 -0.013366716 -0.023681123
000360 25 ed 8f bb 59 e9 01 3c 49 39 c5 bb a7 4a 0a bc
       -0.0043922835 0.00792917 -0.006018792 -0.00844065
000370 ee 0b cc 3c 3a f5 e7 3a 46 51 07 3b 30 cf c1 3b
       0.024908032 0.0017696985 0.0020647808 0.0059145913
000380 f7 13 ac 3b 60 1d 2c 3b 9d 39 00 3c a7 86 aa 3c
       0.0052514034 0.0026262626 0.007826236 0.02081616
000390 a3 6b 6c 3b 5c 36 c1 bb 7f 23 0f 3c 46 f9 87 bb
       0.0036074899 -0.0058963727 0.00873649 -0.0041495888
0003a0 1d 14 80 3a 3f ec 4b bc 5f 8e 89 3a 41 b2 c5 ba
       0.0009771619 -0.012446462 0.00104947 -0.0015083031
0003b0 e7 b6 36 38 5d 32 db bb 1a 9b 63 ba 0a 1b 0d 3b
       4.3562522e-05 -0.0066893534 -0.0008682475 0.002153101
0003c0 16 7c db 3b 50 54 1b bc 7b 12 69 3a bb 7b 19 3c
       0.006698142 -0.009480551 0.00088909984 0.009367879
0003d0 5b 96 68 3b c0 40 c4 ba ec 9a 62 3b 00 a6 28 bc
       0.003549001 -0.001497291 0.0034577204 -0.010293484
0003e0 2a 05 4f bb 00 60 0b 3c fa e2 bd ba b5 1f 0a 3c
       -0.0031588771 0.008506775 -0.00144872 0.008430411
0003f0 8f 94 e3 bb 2d 57 78 3b e5 39 bc bb 08 6b a8 3c
       -0.0069452 0.0037893758 -0.0057442063 0.020558849

bias f4 [60]
000000 08 79 0f bc 93 de 16 bc b2 45 13 3c 13 aa 84 bb
       -0.008756883 -0.009208339 0.008988785 -0.0040485947
000010 08 47 40 3c 8c 9c cb bc 48 69 62 bc a3 b1 13 3e
       0.011735685 -0.02485492 -0.013819046 0.14423232
000020 66 b5 76 be 00 a0 86 bc a5 ac 36 bc 07 86 83 bb
       -0.24092636 -0.016433716 -0.01114956 -0.00401378
000030 ce 0e 3c bc 77 25 a5 ba 69 91 e4 3b 42 d0 5c bb
       -0.011478139 -0.0012599666 0.006975342 -0.0033693467
000040 fa 79 43 3c 89 15 44 3c 7d 34 04 3c 38 8c 04 b8
       0.011930937 0.011968025 0.008069155 -3.160184e-05
000050 7e f3 a6 3c 8a ad f9 bb ca 23 f2 3b 9d 8e d4 3b
       0.020379778 -0.0076195644 0.0073895203 0.0064867274
000060 a3 23 29 bb 3f 08 95 bc c8 30 67 3c ab d9 1d 3e
       -0.0025808595 -0.018192409 0.014110751 0.15415065
000070 04 c2 12 3c 2f 46 3b 3d 4a dc e1 bb 0e f6 51 3c
       0.00895739 0.04572123 -0.0068927156 0.012815012
000080 b6 df 07 3c ac 1c ac 3b 67 0d 19 3c 86 50 35 bb
       0.008293083 0.0052524414 0.009341574 -0.0027666404
000090 63 d0 6f bc fc 04 6a be 20 52 68 bd 17 2a be bb
       -0.014637086 -0.22853464 -0.056718946 -0.0058033573
0000a0 1d ee 24 b8 eb 6a 62 bc 53 60 93 3b 50 db de bc
       -3.9322407e-05 -0.013819437 0.0044975667 -0.027204186
0000b0 cd 53 89 3a 9e 18 33 ba a0 42 1c b8 17 96 d2 bb
       0.0010477245 -0.00068319764 -3.7255348e-05 -0.0064265835
0000c0 2a df 23 3c 9d 28 1c be 3f 16 8c 3c e6 90 55 3c
       0.010001937 -0.15249868 0.017100452 0.013035035
0000d0 75 0c 84 be 3c 9b 5c bc f4 09 1c 3c c4 e3 16 3c
       -0.25790754 -0.013464745 0.009523857 0.009209577
0000e0 72 81 06 bc b3 b2 9b 3c 11 4c 40 bc e3 64 f0 3a
       -0.008209573 0.019006109 -0.011736886 0.0018340613

weight f4 [60, 60]
000000 8c 52 ce ba 4e 83 5f 3b ef b3 c6 bb 96 4f 04 3a
       -0.0015741154 0.0034105363 -0.00606393 0.00050472596
000010 25 cf a2 bb a0 b7 2b 3b 50 c3 af 3b 0e b0 16 3d
       -0.004968541 0.0026201978 0.0053638592 0.036788993
000020 29 af bc 3c 6f 8e ac 3b c6 d9 a1 3b bb 1c 72 bb
       0.023032742 0.005266003 0.0049392907 -0.0036943394
000030 04 11 b0 3b 0b 58 87 bb d9 f4 7f ba 46 5a 99 3b
       0.005373122 -0.0041303686 -0.0009763963 0.004679951
000040 32 24 42 bb bb 65 75 bb 75 65 a1 bb ec 8b 7e 3b
       -0.0029623625 -0.003744467 -0.0049254247 0.0038840724
000050 d5 12 27 bb 31 10 46 ba 5b 70 c2 ba ea fa 06 ba
       -0.0025493402 -0.00075555133 -0.001483451 -0.00051490834
000060 25 12 e4 b9 48 8f 16 3a cd b3 9a bb 71 e3 12 3e
       -0.00043501068 0.00057433965 -0.004721141 0.14344575
000070 9d 73 b7 3a ce 3b 6f bd f7 5c 23 bb 86 1e 85 bb
       0.0013996247 -0.058406644 -0.0024927238 -0.0040624766
000080 e7 83 f9 3a f8 fa 82 b9 ec 7c e2 bb 28 c8 a6 3b
       0.0019036502 -0.00024982519 -0.0069118645 0.0050897785
000090 74 9e f6 3b a0 ca 5a be b7 f8 06 bc c4 53 3b 3b
       0.0075262133 -0.21366358 -0.008238009 0.0028583864
0000a0 3e c5 be 3a 47 cd 33 ba 3b 36 76 bb d1 39 ff 3b
       0.0014554632 -0.0006858897 -0.0037568945 0.0077888747
0000b0 b9 e6 f8 b8 ca af 28 bb c5 a0 78 3b 5c a7 12 ba
       -0.00011868537 -0.0025739544 0.0037937623 -0.00055943965
0000c0 ad 49 a5 bb 65 16 81 bd ba a1 7b 3a b4 19 58 ba
       -0.005044183 -0.063030995 0.0009598989 -0.0008243576
0000d0 19 f6 3c 3c 72 8d 80 ba b4 a5 99 3a d9 ee 1a 3b
       0.011533284 -0.0009807779 0.0011722357 0.00236409
0000e0 89 ee 7e 3b 9b d3 2e ba cd fc 93 3a 52 11 9c bb
       0.0038899502 -0.0006669105 0.001129055 -0.004762807
0000f0 7f f5 a1 b9 60 a0 94 ba 1c 46 0c 3b 44 5c a1 3a
       -0.00030891222 -0.0011339299 0.0021404093 0.0012310822
000100 f0 54 a0 b9 be a7 3d bb ac 65 ec b9 30 e4 12 3d
       -0.00030580861 -0.0028939093 -0.0004508918 0.035862148
000110 be fc 12 3d 68 31 60 b9 77 7b 20 bb 28 02 97 38
       0.035885565 -0.0002138071 -0.0024487653 7.200643e-05
000120 9e fa 80 3b 4c 3d ab b9 9c f6 31 ba e5 56 3f b9
       0.003936126 -0.0003266133 -0.0006788762 -0.0001824755
000130 03 86 85 3b d4 31 09 3b 8b 72 8b ba db 13 31 bb
       0.0040748133 0.002093424 -0.0010638995 -0.0027019891
000140 82 67 2b bb 3e cc 64 b8 cc 4e 0d 38 9f a5 4f ba
       -0.0026154225 -5.454965e-05 3.3690405e-05 -0.0007921103
000150 3c ba 28 39 d3 cc 0b 3a 63 d2 1b 3b fe 64 0d 3e
       0.00016091106 0.00053329504 0.0023776523 0.13808057
000160 c4 03 54 bb 18 f6 ad bd 65 39 91 3b 9d b1 8e 39
       -0.0032350877 -0.08494204 0.004431891 0.00027216683
000170 90 26 9c 39 5f 43 89 3b 13 9d 1c 3b 32 e9 ae 39
       0.0002978337 0.0041889395 0.0023897334 0.0003336161
000180 87 5f 09 3b 13 d8 5f be 17 14 ed bc 4b 6b de b9
       0.002096148 -0.2185977 -0.028940244 -0.0004242308
000190 ac d1 4f 3b 99 76 16 3b d3 03 92 b9 ba 78 c2 ba
       0.0031710668 0.0022958873 -0.0002785014 -0.0014837005
0001a0 f7 e7 12 ba 43 8f 47 ba b3 97 01 bb b3 5f 21 3b
       -0.00056040235 -0.0007612595 -0.0019774258 0.0024623692
0001b0 0b 5a 09 3a 39 37 8c bd e0 3f c6 38 04 46 a2 b8
       0.00052395527 -0.068464704 9.4532734e-05 -7.7378034e-05
0001c0 64 73 8a 3c cd 79 c6 b9 59 19 24 bb e4 51 2b ba
       0.016900726 -0.00037856252 -0.0025039522 -0.0006535335
0001d0 09 62 ec 39 18 4c 50 ba 67 fb 91 ba 14 26 eb 39
       0.0004508647 -0.0007945909 -0.0011137546 0.00044851063
0001e0 fa bc ea 39 fd e6 18 3b f6 81 8e bb 23 57 a4 ba
       0.00044772757 0.002333104 -0.0043489886 -0.0012538176
0001f0 6a e4 77 ba 77 da 9e 3b 1f 7d 0d 3b b0 54 ca bc
       -0.00094563386 0.0048478204 0.002158947 -0.024698585
000200 1a 08 23 bd 27 a5 06 3b ed a4 8e 3b db af 5f ba
       -0.039802648 0.0020545216 0.004353157 -0.00085329794
000210 df 87 39 bb 23 f6 58 b9 5a 9b 04 3a da 0f cb 3a
       -0.0028309745 -0.00020691058 0.00050585496 0.0015492395
000220 e3 de c3 bb 77 f6 84 bb 28 3a 8d b9 03 13 8c 3b
       -0.005977498 -0.004057701 -0.00026936946 0.0042747273
000230 94 06 e4 3a 71 e6 bf 38 0c 00 23 ba fd f1 01 3a
       0.001739698 9.150513e-05 -0.00062179635 0.00049570185
000240 95 a5 a7 b9 0d 64 66 39 49 7a 92 bb 65 96 19 be
       -0.0003197609 0.00021971781 -0.004470144 -0.14998777
000250 e1 33 83 3b c2 66 c2 3d 7f 6b b0 bb 8a 67 c8 ba
       0.004003987 0.09492256 -0.0053839083 -0.0015289646
000260 31 30 5d b9 79 34 a9 bb a1 d4 97 bb c2 96 46 3a
       -0.00021094155 -0.005163726 -0.0046335016 0.0007575565
000270 b5 af ab b9 88 d8 65 3e 88 b6 f6 3c bc 23 bf 3a
       -0.00032746574 0.22445881 0.030116335 0.0014582793
000280 af b3 59 bb 40 02 10 bb 04 ad 46 ba 4b a5 91 3b
       -0.0033218672 -0.0021973997 -0.0007578882 0.0044447533
000290 17 c4 0a 3a 72 c5 a2 39 12 6c 5d 3b 05 12 47 bb
       0.0005293502 0.00031046156 0.0033786339 -0.003037573
0002a0 3b 1d 17 bb 6c cb 8b 3d 27 78 09 ba 43 f5 3a ba
       -0.0023058194 0.06825909 -0.00052440393 -0.0007131884
0002b0 01 0a 97 bc 30 f9 4f 3a 10 c8 43 3b aa 9d 5e 3a
       -0.018437387 0.0007933555 0.0029873885 0.00084921217
0002c0 fd 7b 88 3a a7 54 c7 b7 fb 1e 07 3b f4 e2 04 bb
       0.0010412928 -2.3762068e-05 0.002061783 -0.0020276876
0002d0 76 32 86 39 ce 93 cd 3b 74 88 39 bc 9c ee 51 bb
       0.00025596068 0.006273723 -0.011324037 -0.0032033091
0002e0 21 17 1f bb b5 65 cf 3b 0c 54 e8 3b 11 81 db bd
       -0.002427526 0.006329263 0.0070900973 -0.10717977
0002f0 17 c2 b0 bd 8d a5 b4 3b 0d e5 75 3c 38 20 0f bc
       -0.0863077 0.0055128993 0.015008223 -0.008735709
000300 35 17 4e ba ca e2 09 3a 81 64 42 3b 0b 78 0e 3b
       -0.00078617345 0.00052599295 0.0029661956 0.0021739032
000310 cb ff 02 bc 2e 63 92 bb 05 4b a7 bb e4 4c 1a 3c
       -0.007995556 -0.0044673895 -0.0051053786 0.009417746
000320 6c 6b 9f 39 9f 7b d6 bb 6c ac 3d bb b7 b1 85 ba
       0.0003040688 -0.0065454985 -0.0028941883 -0.0010200058
000330 da 0e ac ba 58 f5 43 ba 77 50 0a bc 86 67 3d be
       -0.0013126985 -0.0007475219 -0.008442036 -0.18496522
000340 58 3a e7 3b 74 52 f9 3d ee 7d 1c bc 9e 2d 8e bb
       0.0070565157 0.1217393 -0.009551508 -0.004338934
000350 da 68 48 bb ad 11 ab bb b8 d7 55 bc 3b a8 f5 3b
       -0.0030580075 -0.005220613 -0.01305192 0.0074968613
000360 10 13 0e 3c 0c 7f 45 3e f4 d7 b0 3d 00 44 54 3b
       0.008671537 0.19286746 0.0863494 0.0032389164
000370 c9 90 5b bb 9a 5f 6e bb 25 49 88 ba 0a c6 43 3c
       -0.0033503047 -0.00363729 -0.0010397775 0.011949072
000380 23 a9 74 bb 8b 71 92 ba 70 58 51 3c 1d 2b ab bb
       -0.0037332259 -0.0011172754 0.012777433 -0.0052236454
000390 40 37 42 bc 60 b8 dd 3d 91 44 ee b9 b7 19 c6 b8
       -0.011853993 0.10826182 -0.00045445983 -9.4461655e-05
0003a0 a6 74 12 be de 01 0a 3b a4 78 37 3c c3 4a 89 b9
       -0.1430231 0.0021058242 0.011198197 -0.00026186378
0003b0 5d 52 83 3b 01 b6 2e 3b bb 4c 93 3b 0d 25 31 bc
       0.004007621 0.0026658776 0.004495231 -0.010812056
0003c0 60 26 35 bd 49 5a 07 3d 79 50 56 bd db 6b a9 3c
       -0.04422605 0.033045087 -0.05232284 0.020681312
0003d0 4d 7f 30 bd 60 52 27 bb 56 df f3 3c ff f5 31 bd
       -0.043090153 -0.0025531277 0.02976958 -0.04344749
0003e0 60 54 19 bc 4e b5 02 3d 03 f4 cd 3b d4 15 81 bd
       -0.0093584955 0.031911187 0.006285192 -0.063029915
0003f0 2a 57 a3 3d fd e6 18 bd 12 9e 76 bc 5e e4 59 3d
       0.079756096 -0.037329663 -0.015052335 0.053196304
