Total_RCS/epoch_200_batch_255_lr_0_0019819414761434403_wd_0_1808248925678225/torch_model_4_Softplus.pth (torch, 79739 bytes, 13 tensors)

weight f4 [60, 3]
00000000: 9876 1f3f d470 3b3e 1527 373e a04b 79bf
00000010: a151 553f 28bf aabf a4a0 813e 1205 033e
00000020: 6a2c 693e 3b68 9bbc 37f1 fb3d 4051 633e
00000030: 9157 85bc aaf4 193e a6c7 343f f7dc 4640
00000040: 8296 cc3e 798c 933e 381a b03f c6b5 cbbf
00000050: 6fdb 1ec0 6a37 2e3f 8474 313e 30bc d33d
00000060: 9be7 ebbf a569 49be 0936 babe a353 28bf
00000070: 27f1 0440 2731 e7bf 300a 26c0 b57f 31bf
00000080: 7e16 16bf 937c 8c3e 97c4 5140 b5b3 cf3f
00000090: 124a b23e d13a fc3d 9fcb fa3d 0ede 1f3e
000000a0: 000b e03d d942 b43e fe7e 873e 2b7c e83d
000000b0: c596 723e 520c 6fbe a5fd a73d e17b e63e
000000c0: 4385 aa3e ad91 203e 93a1 313e 91f8 5a3e
000000d0: 22da 143e 7414 663e 13a0 e8bf 5617 56bf
000000e0: f5d7 77bf 3a7b a73e 4dab 333e 2774 353e
000000f0: 8076 35bd 0209 2b40 0b3f 0940 1bd3 273f
00000100: fd2d 2d3e d2d8 5d3d 334c d5be 29c5 a83f
00000110: 4e8d 3cc0 7454 1f3e 7874 053e 024c 863e
00000120: 5909 9f3e 1d17 0a3e 4ffb 153e a15f 55bf
00000130: c1a4 5340 2048 5640 d0cf f93e 6c25 323e
00000140: 9b3c 113e df19 f13f d1b9 01be ab2f 8fbf
00000150: 4027 4f3d 2d0f 273e c189 563e a376 843e
00000160: 8a0a 073e 90aa 283e 4a14 28be 3a48 9e3d
00000170: bfd5 263f 4310 653e bf79 163e a147 033f
00000180: 2d76 0abf 0584 95bd c6f7 473f d3b0 e93e
00000190: 04c6 0e3e dfb0 f03d 64b4 6d3e 4ace f53d
000001a0: f87f b33d fc7c 0fbf 0d1a db3c 5ba8 893e
000001b0: d551 4f3f 98e9 5140 ce39 5c3e 1114 503e
000001c0: 61c3 f63d 2fa2 443e b5dc e03f 72c5 fdbf
000001d0: a3dd 933e fc9f e53f d516 06c0 d2bc f03e
000001e0: a99b 0740 7143 65bd a445 a7bf 6741 8bbe
000001f0: e57e 1cbe c43f 6b3f 51bd a03e 6615 1a3e
00000200: 73f3 493e 4199 0a3e 9606 d43d b3cd 753e
00000210: 8f95 8c3e 91f2 233e b915 cd3d c674 20bf
00000220: 0de3 4ec0 0d1c 21bf c816 aabe 76e8 933d
00000230: df2a 6b3e 08ac 543e 5bfe 3fc0 d009 17c0
00000240: 7269 5e3e 8561 e63d e79a 453e 2db4 2f3f
00000250: d97f f03d 1cb8 b83d e73b 94bf 25e8 593f
00000260: 8402 a0bf ae19 0d3f 08e6 0c3e eb3d f13d
00000270: b710 4c3e 748b 013e cf81 cb3d decc 323e
00000280: cec1 fd3d 253a 8c3e 413d bf3e ac63 023e
00000290: 85b9 d13d 8261 dd3e 57ed f63d dbaf 833e
000002a0: a96a 4ebe 1f66 103e 4ce8 2a3e cec3 9a3d
000002b0: 18c9 1e3e 475b 823e f012 d0bf 3719 12c0
000002c0: 2611 623f cb5a 36bf 7a36 3c3e 3ab2 13bf
0.62290335 0.1830476 0.17886002 -0.9738102 0.8332768 -1.3339586 0.25317872 0.12794903
0.22770849 -0.0189706 0.123018675 0.22198963 -0.016277106 0.15034738 0.7061714 3.1072366
0.39958578 0.2881811 1.3758001 -1.5914848 -2.4821432 0.68053305 0.17329603 0.10338628
-1.8430055 -0.19669206 -0.3636935 -0.6575262 2.0772188 -1.8061875 -2.5943718 -0.6933549
-0.5862807 0.27438793 3.277624 1.6226717 0.34822136 0.12315906 0.12245869 0.15612051
0.10939598 0.3520725 0.26464075 0.11351808 0.23690327 -0.23344544 0.08202676 0.45016387
0.33304796 0.15680571 0.17346792 0.21383883 0.14536336 0.2246874 -1.8173851 -0.8362936
-0.968139 0.32711202 0.17545815 0.1772009 -0.044302464 2.6724248 2.1444728 0.65556496
0.16912074 0.054161854 -0.41659698 1.3185169 -2.9461246 0.1555956 0.1303271 0.26229864
0.3106182 0.1348538 0.14646648 -0.83349043 3.3069308 3.3481522 0.4879136 0.17397088
0.14183275 1.883602 -0.1266854 -1.1186422 0.05057454 0.16314383 0.20950986 0.25871763
0.13187614 0.16471314 -0.1641399 0.0772862 0.651699 0.22369485 0.1469488 0.5128117
-0.5408657 -0.07300571 0.7811245 0.4564272 0.13942724 0.117524855 0.23213345 0.12002237
0.087646425 -0.56050086 0.02674582 0.26886258 0.8098424 3.2798824 0.21506426 0.20320155
0.12048984 0.19202493 1.7567354 -1.982588 0.28880033 1.7939448 -2.0951436 0.47019058
2.1188757 -0.05597252 -1.3068128 -0.27198336 -0.15282781 0.91894174 0.31394437 0.15047225
0.19721775 0.13535024 0.10352819 0.2400425 0.27457854 0.160105 0.10013909 -0.6267818
-3.232608 -0.6293343 -0.33220506 0.07222073 0.22965573 0.2076875 -2.9998996 -2.359974
0.21719912 0.11249069 0.19297372 0.686343 0.11743135 0.09019491 -1.1580781 0.8511985
-1.2500768 0.5511731 0.13759625 0.11779388 0.19928251 0.12650853 0.099368684 0.17460963
0.12390481 0.2738811 0.3735142 0.12733334 0.10240463 0.43238455 0.12056988 0.25720105
-0.20157875 0.14101456 0.16690177 0.07556878 0.15506399 0.25460264 -1.6255779 -2.282789
0.88307416 -0.7123229 0.18380156 -0.5769383

bias f4 [60]
00000000: b6a7 e13e 8e3b 34bf 2b4e 4dbe 3e7c 52bc
00000010: 7958 d7bd 09cb ac3e 2cdb 70bd 2f2d b03e
00000020: 6b90 dabe 60d7 24bf 6f0f 52be 35c9 b93f
00000030: eddb 9ebe 1a89 5fbe 6f7e a9be a22f 743c
00000040: a034 d6ba 8778 70be cc65 40bf 6ad5 d53d
00000050: 668e f63f 016b e63e 3228 18bf 32ab 16be
00000060: 3bff 1cbe c0f3 3a40 3e1c 9f3e b0b7 f33f
00000070: 16be a43e e42d 68be 2ba2 603e 7ada 97be
00000080: 06d4 4bbe 47c2 31bc 855a 55be 53c5 ba3e
00000090: 760f 413f 185a 87be 3885 953f 86b3 103f
000000a0: eb37 0340 33d4 863d fd29 723d 9627 ddbe
000000b0: a588 453e 0796 2fbf c64e f43d 7061 21bf
000000c0: b986 96be 0b7c 9c3d 4e5a 3dbf 6bb9 163e
000000d0: 4399 06be 65e9 43be 823a 3cbe 3a7b f2bd
000000e0: b905 f33d 0aff fe3d d464 68bf cf4c 35bf
0.44073266 -0.70403373 -0.2004935 -0.012847004 -0.10514922 0.33748654 -0.05880277 0.34409472
-0.42688307 -0.64391136 -0.205137 1.4514529 -0.31027165 -0.21829644 -0.33104274 0.014903935
-0.0016342588 -0.23483478 -0.7515533 0.10441096 1.9262207 0.45003513 -0.59436333 -0.14713743
-0.15331738 2.9211273 0.31076235 1.9040432 0.32176274 -0.22673756 0.21936862 -0.29658872
-0.199051 -0.010849542 -0.20835312 0.3647867 0.75414217 -0.26435924 1.168128 0.5652393
2.050288 0.065834425 0.059122074 -0.43194264 0.19290407 -0.685883 0.11929087 -0.630393
-0.2939966 0.07640847 -0.7396592 0.14719169 -0.13144402 -0.19132002 -0.18381694 -0.1183991
0.11866326 0.124509886 -0.9077885 -0.70820326

weight f4 [60, 60]
00000000: 8cb2 76bd bb54 90bd 2720 3ebd af82 5cbd
00000010: 4b37 3bbd d082 1bbd 458b c8bd 2a91 6dbd
00000020: e1bd b9bd bbff 94bd 66be 0abe caf3 5fbd
00000030: 18d8 35bd e59b 3abd 839d 31bd 5f12 60bd
00000040: 7b36 51bd 09c7 3bbd 2cfb c2bd 8632 5cbd
00000050: e1af 92bd 9294 7ebd 311e d5bd 4c0b 45bd
00000060: fa72 44bd a18f dbbd d274 6fbd 9abd f9bd
00000070: 8e43 81bd f133 3ebd 4555 6bbd 4ef1 28bd
00000080: bf51 4ebd 4e42 4fbd 63c1 44bd 3ec9 9abd
00000090: fbd7 49bd 9e75 3bbd 665c b3bd 7971 89bd
000000a0: ddf0 01be 1ef5 59bd 656b 57bd 2eb7 2cbd
000000b0: f06b 6dbd a4a8 b6bd 5585 7fbd 7028 dbbd
000000c0: 5069 38bd 3069 52bd 7377 92bd 37b7 5cbd
000000d0: 75e4 4cbd 86a5 3fbd 4ec8 41bd ced7 3ebd
000000e0: 7aaf 78bd a4b7 65bd 53ab 8ebd fe34 57bd
000000f0: 82ad 76bd 4353 90bd 771b 3ebd d97d 5cbd
00000100: 8031 3bbd 907d 1bbd e389 c8bd 5e8c 6dbd
00000110: b3bb b9bd e8fd 94bd 03bd 0abe d5e9 5fbd
00000120: c2d3 35bd f796 3abd f298 31bd 0c0d 60bd
00000130: b731 51bd 57c2 3bbd f0f8 c2bd ab2d 5cbd
00000140: 38ab 92bd c88f 7ebd 2a1c d5bd 7506 45bd
00000150: 6c6e 44bd 878b dbbd f16f 6fbd 07bc f9bd
00000160: 1641 81bd 692f 3ebd 614f 6bbd 44ec 28bd
00000170: c84b 4ebd bf3d 4fbd f5bc 44bd d9c6 9abd
00000180: 0bcf 49bd 0f71 3bbd 6d5a b3bd 676f 89bd
00000190: 2cf0 01be e4ee 59bd 9566 57bd 9bb2 2cbd
000001a0: 3967 6dbd 1ba5 b6bd 9380 7fbd df25 dbbd
000001b0: c964 38bd be64 52bd e775 92bd 8bb2 5cbd
000001c0: f4df 4cbd b6a0 3fbd e6c3 41bd 25d3 3ebd
000001d0: cdaa 78bd a1b2 65bd 7ba7 8ebd ef31 57bd
000001e0: 3204 54be b2d6 0e3f f65d 11be 21ea 25be
000001f0: 1810 90be b09f 04bf 00d8 49bf e172 41be
00000200: beca 91be 6839 9e3f 574a 0bbf 3a03 1b3f
00000210: f2e9 eebd 8f8a 2ebe 0c9a 08be 9cb3 83be
00000220: b836 17be e3f0 08be 5a4e 00bf 26e3 1dbe
00000230: 2ae9 263e 05e0 42be fe79 513f abe0 1cbe
00000240: 8a7c 06be 3e57 563d bc46 36be a129 efbe
00000250: a772 3abe fb99 01be 1eda afbe aa2b 45be
00000260: f7e1 d7be eb00 16be 4ddc edbd f02f 98be
00000270: 401c 873f adef 03be 86b0 9ebe d0db 40be
00000280: b3fc f0be 244f f5be 8025 23be e4a0 00be
00000290: 49ee 17be eea5 34bf 561e 5abe 98d9 67bf
000002a0: 505d 03be feb1 2ebe e392 123f 2191 2cbe
000002b0: d5e7 fabd c1a3 1cbe 4581 00be 4036 25be
000002c0: e301 24be cede 32be 8414 45bf f8aa a63d
000002d0: 3bb0 76bd 7f52 90bd e71c 3ebd 6c7e 5cbd
000002e0: f333 3bbd ea81 1bbd 7d8a c8bd f58e 6dbd
000002f0: f5ba b9bd eefd 94bd 05bd 0abe 47f4 5fbd
00000300: 3ad5 35bd 8398 3abd 849a 31bd d50d 60bd
00000310: 4c33 51bd adc3 3bbd 1ff8 c2bd 492f 5cbd
00000320: c8b0 92bd 3392 7ebd 091d d5bd b307 45bd
00000330: c96f 44bd 3c91 dbbd 0b72 6fbd 72bd f9bd
00000340: 9a41 81bd aa30 3ebd 5f51 6bbd a9ee 28bd
00000350: e04c 4ebd 863f 4fbd debd 44bd f1c6 9abd
00000360: 9bd5 49bd 3872 3bbd 4f5c b3bd 0871 89bd
00000370: e8f0 01be 78f1 59bd 2c68 57bd cfb3 2cbd
00000380: 7068 6dbd 38a5 b6bd 8e80 7fbd 2026 dbbd
00000390: 0366 38bd 1a67 52bd 1a75 92bd a1b4 5cbd
000003a0: cde0 4cbd 0da2 3fbd 57c5 41bd 39d5 3ebd
000003b0: e0aa 78bd bdb3 65bd d2a7 8ebd 4b2f 57bd
000003c0: 8ab2 76bd 0754 90bd 2820 3ebd 3682 5cbd
000003d0: 1839 3bbd e387 1bbd ff8a c8bd 2291 6dbd
000003e0: 67be b9bd 9afe 94bd 12bf 0abe 82f5 5fbd
000003f0: 01d8 35bd 539c 3abd c69d 31bd b512 60bd
-0.06022887 -0.07047411 -0.04641738 -0.053835567 -0.04570703 -0.03796655 -0.097921886 -0.057999767
-0.0906942 -0.07275339 -0.13549194 -0.054675855 -0.044395536 -0.04555883 -0.043363106 -0.05470502
-0.051077347 -0.04584411 -0.095205635 -0.05375912 -0.071624525 -0.062153406 -0.10406149 -0.048106477
-0.047961213 -0.107207544 -0.058461018 -0.12194367 -0.06311713 -0.046436254 -0.057454366 -0.04124575
-0.050370928 -0.050600342 -0.04803599 -0.07557915 -0.04927824 -0.045766465 -0.08757858 -0.06711096
-0.12689538 -0.053212278 -0.052592654 -0.04216688 -0.057964265 -0.089188844 -0.062383015 -0.10701072
-0.04502231 -0.051369846 -0.071516894 -0.053885665 -0.05002256 -0.046788715 -0.047310166 -0.046592526
-0.060714222 -0.056083336 -0.06966271 -0.05254077 -0.060224064 -0.07047131 -0.04641291 -0.053830955
-0.045701504 -0.037961543 -0.09791925 -0.057995193 -0.09069004 -0.07274991 -0.13548665 -0.05466636
-0.0443914 -0.045554128 -0.04335875 -0.054699942 -0.051072802 -0.045839634 -0.09520137 -0.05375449
-0.07161564 -0.06214884 -0.104057625 -0.04810186 -0.04795687 -0.10719972 -0.058456365 -0.121940665
-0.06311242 -0.046431933 -0.05744875 -0.041240945 -0.05036524 -0.050595995 -0.048031766 -0.075574584
-0.049269717 -0.045762118 -0.08757482 -0.067107014 -0.12689275 -0.05320634 -0.052588064 -0.04216252
-0.05795977 -0.0891821 -0.062378477 -0.10700583 -0.04501799 -0.051365606 -0.07151394 -0.05388121
-0.050018266 -0.046784125 -0.047305964 -0.046588082 -0.060709763 -0.056078557 -0.06965538 -0.052537855
-0.20704725 0.5579635 -0.14196 -0.16202594 -0.2813728 -0.51806164 -0.78845215 -0.18891479
-0.28474993 1.2361269 -0.5441031 0.605518 -0.11665715 -0.17045043 -0.13340014 -0.2572297
-0.14766967 -0.13373141 -0.50119555 -0.15418682 0.16299883 -0.19030769 0.8182677 -0.15320079
-0.13133445 0.052329294 -0.1780042 -0.46711448 -0.18207799 -0.12656395 -0.34346098 -0.19254938
-0.42164585 -0.14648788 -0.11614285 -0.29724073 1.0555496 -0.12884398 -0.30994052 -0.18833852
-0.47067794 -0.47911942 -0.15932274 -0.12561375 -0.14836992 -0.7056569 -0.21300635 -0.90566397
-0.12828565 -0.17060086 0.5725538 -0.16852237 -0.1225125 -0.15296842 -0.12549312 -0.16133976
-0.16016345 -0.17467806 -0.7698443 0.081380785 -0.06022666 -0.07046985 -0.046414282 -0.053831503
-0.04570384 -0.037965693 -0.097920395 -0.057997663 -0.09068862 -0.07274996 -0.13548668 -0.05467632
-0.0443928 -0.045555603 -0.04336025 -0.05470069 -0.05107431 -0.045840908 -0.095199816 -0.053756032
-0.071626246 -0.062151145 -0.10405929 -0.048103046 -0.04795817 -0.10721061 -0.05845837 -0.12194337
-0.06311341 -0.04643313 -0.05745065 -0.04124323 -0.050366282 -0.05059769 -0.048032634 -0.07557476
-0.049275976 -0.045763224 -0.08757841 -0.06711012 -0.12689555 -0.0532088 -0.05258958 -0.042163666
-0.057960927 -0.08918232 -0.06237846 -0.10700631 -0.04501916 -0.051367857 -0.071512416 -0.0538832
-0.050019074 -0.046785403 -0.04730734 -0.046590064 -0.060709834 -0.056079615 -0.06965603 -0.052535336
-0.060228862 -0.07047277 -0.046417385 -0.053835116 -0.045708746 -0.03797139 -0.097921364 -0.057999738
-0.090695195 -0.07275124 -0.1354945 -0.054677494 -0.04439545 -0.04555924 -0.043363355 -0.05470534

bias f4 [60]
00000000: 3e04 9dbd eb03 9dbd 2722 5cbe 5a01 9dbd
00000010: aa04 9dbd 6804 9dbd 3704 9dbd 4d57 253f
00000020: 3702 9dbd ef03 9dbd af03 9dbd 2d03 9dbd
00000030: 9997 8b3c 1c01 9dbd 4f04 9dbd 4f55 07be
00000040: 1700 9dbd 4603 9dbd 5a99 c1be a203 9dbd
00000050: 4e03 9dbd 0803 9dbd 0e02 9dbd b58e 123f
00000060: 0216 063f c301 9dbd cb03 9dbd a803 9dbd
00000070: c77f cabe cf04 9dbd 3703 9dbd ca05 9dbd
00000080: f0d6 9cbd 6dff 9cbd 2e02 9dbd fc04 9dbd
00000090: df03 9dbd 91eb 353f aaad d6bc 9ea6 1c3e
000000a0: a6ef 4fbe 4f06 9dbd de01 9dbd 3301 9dbd
000000b0: 5204 9dbd 8a02 9dbd 5c02 9dbd 2c04 9dbd
000000c0: 3e36 1abd 1506 9dbd 1a37 943e c7f3 3abd
000000d0: 4105 9dbd c101 9dbd 6803 9dbd 5001 9dbd
000000e0: 859f 5dbf 4102 9dbd 0601 9dbd 390f 7b3e
-0.07666825 -0.07666763 -0.21497403 -0.076662734 -0.07666905 -0.07666856 -0.076668195 0.64586335
-0.07666438 -0.07666766 -0.07666718 -0.07666621 0.01704006 -0.07666227 -0.076668374 -0.13216136
-0.07666033 -0.0766664 -0.3781231 -0.076667085 -0.07666646 -0.07666594 -0.076664075 0.57249004
0.5237733 -0.07666352 -0.07666739 -0.07666713 -0.3955061 -0.07666933 -0.07666629 -0.0766712
-0.076581836 -0.07665906 -0.07666431 -0.07666966 -0.07666754 0.7106257 -0.026205856 0.15297934
-0.20306262 -0.07667219 -0.07666372 -0.07666244 -0.0766684 -0.076665 -0.07666466 -0.07666811
-0.037649386 -0.07667176 0.2894829 -0.04564264 -0.07667018 -0.0766635 -0.07666665 -0.07666266
-0.8657153 -0.076664455 -0.07666211 0.24517526

weight f4 [60, 60]
00000000: 22df b93a e0dc b93a 5f7f 573e 7545 b93a
00000010: 8215 b93a e4d4 b83a 2016 b93a 3d9f 3ebe
00000020: 9c1e b93a b82a b93a f7b6 b83a 9c6b b93a
00000030: 7bfd 8c3d ebb1 b93a 9911 b93a 4f6b 1fbe
00000040: 63cb b83a 4916 b93a a3fb d7bd f2e9 b83a
00000050: 54df b83a c803 b93a 4145 ba3a f893 4ebe
00000060: 14c6 133f 8382 b93a ca04 b93a c135 b93a
00000070: bbd0 80be 9660 b93a 7b41 ba3a 64d5 b83a
00000080: 1cb3 dc3a 2e43 b93a 458c b93a 2496 b93a
00000090: c2bd b93a 199d b6bd b02b 15bf 2e50 4d3d
000000a0: 5dc9 2cbd 43c6 b83a 5143 b93a 7211 ba3a
000000b0: c65a b93a 0242 b93a f318 b93a 2f49 b93a
000000c0: dd95 b6bd c4d1 b93a a5bf a9bd 331b f9b9
000000d0: c840 ba3a 04a4 b93a bfe0 b93a 259f b83a
000000e0: bb82 1cbb eb77 b93a ed13 ba3a f3db 90bd
000000f0: 362c 5a3a e551 593a 7cde 803f 9655 5b3a
00000100: ba47 5b3a 5d9e 5a3a 8a92 5a3a 1878 843e
00000110: 457e 5a3a c4a4 5a3a 1ee3 593a ee78 5a3a
00000120: 312b 903b 3f0b 5a3a 6a92 5a3a a118 73bf
00000130: 6b25 5a3a 86bf 5a3a 3244 80be 5bb2 5a3a
00000140: d6ad 5a3a 51de 593a a187 5b3a a147 173e
00000150: e096 42be 18b1 5b3a 4126 5b3a f933 5b3a
00000160: 7a25 613e cda2 5b3a 693c 5a3a 2f96 5b3a
00000170: a1a7 223a 7ae6 5a3a 926b 5b3a febc 5a3a
00000180: e331 593a 11c5 22bf 8bde 7a3e c7ee 6dbd
00000190: ea73 00bf 824f 5c3a 300c 5b3a f5ed 593a
000001a0: acf7 593a fa28 5a3a 810a 5b3a 1030 5b3a
000001b0: 78bc 09bf 2522 5a3a 94bf 973e 1ac1 aabe
000001c0: 871f 5a3a dd37 5c3a de1b 5b3a 54a2 5a3a
000001d0: b9ea 08be b828 5b3a 69b1 593a 267e 1fbf
000001e0: 0df6 83ba c506 84ba c311 59bd a0e6 83ba
000001f0: 87e9 83ba bf25 84ba 07eb 83ba 43f4 2dbe
00000200: bded 83ba 41ce 83ba 50fd 83ba feee 83ba
00000210: f876 46bd aeeb 83ba 26d0 83ba 4fb7 a9bc
00000220: 1f07 84ba 51df 83ba aa39 2cbd dcd4 83ba
00000230: 3b0f 84ba bff0 83ba 4cd1 83ba e7fd e5bd
00000240: 65b6 98bd 3de8 83ba b700 84ba 81da 83ba
00000250: 0dbc 3ebb 85e5 83ba b7e8 83ba b3f0 83ba
00000260: c9df 86ba 57f3 83ba 93e2 83ba b1f7 83ba
00000270: c6dd 83ba 0548 1ebe 8123 89bd c54c b5bc
00000280: 0ba6 2d3b 3ded 83ba 16ef 83ba 66c2 83ba
00000290: 03ec 83ba 2ced 83ba e8db 83ba 8ff3 83ba
000002a0: bfba 9ebc e1e0 83ba 8a71 80bd 7525 eabc
000002b0: 3bb5 83ba dffa 83ba 68e2 83ba bdee 83ba
000002c0: 1740 b2bb c808 84ba ba08 84ba b131 18bd
000002d0: 3d3b 7eba 815c 7eba 19b3 58bd c41b 7eba
000002e0: 0622 7eba 879a 7eba e324 7eba b7d7 2dbe
000002f0: 182a 7eba eeea 7dba 9c49 7eba 482d 7eba
00000300: 211a 46bd 5226 7eba 4dee 7dba 0bae aabc
00000310: 045d 7eba 1a0d 7eba 453d 2cbd 4ff8 7dba
00000320: 3f6d 7eba 0530 7eba bff0 7dba 53ea e5bd
00000330: 7a24 98bd dd1f 7eba 764f 7eba 2c03 7eba
00000340: daf9 47bb 501a 7eba 2220 7eba ec2f 7eba
00000350: ccfb 81ba a135 7eba bb13 7eba 2f3e 7eba
00000360: a00a 7eba 5e54 1ebe f9b7 88bd 3c72 b4bc
00000370: f9d1 2d3b 9d28 7eba 912d 7eba f8d1 7dba
00000380: cd26 7eba d428 7eba d005 7eba 4536 7eba
00000390: ed2f 9fbc 870f 7eba 0a92 80bd cd43 eabc
000003a0: 5cb8 7dba b244 7eba 0213 7eba 112c 7eba
000003b0: aaed b2bb 5b60 7eba c860 7eba 0e79 18bd
000003c0: e7d1 41bb ea39 42bb 7e79 a0bd 8470 41bb
000003d0: 09ed 41bb ebc0 41bb e030 42bb fe02 1dbe
000003e0: 10b4 41bb 6b1a 42bb 481a 42bb 83d4 41bb
000003f0: 7a6a bf3e a105 42bb c7e7 41bb c4e9 9fba
0.0014180879 0.0014180206 0.21044682 0.001413508 0.001412079 0.0014101532 0.0014120974 -0.18615432
0.0014123502 0.0014127111 0.0014092614 0.001414645 0.06884285 0.0014167404 0.0014119624 -0.15568279
0.00140987 0.0014121021 -0.10546043 0.0014107807 0.0014104643 0.0014115507 0.0014211313 -0.20173633
0.5772412 0.0014153275 0.0014115807 0.00141304 -0.2515925 0.0014143165 0.0014210189 0.0014101681
0.0016838047 0.0014134401 0.0014156183 0.0014159125 0.0014170932 -0.08916683 -0.58269787 0.050125293
-0.042184222 0.0014097173 0.0014134442 0.0014195873 0.0014141432 0.0014134052 0.0014121815 0.001413619
-0.08915303 0.0014176895 -0.082885064 -0.00047513246 0.001420998 0.001416326 0.001418136 0.0014085515
-0.0023881632 0.0014150118 0.0014196612 -0.07073202 0.0008322628 0.00082900963 1.0067897 0.00083669403
0.0008364875 0.0008339638 0.0008337876 0.25872874 0.00083348557 0.0008340592 0.0008311736 0.000833406
0.00439968 0.0008317716 0.00083378574 -0.94959456 0.0008321616 0.0008344579 -0.2505203 0.0008342617
0.00083419436 0.0008311021 0.00083743973 0.14773418 -0.19002867 0.0008380576 0.0008359887 0.00083619315
0.21986952 0.0008378446 0.0008325042 0.0008376566 0.0006204788 0.0008350384 0.0008370216 0.0008344202
0.0008285327 -0.6358195 0.24498956 -0.058089044 -0.5017687 0.00084041816 0.0008356003 0.00083133514
0.0008314799 0.0008322146 0.0008355752 0.0008361349 -0.53803205 0.0008321128 0.2963835 -0.3335045
0.0008320738 0.0008400658 0.00083583395 0.0008340229 -0.1337079 0.00083602546 0.0008304329 -0.6230186
-0.0010067836 -0.0010072818 -0.052995455 -0.0010063238 -0.0010064103 -0.001008205 -0.001006455 -0.1698771
-0.0010065358 -0.0010055975 -0.001007 -0.0010065732 -0.0484533 -0.0010064745 -0.001005654 -0.020717291
-0.0010072923 -0.001006106 -0.04204718 -0.0010057944 -0.001007534 -0.0010066255 -0.0010056882 -0.11230069
-0.07456664 -0.0010063719 -0.0010071014 -0.0010059626 -0.0029103786 -0.0010062909 -0.0010063861 -0.0010066241
-0.0010290082 -0.0010067028 -0.0010062031 -0.0010068325 -0.00100606 -0.15457161 -0.06696225 -0.022131333
0.0026496674 -0.0010065209 -0.001006576 -0.0010052442 -0.0010064844 -0.001006519 -0.0010060044 -0.0010067093
-0.019376157 -0.0010061526 -0.06271656 -0.028582314 -0.0010048518 -0.0010069272 -0.0010061981 -0.0010065656
-0.005439769 -0.0010073418 -0.0010073401 -0.037156764 -0.0009698158 -0.0009703115 -0.052905176 -0.00096934685
-0.0009694401 -0.00097123574 -0.00096948276 -0.1697682 -0.00096956035 -0.00096861913 -0.00097002997 -0.00096960785
-0.048364762 -0.0009695041 -0.00096866937 -0.020834943 -0.00097031915 -0.00096912833 -0.04205062 -0.0009688185
-0.000970561 -0.00096964865 -0.0009687058 -0.112263344 -0.07428832 -0.0009694079 -0.00097011717 -0.00096898037
-0.0030513913 -0.0009693252 -0.0009694119 -0.0009696472 -0.000991696 -0.00096973224 -0.0009692271 -0.0009698597
-0.00096909143 -0.15461871 -0.06675715 -0.022027127 0.0026522859 -0.0009695383 -0.0009696121 -0.0009682472
-0.0009695113 -0.0009695415 -0.0009690197 -0.0009697418 -0.019432032 -0.0009691645 -0.06277855 -0.028596783
-0.0009678656 -0.00096995675 -0.00096921634 -0.00096958975 -0.0054604607 -0.0009703689 -0.00097037526 -0.03722482
-0.0029574574 -0.002963657 -0.07835673 -0.0029516527 -0.0029590747 -0.002956445 -0.0029631183 -0.15333173
-0.0029556789 -0.0029617797 -0.0029617716 -0.002957613 0.37385923 -0.0029605406 -0.0029587613 -0.0012200405

bias f4 [60]
00000000: 3b12 d53d e16f f93d 46f0 05bd 6a7f 05bd
00000010: e31e c73e 6dbe 06bd fd13 97be 7183 07bd
00000020: 75eb 06bd 40e4 b43e ce7e af3d d97f 1b3e
00000030: 87f9 643e 40e8 07bd ddb0 ffbc 1621 08bd
00000040: ef85 02ba ed96 833e 5ce0 bb3d 691e 06bd
00000050: a4fd 8a3c cee1 07bd 8363 08bd 85bd 04bd
00000060: 4ca4 9dbe 10fe 0cbf 97d4 743d 7fbf 04bd
00000070: 6320 b03d cafd 06bd a097 05bd 6fd6 ac3d
00000080: ea88 74be 11ca 07bd 35a9 06bd b695 07bd
00000090: 34cc 3c3e c4dd 07bd 9b46 03bd de9e f8bc
000000a0: d4ae 19be 1367 04bd 9c27 263e 0a57 ca3d
000000b0: a561 663c b6ba 04bd 00bb 00bd 28ad 02bd
000000c0: f318 07bd 3657 07bd a70d f0be 864d 08bd
000000d0: 491a b4be cacf 0c3c bb1f 68bd 38a5 e0be
000000e0: 7b39 2e3e 83ab d3bc 48c6 8fbd b7aa e7bd
0.10403868 0.12179542 -0.032699846 -0.032592215 0.38890752 -0.032896448 -0.29507437 -0.033084337
-0.032939393 0.3533039 0.08569108 0.15185489 0.22360812 -0.033180475 -0.031212265 -0.03323468
-0.0004979064 0.25701085 0.091736525 -0.032743845 0.016966648 -0.03317433 -0.033298027 -0.032407302
-0.3078941 -0.5507517 0.059773054 -0.032409187 0.08599927 -0.032956876 -0.032615304 0.084393375
-0.23880354 -0.03315169 -0.032876212 -0.03310176 0.18437272 -0.033170477 -0.032049756 -0.030349191
-0.15008098 -0.03232486 0.16226047 0.09879883 0.014061366 -0.032404624 -0.031428337 -0.031903416
-0.032982778 -0.033042155 -0.46885416 -0.033277057 -0.35176304 0.008594463 -0.056670886 -0.43876052
0.17014115 -0.02583862 -0.07020241 -0.11311858

weight f4 [60, 60]
00000000: 3332 eabb 7f2b adbd 9dee c1bb cff5 c1bb
00000010: 8b58 9cbd 4b45 c1bb 1f32 8bbc 09d8 c0bb
00000020: 2c2d c1bb eeb7 73bc 07c2 c6bc 348c 01bb
00000030: 3143 f0bc db9f c0bb d9f9 c4bb e57d c0bb
00000040: 65e9 7ebc d25a f0bc 13d5 85bc 1f9e c1bb
00000050: dd24 1abc a2a6 c0bb dc5e c0bb 425f c2bb
00000060: e2df 87bc 525f b6bd 6e28 a0bb ca59 c2bb
00000070: 7068 4dbc 521d c1bb 9fde c1bb 285e b8bb
00000080: 5be4 8bbc b6ad c0bb 7351 c1bb 4b42 c0bb
00000090: 752c 3abe fda2 c0bb 10ac c2bb 6d43 c6bb
000000a0: 3f34 0bbd d182 c2bb 3bf9 a8bc 110d 8cbc
000000b0: a583 1abd 6d5f c2bb b464 c4bb 388a c3bb
000000c0: ec08 c1bb b6ec c0bb deae 51bb d85e c0bb
000000d0: 95f3 dabc e273 8fbc 9b64 0bbd ae00 3abd
000000e0: 44fb afbc e2bd d1bb 13a9 22bc bda4 9abc
000000f0: 0adf 43bc de51 9bbd 030d a0bb a311 a0bb
00000100: fe27 edbd 24f8 9fbb 656e efbb bbc3 9fbb
00000110: 02f0 9fbb c82c a5bc bfe4 b1bc 28f8 51bc
00000120: f335 39bd 18b0 9fbb 7835 9ebb 93a0 9fbb
00000130: 0e23 fcbb 4195 eabc 1b9b 90bd a4ff 9fbb
00000140: 126e 18bb 51ae 9fbb fda0 9fbb dc26 a0bb
00000150: 2d06 0ebb 8646 92bd 112c 9abb 2b40 a0bb
00000160: c7c4 0bbd abf3 9fbb 2617 a0bb 142f c3bb
00000170: 7d86 64bc 78c1 9fbb 8cf4 9fbb 508e 9fbb
00000180: 847d 35be 8fb1 9fbb f636 a0bb 53ad a0bb
00000190: 5f1f 2fbd df40 a0bb 7a49 03bd 3eda e2bc
000001a0: 979f 10bd 6729 a0bb 419e a0bb 8e94 a0bb
000001b0: 09cc 9fbb 01d7 9fbb a859 d7bc 839f 9fbb
000001c0: c672 b2bc 73da ffbc 9fc4 6abc 252d 2bbd
000001d0: 5c34 10bd bff0 a7bb 21e1 5bbc b5d9 a7bb
000001e0: 155b 40bc 0f63 9bbd 36c0 9fbb 35c5 9fbb
000001f0: 5266 ecbd faa6 9fbb a1e6 f3bb 4770 9fbb
00000200: 409e 9fbb 954b a4bc ebc5 b1bc c485 4ebc
00000210: 2bc5 37bd 365b 9fbb 270b 9ebb c24a 9fbb
00000220: d415 01bc 5d76 eabc dca6 8ebd d9b0 9fbb
00000230: 65bc 11bb 4659 9fbb 474a 9fbb 0edd 9fbb
00000240: 2a4f 1abb 53c6 92bd d278 98bb 12f6 9fbb
00000250: 2745 0abd 68a1 9fbb 02ca 9fbb 12bd c2bb
00000260: 6799 65bc 6a6c 9fbb e7a3 9fbb f839 9fbb
00000270: 3088 35be e05c 9fbb 3cf1 9fbb f97c a0bb
00000280: b427 2ebd 00f8 9fbb 73c0 02bd 50a3 e0bc
00000290: 5fec 10bd c5df 9fbb 0261 a0bb be50 a0bb
000002a0: 117a 9fbb f383 9fbb 1b06 d3bc d648 9fbb
000002b0: 8671 b1bc ecc2 fcbc 86f8 6ebc 9df9 2bbd
000002c0: 19ca 0fbd 2fd5 a7bb e70f 5abc 7289 abbb
000002d0: ace9 c1bb b0cc a3bd a3b0 8abb 75c5 8abb
000002e0: 2ab1 bebd 3229 8abb 8579 3bbc 3db5 89bb
000002f0: 060f 8abb 3a28 7fbc 4099 a8bc cddb 9ebb
00000300: e346 00bd cc7f 89bb d34c 8dbb 4657 89bb
00000310: 8ceb 5bbc d037 e5bc 9bbf 0ebd 1271 8abb
00000320: 94ce 93ba 6f7b 89bb 3f3c 89bb f427 8bbb
00000330: 3d38 0fbc d6cd a2bd 8e08 6dbb a431 8bbb
00000340: 6c60 a3bc 4f02 8abb f5b7 8abb da73 b6bb
00000350: f361 88bc 2289 89bb 512f 8abb 6971 89bb
00000360: 7b95 31be f584 89bb eeae 8bbb 5998 8ebb
00000370: f2db 10bd a458 8bbb f6a5 c5bc 0e72 9bbc
00000380: a2c5 16bd 172e 8bbb 6d10 8dbb 8b38 8cbb
00000390: a9e9 89bb 05cf 89bb 2060 18bc 4c3c 89bb
000003a0: ecda 99bc 55e8 99bc 22bc bbbc 1e12 38bd
000003b0: fc3e e3bc 8849 98bb b3b9 1bbc 8936 22bc
000003c0: cdcc c2bc 41ed fbbd fcf5 27bc 8e22 2dbc
000003d0: 18dc 6abe 6155 2dbc 01bf 94bf d8a5 2cbc
000003e0: 1f15 2dbc 7494 093d 0afb c4bd 3431 e53e
000003f0: 7dc4 d13c f067 2cbc d979 e5bb 2a71 2cbc
-0.0071470975 -0.08455562 -0.0059183375 -0.0059191952 -0.07634076 -0.005898153 -0.016991673 -0.0058851284
-0.0058952775 -0.014875395 -0.024262441 -0.0019767405 -0.029328914 -0.0058784313 -0.0060112295 -0.005874383
-0.015558575 -0.029340181 -0.016336953 -0.005908742 -0.009408203 -0.005879239 -0.005870683 -0.005931766
-0.016586248 -0.089049 -0.004887632 -0.005931114 -0.012537107 -0.005893388 -0.005916431 -0.0056264587
-0.017076662 -0.005880083 -0.005899602 -0.0058672777 -0.18181022 -0.0058788047 -0.0059409216 -0.0060505182
-0.033985373 -0.0059360047 -0.020626655 -0.017096074 -0.037723202 -0.005931786 -0.00599345 -0.0059674047
-0.005890956 -0.005887593 -0.0031995098 -0.0058706813 -0.026727477 -0.017511312 -0.03403149 -0.045410804
-0.021482117 -0.0064008096 -0.009928006 -0.018877381 -0.011955032 -0.07583974 -0.0048843636 -0.004884915
-0.115798935 -0.0048818756 -0.007306861 -0.004875628 -0.004880906 -0.020162955 -0.02171552 -0.012815513
-0.045217466 -0.004873287 -0.0048281513 -0.004871437 -0.0076946085 -0.028635623 -0.07060834 -0.0048827697
-0.0023258966 -0.004873075 -0.004871486 -0.004887445 -0.0021671162 -0.071423575 -0.00470496 -0.004890462
-0.03412321 -0.0048813424 -0.004885572 -0.00595654 -0.01394808 -0.004875358 -0.004881447 -0.00486926
-0.17723662 -0.0048734616 -0.0048893644 -0.0049034744 -0.042754527 -0.0048905457 -0.032052495 -0.027691957
-0.035308447 -0.004887748 -0.004901678 -0.0049005216 -0.004876618 -0.0048779254 -0.026287869 -0.00487131
-0.021783244 -0.031232094 -0.014329105 -0.0417911 -0.035206184 -0.0051251347 -0.013420374 -0.0051223882
-0.011740466 -0.07587253 -0.0048752083 -0.004875804 -0.115429536 -0.0048722 -0.0074432646 -0.0048656794
-0.00487116 -0.020055572 -0.02170082 -0.012605134 -0.04486577 -0.004863168 -0.004823107 -0.0048612067
-0.007878739 -0.028620893 -0.0696542 -0.004873377 -0.0022237536 -0.004862937 -0.0048611495 -0.0048786467
-0.002354572 -0.071667336 -0.004653075 -0.004881629 -0.033757355 -0.004871536 -0.004876376 -0.005942949
-0.014013625 -0.004865219 -0.0048718336 -0.0048592053 -0.17727733 -0.0048633665 -0.0048810523 -0.0048977104
-0.042518333 -0.004881859 -0.031921815 -0.027421623 -0.03538167 -0.0048789703 -0.0048943767 -0.0048924377
-0.0048668464 -0.0048680245 -0.025759747 -0.0048609776 -0.021660578 -0.030854665 -0.01458562 -0.041986097
-0.035104845 -0.005121849 -0.0133094555 -0.0052348906 -0.0059177484 -0.079980254 -0.0042324825 -0.0042349645
-0.09311135 -0.0042163366 -0.011442547 -0.0042025135 -0.0042132167 -0.015573556 -0.020580888 -0.0048479796
-0.031317603 -0.004196143 -0.0043121367 -0.004191312 -0.013422858 -0.027980715 -0.034850698 -0.004224905
-0.0011276775 -0.0041956226 -0.00418809 -0.004246706 -0.008741436 -0.07949416 -0.003616843 -0.004247861
-0.019943438 -0.004211701 -0.004233355 -0.00556801 -0.016648268 -0.0041972557 -0.0042170663 -0.0041944277
-0.17342179 -0.004196758 -0.0042627966 -0.0043516573 -0.035366006 -0.00425251 -0.024126988 -0.018975284
-0.03680957 -0.0042474377 -0.0043049366 -0.0042792014 -0.0042087627 -0.004205587 -0.009300262 -0.004188096
-0.018781148 -0.018787542 -0.022916857 -0.044939153 -0.027739994 -0.0046474375 -0.009504723 -0.0099006975
-0.023779297 -0.12301112 -0.010251518 -0.0105673205 -0.22935522 -0.010579438 -1.162079 -0.010537587
-0.010564118 0.03358884 -0.096181944 0.44764102 0.025606388 -0.0105228275 -0.0070030508 -0.010525027

bias f4 [60]
00000000: 03ad 2cbd c81a c0bc 8efc c2bc 159b 09bd
00000010: 03f2 393e 7878 863e ddd7 2cbd 2fa0 2cbd
00000020: f35e c7bc 84b0 443e 2dc6 2cbd 4fdb 2cbd
00000030: 178e 4c3e 3abd e13c c3da 2cbd 4bad 093f
00000040: d31a ac3e 66fd b4bc afd6 2cbd 7054 213f
00000050: 585e 2abd 7708 d33e be62 293e 38dd 9dbc
00000060: afc1 2cbd 0b33 24bd 04f6 043f b7d3 b33d
00000070: 4d7d c83d 70d0 2cbd ed31 eabc da8c 3d3d
00000080: b3d8 2cbd 16ef 5a3f 1dd6 8c3e 8f78 d3bc
00000090: 6eda 2cbd e6db 2cbd 0b19 2f3e fe4b 7b3e
000000a0: 9475 bfbc 0c0f 443d 96a2 2cbd 0b9b 623d
000000b0: d3ba 2bbd b0d3 2cbd 7cd8 2cbd de98 a2bc
000000c0: eb28 ebbc 8cd4 cfbc 2b5c c8bc 4756 2cbd
000000d0: 28d1 2cbd 96fe ad3f 1116 2abd 36db 2cbd
000000e0: 4eda 6c3e 82d6 2cbd 53e5 2bbd 280f cfbc
-0.042157184 -0.02345027 -0.023802068 -0.033595163 0.18158726 0.26263785 -0.04219805 -0.04214495
-0.024337268 0.1920796 -0.042181183 -0.042201336 0.19976078 0.02755605 -0.042200815 0.5378005
0.33614215 -0.022093486 -0.042196926 0.63019466 -0.04159388 0.41217396 0.16541573 -0.019270524
-0.0421769 -0.04008774 0.5193789 0.08780616 0.09789524 -0.04219097 -0.02858826 0.046276905
-0.042198848 0.85521066 0.27507105 -0.025814323 -0.0422005 -0.0422019 0.17099397 0.24540707
-0.023371495 0.047865912 -0.04214724 0.05532364 -0.041926216 -0.04219407 -0.042198643 -0.019848283
-0.028706035 -0.025369905 -0.024458012 -0.042074468 -0.042191654 1.3593318 -0.04152495 -0.042201243
0.23130152 -0.042196758 -0.041966747 -0.025275782

weight f4 [60, 60]
00000000: b03b 80bb 0e43 81bb 82de 80bb f343 74bb
00000010: 0100 c3bb 2b50 15bc 8b49 80bb 863a 80bb
00000020: 0744 80bb 1387 47bc 603d 80bb 694b 80bb
00000030: 3cb8 55bb 68d5 bbbb 1b4a 80bb 6398 10bc
00000040: f086 8cbb a873 82bb 7d45 80bb a5db e8bb
00000050: 1374 7fbb fb71 89bc 202c 56bc a295 84bb
00000060: 4343 80bb 75ff 7cbb 6f91 8ebc bd3c a5bb
00000070: 232e aabb cf3d 80bb 52b8 78bb 2d27 97bb
00000080: d751 80bb ff44 bdbd 1864 38bc 32e3 7dbb
00000090: 974c 80bb 274d 80bb f49e 0cbc c5d1 35bc
000000a0: 3e4d 81bb 2358 abbb 0b35 80bb 78ec e03b
000000b0: d0d9 7fbb da3c 80bb 7742 80bb 98a2 84bb
000000c0: 9091 78bb c0b7 7ebb 442f 80bb 2919 80bb
000000d0: 4137 80bb be38 35be d341 7fbb 314e 80bb
000000e0: cc6c 1abc f73f 80bb 4004 80bb 02c9 7ebb
000000f0: d73d 80bb 3345 81bb a5e0 80bb b248 74bb
00000100: bb09 c3bb 6153 15bc a54b 80bb ae3c 80bb
00000110: 2e46 80bb e084 47bc 7e3f 80bb 8b4d 80bb
00000120: 66e4 55bb 8ad8 bbbb 404c 80bb 899b 10bc
00000130: d992 8cbb c975 82bb a147 80bb fdea e8bb
00000140: 6b78 7fbb b66f 89bc 8929 56bc a897 84bb
00000150: 6a45 80bb e103 7dbb ab94 8ebc 603e a5bb
00000160: c036 aabb f03f 80bb ddbc 78bb cc28 97bb
00000170: fb53 80bb 2942 bdbd 966c 38bc 9de7 7dbb
00000180: bb4e 80bb 484f 80bb 2ca8 0cbc 08d2 35bc
00000190: 664f 81bb a257 abbb 3137 80bb 9d02 e13b
000001a0: 15de 7fbb f93e 80bb 9a44 80bb ada4 84bb
000001b0: 2496 78bb 28bc 7ebb 6e31 80bb 4f1b 80bb
000001c0: 6139 80bb fa36 35be 1e46 7fbb 5550 80bb
000001d0: 2b73 1abc 1542 80bb 6d06 80bb 7acd 7ebb
000001e0: bc51 8f3b 1a14 163d 910c 133d aa28 613c
000001f0: 1ffd 953e 03cd 583e 8eb4 8d3b 02c1 8f3b
00000200: ce7d 0e3d e25a 0e3f 2d5c 8e3b b0bc 8d3b
00000210: cb4d 183f 436e c23d 3ebe 8d3b 49a6 d53e
00000220: 629f c33e df66 203d eeda 8d3b 65ce 023f
00000230: f829 9f3b d175 eb3e 216b 533e a355 333d
00000240: 389a 8e3b 3cea c03b 8aef 093f 6632 233e
00000250: 929a 4a3e 4c14 8e3b a3e3 ce3c 21fe b63d
00000260: 22ba 8d3b 69c1 243e be18 ac3e 1eb8 013d
00000270: 0fb1 8d3b f9bd 8d3b b6ed 633e 8cad 843e
00000280: 079b 163d 744b c73d 4c9c 8f3b 184f a13e
00000290: 6d6d 963b 7f0b 8e3b 68be 8d3b 99ec 303d
000002a0: 64cb cc3c c49d 053d 9a92 0d3d fa23 923b
000002b0: 9318 8e3b b23e 8c3e 1bd1 a03b f0bd 8d3b
000002c0: 8e53 683f e1bf 8d3b 7661 953b 1b6c 063d
000002d0: e94b 67bb b273 87bb 0615 87bb 5f82 73bb
000002e0: 9d31 45bb 68ce fcbb a855 67bb 2b4d 67bb
000002f0: 4185 86bb bfd5 25bc 814d 67bb 0f50 67bb
00000300: 3a82 a23b 2d7b a5bb 2d55 67bb e666 c9bb
00000310: 1363 bbba 46a0 88bb 1d4f 67bb c9ce c2ba
00000320: dedd 66bb 52e9 8ebc ed22 17bc adab 8abb
00000330: 3050 67bb 2ff6 66bb 19d2 87bb d3f9 82bb
00000340: e03d 5fbb ce46 67bb bb88 81bb ab65 93bb
00000350: ed5e 67bb 447a 9ebd 2c8c e8bb 7802 85bb
00000360: 5d57 67bb aa59 67bb 576c 9ebb e70e 0bbc
00000370: d481 87bb f6a9 a1bb 8046 67bb 8e1d b93b
00000380: 40f4 66bb 564b 67bb af48 67bb 7e6b 8abb
00000390: 485f 81bb 277b 85bb db67 86bb 0826 67bb
000003a0: 9342 67bb c866 06be 6ec1 66bb 6059 67bb
000003b0: 4eb5 1bbb 5149 67bb 3a19 67bb b28e 85bb
000003c0: a23f 80bb ea46 81bb 60e2 80bb 884c 74bb
000003d0: 4b09 c3bb 0751 15bc 784d 80bb 7f3e 80bb
000003e0: ea47 80bb d888 47bc 4f41 80bb 594f 80bb
000003f0: c5d4 55bb 90d9 bbbb 0f4e 80bb 7b9b 10bc
-0.0039133653 -0.003944761 -0.003932775 -0.0037271946 -0.005950928 -0.009113352 -0.003915017 -0.0039132265
-0.0039143595 -0.0121782 -0.0039135665 -0.0039152396 -0.0032611033 -0.005732227 -0.003915084 -0.008825394
-0.0042885467 -0.0039810725 -0.0039145336 -0.007106262 -0.0038979098 -0.016777983 -0.013072044 -0.004046158
-0.003914268 -0.0038604413 -0.017403333 -0.005042641 -0.005193488 -0.003913618 -0.003795166 -0.0046128244
-0.003916006 -0.092416756 -0.011254333 -0.0038740155 -0.00391538 -0.0039154473 -0.008582819 -0.011097376
-0.0039459756 -0.0052290126 -0.003912573 0.006864127 -0.0039039738 -0.003913504 -0.003914173 -0.004047703
-0.003792856 -0.0038866848 -0.0039118845 -0.0039092493 -0.003912837 -0.17697427 -0.0038949146 -0.003915571
-0.009425353 -0.003913875 -0.0039067566 -0.0038877134 -0.003913622 -0.003945017 -0.0039330297 -0.0037274775
-0.0059520877 -0.009114117 -0.0039152675 -0.0039134836 -0.003914616 -0.012177676 -0.003913819 -0.003915494
-0.0032637357 -0.0057326006 -0.0039153397 -0.008826145 -0.0042899665 -0.0039813262 -0.003914789 -0.007108091
-0.0038981687 -0.0167769 -0.013071426 -0.004046399 -0.003914525 -0.0038607048 -0.017404875 -0.005042836
-0.005194515 -0.003913872 -0.0037954368 -0.0046130177 -0.0039162613 -0.09241135 -0.011256358 -0.0038742789
-0.0039156354 -0.003915701 -0.008585017 -0.011097439 -0.0039462326 -0.0052289525 -0.0039128293 0.0068667666
-0.0039042283 -0.003913757 -0.003914428 -0.004047951 -0.0037931288 -0.0038869474 -0.0039121425 -0.0039095054
-0.00391309 -0.17696753 -0.0038951705 -0.0039158263 -0.009426872 -0.0039141276 -0.003907016 -0.0038879798
0.004373757 0.036640264 0.035900656 0.013742605 0.2929468 0.21171956 0.0043245023 0.004387022
0.034787945 0.55607426 0.0043444843 0.004325472 0.594937 0.09493687 0.004325657 0.41728428
0.38207537 0.039160606 0.004329077 0.51096183 0.004857298 0.45988324 0.20646335 0.04378284
0.0043518804 0.005887298 0.5388113 0.15937194 0.19785526 0.0043359157 0.02525503 0.0893519
0.0043251673 0.16089405 0.33612627 0.03166973 0.0043240855 0.004325625 0.22258648 0.25913656
0.03676894 0.097311884 0.0043826457 0.31505656 0.0045906813 0.0043348665 0.0043256767 0.043194387
0.024999328 0.03262116 0.03456364 0.004459855 0.0043364256 0.27391583 0.00490774 0.004325621
0.90752494 0.0043258523 0.0045587374 0.03281794 -0.0035293049 -0.004133665 -0.0041223792 -0.0037156565
-0.0030089386 -0.007715035 -0.0035298858 -0.0035293798 -0.0041052406 -0.010121762 -0.0035293999 -0.0035295521
0.004959372 -0.005050084 -0.0035298571 -0.0061462997 -0.0014296494 -0.0041694967 -0.0035294958 -0.0014862652
-0.0035227458 -0.01744524 -0.009224636 -0.004231891 -0.0035295598 -0.0035241952 -0.0041449186 -0.0039970665
-0.003406398 -0.0035290006 -0.003953067 -0.0044982038 -0.0035304383 -0.07738164 -0.007096788 -0.004059132
-0.0035299875 -0.0035301247 -0.0048346925 -0.00848744 -0.0041353498 -0.004933591 -0.0035289824 0.005649275
-0.00352408 -0.0035292706 -0.0035291126 -0.00422424 -0.003948126 -0.004073519 -0.004101736 -0.003527047
-0.0035287484 -0.13125145 -0.0035210508 -0.0035301074 -0.002375919 -0.0035291503 -0.003526284 -0.0040758485
-0.0039138356 -0.003945221 -0.003933236 -0.0037277061 -0.0059520355 -0.009113557 -0.003915485 -0.0039137
-0.003914823 -0.012178622 -0.0039140354 -0.003915709 -0.0032628041 -0.0057327226 -0.0039155553 -0.008826132

bias f4 [60]
00000000: ca98 dbbc af99 dbbc 4d58 b33e d646 0fbd
00000010: ee98 dbbc 9cd3 7b3e fa51 01bd 9f59 0fbd
00000020: faae dbbc 5baf dbbc 2bb7 023e 477b 9b3e
00000030: 004c 0fbd f485 dbbc f1c4 563d 1198 dbbc
00000040: 9a45 0fbd ab46 0fbd 2a0d debc f2bd 333e
00000050: 8fbe fcbc 413f 3a3e e891 dbbc ea9d dbbc
00000060: e989 0fbd 24a1 613d 6b9f e33d 0b8e dbbc
00000070: 4d08 a2bc 8844 0fbd 4088 bb3e ee4b 0fbd
00000080: 8872 993e 4ba8 ff3d 989d dbbc 157b 363e
00000090: 52ac dbbc 36c8 553e af44 0fbd 594e dbbc
000000a0: 0046 0fbd a2d5 4e3e a78e 0fbd 2a9b dbbc
000000b0: 6544 0fbd 7a9b dbbc 1586 e3bc 5da3 dbbc
000000c0: ce0a f2bc d48e dbbc d327 963e f51f efbc
000000d0: d5f9 193e fe42 0fbd 3cb6 fd3d 1692 cb3e
000000e0: fb44 0fbd 2c3a 0ebd 29f8 f8bc 47b1 dbbc
-0.026806254 -0.02680668 0.35028306 -0.034979664 -0.026806321 0.24592441 -0.03157232 -0.03499758
-0.026816834 -0.026817014 0.12765186 0.3036749 -0.03498459 -0.026797272 0.05243391 -0.02680591
-0.034978487 -0.034979504 -0.027105886 0.17552927 -0.030852584 0.18188192 -0.026802972 -0.026808698
-0.03504363 0.055085316 0.11114391 -0.02680113 -0.019779349 -0.034977466 0.36627388 -0.03498452
0.29970193 0.12483271 -0.026808545 0.1782039 -0.026815567 0.20877156 -0.03497761 -0.026770758
-0.034978867 0.20198682 -0.035048153 -0.026807386 -0.034977335 -0.026807535 -0.027773896 -0.026811296
-0.029546168 -0.026801504 0.29327258 -0.029190043 0.1503671 -0.034975998 0.12388274 0.39759892
-0.034977894 -0.034723446 -0.03039177 -0.02681793

weight f4 [60, 60]
00000000: 9cff 143a 9c07 153a 0185 80bc 2f8d f83a
00000010: b106 153a 9b2a 59bc 12fc 003b 2bd4 f83a
00000020: 6c68 153a cf5f 153a 7af8 f7bb e880 72bc
00000030: ee9c f83a 01ba 143a ee71 71bb c5f3 143a
00000040: f28c f83a 428d f83a d3dd 213a 0342 29bc
00000050: f31c ef3a f607 22bc 7fd5 143a 4328 153a
00000060: 7f7e f93a 3021 90bb 4288 d7bb b1cd 143a
00000070: c68e c839 378b f83a 6232 89bc 609f f83a
00000080: 219a 71bc fde7 dbbb ee23 153a fbc8 1abc
00000090: 9f3c 153a 885d 2abc f78c f83a 2077 133a
000000a0: 1a8e f83a 08b7 34bc 7b8e f93a 3514 153a
000000b0: 148b f83a 4f27 153a a953 3f3a e526 153a
000000c0: c861 b23a f0c8 143a d1cb 66bc 2291 803a
000000d0: a059 08bc 4f89 f83a 57c5 e9bb 4c78 8ebc
000000e0: 0f8a f83a e84f f53a b78f 9d3a e361 153a
000000f0: 557f eabb 367e eabb 91d0 743e fe3a 953a
00000100: 307c eabb 2d4a 313e 73b4 a1b9 378d 963a
00000110: 7821 eabb 6035 eabb a626 e23d d361 5a3e
00000120: 6fdc 953a c8e9 eabb 55ff 873d 067f eabb
00000130: a843 953a 403f 953a 1ce5 dfbb d3ed 073e
00000140: 0e30 85b9 7f9e 123e bd9a eabb 786a eabb
00000150: bdf5 983a 7260 833d 6ac8 ca3d 06ae eabb
00000160: 85dd 5a3c 575e 953a d738 803e ebe5 953a
00000170: b132 513e 0de6 e83d 826d eabb fb9a 0d3e
00000180: 3849 eabb 0bcd 283e 7166 953a 18c4 ebbb
00000190: d85a 953a 4d78 1a3e d7a5 993a c56e eabb
000001a0: 5553 953a 0d6b eabb caad c7bb 1559 eabb
000001b0: 6319 283b 15b8 eabb 770b 573e 9fc7 92bb
000001c0: 5241 003e 5f66 953a b3d0 dc3d 0abc 883e
000001d0: e452 953a 08bd 823a adbe 49bb 0534 eabb
000001e0: 8c36 76bc 3735 76bc e744 ad3e 3bcd 40bb
000001f0: 6534 76bc 5c60 7c3e b60e 41ba e368 3fbb
00000200: f0ee 75bc 56fe 75bc 405e 283e a50e 9a3e
00000210: 964a 40bb db7a 76bc 6e79 d33d 0b36 76bc
00000220: 57c9 40bb a3cd 40bb 07b5 6ebc e089 473e
00000230: 81d7 863a b1c9 553e a649 76bc d924 76bc
00000240: bb2c 3cbb 1af0 cc3d 5b53 173e 4255 76bc
00000250: 0ed1 d53c 93be 40bb d4f8 b63e 5a45 40bb
00000260: 4d3c 983e 7796 2c3e 9827 76bc bfe2 4f3e
00000270: 8b0d 76bc 4bff 733e d1b8 40bb 741d 77bc
00000280: 7cba 40bb fef1 603e 7da0 3bbb 492b 76bc
00000290: 1cc3 40bb 6f26 76bc 5ea0 5dbc 1319 76bc
000002a0: b351 063c b55a 76bc 5b52 973e da4c 38bc
000002b0: f09b 3e3e d2be 40bb 2504 243e f81c bd3e
000002c0: 32c5 40bb b3b3 51bb 52de 17bc 73fb 75bc
000002d0: 144e 153a fc55 153a 6885 80bc 48b8 f83a
000002e0: 4555 153a eb2b 59bc 8a0b 013b 4fff f83a
000002f0: 33b7 153a 7eae 153a b9fb f7bb c481 72bc
00000300: fec7 f83a e808 153a ab77 71bb 2942 153a
00000310: 01b8 f83a 5fb8 f83a 522d 223a da43 29bc
00000320: 5238 ef3a c609 22bc 7924 153a ed76 153a
00000330: 89a9 f93a 6e24 90bb 6f8b d7bb c91c 153a
00000340: 66c2 c839 4bb6 f83a d732 89bc 64ca f83a
00000350: 0b9b 71bc 04eb dbbb 8472 153a ccca 1abc
00000360: 328b 153a 455f 2abc 12b8 f83a a6c5 133a
00000370: 2cb9 f83a ceb8 34bc 7eb9 f93a bb62 153a
00000380: 2cb6 f83a 1d76 153a a6a4 3f3a b875 153a
00000390: 5877 b23a d517 153a cbcc 66bc 57bb 803a
000003a0: 585b 08bc 68b4 f83a 96c8 e9bb d078 8ebc
000003b0: 2cb5 f83a 447b f53a 27bb 9d3a 78b0 153a
000003c0: 09c6 71bc a8c4 71bc c5ff a93e 229a 38bb
000003d0: dac3 71bc 13ba 793e 65f6 55ba 164a 37bb
000003e0: 4d7f 71bc 998e 71bc b31b 253e 1396 9a3e
000003f0: f41a 38bb e009 72bc a739 cf3d 74c5 71bc
0.0005683841 0.0005685033 -0.015688421 0.0018962974 0.0005684896 -0.013254787 0.0019681496 0.001898413
0.0005699459 0.00056981755 -0.0075674625 -0.014801241 0.0018967667 0.00056734687 -0.003684159 0.00056820764
0.0018962903 0.0018962997 0.0006174717 -0.01033068 0.001824288 -0.009889593 0.00056775654 0.00056898984
0.0019034891 -0.0043984875 -0.0065775225 0.00056764024 0.00038253347 0.0018962388 -0.016747657 0.0018968396
-0.01474622 -0.006711005 0.0005689253 -0.009447332 0.0005692932 -0.010398276 0.0018962909 0.0005625356
0.0018963248 -0.011029966 0.0019039655 0.000568691 0.0018962347 0.00056897564 0.0007298538 0.00056896947
0.0013609463 0.0005675694 -0.01408668 0.0009808878 -0.0083221495 0.001896182 -0.0071341204 -0.017391346
0.0018962043 0.001871583 0.001202098 0.0005698485 -0.0071562924 -0.007156159 0.23907687 0.0011385379
-0.0071559176 0.17313452 -0.00030842758 0.0011486177 -0.007145103 -0.007147476 0.11042528 0.2132638
0.0011433492 -0.007168982 0.066404976 -0.0071562557 0.0011387961 0.0011386648 -0.006832732 0.13274316
-0.0002540354 0.14318274 -0.0071595595 -0.0071538053 0.0011669915 0.0641488 0.09901507 -0.0071618585
0.013358478 0.0011395913 0.25043365 0.0011436319 0.20429493 0.11372004 -0.0071541676 0.13828652
-0.0071498416 0.16484468 0.0011398328 -0.007195007 0.0011394871 0.15084954 0.0011722398 -0.007154318
0.0011392633 -0.0071538747 -0.0060937153 -0.0071517327 0.0025649897 -0.0071630576 0.21000467 -0.004479363
0.12524918 0.0011398307 0.10781994 0.26705962 0.0011392501 0.0009974549 -0.0030783818 -0.0071473145
-0.015027653 -0.015027336 0.3384163 -0.0029419202 -0.01502714 0.24646133 -0.0007364558 -0.0029206804
-0.01501058 -0.015014252 0.16442204 0.30089298 -0.0029341332 -0.015043939 0.10325895 -0.015027533
-0.0029416883 -0.0029419444 -0.0145695275 0.19486189 0.0010287614 0.2087772 -0.015032208 -0.015023434
-0.0028713185 0.10006733 0.14777891 -0.0150349755 0.026100662 -0.0029410466 0.35736716 -0.0029338212
0.29733506 0.16854273 -0.015024088 0.2030134 -0.015017877 0.23827855 -0.0029407034 -0.015082706
-0.0029408028 0.21967313 -0.0028629594 -0.015024968 -0.002941317 -0.015023812 -0.013527004 -0.015020627
0.00819819 -0.015036275 0.2955502 -0.011248792 0.18614173 -0.0029410613 0.16017206 0.36936164
-0.0029414413 -0.0031997978 -0.009269314 -0.015013563 0.00056955335 0.00056967116 -0.015688613 0.0018975819
0.0005696605 -0.0132551 0.0019690716 0.0018996986 0.0005711198 0.00057099 -0.0075678495 -0.014801446
0.0018980501 0.0005685226 -0.003684501 0.00056937576 0.0018975736 0.0018975845 0.0006186563 -0.0103311185
0.0018251038 -0.0098900255 0.0005689334 0.000570162 0.0019047718 -0.004398874 -0.006577901 0.0005688188
0.0003829181 0.0018975226 -0.016747875 0.0018981216 -0.014746438 -0.0067113657 0.0005700963 -0.009447765
0.00057046406 -0.010398691 0.0018975756 0.0005637057 0.0018976084 -0.011030389 0.0019052473 0.0005698611
0.001897519 0.0005701499 0.00073106063 0.00057014404 0.001361589 0.000568745 -0.014086912 0.0009821457
-0.008322559 0.0018974664 -0.0071345074 -0.017391592 0.0018974892 0.0018728753 0.0012033925 0.0005710195
-0.014756688 -0.014756359 0.3320295 -0.0028168042 -0.014756167 0.24387388 -0.0008162021 -0.0027967743
-0.0147398235 -0.014743471 0.16123848 0.30192623 -0.0028092237 -0.014772862 0.10118418 -0.014756549

bias f4 [60]
00000000: 0964 8bbb d712 803c 493c 923c d269 8bbb
00000010: ff2b 913c 7e6a 8bbb 6878 8a3c e86a 8bbb
00000020: 4c66 8bbb 20cb 813c 96ff 8f3c 816c 8bbb
00000030: 2869 8bbb f86b 8bbb 1e65 8bbb 846c 8bbb
00000040: fde2 8a3c a780 943c 8a69 8bbb 2dc6 8a3c
00000050: cc6d 8bbb 504a 863c 3a67 8a3c fa71 8bbb
00000060: 0674 863c f900 863c 889f 8f3c aca0 873c
00000070: cc23 403c e868 8bbb eabe 843c d873 8bbb
00000080: c650 903c eb6a 933c 01d1 933c 2f0b 8a3c
00000090: fc68 8bbb 634f 4f3c 666f 8bbb cc64 8bbb
000000a0: 552f 8d3c 246b 8bbb 3b9d 933c 396e 8bbb
000000b0: b8c6 963c cb62 8bbb 826a 8bbb 696e 8bbb
000000c0: 1eaf 863c 3371 8bbb 9b9c 923c a713 943c
000000d0: e56f 8bbb a9fd 8f3c 0d70 8bbb 1194 8bbb
000000e0: 3869 8bbb 9f6b 8bbb 8469 8bbb accc 843c
-0.0042538685 0.015633984 0.017851012 -0.004254558 0.017721174 -0.004254638 0.016903117 -0.0042546876
-0.004254138 0.015843928 0.017577928 -0.004254878 -0.004254479 -0.0042548142 -0.0042539975 -0.0042548794
0.01695394 0.018127752 -0.0042545246 0.0169402 -0.004255032 0.016392857 0.016894925 -0.0042555304
0.016412746 0.016357886 0.017532125 0.016556107 0.011727285 -0.004254449 0.016204316 -0.004255753
0.01761664 0.017995318 0.018043997 0.016851036 -0.0042544585 0.012653205 -0.004255223 -0.0042539593
0.017234484 -0.0042547155 0.01801931 -0.004255083 0.018405303 -0.0042537204 -0.00425464 -0.0042551053
0.016440924 -0.0042554378 0.017896941 0.018075777 -0.004255282 0.01757701 -0.004255301 -0.0042595943
-0.0042544864 -0.004254773 -0.004254522 0.016210876

weight f4 [1, 60]
00000000: aab8 f53a 48d7 0a3f 28aa 443f 94de f53a
00000010: 6b72 423f 79bf f53a 2a3d 2a3f 9fc8 f53a
00000020: 21c1 f53a e6e1 0f3f 7af9 3d3f 92ce f53a
00000030: 4ec6 f53a 97b0 f53a fcbd f53a 45c2 f53a
00000040: 9e75 2c3f 6429 4c3f 46c6 f53a b1cf 2b3f
00000050: 5abd f53a ec9d 1b3f 55ee 2a3f 87bc f53a
00000060: a012 1d3f de92 1b3f 2251 3d3f 15a3 203f
00000070: c5dc b33e 74bd f53a 70f6 163f 14ca f53a
00000080: 78a1 3d3f 478b 483f f2b6 493f 3b1e 283f
00000090: a4bf f53a 5152 c43e cec3 f53a acba f53a
000000a0: b0e8 343f 13c4 f53a 4908 483f 91ca f53a
000000b0: f6bb 523f efae f53a 8cbe f53a 3aaf f53a
000000c0: 23ef 1d3f bfd0 f53a 873b 473f cebe 4a3f
000000d0: dfc9 f53a f799 3d3f 68be f53a f0cc f53a
000000e0: a4b1 f53a 19c4 f53a 74bd f53a 99eb 163f
0.0018747051 0.54234743 0.7682214 0.001875835 0.7595584 0.001874908 0.6649958 0.0018751806
0.0018749574 0.5620407 0.74208796 0.0018753579 0.0018751116 0.0018744644 0.0018748636 0.0018749913
0.6736697 0.7975066 0.0018751107 0.67113787 0.0018748448 0.60787845 0.66769916 0.0018748202
0.61356544 0.60770977 0.73951924 0.62748843 0.3512937 0.0018748478 0.58969784 0.001875224
0.74074507 0.7833752 0.7879478 0.6567113 0.001874913 0.38344052 0.0018750371 0.0018747649
0.7066755 0.0018750451 0.7813764 0.0018752386 0.82318056 0.0018744151 0.0018748804 0.0018744238
0.6169302 0.0018754228 0.77825207 0.79197395 0.0018752179 0.74063057 0.0018748762 0.0018753093
0.0018744958 0.0018750458 0.0018748478 0.58953243
