Total_RCS/epoch_200_batch_255_lr_0_0019819414761434403_wd_0_1808248925678225/torch_model_1_SELU.pth (torch, 86287 bytes, 7 tensors)

weight f4 [100, 3]
00000000: e8b9 433f c6e7 9b3e 702a bf3e 654a 39b9
00000010: d04c 673e e5e1 dbbf fa94 4dbf 5843 953f
00000020: dcf7 9a3f 267c 4b3a 7a8d b43e fea5 323f
00000030: a41f 9bbc c719 a33f acc4 0b3f a860 a43c
00000040: c33c c63d 7af1 fabf 5f42 5d3f 8b26 0c3f
00000050: aa1a 04c0 42ef 393f bd76 2b3e e86a 6f3e
00000060: 9e81 a8bd 8bc3 3fbf a9cb a4bf b3ae 193d
00000070: e19c 5d3f d110 33be 0cda d2bc a1b5 d7be
00000080: 44fc fbbf 01aa b13e 529f 283f e907 30bd
00000090: 7b8b 44bf a5fd 88be 5d41 b8bd 00a7 303e
000000a0: 97a1 5ebf 7877 07bf 831d 8ebf e264 2cbf
000000b0: 15af 9f3e 0789 e9be 4582 f63f ce5b 973f
000000c0: 3700 463c 83b1 083e 4c09 1b3e 6df8 26bc
000000d0: e720 8bbf 00c6 ad3f 9a5e 8fbd 1921 05bf
000000e0: 0f5e bebf 4735 353f 91bf 543f 4794 78bc
000000f0: c0d0 733e 2a72 9d3f ea9c 623f 022b 533f
00000100: 35a5 433e e1fa b53c d061 343e c876 7a3f
00000110: 93f4 01be e47b a839 3636 c43a 8bd6 c639
00000120: 1be1 c0b9 afbc c53a 89ca c939 a70e d13a
00000130: 333d 1438 807d 8e3b 020d 663f 7219 f1bd
00000140: c8e4 21bd 7f44 f83f ff37 213f 4f17 07be
00000150: 7e65 be3e 623a 4e3f b9da aa3e a059 36bd
00000160: 2f21 a3bf 5f7b 57bf ae54 80bf 911f 593f
00000170: ecf5 7a3f aec5 a4bf b1d6 b13d 1bb4 843c
00000180: 04cd 77be 76eb 81bf 9ad4 0e3f 7f5d f93f
00000190: 31eb 56be 70b9 e2be e7df 223d 22a1 3f3e
000001a0: aca4 a1bf 6b2e e83a 85ef d33a 3662 8e3a
000001b0: 000d 123f 3ad4 453f e844 07be cc27 c9be
000001c0: 1886 1ac0 e792 38bf fc46 753f dabe 24bd
000001d0: 32e8 96bd 9f28 a23f 28b8 08c0 2f56 5d3c
000001e0: 8c29 883d 549c c2bf b5b0 5bbf d297 b33d
000001f0: 0aa3 8e3f 9428 1f3f bdf1 5f3f 85c1 bcbe
00000200: 1d58 653c fa0c 32bf 31e1 25bf 0dfa 1ebe
00000210: 6388 4d3e c8dc 2dbf b0f5 a8bb 4798 fcbd
00000220: 7290 d1bf dcec efbe 75dd 32bc b8cb c53e
00000230: 7f3e 6e3e 1972 283c d218 8cbf 04a3 22bf
00000240: d180 8ebd 8246 2bbf d83d 8ebf 2a8b a8be
00000250: 3b1c bcbf f3aa 02bf 874b 46bd a716 f1be
00000260: 62a0 e7bf eefe b540 8259 e3be d58d a2be
00000270: 204b 5abe 64d0 853f 1f21 33c0 6a9c b2bf
00000280: 013a 413f d9ff 4c3f b794 043a 25dd 8d38
00000290: 075a 1b3a 7656 e4bd b6ee afbf 7934 1cbf
000002a0: 68a9 9d3a 96ba e338 678f 7b3b 60b6 8cbf
000002b0: 5899 abbf 500c dcbd 1c06 eb3d 2860 aebf
000002c0: 54c8 94be 13de ccbd 5dae 2a3f 4bad e4bf
000002d0: a21f 50bf d301 873f b8b0 7e3d a3ea acbe
000002e0: 935e 943f fc8b 143f 460c 903a 1272 613e
000002f0: 0fc1 003f e93d 9d3a e0be a8ba e984 693b
00000300: 9df9 e1be 831b f2be 6ef4 a1be 1a80 0bbe
00000310: 33c4 31bf 268e 8cbf 9491 df3f 3e56 00bf
00000320: 874e a1bd 1197 e63d d787 b23f d619 59be
00000330: bf9f 96be 988e ad3f 7beb 353f cd7a b5bc
00000340: e074 35bf 9a89 26c0 e5fa 8e3f d958 e7bf
00000350: 371b f13f 392d 2fbf 0cea c8be 2c51 38be
00000360: a007 ca3c 4d05 d2bf 3431 23be 952a de3c
00000370: 091c fc3f 00ca 803f 172c d83a 4d77 af36
00000380: 1ae7 8f3b 92ca a4bc c076 acbf 0b13 acbf
00000390: 74ac a038 1a68 773a 80bc c139 c7f7 eebf
000003a0: 3266 f0bd c437 26be 331a b3b8 38e4 2e3a
000003b0: 6b3e 1aba 98fe 243c 578e 833f e3c9 e3bf
000003c0: 3837 363f 8c8c 8d3f 793f c5bd 1cdb b5be
000003d0: 2ca2 afbf e198 14bf 3e5f 3d3f 64b6 00be
000003e0: 9a8e 08bd 4138 1dba f790 43bd 243d ccbf
000003f0: 8413 893f fd84 49bf bb13 97bf dda3 723f
0.76455545 0.30450267 0.37337065 -0.00017670689 0.22587895 -1.7178313 -0.80305445 1.1661177
1.2106891 0.0007762335 0.35264188 0.69784534 -0.018935986 1.2742242 0.5459697 0.02006562
0.09679558 -1.9604943 0.864294 0.5474631 -2.0641274 0.72630703 0.16744514 0.23380625
-0.082278475 -0.7490775 -1.2874652 0.03752012 0.86567503 -0.17486884 -0.025738738 -0.4213076
-1.968636 0.34700015 0.65868104 -0.042976294 -0.7677533 -0.26756015 -0.08996842 0.17251205
-0.86965317 -0.5291667 -1.1102756 -0.67341435 0.31188264 -0.45612356 1.9258505 1.1824892
0.012085012 0.13348965 0.15140265 -0.010191065 -1.0869416 1.357605 -0.07000466 -0.5200363
-1.4872454 0.7078442 0.8310481 -0.015172071 0.238101 1.2300465 0.8852068 0.824875
0.1910599 0.022214355 0.17615438 0.97837496 -0.12690954 0.00032135763 0.0014969769 0.0003792535
-0.0003678881 0.0015086139 0.00038488608 0.0015949801 3.5342946e-05 0.004348457 0.898636 -0.117724314
-0.039524823 1.9395903 0.6297607 -0.13192485 0.37186807 0.80557835 0.33369997 -0.044519067
-1.2744502 -0.84172624 -1.0025842 0.8481379 0.98031497 -1.2872827 0.08683527 0.016199162
-0.24199301 -1.0149982 0.55793154 1.9481658 -0.20988156 -0.44282103 0.03976431 0.18713811
-1.2628379 0.0017714029 0.0016169405 0.0010863009 0.57051086 0.7727696 -0.1320988 -0.39288175
-2.4144344 -0.72099155 0.9581144 -0.040221073 -0.073685065 1.2668647 -2.13624 0.013509317
0.066485494 -1.5203958 -0.8581651 0.08769192 1.1143506 0.6217129 0.8747824 -0.36866394
0.013998059 -0.6955105 -0.6479674 -0.15525074 0.20071559 -0.6791501 -0.0051562414 -0.12333732
-1.6372206 -0.46860397 -0.010917057 0.38631988 0.23266028 0.010281109 -1.0945075 -0.6352999
-0.069581635 -0.6690446 -1.1112623 -0.32918674 -1.4696115 -0.510421 -0.048411872 -0.47087595
-1.809582 5.6873693 -0.44404227 -0.31748834 -0.2131772 1.0454221 -2.7988966 -1.3953984
0.7547913 0.8007789 0.00050575606 6.764595e-05 0.0005926196 -0.111493036 -1.3744724 -0.61017567
0.0012028636 0.00010858958 0.0038385035 -1.0993156 -1.3406172 -0.10744536 0.11475775 -1.3623095
-0.29059088 -0.10003295 0.6667231 -1.7865385 -0.8129827 1.0547432 0.06218025 -0.33772764
1.1591362 0.580261 0.0010989986 0.2201617 0.50294584 0.00119966 -0.0012874268 0.00356322
-0.44135752 -0.47286615 -0.31631798 -0.13623086 -0.6944 -1.098088 1.7466302 -0.50131595
-0.07876306 0.112592824 1.3947705 -0.21201262 -0.29418752 1.3559141 0.7106244 -0.022153283
-0.7088146 -2.6021485 1.1170317 -1.8073989 1.883643 -0.6842838 -0.39241064 -0.17999715
0.024661839 -1.6407868 -0.15936738 0.027119914 1.9696056 1.0061646 0.0016492632 5.229295e-06
0.004391563 -0.020116124 -1.347374 -1.3443311 7.6615164e-05 0.00094378146 0.00036952272 -1.8669366
-0.11738242 -0.1623221 -8.540265e-05 0.00066715805 -0.0005883935 0.0100704655 1.0277814 -1.7795986
0.7117801 1.1058517 -0.09631247 -0.3551873 -1.3721366 -0.58045775 0.73973453 -0.12569577
-0.03333912 -0.0005997457 -0.04774567 -1.5956159 1.0709081 -0.7871855 -1.1802896 0.94781286

bias f4 [100]
00000000: 6d92 9b3f 7a4f bcbf 2318 1b3e e77e 0a3f
00000010: 3e71 fb3e 9bbc d0bf f0e9 6dbf 066f 853f
00000020: cd20 9fbf 1312 a6be e5eb dabf dd58 a43e
00000030: 2159 a3bf 6d6f 00bf 98da 81bf b2bc 123f
00000040: 77fb 113e d251 d0be 1680 adbf 5edb 4bbe
00000050: 2e35 663f 2d93 803f 00d9 89bd 09d3 6fba
00000060: 7ca7 023b 2df3 e3ba 9503 823f 3574 753f
00000070: cd26 323f 86d5 7ebf fbec 9abe 1520 bcbf
00000080: 5dd9 5ebf fa7b ff3d a3a9 8abf 664e 2a3b
00000090: 4f1b 173f 457d 77bf 210c 873f 79d0 973e
000000a0: 2225 213e a15d 133f 94a2 4d3f d700 97bf
000000b0: ce0a 213f 0dea 59bc 90bd 513e 913a 4cbf
000000c0: e030 8abf daea a0be 8c57 cdbf 2369 8d3f
000000d0: 4bc2 cabf 4d78 79bf c5e7 4736 e9ba 66be
000000e0: f148 92ba 1bef 88bd eabe 43bf acf9 c8bf
000000f0: e683 17be bbe3 1e3e 1e0d c73e cdb9 ddba
00000100: da01 e6be 54cc 92bf d92f c63f 172d a1be
00000110: ba8b a83e 485e 0ec0 cada 10be 6d75 9abf
00000120: 67a7 50bf a7f6 6a3f b95e afba 3528 1f3e
00000130: 6863 0dba 4c8a eebd cdd5 fd39 2014 bdbf
00000140: 63a5 463f 470a d0be ab95 553f fabe b1bf
00000150: a082 1b3d 3851 893f aa2b 4ebf 711c 70be
00000160: d3e0 19bb b630 d0be 6ad4 53bf d697 5f3f
00000170: 4144 aebe acff 643e 2f5a 63bf f9c3 773f
00000180: 7255 0bbf d676 803f 63a3 aa39 bac7 a9bf
1.2154061 -1.4711754 0.15145926 0.5409989 0.49109834 -1.6307558 -0.92935085 1.0424507
-1.2431885 -0.32435665 -1.7103239 0.32099047 -1.2761575 -0.5017002 -1.0144835 0.57319176
0.14256082 -0.40687424 -1.3554714 -0.199079 0.89924896 1.0044914 -0.067308426 -0.0009148573
0.0019936254 -0.0017391198 1.0157343 0.9588044 0.69590455 -0.9954456 -0.30258927 -1.4697291
-0.8705042 0.124748185 -1.0833019 0.002598667 0.59026045 -0.9667552 1.0550576 0.2965124
0.15736821 0.5756474 0.803262 -1.1797131 0.6290711 -0.013300431 0.20482469 -0.79776865
-1.0796165 -0.31429178 -1.6042342 1.104771 -1.5840544 -0.9744919 2.9788218e-06 -0.22532238
-0.0011160654 -0.06686231 -0.76463187 -1.5701194 -0.14796409 0.1551656 0.38877195 -0.0016916335
-0.44923288 -1.1468606 1.5483352 -0.31479713 0.32919103 -2.2245045 -0.14145961 -1.2067086
-0.81505436 0.9178261 -0.001337967 0.15542682 -0.0005393536 -0.11647472 0.00048415214 -1.4771767
0.7759611 -0.4063284 0.834315 -1.3886406 0.03796637 1.0727911 -0.80535376 -0.2344835
-0.0023479953 -0.40662163 -0.82745993 0.8734106 -0.3403645 0.22363156 -0.88809484 0.96783406
-0.54427254 1.0036266 0.0003254666 -1.3264077

weight f4 [100, 100]
00000000: 76bf 423b fb13 e4ba 4745 8a3b e2e5 603b
00000010: 9a1d a73b 9bfb f8ba 6f7d 1cbb b97e 1c3b
00000020: b68f 27bb b93a 2a39 4965 d7ba 73a2 f33a
00000030: 2a45 06bb 0ef9 b1bb 3b43 df3a 5b89 dc3b
00000040: fa04 633b 5bb1 7fb9 0873 0cbb a5c8 9e37
00000050: 3f42 7a3b 0d72 de3a f94d 2239 f200 883a
00000060: 64a0 09b9 3f0b f63a 6bc8 c23a b329 8cbb
00000070: 17dc 523b d948 aabb f465 4d3b 3505 5fb9
00000080: 8f48 aeba 006b 88bb 50ad ebba f182 cf39
00000090: 0518 cd3a ce56 65ba 82e1 ad3a 870b 58bb
000000a0: 2b24 c9ba d864 823b 0cd0 58ba efc8 b4ba
000000b0: 8312 7e38 67b2 95b9 6fb9 a63b 2928 bcbb
000000c0: d4e1 44bb a0b9 e9b9 3238 efba 3f9a 8e39
000000d0: 8d7b da3a dac4 fd39 4148 8c3a e179 afba
000000e0: 213e ea3a aa18 82b8 1425 94bb 1581 65ba
000000f0: 3691 753b d0e7 af3b 94f0 403b c087 c73a
00000100: ab8c 0fba e887 22bb 2dce adba 9176 a439
00000110: 5071 bf3b 89bd 5cba 75c9 5bbb 1bad eeba
00000120: c76e 69bb 71c8 b53b cc3a 023b bf4d b2ba
00000130: ddff 683a 4462 883b c8f4 3a3a 1d21 c2ba
00000140: 96ec cf3a d16e a3ba a972 ab3a 2d1f 07bb
00000150: 1bbe 62bb 2368 c73a cdd1 a5bb 668b 61bb
00000160: 1176 1b3b 0412 77b9 b0ee 17b9 493b 97ba
00000170: 9d8e ffba 0a7c 40bb 2f4d 4b3b 370f bb3b
00000180: 2320 293b 6971 603b 5000 883a d6bf dfba
00000190: 9841 403b c471 5fbb fadd 0e3b 07c0 703b
000001a0: b5dc c53a 8c1e 8ebb 7a37 c1bb bdcc 1f3b
000001b0: ec1c a83a 889b 503a 4fcc 15bb 2259 31ba
000001c0: 5b5d 833a 8d1c 2738 d513 fe3b e004 cb3a
000001d0: 44ba b339 8f67 d7ba bd1a 33b9 e800 a63b
000001e0: 3dba 6e3a 0552 cc3a 4610 d0b9 64ce c039
000001f0: 4947 e4b7 68a1 1a3a 16bc dc3a 5ffd 67ba
00000200: 4642 683a 3ae5 763b 9765 5b3b 6bf6 b53b
00000210: 2a0b 4c3a 3986 dab9 9bb4 edba e032 d638
00000220: 0abf 8bba 818b e73b 3140 eb3a 5814 3abb
00000230: 0dd7 17bb e51e 98b7 0608 c3ba bb8e 883b
00000240: 18dd dfba 1314 bdba e3db ff3a dd39 163b
00000250: 564d 793a e522 f1ba f993 baba 32af 2d3c
00000260: 5a79 c9bb b007 753b 2851 8e39 f317 1dbb
00000270: 61aa d639 f9b2 3cbb 75f1 4b3b 8123 9fbb
00000280: c22a 43b9 23fd c13a 61b2 4d3b 6434 093a
00000290: 48f3 1cbb 380b fe3a 18cb a5bb c36f 873a
000002a0: b25b ec3a 6f6b 51bb 00aa 2ebc b434 173b
000002b0: e35f 913b 50b3 a53a 3286 063a a213 4bbb
000002c0: ad6e 9739 9f3f 1c3b 6cd3 2439 79d1 d8bb
000002d0: 671f 3cba 7e71 41bb ee08 a63a 0308 1abb
000002e0: f076 f8bb a383 ec3a f592 673b 9e10 d83a
000002f0: 0dac 1a3a 186d ca3a 15ed be3a aae1 cfba
00000300: 1fdf 81bb 19c8 8abb 4fd7 e83b 4c9e 8f3a
00000310: 0717 4eba 45c8 ca3a ff37 4c39 cfa1 5f3b
00000320: db88 eabd e1ae 863a 5ebf 033e 8336 1f3d
00000330: 2c2f a93d 5f91 85bd ea94 9ebc df6f 28be
00000340: f180 01be f1c2 37be ed8a 05be c00a 99bc
00000350: 6b44 41be 7b05 82be ba50 aebe 4718 743e
00000360: bee8 9a3c 24ea b1be 1c18 dfbd 5a44 a1be
00000370: 20d3 ebbd 036d 24be 8c11 42be dd75 d93b
00000380: ca0b 433b 3ad6 f73b ea62 86be 9532 f9be
00000390: 9cbd b2bc 22c2 60be a53b 1abd 7d90 f3be
000003a0: 04f8 a9be 9a1f 2d3d ee27 23bd 3f7e 473b
000003b0: d06c aebd b205 55be 1f8f 88be 3863 0fbf
000003c0: f5e5 223e b74f 0dbd 6ffe d13c 0c27 39be
000003d0: 05c4 243e f9b6 9bbe 40fa 573d 1459 8cbe
000003e0: db0b c4bd cc11 24be 7e05 0bbe f332 b23e
000003f0: 8f40 f23c 8569 c0be a9bb ce3b 5812 5ebe
0.002971617 -0.0017400974 0.0042196843 0.0034316708 0.0050999643 -0.0018995883 -0.0023878475 0.0023879244
-0.0025567836 0.0001623434 -0.0016433384 0.0018587842 -0.0020488002 -0.005431301 0.0017033586 0.0067302412
0.0034640417 -0.00024384765 -0.0021430869 1.89285e-05 0.0038186458 0.0016971246 0.00015478571 0.0010376258
-0.00013125088 0.0018771662 0.0014860755 -0.004277432 0.003217464 -0.0051966724 0.0031341286 -0.00021268877
-0.0013296771 -0.004163146 -0.0017980728 0.00039579676 0.0015647417 -0.00087485916 0.0013266059 -0.0032965855
-0.0015345862 0.0039793067 -0.00082707475 -0.0013792793 6.057556e-05 -0.00028552415 0.0050880234 -0.005742092
-0.003004183 -0.00044579525 -0.0018251 0.00027199273 0.0016668901 0.00048402586 0.0010702686 -0.0013387763
0.0017871299 -6.203477e-05 -0.0045210216 -0.00087548915 0.0037470586 0.0053682104 0.002944027 0.0015222952
-0.0005475978 -0.0024800245 -0.0013260298 0.00031368856 0.0058423653 -0.0008420577 -0.0033536826 -0.0018209548
-0.0035619007 0.005547576 0.0019871471 -0.0013603492 0.0008888224 0.004162105 0.0007131812 -0.0014810894
0.0015863355 -0.0012468939 0.0013080436 -0.0020617947 -0.0034598175 0.001521353 -0.0050604106 -0.0034415363
0.0023721496 -0.00023562467 -0.000144894 -0.0011538054 -0.0019497458 -0.0029370808 0.0031021347 0.005708601
0.0025806508 0.0034247285 0.001037607 -0.0017070721 0.0029335972 -0.003409491 0.0021799789 0.003673555
0.0015095683 -0.0043371376 -0.005896506 0.0024383508 0.0012826002 0.0007957746 -0.0022857373 -0.0006765296
0.0010022329 3.9842493e-05 0.007753829 0.0015489124 0.0003428032 -0.0016434061 -0.00017080731 0.005066026
0.0009106731 0.0015588409 -0.00039684976 0.00036774867 -2.7212913e-05 0.0005898685 0.0016840722 -0.0008849706
0.0008859973 0.003767325 0.00334773 0.005553057 0.0007783646 -0.00041680204 -0.001813549 0.000102137914
-0.0010661792 0.0070661907 0.0017948208 -0.0028393473 -0.0023168952 -1.8134198e-05 -0.001487971 0.0041674054
-0.0017079441 -0.0014425538 0.0019520487 0.0022922673 0.000951012 -0.001839724 -0.0014234773 0.010600852
-0.0061484994 0.0037388615 0.00027144817 -0.0023970574 0.00040944203 -0.00287932 0.0031119261 -0.0048565273
-0.00018612578 0.0014800172 0.003138684 0.0005233942 -0.0023948718 0.0019382006 -0.005059611 0.001033299
0.0018032698 -0.0031954905 -0.010660648 0.0023072185 0.0044364794 0.001264194 0.0005131691 -0.0030987044
0.00028883424 0.0023841632 0.0001571902 -0.006616768 -0.000717631 -0.002951711 0.0012667456 -0.002350331
-0.007582538 0.0018044602 0.0035335396 0.0016484444 0.00059002714 0.001544389 0.0014566506 -0.00158601
-0.0039633657 -0.0042352793 0.007105745 0.001095721 -0.00078617077 0.0015471062 0.00019475816 0.0034123545
-0.11451884 0.0010275507 0.1286597 0.038870346 0.082609504 -0.06521868 -0.019358117 -0.16448925
-0.12646843 -0.17945458 -0.13041277 -0.018681884 -0.18873756 -0.25394806 -0.34045964 0.23837386
0.018909808 -0.34748948 -0.108932704 -0.3149746 -0.11514878 -0.1605721 -0.18952006 0.006636365
0.0029761666 0.0075633796 -0.2624734 -0.48671404 -0.021818928 -0.21949056 -0.037654538 -0.47571173
-0.33197033 0.042266466 -0.039833 0.0030440239 -0.08516848 -0.20802954 -0.26671693 -0.5601077
0.15908034 -0.03449985 0.025634019 -0.18081301 0.160904 -0.30413035 0.05272889 -0.2741171
-0.09572574 -0.16022414 -0.13576314 0.34804496 0.0295718 -0.37580505 0.006308992 -0.21686685

bias f4 [100]
00000000: 5909 d33a 66fc 1938 0378 803e 58e9 bfbd
00000010: 668c 313b 9ba2 093f b6be 2b3b 44b4 8ebd
00000020: 2ec4 5ebe 68fe 00be fbfd 7f3b 99ce 4dbd
00000030: 1a40 783b d97b 063e 305f 20b9 9bbc e5bd
00000040: 51d0 c83b 5954 e2bd b495 e6bc 964d ca3d
00000050: 6ddc 2cbe edd5 ec39 3fc2 c8b6 2313 b53a
00000060: e7d0 babd a326 603a 48e9 6339 2c47 c03a
00000070: fc8e b73b a4fe 893a 0d9d 5d3b 69b5 253b
00000080: a482 aa3a e80a 2bbd d054 12be b191 933a
00000090: e21a 32be 9a40 1cbe fc79 983e 3c93 5dbe
000000a0: ddc8 b63b 519b 8c3a 28c9 a93b 8991 b13b
000000b0: 9823 47be 230e 373d 44c0 f0be 03dc fdbd
000000c0: ec53 e33a 3c80 28be 34ba 893b 851a 313b
000000d0: 4529 873a d1f3 18bd 7ebf 813e 4d1c e23b
000000e0: 7a93 3f3b b491 96b9 d37b 883a d231 1d3b
000000f0: 8b23 aabe bf29 ebb9 a359 623b 6972 d23a
00000100: 10c0 993b e6bf 853b 16bd 263a 8ae4 fb3a
00000110: dca7 2d3b 56a4 913e eae8 1c3b 5463 15bd
00000120: 9554 0d3b c5ac 73be b122 dd3d 6012 9fb9
00000130: f238 ed3a 9ab1 943b 10c7 1d3c b146 9f3e
00000140: 886f 93b6 cca6 f23a 9481 283a 5e1f a7bd
00000150: f099 5a3e edaa ebbd 99fa e73a 69c5 8e3a
00000160: 18d9 603a 95d2 b7bd 2133 2cbe 11ea c33a
00000170: 971d a1be b225 623b f4f2 663b bfb9 2339
00000180: a17a 11be daee 583b 3391 2b3b ffaf 04bf
0.0016100808 3.6713107e-05 0.25091562 -0.09370679 0.002709174 0.5376374 0.0026206202 -0.06967977
-0.21754524 -0.12597048 0.0039061296 -0.050245855 0.0037880004 0.13133182 -0.00015294249 -0.11217614
0.006128349 -0.11051244 -0.028147556 0.098780796 -0.16880961 0.00045172815 -5.9830777e-06 0.0013814907
-0.09121876 0.0008550679 0.00021735311 0.0014669648 0.005601762 0.0010528159 0.0033815533 0.002528513
0.0013008905 -0.041758448 -0.14290166 0.0011258629 -0.17393067 -0.15259019 0.29780567 -0.21638197
0.005578144 0.001072744 0.0051814504 0.0054189605 -0.19447172 0.044691216 -0.47021687 -0.123954795
0.0017343736 -0.16455168 0.0042031053 0.0027023864 0.0010311982 -0.037341896 0.2534141 0.0069003464
0.002923219 -0.00028718787 0.0010412879 0.0023985994 -0.33230242 -0.00044853796 0.003453829 0.0016055825
0.004692085 0.004081714 0.00063605735 0.001921789 0.0026497757 0.2844569 0.0023942539 -0.03647168
0.0021565307 -0.23796375 0.107976325 -0.00030340534 0.0018098636 0.0045377733 0.00962998 0.3110862
-4.3939253e-06 0.0018512844 0.0006428 -0.0816028 0.21347785 -0.11507211 0.0017698585 0.0010892573
0.00085772714 -0.08975712 -0.16816379 0.0014947077 -0.31467888 0.0034507331 0.0035240026 0.00015614087
-0.14206935 0.003310135 0.0026179075 -0.5183105

weight f4 [100, 100]
00000000: a38d cabb 3a30 33bc 8000 5a3e 0d63 873c
00000010: d309 4bbc bad1 093e 470b d1bb c314 46bf
00000020: f43c f3bd 7dd8 8c3d a7ef e7bb f5db 9c3e
00000030: 7a3b e03a dcc5 cebf 73b3 0bbc 28b5 2d3e
00000040: 9483 123c 351e f5bf 04fc cfbf 6d40 a23e
00000050: d6ef a3be c97f 48bb 6acf 52bc 5357 e0ba
00000060: 4718 a6bf fade 11bc 68b4 b0bb 4b1d 84bb
00000070: b140 97bc dae9 b3bb 9a63 9f3b 9635 9c3b
00000080: 7e3e 0ebc cc87 8fbe a596 85bf 98f5 1bbc
00000090: e1a4 5dbf 3b3c 76be 40ac 8b3d e226 003f
000000a0: 548d e93b 5f7e 1abc c65e d23b 99c9 f73a
000000b0: 5b2c ed3d 87ae cabf 7af6 0440 a29c ab3d
000000c0: d201 06bc cd04 793d 9a87 e73b a7a4 8bb7
000000d0: 3f86 17bc 5522 95bf 7f10 2cbd da1c 0f3c
000000e0: 9488 30bc 2241 3ebb dd51 44bc 201f 903b
000000f0: 4f0c 443d dda1 49bc 07f3 903a 775c 1ebc
00000100: 1603 413b add4 633b 320b 79bb 436b ba3b
00000110: 4102 0dbc 783e 4b3e b771 b9bb 262e 47bd
00000120: a717 b63b 4066 b2be 9801 8bbf 114a a5ba
00000130: abb5 f8bb 318f 863c fa21 bc3b 2154 83bf
00000140: 5639 03bc 2704 873a e080 37bc 7a69 24be
00000150: 02d9 a13e 834d 25bd ce62 84bb 410e 43bc
00000160: 7af7 68bb ad4e 513d 5924 96be 164d b8bb
00000170: 2484 0ebc 4a03 34bc 7757 6c3b da68 f1bb
00000180: b6e2 06bc 5328 eabb ef11 333b 3290 35bc
00000190: 60a7 5ebb 1471 a33b 494a a93e d7fa 8ebd
000001a0: ce26 82bc 5544 3a3f cfe5 a73b 9dd7 00bf
000001b0: 7e18 f5bd c274 bb3c c65b 093c a725 15be
000001c0: a30f 5bbc 0640 473e 2713 033c 744c 8d3d
000001d0: 7ab8 8c3a 4e5b a0bc 0dc7 573e 9680 643e
000001e0: 6ad7 96be 69e2 093c fc99 1e3b 6000 45bb
000001f0: d3db 55be 97bb 5d3b f0dc db3b e1fb 1bba
00000200: c912 8a3a 2dd2 563c d204 fcbb 882c bbbb
00000210: acd3 2dbc 2db7 dfbe 77b0 ffbe 813e 153b
00000220: faec c8be 5a3b dabc 2456 043f a0ed b7be
00000230: 289b f1b9 94b9 12bc 1613 12bb 6607 42bc
00000240: ae9f 73bd 566d 1a3e c5c1 c73b 91c0 d33c
00000250: 5dab 59bb 4c0b aa3e 54e7 0ebc a645 17bb
00000260: 1e1a 3ebb 0b55 1bbe d7ba b13e bbc1 63bc
00000270: ba4d 44bc 61e8 59b9 4232 6cb8 3301 a93c
00000280: 9707 a2be b75a 17bb df4e 27ba b4e7 7fbb
00000290: 0a18 c3bb 7083 99bc dcd7 0a3c 786b 32bc
000002a0: 5ae7 86bb b89d e23e 8eb4 da3b 9c34 3c3d
000002b0: acbd bdbb 360a 80be 9202 81be a902 1b3c
000002c0: a12b aa3b ed00 53bc f134 dcbb d8ad 94be
000002d0: 8052 87bb e9c4 043c 4d10 7e3b 2e53 53be
000002e0: 481e be3d 5b2b efbc 6b19 1c3b 756f 3e3c
000002f0: fc1c cd3c 56da 7f3d fe1a f3be 1708 473c
00000300: 3400 66bf 72d2 9039 7f50 463b d7b2 133c
00000310: 049b 18be 45d9 acbb 8cd0 56bc cad3 3bbf
00000320: 4b79 98bc 1f75 aabc 3d23 c23d ba27 bd3d
00000330: 1561 a3bc beb3 413d b6c0 9dbc f0e4 bbbf
00000340: fa55 723e 8486 753e ed7a a4bb a1b7 393c
00000350: fb25 a1bc 933e 2fbd ee0d c0bc f4c3 733e
00000360: 241e b1ba 8757 d7bc d3fe 9ebe c9cf 3a3d
00000370: 39cf a8be 2eca 56bc d81e 85bc 91bb c2bb
00000380: a7ce 1a3e 8f34 bfbc 02c8 67bc 081b 23bd
00000390: 38f7 3fbb 70ee 90bc 9268 f03b 64c2 ecbc
000003a0: 317f 07bd fe63 6fbe c98c 7cbd 48ad c8bc
000003b0: 46b6 163d bd8b d4be 2320 d0bc c10a b33e
000003c0: e145 dfbb f147 cdbc a3b6 05bc 99ef 22bc
000003d0: 9d4f 1b3d a38a 81be 64ca 1a3f 461c 733e
000003e0: c1cd c6bc 85e0 903e a885 4bbb dbfe afbc
000003f0: b605 ccbc e5cc 5fbe 5b36 21bf 8eef a0bb
-0.006181435 -0.010936791 0.21289253 0.016526723 -0.012392479 0.1345891 -0.006379518 -0.7737543
-0.1187686 0.06877229 -0.0070781293 0.30636564 0.0017107569 -1.6154132 -0.008526671 0.16963637
0.0089425035 -1.9149843 -1.6248784 0.31689778 -0.32018918 -0.0030593744 -0.012866834 -0.0017115868
-1.2976159 -0.008903259 -0.0053926 -0.0040318123 -0.018463464 -0.0054905238 0.0048641684 0.00476713
-0.0086818915 -0.28033292 -1.0436598 -0.009519003 -0.8657971 -0.24046414 0.068199635 0.5005933
0.0071274433 -0.009429543 0.0064199893 0.0018904685 0.11580726 -1.5834512 2.0775437 0.08379485
-0.008179145 0.060795594 0.0070657255 -1.6646763e-05 -0.009248315 -1.1651102 -0.04200792 0.008734906
-0.01077475 -0.0029030521 -0.011982408 0.0043982416 0.0478633 -0.012306658 0.0011058756 -0.0096656
0.0029451302 0.0034764216 -0.0038001058 0.005689056 -0.008606494 0.19848049 -0.005659308 -0.048627995
0.005557019 -0.34843636 -1.0859861 -0.0012610574 -0.007590016 0.0164257 0.005741355 -1.0260049
-0.008009275 0.001030092 -0.01120016 -0.16055861 0.31610876 -0.040357124 -0.0040400987 -0.011905254
-0.0035547898 0.05110042 -0.29324606 -0.0056244237 -0.008698497 -0.010987112 0.0036062875 -0.0073672356
-0.008232763 -0.0071459203 0.0027323922 -0.011081742 -0.0033974275 0.004987845 0.33064488 -0.06981438
-0.015887644 0.72760516 0.005123831 -0.50329 -0.11967562 0.022882823 0.008383697 -0.14565144
-0.013370427 0.19458017 0.008000172 0.06899348 0.0010736131 -0.019574787 0.21072026 0.22314677
-0.29461223 0.008415797 0.0024200669 -0.0030060038 -0.20884638 0.0033833736 0.0067096874 -0.00059503136
0.0010534163 0.013111633 -0.0076910043 -0.0057120956 -0.010609549 -0.4369444 -0.4993932 0.002277285
-0.392433 -0.02663963 0.5169394 -0.3592348 -0.00046082702 -0.008955378 -0.0022289208 -0.011842584
-0.059478454 0.15080771 0.006096097 0.025848659 -0.0033213713 0.33211744 -0.008722145 -0.0023082285
-0.0029007266 -0.1516916 0.3471286 -0.013901169 -0.011981422 -0.000207813 -5.631359e-05 0.020630455
-0.31646416 -0.0023094842 -0.0006382297 -0.0039048018 -0.0059537934 -0.018739432 0.008474316 -0.01088988
-0.0041169347 0.44260955 0.006674356 0.04594861 -0.005790433 -0.2500779 -0.25197273 0.009461083
0.0051931893 -0.012878639 -0.0067201783 -0.29038882 -0.004129708 0.008103588 0.003876704 -0.206372
0.092831194 -0.029195478 0.0023818861 0.011623253 0.025038235 0.06246408 -0.4748153 0.012147925
-0.8984406 0.00027622614 0.0030260382 0.009014807 -0.14902884 -0.005274924 -0.013111245 -0.7337004
-0.018612524 -0.0208078 0.094793774 0.09236093 -0.019943753 0.047290556 -0.01925693 -1.4679241
0.2366561 0.23977095 -0.0050195367 0.011335284 -0.01967143 -0.042784285 -0.023444142 0.23805219
-0.0013513011 -0.026286853 -0.3105379 0.045608316 -0.32970598 -0.013109727 -0.016250059 -0.00594277
0.15117894 -0.023340492 -0.014146807 -0.0398207 -0.002929164 -0.01769182 0.0073366845 -0.028901286
-0.033080284 -0.23377988 -0.0616577 -0.02449669 0.036794923 -0.41512862 -0.025405949 0.34969142
-0.00681375 -0.025058718 -0.00816122 -0.00994482 0.037917722 -0.25301084 0.60465074 0.23741254
-0.024268033 0.28296295 -0.0031055007 -0.02148383 -0.024905067 -0.21855505 -0.62973565 -0.0049113696

bias f4 [100]
00000000: 098e c03b de4d 963d 75b5 89bc b9ca 16b9
00000010: 0f0b 85b9 c4e7 3cbc ed77 463b abc8 633d
00000020: cae1 b23d 1834 d7b9 ae2e a03c 0ce7 7e3c
00000030: b1ed e2bb 7142 c8b8 c63e 443d 99e2 873d
00000040: d63a 3c3c 339d 68ba 090c dfbb 96d9 8b3d
00000050: 97e4 ee3b a6e6 833d 17cc 563b 5b71 17bb
00000060: 3712 adbc ddfa 6fba 800e 22bc c36b e8bb
00000070: 5af8 943c 1a64 a039 6853 91bc ddc2 14bc
00000080: c83d e4b9 46e4 403d ff00 c6bb c7ed 403b
00000090: 70a8 843d 1d85 63bc d0e3 2abb 82cf 88ba
000000a0: ef76 2f3d 0e85 dbba df91 053d 0831 363d
000000b0: 72f5 4b3a 51c0 a2ba bbbc 5fbb 93c9 613a
000000c0: 831d 2f3d 854b ec3b 47db 733c d34a ad39
000000d0: ac65 b53c 76eb 593d 06f6 55b9 9355 b4bb
000000e0: 3caa 49ba b658 7a3c ce21 823d 5152 eb3d
000000f0: c57b 073d 7293 9a3d d901 7c39 1979 b33c
00000100: 4fc6 373d eeee b5bb bb03 dc3a 43c9 39ba
00000110: 3d40 373a 59fe 9d3d 1ab5 56bb a581 02ba
00000120: 7262 413b 4b14 8c3a a2fc caba f9cf 993d
00000130: 48db 523c d28c 5739 b54d 91bb b6fa a13b
00000140: 42c0 983c 89b4 2c3e fbea 21ba 39d7 0c3d
00000150: 7b72 063d 9e01 463c fbe1 0d3e d1f3 623d
00000160: c2d5 8239 29be c5ba bbed de3c f068 913a
00000170: 2881 c5b9 bf51 b3ba 84f9 893a 2b30 993d
00000180: 1b37 073c 0b64 0ab9 25ab 603a d7bd 8e3c
0.005876307 0.07339071 -0.016810158 -0.00014380635 -0.00025375976 -0.011529867 0.0030283884 0.055611294
0.08734472 -0.00041046808 0.019553509 0.015558016 -0.0069253077 -9.549119e-05 0.047911428 0.06635017
0.011488637 -0.0008873522 -0.0068068546 0.068286106 0.0072904336 0.06440477 0.0032775456 -0.0023108337
-0.02112685 -0.0009154508 -0.009891152 -0.0070929243 0.01818483 0.0003059216 -0.017739967 -0.009079662
-0.0004353358 0.0470927 -0.006042599 0.0029438601 0.064774394 -0.013886717 -0.0026075728 -0.0010437819
0.042838033 -0.0016748027 0.032609817 0.044480354 0.00077804097 -0.0012416934 -0.0034139592 0.0008613106
0.042752754 0.007211151 0.014883823 0.0003305288 0.022143207 0.05320307 -0.00020404914 -0.0055033653
-0.00076929084 0.015279939 0.06354104 0.1149031 0.03307702 0.07547654 0.00024033281 0.02190833
0.044866856 -0.0055521643 0.001678578 -0.000708718 0.0006990468 0.077145286 -0.0032761754 -0.0004978425
0.002950814 0.00106872 -0.0015486667 0.07510371 0.012869664 0.00020556457 -0.004434312 0.004943217
0.018646363 0.16865744 -0.00061766774 0.03438494 0.03282402 0.0120853465 0.13855736 0.055408303
0.00024954794 -0.0015086579 0.027212968 0.0011093896 -0.00037670997 -0.0013680978 0.0010526632 0.074798904
0.008252884 -0.00013197974 0.00085704244 0.017424507

weight f4 [1, 100]
00000000: c0cc 9bc0 884a cb3f 5cce f8bf 4417 273a
00000010: 185e 203a 3706 a0bf 9b99 f1b9 638d 6a3f
00000020: 87d8 913f 8de8 66ba de75 85c0 e2ec 51c0
00000030: d34b d1be e2b1 1eba 2fba 4640 e1f5 813f
00000040: 32fd 1e40 6781 193a f96a 8ebe 739b b33f
00000050: a9cd 633e 73df 6fc0 0e55 abba eaef bfbf
00000060: c81d 79c0 ba6d 7fb9 6ded 67bf f7d0 95be
00000070: 44ed 8d3e 39fb b4b8 594d 8abf 7d4f 38c0
00000080: 0a18 f138 49af 893f 297b 7cc0 3709 50ba
00000090: ea64 2c40 ddd1 0dc0 16e4 4ec0 971e 0aba
000000a0: 661f 9d3f b7c3 65c0 8423 013f d296 563f
000000b0: 0616 4339 542f 333a 1e3e 633f 3973 d6ba
000000c0: f0c1 34c0 0612 05c0 7e60 fbbf 4783 213a
000000d0: f7a4 65c0 ed22 5f3f 326e 4d38 6ac1 1bc0
000000e0: 3e0e a23a 065d 01c0 88d5 b3c0 a6f6 3240
000000f0: a4a1 e93f 83d5 61c0 83c3 233a 4377 2340
00000100: 898c ba3f 28f7 8fbf e769 d839 3298 3cba
00000110: f5b9 53ba 4a0d 8fc0 25ec 873a 0692 9039
00000120: 76ea 86b8 7f03 bebf 8ba4 f4b9 7170 6a3f
00000130: 215d fabf eda6 02ba caae 65c0 4081 edbf
00000140: 829a 423e bae3 0640 0a26 a4ba 2374 af3f
00000150: 1685 323f c86f edbf 02fa 3c40 2279 753f
00000160: a541 adba 4329 bc39 b6af b93f 01e4 a339
00000170: da8a 6b3a b760 643a 9d3f 66ba b8fd ad3f
00000180: 6f04 85bf 5547 3439 f73f 8d39 19ae a63e
-4.868744 1.588212 -1.9437976 0.0006374011 0.00061175367 -1.2501897 -0.00046081547 0.9162199
1.1394204 -0.00088084565 -4.170638 -3.2800832 -0.40878162 -0.0006053728 3.1051137 1.0153161
2.4842038 0.0005855769 -0.2781599 1.4031814 0.22246422 -3.7480133 -0.0013071613 -1.4995091
-3.8924427 -0.00024359571 -0.9059666 -0.2926099 0.27720082 -8.629863e-05 -1.0804855 -2.8798516
0.00011496253 1.0756618 -3.945017 -0.00079359434 2.6936593 -2.215934 -3.2326713 -0.00052688405
1.2275207 -3.5900705 0.5044482 0.83823884 0.00018604854 0.00068353605 0.8876666 -0.0016361243
-2.824337 -2.079225 -1.9638822 0.00061612244 -3.5881937 0.8716267 4.8978436e-05 -2.43368
0.0012363864 -2.0213027 -5.619816 2.7963042 1.8252454 -3.5286567 0.000624709 2.5541542
1.4574138 -1.1247301 0.00041277634 -0.000719431 -0.0008076721 -4.470372 0.0010370059 0.00027574616
-6.43329e-05 -1.4844817 -0.000466619 0.9157782 -1.9559671 -0.00049839803 -3.5887933 -1.8555069
0.19004253 2.1076493 -0.0012523544 1.3707317 0.69734323 -1.8549738 2.9527593 0.9588796
-0.0013218416 0.00035888897 1.4506748 0.0003125966 0.0008985229 0.00087119214 -0.0008783283 1.3593054
-1.0391978 0.00017192711 0.00026941273 0.325547
