Total_RCS/epoch_200_batch_255_lr_0_0019819414761434403_wd_0_1808248925678225/torch_model_2_Tanh.pth (torch, 731855 bytes, 7 tensors)

weight f4 [300, 3]
000000 44 75 83 3e 55 47 6e 3f 1b 6b 3d 3f 0e 50 af be
       0.25675404 0.93077594 0.73991555 -0.34240764
000010 c7 b7 ae 3e fc 6f ea bd 17 2e 89 3a 84 8b 76 bb
       0.34124586 -0.114471406 0.0010466006 -0.003761978
000020 41 e7 fd 3a 4a 2e b5 3a 15 25 f4 3a b6 43 31 3b
       0.0019371287 0.0013822999 0.0018626774 0.0027048416
000030 70 59 9b ba 1c 40 5a 3b 03 c8 c7 ba 72 5b 13 3e
       -0.0011852216 0.0033302372 -0.0015242103 0.14390352
000040 89 c2 9f bd ee 08 c2 bf 26 cb ea 3e f4 16 5d be
       -0.078007765 -1.5158975 0.45858115 -0.21590787
000050 f3 2a 41 bf bf 9f 3c 3e 74 cf 6c 3f 92 69 3d 3f
       -0.7545616 0.18420313 0.9250405 0.7398921
000060 35 24 aa be 65 c4 2e bf 7c 96 09 bf 87 4d be bc
       -0.3323075 -0.68268424 -0.53745246 -0.023230327
000070 85 a5 81 3e 8f c2 dc bc 5d 7b 82 be 57 65 3d bf
       0.25321594 -0.026948242 -0.25484744 -0.7398276
000080 29 67 2e bf 68 99 42 ba e3 5b 81 3b 35 ff fe b8
       -0.6812616 -0.0007423372 0.0039477213 -0.000121592
000090 3d d8 68 be e7 80 63 bf 44 fd 57 bf a6 f9 5c b8
       -0.22738738 -0.88868564 -0.8437083 -5.268459e-05
0000a0 6d 7f 19 bb c7 93 1c ba a4 a4 43 bb b6 1e dd 3a
       -0.00234219 -0.0005972948 -0.0029852772 0.0016870114
0000b0 b0 e7 ae bb 30 43 a2 bd 22 eb 6e 3f c1 f6 6b 3f
       -0.005337678 -0.07922971 0.93327534 0.9217339
0000c0 7c 88 16 3b 6c ac 48 ba f6 1c 1e 3b 8d 93 12 3b
       0.0022969535 -0.00076550874 0.0024126149 0.002236578
0000d0 0d 1a 32 ba 09 df 18 3b 94 9f 3e be 69 5f 95 bf
       -0.0006794043 0.0023326299 -0.18615562 -1.1669742
0000e0 4c d2 76 bf d5 3f ad bb 77 96 fb ba 64 3c af 3a
       -0.9641464 -0.0052871504 -0.0019194622 0.0013369438
0000f0 8d b5 08 3b 7b e7 ac ba 1a 28 6a 3b 32 38 80 3f
       0.0020860166 -0.0013191545 0.0035729469 1.001715
000100 b1 79 9a 3e d5 48 da bd ef af 8c 3a b5 25 3a bb
       0.30170968 -0.10658423 0.0010733585 -0.0028403823
000110 86 e6 07 3b ba a6 be ba a7 60 27 3b c7 1c e3 ba
       0.0020736768 -0.0014545538 0.0025539787 -0.0017327302
000120 5b 5f a2 3a e3 6b 5d bb fb 90 e7 3a 53 48 59 3f
       0.0012388037 -0.003378623 0.0017667109 0.84875983
000130 55 d3 55 3e 34 7e 38 3d c3 2c 65 3f 20 96 af 3e
       0.20881398 0.04504223 0.89521426 0.34294224
000140 bd 61 85 bd 5b b9 00 40 c9 2d db bd 41 bf d5 be
       -0.06512783 2.0113132 -0.10702092 -0.41747478
000150 67 4c 3c 3d de 6d b9 3e af aa 41 3b a3 f6 7d bd
       0.0459713 0.36216635 0.0029551198 -0.06200279
000160 c6 79 51 bf 3c 5d 4e bf 90 77 0d be d2 e8 23 3c
       -0.81826437 -0.80611014 -0.1381514 0.010004239
000170 00 7f b0 3f 7c 30 32 ba 42 71 2e 3b 7d 3c a8 ba
       1.3788757 -0.0006797386 0.00266178 -0.001283541
000180 ce 1d fb be 81 15 19 bf 67 c2 b8 3b 12 cd 98 ba
       -0.49046177 -0.5979844 0.005638409 -0.0011657795
000190 0b fb a9 3a db a7 2d b9 ba 83 3f 3b 28 8b c6 ba
       0.0012968493 -0.00016561097 0.0029222802 -0.0015147673
0001a0 8d ad ab 3b c6 5a b4 bf 65 02 b0 3d e1 c8 a1 3d
       0.0052391947 -1.4090202 0.08594207 0.07899643
0001b0 d1 a5 37 3f e6 75 32 3f c5 7e 37 be 50 c9 79 3b
       0.7173739 0.6971115 -0.17919452 0.0038114376
0001c0 24 e6 03 bb 2d 20 dc 3b 63 83 e4 3e cb ba 19 bf
       -0.0020126188 0.006717703 0.4463149 -0.6005065
0001d0 d4 f3 06 3d c7 fe 7c 3d 08 54 cc be 57 3a c4 bc
       0.032947376 0.061766412 -0.3990786 -0.0239536
0001e0 30 bb 8e 3a 8e b0 6c bb 9f 84 4f 3a 2c ba d6 3a
       0.0010889526 -0.0036115977 0.00079161854 0.0016382388
0001f0 f5 48 16 bb 9e 1c df 3a 5d 5d 10 ba 80 2c 8f 3b
       -0.002293167 0.0017022078 -0.0005507076 0.0043693185
000200 77 d3 aa b7 6a 88 8a be 8f 83 5f bf f6 21 36 bf
       -2.036405e-05 -0.270572 -0.8731012 -0.7114557
000210 c7 e1 c8 3e c8 eb 2e bf 85 1d db bc a1 6d e0 bc
       0.39234754 -0.68328524 -0.026747474 -0.027396025
000220 c0 45 63 bf 3a 6c c8 be 24 53 a8 bd 41 51 83 3f
       -0.88778305 -0.3914507 -0.08218983 1.0259172
000230 f5 ea ba 3e c7 62 f3 3e 6d b3 c5 bf 30 ca 05 bf
       0.36507383 0.475363 -1.5445381 -0.5226164
000240 81 2b 6e be a0 7c 0c bf 2f 62 01 bf 98 6d ab bc
       -0.23258783 -0.5487766 -0.5054044 -0.020926282
000250 fc 1c 34 bf 51 5d e7 be 0c eb 92 bd 69 20 5f bf
       -0.70356727 -0.45188382 -0.07173738 -0.8715883
000260 f8 41 9e bf ff 55 a4 3a 39 09 2f bb f2 a8 b7 3a
       -1.2363882 0.0012537836 -0.0026708378 0.0014012142
000270 c2 fb 29 3b 94 8d c4 36 3e 50 21 3b ab dc ab 3a
       0.0025937413 5.857737e-06 0.0024614478 0.0013112029
000280 4d 25 41 bb 0d 84 d2 3a 10 39 13 bd d0 f6 00 bf
       -0.0029471696 0.0016061083 -0.03594309 -0.50376606
000290 30 bf 3a bf 78 56 dd 3a 61 aa 15 3b d2 99 5a 3b
       -0.7294798 0.0016886732 0.002283715 0.0033355844
0002a0 e3 a8 89 bf 86 9d 05 bd 6e 4f 21 3e b1 ad 9a be
       -1.0754665 -0.03262093 0.15752956 -0.3021064
0002b0 db 5a 03 bf bc 96 a6 3c 88 7b 1d be c3 05 fb be
       -0.5131051 0.020335548 -0.15379155 -0.49027833
0002c0 bd a2 07 bd 94 31 60 bd 13 4c 25 3f 98 b1 c4 bf
       -0.033114184 -0.05473478 0.64569205 -1.5366697
0002d0 55 52 06 3b 06 af 9d ba f4 3a 12 3b 47 53 1f ba
       0.002049585 -0.001203031 0.002231297 -0.0006077778
0002e0 2e ac 88 3b 5a 1a bf b9 b0 0d 25 bb 02 64 08 3a
       0.004170916 -0.00036449992 -0.002518516 0.00052028906
0002f0 15 67 98 3a 42 cd 72 3f 5c 17 a5 3d 54 83 ae bd
       0.00116274 0.9484445 0.08061096 -0.085211426
000300 81 dc 9c ba a8 bd 57 3b 66 33 c8 ba 73 eb 0a be
       -0.0011967571 0.003291944 -0.0015274107 -0.13566379
000310 86 40 23 3e 8c f9 99 bf 76 7f b4 3a 45 a2 35 bb
       0.15942582 -1.2029281 0.0013770896 -0.0027715128
000320 fb 5f d9 3a de 4e 6e 3f 30 59 07 3e 96 7b 13 bd
       0.001658439 0.9308909 0.13217616 -0.036006533
000330 af 84 af 3a b5 34 3c bb 81 c6 d5 3a 44 08 bf bd
       0.0013390983 -0.002871794 0.0016309769 -0.093277484
000340 f5 f0 fd bc 99 55 d4 bd 26 af 6b 3f a9 01 66 bf
       -0.030998686 -0.10367889 0.9206413 -0.89846283
000350 f8 7f 82 3e 3b 99 a7 be c3 c7 20 be 0e 1f ac be
       0.25488257 -0.32734093 -0.15701203 -0.33617443
000360 f7 57 ec be 51 99 21 bf e6 88 aa bc 43 3b db 3b
       -0.46160862 -0.6312457 -0.020817231 0.006690414
000370 b2 1d 78 3f c7 b7 58 3f b2 50 e8 ba e2 55 97 bb
       0.9692031 0.8465542 -0.0017724244 -0.0046183923
000380 36 7f 91 bb 15 fe e2 3b 2b 75 cc 3a 8d ed 4f 3c
       -0.0044402136 0.0069272616 0.0015598884 0.012690914
000390 8f 36 84 bb 19 db 44 3b 8a bd 07 bc 75 b1 57 bf
       -0.004034824 0.003003782 -0.008284936 -0.8425515
0003a0 e6 a5 64 be 50 3a 17 bd c3 59 b9 3a 2e 6e 2e bb
       -0.2232891 -0.036920846 0.0014141131 -0.0026615965
0003b0 73 d7 dd 3a 9b 49 aa bd 85 36 9e be 82 c7 97 bf
       0.0016925171 -0.083148204 -0.3090097 -1.185776
0003c0 2b 6b 6e 3e 98 48 d6 3e b8 e0 05 bd bd 04 f4 3d
       0.23283069 0.4185226 -0.03268501 0.11914966
0003d0 71 70 bd bf 06 4f 22 bf f4 4c df ba 7f b0 19 3b
       -1.4799939 -0.6340183 -0.0017036484 0.0023451147
0003e0 cb d0 0b bb 15 72 d9 bb af 96 04 3e ba f3 ac bf
       -0.0021334167 -0.006635914 0.12948106 -1.351188
0003f0 d0 4e 11 3c 76 92 05 bf 46 ec 04 bf 4c c1 00 3f
       0.008868888 -0.52176607 -0.51923025 0.5029495

bias f4 [300]
000000 74 3b 47 3f 28 e5 f1 be fe 21 40 39 35 99 3d bb
       0.77825093 -0.47245145 0.0001832321 -0.002893043
000010 4f 2a 89 b9 8d 4f 7c bf a8 13 22 be ae fa 34 3f
       -0.000261622 -0.98558885 -0.15827811 0.70695007
000020 77 47 32 bf d0 14 04 bd d7 45 3a bf e0 9a ff ba
       -0.69640297 -0.03224641 -0.7276282 -0.0019501112
000030 98 17 53 bf 52 6d a3 3a d2 a5 80 3b 60 d5 19 3f
       -0.82457876 0.0012468493 0.0039260173 0.6009121
000040 35 75 27 ba 75 56 2a ba 49 7f 66 bf a9 f1 94 bb
       -0.00063880096 -0.00064978685 -0.9003797 -0.0045454097
000050 8e 5e dc ba 35 01 80 3f 53 8a 00 39 41 a3 89 38
       -0.0016812847 1.0000368 0.00012258561 6.5630775e-05
000060 75 a5 87 39 fc 18 45 bf dd 25 61 3f ef bb e1 3e
       0.00025872482 -0.7699125 0.879484 0.44088694
000070 e7 f1 93 3d fe 1d 26 bf a4 46 61 3f fc 9b a8 38
       0.072238736 -0.64889514 0.87998414 8.0399186e-05
000080 d5 bb 03 bf 49 7b d3 b8 9e 34 80 bb fa be 86 3e
       -0.51458484 -0.00010084228 -0.0039125225 0.2631758
000090 ed 69 38 3e ae ff a2 bb 36 ea 22 3f c9 36 12 3d
       0.18009157 -0.004974327 0.6363863 0.03569678
0000a0 f2 ae 7c 3a 11 ef 9d b7 dd c5 d1 ba a2 50 44 bf
       0.0009639106 -1.8827182e-05 -0.0016004402 -0.76685536
0000b0 ba 92 25 3f 88 f2 bb be 89 c0 a4 3e 2e 44 f2 be
       0.6467701 -0.36708474 0.32178143 -0.47317642
0000c0 a9 65 16 bf 2e 10 c5 be 71 35 79 bf 3c fc b5 38
       -0.5874887 -0.38488907 -0.9734717 8.677735e-05
0000d0 10 25 45 ba 73 54 d3 38 aa 39 17 bf 6a bd 68 bb
       -0.00075204764 0.00010076994 -0.59072363 -0.003551329
0000e0 ed 1c ae 3e b3 1b b6 bd e5 d2 51 be a7 05 9d bf
       0.34006444 -0.08892002 -0.20490606 -1.226735
0000f0 6b 87 0b ba 43 93 a4 ba 98 0e 56 bb 9c 05 27 bf
       -0.0005322608 -0.0012556094 -0.0032662507 -0.65242934
000100 46 c4 7f b9 f5 b3 84 bf 4b eb f0 37 8e a7 51 bf
       -0.00024391813 -1.0367419 2.8719796e-05 -0.81896293
000110 7d a7 8e 38 fb 24 3a be fa 9b 90 be 72 b8 12 bf
       6.802285e-05 -0.1817817 -0.28244 -0.5731269
000120 98 e5 03 bf 88 8d 21 3f 6e 70 9c 3b f3 b7 26 bc
       -0.5152221 0.63106585 0.004774145 -0.010175693
000130 3f ab a4 3b b3 ab 3b 3f 1e 16 a1 b7 c7 6f 74 bf
       0.005025297 0.7330887 -1.9202995e-05 -0.9548306
000140 ef 4e 6a 3e 81 5e 17 bf 67 74 10 39 47 bc 81 bf
       0.22881673 -0.59128577 0.00013776273 -1.0135583
000150 6c 31 cd be 69 70 36 3f 9d 01 af be b1 df 6d b9
       -0.40076768 0.71265274 -0.34180918 -0.00022685413
000160 74 b2 8c 3a 27 9b 0b bf a4 86 e6 be 15 9d a3 3f
       0.0010734336 -0.5453362 -0.45024598 1.2782313
000170 e0 57 28 39 b7 1d b6 b9 72 48 83 bc 71 87 1d 3f
       0.00016054465 -0.00034735884 -0.016025756 0.6153479
000180 3b af 4c 3e 25 13 3f 3f c3 01 87 3f b0 9f 1c bf
       0.1998872 0.7463859 1.0547413 -0.61181164
000190 9c 5c b8 3e d8 c6 36 3b 31 60 95 39 f0 ad e6 3e
       0.36008155 0.0027889516 0.00028491163 0.4505458
0001a0 12 bd 39 38 e8 77 c9 bb 3e 91 8e 39 9f a6 51 3f
       4.4283523e-05 -0.006148327 0.00027192564 0.8189487
0001b0 f4 d1 1a bf 81 a0 59 3f fa 6f 16 bb 74 b1 9e bf
       -0.60476613 0.85010535 -0.0022954927 -1.2397904
0001c0 60 28 50 3e 9b e4 35 3f f9 a3 2e bf 05 d2 ae 3b
       0.20327902 0.7105195 -0.6821895 0.005335095
0001d0 54 3e 3a b9 27 c8 25 bf 02 40 0d be b1 fd 68 bb
       -0.00017761561 -0.64758533 -0.13793948 -0.0035551602
0001e0 3a d5 47 3a 05 57 7a bf 8e 79 34 b8 28 ae dd b9
       0.0007623021 -0.9778903 -4.302855e-05 -0.0004228216
0001f0 2e 99 3a b9 3e 79 9e 39 67 ca c5 b9 6d 39 bd 3e
       -0.00017795406 0.0003022644 -0.0003772557 0.36957875
000200 00 0c f4 be fb de 01 bf a6 50 c1 38 0b 1b ae 3e
       -0.47665405 -0.50730866 9.217979e-05 0.34005007
000210 9c 5b 92 3f 9b e3 87 be b2 4d 94 39 d2 5c 60 39
       1.1434207 -0.26540837 0.00028286647 0.00021396883
000220 a2 e9 aa b9 f2 6f cf 39 0f 3c 36 bf 64 c2 5e bb
       -0.00032598997 0.00039565522 -0.7118539 -0.0033990378
000230 89 b8 0e 3e 60 bb e1 3e 30 d2 ce 3e ef 70 93 ba
       0.13937582 0.44088268 0.40394735 -0.0011248867
000240 45 e5 e6 3e 50 5f 5a bf 5a b8 4d bb ea 36 45 bf
       0.45096794 -0.85301685 -0.00313904 -0.7703692
000250 fc a6 03 bf f0 f3 32 3f c4 d8 71 3d 47 ef 12 3f
       -0.5142667 0.6990347 0.059044614 0.5739636
000260 5e 68 54 3f 3b 27 c4 bb 3d 0f 38 bf 9a 5f d6 3e
       0.8297175 -0.005986122 -0.7189825 0.41869813
000270 f9 2d a4 3b c6 28 dd 3e 5a 01 a5 bf 75 39 d7 be
       0.005010363 0.4319517 -1.2891037 -0.42036024
000280 c4 71 2d 3a f5 36 33 bf 21 da 5c bf 5f b4 7e bb
       0.00066163787 -0.7000573 -0.8627034 -0.0038864834
000290 a0 d2 57 3f 30 bf 27 3e 48 4a 8c 39 24 01 03 bd
       0.84305763 0.16381526 0.00026758225 -0.03198351
0002a0 21 51 a9 bf 93 94 30 b9 68 65 18 3d 21 79 31 3f
       -1.3227884 -0.00016840016 0.037206084 0.69325453
0002b0 e9 c7 63 3b 50 20 48 bf 34 21 1d 3d b5 c1 70 bf
       0.0034756607 -0.78174305 0.038361743 -0.94045573
0002c0 47 2b 16 b9 c7 f1 8a 3f 72 8b 85 b9 93 39 5f 3f
       -0.00014321237 1.0855035 -0.00025471632 0.87197226
0002d0 50 58 56 bf 17 80 a3 bf 3b 16 8c ba d8 4d 0e ba
       -0.83728504 -1.2773465 -0.0010687778 -0.000542847
0002e0 cd cb 99 39 fb e1 35 3f 4b a8 f4 be 0b 23 24 bb
       0.00029334277 0.71047944 -0.47784647 -0.0025045301
0002f0 b8 22 64 3b 19 27 53 3d 24 a5 54 39 97 4f 24 3f
       0.0034810733 0.05155096 0.00020279415 0.64183944
000300 fe 7c 8e 3d c0 76 1a ba 7a 62 55 bf b0 e4 38 3f
       0.06957434 -0.0005892329 -0.8335339 0.7222395
000310 d8 42 63 3b c9 5e 52 3f 4c 53 12 bf e3 33 7f 39
       0.0034677293 0.8217588 -0.5715835 0.00024338024
000320 97 b0 2b 3f 60 ae 54 3f 94 08 70 bf 68 b8 c9 3e
       0.6706633 0.83078575 -0.9376309 0.39398503
000330 9e 79 34 ba 10 1a e5 b9 a7 21 f9 3b 12 87 a4 38
       -0.00068845775 -0.00043697702 0.0076028886 7.845288e-05
000340 1d 75 6e 3f 9c e3 51 3b 49 eb ec 3b 83 21 79 3f
       0.9314745 0.0032026535 0.0072301966 0.9731676
000350 b7 27 62 3f 51 97 7f b9 08 48 92 be fc 01 73 bb
       0.8834185 -0.00024375065 -0.2857058 -0.003708004
000360 bb 85 bf b8 e9 a6 04 3d 2d 72 3f bc b4 b9 e2 3e
       -9.132499e-05 0.03238574 -0.0116849365 0.44282305
000370 a4 54 25 3f c5 4a 88 be c5 47 15 3f 88 1f bb ba
       0.64582276 -0.26619545 0.58312637 -0.0014276365
000380 50 6f 29 3f 04 f5 74 b8 56 91 56 38 c6 74 1c 3f
       0.66185474 -5.8402322e-05 5.115693e-05 0.6111568
000390 5c d1 72 b9 eb 1f ca b9 84 79 36 3f 3f 00 91 bf
       -0.00023156911 -0.00038552223 0.7127917 -1.13282
0003a0 76 25 6d bf 7c 9b 47 bf 0a e5 b3 39 07 7d a7 3b
       -0.92635286 -0.77971625 0.00034312188 0.00511134
0003b0 d3 bd 01 3b 2a 0b 76 b9 20 13 c9 3e bd 3a e2 39
       0.0019796982 -0.00023464547 0.39272404 0.00043149843
0003c0 a8 15 d5 3e 89 84 a8 3e 8e 60 e5 3e 53 8d 28 bf
       0.41618085 0.32913616 0.44800228 -0.65840644
0003d0 0b c5 91 be 8b 9a 72 bf 3b 78 da b9 c4 ef 8c 3b
       -0.28470644 -0.94767064 -0.0004166978 0.004301043
0003e0 97 b8 31 3f 29 79 a9 be 0a ad 2c bf 70 8d ab b8
       0.69422287 -0.3310025 -0.67451537 -8.18026e-05
0003f0 fe 3c 42 bf 0b e5 1c 3b 89 25 41 3b 99 f2 45 3f
       -0.75874317 0.0023940231 0.0029471836 0.773233

weight f4 [300, 300]
000000 6c 49 27 3c 58 7b 48 bd f6 da 74 b9 ad c5 ef ba
       0.010210376 -0.048945755 -0.00023351223 -0.0018293165
000010 3e 02 cc b7 5d c7 7c bb 5d 22 e4 3b a4 cb f5 3b
       -2.431974e-05 -0.0038570978 0.0069621042 0.0075010825
000020 55 9f 9f bc 02 f5 1d bc e0 fc 87 bc 6f 5a c9 b9
       -0.019485155 -0.009640934 -0.016600072 -0.00038405086
000030 f3 28 5f bc 96 24 4e 3a bb d3 84 3b d2 b4 bb 3b
       -0.013620603 0.0007863728 0.0040535606 0.0057283426
000040 f1 23 cd b9 5b 17 bb b9 b8 b8 fc bb ff 0d 05 39
       -0.00039127425 -0.0003568482 -0.00771245 0.00012689082
000050 3b 2e 77 bb 16 ae fe 3c 42 f0 fd b9 f2 7b 59 38
       -0.0037716764 0.03108887 -0.00048434926 5.1852265e-05
000060 f9 93 c2 b8 c0 8c a6 bd cf 04 fe 3c ba 92 b5 bc
       -9.278203e-05 -0.08132315 0.031008152 -0.022164691
000070 32 c1 89 ba a1 cf 22 bc 30 e2 71 3b 34 45 24 39
       -0.0010509847 -0.009937198 0.00369085 0.00015666039
000080 4c f9 cb bc 1c 62 9c ba c9 c3 81 bb 59 24 09 3d
       -0.024899147 -0.0011931094 -0.003960107 0.03348193
000090 a8 ac 4b bc 6e c7 9b bb f2 a8 71 3d 7c d5 70 3c
       -0.012431301 -0.0047539985 0.05899901 0.014699336
0000a0 d9 13 95 39 4a 4c 3d b8 02 bf e1 b9 e7 e2 46 bc
       0.00028434282 -4.513216e-05 -0.00043057656 -0.012139059
0000b0 a1 18 85 3d 2a 3d 26 3b 87 91 26 bb 1c 71 6f bc
       0.06498838 0.0025366046 -0.002541633 -0.01461437
0000c0 a9 1d ab bc ec a2 7b bb d6 b8 8a bc 47 de 77 38
       -0.020888167 -0.003839667 -0.01693384 5.90964e-05
0000d0 97 cc f5 b9 f2 72 38 b5 dc a9 97 bc 5b d6 0b bb
       -0.00046882473 -6.871261e-07 -0.018513612 -0.0021337483
0000e0 ac 9e 1f 3d 20 63 6e 3c 25 38 d0 bb 9e ea 00 bd
       0.03896968 0.01455 -0.006354349 -0.03147375
0000f0 f5 74 95 b9 0f 29 f7 b9 d9 f1 8b 39 60 5d 76 bd
       -0.00028506634 -0.00047142102 0.00026692337 -0.060147643
000100 64 95 da b7 a8 21 1b bd 28 02 b3 b7 20 1c 98 bd
       -2.605719e-05 -0.037873894 -2.1339467e-05 -0.074272394
000110 bc f1 2c b7 73 da 94 bc 08 ae 1e bd ca a7 30 bd
       -1.0308282e-05 -0.018170571 -0.038740188 -0.043128766
000120 e9 dd c1 bc bb 42 ad 3b bf 42 e8 3a 9d f7 cd bb
       -0.023665385 0.005287496 0.0017720087 -0.0062856213
000130 14 81 ed 3b 88 9b a1 3d 8b a0 0e b8 51 aa d3 bc
       0.0072480533 0.07890993 -3.4004956e-05 -0.02583805
000140 96 ff 61 3c f0 77 1e bb 2f 32 73 39 e9 ab b3 bc
       0.013793847 -0.0024180375 0.00023192981 -0.02193256
000150 29 30 24 bc 1e d7 78 3d aa 6b 57 bc 39 04 fb b8
       -0.010021248 0.060752027 -0.013148228 -0.00011969399
000160 10 0b 20 3a d1 2d 64 bd 7c 92 b4 bc 69 e6 c5 3c
       0.0006105164 -0.055707756 -0.022042505 0.02415772
000170 a7 91 4c 37 ad b0 92 b8 14 67 6e 3b 02 60 a6 3b
       1.219326e-05 -6.994731e-05 0.0036377357 0.005077363
000180 48 ff 12 3d 80 8d f5 3b 71 08 ac 3d ce 97 54 bd
       0.035887986 0.0074936748 0.084000476 -0.051902585
000190 75 47 96 3d ea cf 75 3b 00 ab 0e 39 b2 1c 4b 3d
       0.07337848 0.003750796 0.00013605878 0.049587913
0001a0 65 57 de 39 c7 47 33 bb 8c 4d 50 b7 e2 7c f2 3b
       0.00042408254 -0.0027356015 -1.2415821e-05 0.007400141
0001b0 95 b0 f2 bc 44 9f 0d 3c 6c 13 ce ba 3b e1 a5 bc
       -0.029625216 0.008643929 -0.0015722341 -0.020249
0001c0 6e 1b 49 bb 10 87 19 3c f6 a4 d0 bb 6b 1b 28 3b
       -0.0030686515 0.00937058 -0.006367321 0.0025651108
0001d0 0b 23 bf b8 e7 cf f6 bc 79 0d 4f bd fd a7 38 bb
       -9.114117e-05 -0.030128432 -0.050549958 -0.00281763
0001e0 61 07 05 39 7b 5c a2 bd 61 d3 6d b8 cd d5 51 b9
       0.00012686617 -0.079277955 -5.6702065e-05 -0.0002001144
0001f0 83 ab 19 35 a7 74 1f 39 e2 d8 4e b9 e2 d5 a6 bc
       5.7246524e-07 0.00015206878 -0.00019726486 -0.02036566
000200 41 45 4c bd 47 b0 18 bb 83 07 9e 38 74 9d 7a 3b
       -0.049870733 -0.002329843 7.535426e-05 0.0038240822
000210 b6 9d a5 3d 38 e0 b6 bc 7e ac 85 b8 11 f4 b4 37
       0.080867216 -0.022323713 -6.3740634e-05 2.1571324e-05
000220 0f 1e 05 b9 75 57 45 39 c2 f9 cd bb 9b 00 87 bb
       -0.00012695066 0.00018819964 -0.006285877 -0.004119945
000230 89 80 e4 3b 5d 91 0e 3d 10 98 40 3d 90 26 bf b9
       0.0069733304 0.034806598 0.047020018 -0.0003645909
000240 c1 ef c2 3c e8 33 11 bc fc ff 86 ba 49 ec bb bb
       0.023795964 -0.008862473 -0.0010299678 -0.0057349545
000250 d7 9e fd bc d1 a1 eb 3b f7 38 82 3c 3f 3b e8 3c
       -0.03095953 0.007190921 0.015896304 0.028348563
000260 ca 9e 13 3c 8b b2 b2 bb 20 44 61 bd 5b f5 89 3c
       0.009010026 -0.005453413 -0.05499661 0.016840627
000270 29 01 33 3b c3 2a 62 3c 99 ab d5 bc b7 80 8d bb
       0.0027313924 0.0138041405 -0.0260828 -0.0043183225
000280 55 3d fc 39 8f 14 74 bd 57 5b a1 bd 46 2e d7 b8
       0.00048110881 -0.05958992 -0.0787875 -0.00010260618
000290 c4 98 01 3d 4d f0 db 3c 5d 82 e5 37 55 e4 0f bd
       0.03163983 0.026847983 2.7359632e-05 -0.035129864
0002a0 88 b4 c7 bc 8b c4 2d 38 36 5e 28 3c 4d 3e 61 3d
       -0.024378076 4.142946e-05 0.010276368 0.054991055
0002b0 65 27 c3 3b 18 a8 49 bc 7d 2d 01 3b 0e a4 50 bc
       0.005955624 -0.012308143 0.001971095 -0.012734426
0002c0 bf 5b 1d 3a 79 93 45 3d 4c 9c c4 b7 e3 23 48 3c
       0.0006002746 0.048236344 -2.3437802e-05 0.012215587
0002d0 c4 c5 0b bd 40 1b 26 3c 73 1c 58 b9 1d c0 a5 b9
       -0.03412415 0.010138333 -0.00020609963 -0.00031614388
0002e0 86 7b a5 37 f3 18 b8 3d f2 84 e1 bc 6b 4a 20 b8
       1.9727053e-05 0.08989134 -0.027529214 -3.821628e-05
0002f0 5a d8 4a 3a 95 82 21 bb 0e 6f d4 38 54 e1 c2 3b
       0.00077379274 -0.0024644483 0.00010129633 0.0059472714
000300 ef 8d 27 3d 5b f0 51 b8 9a 07 18 bc d0 4b 97 3c
       0.040906843 -5.005333e-05 -0.009279156 0.018468767
000310 53 6d 9a 39 22 e3 4b 3d 47 f3 3b bb 61 b3 33 39
       0.00029454622 0.049777158 -0.002867894 0.00017137594
000320 6e 7a 1a 3d ff 7e 8c 3d cc 60 1f bc 5a f2 3b 3d
       0.037714414 0.0686016 -0.009727668 0.04588542
000330 39 76 c7 b9 a7 6a 5e b9 93 ed f7 38 3c 67 64 38
       -0.0003804432 -0.00021211301 0.000118221295 5.445558e-05
000340 eb ba 5e 3c 00 28 8f 39 a3 7c 52 3b db 9a 8a 3c
       0.013594369 0.00027304888 0.0032117746 0.016919544
000350 27 96 d4 3c de e4 6e 38 77 23 a6 bc ac 6f 36 bb
       0.025950504 5.695677e-05 -0.020280583 -0.0027837558
000360 2d 66 d1 36 86 49 16 bb 3b cd 23 3b 1f 8c 03 3d
       6.24058e-06 -0.0022932007 0.0024994153 0.03211605
000370 e5 b2 ae bc c0 08 77 bc 56 ef be 3b 36 20 d4 39
       -0.021325538 -0.01507777 0.005826871 0.0004045979
000380 a5 29 ed 3d 6f ee a5 39 8b cf 0d b9 42 5b 8f 3b
       0.11580209 0.000316489 -0.00013524124 0.0043748925
000390 4f b2 ec b8 26 a8 31 35 ac 8b 62 3d a4 13 10 bd
       -0.000112865695 6.6182326e-07 0.055308983 -0.03517498
0003a0 92 56 01 bd 4b 67 15 bc bf 32 a1 39 fd a7 82 3a
       -0.0315767 -0.009118865 0.00030746122 0.0009968277
0003b0 0b d9 04 3a 53 14 65 38 57 00 43 3c 8b 94 81 39
       0.00050677423 5.4616783e-05 0.0119019365 0.0002471547
0003c0 4c 28 44 3d d8 af 45 bb 9d 0b 85 3b 3c 59 07 bc
       0.047889993 -0.0030164625 0.0040602223 -0.008261021
0003d0 85 2c 23 bc d0 7f 29 bc 16 2e 4f b9 4e ef 6f 3b
       -0.009959345 -0.010345414 -0.00019758227 0.0036611143
0003e0 46 df 78 3d 52 ad 3e bd 81 3c 00 bd a8 96 10 37
       0.060759805 -0.04655201 -0.0313077 8.618146e-06
0003f0 02 d8 10 bc 89 b2 6b 3b 55 2a c2 3a 98 67 c1 3d
       -0.008840563 0.003596457 0.0014813641 0.09443587

bias f4 [300]
000000 61 46 3f 3e cc a7 52 bd 75 7b ca bb 6d 72 c8 ba
       0.18679191 -0.051429555 -0.006179268 -0.0015292891
000010 b2 30 32 3c ec 2e ed bd 62 ab 3f be c1 13 0e 3e
       0.010875868 -0.11581215 -0.18717721 0.13874723
000020 2a 44 3f 3e 8f 5d 3c be 6c 23 41 be 7f e9 2d 3b
       0.18678346 -0.18395065 -0.18861169 0.002653688
000030 0c d7 3e be 7b 5c e0 3d 90 c6 3f 3e af 71 80 ba
       -0.18636721 0.10955139 0.1872809 -0.0009799505
000040 4e 02 c2 ba 72 5e 07 3b f5 15 2b bd a2 59 9b b9
       -0.0014801712 0.002065566 -0.041768987 -0.00029630685
000050 21 f5 23 3b 51 1c 41 3e db 63 e2 bd 6a 08 41 3e
       0.0025017934 0.18858458 -0.11054202 0.18850866
000060 7a 58 b9 3a 56 ff a4 bc 6d bc 91 3a 35 87 86 bd
       0.0014140748 -0.020141285 0.0011118777 -0.065687574
000070 2c 55 a7 39 18 33 12 bd 62 a7 c6 3d cf aa b6 3a
       0.0003191618 -0.035693258 0.096998945 0.0013936403
000080 86 71 3f be 52 79 3d be 05 17 36 3d 59 14 9f bd
       -0.1869565 -0.18503311 0.044455547 -0.07767553
000090 31 37 a5 3e 2b 52 34 bb f5 14 b6 3d 4e 38 3c be
       0.3226867 -0.0027514796 0.08890716 -0.18380854
0000a0 11 24 41 3e 3a e4 01 bd 0b 9f ca 3d f1 7b cd ba
       0.18861414 -0.031711794 0.09893616 -0.0015677196
0000b0 17 0b 87 3b cf 45 3f 3e b7 88 2b ba 92 b9 69 bd
       0.004121195 0.18678974 -0.00065435044 -0.05706174
0000c0 e0 b6 00 3e 1d 3a 9d bd 52 94 3f 3e f8 0f 40 be
       0.12569761 -0.076771 0.18708923 -0.18756092
0000d0 7c 9e bc bc 52 47 3f be 7e dc 68 bb 09 80 de 3b
       -0.02302479 -0.1867955 -0.0035531814 0.0067901653
0000e0 96 cf 50 3b c4 52 8a bb 29 72 76 be 1e f9 4a bd
       0.0031862012 -0.004221292 -0.24066986 -0.049553983
0000f0 d7 92 3f be 53 40 40 be 01 47 3c 3e c7 ee 3f 3e
       -0.18708359 -0.18774538 0.18386461 0.1874343
000100 45 91 5d bb b4 28 ef 39 d6 05 41 3e 7e e5 3f be
       -0.0033808511 0.00045615959 0.18849882 -0.18739888
000110 3d 9a 3f 3e 26 c1 4c bb 75 ed 26 3a ef 0b 41 be
       0.18711181 -0.0031243055 0.00063677813 -0.18852209
000120 6f d6 3f be 9a c2 3f be 26 a3 c4 bb 28 8f 88 bc
       -0.18734144 -0.18726578 -0.006000894 -0.016669825
000130 79 eb fe bd a6 10 5b bd 4b 9d 3a bd 58 72 30 bb
       -0.124472566 -0.053482674 -0.045560163 -0.0026923623
000140 68 1e 3e 3e 66 a9 2a 3e 0f 24 93 3c 09 ad 17 be
       0.18566287 0.16666183 0.01796153 -0.14812101
000150 d9 93 57 be 6e f5 2a 3b 1d 0c 86 b9 fd 17 72 ba
       -0.21052493 0.002608623 -0.00025567497 -0.0009235142
000160 7a 11 56 be 74 7e 35 3b a2 d8 3f be 19 16 41 be
       -0.20905104 0.002769378 -0.18734983 -0.18856086
000170 f1 04 41 3e da f0 1d be d8 fb 3f 3e ad e8 5c 3a
       0.18849541 -0.15423909 0.18748415 0.00084270054
000180 7b 4f da bc 16 f8 03 3d 05 fb 83 ba cf c7 70 3a
       -0.026649227 0.032219015 -0.0010069316 0.0009185047
000190 29 c7 10 3e a7 89 49 3d eb 9a d8 3d a7 08 41 3e
       0.14138474 0.04920354 0.10576423 0.18850957
0001a0 5f 42 8c ba 49 74 eb 3d 6e 20 22 bb c2 3f 2e 3b
       -0.0010700932 0.11496789 -0.0024738568 0.0026588296
0001b0 cd 6b 71 b9 cb 49 3f 3e f6 66 2d bd f8 6d 06 3e
       -0.0002302371 0.18680494 -0.04233452 0.13127887
0001c0 9f d0 4c be cb 9b 3f 3e f7 f6 40 be f3 e5 4c bd
       -0.20001458 0.18711774 -0.1884421 -0.050023984
0001d0 e7 74 52 3a 2f 35 82 3b 4f dc 3f be 6d 4b ed 3d
       0.0008028284 0.003973625 -0.18736385 0.11586652
0001e0 58 a4 a9 ba 8e 45 b3 3d 23 ea 7d 3a 65 78 94 39
       -0.0012942655 0.08753501 0.0009686073 0.0002831846
0001f0 d0 9e a5 39 4f d4 3c 3e 34 d8 3e be 44 ef b6 3a
       0.00031589577 0.18440364 -0.18637162 0.0013956805
000200 eb d9 21 39 99 23 3b 3e 8a e7 3f 3e ac 03 41 3e
       0.00015435337 0.18275298 0.18740669 0.18849057
000210 26 fd 36 bb b5 95 3f be cb e7 7e bd e7 f5 cd bb
       -0.0027921884 -0.18709452 -0.062232774 -0.0062854174
000220 9a 88 6b be 8c f1 b2 3c 19 3d d5 3c 4e 75 b1 bc
       -0.23001328 0.021843694 0.02603011 -0.02166238
000230 c7 5f cc b9 c3 4e 3f 3e b9 98 57 be f5 49 c3 3d
       -0.00038981272 0.18682389 -0.21054353 0.095355906
000240 c1 16 82 3b 64 3d a0 3b 18 ae 3e be f5 12 41 be
       0.0039699976 0.004890131 -0.18621099 -0.18854888
000250 4c 0d 10 3c 61 e9 b1 3b cb 53 3f 3e 82 f4 58 3d
       0.008792233 0.0054294323 0.18684308 0.052967556
000260 ef 61 b9 3c 09 bc e4 b9 fa 1f d7 3a 2f ed 6e 3d
       0.022629706 -0.00043627646 0.0016412728 0.058331665
000270 5f 6c 2f 3e f2 59 2f 3d 5d 33 b7 bd 67 74 3f be
       0.17131184 0.042810388 -0.08945344 -0.18696748
000280 d0 f6 96 ba 60 f1 3e be b2 6b 74 be 1a bb 3e be
       -0.0011517648 -0.18646765 -0.23869208 -0.18626061
000290 f9 71 32 3b 4b e7 da bc 2a 23 ad 3e 4a 76 7d 3c
       0.0027228578 -0.026721617 0.3381589 0.015470097
0002a0 77 9a 3d be b9 19 57 3a db d3 a5 bc 03 69 40 be
       -0.18515955 0.0008205432 -0.020242622 -0.18790059
0002b0 84 96 f8 bc da 84 63 bd f2 e3 d5 3a 68 48 36 3e
       -0.030345209 -0.05554662 0.0016318543 0.17801058
0002c0 84 d0 3f 3a a7 eb 5c bd 59 7c a6 bc c2 21 42 3b
       0.0007317143 -0.053935673 -0.020322965 0.0029622172
0002d0 c5 72 e1 3b ae 91 3f 3e d1 63 f5 bd 49 ad 41 bd
       0.0068801367 0.18707916 -0.11981929 -0.0472844
0002e0 bc 2e 59 bd e2 fb 1d 3b 1b 57 58 ba c4 7a 2e bb
       -0.053023085 0.0024106433 -0.0008252726 -0.0026623467
0002f0 d1 a9 7a 3b 9d cb 76 3d 59 23 9f bd 2b 6b bf 3b
       0.003824819 0.060252775 -0.07770414 0.005841633
000300 f0 bd 3c 3e 6c ca 53 bd 66 00 41 3e 1e 29 f6 bd
       0.1843183 -0.051706716 0.18847808 -0.12019561
000310 f6 3a 10 3b 1f a7 82 3d 88 7b d3 38 41 25 2a 3b
       0.00220078 0.06379532 0.000100842735 0.0025962146
000320 57 3f 24 3e 50 4a 6c 3a fa ee 3e 3e ae c2 8d 3b
       0.16039787 0.0009013759 0.1864585 0.004326186
000330 15 8b 0d bb c1 22 b5 bc 52 c7 44 bb ef ca 2a 3a
       -0.0021597792 -0.022111299 -0.003002603 0.0006515225
000340 f8 e8 6d 3a dc 5f d1 3a ab a5 3e be be 0a 99 bc
       0.00090755476 0.0015974003 -0.18617885 -0.01868188
000350 1c 52 5b bd a2 96 23 3d a6 af 0b 3b c2 a7 33 be
       -0.053545102 0.039938577 0.0021314411 -0.17544463
000360 a2 8f f7 ba a3 d8 3f be 65 0e 40 be 88 ce 87 38
       -0.001888741 -0.18734984 -0.18755491 6.475771e-05
000370 96 93 e4 b9 76 57 1b be 0b 7f 88 bc ec 94 2f 3e
       -0.0004359751 -0.15170082 -0.016662141 0.17146653
000380 28 5b 9e 3a 07 c2 3f be 2f a7 cd 3c c0 67 5b ba
       0.001208161 -0.1872636 0.025104133 -0.0008369647
000390 1a f0 98 3d 76 09 40 3e f8 50 54 3b 6d 96 57 3d
       0.07467671 0.18753609 0.0032396894 0.05263369
0003a0 2e 41 25 3e a2 bc 07 bb fb 09 3f be dc 39 41 be
       0.16138145 -0.00207118 -0.18656151 -0.18869728
0003b0 cd 0b 40 be cd cc 1d bd ad f4 f1 ba 56 cf 42 3b
       -0.18754502 -0.03852539 -0.001845976 0.0029725633
0003c0 80 05 b5 3a cd 0b 40 be d7 39 02 3e 19 35 7e 3d
       0.0013810843 -0.18754502 0.12717377 0.062062357
0003d0 d6 00 41 be 8b 3b a1 3a 9e 03 40 be 8c ef 4a 39
       -0.18847975 0.001230107 -0.1875138 0.0001935346
0003e0 67 30 40 3e cb f8 40 3e 90 7f 89 bc a0 fa 84 3d
       0.18768464 0.18844907 -0.01678446 0.064931154
0003f0 52 63 a5 bb b4 a8 4d 3a 74 05 40 3e 7b b8 29 3d
       -0.0050472403 0.0007845268 0.1875208 0.0414357

weight f4 [300, 300]
000000 82 06 13 bd 8d eb 08 3c f8 6f 18 3b 29 63 61 3b
       -0.03589488 0.008356941 0.0023260098 0.003439138
000010 86 c7 5d bc d3 cc 93 3c 0f 1a 13 3d d4 eb 97 bc
       -0.01353634 0.018042004 0.035913523 -0.018545069
000020 44 06 13 bd 2f 71 12 3d f3 65 13 3d 01 7f c1 3b
       -0.035894647 0.03575247 0.0359859 0.0059050326
000030 f5 f1 12 3d 71 9c 0a bc b0 21 13 bd bf 9d 17 bb
       0.03587528 -0.00846015 -0.0359208 -0.0023134795
000040 82 1f 65 3a ce 38 f4 3a bd fa 8b 3c 0b 4d b5 3b
       0.0008740352 0.0018632652 0.017087335 0.005532866
000050 01 c2 e1 ba 78 63 13 bd 9b b7 13 bb ea 5c 13 bd
       -0.0017223955 -0.035983533 -0.0022539857 -0.03597728
000060 2c 2b 05 3b ab fc 86 3a ca a3 1c 3c 83 e5 08 bc
       0.0020319922 0.001029869 0.009560535 -0.008355501
000070 f4 7a 0b ba 27 57 51 bc 17 89 cc 3b 01 a7 83 bb
       -0.00053207506 -0.012777126 0.0062419283 -0.004017711
000080 a6 0e 13 3d dd 92 cf bb ef db b2 bb 8c 5d 71 3c
       0.03590264 -0.006334646 -0.005458347 0.014731776
000090 7d 67 08 3c 1d 4f db bb 6c 04 e5 ba d8 6a 12 3d
       0.008325455 -0.0066927806 -0.0017472631 0.035746425
0000a0 6f 65 13 bd ef b7 a2 bc 0d dd 3c bc 73 59 00 3c
       -0.035985406 -0.019863097 -0.011527312 0.007833826
0000b0 b6 2e 8d 3b ae 05 13 bd aa b0 7d ba 3d 40 90 3c
       0.004308547 -0.03589409 -0.0009677509 0.017608756
0000c0 ca c7 6b bc 65 82 09 3a 23 16 13 bd ff 2c 13 3d
       -0.014390895 0.00052455656 -0.035909783 0.035931583
0000d0 4c 28 8e bc ed 06 13 3d 16 ee 34 b9 c5 bb 81 bc
       -0.0173532 0.035895277 -0.00017254832 -0.015836606
0000e0 d8 10 be bb 2e a7 b8 bb 74 de 35 bc 5e ad c5 bb
       -0.005800348 -0.0056351637 -0.0111004 -0.00603263
0000f0 2b 15 13 3d aa 37 13 3d ea 6c 12 bd 65 28 13 bd
       0.03590886 0.035941757 -0.0357484 -0.035927195
000100 c2 fd 68 b9 03 25 12 3b 20 5c 13 bd 14 27 13 3d
       -0.00022219776 0.0022299893 -0.03597653 0.03592594
000110 18 17 13 bd 40 40 71 3b 22 7b 6a 3b 3a 5f 13 3d
       -0.035910696 0.0036811978 0.003577896 0.035979487
000120 1f 24 13 3d f8 1f 13 3d 21 f7 b4 bb d8 88 8f 3c
       0.03592312 0.03591916 -0.005522624 0.017521307
000130 4e 4d 22 3a 4a 60 04 3b 5b 43 f4 3b 44 6a 0a 3a
       0.0006191329 0.0020198994 0.0074543185 0.0005280117
000140 54 cc 12 bd e6 3d 0e bd 9a 6f aa 3a 40 33 6d bc
       -0.035839394 -0.034727 0.001300323 -0.014477551
000150 e3 2e 06 3d 5a 48 24 3b c9 7f 14 3b 99 2e c2 bb
       0.03275956 0.002506754 0.0022659174 -0.005925965
000160 39 11 c2 3c 10 4b c2 3a ac 24 13 3d c2 61 13 3d
       0.023689853 0.0014823396 0.035923645 0.0359819
000170 24 5c 13 bd 27 f6 4b 3c 40 2b 13 bd cd 92 a7 3a
       -0.035976544 0.012448824 -0.03592992 0.0012784839
000180 7d 76 b6 3c 66 0c 8b bc eb b6 01 3c 5f 3d 57 3b
       0.022273296 -0.016973685 0.007917146 0.0032842977
000190 5a 65 97 bc cc 08 47 bc fe 7c 34 bd f1 5d 13 bd
       -0.018480945 -0.012148093 -0.044064514 -0.03597826
0001a0 90 0d 7c 3b de 90 07 3c 0e d5 76 bb 24 86 d7 3a
       0.0038460232 0.008274285 -0.0037663612 0.0016443175
0001b0 0b 46 92 bb d7 05 13 bd 9a 56 02 3c 16 34 82 bc
       -0.004463916 -0.03589424 0.007955218 -0.015893977
0001c0 d8 62 fe 3c 40 18 13 bd 16 5b 13 3d c8 78 75 3c
       0.031052992 -0.0359118 0.03597554 0.01498241
0001d0 5d 57 81 3a 32 2a 74 3b f3 24 13 3d 2a 72 de bc
       0.0009867955 0.0037256596 0.03592391 -0.027154047
0001e0 9b f2 13 3b f4 dd 29 bc b4 81 4f 3b bf b2 41 ba
       0.0022575024 -0.010367859 0.0031663002 -0.0007389001
0001f0 39 89 2d bb 00 86 12 bd 40 f1 12 3d f5 a3 a0 39
       -0.0026479496 -0.035772324 0.035874605 0.00030639736
000200 52 c9 77 3b 44 2d 12 bd e1 27 13 bd d2 5b 13 bd
       0.0037809205 -0.0356877 -0.035926703 -0.03597624
000210 ec b2 16 3b 43 17 13 3d 91 5f 72 3c 63 ed 17 3a
       0.002299483 0.035910856 0.014793293 0.0005795566
000220 79 f8 77 ba d5 db e2 bb b2 4a e6 bb f7 7b cf bc
       -0.00094593276 -0.0069231787 -0.0070279473 -0.025327666
000230 cf 75 21 bb 1d 08 13 bd 30 79 3d 3c f2 2c 9e bc
       -0.002463687 -0.03589641 0.011564538 -0.019308541
000240 c4 02 48 3b 18 ee 90 bc aa e9 12 3d 9c 61 13 3d
       0.0030519227 -0.017691657 0.03586737 0.03598176
000250 72 da cc 3a 8e f2 11 bc 99 07 13 bd d3 40 7f 3b
       0.0015629067 -0.008907927 -0.035895918 0.003894855
000260 c5 5c 57 bb 63 3d 87 3b 28 1a 8c 3b 5b 4c 73 bc
       -0.0032861691 0.004127191 0.004275579 -0.0148497475
000270 39 83 0f bd ac 72 98 bc a2 98 76 3b 85 0f 13 3d
       -0.035037253 -0.018609367 0.0037627597 0.035903472
000280 41 b6 72 bb 98 f3 12 3d 57 e3 22 3c 55 e9 12 3d
       -0.0037034901 0.03587684 0.009941897 0.035867054
000290 07 5b e7 3a 30 25 b5 3b 6f 14 ab bc 4f 10 1f bb
       0.001765103 0.0055281147 -0.020883767 -0.0024271195
0002a0 75 ad 12 3d f2 28 a0 3b 54 56 9d bc 37 40 13 3d
       0.035809953 0.0048876936 -0.019206204 0.035949912
0002b0 18 6f e9 3b a4 50 39 3c ba 75 15 bb d7 26 11 bd
       0.007123839 0.01131073 -0.0022805766 -0.03543743
0002c0 f7 1c b4 3b aa af 4c bc df 5f de 3a 66 f4 a9 3a
       0.005496617 -0.012493053 0.0016965828 0.0012966513
0002d0 c7 22 ef 3b 9b 15 13 bd e1 b9 ee 3b 8e 1b 1b 3c
       0.007297847 -0.035909276 0.007285342 0.009467019
0002e0 e2 dd fe 3b 98 09 f0 3a eb 2c 01 bc 0f 49 a8 bb
       0.0077779153 0.0018313406 -0.007884244 -0.0051356624
0002f0 2c e4 a7 ba be 83 06 bb fa 6e 88 3c c6 86 d6 ba
       -0.0012809089 -0.0020525302 0.01665448 -0.001636707
000300 00 83 12 bd f0 29 0b bd cc 5c 13 bd 90 8b f7 3c
       -0.035769463 -0.03397554 -0.03597717 0.030217916
000310 01 cc 3c 3b da 99 a9 ba 7a e8 2e 3b ca 9a 95 ba
       0.002880812 -0.0012939528 0.002668886 -0.0011413929
000320 59 7a ca bc ce 6a 5e 38 f1 f3 12 bd f4 15 88 bb
       -0.024716543 5.3028394e-05 -0.035877172 -0.0041530076
000330 f2 52 91 bb f9 e9 c8 3c 63 0f 5e 3b f7 87 fb 3b
       -0.0044349367 0.02452563 0.0033883683 0.0076761204
000340 bb 5d 86 bb 1e 9f 8e bb 0d e7 12 3d 57 c9 91 ba
       -0.004100529 -0.0043524643 0.03586488 -0.0011122626
000350 1b 60 04 3b 86 c5 6c bc f3 33 81 ba 91 89 10 3d
       0.0020198885 -0.01445139 -0.0009857401 0.035287444
000360 d7 2e 60 3a 09 24 13 3d f9 2a 13 3d 3c c2 96 ba
       0.00085519016 0.035923038 0.035929654 -0.0011501978
000370 f7 21 5f bb f9 40 b3 3c fb 91 a7 ba d5 8c 26 bc
       -0.0034047344 0.021881567 -0.0012784594 -0.010165413
000380 2d b0 32 3b f7 1f 13 3d 32 8b 67 3b 8e c1 b1 3a
       0.0027265653 0.035919156 0.003533077 0.0013561712
000390 d9 b8 24 bc d4 2c 13 bd 98 05 17 3b ca c4 0e bc
       -0.010053837 -0.035931423 0.0023044106 -0.00871391
0003a0 11 a9 03 3c ee 33 95 ba 30 fb 12 3d 8a 6a 13 3d
       0.008035914 -0.0011383274 0.035884082 0.035990275
0003b0 39 2c 13 3d 47 44 80 3b 29 b2 95 3a 2d bd 49 bb
       0.035930846 0.0039143893 0.0011420894 -0.0030782924
0003c0 f2 8e 9c ba 3f 2d 13 3d 72 73 8c bb a0 40 07 bb
       -0.0011944456 0.035931822 -0.004286223 -0.0020637885
0003d0 20 5c 13 3d f7 38 ff bb f3 2b 13 3d b2 35 38 bb
       0.03597653 -0.007788773 0.035930585 -0.0028108177
0003e0 34 37 13 bd a6 59 13 bd 05 e2 76 3a 03 18 6a bb
       -0.035941318 -0.035974167 0.0009417835 -0.0035719879
0003f0 ed 33 a1 b8 f1 8f 1d 3b 99 2c 13 bd 21 ba 9d bc
       -7.68675e-05 0.0024042095 -0.035931204 -0.019253792

bias f4 [300]
000000 b8 09 27 bd 5d 9e 73 bd 0c eb da bd 27 34 5f 3d
       -0.040780753 -0.0594772 -0.10689363 0.054493096
000010 21 54 26 bd 5f 74 86 3d cb 13 48 3d 64 de 9c bc
       -0.040607575 0.06565165 0.048847 -0.019149013
000020 ce 07 27 3d 17 09 27 bd 9c 06 27 bd b1 09 27 bd
       0.040778928 -0.040780153 -0.040777788 -0.040780727
000030 ce 28 91 3d 65 08 27 3d d7 4d 07 bd 13 27 03 be
       0.07087861 0.04077949 -0.03303322 -0.12807874
000040 11 09 27 3d a8 0a 27 bd 4e 09 27 bd d3 6b 17 3c
       0.04078013 -0.040781647 -0.040780358 0.009242016
000050 e7 09 27 3d b1 b9 c5 3c 44 09 27 bd fc 44 a5 3d
       0.040780928 0.024136396 -0.04078032 0.08069798
000060 46 60 9e 3d 7b c9 fe bb 68 0c 27 bd f3 0e ea bb
       0.077332065 -0.007775483 -0.040783316 -0.0071428954
000070 ba 44 0c bc 4d 09 27 3d ac 07 27 bd d0 07 27 bd
       -0.008561308 0.040780354 -0.0407788 -0.040778935
000080 25 62 9b 3d 25 09 27 3d 55 08 27 bd 3d 09 27 3d
       0.07587079 0.040780205 -0.04077943 0.040780295
000090 39 08 27 3d 66 d2 ea 3d 21 08 27 bd fd 6f 11 bc
       0.040779326 0.114659116 -0.040779237 -0.008876798
0000a0 cb 08 27 3d db 09 27 bd a2 f6 bd 3c 29 19 d0 bd
       0.04077987 -0.040780883 0.023188893 -0.10161049
0000b0 e4 de 8c bd eb 73 da bc 55 0a 27 3d 14 09 27 3d
       -0.068784505 -0.026666602 0.040781338 0.040780142
0000c0 e0 ac 9d 3d 90 a6 00 bc 4d 42 53 bb 89 08 27 bd
       0.07698989 -0.007852212 -0.0032235563 -0.040779624
0000d0 c4 cb 71 3c 7c 09 27 3d 20 08 27 bd e1 09 27 bd
       0.014758054 0.04078053 -0.040779233 -0.040780906
0000e0 be 08 27 bd 7f ed c5 3c 3f 9f 10 3d 70 09 27 3d
       -0.04077982 0.024161099 0.03530812 0.040780485
0000f0 7b 09 27 3d 3e 09 27 bd 91 08 27 3d ef ef d1 bc
       0.040780526 -0.0407803 0.040779654 -0.025627105
000100 1d 2e 7c bc b9 44 7b 3c e4 72 a1 3c be b3 b1 3d
       -0.015391854 0.015336209 0.019708104 0.08676861
000110 55 09 27 3d 11 09 27 bd 8c 80 5f bd 24 0b 27 bd
       0.040780384 -0.04078013 -0.05456595 -0.04078211
000120 14 73 fb 3a 41 8e d1 3d de 08 27 bd d8 64 92 bd
       0.0019184076 0.10232211 -0.04077994 -0.07148141
000130 ba 09 27 bd 0b 09 27 bd 5a ac 29 3d 38 1b a7 3c
       -0.04078076 -0.04078011 0.041424133 0.020398721
000140 bf 09 27 3d c0 02 7f bd 1a e9 8e bd 53 09 27 3d
       0.04078078 -0.062258482 -0.06978054 0.040780377
000150 67 08 27 3d cf 0a 27 bd e7 07 27 3d f9 07 27 3d
       0.040779497 -0.040781792 0.04077902 0.040779088
000160 1e b0 89 3d 68 09 27 bd fe 08 27 3d b4 09 27 bd
       0.06723045 -0.040780455 0.04078006 -0.040780738
000170 55 08 27 3d d0 09 27 bd d2 09 27 bd 73 08 27 3d
       0.04077943 -0.040780842 -0.04078085 0.040779542
000180 8a 12 8b bb 2a 0b 27 3d 59 08 27 3d 15 09 27 3d
       -0.0042441534 0.04078213 0.040779445 0.040780146
000190 b6 9b 3d 3d 8f f5 6f bd a2 e0 1f bc c3 09 27 bd
       0.046291076 -0.058583792 -0.0097581465 -0.040780794
0001a0 54 09 27 3d 4a 09 27 3d 74 09 27 3d 9a a2 b5 bd
       0.04078038 0.040780343 0.0407805 -0.088689044
0001b0 0d 0a 27 3d 4c d9 47 3d b1 08 27 bd 79 09 27 bd
       0.04078107 0.048791215 -0.040779773 -0.04078052
0001c0 c9 cf 26 bd c6 09 20 bd 98 09 27 bd 0e 0b 27 bd
       -0.040725503 -0.03907182 -0.040780634 -0.040782027
0001d0 82 c2 9f bd 0b 40 79 3d 79 09 27 bd 69 8c 16 3d
       -0.07800771 0.06085209 -0.04078052 0.036755
0001e0 57 ae 8a 3d 6b 08 27 bd d1 c7 ae 3d d6 8d 71 bd
       0.06771534 -0.040779512 0.08534206 -0.058973156
0001f0 5d 84 88 3d 8b 49 b1 bd 1e 09 27 bd cb 08 27 3d
       0.06665871 -0.08656605 -0.04078018 0.04077987
000200 8c 78 bb 3d 0d 09 27 3d 24 07 27 3d ac 1a 8a bd
       0.09153852 0.040780116 0.040778294 -0.067433685
000210 05 14 5e bd 64 65 8e bd 89 09 27 bd 52 c4 9a 3d
       -0.05421831 -0.069529325 -0.040780578 0.075569764
000220 85 00 d0 3c 1f 8a 8b bc 79 08 27 bd 42 09 27 bd
       0.025390873 -0.017033635 -0.040779565 -0.040780313
000230 5f 09 27 3d 99 08 27 bd 7a 09 27 3d 27 09 27 bd
       0.04078042 -0.040779684 0.040780522 -0.040780213
000240 60 08 27 bd ce 08 27 bd 85 09 27 bd c6 08 27 3d
       -0.04077947 -0.04077988 -0.040780563 0.04077985
000250 4d 09 27 3d 38 df a6 bd 37 08 27 3d 3d 09 27 3d
       0.040780354 -0.08148044 0.04077932 0.040780295
000260 13 1f 59 3d 00 59 a1 bc 0c de 70 3d 27 39 57 bd
       0.05300815 -0.019695759 0.05880551 -0.05254474
000270 db 06 91 bd b8 08 68 3d 27 09 27 3d f5 67 6f bd
       -0.07081386 0.05664894 0.040780213 -0.05844875
000280 5c 0a 27 bd d0 09 27 bd e1 97 f8 3a 88 09 27 bd
       -0.040781364 -0.040780842 0.0018966162 -0.040780574
000290 73 2b 88 bc 64 08 27 3d d6 68 3c bd 8b 08 27 3d
       -0.01662228 0.040779486 -0.045998417 0.04077963
0002a0 46 a0 3f bc 5c 3c 5d 3d 5f 09 27 bd c0 dc b3 bc
       -0.011695927 0.05401264 -0.04078042 -0.021955848
0002b0 4e 08 27 3d 7f 08 27 bd 93 09 27 3d 48 0a 27 bd
       0.040779404 -0.040779587 0.040780615 -0.04078129
0002c0 5b f1 82 bd a3 08 27 3d 3e cc d0 3d 9a 08 27 3d
       -0.06393691 0.04077972 0.10195206 0.040779687
0002d0 c8 5e 6d 3d 9a 09 27 bd 62 09 27 3d fd 08 27 3d
       0.05795172 -0.04078064 0.040780433 0.040780056
0002e0 48 07 27 3d d3 82 b2 3d 77 09 27 3d 40 be a7 bd
       0.04077843 0.08716359 0.04078051 -0.08190584
0002f0 f1 06 4f 3c 50 08 27 bd c8 08 27 bd 37 09 27 3d
       0.012635932 -0.04077941 -0.04077986 0.040780272
000300 f1 08 27 3d 6b 09 27 bd cf 04 8f 3d a3 09 27 3d
       0.04078001 -0.040780466 0.06983339 0.040780675
000310 0a 09 27 3d 1e 76 8e 3d be 08 27 bd 4e 0a 27 bd
       0.040780105 0.06956123 -0.04077982 -0.04078131
000320 c9 7c 86 3d bd 08 27 3d 7a 09 27 3d b3 07 27 3d
       0.0656677 0.040779818 0.040780522 0.040778827
000330 06 0a 27 3d 2f 0a 99 3d c7 07 27 3d b0 d1 01 bd
       0.040781043 0.074726455 0.0407789 -0.031694114
000340 cc 25 f7 bb 85 08 27 3d b0 09 27 bd 6a 08 27 bd
       -0.0075423475 0.04077961 -0.040780723 -0.04077951
000350 89 08 27 bd 99 08 27 3d 3b 08 27 3d 65 09 27 3d
       -0.040779624 0.040779684 0.040779334 0.040780444
000360 89 08 27 bd 9e 09 27 3d cb 08 27 3d ad 08 27 bd
       -0.040779624 0.040780656 0.04077987 -0.04077976
000370 27 de a8 bd dd c6 5e 3c e2 32 b8 3d b0 08 27 bd
       -0.08245497 0.013597217 0.0899408 -0.04077977
000380 a2 8b 5a bd 26 08 27 bd b6 09 27 bd e3 08 27 bd
       -0.05335582 -0.040779255 -0.040780745 -0.04077996
000390 fa 5c 64 bd ec 8c 21 bb 4f 0a 27 3d 11 c2 01 3d
       -0.05575273 -0.0024650646 0.040781315 0.031679217
0003a0 93 09 27 3d d6 79 0e bd 59 33 0d be 14 0a 27 bd
       0.040780615 -0.03478416 -0.13789119 -0.040781096
0003b0 62 09 27 3d e3 08 27 bd e9 d4 75 3d 11 ab 67 bd
       0.040780433 -0.04077996 0.0600175 -0.056559626
0003c0 97 07 27 3d 6a 08 27 bd 92 e1 7b 3d 1d 0a 27 bd
       0.040778723 -0.04077951 0.061494417 -0.04078113
0003d0 e6 08 27 3d 3c 43 55 3d 41 fa c5 bd 2d 09 27 bd
       0.04077997 0.052066073 -0.09666873 -0.040780235
0003e0 cf 08 27 bd 9a 0d cc bd 6b 23 c7 3d 2b 08 27 bd
       -0.040779885 -0.09963532 0.09723552 -0.040779274
0003f0 01 0a 27 bd 49 08 27 3d 0e 09 27 bd 64 14 8c 3d
       -0.040781025 0.040779386 -0.04078012 0.06839827

weight f4 [1, 300]
000000 2d 84 fb bf 2b 40 2f 40 9d e9 65 40 08 9a 43 c0
       -1.9649712 2.7382915 3.5923836 -3.0562763
000010 70 37 04 40 2a 6d 37 c0 1d 38 39 c0 c5 74 02 40
       2.0658836 -2.8660378 -2.89405 2.038377
000020 2f 84 fb 3f 2e 84 fb bf 32 84 fb bf 2f 84 fb bf
       1.9649714 -1.9649713 -1.9649718 -1.9649714
000030 7b 62 38 c0 28 84 fb 3f cc 19 02 40 d9 16 6c 40
       -2.8810108 1.9649706 2.0328245 3.6888945
000040 3b 84 fb 3f 3e 84 fb bf 2f 84 fb bf 09 6d 07 c0
       1.9649729 -1.9649732 -1.9649714 -2.11603
000050 21 84 fb 3f 72 47 00 c0 3c 84 fb bf 84 0b 39 c0
       1.9649698 -2.0043607 -1.964973 -2.8913279
000060 88 f2 3a c0 b3 b4 52 40 16 9c fb bf af 6b 2e c0
       -2.921053 3.292279 -1.9657009 -2.7253225
000070 b6 c8 52 40 2e 84 fb 3f 30 84 fb bf 2a 84 fb bf
       3.2935004 1.9649713 -1.9649715 -1.9649708
000080 68 03 32 c0 27 84 fb 3f 32 84 fb bf 26 84 fb 3f
       -2.781458 1.9649705 -1.9649718 1.9649704
000090 23 84 fb 3f 4e 07 5d c0 34 84 fb bf cb e1 30 c0
       1.96497 -3.4535708 -1.964972 -2.7637813
0000a0 36 84 fb 3f 33 84 fb bf 7c fa 4d 40 ec 6a 65 40
       1.9649723 -1.9649719 3.2184134 3.584651
0000b0 0c c7 54 40 d1 2b 47 40 2e 84 fb 3f 30 84 fb 3f
       3.3246489 3.1120493 1.9649713 1.9649715
0000c0 57 0c 3a c0 32 81 27 c0 be 0d 43 40 37 84 fb bf
       -2.9070032 -2.6172605 3.0477138 -1.9649724
0000d0 d3 85 51 c0 36 84 fb 3f 32 84 fb bf 30 84 fb bf
       -3.273793 1.9649723 -1.9649718 -1.9649715
0000e0 2b 84 fb bf 20 51 00 c0 1f b8 5a c0 24 84 fb 3f
       -1.964971 -2.0049515 -3.4174879 1.9649701
0000f0 2e 84 fb 3f 2e 84 fb bf 3d 84 fb 3f ff 4d 51 40
       1.9649713 -1.9649713 1.9649731 3.2703855
000100 4c 5c 07 40 72 bb 48 c0 b7 23 2f 40 46 79 3b c0
       2.1150084 -3.1364408 2.7365549 -2.929277
000110 3c 84 fb 3f 2d 84 fb bf 37 77 4a 40 34 84 fb bf
       1.964973 -1.9649712 3.1635263 -1.964972
000120 9d bb 2e 40 36 94 4d c0 38 84 fb bf a5 94 38 40
       2.730201 -3.212171 -1.9649725 2.8840725
000130 28 84 fb bf 35 84 fb bf bd 22 27 c0 f1 eb 35 c0
       -1.9649706 -1.9649721 -2.6114953 -2.8425257
000140 36 84 fb 3f ab c0 31 40 4c c8 30 40 2b 84 fb 3f
       1.9649723 2.7773845 2.7622252 1.964971
000150 3b 84 fb 3f 2e 84 fb bf 31 84 fb 3f 33 84 fb 3f
       1.9649729 -1.9649713 1.9649717 1.9649719
000160 a4 01 3b c0 36 84 fb bf 3a 84 fb 3f 31 84 fb bf
       -2.9219751 -1.9649723 1.9649727 -1.9649717
000170 3f 84 fb 3f 27 84 fb bf 30 84 fb bf 36 84 fb 3f
       1.9649733 -1.9649705 -1.9649715 1.9649723
000180 e4 99 25 c0 32 84 fb 3f 28 84 fb 3f 3a 84 fb 3f
       -2.5875177 1.9649718 1.9649706 1.9649727
000190 68 85 5b c0 fe 62 02 40 1a 81 00 40 34 84 fb bf
       -3.4300175 2.037292 2.0078797 -1.964972
0001a0 24 84 fb 3f 34 84 fb 3f 29 84 fb 3f 28 f1 3a 40
       1.9649701 1.964972 1.9649707 2.920969
0001b0 2d 84 fb 3f b5 a0 3a c0 3b 84 fb bf 32 84 fb bf
       1.9649712 -2.9160588 -1.9649729 -1.9649718
0001c0 40 9e 6f 40 c8 02 4a 40 2c 84 fb bf 2a 84 fb bf
       3.7440338 3.1564198 -1.9649711 -1.9649708
0001d0 6b 14 34 40 51 17 3f c0 38 84 fb bf e9 98 3b c0
       2.8137462 -2.9857981 -1.9649725 -2.931208
0001e0 6e e3 3b c0 2c 84 fb bf 01 68 4f c0 47 7f 3a 40
       -2.9357562 -1.9649711 -3.240723 2.9140184
0001f0 b2 f5 30 c0 da 61 39 40 32 84 fb bf 32 84 fb 3f
       -2.764996 2.8965974 -1.9649718 1.9649718
000200 56 a6 51 c0 3c 84 fb 3f 38 84 fb 3f a1 44 31 40
       -3.2757773 1.964973 1.9649725 2.7698138
000210 74 7d 3d 40 d0 6c 30 40 3a 84 fb bf e2 f2 3d c0
       2.960782 2.7566414 -1.9649727 -2.9679494
000220 6c ef 0e c0 ac 5a fd 3f 37 84 fb bf 33 84 fb bf
       -2.2333632 1.9793296 -1.9649724 -1.9649719
000230 30 84 fb 3f 36 84 fb bf 2f 84 fb 3f 2e 84 fb bf
       1.9649715 -1.9649723 1.9649714 -1.9649713
000240 36 84 fb bf 34 84 fb bf 2c 84 fb bf 3d 84 fb 3f
       -1.9649723 -1.964972 -1.9649711 1.9649731
000250 36 84 fb 3f 92 98 42 40 38 84 fb 3f 2d 84 fb 3f
       1.9649723 3.0405622 1.9649725 1.9649712
000260 b1 e6 3f c0 b7 ab 61 40 33 a7 65 c0 bf 63 40 40
       -2.9984553 3.5261056 -3.58833 3.006088
000270 ce 17 3d 40 70 13 09 c0 29 84 fb 3f d6 9f 30 40
       2.954578 -2.1418114 1.9649707 2.7597556
000280 2f 84 fb bf 35 84 fb bf 7f 0e 29 c0 23 84 fb bf
       -1.9649714 -1.9649721 -2.6415098 -1.96497
000290 90 4f 3e 40 33 84 fb 3f f8 c6 02 40 2d 84 fb 3f
       2.973606 1.9649719 2.043394 1.9649712
0002a0 f3 dc 2f c0 30 04 40 c0 25 84 fb bf f4 91 34 c0
       -2.7478607 -3.0002556 -1.9649702 -2.8214083
0002b0 39 84 fb 3f 3f 84 fb bf 31 84 fb 3f 31 84 fb bf
       1.9649726 -1.9649733 1.9649717 -1.9649717
0002c0 eb 5f 46 40 22 84 fb 3f f6 b6 79 c0 34 84 fb 3f
       3.0996044 1.9649699 -3.901792 1.964972
0002d0 b8 3c 12 c0 35 84 fb bf 2e 84 fb 3f 32 84 fb 3f
       -2.284956 -1.9649721 1.9649713 1.9649718
0002e0 25 84 fb 3f d6 68 39 c0 33 84 fb 3f 29 65 5a 40
       1.9649702 -2.8970237 1.9649719 3.4124243
0002f0 e8 46 05 c0 38 84 fb bf 2d 84 fb bf 34 84 fb 3f
       -2.0824528 -1.9649725 -1.9649712 1.964972
000300 1f 84 fb 3f 2b 84 fb bf 15 be 35 c0 37 84 fb 3f
       1.9649695 -1.964971 -2.8397267 1.9649724
000310 31 84 fb 3f fe 84 30 c0 25 84 fb bf 29 84 fb bf
       1.9649717 -2.7581172 -1.9649702 -1.9649707
000320 3b 44 4f c0 37 84 fb 3f 32 84 fb 3f 36 84 fb 3f
       -3.2385395 1.9649724 1.9649718 1.9649723
000330 2f 84 fb 3f 52 cf 4b c0 35 84 fb 3f 60 98 41 c0
       1.9649714 -3.1845288 1.9649721 -3.0249252
000340 d6 08 2b c0 35 84 fb 3f 2f 84 fb bf 2f 84 fb bf
       -2.6724143 1.9649721 -1.9649714 -1.9649714
000350 2d 84 fb bf 2b 84 fb 3f 2f 84 fb 3f 2a 84 fb 3f
       -1.9649712 1.964971 1.9649714 1.9649708
000360 3a 84 fb bf 36 84 fb 3f 2d 84 fb 3f 31 84 fb bf
       -1.9649727 1.9649723 1.9649712 -1.9649717
000370 72 6a 3d 40 1f df 01 c0 35 c7 3c c0 30 84 fb bf
       2.959622 -2.0292432 -2.9496586 -1.9649715
000380 8c ac 30 40 32 84 fb bf 30 84 fb bf 2a 84 fb bf
       2.7605314 -1.9649718 -1.9649715 -1.9649708
000390 56 09 48 40 92 51 2f c0 34 84 fb 3f 51 97 41 40
       3.1255698 -2.7393537 1.964972 3.0248606
0003a0 2a 84 fb 3f bd fa 4c 40 c8 bb 5f 40 2c 84 fb bf
       1.9649708 3.2028039 3.4958363 -1.9649711
0003b0 34 84 fb 3f 27 84 fb bf 45 f6 30 c0 d1 c6 37 40
       1.964972 -1.9649705 -2.765031 2.8715098
0003c0 34 84 fb 3f 30 84 fb bf 69 34 3f 40 38 84 fb bf
       1.964972 -1.9649715 2.9875739 -1.9649725
0003d0 27 84 fb 3f 8d a5 5f c0 aa e5 47 40 24 84 fb bf
       1.9649705 -3.4944794 3.1233926 -1.9649701
0003e0 32 84 fb bf 7d cd 4f 40 b5 89 5c c0 1f 84 fb bf
       -1.9649718 3.246917 -3.445905 -1.9649695
0003f0 30 84 fb bf 31 84 fb 3f 37 84 fb bf ab ab 31 c0
       -1.9649715 1.9649717 -1.9649724 -2.7761028
