Total_RCS/epoch_200_batch_255_lr_0_0019819414761434403_wd_0_1808248925678225/torch_model_4_Softsign.pth (torch, 79675 bytes, 13 tensors)

weight f4 [60, 3]
0	0xbdf7d03e	-0.12100266
1	0x3ec3d450	0.3824792
2	0x3f405052	0.7512256
3	0x40043a68	2.0660648
4	0x3d329b9e	0.04360544
5	0x3b888516	0.0041662557
6	0xbb5da732	-0.003382158
7	0xbb1590a4	-0.0022821808
8	0xbbc9e893	-0.006161758
9	0x3a945d28	0.0011319267
10	0x3b8e4db4	0.004342759
11	0x3bd251a9	0.006418426
12	0x3f635e12	0.88815415
13	0x3e3009ec	0.17191285
14	0xbf1d3dcf	-0.6142244
15	0xbdddff8f	-0.108397596
16	0xbf969711	-1.1764852
17	0xbf7216d1	-0.94566065
18	0xbe122113	-0.1427043
19	0x3f6bc997	0.92104477
20	0xbc929b3f	-0.017896293
21	0xbd4fdd0f	-0.050747927
22	0xbdffe859	-0.12495489
23	0x3f99e7a0	1.2023811
24	0xbe9b5dcb	-0.30344996
25	0xbd1d24c1	-0.03836513
26	0xbec291b8	-0.380018
27	0x3f8349c7	1.025689
28	0x3e8f02f0	0.2793193
29	0xbcab5f37	-0.020919425
30	0x3b72acdf	0.0037029309
31	0x3b02ad2b	0.0019939642
32	0x3ba81fb4	0.0051307324
33	0x3abe6b7e	0.0014527885
34	0x3b3b2fc6	0.002856241
35	0x3bead83f	0.007166892
36	0x3d444b28	0.047923237
37	0xbf43ba11	-0.7645579
38	0x3d8a7f95	0.067626156
39	0x3e421158	0.18951929
40	0xbfa8ef58	-1.3198042
41	0xbed7aa8b	-0.421223
42	0x3b4d5a66	0.00313344
43	0x3b916930	0.004437588
44	0x3b9a9e88	0.0047186054
45	0xbb29bf7d	-0.002590149
46	0xbb8d194b	-0.0043059937
47	0xbb8b1f90	-0.004245706
48	0x3b8764bf	0.004131883
49	0x3b858402	0.0040745744
50	0x3b9929ae	0.004674158
51	0x3e8a6bdb	0.27035412
52	0xbee7452a	-0.45169955
53	0xbed51435	-0.4161698
54	0x3e5d6fce	0.21624681
55	0xbf08a499	-0.53376156
56	0xbf397873	-0.72449416
57	0xbb2faa57	-0.0026804411
58	0xbb8cc463	-0.004295872
59	0xbb9c477a	-0.004769263
60	0xbf43ed68	-0.7653413
61	0xbeff0bdc	-0.49813735
62	0xbd11c079	-0.035583947
63	0xbf20ec14	-0.62860227
64	0xbf81711e	-1.0112646
65	0x3d8aae14	0.06771484
66	0xbe4e0411	-0.20118739
67	0xbf9b2d05	-1.2123114
68	0xbed476f7	-0.41497013
69	0xbe2fe9a0	-0.17178965
70	0xbfb0d263	-1.3814205
71	0xbf5ed550	-0.8704424
72	0x3aab6b60	0.0013078265
73	0xbbe5d67b	-0.0070140935
74	0xbb73f516	-0.003722494
75	0xbaadeac3	-0.0013268817
76	0xbb5ae23e	-0.003339901
77	0xbbc60ff4	-0.006044382
78	0xbc9f275e	-0.019427951
79	0xbde71f9e	-0.112853274
80	0x3fd31e3d	1.6493603
81	0x3fb38fc0	1.4028244
82	0xbf373ba2	-0.7157537
83	0xbf19bbdf	-0.60052294
84	0xbf1f55ac	-0.622401
85	0x3f31d2e4	0.6946242
86	0xbe107d52	-0.14110306
87	0x3f3a77ef	0.72839254
88	0xbe30f48b	-0.17280786
89	0xbea07657	-0.31340286
90	0xbb3f77ea	-0.0029215761
91	0xbafbd4e4	-0.0019213227
92	0xbba418e7	-0.0050078514
93	0x3edf3ec9	0.4360259
94	0xbf8d8fbe	-1.1059492
95	0x3d2d8f46	0.042372964
96	0x3f469970	0.7757788
97	0xbe830c42	-0.2559529
98	0x3cdab269	0.0266964
99	0x3a0222d4	0.0004964296
100	0x3b378678	0.0028003734
101	0x3b3691dd	0.0027857937
102	0x3b5335a1	0.003222801
103	0x3b3cda7e	0.0028816755
104	0x3bb808d7	0.005616288
105	0xbb24034a	-0.0025026374
106	0x3bcd60e2	0.006267653
107	0x3b19f15e	0.0023489813
108	0xbb69617a	-0.003561108
109	0xbad198ad	-0.0015990935
110	0xbbb96111	-0.005657323
111	0x3b657aea	0.003501589
112	0x3af186b7	0.0018426989
113	0x3ba4ad87	0.005025569
114	0xbf88a8ea	-1.0676548
115	0xbf135be6	-0.575621
116	0x3c8f3e2d	0.017485702
117	0xbb49fc66	-0.0030820607
118	0xbb037aaa	-0.0020062127
119	0xbbc2bcf7	-0.0059429365
120	0x3822422f	3.8685448e-05
121	0x3c0728e4	0.008249495
122	0x3b116369	0.0022184497
123	0xbf6ceeb5	-0.9255174
124	0x3f79cb6b	0.97576016
125	0xbd6e2ac1	-0.058146242
126	0xba64c217	-0.00087264314
127	0x3c036dfe	0.00802183
128	0xb96ca1ac	-0.00022566941
129	0x3f1902f3	0.59770125
130	0x3f66f02a	0.9021021
131	0xbde24900	-0.1104908
132	0x3ec8c8b3	0.3921562
133	0x3d9a3aca	0.075307444
134	0x3ec433fd	0.38320914
135	0xbb414919	-0.0029493032
136	0xbb87262b	-0.004124423
137	0xbb92b4a1	-0.004477099
138	0x3b7eae0b	0.0038861062
139	0x3b6cae78	0.0036114734
140	0x3b99972f	0.004687212
141	0x3e488db3	0.19585304
142	0x3f58a729	0.84630066
143	0x3fa605db	1.2970537
144	0x3b812bba	0.00394198
145	0x3b3f979e	0.0029234658
146	0x3bc4dafa	0.0060075494
147	0xb9413732	-0.00018426476
148	0x3b939917	0.0045043337
149	0x3bf11342	0.007357032
150	0xbb578291	-0.003288422
151	0xb904f85d	-0.00012681024
152	0xbb8d4c6c	-0.0043120887
153	0x3b65ed3a	0.0035084025
154	0x3ae8cdd4	0.0017761537
155	0x3bc514a3	0.006014423
156	0x3b2c0dd4	0.002625336
157	0xbb84def4	-0.0040548984
158	0x3a0d76bf	0.00053964177
159	0x3f65ab5c	0.897146
160	0x3ecb1578	0.39664817
161	0xbdd61805	-0.104538
162	0xbacfd7d2	-0.0015857166
163	0x3b4e84d2	0.0031512273
164	0x3bb36374	0.005474502
165	0x3b485688	0.0030569155
166	0x3a84fbab	0.0010145804
167	0x3be5fc6b	0.007018616
168	0xbb7885d7	-0.0037921572
169	0xbb8d11e2	-0.0043051103
170	0xbb9af95d	-0.0047294335
171	0xc00209cf	-2.0318487
172	0xbda3c54f	-0.07996618
173	0x3b830ea8	0.00399955
174	0xbc5e05cd	-0.013551188
175	0xbeb8394d	-0.35981217
176	0xbd0d71cf	-0.034532364
177	0xbc65c86c	-0.014024835
178	0x3fe184ed	1.7618691
179	0xbd72889b	-0.05921231

bias f4 [60]
0	0x3ef7df34	0.48412478
1	0xbf0c08a9	-0.54700714
2	0xba2a9742	-0.00065075245
3	0x3a66fbf2	0.00088113465
4	0x3ee9c8d5	0.45661035
5	0xbf4c571e	-0.7982043
6	0xbf99751f	-1.1988868
7	0x3f44f0ca	0.76929915
8	0xbf17bc1d	-0.59271413
9	0x3f5dbcd8	0.8661628
10	0xb985b347	-0.0002550131
11	0x39af19cd	0.00033397824
12	0xbf891c2e	-1.0711725
13	0xbeb704b2	-0.3574577
14	0x3a7c69c2	0.0009628796
15	0xbab6f75c	-0.0013959217
16	0xb8597d1c	-5.185335e-05
17	0xbe1bd2d0	-0.15217137
18	0xbee19c65	-0.44064632
19	0xba9f473d	-0.0012151968
20	0xbf7f8084	-0.99805474
21	0xbf15b48b	-0.5847861
22	0xbed3727f	-0.4129829
23	0xbf763b6e	-0.9618443
24	0xba4a76d3	-0.00077233947
25	0xbac7f5b5	-0.0015255722
26	0x3fa3e34a	1.2803738
27	0x3f76fb1f	0.9647693
28	0x3eaea680	0.34111404
29	0x3da551e4	0.0807226
30	0x3a7eb453	0.00097162015
31	0xbf149845	-0.58044845
32	0xbf1cf511	-0.6131144
33	0xba3a1d10	-0.00070996676
34	0x3a66741c	0.00087911054
35	0x3a18361f	0.00058064045
36	0x38f2276e	0.000115468036
37	0xb9f27c60	-0.00046250504
38	0xbf71b152	-0.94411194
39	0xbacf2b5b	-0.0015805768
40	0xba0b473c	-0.0005313044
41	0xbf756872	-0.95862496
42	0xb9a4eaee	-0.00031455554
43	0x3e360ffa	0.17779532
44	0x3f2f57ab	0.68493146
45	0xba78b291	-0.00094870577
46	0xb9d47532	-0.00040523108
47	0x3f7dd085	0.991463
48	0x38592cac	5.1778436e-05
49	0x3ac1898b	0.0014765722
50	0xb93a0463	-0.00017739976
51	0x388f67f4	6.838134e-05
52	0xba604275	-0.0008554825
53	0x3f922c35	1.1419741
54	0xba0b1b92	-0.00053065375
55	0x3977f56f	0.00023647187
56	0xb66ef37b	-3.5606488e-06
57	0xbf3f1f68	-0.746573
58	0xbdcb9a48	-0.09941536
59	0xbe9a4a2d	-0.30134717

weight f4 [60, 60]
0	0x3ce53138	0.02797757
1	0x3e0a68c7	0.13516532
2	0xbc7a0a7d	-0.01526129
3	0x3cac514f	0.021034865
4	0xbdbdf5e8	-0.092754185
5	0xbc43137b	-0.0119065
6	0x3d12f369	0.035876665
7	0xbdc4e1bc	-0.09613368
8	0xbccc2a54	-0.024922527
9	0xbd5cba9b	-0.0538889
10	0x3c5c59b2	0.013449119
11	0x3c6b82ba	0.014374429
12	0x3d55d079	0.05220077
13	0x3db9eefd	0.090787865
14	0x3b6b12ca	0.0035869353
15	0xbb986403	-0.004650594
16	0x3ab7ff69	0.001403791
17	0xbe0482ff	-0.12940596
18	0xbda602a3	-0.08105972
19	0xbbc05728	-0.005869765
20	0x3d486081	0.04892016
21	0xbcb8796e	-0.02251884
22	0x3cb28e63	0.02179641
23	0x3d1c80a4	0.03820862
24	0xbc63c600	-0.013902187
25	0xbc9ebdab	-0.01937755
26	0xbdcb1a23	-0.099170946
27	0xbd1c2b20	-0.038127065
28	0xbd7465c1	-0.059667353
29	0xbd340933	-0.043954086
30	0xbcb5b85e	-0.02218264
31	0x3da4448a	0.08020885
32	0xbbd57afa	-0.006514904
33	0x3c96251c	0.018328242
34	0x3c03f64e	0.008054329
35	0x3c5d76bc	0.013517078
36	0xbc82e7c9	-0.015979664
37	0x3c7359f4	0.014852989
38	0x3db58c81	0.088646896
39	0xbc4dcd8c	-0.012561213
40	0x3b6c7ba5	0.003608444
41	0xbd63e11c	-0.055634603
42	0x3a8acc90	0.0010589529
43	0x3e0faaf5	0.14030059
44	0x3ca1e0e5	0.019760558
45	0xbbb74687	-0.0055931243
46	0x3bcfdd1c	0.006343497
47	0xbc43e9a9	-0.011957564
48	0x3c0704d4	0.008240897
49	0x3ccc406d	0.024933064
50	0xbcc447b0	-0.023959965
51	0x3c837e7b	0.016051522
52	0xbc1179c4	-0.008879129
53	0xbd88e977	-0.06685155
54	0x3cc61f63	0.024184888
55	0x3cafe83b	0.02147304
56	0xbb9299bf	-0.0044738944
57	0xbd43adc6	-0.047773145
58	0xbc95709a	-0.01824217
59	0x3e400b5f	0.18754338
60	0x3daa7d05	0.08324627
61	0xbdb36714	-0.08759895
62	0xbc156281	-0.009117723
63	0x3c3d68d4	0.0115606375
64	0xbd245800	-0.040122986
65	0xbcb053fb	-0.02152442
66	0xbe466e97	-0.19378124
67	0xbc7ce631	-0.015435741
68	0xbdec7191	-0.115450986
69	0x3c596a67	0.013269997
70	0x3c16bd96	0.009200474
71	0x3c09b116	0.008404037
72	0xbe3cc7bc	-0.18435568
73	0x3d5891a1	0.052873258
74	0x3b1f0382	0.0024263565
75	0xbb362602	-0.002779365
76	0x3a70e4d5	0.0009189372
77	0xbe033a4f	-0.12815212
78	0xbe08c909	-0.13357939
79	0xbb74f12b	-0.0037375193
80	0xbd2d1363	-0.042254817
81	0xbc120f28	-0.008914746
82	0x3d59e1cf	0.053193863
83	0xb9e71d29	-0.0004408148
84	0xbbbef94c	-0.0058280583
85	0xbc29808e	-0.010345591
86	0x3c546a48	0.012964793
87	0x3db8e924	0.09028843
88	0x3db5291b	0.08845731
89	0xbdd350e5	-0.10318164
90	0xbc5dfedf	-0.013549536
91	0xbd3adc44	-0.045620218
92	0xbe3b6adf	-0.18302487
93	0x3c2f9042	0.010715546
94	0x3bc37696	0.0059650643
95	0x3b931cb0	0.004489504
96	0xbc2d126e	-0.010563476
97	0x3c2a2a52	0.0103860665
98	0x3ccdb4ac	0.025110565
99	0xbbe4e9ab	-0.006985863
100	0x3adda6a7	0.0016910628
101	0xbe536aff	-0.20646285
102	0x3b959004	0.004564287
103	0x3d30ce8b	0.043165725
104	0x3df23612	0.11826719
105	0xbb56b061	-0.0032758939
106	0x3ba495a8	0.005022723
107	0x3bfc8071	0.007705741
108	0x3b9b04d4	0.0047308
109	0x3c447647	0.01199109
110	0xbc5cb86b	-0.013471703
111	0x3c27b795	0.01023664
112	0xbb74b67d	-0.0037340217
113	0x3cfd5af4	0.030927159
114	0x3c2ccf7e	0.010547517
115	0x3c4a665c	0.012353506
116	0xbb60c82c	-0.0034299
117	0x3d618c74	0.055065587
118	0xbcd1e6c8	-0.02562274
119	0x3dc2088c	0.094742864
120	0x3d9f648b	0.07782849
121	0xbe158656	-0.14602026
122	0xbc9c7a40	-0.019101262
123	0x3c4dd033	0.012561846
124	0x3ccaa336	0.024736028
125	0x3d938a1a	0.07204075
126	0xbd94f4db	-0.07273265
127	0x3a599005	0.00082993536
128	0xbd6c410d	-0.057679225
129	0x3db098a1	0.08622862
130	0x3c851bf6	0.016248684
131	0x3c921b5a	0.017835308
132	0xbf8a50a4	-1.080586
133	0xbd9a22df	-0.075261824
134	0x3cba45f4	0.022738434
135	0xbcad84ed	-0.021181548
136	0x3ca56267	0.020188523
137	0xbe93d4e2	-0.28873354
138	0xbd344735	-0.04401322
139	0xbcb563f2	-0.022142384
140	0xbe67c161	-0.22632362
141	0xbd5cab43	-0.053874265
142	0xbe6764c1	-0.22597028
143	0xbd16bac7	-0.03679922
144	0xbc6b42e4	-0.01435921
145	0xbc9532ad	-0.01821264
146	0x3d63749b	0.055531126
147	0x3d8fb210	0.070163846
148	0x3eb6c3e1	0.3569632
149	0xbe1982fc	-0.14991373
150	0xbb561428	-0.0032665823
151	0xbeaf4c6f	-0.34238002
152	0xbeb5fe6e	-0.35545677
153	0x3c655fcf	0.013999893
154	0x3ccbdbe3	0.024885124
155	0x37834026	1.5646288e-05
156	0xbc8488de	-0.016178545
157	0x3c6461d9	0.013939344
158	0xbe5b1f5b	-0.2139868
159	0xbcb450e0	-0.02201122
160	0x3c5a8fb4	0.013339926
161	0xbcd9cd7a	-0.026587237
162	0x3cb40773	0.021976208
163	0x3bd32cc6	0.0064445464
164	0x3da0c337	0.07849734
165	0xbcab6644	-0.020922787
166	0x3ca014ab	0.019541105
167	0xbdbe13cf	-0.09281122
168	0x3ca6ee8b	0.020377418
169	0x3c596edf	0.013271063
170	0xbc0997fe	-0.008398054
171	0x3c8ebc04	0.017423637
172	0x3b97138b	0.004610484
173	0x3e7c2b1c	0.2462582
174	0xbc113aba	-0.008864099
175	0x3c83e94a	0.016102452
176	0xbcabc7bc	-0.020969264
177	0xbd51d7b9	-0.05123112
178	0xbe20a509	-0.15687956
179	0xbc5f87de	-0.013643233
180	0x3d894947	0.0670343
181	0xbd3972b2	-0.045275398
182	0x3c05a8c1	0.00815791
183	0xbc09d908	-0.008413561
184	0xbdb8d590	-0.09025109
185	0x3fdde83f	1.7336501
186	0xbe871ab7	-0.2638757
187	0xbfc1d609	-1.5143443
188	0xbdfdd65a	-0.123944
189	0xbe0ef16d	-0.13959284
190	0xbbb3f76a	-0.0054921405
191	0xbb8eb978	-0.0043556057
192	0x3da30fab	0.07961973
193	0x3f3a2b38	0.72722197
194	0xbb80027f	-0.0039065476
195	0x3b4c7380	0.0031196773
196	0xbb8468db	-0.00404082
197	0x3e17711a	0.14789239
198	0x3ddc239e	0.10748981
199	0x3b82c1e3	0.0039903983
200	0x3dd6da14	0.10490814
201	0x3e8e6b4c	0.27816236
202	0x3f2b340f	0.6687631
203	0x40038cee	2.0554767
204	0x3b2af791	0.0026087502
205	0x3bb67ac2	0.005568833
206	0xc020ab25	-2.5104458
207	0x3e9ca976	0.30598038
208	0xbe93a5d5	-0.28837457
209	0x3e08ac62	0.13347009
210	0x3bfc37f1	0.0076970984
211	0x3f38c816	0.72180307
212	0x3e3c16f1	0.18368126
213	0xb949b2ce	-0.00019235464
214	0xbb8a165b	-0.0042140908
215	0xbc256e51	-0.010097102
216	0x3bd2acd2	0.006429293
217	0xbba015f8	-0.0048854314
218	0x3e61de2e	0.22057411
219	0x3b204459	0.00244548
220	0xbb5d17e1	-0.0033736157
221	0xbe89890b	-0.26862368
222	0xbb143af8	-0.0022618156
223	0xbe04abe7	-0.129562
224	0x3ded7001	0.11593629
225	0x3b079c76	0.0020692623
226	0xbb6337b4	-0.0034670653
227	0xbeaa6e88	-0.33287454
228	0xbc097f07	-0.008392102
229	0xbc25c542	-0.010117831
230	0x3c3edf4d	0.011649919
231	0xbbe490cb	-0.0069752685
232	0x3c11626e	0.008873565
233	0xbe39e473	-0.18153553
234	0xbcaed517	-0.021341844
235	0xbbee14ae	-0.007265649
236	0x3badda3d	0.005305557
237	0xbe4fcb4a	-0.20292392
238	0x3d38d6fc	0.0451269
239	0x3e45a55a	0.19301358
240	0xbe14f974	-0.14548284
241	0x3f13eb8f	0.5778131
242	0xbcd7657f	-0.026293514
243	0x3c5227de	0.012826888
244	0x3eef9f07	0.46801016
245	0xbe876591	-0.26444677
246	0xbe1c0eac	-0.15239972
247	0x3eb9d85c	0.36297882
248	0xbe979737	-0.29607555
249	0x3f372ac2	0.7154962
250	0x3cb02ce9	0.02150579
251	0x3d49f915	0.04930981
252	0x3c815dff	0.015791891
253	0x3e8de5e7	0.27714464
254	0x3d65dfc1	0.05612159
255	0xbd382149	-0.04495362

bias f4 [60]
0	0x3ef2be11	0.47410634
1	0x3f51f0d2	0.8200809
2	0x3eb75a42	0.3581105
3	0x3f003345	0.5007823
4	0x3ddb0232	0.10693778
5	0xbe12ac51	-0.14323546
6	0x3d655a63	0.055994403
7	0x3de41099	0.11135978
8	0x3c9abb21	0.018888058
9	0x3e847855	0.25873056
10	0x3c8be033	0.01707468
11	0xbbc6fadf	-0.0060723866
12	0xbda792f4	-0.08182326
13	0xbeb4e94d	-0.35334244
14	0xbf44b449	-0.76837593
15	0x3e19a3de	0.15003917
16	0x3deed367	0.116614155
17	0xbea24cd3	-0.31699237
18	0xbea3d621	-0.31999305
19	0x3c84baa2	0.016202275
20	0x3f3a70b9	0.7282825
21	0xbec4e960	-0.384593
22	0x3f1a115f	0.60182756
23	0x3c5c6015	0.013450642
24	0xbf4255c9	-0.7591215
25	0xbc7a0e6e	-0.015262229
26	0xbea5e059	-0.32397726
27	0xbebf41d0	-0.37354898
28	0x3eee1e3c	0.46507442
29	0x3ea5c679	0.32377985
30	0x3f53acfd	0.82685834
31	0x3c96aa2a	0.018391687
32	0xbe84c3c4	-0.25930607
33	0x3e4f31d8	0.20233858
34	0x3dc11bbc	0.09429118
35	0x3f1bfcad	0.6093243
36	0xba9a31f0	-0.001176415
37	0x3dc55b0d	0.09636507
38	0x3ead50aa	0.33850604
39	0xbdc5c73f	-0.09657144
40	0x3e1525f4	0.14565259
41	0x3dec944f	0.11551725
42	0x3dc2a908	0.095048964
43	0xbeb57a3a	-0.35444814
44	0xbec076ef	-0.3759074
45	0xbe039b9d	-0.1285233
46	0x3e3278a8	0.17428839
47	0x3f49e643	0.78866976
48	0xbc6d753f	-0.014493286
49	0xbdb67eaa	-0.08910878
50	0xbe68fac5	-0.22751911
51	0xbf46edfd	-0.7770689
52	0x3ab66ee9	0.0013918552
53	0xbe2049bb	-0.15653126
54	0xbf46cf03	-0.77659625
55	0x3e496300	0.19666672
56	0x3e144f8b	0.14483468
57	0x3ea84740	0.3286686
58	0xbbf09fef	-0.0073432843
59	0xbee3a4d2	-0.44461685

weight f4 [60, 60]
0	0xb9f5a429	-0.0004685235
1	0x3a9b0b40	0.0011828914
2	0x3b3d6a96	0.0028902641
3	0xba8f14f4	-0.0010916279
4	0x3ba995fe	0.005175351
5	0xbcce3a57	-0.025174303
6	0x3bb86958	0.0056277923
7	0x3bbcf8ca	0.0057669627
8	0x3cbcbc5f	0.023039041
9	0x3bdab2f4	0.006674165
10	0x3cee03b9	0.02905451
11	0x3cc3b5f0	0.023890465
12	0x3c17702c	0.009243052
13	0x3bd228a9	0.0064135385
14	0xba8e0fe1	-0.0010838473
15	0x3aa38766	0.0012476265
16	0xbc2822ff	-0.01026225
17	0xbbc3e49c	-0.00597818
18	0x3c2725a5	0.010201846
19	0x3d04f2b5	0.032458026
20	0x3a81a2e9	0.000989047
21	0x3c0a555b	0.008443202
22	0x3a582704	0.000824556
23	0x3d19da03	0.037561428
24	0xba888628	-0.0010415958
25	0xbcdccedb	-0.026954105
26	0x3ba36cee	0.0049873507
27	0xba9bae2a	-0.0011877466
28	0xbbc413ba	-0.005983797
29	0x3bf2b9fe	0.007407426
30	0x3a9a5389	0.0011774163
31	0x3b36e0ce	0.002790499
32	0xbac8e47f	-0.0015326886
33	0xbb8ba471	-0.0042615463
34	0xbb6b8d20	-0.0035942271
35	0xbc5fe499	-0.013665342
36	0xbd1d897b	-0.03846119
37	0xbc1c4721	-0.009538443
38	0xbc0d6ed3	-0.00863238
39	0xbc4755a1	-0.012166412
40	0xbc293ab3	-0.010328936
41	0x3b700367	0.0036623122
42	0xbbcdae06	-0.0062768487
43	0xbc59b059	-0.013286673
44	0xbc084069	-0.008316138
45	0x3c53b40e	0.012921346
46	0x3b85894f	0.0040752064
47	0x3a923cfd	0.0011157092
48	0xbd15ff3e	-0.03662037
49	0x38d170bc	9.986895e-05
50	0x3c023b88	0.007948764
51	0xba8f151d	-0.0010916326
52	0xbd25ec1a	-0.040508367
53	0xbb35a4e3	-0.0027716688
54	0xbc69bc5e	-0.014266102
55	0x3cbfed2f	0.023428528
56	0x3be432e8	0.0069640763
57	0xbba5ea38	-0.0050633214
58	0xbccb147e	-0.024790045
59	0x3bf70796	0.007538746
60	0xb97f0ca2	-0.00024323401
61	0x384e680c	4.921113e-05
62	0xbb63356d	-0.0034669295
63	0xb987b4ba	-0.00025883858
64	0xbb10bcfe	-0.0022085304
65	0x3bca105c	0.006166501
66	0xbb05225f	-0.0020314676
67	0xbbd28c6c	-0.006425431
68	0x3ba9c2ad	0.005180678
69	0xbba8eb52	-0.0051550055
70	0x3b64bd92	0.0034903032
71	0x3c7d712e	0.015468879
72	0xbb2814fb	-0.002564727
73	0xbbd7f0a6	-0.006589967
74	0xb8a9cbea	-8.09653e-05
75	0x3ab94e67	0.0014137746
76	0xb8b2d45a	-8.527255e-05
77	0x3be2eb17	0.0069249975
78	0x3abab9e7	0.0014246077
79	0x3ad17010	0.0015978832
80	0x38e06c0b	0.00010701277
81	0x3b8c0c4e	0.004273928
82	0xba3f46d8	-0.00072966283
83	0x3bc76389	0.0060848636
84	0xb8c66a22	-9.4611445e-05
85	0xbb82434d	-0.003975308
86	0x3bf9140b	0.0076012663
87	0xbbaafb26	-0.0052179275
88	0x3b58e7d9	0.0033097176
89	0xbb240fda	-0.0025033862
90	0x3855f2a1	5.1009123e-05
91	0x39e81c15	0.0004427141
92	0x3c28c0c1	0.010299862
93	0xba75d773	-0.0009378113
94	0xbb16ab81	-0.0022990408
95	0x3c1889a2	0.009310158
96	0xbc57c544	-0.01316959
97	0x3ae4bc3a	0.0017451115
98	0x3b516e93	0.0031956777
99	0xbb2b1a33	-0.0026108145
100	0x3c42c782	0.011888387
101	0xbb0c18cd	-0.0021377087
102	0x3bb65604	0.005564453
103	0xb87ba739	-5.99988e-05
104	0xb933a983	-0.00017133918
105	0xbb193619	-0.0023378192
106	0x3b9da3fe	0.004810809
107	0x38b44889	8.5965796e-05
108	0xba664f7e	-0.0008785649
109	0x3b7c0fc0	0.0038461536
110	0xbbfc70c6	-0.0077038733
111	0xb8b28015	-8.5115586e-05
112	0xbc1cd9ed	-0.009573442
113	0xb9f9d48d	-0.00047651344
114	0xba3552fc	-0.00069169677
115	0xbc0038f2	-0.007826077
116	0xbba58b7d	-0.0050520287
117	0x3b1d4e6b	0.002400304
118	0x3cfc0bd3	0.030767357
119	0xbb8a0525	-0.004212039
120	0x3d5c0c32	0.053722568
121	0x3e2956fe	0.16537091
122	0x3e1fa9a2	0.15592054
123	0x3d22b7d2	0.039726086
124	0xbc931e64	-0.017958827
125	0xbb474c89	-0.0030410609
126	0x3b2f158e	0.0026715728
127	0xba9015ed	-0.0010992863
128	0xbbfbac44	-0.007680448
129	0xbd8e7eeb	-0.069578014
130	0xbc0a35fa	-0.008435721
131	0x3bfb5e58	0.0076711588
132	0xbab5717c	-0.0013843025
133	0xbd3c2af7	-0.045939412
134	0xbe1f1c07	-0.15538035
135	0xbb6ba474	-0.0035956176
136	0x3db4226d	0.08795629
137	0xbe111f70	-0.14172149
138	0xbe0b9f39	-0.13634957
139	0xbbcbe565	-0.0062224143
140	0x3e15d309	0.14631285
141	0xbd63245e	-0.055454604
142	0x3dcb4d81	0.09926892
143	0xbbab5701	-0.0052288775
144	0xbe1d17ad	-0.15341063
145	0x3baa9d3a	0.005206731
146	0xbd973281	-0.0738268
147	0xbd2d63fd	-0.042331684
148	0x3dc6e85b	0.09712287
149	0x3da8c113	0.08239951
150	0x3e2abf49	0.16674532
151	0x3c28c2cc	0.010300349
152	0xbd2a7727	-0.04161754
153	0x3cc88f37	0.024482353
154	0xbc5e0fb8	-0.013553552
155	0x3da91604	0.08256152
156	0x3bfd298a	0.007725899
157	0x3d612252	0.05496437
158	0x3d194cd7	0.037426796
159	0xbd2a3f09	-0.04156402
160	0x3c91b605	0.017786989
161	0x3d8e5611	0.069500096
162	0x3c241ea4	0.010017071
163	0xbcacfc77	-0.021116478
164	0xbcdc9102	-0.026924614
165	0xbd5a9713	-0.05336673
166	0x3bb39fe2	0.005481706
167	0x3e23877a	0.15969649
168	0x3beb0571	0.0071722795
169	0xbd9e4b82	-0.07729246
170	0xbce64d71	-0.028113099
171	0xbe210ba5	-0.15727098
172	0xbb0d12c0	-0.0021526068
173	0xbd55c9b6	-0.05219432
174	0xbd334d97	-0.043775167
175	0xbdbfa27e	-0.09357165
176	0xbcde5e15	-0.027144471
177	0x3d3877cf	0.045036133
178	0x3c1ca4bb	0.009560759
179	0x3cf16692	0.029467855
180	0xbaa420c9	-0.0012521978
181	0xba83d045	-0.0010056576
182	0xbb0422f1	-0.0020162428
183	0x39b7c583	0.00035051638
184	0xbb34d203	-0.0027590997
185	0x3d05019f	0.03247225
186	0xbbed0ce4	-0.0072342027
187	0xbc626fe4	-0.013820622
188	0xbcdef373	-0.027215695
189	0xbc22f9f4	-0.009947289
190	0xbd0725c1	-0.03299499
191	0xbc0484e9	-0.008088329
192	0xbc008e0a	-0.007846365
193	0xbc0fa68c	-0.008767735
194	0x3a77c3b7	0.0009451466
195	0x3b1f0c54	0.0024268823
196	0x3bdaf541	0.0066820686
197	0x3bbe8106	0.0058137206
198	0xbbc5c70d	-0.0060356916
199	0xbd1296c7	-0.035788324
200	0xba6dc0d6	-0.00090695673
201	0x3a4aeaee	0.0007740696
202	0xbb194b34	-0.0023390772
203	0xbd3b7006	-0.04576113
204	0x3a6fafb9	0.0009143311
205	0x3cedbce8	0.029020742
206	0xbb0a50aa	-0.0021105208
207	0xbb211bfa	-0.0024583326
208	0x3bff0e22	0.007783667
209	0xbbbf1278	-0.005831059
210	0xba80b8e4	-0.0009820727
211	0xb9b24e54	-0.00034009165
212	0x3c051f4d	0.0081251385
213	0x3b15a9bc	0.0022836765
214	0x3b5f3dd5	0.0034063954
215	0x3c695359	0.014241063
216	0x3d29a757	0.041419353
217	0x3c542bf8	0.012949936
218	0x3c3cf776	0.011533609
219	0x3c0db585	0.008649235
220	0x3c91941f	0.017770825
221	0xbbbd27c6	-0.0057725636
222	0x3c20e2af	0.009819671
223	0x3c95255d	0.018206293
224	0x3c4d1636	0.0125175025
225	0xbc950aad	-0.018193567
226	0x3b222e67	0.0024746896
227	0xba77d0a2	-0.0009453391
228	0x3d2b97e1	0.04189289
229	0x3b062451	0.0020468424
230	0xbc4edc6f	-0.012625798
231	0x3a77dace	0.00094549067
232	0x3d1befd2	0.038070507
233	0xbb398c04	-0.0028312216
234	0x3c57b8bc	0.013166603
235	0xbcfb3235	-0.030663589
236	0xba4095a7	-0.00073465187
237	0x3bd893c6	0.006609413
238	0x3d42bf1e	0.047545545
239	0xbc7442c3	-0.014908495
240	0xbdd99778	-0.106245935
241	0xbe2eceac	-0.17071027
242	0x3d2c8470	0.04211849
243	0x3ea473d7	0.3211963
244	0x3e26f37c	0.1630382
245	0xbeca589c	-0.3952073
246	0xbec7d2a8	-0.39027905
247	0xbd92aaeb	-0.07161506
248	0xbc03451a	-0.008012081
249	0x3e7f9ed7	0.24962936
250	0xbc18d871	-0.009328947
251	0xbc3fb2da	-0.011700356
252	0xbea3f8dc	-0.32025802
253	0x3de25a77	0.11052411
254	0x3e269cd0	0.16270757
255	0xbe8efff1	-0.27929643

bias f4 [60]
0	0x3ae9bd44	0.0017832895
1	0xba1fd1ad	-0.0006096613
2	0x3eaad4e6	0.33365554
3	0xbab7701f	-0.0013995207
4	0xbe8ea3ba	-0.27859288
5	0x3aff8b42	0.0019496458
6	0xbdf950ef	-0.1217364
7	0xbee141c2	-0.43995482
8	0xbcc385d1	-0.02386752
9	0xb8323e9c	-4.2496817e-05
10	0xb9aa7f13	-0.00032519604
11	0xbea774e8	-0.3270638
12	0x3dc1d715	0.09464852
13	0x3e09b2d2	0.13447121
14	0xbea001bb	-0.3125132
15	0x3acf888d	0.0015833542
16	0x3ecf16f0	0.40447187
17	0xbb7be152	-0.0038433862
18	0x3ef9cc35	0.4878861
19	0xba83e972	-0.0010064079
20	0xbe820117	-0.25391456
21	0xb9f700db	-0.0004711215
22	0xbb239151	-0.0024958441
23	0x3e649c79	0.22325315
24	0x3ec17dce	0.37791294
25	0xbb75929f	-0.0037471426
26	0x3ea4fa8c	0.32222402
27	0xbe926576	-0.28593034
28	0xbe76b3a6	-0.24091968
29	0x3e8eccf0	0.2789073
30	0x3e054698	0.1301521
31	0x3d86258e	0.06550132
32	0xbdccd8bd	-0.10002277
33	0x3e2c5c49	0.16832079
34	0x3e82857a	0.2549246
35	0x3a9d3327	0.0011993394
36	0xbcdd642e	-0.027025308
37	0xba3f2af2	-0.0007292471
38	0xbea8659c	-0.32890022
39	0xbe501b23	-0.20322852
40	0xbee1697f	-0.440258
41	0x3ed094a0	0.40738392
42	0xb77b1dd4	-1.4967711e-05
43	0x3e0dd70b	0.13851564
44	0x3e14f0b1	0.14544941
45	0xba371fa7	-0.00069856126
46	0xbc3aa894	-0.011392731
47	0xbeefdafa	-0.46846753
48	0x3eea1e78	0.4572637
49	0x3ef660c3	0.48120698
50	0xb9b3fe6b	-0.00034331097
51	0xbe765cbb	-0.24058811
52	0x3ea270be	0.3172664
53	0x3deafb92	0.114737645
54	0x3eaae144	0.3337499
55	0x3ea8786f	0.32904384
56	0xbe07ae43	-0.1325007
57	0x3ea9f19e	0.33192152
58	0x3f54b663	0.830908
59	0xbc1c8e7f	-0.009555458

weight f4 [60, 60]
0	0xbb5429a1	-0.0032373446
1	0x3995ea7c	0.000285942
2	0xbdff31c8	-0.12460667
3	0x3bc94874	0.0061426703
4	0x3cf93f01	0.03042555
5	0x3aec382d	0.0018022113
6	0x3d971ca6	0.07378511
7	0xbd533dce	-0.051572613
8	0x3646daca	2.9631651e-06
9	0xb986bf9f	-0.0002570124
10	0xbe2a96d5	-0.166591
11	0x3df944bc	0.12171313
12	0xbceed968	-0.029156402
13	0xbe10526c	-0.14093941
14	0x3debe879	0.1151895
15	0x3c4e6f68	0.0125998035
16	0xbd5ab3ff	-0.053394314
17	0xbc059c7b	-0.008154984
18	0xbd8f37da	-0.06993075
19	0xba763137	-0.0009391489
20	0x3dd9f35b	0.106421195
21	0xbbedf9d9	-0.00726245
22	0xbc777f3b	-0.015106018
23	0xbd9d6079	-0.07684416
24	0xbd95df01	-0.07317925
25	0xbc388985	-0.011263256
26	0xbdf4cd5e	-0.11953233
27	0xbdbccfa2	-0.0921929
28	0x3d86bd5e	0.06579088
29	0xbcccb65e	-0.024989303
30	0xbe1d6beb	-0.15373199
31	0x3dac4aeb	0.08412727
32	0x3c16124b	0.009159635
33	0xbe792f05	-0.24334343
34	0xbc5571fe	-0.013027666
35	0xba74589e	-0.00093210663
36	0x3e36e265	0.178598
37	0xbaf52b08	-0.0018704841
38	0x3dfaddfe	0.12249373
39	0x3d8be94a	0.06831606
40	0xbd90d2f7	-0.07071488
41	0xbdaa9df3	-0.08330908
42	0x3a0a447e	0.00052744884
43	0x3e0bbf9a	0.13647309
44	0xbd1f67a0	-0.038917184
45	0xbb4f9045	-0.0031671685
46	0x3a2d89aa	0.000661994
47	0x3e1ea497	0.15492474
48	0xbda9e456	-0.08295505
49	0xbe1d6b26	-0.15372905
50	0xbb3b727b	-0.0028602171
51	0xbd39ddc3	-0.045377504
52	0xbdf0670f	-0.11738407
53	0xbe73a2f7	-0.23792635
54	0xbdff53c2	-0.124671474
55	0xbdfaf826	-0.12254362
56	0x3e6f4c30	0.23368907
57	0xbdfdb6f0	-0.12388408
58	0xbdb724c5	-0.0894256
59	0xbbe64146	-0.007026824
60	0x3b5565ac	0.0032561822
61	0xb9c6f28d	-0.00037946217
62	0x3dfca4d8	0.12336129
63	0xbbc8e049	-0.0061302525
64	0xbd064b86	-0.03278687
65	0xbadf33d4	-0.0017028996
66	0xbd8cd28f	-0.06876098
67	0x3d437247	0.047716405
68	0xb6f7177c	-7.3639076e-06
69	0x39642740	0.00021758396
70	0x3e27595b	0.1634268
71	0xbdf6d016	-0.12051408
72	0x3cda4d30	0.026648134
73	0x3e0cbd84	0.1374417
74	0xbde9a4b8	-0.11408371
75	0xbc4f3f40	-0.012649357
76	0x3d5cc0a9	0.053894673
77	0x3c074736	0.008256724
78	0x3d8a805a	0.06762762
79	0x3a79a179	0.00095226575
80	0xbdda50d9	-0.10659952
81	0x3bece486	0.0072293906
82	0x3c75e895	0.015009065
83	0x3d9b5d38	0.075861394
84	0x3d950e5e	0.07278131
85	0x3c3a424c	0.0113683455
86	0x3df26a1f	0.11836647
87	0x3db0294f	0.08601629
88	0xbd84dc79	-0.06487364
89	0x3cd104c7	0.025514973
90	0x3e151ee7	0.1456257
91	0xbda76dd1	-0.08175243
92	0xbc20db57	-0.00981792
93	0x3e6d5f35	0.2318085
94	0x3c7f429a	0.015579844
95	0x3a4a08b2	0.0007706984
96	0xbe31508a	-0.1731588
97	0x3af95639	0.0019022889
98	0xbdf864db	-0.12128612
99	0xbd89c187	-0.067263655
100	0x3d84c25b	0.06482383
101	0x3da5eac8	0.081014216
102	0xba082e9f	-0.00051949354
103	0xbe070e02	-0.13188937
104	0x3d188fe2	0.037246592
105	0x3b4a094f	0.0030828302
106	0xb9887f87	-0.00026034957
107	0xbe1ce230	-0.15320659
108	0x3da5b0a4	0.08090332
109	0x3e1bc623	0.15212302
110	0x3b3854ac	0.002812664
111	0x3d29e2a7	0.04147592
112	0x3dee1416	0.11624925
113	0x3e6d08e5	0.23147924
114	0x3dfcc71e	0.12342666
115	0x3df88da6	0.12136392
116	0xbe661fce	-0.2247307
117	0x3dfb388b	0.12266644
118	0x3db3ebbc	0.08785197
119	0x3be51143	0.006990583
120	0xbc82f562	-0.015986148
121	0x3c46388c	0.012098443
122	0xbda6692a	-0.08125527
123	0x3cc2e685	0.02379156
124	0x3d79a006	0.060943626
125	0x3a966088	0.001147286
126	0x3f1ef7cf	0.62096876
127	0x3f00ebeb	0.5035998
128	0x3d45d2bb	0.04829667
129	0x3c9d7409	0.019220369
130	0x3dfc8539	0.12330098
131	0x3d9d5814	0.07682815
132	0x3f0d8e4d	0.5529526
133	0x3f15e4be	0.5855216
134	0x3d8bd300	0.068273544
135	0x3bfc1f19	0.007694137
136	0xbe8360c9	-0.2565978
137	0xbc061ac1	-0.00818509
138	0xbec324c1	-0.38113979
139	0xbc76d1ea	-0.015064696
140	0x3ebb6fda	0.36608773
141	0xbc934bdc	-0.017980509
142	0xbc4771d1	-0.012173132
143	0xbccfa882	-0.025348905
144	0x3cab4e97	0.020911498
145	0xbc3e52cd	-0.011616421
146	0xbd975219	-0.07388706
147	0x3e0dd866	0.1385208
148	0x3e3043b2	0.17213324
149	0xbe48472e	-0.19558403
150	0xbef12d48	-0.4710486
151	0xbc98d141	-0.018654468
152	0x3e8018f5	0.2501904
153	0x3da4aeb8	0.080411375
154	0xbe2d76f1	-0.16939904
155	0x3bb32068	0.0054665096
156	0x3d246505	0.040135402
157	0xbc8e515c	-0.01737278
158	0x3da09cc4	0.07842401
159	0x3c8c4306	0.017121803
160	0x3ea77d50	0.32712793
161	0x3f2e9854	0.68201184
162	0x3be1487e	0.006875097
163	0xbdf8ccca	-0.121484354
164	0xbefb913e	-0.49134248
165	0x3b44ea38	0.0030046832
166	0x3dee2ee0	0.116300344
167	0x3e621a29	0.22080292
168	0xbe1212f8	-0.14265049
169	0xbe74eda6	-0.2391878
170	0xbc6e7b7a	-0.014555806
171	0x3e2d799b	0.1694092
172	0xbd90eb1f	-0.07076096
173	0x3d146de9	0.03623763
174	0xbda69095	-0.081330456
175	0xbd9ea44e	-0.077461824
176	0xbd3ca2f0	-0.046053827
177	0xbda2b021	-0.0794375
178	0xbeca1ad2	-0.39473587
179	0x39a75d30	0.00031922152
180	0xbb523c71	-0.0032079483
181	0x3a116477	0.00055462815
182	0xbe01434c	-0.12623328
183	0x3bc3aa62	0.005971239
184	0x3d389c35	0.045070846
185	0x3ad14edb	0.0015968935
186	0x3d7f0af3	0.0622663
187	0xbd1fdb82	-0.0390277
188	0xb9692bba	-0.00022236901
189	0xb93b9544	-0.00017889315
190	0xbe20f584	-0.15718657
191	0x3dfcc7fb	0.12342831
192	0xbcad3674	-0.02114413
193	0xbe01d367	-0.126783
194	0x3defd500	0.117105484
195	0x3c4dd331	0.012562559
196	0xbd5ff931	-0.054681007
197	0xbc07b318	-0.008282445
198	0xbd5fcdca	-0.054639615
199	0xba8251c5	-0.0009942582
200	0x3ded5c95	0.11589924
201	0xbbe77cbb	-0.0070644296
202	0xbc709560	-0.014684051
203	0xbda0569f	-0.07829022
204	0xbd9b752c	-0.07590708
205	0xbc3ae5e6	-0.011407351
206	0xbdf87b4c	-0.12132892
207	0xbd95d9c3	-0.073169254
208	0x3d7e17b3	0.06203432
209	0xbcdfea9c	-0.02733355
210	0xbe062431	-0.13099743
211	0x3d935ac7	0.07195049
212	0x3c3b42bb	0.011429484
213	0xbe587e20	-0.21141863
214	0xbcb3dc25	-0.021955559
215	0xba02bfe7	-0.0004987702
216	0x3e23d786	0.16000184
217	0xbb015655	-0.0019735296
218	0x3dfe6682	0.124218956
219	0x3d8df5e8	0.069316685
220	0xbd55b98d	-0.05217891
221	0xbd9d0e60	-0.076687574
222	0x3a05705a	0.0005090289
223	0x3dfc8899	0.123307414
224	0xbd00b2c0	-0.03142047
225	0xbb39f994	-0.002837752
226	0xb9ce7334	-0.00039377215
227	0x3e1b7246	0.1518031
228	0xbda06dee	-0.078334674
229	0xbe1aac76	-0.15104851
230	0xbb30024e	-0.0026856842
231	0xbcf710a9	-0.030159311
232	0xbdf4232b	-0.1192077
233	0xbe5fd767	-0.21859513
234	0xbe0153b2	-0.12629583
235	0xbdfe7e40	-0.12426424
236	0x3e553702	0.20821765
237	0xbe00892a	-0.12552324
238	0xbdb34533	-0.08753433
239	0xbbdd4fa2	-0.0067538777
240	0xbb52967e	-0.0032133157
241	0x3a06a955	0.0005136927
242	0xbe00f1f6	-0.12592301
243	0x3bc488a9	0.0059977365
244	0x3d306693	0.043066572
245	0x3ad3ca6b	0.0016158348
246	0x3d825291	0.063634045
247	0xbd25219b	-0.04031525
248	0xb9476631	-0.00019016188
249	0xb944b6f4	-0.00018760172
250	0xbe21dd73	-0.15807132
251	0x3dfc1f99	0.12310714
252	0xbcb6dc88	-0.022321954
253	0xbe033cb9	-0.12816133
254	0x3def23c9	0.11676747
255	0x3c4def84	0.012569312

bias f4 [60]
0	0xbe830e0b	-0.2559665
1	0x3e807a0a	0.25093108
2	0xbe695003	-0.22784428
3	0xbe722e53	-0.23650484
4	0xbe721912	-0.23642376
5	0x3e871065	0.26379696
6	0xbe46e0ad	-0.19421645
7	0xbd682976	-0.056680165
8	0x3e4d2bf3	0.20036297
9	0xbe7475f8	-0.23873127
10	0xbe468259	-0.19385661
11	0xbe80d2b0	-0.25160742
12	0x3e45cbe9	0.19316067
13	0xbe733bf3	-0.23753338
14	0x3e75058c	0.23927897
15	0x3e5e6176	0.21716866
16	0x3e535d9f	0.20641182
17	0xbe49f164	-0.1972099
18	0x3e86ded7	0.26341888
19	0x3e095b59	0.13413753
20	0xbe3ff431	-0.18745495
21	0xbe5f2966	-0.21793136
22	0xbe855f57	-0.260493
23	0x3e83913f	0.2569675
24	0x3e4ae17a	0.19812575
25	0x3e4cf0d6	0.20013747
26	0x3de86c18	0.11348742
27	0xbe6aafc1	-0.22918607
28	0xbe828a69	-0.25496224
29	0x3e4870b2	0.1957424
30	0x3e463b7d	0.1935863
31	0x3e6680a2	0.22510007
32	0x3e44c714	0.19216567
33	0xbe682fe1	-0.22674514
34	0x3e714c6c	0.23564309
35	0x3e947a97	0.2899978
36	0xbe702951	-0.23453261
37	0x3e46235c	0.19349426
38	0x3e3a6914	0.18204147
39	0xbe46835c	-0.19386047
40	0xbe46213a	-0.19348612
41	0xbe813384	-0.25234616
42	0x3e7432bf	0.23847483
43	0x3e4b1c0c	0.19834918
44	0x3e909eef	0.28246257
45	0xbe8638fa	-0.26215345
46	0xbe2f7da4	-0.17137772
47	0xbe7dc7d9	-0.24783267
48	0x3e85d154	0.26136267
49	0x3e3aff63	0.18261485
50	0xbe44558e	-0.19173262
51	0xbe4f137a	-0.20222273
52	0xbe6680a7	-0.22510014
53	0x3e75691c	0.23965877
54	0xbe78e2e6	-0.24305305
55	0x3e77e81a	0.24209633
56	0x3e1b7094	0.15179664
57	0x3e1f478f	0.15554641
58	0x3e816f7b	0.25280365
59	0xbe4e3a02	-0.20139316

weight f4 [60, 60]
0	0xbd176f12	-0.03697116
1	0x3d1a75e9	0.037710104
2	0xbea0780e	-0.31341594
3	0xbd2dfe64	-0.042478934
4	0xbd2962fb	-0.04135416
5	0x3d0be02b	0.03414933
6	0xbe8f30bf	-0.27966878
7	0xbe9e4412	-0.3091131
8	0x3d8c37b2	0.068465605
9	0xbec2852c	-0.37992227
10	0xbe8e961c	-0.278489
11	0xbd17faf7	-0.037104573
12	0x3e8c1cd5	0.27365747
13	0xbec29afd	-0.38008872
14	0x3ecc1f26	0.39867514
15	0x3e9dadce	0.30796665
16	0x3ea8b26e	0.3294863
17	0xbe901f25	-0.2814876
18	0x3d0f3b3c	0.0349686
19	0x3ed7aac0	0.4212246
20	0x3d2cbbfd	0.042171467
21	0xbeda04b5	-0.42581716
22	0xbd157a63	-0.03649367
23	0x3d14ca8c	0.036325976
24	0xbd357012	-0.04429633
25	0x3ea0a1cc	0.3137344
26	0x3e297193	0.16547231
27	0xbeefbdea	-0.4682458
28	0xbd1b40e9	-0.0379037
29	0x3e91cea3	0.28477964
30	0xbce30843	-0.0277139
31	0x3ed200d5	0.4101626
32	0x3e8bf84b	0.2733787
33	0xbebaaaf4	-0.36458552
34	0x3d2aced5	0.041701157
35	0x3e939243	0.28822526
36	0xbebc90ff	-0.36829373
37	0x3e8e0f97	0.2774627
38	0x3dad25ef	0.08454501
39	0xbe8e4147	-0.27784178
40	0xbe8de3bc	-0.2771281
41	0xbd1b7adf	-0.037958976
42	0x3d25d152	0.040482827
43	0x3ea5b877	0.32367298
44	0xbe0e369e	-0.13888022
45	0xbd11b578	-0.035573453
46	0xbcdf1be4	-0.027234979
47	0xbeaae738	-0.3337953
48	0x3d10b0e0	0.03532493
49	0x3e86b0c1	0.26306728
50	0x3ce5f7b9	0.028072225
51	0xbe9f629c	-0.3112992
52	0xbe93a1bf	-0.2883434
53	0x3d28a514	0.041173056
54	0xbd2461b8	-0.040132254
55	0x3d24d4f0	0.040242136
56	0x3edc304e	0.43005604
57	0x3e8bbee2	0.2729407
58	0x3d177808	0.036979705
59	0xbeb7a00e	-0.358643
60	0x3e23c935	0.15994723
61	0xbe1c4821	-0.1526189
62	0xbc31f9c8	-0.010862775
63	0x3e12595e	0.14291903
64	0x3e13a450	0.14418149
65	0xbe2a660d	-0.16640492
66	0x3dc8a60a	0.097972944
67	0xbe886b6a	-0.2664445
68	0xbe1e4587	-0.1545621
69	0xbc943c36	-0.018095117
70	0x3dca3753	0.098738335
71	0x3e1ec8e4	0.15506321
72	0xbdcd66e0	-0.100293875
73	0xbc999164	-0.018746085
74	0xbb16aa71	-0.0022989775
75	0x3d76dc91	0.060268942
76	0xbd925e79	-0.071469255
77	0x3dcbbc4e	0.09948026
78	0xbe2a0ed3	-0.16607217
79	0x3d8c4a58	0.068501174
80	0x3e50e5e0	0.2040019
81	0xbd37a2cc	-0.04483299
82	0x3e273c58	0.16331613
83	0xbe254588	-0.16139805
84	0xbe68722c	-0.22699803
85	0xbda1fa43	-0.07909062
86	0xbdd3b3ba	-0.103370145
87	0xbdac8519	-0.08423824
88	0x3e2293c4	0.1587668
89	0xbdc37444	-0.0954366
90	0xbe590e53	-0.2119687
91	0x3d2c9f62	0.042144187
92	0xbdcefc21	-0.101066835
93	0x3d121e84	0.035673633
94	0xbe1256f7	-0.14290987
95	0x3d784796	0.060615145
96	0xbc3686be	-0.0111405235
97	0xbdcd79f4	-0.10033026
98	0xbe00306c	-0.12518471
99	0x3dcec0bf	0.10095357
100	0x3dd0ddb6	0.10198538
101	0x3e2034cc	0.1564514
102	0xbe15541a	-0.14582863
103	0x3d9ff9eb	0.0781134
104	0xbeb50858	-0.35357928
105	0x3e28fa25	0.16501673
106	0x3e4490cc	0.1919586
107	0xbdae4ca9	-0.085107155
108	0xbe28a686	-0.16469774
109	0xbdfb4842	-0.122696415
110	0x3e4f87a8	0.20266593
111	0x3da93e99	0.08263893
112	0xbd64d46a	-0.055866636
113	0xbe146449	-0.14491381
114	0x3e167898	0.1469444
115	0xbe16b81f	-0.14718674
116	0x3e5fa409	0.21839918
117	0x3d9a9703	0.075483344
118	0xbe2031d6	-0.15644011
119	0xbdd89b81	-0.10576535
120	0x3d17307f	0.036911484
121	0xbd1a479e	-0.037665956
122	0x3ea0a854	0.31378424
123	0x3d2e1d33	0.042508315
124	0x3d297bf1	0.041377965
125	0xbd0ba51d	-0.03409301
126	0x3e8f8361	0.28029922
127	0x3e9e4f15	0.3091971
128	0xbd8ca18f	-0.06866752
129	0x3ec2eaea	0.3806985
130	0x3e8ee894	0.27911818
131	0x3d17b181	0.037034515
132	0xbe8c6dca	-0.27427512
133	0x3ec30010	0.38085985
134	0xbecc9762	-0.39959246
135	0xbe9de92a	-0.30841953
136	0xbea91839	-0.33026293
137	0x3e9073d2	0.28213364
138	0xbd0f16a5	-0.034933705
139	0xbed814a4	-0.42203248
140	0xbd2cb73f	-0.042166945
141	0x3eda542c	0.42642343
142	0x3d15625b	0.036470752
143	0xbd148a3a	-0.036264636
144	0x3d3546d7	0.04425701
145	0xbea1030e	-0.31447643
146	0xbe29a56c	-0.1656701
147	0x3ef00bf4	0.4688412
148	0x3d1b13fa	0.037860848
149	0xbe9224d3	-0.2854372
150	0x3ce28f0c	0.0276561
151	0xbed26202	-0.410904
152	0xbe8c4951	-0.27399686
153	0x3ebb1788	0.3654139
154	0xbd2ada98	-0.041712373
155	0xbe93ada5	-0.28843418
156	0x3ebcf0d6	0.36902493
157	0xbe8e61db	-0.27809033
158	0xbdad939d	-0.084754206
159	0x3e8e9381	0.27846912
160	0x3e8e35d2	0.27775437
161	0x3d1b3fc5	0.037902612
162	0xbd25f4e5	-0.040516753
163	0xbea60125	-0.32422748
164	0x3e0e54c5	0.13899525
165	0x3d119922	0.03554643
166	0x3ce0748c	0.027399324
167	0x3eab27e4	0.33428872
168	0xbd10892c	-0.035287067
169	0xbe86fc2d	-0.2636427
170	0xbce5a334	-0.028031923
171	0x3e9fc3b5	0.31204
172	0x3e93da3a	0.2887743
173	0xbd28a37d	-0.04117154
174	0x3d246878	0.04013869
175	0xbd24ee97	-0.0402666
176	0xbedc8c79	-0.43075922
177	0xbe8beb59	-0.27327994
178	0xbd172633	-0.036901664
179	0x3eb7ef80	0.35924911
180	0xbe236fcb	-0.15960614
181	0x3e1be327	0.1522337
182	0x3c321549	0.010869333
183	0xbe122d06	-0.14274988
184	0xbe13767d	-0.14400668
185	0x3e29f5d2	0.1659768
186	0xbdc8d4ec	-0.098062366
187	0x3e885644	0.26628315
188	0x3e1e396e	0.15451595
189	0x3c9465bc	0.018114917
190	0xbdca70fc	-0.09884831
191	0xbe1e59e1	-0.15463974
192	0x3dcda6be	0.10041569
193	0x3c99eade	0.018788751
194	0x3b18732a	0.0023262003
195	0xbd776751	-0.060401265
196	0x3d9272db	0.07150813
197	0xbdcbf632	-0.099590674
198	0x3e29aa15	0.16568787
199	0xbd8c591a	-0.06852932
200	0xbe50c9c0	-0.20389462
201	0x3d37e98c	0.044900462
202	0xbe26daeb	-0.16294448
203	0x3e24e429	0.16102661
204	0x3e6872f6	0.22700104
205	0x3da20350	0.07910788
206	0x3dd3d98d	0.10344229
207	0x3daca599	0.08430023
208	0xbe22374c	-0.15841407
209	0x3dc39f88	0.095519125
210	0x3e59162a	0.21199861
211	0xbd2cc650	-0.042181313
212	0x3dcf3b41	0.10118724
213	0xbd11d6ec	-0.035605356
214	0x3e121268	0.14264834
215	0xbd78f68b	-0.060781997
216	0x3c381eed	0.011237842
217	0x3dcdc5f2	0.10047521
218	0x3e0018d9	0.12509479
219	0xbdcefac4	-0.101064235
220	0xbdd12553	-0.10212197
221	0xbe1fc967	-0.15604173
222	0x3e1522f3	0.14564113
223	0xbda01c4b	-0.078178965
224	0x3eb52b09	0.35384396
225	0xbe289bbd	-0.1646566
226	0xbe447b47	-0.19187652
227	0x3dae9dcc	0.08526191
228	0x3e284fed	0.1643674
229	0x3dfb9b81	0.122855194
230	0xbe4f722c	-0.20258397
231	0xbda95854	-0.082688004
232	0x3d656488	0.056004077
233	0x3e140cff	0.14458083
234	0xbe162ec2	-0.14666274
235	0x3e166588	0.14687169
236	0xbe5fbe6c	-0.21849984
237	0xbd9a9a2c	-0.07548937
238	0x3e1fc2f7	0.15601717
239	0x3dd8cbea	0.105857685
240	0xbe23f3bf	-0.1601095
241	0x3e1c5954	0.15268451
242	0x3c3372f1	0.010952697
243	0xbe12ea06	-0.14347085
244	0xbe14367c	-0.14473909
245	0x3e2a8ad4	0.16654521
246	0xbdc8bf7c	-0.09802148
247	0x3e88b058	0.2669704
248	0x3e1ec983	0.15506558
249	0x3c9423df	0.01808351
250	0xbdca6920	-0.09883332
251	0xbe1ec45b	-0.15504591
252	0x3dcdc0fc	0.100465745
253	0x3c993000	0.018699646
254	0x3b2449e8	0.0025068466
255	0xbd775c26	-0.060390614

bias f4 [60]
0	0x3d42a26b	0.047518175
1	0xbea926a6	-0.330373
2	0xbd46e1dd	-0.048555244
3	0x3ea8d8df	0.3297796
4	0x3eab4902	0.33454138
5	0xbd3aca23	-0.04560293
6	0xbd4158e0	-0.0472039
7	0xbeaaefe2	-0.3338614
8	0xbeaaa550	-0.33329248
9	0xbea9c7f4	-0.33160365
10	0xbea853d0	-0.32876444
11	0xbd45e8b9	-0.048317645
12	0xbeaa519e	-0.33265394
13	0x3d31e5da	0.043432094
14	0x3ea54725	0.3228084
15	0x3eab1221	0.3341227
16	0xbd39efbd	-0.045394648
17	0xbd3cb0ad	-0.04606693
18	0xbea9e084	-0.33179104
19	0x3ea97378	0.33095908
20	0xbd3bd47a	-0.04585693
21	0xbd2c446e	-0.042057447
22	0x3c8a36bc	0.016871803
23	0x3eaa57e7	0.3327019
24	0x3ea6aac4	0.3255216
25	0x3ea8f5f5	0.3300015
26	0xbd416521	-0.047215585
27	0xbeaa24c8	-0.33231187
28	0xbb8c00c5	-0.0042725527
29	0x3ea821df	0.32838342
30	0xbea9a3a5	-0.33132663
31	0xbd4cc12f	-0.04998892
32	0xbd37dc06	-0.044887565
33	0xbea9993a	-0.33124715
34	0x3eaa481c	0.3325814
35	0x3ea89b4d	0.32930985
36	0xbeaaab6d	-0.33333912
37	0x3ea87e43	0.3290883
38	0x3eaa3c2a	0.33249027
39	0xbeab47e2	-0.3345328
40	0x3eaa15a1	0.33219627
41	0xbea9537d	-0.3307151
42	0xbea97d07	-0.331032
43	0xbea361cf	-0.3191056
44	0xbeaaad10	-0.3333516
45	0x3d47cf8d	0.04878192
46	0x3ea99fdc	0.33129776
47	0xbea3b1a5	-0.3197147
48	0xbd4d0728	-0.050055653
49	0x3eaa94e9	0.33316734
50	0xbd459120	-0.048234105
51	0x3ea91997	0.33027336
52	0xbd4e01ea	-0.050294794
53	0xbea5f36c	-0.3241228
54	0x3ea7c565	0.32767788
55	0x3ea837a5	0.32854953
56	0x3d370e70	0.044691503
57	0xbea9708e	-0.33093685
58	0xbeab1513	-0.33414516
59	0x3c33ac87	0.010966427

weight f4 [60, 60]
0	0x3ed37a02	0.41304022
1	0x3e7eb3a3	0.24873213
2	0xbed4682b	-0.41485724
3	0xbe7e1a5b	-0.24814741
4	0xbe802109	-0.25025204
5	0xbed2c293	-0.41164073
6	0xbed2f87b	-0.412052
7	0x3e800ada	0.2500828
8	0x3e802ce1	0.2503424
9	0x3e7de99e	0.24796149
10	0x3e7d4838	0.2473458
11	0xbed388ba	-0.41315252
12	0x3e7f76e0	0.24947691
13	0x3ed16c3e	0.40902895
14	0xbe78606e	-0.24255535
15	0xbe7e8f31	-0.2485931
16	0xbed31d3a	-0.41233236
17	0xbed23075	-0.41052595
18	0x3e7dfe8c	0.24804133
19	0xbe7f254e	-0.24916574
20	0xbed3706c	-0.4129671
21	0xbed176e7	-0.40911028
22	0x3eca5f8f	0.3952603
23	0xbe7df337	-0.2479981
24	0xbe79fcc7	-0.24412833
25	0xbe7e2f01	-0.24822618
26	0xbed42459	-0.4143398
27	0x3e7fa629	0.24965729
28	0xbecdd1d7	-0.40199158
29	0xbe7dc500	-0.24782181
30	0x3e7df16c	0.24799126
31	0xbed33b00	-0.4125595
32	0xbed1cef6	-0.4097821
33	0x3e7dd943	0.2478991
34	0xbe7f5c80	-0.2493763
35	0xbe7d55ab	-0.24739711
36	0x3e7ef429	0.24897827
37	0xbe7e257b	-0.24818985
38	0xbe7e0de3	-0.24809985
39	0x3e80275c	0.2503003
40	0xbe7e3b23	-0.24827246
41	0x3e7ef55d	0.24898286
42	0x3e7e732f	0.24848627
43	0x3e756baf	0.2396686
44	0x3e7eeb83	0.24894528
45	0x3ed39995	0.4132811
46	0xbe7f3fdb	-0.24926703
47	0x3e762452	0.24037293
48	0xbed3f9e4	-0.4140159
49	0xbe7f42ac	-0.24927777
50	0xbed309bf	-0.41218373
51	0xbe7daf2b	-0.24773853
52	0xbed30ccf	-0.4122071
53	0x3e7a63d8	0.2445215
54	0xbe7d3ccb	-0.24730222
55	0xbe7ddc2f	-0.24791025
56	0x3ed33373	0.4125019
57	0x3e7e97ce	0.24862596
58	0x3e7fa39f	0.2496476
59	0x3ece1c6f	0.40256068
60	0xbed33415	-0.41250673
61	0xbe7e732a	-0.24848619
62	0x3ed399a5	0.4132816
63	0x3e7e26fe	0.24819562
64	0x3e7f5b93	0.24937277
65	0x3ed2dc8b	0.41183886
66	0x3ed30ab3	0.412191
67	0xbe7f4b0f	-0.24930976
68	0xbe7f7de4	-0.24950367
69	0xbe7e29a7	-0.24820577
70	0xbe7d8bed	-0.24760409
71	0x3ed33c24	0.4125682
72	0xbe7ec49d	-0.2487969
73	0xbed1ddb8	-0.4098947
74	0x3e791c9c	0.2432732
75	0x3e7eb0e6	0.24872169
76	0x3ed302ec	0.41213167
77	0x3ed29ad5	0.41133752
78	0xbe7e3785	-0.24825867
79	0x3e7ea4f7	0.24867617
80	0x3ed331a8	0.41248822
81	0x3ed18c0b	0.40927157
82	0xbecb3eb9	-0.3969629
83	0x3e7e45b1	0.24831273
84	0x3e79a02f	0.24377511
85	0x3e7e33f3	0.24824505
86	0x3ed36dc8	0.41294694
87	0xbe7ec436	-0.24879536
88	0x3ece240a	0.4026187
89	0x3e7dc2a7	0.24781285
90	0xbe7e1725	-0.24813516
91	0x3ed3281b	0.41241536
92	0x3ed26e08	0.41099572
93	0xbe7deca2	-0.247973
94	0x3e7efc35	0.24900897
95	0x3e7d9d9f	0.24767159
96	0xbe7eebc1	-0.2489462
97	0x3e7de301	0.24793626
98	0x3e7e2746	0.24819669
99	0xbe7f604b	-0.24939077
100	0x3e7e7636	0.24849781
101	0xbe7e6f4c	-0.24847144
102	0xbe7e479a	-0.24832001
103	0xbe767d34	-0.24071199
104	0xbe7ecdce	-0.24883196
105	0xbed35390	-0.4127469
106	0x3e7ec762	0.24880746
107	0xbe7732a4	-0.24140412
108	0x3ed38035	0.41308752
109	0x3e7ec6ab	0.24880473
110	0x3ed30a31	0.41218713
111	0x3e7dd2d2	0.24787453
112	0x3ed31329	0.41225556
113	0xbe7b388e	-0.24533293
114	0x3e7d544f	0.24739192
115	0x3e7dc5ec	0.24782532
116	0xbed3133d	-0.41225615
117	0xbe7e770f	-0.24850105
118	0xbe7f108b	-0.24908654
119	0xbeced9b7	-0.40400478
120	0xbed3dd3d	-0.4137973
121	0xbe7f426f	-0.24927686
122	0x3ed4dad1	0.41573194
123	0x3e7e552a	0.24837175
124	0x3e809dbc	0.25120342
125	0x3ed2972e	0.41130966
126	0x3ed30276	0.41212815
127	0xbe8018a5	-0.25018802
128	0xbe805648	-0.25065827
129	0xbe7d3c5c	-0.24730057
130	0xbe7cdce1	-0.24693634
131	0x3ed3b6b4	0.4135033
132	0xbe800a1d	-0.25007716
133	0xbed139ef	-0.40864512
134	0x3e785b44	0.24253565
135	0x3e7e6c0f	0.24845909
136	0x3ed33ccb	0.4125732
137	0x3ed20eb9	0.41026857
138	0xbe7dc1fc	-0.2478103
139	0x3e7f6bac	0.24943417
140	0x3ed3453e	0.41263765
141	0x3ed18496	0.40921468
142	0xbec9099e	-0.3926515
143	0x3e7d554f	0.24739574
144	0x3e7a4fd3	0.24444513
145	0x3e7e4076	0.24829277
146	0x3ed3cea0	0.4136858
147	0xbe803166	-0.25037688
148	0x3ecdfb32	0.4023071
149	0x3e7e468f	0.24831603
150	0xbe7d8163	-0.24756388
151	0x3ed3a44b	0.41336283
152	0x3ed1b546	0.40958613
153	0xbe7d74d5	-0.24751599
154	0x3e7fe9e1	0.24991561
155	0x3e7d0658	0.24709451
156	0xbe7f44d4	-0.249286
157	0x3e7e815b	0.24854033
158	0x3e7d555e	0.24739596
159	0xbe802b0f	-0.2503285
160	0x3e7e0157	0.24805199
161	0xbe7f7487	-0.24946795
162	0xbe7e6862	-0.24844506
163	0xbe74f2ee	-0.23920795
164	0xbe7f6f45	-0.2494479
165	0xbed3d1cf	-0.4137101
166	0x3e7f63f5	0.24940474
167	0xbe757c2d	-0.2397315
168	0x3ed44222	0.41456705
169	0x3e7fa2d4	0.24964458
170	0x3ed30292	0.41212898
171	0x3e7d588f	0.24740814
172	0x3ed3689d	0.4129075
173	0xbe7a03b1	-0.2441547
174	0x3e7cf67c	0.24703401
175	0x3e7deeae	0.2479808
176	0xbed3904d	-0.4132103
177	0xbe7edc32	-0.24888685
178	0xbe7ffe59	-0.2499937
179	0xbecdb7db	-0.40179333
180	0x3ed3465f	0.41264626
181	0x3e7e7988	0.24851048
182	0xbed3c2ea	-0.41359645
183	0xbe7e1f6f	-0.24816678
184	0xbe7f8ec0	-0.24956799
185	0xbed2e520	-0.41190434
186	0xbed30cc4	-0.41220677
187	0x3e7f85dc	0.24953407
188	0x3e7f9a1f	0.24961136
189	0x3e7de478	0.24794185
190	0x3e7d75ed	0.24752016
191	0xbed35a28	-0.4127972
192	0x3e7eebda	0.24894658
193	0x3ed1dcca	0.4098876
194	0xbe791907	-0.24325953
195	0xbe7eaf8d	-0.24871655
196	0xbed2fcf9	-0.41208628
197	0xbed27c54	-0.4111048
198	0x3e7e20f2	0.24817255
199	0xbe7ed7d7	-0.24887024
200	0xbed33e5c	-0.41258514
201	0xbed1a3e5	-0.40945354
202	0x3ecacab6	0.3960778
203	0xbe7df0e5	-0.24798925
204	0xbe79922b	-0.24372165
205	0xbe7e2a50	-0.24820828
206	0xbed38389	-0.4131129
207	0x3e7eed71	0.24895264
208	0xbece1d69	-0.40256813
209	0xbe7dae14	-0.24773437
210	0x3e7dfd60	0.24803686
211	0xbed344eb	-0.41263518
212	0xbed250f6	-0.41077393
213	0x3e7decc8	0.24797356
214	0xbe7f1a51	-0.24912383
215	0xbe7d73a0	-0.24751139
216	0x3e7f0155	0.24902852
217	0xbe7de74b	-0.24795263
218	0xbe7dcbbe	-0.24784753
219	0x3e7fa4c7	0.24965201
220	0xbe7e56b3	-0.2483776
221	0x3e7ea570	0.24867797
222	0x3e7e6a74	0.24845296
223	0x3e7649e9	0.24051632
224	0x3e7eef7c	0.24896044
225	0x3ed35b36	0.41280526
226	0xbe7eda74	-0.24888021
227	0x3e77191b	0.2413067
228	0xbed3aca8	-0.41342664
229	0xbe7ed2f3	-0.24885158
230	0xbed304f5	-0.4121472
231	0xbe7dc49d	-0.24782033
232	0xbed30f33	-0.41222534
233	0x3e7b18b3	0.24521141
234	0xbe7d40b6	-0.24731717
235	0xbe7dbfd1	-0.24780203
236	0x3ed31528	0.41227078
237	0x3e7e9f31	0.24865414
238	0x3e7f2155	0.24915059
239	0x3ecebe8f	0.4037976
240	0xbed383be	-0.4131145
241	0xbe7f457f	-0.24928854
242	0x3ed4ebc8	0.41586137
243	0x3e7e47cc	0.24832076
244	0x3e8080bb	0.25098214
245	0x3ed2a01b	0.41137776
246	0x3ed3680d	0.41290322
247	0xbe807dee	-0.25096077
248	0xbe80aa11	-0.2512975
249	0xbe7df343	-0.24799828
250	0xbe7d4ac7	-0.24735557
251	0x3ed4347a	0.41446286
252	0xbe801686	-0.25017184
253	0xbed095f1	-0.40739396
254	0x3e766a39	0.24063958
255	0x3e7f2723	0.24917273

bias f4 [60]
0	0xbebdf905	-0.3710405
1	0x3ebf8ef4	0.37413752
2	0x3ebd5586	0.36979312
3	0xbebf9934	-0.37421572
4	0x3eb9f93f	0.36322972
5	0xbebbac98	-0.36655116
6	0x3ec03db1	0.37547067
7	0xbec0df85	-0.37670532
8	0xbeb7e7c7	-0.3591902
9	0x3ebfab50	0.3743539
10	0x3ebecf72	0.37267643
11	0xbeb9385b	-0.36175808
12	0xbeb9617f	-0.36207196
13	0xbebc1994	-0.36738265
14	0xbec0aef0	-0.37633467
15	0xbebe8163	-0.3720809
16	0x3ec067ed	0.3757929
17	0x3eb82f2a	0.35973483
18	0xbeb7f162	-0.35926348
19	0x3ebe8272	0.37208897
20	0xbec163a9	-0.37771347
21	0x3ebf9009	0.37414578
22	0x3ec05ede	0.37572378
23	0xbec0ce76	-0.37657517
24	0x3ec0d35e	0.3766126
25	0x3ec09a49	0.3761771
26	0x3ebc2e3b	0.3675402
27	0x3ec072c3	0.37587556
28	0x3ebe67d3	0.37188587
29	0xbebd759b	-0.37003788
30	0x3ebf980b	0.37420687
31	0xbeb683a1	-0.356473
32	0x3eba7eb4	0.36424792
33	0x3eb8627e	0.36012644
34	0x3eb79b0e	0.35860485
35	0x3ebf661e	0.37382597
36	0xbebf8840	-0.37408638
37	0x3ec03166	0.37537688
38	0xbeba0200	-0.3632965
39	0xbeb84b76	-0.35995072
40	0x3ebff6a0	0.37492847
41	0xbebff7f1	-0.37493852
42	0x3eb7ab0f	0.35872695
43	0xbeb89877	-0.3605382
44	0x3ebb4fe1	0.3658438
45	0xbebfcdb3	-0.37461624
46	0xbebf0345	-0.37307182
47	0xbebfe37b	-0.3747824
48	0x3ebf4e18	0.37364268
49	0xbec04304	-0.3755113
50	0x3ebc6391	0.36794713
51	0x3eb82ae8	0.35970235
52	0xbebb8dee	-0.3663172
53	0x3eba33f7	0.3636777
54	0xbebc88fb	-0.36823258
55	0xbebeccc8	-0.3726561
56	0xbebdd23d	-0.37074462
57	0xbebce9e1	-0.36897185
58	0xbebf1d35	-0.3732697
59	0x3ec0ce84	0.3765756

weight f4 [1, 60]
0	0xc11f8e7e	-9.972288
1	0x411f8eb7	9.9723425
2	0x411f8eb1	9.972337
3	0xc11f8ec3	-9.972354
4	0x411f8dd2	9.972124
5	0xc11f8e53	-9.972247
6	0x411f8ed6	9.972372
7	0xc11f8ef6	-9.972403
8	0xc11f8e32	-9.972216
9	0x411f8eb7	9.9723425
10	0x411f8ecf	9.972365
11	0xc11f8da0	-9.972076
12	0xc11f8dc6	-9.972113
13	0xc11f8e98	-9.972313
14	0xc11f8ef1	-9.972398
15	0xc11f8ea1	-9.9723215
16	0x411f8ece	9.972364
17	0x411f8da2	9.972078
18	0xc11f8d4f	-9.971999
19	0x411f8e84	9.972294
20	0xc11f8ef7	-9.972404
21	0x411f8eb8	9.972343
22	0x411f8ec1	9.972352
23	0xc11f8eeb	-9.972392
24	0x411f8ee1	9.972383
25	0x411f8ecb	9.972362
26	0x411f8e59	9.972253
27	0x411f8ed6	9.972372
28	0x411f8e9a	9.972315
29	0xc11f8e77	-9.972281
30	0x411f8ec3	9.972354
31	0xc11f8d67	-9.972022
32	0x411f8e29	9.972207
33	0x411f8d82	9.972048
34	0x411f8db1	9.972093
35	0x411f8ebe	9.972349
36	0xc11f8ea7	-9.972327
37	0x411f8ec3	9.972354
38	0xc11f8de7	-9.972144
39	0xc11f8e06	-9.972174
40	0x411f8ed8	9.972374
41	0xc11f8ed8	-9.972374
42	0x411f8e06	9.972174
43	0xc11f8de6	-9.972143
44	0x411f8eb4	9.97234
45	0xc11f8ee2	-9.9723835
46	0xc11f8ea0	-9.972321
47	0xc11f8ec1	-9.972352
48	0x411f8ead	9.972333
49	0xc11f8ed6	-9.972372
50	0x411f8e83	9.972293
51	0x411f8dd7	9.972129
52	0xc11f8e67	-9.972266
53	0x411f8de3	9.97214
54	0xc11f8e84	-9.972294
55	0xc11f8eae	-9.972334
56	0xc11f8e97	-9.972312
57	0xc11f8e53	-9.972247
58	0xc11f8eaf	-9.972335
59	0x411f8eea	9.972391
