Total_RCS/epoch_200_batch_255_lr_0_0019819414761434403_wd_0_1808248925678225/torch_model_5_GELU.pth (torch, 95029 bytes, 15 tensors)

weight f4 [60, 3]
000000 2e 3a 26 3e b5 22 71 3f 7b 6e 40 3f 6a e9 04 bf
       0.16233131 0.94193584 0.7516858 -0.5191866
000010 54 02 3b 3f ec e3 db be 0d f6 f3 be 2d b7 59 3f
       0.7305043 -0.42947328 -0.4764866 0.8504513
000020 7c 1b 5c 3f 76 ad b0 3a e2 45 02 3c 21 37 66 3a
       0.8597944 0.001347943 0.007951232 0.00087820186
000030 21 11 25 bf af e5 59 3f 11 c8 22 3f 1a 28 1d 3e
       -0.6447926 0.85116094 0.6358653 0.15347329
000040 c8 3b c4 be 22 c1 a8 bf 66 d4 de 3e 84 f5 8e bf
       -0.3832686 -1.318394 0.43521422 -1.1168675
000050 a5 29 89 bf f1 53 0b 3e 94 3d 88 3f 4b 6d 2d 3f
       -1.0715834 0.1360624 1.0643792 0.6774489
000060 cd bf 2a bf aa 1d 76 bf 2e 9f 3e bf 5f a3 22 be
       -0.66698915 -0.96139014 -0.7446164 -0.15882634
000070 92 f7 be 3f d2 37 b7 3d fe 8a ab be c1 52 38 3c
       1.4919302 0.08946194 -0.3350448 0.011250199
000080 f4 b5 90 bf 92 87 84 3f 46 6e 97 3f 4c b4 99 3d
       -1.1305528 1.0353873 1.1830528 0.07505092
000090 ff 7a c6 be e4 9c d9 be e0 6f 4e bf a2 4c bf bc
       -0.38765714 -0.4250251 -0.8063946 -0.023351971
0000a0 d5 f6 98 bf 93 6e 84 3f 6f 8f e9 3e 9e be 8f 3e
       -1.1950327 1.0346245 0.45617244 0.28075117
0000b0 a5 d6 06 3f 84 fd 3b bf 51 c3 94 3f 88 fb 63 3f
       0.5267127 -0.7343371 1.1622106 0.8905568
0000c0 ef d2 fc 39 d8 46 82 ba e1 cc 63 3b f2 9d 19 3d
       0.00048222343 -0.0009939326 0.0034759569 0.037504144
0000d0 01 1b 4d 3e ca fb 82 3f 4c 01 e3 be e8 7f a7 bf
       0.20029832 1.023309 -0.44336927 -1.3085909
0000e0 f0 03 69 bf ad 30 29 3b e7 42 1b bb 7a ef 8e 3b
       -0.91021633 0.0025816367 -0.0023691 0.004362044
0000f0 02 cf 8b 3e 32 c8 7f 3f 77 04 e3 3e 8f bd 6b bb
       0.27306372 0.9991485 0.44339344 -0.003597114
000100 23 79 3e 3b bf 77 9e bb b4 9c 7e 3d 4d b8 bf 3f
       0.0029063902 -0.004836052 0.062161162 1.4978119
000110 f9 6c 3c bf 2e d4 fd ba 38 20 44 3b 5d 2e d5 bb
       -0.7360378 -0.0019365603 0.002992643 -0.006505771
000120 d6 2d 2f 3d 2a 01 8a 3f 86 b4 90 bd f3 57 66 3f
       0.042768322 1.0781605 -0.07065682 0.8997795
000130 ae eb 01 3e 7b 14 87 3d 90 6d 29 3b 35 99 37 bb
       0.12687561 0.06595703 0.0025852658 -0.0028014902
000140 1e 66 ac 3b d0 ce ea 3e 6c 64 34 bf 04 f8 52 bf
       0.0052611968 0.4586091 -0.7046573 -0.8240969
000150 b7 1f 04 ba fb 9e 0d 3b 8a 34 8e 3b 87 f6 86 3f
       -0.0005040126 0.0021609652 0.0043397592 1.0543984
000160 01 71 5d 3d 70 dc f2 3c 55 f2 83 3b 5d 4f bd bb
       0.054062847 0.029646128 0.004026691 -0.005777283
000170 fd 3e ee 3b 44 f0 b7 3e 4a 52 d0 3e 07 ed 1c 3f
       0.0072706924 0.35925496 0.40687782 0.61299175
000180 8c e8 a4 bf a4 34 ae be c1 73 50 3e 53 0c 9b 3f
       -1.2883468 -0.34024537 0.20356657 1.2113136
000190 c8 0c 40 3e 37 e5 54 be 38 3f 79 3c 45 f5 38 3e
       0.18754876 -0.20790564 0.015212826 0.18062313
0001a0 c4 e3 83 bf 58 36 aa bb bc 88 74 3c c7 b6 1e bc
       -1.0303884 -0.0051944666 0.014925178 -0.009687132
0001b0 53 eb 24 40 5c f1 97 3e e7 66 9b 3d 05 76 bf 3c
       2.576863 0.2967633 0.075879864 0.023371706
0001c0 bc 2f 17 bf 1b a1 3c bf 4a 99 f4 3f 24 c1 87 be
       -0.5905721 -0.7368333 1.910928 -0.26514542
0001d0 ce 57 c0 3b ee de ed 3f 1c 51 05 bf e2 c7 c9 bd
       0.005869842 1.8583658 -0.5207689 -0.09852578
0001e0 14 45 04 3f 26 65 72 bf d3 62 8b bf dd fc 2a 3b
       0.51667905 -0.9468559 -1.0889534 0.002609066
0001f0 d7 df 38 bb ba db a7 3b 48 6b 0a 3a 5a ec 13 bb
       -0.002820959 0.005122629 0.00052802684 -0.0022571296
000200 24 24 81 ba 14 de d6 be e6 0b 20 bf c4 d1 21 bf
       -0.000985269 -0.41966307 -0.62518156 -0.632107
000210 2f 53 c1 3a 0d 20 96 3b 46 b0 4e 3b 37 0d 16 3e
       0.0014749522 0.0045814575 0.0031538173 0.14653479
000220 f3 9e 90 bf 85 45 8b bb 5a 17 9e be 05 c8 22 3f
       -1.1298507 -0.0042502307 -0.3087719 0.63586456
000230 86 c3 45 3e 8c 53 de 3f 3e d9 b5 be 2b f7 33 be
       0.19312868 1.7369246 -0.35517305 -0.17574756
000240 6d 7b 2f 3b 99 ac 5b bb 24 de d3 3b ef ac dc 3d
       0.0026776448 -0.0033519624 0.00646569 0.10775172
000250 53 0e 80 bf 37 a3 47 bd 98 9e 86 be 3e 8a fd be
       -1.0004371 -0.04873964 -0.26292872 -0.49519533
000260 ef 51 e8 bf bf b8 82 3e 6b f5 29 3c 7a 44 59 bf
       -1.8150004 0.25531575 0.010373454 -0.8487011
000270 7c f9 29 3b 5b 1c 43 bb d5 66 b9 3b 74 f4 14 bb
       0.0025936058 -0.002977154 0.0056580105 -0.0022728713
000280 9a a5 bc 39 d7 1b 5f ba 9a eb 12 3e b3 0b b3 3e
       0.00035981537 -0.00085109234 0.14347687 0.34969863
000290 61 7e 67 bf e9 c4 17 3e b6 d6 35 bf a2 c7 0e bf
       -0.90427214 0.14821209 -0.7103075 -0.55773365
0002a0 5b e8 ca ba 06 cc dc 39 9f 25 73 ba f1 c2 31 3b
       -0.0015480624 0.0004211368 -0.00092753203 0.002712425
0002b0 f1 e2 33 bb 64 12 c9 3b fe 69 92 3d 16 fc 5e bf
       -0.00274485 0.0061362255 0.07149123 -0.871034
0002c0 3c 80 57 3e b4 65 13 bf 97 f9 30 3f 1a f8 34 bf
       0.21045011 -0.5757706 0.69130844 -0.7069107

bias f4 [60]
000000 0d 13 77 3f 99 40 67 bf 81 01 b1 3e be 94 b8 bb
       0.96513444 -0.90332943 0.3457146 -0.005632966
000010 8f e5 14 bc ef 31 04 bf 1c 73 d3 be 3d 19 4d 3f
       -0.009087934 -0.5163869 -0.4129876 0.80116636
000020 19 44 63 bf 54 1a 20 bf f2 1c 5c bf 9a 60 a1 3e
       -0.88775784 -0.62540174 -0.8598167 0.31519014
000030 5c 59 66 bf 1a f7 0b be 27 e3 f6 be 8e 4c 07 3f
       -0.899801 -0.1366848 -0.48220178 0.5285119
000040 f5 a0 2d bb d2 59 38 bf 69 c6 4e bf c0 e6 d0 38
       -0.0026493643 -0.72012055 -0.807715 9.9611934e-05
000050 ba 60 30 3f 71 27 0c bb 03 11 0a bf 87 14 0e 3b
       0.68897593 -0.0021385814 -0.5393221 0.0021679716
000060 a8 1d 1d be c0 27 b2 be e6 76 0e ba f7 c3 9f be
       -0.15343344 -0.34795952 -0.00054345874 -0.31204197
000070 08 6f a4 bb c8 fa c4 be d0 40 8d ba 32 c6 df be
       -0.005018119 -0.3847258 -0.0010776762 -0.437059
000080 e0 15 34 bf 0f 41 56 be e3 b2 30 bf 9d 83 41 b9
       -0.7034588 -0.20923255 -0.6902296 -0.00018454944
000090 d7 91 8c 3f f2 21 12 bf 5a e5 dd 3e 46 af 4e bb
       1.0982007 -0.57083046 0.43339044 -0.0031537577
0000a0 7d 76 f9 bd 62 7f d9 b9 e2 87 9b 3b 3b cd 61 bf
       -0.12180803 -0.00041484373 0.004746423 -0.8820378
0000b0 a7 72 b2 bb 14 dd bd ba 85 be 86 be e2 25 96 be
       -0.0054457965 -0.0014485442 -0.2631723 -0.29325777
0000c0 c7 48 bb ba 8a 14 a4 bd f1 3b 4a bf 80 87 bc be
       -0.0014288657 -0.0801173 -0.78997713 -0.36822128
0000d0 30 71 5c ba 44 b6 9a bb c2 64 03 bf a3 df d4 be
       -0.00084092 -0.004721435 -0.5132562 -0.4157687
0000e0 4d 37 ba bb 8c d6 9a ba 32 87 e8 be 11 c1 79 bf
       -0.005682862 -0.0011813208 -0.45415646 -0.9756022

weight f4 [60, 60]
000000 71 6f 0a bc 98 bb 1b 3c f8 f4 0f 3b ee ea ea ba
       -0.008449421 0.009505175 0.002196608 -0.0017922798
000010 36 20 1b 3c e0 49 e1 bb ce 02 31 ba 1b 14 c7 bb
       0.009468129 -0.0068752617 -0.0006752432 -0.006075395
000020 87 3c d9 bb 7b b9 0c 38 43 18 03 ba 4a 07 0c 3b
       -0.00662953 3.3551343e-05 -0.00050008687 0.002136665
000030 bc 2c fa ba 8e 20 40 3a c5 07 5f bc ca 89 94 3b
       -0.0019086818 0.000732907 -0.013612692 0.0045330273
000040 c2 b5 04 ba e4 a6 c5 bc f0 bf 39 bc b7 21 71 ba
       -0.00050624844 -0.024127431 -0.011337265 -0.00091984443
000050 d0 59 85 bb 7d 29 54 3a 39 44 16 3b c7 db 03 3a
       -0.0040695444 0.00080933404 0.0022928847 0.0005030003
000060 9a 00 77 3a 30 8b f0 bb 96 85 7c ba aa a0 03 3b
       0.0009422392 -0.007340811 -0.0009632943 0.0020084777
000070 ad 2b fc b8 14 17 10 bc ce 12 bd ba 5b e1 5f bc
       -0.000120244316 -0.008794565 -0.001442516 -0.013664569
000080 1e cd 42 3a bb 81 b4 3a b8 59 05 bb e2 1b 4c 3a
       0.00074310775 0.0013771573 -0.0020347666 0.0007786137
000090 fd a9 00 3c 8e 8a b9 bb c0 f0 74 3b 9c 6d d2 3a
       0.007853028 -0.005662269 0.0037374943 0.0016054395
0000a0 8e 10 54 bb df e1 76 ba d7 54 47 3a 2a fe 0b bb
       -0.00323585 -0.00094178127 0.00076038897 -0.002136121
0000b0 b4 4b 79 ba ca f0 33 bb 4e 58 79 3b 97 7e 94 bb
       -0.0009509877 -0.0027456754 0.0038047018 -0.0045316922
0000c0 07 46 92 ba db be 7a ba 11 c6 e0 bb 1f 14 a8 bb
       -0.0011159786 -0.0009565183 -0.006859549 -0.0051293517
0000d0 9e 7d 82 ba 05 98 aa 39 22 cd 27 bb 1d 8b 12 bb
       -0.000995565 0.0003253819 -0.0025604446 -0.002236075
0000e0 3c cc 78 b7 20 49 8d ba 8b 49 04 bb 82 12 1a 3c
       -1.4829504e-05 -0.0010779239 -0.0020185437 0.009403827
0000f0 b8 72 4d 3e a7 a2 22 bd 8f d4 e5 bd 5a a0 29 3a
       0.20063293 -0.0397059 -0.11222183 0.00064707326
000100 23 52 82 be 52 71 7b 3b 25 d4 18 bd 66 0a 20 3e
       -0.2545329 0.0038367105 -0.03731169 0.15628967
000110 e0 cc 17 be dc b5 93 bc b4 49 85 bd fe 76 4e 3e
       -0.14824247 -0.018031053 -0.065081984 0.2016258
000120 d9 92 90 bd a8 a7 9d 3e 02 7f 89 bd 7a ad 65 be
       -0.07059259 0.30791974 -0.06713678 -0.22429457
000130 c0 35 4c 3b df 68 86 3d df 40 d0 bd 17 75 af ba
       0.0031159967 0.06562971 -0.10168623 -0.0013386336
000140 38 11 1b 3e 8e 3e 0a 3b a4 55 9d 3e 16 65 1a bc
       0.15143287 0.0021094414 0.307294 -0.009423515
000150 8b 3d 86 3d 59 59 e3 bd 5c a4 83 3a b2 5b 7b bc
       0.06554707 -0.11101026 0.001004349 -0.015341686
000160 47 05 b1 3b 24 f3 19 be 56 68 c7 3a f6 36 91 bd
       0.0054022404 -0.15034157 0.001521359 -0.07090561
000170 fd 90 a7 be 1d 97 c6 bd 71 ca 91 3d 5e 7c fe bb
       -0.32727805 -0.09696791 0.07118691 -0.0077662906
000180 11 8b fe bb 37 26 e4 bc 90 7f 4b be 77 e7 82 be
       -0.007768043 -0.027850254 -0.1987288 -0.2556722
000190 f0 66 c5 bc d6 14 4c 3a 7d 31 37 bc 3c 65 73 bd
       -0.024096936 0.0007785087 -0.0111812325 -0.059422716
0001a0 1e 32 53 3b 54 ec e0 3b 80 7e 04 be 0f ac 8c be
       0.0032225917 0.00686411 -0.12938881 -0.2747502
0001b0 7b 29 5b 3b 69 5f 68 bc bd ce 56 be 3f ea b7 3d
       0.0033441472 -0.014182904 -0.20977302 0.08980226
0001c0 4c 8e f0 3a d2 f4 27 3c ae b8 02 3e bf a0 20 bd
       0.0018352955 0.010251241 0.12765762 -0.0392158
0001d0 69 fb 53 3c d3 c9 11 3b 01 c5 0e 3d 0f 41 72 bd
       0.012938359 0.002224554 0.034855846 -0.059144076
0001e0 0b 55 68 bd 00 00 96 be 49 3c bb 3d a2 19 dd bb
       -0.05672173 -0.29296875 0.09142358 -0.0067474404
0001f0 0c d6 10 3e 87 39 40 be 1c b1 52 be dc 08 c9 bd
       0.14144152 -0.18771945 -0.20575374 -0.09816143
000200 cd da 97 3d 32 84 1f bf 5c d4 26 be b0 47 b5 be
       0.0741478 -0.6231109 -0.16291946 -0.35406256
000210 c4 39 7a bd 91 36 83 bd 93 6d eb bd 57 73 34 3e
       -0.061090246 -0.06406892 -0.11495509 0.17622124
000220 23 96 00 3c 21 45 82 3d b3 f1 84 3d 19 7f 6e 3c
       0.007848295 0.063608415 0.06491413 0.01455667
000230 dd 33 2d be 78 6f 70 bc 42 7e de bd 39 a8 c2 bc
       -0.16914316 -0.014675014 -0.108639255 -0.023761855
000240 56 dc b4 be 36 91 eb bd 0b 71 8e 3c c2 c3 01 be
       -0.35324353 -0.11502306 0.017387887 -0.12672332
000250 4e c0 de 3b 6d 3e 9b bd 76 cd 9b 3c 14 ee bd bd
       0.006797827 -0.07580266 0.01901887 -0.092739254
000260 16 a9 c3 3e 47 7b a7 bd 2d 19 1b be a0 24 b9 bc
       0.3821494 -0.0817781 -0.15146323 -0.022600472
000270 50 c8 fb be ab f0 13 bd fa b2 09 be 2a c5 d9 bc
       -0.49176264 -0.03611819 -0.1344718 -0.026583273
000280 a4 0f dd bd db d7 8b 3c 28 23 9c 3b 40 d0 a0 3b
       -0.10793999 0.017070701 0.004764933 0.004907638
000290 c6 0b 8a b9 a5 3e 97 be ea 1f 40 bd 2c f9 06 bd
       -0.00026330183 -0.2953998 -0.046905436 -0.032952473
0002a0 d1 17 ab 3c 29 88 5d be 7a 05 57 be 87 bf d8 bd
       0.02088538 -0.21633972 -0.20998183 -0.10583406
0002b0 4d 42 98 3c 67 b2 e7 bb 86 34 e5 bd fb 36 31 bd
       0.018586302 -0.0070708278 -0.11191659 -0.043265324
0002c0 27 e7 2e bc 89 a9 9c 3c 1e 0b 82 be f2 7e 75 be
       -0.010675228 0.01912381 -0.25399107 -0.23974207
0002d0 ef ac a5 3e ca 7e 8a be 25 aa e4 bb 58 97 4d bc
       0.323585 -0.27049857 -0.0069782906 -0.01254829
0002e0 34 f8 7b be c7 a3 10 3e 1a 94 39 3e f9 33 72 3e
       -0.246064 0.14124976 0.18122903 0.23652638
0002f0 f0 17 c8 be 2f ae 83 3b c2 5c 65 be 92 d8 b9 3c
       -0.39080763 0.004018567 -0.22398666 0.022686277
000300 9b 42 fd bd 6d 16 2c 3e b7 21 71 bd 46 05 af be
       -0.123662196 0.1680543 -0.058870044 -0.3418371
000310 44 f0 6d 3b 94 4a 89 3d 9f 71 82 be b2 c9 67 ba
       0.003630654 0.06703678 -0.2547731 -0.00088420056
000320 5b cc 08 3e 3f 5b b7 bb 82 52 ca bd 71 d8 6e bb
       0.13359205 -0.005595594 -0.09879018 -0.0036444927
000330 f4 04 ce bc 4b c1 11 be 48 4a af 39 7c 09 14 3e
       -0.025148846 -0.14233892 0.00033433945 0.14456743
000340 9e 99 c8 bb 05 47 37 be 37 ab 5d 3b 79 41 e1 bc
       -0.006121828 -0.17898186 0.0033823976 -0.02749704
000350 7b eb 0f bf 51 22 3d be 65 e3 9e 3c f2 0c 8e bc
       -0.5621869 -0.18470122 0.01939554 -0.017340157
000360 35 0c 4a bf b6 09 1d 3d 34 69 0c bf 01 7d 02 bf
       -0.78924876 0.03833934 -0.5484803 -0.5097199
000370 44 77 6a 3e 4d 67 72 39 66 22 8a bb bb 6a fb bd
       0.22897059 0.00023117401 -0.0042155264 -0.122762166
000380 6a 95 10 bc b5 e4 ac bc 1f 14 01 be ea 99 bd be
       -0.008824686 -0.02110515 -0.12605332 -0.3703149
000390 0a f0 aa 3a 38 6d 50 bd 10 0c 4b be 35 bd c2 3d
       0.0013041508 -0.05088541 -0.1982882 0.095087446
0003a0 85 12 31 3a 76 68 58 b8 18 bd 07 3d 55 cb 01 3d
       0.0006754774 -5.15957e-05 0.03313932 0.031688053
0003b0 12 80 22 3b 2e b3 e5 b9 92 11 36 3d 4f 44 d1 be
       0.0024795574 -0.00043811783 0.04445035 -0.40872428
0003c0 d4 af fd be 91 32 c0 bd 66 69 58 be 3c b6 ff ba
       -0.4954821 -0.09384645 -0.21133956 -0.0019509266
0003d0 01 3f 93 bd 62 9b 8a 3e db 6f 37 3e ed 09 ed be
       -0.071897514 0.27071673 0.17913763 -0.46296635
0003e0 ae c7 d5 3e 09 74 92 be ac ee 70 3e f9 70 79 3d
       0.41753906 -0.28604153 0.23528546 0.060898755
0003f0 1c 41 86 3e 2e 51 dc bd eb 3e bb 3d 40 95 85 be
       0.2622155 -0.10757671 0.0914286 -0.2609043

bias f4 [60]
000000 c6 31 15 bc 01 05 23 3c b2 12 95 3e e4 e0 bb 3c
       -0.009106105 0.0099499235 0.29115826 0.022934385
000010 68 14 60 be e3 65 f1 bb ad 5b c8 bf 70 32 f6 b9
       -0.21882784 -0.007366882 -1.5652977 -0.00046958355
000020 d1 26 8f ba a1 da 9e be 1b 9c e8 bd 53 80 f7 bb
       -0.0010921602 -0.31026176 -0.113579 -0.0075531392
000030 ec e2 4c be d6 d7 f7 bd 7d e7 2b bb f0 ff 0c bb
       -0.20008439 -0.12101714 -0.0026230507 -0.0021514855
000040 13 5b 17 bc 3b d4 c9 bd b1 5e 0a bc 3f 39 94 be
       -0.009238022 -0.09854933 -0.008445428 -0.28949925
000050 c3 e7 c3 bb 55 88 db bb 43 3d de be ac f2 0e 3f
       -0.005978556 -0.0066996017 -0.43406114 0.5583904
000060 98 ca 9c be d3 44 7e bd 7a 97 8c bb 73 7e 99 be
       -0.30623317 -0.062077355 -0.0042905184 -0.29979286
000070 61 41 a4 bb 2c 77 de 3e eb 6e 35 3b 46 5a 8c be
       -0.0050126766 0.43450296 0.002768452 -0.27412623
000080 08 c7 24 bb 6f 80 97 be f1 94 ce 3c ac 02 e5 bb
       -0.0025143046 -0.29590175 0.025217505 -0.006988844
000090 1e da 14 bc 94 ba 8e ba 7b 9f b2 3b 40 11 8e be
       -0.009085206 -0.0010889345 0.0054511405 -0.27747536
0000a0 18 a6 d6 bb b7 6e 15 bc a2 b3 7a bf d5 f9 fb bb
       -0.0065505616 -0.009120635 -0.9793035 -0.0076896944
0000b0 88 86 24 be 2b 43 91 be 44 2d 98 be 25 07 31 bc
       -0.16066945 -0.28371558 -0.29722035 -0.010804926
0000c0 8f 1a 74 3d 45 e2 d9 3e 7d 60 b5 3e 0d 18 99 be
       0.05959564 0.42555442 0.35425177 -0.29901162
0000d0 57 0d 33 bc 6e c6 36 bc b5 87 89 3c d5 44 9e 3c
       -0.010928473 -0.011155708 0.016788343 0.019319931
0000e0 57 52 9b be 5a 67 2e be 04 d1 94 be 6c 4b 03 bc
       -0.30336258 -0.17031613 -0.29065716 -0.008013587

weight f4 [60, 60]
000000 56 78 94 3b 87 f4 ea bc 4f 76 ac 3c 68 00 10 3c
       0.0045309467 -0.028681053 0.021052508 0.008789159
000010 35 c9 37 3d f5 70 17 be d8 8a 00 bd 28 bc 14 3c
       0.04486962 -0.14789183 -0.03138241 0.009078063
000020 24 77 b4 bb e6 75 59 3c 34 52 97 b7 e5 bb 50 bb
       -0.0055073667 0.013272738 -1.8038882e-05 -0.0031850275
000030 c1 4b 01 3c ca 8c 22 bd 65 26 c7 bb 2d 2c 6b bb
       0.007891596 -0.03968505 -0.006077575 -0.0035884485
000040 a8 68 2d 3a 12 11 28 bc d8 60 19 3a 33 8c 4f 3c
       0.0006615021 -0.010257976 0.00058509177 0.012667703
000050 a9 98 89 3a 28 38 09 3b bd 54 85 bb a4 09 ab bc
       0.0010497767 0.0020938013 -0.0040689395 -0.02087862
000060 ba e0 57 3c 0e 4c f3 bd c9 2c c8 bb 7c 47 55 3c
       0.013176138 -0.11879741 -0.0061088544 0.0130175315
000070 c0 f6 2a 3b b0 a7 ad ba b6 5c 9b bb 1b 15 b6 3b
       0.0026087016 -0.0013248827 -0.0047412766 0.005556715
000080 98 25 5d bb b0 73 53 3c 08 c5 c2 bc b8 ae 8a 3b
       -0.0033744331 0.012906 -0.023775592 0.004232254
000090 36 bd 2f bb 6e af 91 b9 8e ec 7b 3c af d8 49 3c
       -0.002681566 -0.0002778726 0.015376223 0.012319728
0000a0 b9 1e 81 bb 8c b9 2c bb ac ca db bc 38 c4 5f bb
       -0.00394043 -0.0026355712 -0.02683004 -0.0034144055
0000b0 be 1b d5 bc 14 ac 4d 3c 90 a2 53 3c db 70 f2 39
       -0.026014205 0.012553234 0.012917176 0.0004624192
0000c0 cc e7 6f bb 0d 9c 84 3c 1e 1d 20 bd a1 be 54 3c
       -0.0036606668 0.016187692 -0.03909027 0.012984903
0000d0 5a 86 42 ba ea 93 aa 39 d3 12 9d 3b 42 e6 e8 bc
       -0.00074205326 0.0003253513 0.004793504 -0.028430108
0000e0 25 3b 52 3c aa c1 a4 bd 2f 45 51 3c 4b 49 3f bb
       0.012831484 -0.08044751 0.012772842 -0.0029187973
0000f0 66 c2 9b 3b 8b c2 f2 be 89 36 3b bd c2 2a fe be
       0.0047533987 -0.4741405 -0.045706306 -0.49641997
000100 58 db 2d bf 8e 9a 75 3e 08 77 99 bf 0c 57 1f 3c
       -0.67912817 0.23984739 -1.198945 0.009725343
000110 e9 5c 98 bb 56 e4 23 be b2 de 0d be 81 9e 03 3a
       -0.0046497476 -0.16005072 -0.13854483 0.00050208723
000120 84 b4 20 be 7f 9c 04 bf 51 93 a9 bb f8 66 be bb
       -0.15693861 -0.51801294 -0.005175032 -0.0058106147
000130 26 91 b2 3a a6 40 4a bf e2 47 49 bb bf 24 22 be
       0.001362358 -0.79004896 -0.0030713012 -0.1583433
000140 94 39 8a 3b a6 af 49 3b 0f 27 48 bf c3 8d cc bf
       0.0042182896 0.003077486 -0.781846 -1.5980762
000150 fb 19 1d be bd 58 bb be 7f ec 3d bb e7 e5 22 be
       -0.15341942 -0.3659114 -0.0028980074 -0.15908013
000160 ac ef ef 3b 8f 4d e9 be d2 ad 9a ba 7f 63 de be
       0.0073222723 -0.45566985 -0.001180107 -0.43435284
000170 f3 c3 1d bc ca 89 24 be 69 dd d9 bd 37 3e ae ba
       -0.009629237 -0.16068187 -0.10637934 -0.0013293688
000180 75 1f 43 3b 19 74 6d 3b ba 5c d0 3b fb 3f 27 be
       0.0029773389 0.003623253 0.00635871 -0.16333
000190 a5 0d 8b 3b 88 ed e6 3a 77 b7 40 bf 9a bd cd b9
       0.00424357 0.0017618397 -0.75279945 -0.0003924191
0001a0 e3 f2 8f 3e e9 19 24 be 5f d1 23 be e0 94 19 3b
       0.28114995 -0.16025509 -0.15997837 0.0023434684
0001b0 d9 00 17 be 4b 61 a2 bf d0 fe d1 be a3 05 23 be
       -0.14746417 -1.2685941 -0.4101472 -0.15920119
0001c0 73 ee 95 3a 5c 49 6c 3b 89 28 ea be 4e 4d 29 bd
       0.0011438861 0.0036054468 -0.4573405 -0.04133349
0001d0 28 43 ad 3e 59 72 a2 3e 9a 14 24 be 56 a3 74 3b
       0.338403 0.31727865 -0.16023484 0.00373288
0001e0 ad 1e fc 39 5c a8 d5 bc 65 fe 8b be a4 cd 7b bd
       0.0004808804 -0.026081257 -0.27342525 -0.06147541
0001f0 87 00 34 bd e5 30 a3 bd 67 35 e4 3b ea a3 c7 3c
       -0.043945815 -0.0796831 0.006964374 0.024370153
000200 75 e9 a7 3c e9 d8 03 3c d4 57 11 bd f9 fd 7a bb
       0.020497063 0.008047321 -0.03548415 -0.0038298352
000210 ed 78 85 3b 10 f5 58 be c0 65 36 3c f8 7b 81 bb
       0.0040732534 -0.21187234 0.0111326575 -0.003951546
000220 e3 bc 32 bb de a6 86 be 98 85 db 3c ff 95 f0 3b
       -0.002727323 -0.26299185 0.0267971 0.0073420997
000230 c1 8e 91 3b 84 16 6c bb 37 5c 3b 3e c9 40 e5 3d
       0.0044420664 -0.0036024163 0.18296896 0.111939974
000240 da 94 02 3c 87 3c 8b 3d 04 9c 39 bb 0c ff fb 3b
       0.007970059 0.06798654 -0.0028321752 0.007690316
000250 36 07 a0 3c dd b0 20 3e 04 d5 38 3c f1 e4 a9 bd
       0.019534688 0.15692468 0.011281256 -0.0829562
000260 d6 85 af bc 3c 96 f7 3b 47 fb 94 3c 94 5d 8c bc
       -0.021426123 0.007555751 0.018186225 -0.017134465
000270 2a 7d ce bb f6 77 e5 3b 4e c5 b4 3c ef 25 df 3b
       -0.006301542 0.007002826 0.022066738 0.006809942
000280 9d 08 24 bb 95 01 b0 bb f9 10 96 be 39 50 93 bb
       -0.0025029548 -0.0053712823 -0.29309824 -0.0044956473
000290 28 10 a7 3e 3e 1f e3 3b 6b 8c f9 3b ef fb f6 3b
       0.32629514 0.0069312146 0.007615616 0.007537357
0002a0 54 19 03 3d 43 e8 4d be b5 b8 b1 bd 17 b1 f8 3b
       0.032006577 -0.20108132 -0.08677808 0.00758947
0002b0 1b 71 7d bb 88 36 32 ba 62 8e ca be e2 cb 93 3d
       -0.0038672152 -0.0006798287 -0.39561754 0.07216622
0002c0 4b 6c 67 3e 09 5b 24 be be 2a ed 3b 39 52 01 b9
       0.22599904 -0.16050352 0.0072377613 -0.00012333029
0002d0 8e 0e d6 38 00 03 98 bb 88 64 db 3c 9b 8f c8 3b
       0.00010207026 -0.0046390295 0.026781335 0.0061206347
0002e0 03 b1 34 bd f2 2a 81 3c 59 90 33 bc 5b 59 8a bb
       -0.044114124 0.015767548 -0.010959708 -0.004222078
0002f0 81 69 0d bb 29 84 38 ba 12 67 39 bb bf 95 1f 3b
       -0.0021577778 -0.00070387364 -0.0028290194 0.002435073
000300 3f 21 da 39 ca 60 c8 bd 9b 7b 69 ba 28 26 d3 3b
       0.0004160497 -0.09784086 -0.0008906663 0.0064437576
000310 5c 31 5c 3b 60 52 cb 3b 00 10 58 bb a7 14 16 ba
       0.0033598756 0.006204888 -0.003296852 -0.00057251233
000320 96 37 2b bb f9 06 28 3b f3 aa 2e be af 13 b0 3c
       -0.002612566 0.0025638922 -0.170574 0.02149376
000330 66 48 31 ba 88 70 ef bc 4b b9 27 3b 71 9e 27 ba
       -0.00067628024 -0.029228464 0.002559262 -0.0006394154
000340 bd 9f 08 bb 59 90 0e 3c 74 63 99 bb 92 ee 00 bd
       -0.0020847165 0.008701407 -0.004681045 -0.03147752
000350 47 2c 03 3c df 64 27 ba e8 93 f4 3c 2b 61 c7 3b
       0.008006162 -0.00063855754 0.029855683 0.0060845814
000360 74 8c 89 3b f9 30 a0 b8 52 0a 25 bc e6 ee 03 ba
       0.0041976515 -7.6385164e-05 -0.010073261 -0.0005032852
000370 7f a0 4d 3b 95 e6 5b 3b 6b 92 3d bb 8a 1d 53 3b
       0.003137618 0.0033554186 -0.0028926383 0.0032213652
000380 6e 54 a5 3c 9e 29 0b ba f6 c7 2b ba 97 23 5d 39
       0.02018186 -0.00053086306 -0.0006552929 0.0002108946
000390 e8 aa a8 b9 67 cd da bc 65 73 d2 bc d6 3b 28 ba
       -0.00032170792 -0.026709272 -0.02568979 -0.00064176077
0003a0 cb 4a 96 3b d6 70 40 3b 14 b6 d1 bc d2 89 76 3c
       0.0045865527 0.002936413 -0.025599517 0.015047507
0003b0 75 df d7 bb 39 c9 51 39 ae 5d 21 ba 5d ab f6 3a
       -0.0065879175 0.00020006754 -0.0006155622 0.0018819381
0003c0 89 ed f7 3b 6f b5 0f 3d ba 46 7e bd 17 c3 43 bd
       0.007566158 0.035085138 -0.06207917 -0.047793474
0003d0 f0 9a 5f bd af bf bc 3e 3b 7b dc be a6 08 67 ba
       -0.05459112 0.36864993 -0.43062767 -0.00088132394
0003e0 d7 f2 a2 bb 2b 5d 23 3c 58 63 84 3d af fb c0 ba
       -0.0049727964 0.009970943 0.06464261 -0.0014723445
0003f0 ab 73 0d 3c 06 0a 00 3d 0d e5 4b b9 88 1c ca 3b
       0.008633534 0.03125956 -0.00019444917 0.006167952

bias f4 [60]
000000 8e 4e d8 bd ee 90 1e 3f f0 f4 13 bd f7 07 ba bb
       -0.10561858 0.61939895 -0.036122262 -0.005677219
000010 d2 d4 e6 bd 1b cb b9 bb c5 c4 79 b8 37 e0 b9 bb
       -0.11271061 -0.005669964 -5.9549482e-05 -0.0056724804
000020 ef 6e 00 3f f5 68 4e be b6 4b 2a be e4 87 2d 3b
       0.5016927 -0.20157225 -0.16630444 0.0026478702
000030 c5 2a 68 bb 31 2b ba bb bc 39 d3 bb f3 71 cd bb
       -0.0035425883 -0.0056814183 -0.0064460915 -0.0062696873
000040 c4 9e 44 3f a3 b3 be bb 90 54 07 be ab 7e 85 bd
       0.7680476 -0.005819754 -0.13215852 -0.065183006
000050 7c eb 12 bf 9a de b9 bb 22 a4 c0 bb 2e 48 9f 3d
       -0.5739057 -0.005672288 -0.005878941 0.07777439
000060 47 e6 07 be da 47 2a 3f 44 89 05 bd 7c e0 ba bb
       -0.13271438 0.66515887 -0.03260161 -0.00570303
000070 d1 be c4 3e 39 e4 73 be 9f c9 aa be 2a 61 bf bb
       0.3842683 -0.23817529 -0.3335695 -0.0058404403
000080 70 07 ba bb a7 86 ac bb a3 7b ee bd 2d b6 13 bd
       -0.005677156 -0.0052650752 -0.116446756 -0.03606241
000090 8d bd 4e bb cd a6 bc bb 5c 45 29 bd d8 74 b1 bc
       -0.0031546087 -0.005757189 -0.041325912 -0.02166216
0000a0 83 97 d4 3e f0 7b 9f be 0f a6 2b be b1 c4 64 be
       0.41521844 -0.31149244 -0.16762565 -0.22340657
0000b0 e6 66 bf bb 2b a1 0a 3f 54 61 3e 3e c3 28 14 bd
       -0.005841124 0.5415217 0.18591815 -0.036171686
0000c0 1c f6 9d bb 8f 30 b9 bb b7 80 52 3e 25 44 c3 bb
       -0.0048205983 -0.0056515406 0.20556913 -0.005959051
0000d0 47 fa 8c 3b c9 3a b9 bb d3 7f ec bd ec 07 ba bb
       0.0043022963 -0.0056527597 -0.11547818 -0.005677214
0000e0 56 ec a9 be 02 df b9 bb 4e 23 0c 3f f0 5a 67 3f
       -0.33188123 -0.0056723366 0.5474137 0.90373135

weight f4 [60, 60]
000000 a9 e6 25 bb e9 e8 84 3b 47 28 63 ba 4b df 20 ba
       -0.0025314486 0.0040560854 -0.00086653646 -0.0006136789
000010 e5 df 87 bb 49 ef 22 ba 14 f9 70 39 63 c6 22 ba
       -0.0041465634 -0.0006215466 0.00022980972 -0.00062093715
000020 ef 59 4c 3b 37 d1 e7 bb d4 cd 60 bc 60 81 85 39
       0.0031181534 -0.007074501 -0.013720948 0.0002546413
000030 03 2d e2 b9 15 15 20 ba 47 ab 17 ba 16 66 1b ba
       -0.00043139615 -0.0006106657 -0.0005785715 -0.0005927993
000040 29 e1 b9 bb f8 9c 22 ba 95 98 b5 bb 60 0b 4f bc
       -0.005672593 -0.00062032 -0.005541871 -0.012636989
000050 06 b7 ef bb 62 78 21 ba 08 ac 21 ba db 41 a9 bc
       -0.0073155193 -0.0006159601 -0.0006167297 -0.020661285
000060 5c ba f9 ba 76 fa 71 bc 00 c7 c0 bb 2d 00 22 ba
       -0.0019052732 -0.014769187 -0.0058830976 -0.0006179836
000070 46 73 48 bc be 94 fb bb 07 fc 8e bb 32 a9 22 ba
       -0.012234515 -0.0076776436 -0.00436354 -0.00062050216
000080 66 78 21 ba 14 56 1d ba 10 4f 95 3b 0d a1 71 bc
       -0.00061596034 -0.00060019013 0.004556544 -0.01474787
000090 62 51 e0 ba 6b d2 21 ba 57 46 3e bc a7 0b a7 3a
       -0.0017114098 -0.00061730173 -0.01161345 0.0012744562
0000a0 76 d0 1e 3b 6c 57 b0 3a 21 ba 36 3b 91 86 c8 3b
       0.002423314 0.0013453788 0.0027881938 0.006119557
0000b0 84 5b 22 ba bb 8e 57 3c 70 7e 62 bb cd d8 24 bb
       -0.00061934465 0.013156588 -0.0034560226 -0.0025153637
0000c0 6c 7b fb b9 80 ac 21 ba ed 75 00 bc 9a 2b f6 b9
       -0.00047966407 -0.0006167367 -0.007840616 -0.00046953262
0000d0 ad 87 e5 bb 64 4c 20 ba 72 a9 69 bc e4 fe 20 ba
       -0.007004699 -0.0006114899 -0.01426159 -0.0006141497
0000e0 fa 8c 88 3c a2 2f 22 ba 13 85 14 bc 39 00 0f 3c
       0.016668785 -0.00061869074 -0.0090649305 0.00872808
0000f0 88 43 39 bd d3 08 22 bf 2e 9d 3b 3e 51 ae 14 bc
       -0.04523042 -0.63294715 0.18321678 -0.009074763
000100 5b 2c 47 be 06 e1 14 bc d4 a9 82 bc 7e 02 15 bc
       -0.19450514 -0.009086853 -0.015950121 -0.009094832
000110 10 55 fa 3e 0e d5 b2 bd fb 58 f0 be 44 a0 9b bc
       0.48893023 -0.08732043 -0.46942887 -0.018997319
000120 22 64 3d bc c9 cb 14 bc 98 0b 0e bc fd 73 0d bc
       -0.011559518 -0.009081789 -0.008669756 -0.008633611
000130 39 10 3c bf e5 cc 12 bc 2d 57 4d bf 46 02 0b 3f
       -0.73462254 -0.0089599835 -0.80211145 0.54300344
000140 b0 21 99 bf 18 e0 14 bc f2 d0 11 bc e2 0b 85 3e
       -1.1963406 -0.009086631 -0.008899914 0.25985628
000150 71 3f c8 bd 0d f7 8e bf 02 5f 34 be b0 56 14 bc
       -0.097777255 -1.1169144 -0.17614368 -0.009053871
000160 4c 7b 98 3e ad ae 10 be e8 82 81 bc 71 48 12 bc
       0.29781568 -0.14129134 -0.015809491 -0.008928404
000170 16 cd 14 bc 5f c7 1b bc 4f 06 11 bf 27 fc 1e be
       -0.009082099 -0.009507983 -0.5665025 -0.15525876
000180 8d 20 05 ba ea 95 13 bc 12 b6 44 be 4b 84 17 bc
       -0.0005078398 -0.00900791 -0.1921008 -0.00924785
000190 1b 47 6b bf 7b 94 90 be 5b f0 86 3e 24 2c f0 bd
       -0.91905373 -0.28238282 0.26355252 -0.11727169
0001a0 28 78 12 bc 77 7b b3 be 28 43 d3 bd 83 c6 45 bc
       -0.00893978 -0.35055134 -0.103155434 -0.012071255
0001b0 fe 9f 2b bc cd 4f 15 bc 87 58 83 be db f5 18 bc
       -0.010475157 -0.009113264 -0.25653479 -0.00933596
0001c0 e8 84 c8 be e5 49 15 bc 64 f3 cf 3d 62 cb 14 bc
       -0.391639 -0.009111856 0.10153845 -0.009081693
0001d0 c2 0a b2 be 94 e5 14 bc 8b 32 53 3e 2c d4 4f bf
       -0.34773833 -0.009087939 0.2062475 -0.81183124
0001e0 b7 61 07 3b 49 df b4 3b 83 32 2d 3b 50 d2 c2 b8
       0.0020657608 0.0055197817 0.0026427812 -9.2898146e-05
0001f0 8e 1a 3f 3a ee a2 ba b8 d1 0b c1 3a 75 07 b3 b8
       0.0007290029 -8.899519e-05 0.0014728253 -8.536774e-05
000200 10 d2 8f bb e6 65 a1 ba 32 62 48 3b ce 46 f3 3a
       -0.004389055 -0.0012313693 0.0030576107 0.001856053
000210 81 d6 37 3a 77 d2 b2 b8 18 69 9b b9 a0 10 91 b9
       0.00070128596 -8.5269035e-05 -0.00029642205 -0.00027668942
000220 d0 d5 a2 b9 d6 6a 12 b9 ad f5 a7 b9 f0 77 c3 39
       -0.0003105835 -0.00013963445 -0.00032035765 0.0003728266
000230 09 92 21 bc 3c 8c b9 b8 0b 84 26 b9 79 84 df 3b
       -0.009861478 -8.847608e-05 -0.00015880183 0.006821212
000240 d9 2f 26 3b d7 68 94 ba e3 0d b5 3a 84 16 cc b8
       0.002535811 -0.0011322749 0.0013813343 -9.731672e-05
000250 5b 3f 79 3c 50 fa 70 3b 07 c4 db ba 9e 6a 1c b9
       0.015212859 0.0036770292 -0.0016766795 -0.00014917037
000260 aa 2b bb b8 48 d8 96 38 6d ad 16 bc c3 6b 3a 3b
       -8.924988e-05 7.192843e-05 -0.009196621 0.0028445579
000270 eb d9 80 bb 6d 7b ef b8 f3 d2 d1 bb 81 8e 81 bb
       -0.003932228 -0.00011419398 -0.006403321 -0.0039537554
000280 ae 89 9f 39 7b b9 92 ba 1b f7 dc ba eb 09 80 3b
       0.00030429423 -0.0011194194 -0.0016858311 0.0039074323
000290 e2 53 19 b9 56 a6 e3 3a 30 51 e8 ba 87 ca 5d bb
       -0.00014622466 0.0017368298 -0.0017724391 -0.003384264
0002a0 33 71 b0 39 f9 3f 9a b8 1b cf e7 3b 96 9f 20 b8
       0.00033653676 -7.355208e-05 0.0070742494 -3.82956e-05
0002b0 b5 ab b8 b9 b9 56 a3 b8 79 00 14 bb ed 53 b8 b8
       -0.00035223147 -7.788599e-05 -0.002258329 -8.789436e-05
0002c0 81 d8 57 3c a0 2b b9 b8 4a 20 20 3c 25 c6 0a bb
       0.013174177 -8.829613e-05 0.009773323 -0.0021175232
0002d0 2e dc 17 3d ec a1 b8 3c 2c 63 c3 bc d9 59 b8 3c
       0.037075214 0.022538148 -0.023851 0.02250378
0002e0 da 6c 6a 3d c7 71 b8 3c 18 72 da 3c 36 78 b8 3c
       0.057232715 0.02251519 0.026665732 0.022518259
0002f0 55 15 84 bd 17 56 c9 3c bc 92 ad 3b 9f c5 df 3c
       -0.06449381 0.024577184 0.005297033 0.027315913
000300 1f 9c c5 3c 2a 70 b8 3c b5 0e b6 3c a3 01 b6 3c
       0.024122296 0.022514421 0.02222381 0.022217577
000310 cb 1e 98 bd 09 b7 b7 3c 3e 5e 3d bd 6a eb 28 3a
       -0.07427748 0.022426145 -0.046232454 0.0006443771
000320 d0 f1 7d 3c d4 77 b8 3c 16 60 b7 3c ae 57 b9 3b
       0.015499547 0.022518076 0.022384685 0.005656204
000330 b4 52 5f 3d fd 80 2f bd 82 24 4d 3d 32 4a b8 3c
       0.05452223 -0.042847622 0.050083645 0.022496317
000340 5a 2e 75 3b 79 ed 58 3d b6 dd 2c 3c cb 82 b7 3c
       0.003741166 0.052960847 0.010550907 0.022401234
000350 66 6f b8 3c de f9 ba 3c 35 a5 18 3d d2 f8 d1 3c
       0.022514056 0.022824224 0.03726693 0.025631342
000360 b4 d1 1f bb 46 f9 b7 3c 54 92 b7 3c 95 a8 8a 3c
       -0.0024386467 0.02245773 0.022408642 0.01692609
000370 4a c8 8d 3c 95 14 e9 bc 9f dd c5 bd c9 cf 78 3c
       0.01730742 -0.028452197 -0.096614115 0.015186259
000380 26 9e b7 3c 11 de f2 3a 69 43 ca 3b 82 94 77 ba
       0.022414278 0.0018529316 0.0061725867 -0.00094444316
000390 01 57 c0 3c 92 a3 b8 3c 50 84 67 3c 3d 80 bc 3c
       0.023478987 0.022538934 0.014130667 0.023010368
0003a0 a8 16 2d 3d 93 94 b8 3c 16 12 d0 bc ad 77 b8 3c
       0.042257935 0.022531783 -0.025399249 0.022518003
0003b0 9e 8d 7c bd b4 68 b8 3c 33 49 79 bd b7 f2 fe bd
       -0.061658494 0.022510864 -0.060860824 -0.12448638
0003c0 67 7d be 3d 70 4f ab bd 0f da f1 bd 8f 9b db 3c
       0.09301262 -0.08364761 -0.118091695 0.026807575
0003d0 8a f8 18 be 49 e7 db 3c b4 2e 70 3d d6 1a dc 3c
       -0.1493856 0.026843684 0.05863829 0.026868265
0003e0 c8 0a bb bb 8c 34 7f 3c d8 44 0f 3e e6 06 8c 3d
       -0.0057080723 0.015576493 0.13991106 0.06837253
0003f0 13 1b 1b 3d ba ea db 3c 70 81 cb 3c 5a 03 cb 3c
       0.037867617 0.026845325 0.024841994 0.024781872

bias f4 [60]
000000 ad 28 ee ba a9 db c0 3e 11 68 a2 ba d6 30 b9 be
       -0.0018170081 0.37667587 -0.0012390633 -0.3617007
000010 fd c0 b6 be 91 4b b7 3d 9f 2f 89 bb f5 90 15 bf
       -0.35694113 0.0894996 -0.004186585 -0.5842431
000020 f9 c8 16 bb bd 1b 3d be 1b 07 20 bb 88 c2 10 3a
       -0.0023007973 -0.18467613 -0.0024418298 0.00055221515
000030 b8 90 42 b9 8b 3d 07 ba 6e 26 b4 be 1a 6f 30 be
       -0.00018555194 -0.0005159012 -0.3518557 -0.17229882
000040 43 21 d9 bb fa 38 a2 3a 76 60 f4 bb 27 6e 02 bd
       -0.0066262796 0.00123766 -0.007457788 -0.03184333
000050 af f8 a6 be 16 5e b9 3e 2b b5 b1 be 16 80 2a bd
       -0.32611606 0.36204594 -0.34708533 -0.04162606
000060 fb c6 79 3e 57 34 cf ba 7e 1a c0 bb 94 53 ab be
       0.24392311 -0.0015808445 -0.005862533 -0.33462203
000070 5e c9 9b be 7d 7d 14 bc f5 e8 f2 3e 56 dd dd bb
       -0.30427068 -0.009063122 0.47443357 -0.00677077
000080 72 20 00 bb 9a da 1b be ac 8b c6 bb 8c e2 ad be
       -0.001955059 -0.15220109 -0.0060591307 -0.33961904
000090 0a 84 3d 3b 70 dc 7d 3d 84 fe 84 bb 19 a1 86 bd
       0.0028917813 0.061977804 -0.004058661 -0.06573696
0000a0 d9 c0 21 bf 1c ae ac be 3b 1e 3d 3d 12 3f af be
       -0.6318489 -0.33726585 0.04617141 -0.34227806
0000b0 aa 4f ae be d9 65 43 bf d5 9f af be 0d 5b ed ba
       -0.34045154 -0.7632728 -0.3430163 -0.00181088
0000c0 92 f3 51 bb 72 2d fb be d4 bf 84 be 36 45 b6 be
       -0.0032036048 -0.4905811 -0.25927603 -0.3559968
0000d0 39 a6 97 3e 61 1b 58 3f db 03 b5 be bb 01 e7 bb
       0.29619005 0.84416777 -0.35354504 -0.007049767
0000e0 96 f8 a9 be e9 5c e8 bb 7a 65 bb bb dd d8 d8 bb
       -0.3319747 -0.007091154 -0.005718884 -0.006617649

weight f4 [60, 60]
000000 30 74 06 39 e8 d9 f8 b9 20 cb 82 38 90 b9 98 b9
       0.00012822519 -0.000474646 6.236718e-05 -0.00029129954
000010 91 8a 88 b9 9e 3b 56 ba b9 8d dc 38 ad 3e dd ba
       -0.0002604318 -0.0008172336 0.000105168154 -0.0016879641
000020 15 6a b4 38 f2 63 df b9 f8 f1 26 38 f9 d1 c7 38
       8.602828e-05 -0.0004260834 3.9802835e-05 9.52817e-05
000030 2f ab 34 39 d6 a2 38 b8 81 b4 98 b9 f1 bb 96 b9
       0.00017229909 -4.402067e-05 -0.00029126185 -0.00028750257
000040 ae 33 81 b8 af 8a 4e 39 5e be 03 b9 d3 20 24 3a
       -6.1608254e-05 0.00019697355 -0.00012564051 0.00062609947
000050 be 4c 98 b9 fc 58 a2 b9 97 cf 98 b9 68 18 01 ba
       -0.00029048877 -0.00030965346 -0.00029146366 -0.0004924596
000060 a2 c9 59 b9 85 92 72 ba 18 a8 05 b7 ca 74 98 b9
       -0.00020769847 -0.00092534005 -7.966555e-06 -0.00029078714
000070 27 db 13 38 6e a1 29 37 ce 2b 6a 3a 5a 4d 2b b8
       3.5251633e-05 1.0110771e-05 0.0008932919 -4.0841616e-05
000080 a2 ba 0e b9 a5 fe d4 3a d8 ec 08 b9 ad 58 98 b9
       -0.00013611701 0.0016250206 -0.00013058202 -0.00029057768
000090 d7 f7 8a 39 8b 1a 4d 3a ac 85 13 b8 a4 f5 8c b9
       0.00026506066 0.00078240846 -3.5172023e-05 -0.00026885897
0000a0 d2 92 a5 b9 30 85 98 b9 f8 23 f0 39 ce 8c 98 b9
       -0.00031580642 -0.00029090932 0.00045803166 -0.00029096607
0000b0 49 c1 98 b9 ce 66 0a ba fa b2 98 b9 45 28 f4 38
       -0.00029135708 -0.00052796013 -0.00029125047 0.000116423274
0000c0 ea 4f bd b8 c9 c4 cf b9 bf 19 8e b9 f2 29 fd b8
       -9.0271074e-05 -0.00039628733 -0.00027103533 -0.00012071793
0000d0 05 b2 c7 ba 93 53 80 39 0d 9c 98 b9 9f 9d e3 b9
       -0.0015235549 0.0002447633 -0.00029107966 -0.0004341425
0000e0 3f 90 98 b9 84 ce 98 b8 8e 67 16 b9 c7 21 7e b8
       -0.0002909917 -7.286391e-05 -0.00014343692 -6.0589777e-05
0000f0 7f 2e 76 bc 32 07 5b 3c a3 30 03 bc c0 1b 30 bb
       -0.015025734 0.013368415 -0.008007201 -0.002687201
000100 45 e9 e9 bb fa bf 4f bb b7 8c 57 bc 4d 0a 12 3c
       -0.0071384036 -0.003170012 -0.013156108 0.008913589
000110 ab a8 3c 3c 21 c8 3a bc ba 22 9c bb 6f 67 cf ba
       0.011514823 -0.0114002535 -0.004764882 -0.0015823672
000120 d7 6a be bc 82 00 ec bb 8d d7 2e bb 98 32 78 bb
       -0.023244305 -0.007202209 -0.0026678771 -0.0037871953
000130 3a f5 31 3c 11 b7 a1 bc 50 16 38 3c 87 3f c6 bc
       0.010861689 -0.019740613 0.011235788 -0.024200214
000140 18 62 2b bb f6 c8 0d bc f4 28 2e bb f1 92 14 bc
       -0.0026150998 -0.00865387 -0.0026574703 -0.009068237
000150 d1 56 72 3b 47 76 06 3d 30 87 16 3c 02 51 2c bb
       0.0036978016 0.03282764 0.009187505 -0.0026293402
000160 12 51 00 bc 41 9c 52 bb 31 b9 04 bc 28 2a 1b 3c
       -0.007831829 -0.0032136592 -0.008100794 0.0094705
000170 ac c5 98 3b 92 6e 83 3c 08 3b 47 3c ce 10 2d bb
       0.004662236 0.016043935 0.01216007 -0.0026407721
000180 f6 ef b6 bc 68 fa 58 bc c5 c1 ed 3b 5d 9b a5 bc
       -0.02233122 -0.013243295 0.007255765 -0.020215685
000190 be 24 a2 bc d5 e7 2c bb 12 e1 4e 3c b1 88 2d bb
       -0.01979291 -0.00263833 0.012626903 -0.002647918
0001a0 36 2c 2d bb 4f 45 e2 bb ac b1 2d bb 79 19 6d bc
       -0.0026424057 -0.006905235 -0.0026503606 -0.014471405
0001b0 24 45 69 3a 85 fb a9 bb aa 4d 0f bc 5e 00 17 bb
       0.00088985474 -0.005187454 -0.008746544 -0.002304099
0001c0 d8 a4 cd 3a a2 4d 40 3b af 07 2f bb 2c 4f 23 3c
       0.0015689386 0.0029343148 -0.002670746 0.0099676065
0001d0 6f ed 2b bb a7 7c 18 3c 2d d3 54 3c 16 12 f4 3b
       -0.002623405 0.009307063 0.012989801 0.007448445
0001e0 cb e6 98 3b 0d e2 52 bf 35 cf 92 3b 33 4d 4f 3c
       0.0046661845 -0.82376176 0.0044802674 0.012652683
0001f0 f9 1e 12 be d3 95 35 3e bf b6 7b bb c6 1f be 3d
       -0.14269628 0.17732935 -0.0038408486 0.09283404
000200 c5 2b c1 bb 90 5c e3 be 4e 1d c6 3b 90 c4 83 3a
       -0.0058951103 -0.44406557 0.006045974 0.0010053087
000210 85 67 30 3b c3 ef 0f 3c 69 e1 8f 3c b1 bd 9a 3d
       0.0026917171 0.008785191 0.017563539 0.07555712
000220 ac c8 84 bb 0d 70 c4 3a 95 27 7d bb a3 55 89 bf
       -0.0040522423 0.0014987007 -0.003862833 -1.0729259
000230 9a b2 f6 3c 7a b8 8f 3e 76 cd ae 3c b7 f7 2b 3e
       0.03011446 0.28070432 0.021338206 0.16793714
000240 df f1 9d 3e 50 3e 9a b7 96 4b 76 bb eb 90 d6 3c
       0.30848595 -1.8387247e-05 -0.0037581674 0.02619215
000250 0d e0 f2 bd 31 2c 48 bb 0a 26 bb 3e b8 dc 5d bb
       -0.118591405 -0.0030543918 0.3655246 -0.0033853482
000260 85 ec 7b ba 44 30 76 be a5 23 c2 bb df 8b b3 3c
       -0.00096101343 -0.2404185 -0.0059246593 0.021917282
000270 eb 51 e2 3a 37 fc 78 be 51 51 6e bb 0e f4 b7 be
       0.0017266845 -0.24314962 -0.0036364386 -0.35928386
000280 6b 19 56 be fe e2 d0 3c 04 66 0a 3f 21 6e bf 3c
       -0.20908134 0.025498863 0.54061913 0.023367943
000290 da f0 c4 3c 9d 88 87 be 02 e2 bc 3c 28 d1 38 3c
       0.024040628 -0.26471415 0.023056988 0.0112803355
0002a0 d2 8b b0 ba c1 a0 7f bd e7 af 34 be ff 91 82 bd
       -0.0013469404 -0.062409166 -0.17645226 -0.06375503
0002b0 30 67 97 3e 1b 0a ab 3e 4b 41 8e 3c 81 a5 da bb
       0.29570913 0.33406147 0.017365118 -0.0066725616
0002c0 d0 2a e8 3c 1e 31 0a bb ce ff f7 ba 8c 50 25 bb
       0.028340727 -0.0021086405 -0.001892084 -0.0025225012
0002d0 97 bd 00 38 25 b4 a4 38 ff c0 13 37 2b b2 b8 b8
       3.0694147e-05 7.853684e-05 8.806818e-06 -8.80699e-05
0002e0 fc bc 1a b7 3e eb 8b b8 2b 18 3a 37 55 81 bd 38
       -9.223117e-06 -6.671854e-05 1.1092091e-05 9.036312e-05
0002f0 be 11 1f b7 f6 e4 5c b8 f7 56 a3 36 be 72 7f b4
       -9.481269e-06 -5.2665324e-05 4.8679026e-06 -2.3790469e-07
000300 5c 4d c7 37 c9 fc c1 b4 70 e2 b8 b8 7c 4a 8c b8
       2.3758672e-05 -3.6132977e-07 -8.815981e-05 -6.689594e-05
000310 2a 09 a5 b6 64 e7 55 37 7a 5e 71 b7 f3 68 a1 b7
       -4.91845e-06 1.2749664e-05 -1.4386716e-05 -1.9241566e-05
000320 23 89 b9 b8 9c 1a 06 b8 d1 f6 b8 b8 58 5b b9 b8
       -8.847031e-05 -3.197287e-05 -8.819777e-05 -8.8385015e-05
000330 de 7b 09 b8 ee a5 be b8 9c 98 90 b5 c0 44 b9 b8
       -3.2778706e-05 -9.090813e-05 -1.0773251e-06 -8.834293e-05
000340 56 f2 42 b7 7a 41 1c b7 92 d7 bb b8 05 11 96 b6
       -1.1619724e-05 -9.3135695e-06 -8.957008e-05 -4.4723297e-06
000350 57 9d c3 b6 b9 c8 0a b7 c0 61 d3 b7 bc 26 b9 b8
       -5.8297696e-06 -8.272175e-06 -2.5198678e-05 -8.828702e-05
000360 55 0e 5e 37 d5 de d0 38 b6 2e 61 b6 9d 92 aa b7
       1.3235568e-05 9.9597186e-05 -3.3554802e-06 -2.0333851e-05
000370 8f d4 21 39 cd 35 b9 b8 e4 8a b0 b8 05 13 b9 b8
       0.00015433341 -8.8315086e-05 -8.4182044e-05 -8.82503e-05
000380 73 1f b9 b8 fd 04 8c b8 91 0b b9 b8 b8 06 69 37
       -8.827345e-05 -6.676649e-05 -8.823642e-05 1.3889447e-05
000390 5e e4 a1 b6 c7 e9 81 b8 cf cc 98 b8 d3 80 25 b8
       -4.8247593e-06 -6.194744e-05 -7.2860734e-05 -3.9459042e-05
0003a0 2d a4 93 38 16 68 82 39 70 d4 b8 b8 56 04 d4 b7
       7.040086e-05 0.00024873082 -8.813373e-05 -2.5274388e-05
0003b0 e2 61 b9 b8 09 4e ac b6 23 bf 20 b7 7c c3 53 b6
       -8.8397195e-05 -5.135084e-06 -9.581246e-06 -3.1555237e-06
0003c0 81 82 0b 3a 7e 9b fa be 74 c7 03 bb 80 94 51 bd
       0.0005321876 -0.48946756 -0.0020107897 -0.05116701
0003d0 78 93 e3 bd 0b c2 b8 3d b8 72 97 bb ae 64 c6 3d
       -0.11112112 0.09021386 -0.00462183 0.09687172
0003e0 d5 22 6d bb df f1 c7 be f4 bf 47 bb 42 a3 6a 3a
       -0.0036184092 -0.3905172 -0.0030479403 0.0008950719
0003f0 c6 41 09 bb 62 de ab 3b b1 70 33 bd b2 68 ce 3c
       -0.0020943745 0.005245016 -0.043808643 0.025196407

bias f4 [60]
000000 4a 30 a8 ba 27 80 0e 3b 48 30 af 3e b8 a0 03 ba
       -0.0012831774 0.0021743865 0.34216523 -0.00050212024
000010 b2 1f 15 3f 5f ab 93 ba 7d 2b 27 39 5c e1 0e 3a
       0.5825149 -0.0011266283 0.00015942562 0.0005450451
000020 02 38 5a ba 9a 1e 8e 3a cc 65 03 be 5c 63 3f b9
       -0.0008324386 0.001084286 -0.12831801 -0.00018252194
000030 df 46 ae ba 5a a8 09 3f 82 fb 2f 3f a5 7b cb 3e
       -0.0013296268 0.5377251 0.68743145 0.3974277
000040 79 3e 4a b8 ce 3d a4 bb 2a 8b 2d bb a3 3b bc ba
       -4.8218735e-05 -0.0050122505 -0.0026480653 -0.0014361035
000050 4e 6b 9d ba 25 b7 99 b8 aa 47 91 37 b1 6e be 3e
       -0.0012010129 -7.329722e-05 1.7318718e-05 0.37193826
000060 6a 7a 0f 3f f5 c1 11 3b f3 ef e2 39 3f bd 8f b9
       0.56046164 0.0022240852 0.00043284855 -0.00027416085
000070 7c c4 db 3a 60 55 1f 3f 40 bd b1 b6 95 b3 16 bb
       0.0016766931 0.62239647 -5.2970427e-06 -0.0022995223
000080 ed 49 28 3a ec 4b 72 3b 46 18 e6 b9 c9 37 98 b9
       0.0006419707 0.0036971522 -0.00043887104 -0.00029033262
000090 4f 7e b2 3a eb c2 18 3b f5 dd 6b 3f 71 0e 2d 38
       0.0013617965 0.002330954 0.92135555 4.1259864e-05
0000a0 88 e3 9d 3e 8c 49 17 3b a1 42 e7 b6 ac 0b bf b9
       0.30837655 0.002308461 -6.892093e-06 -0.00036439055
0000b0 42 3a 86 3a e6 27 8e 3a 04 85 d2 39 5b e3 ec ba
       0.0010240751 0.0010845631 0.00040153426 -0.0018073128
0000c0 46 84 c3 3a 0c 7a f4 39 3d dd 4c 3f de ff d6 3c
       0.001491674 0.0004663024 0.8002508 0.026245054
0000d0 72 b6 3b b9 55 c3 29 bb b2 b8 3b 3f 6b 20 06 39
       -0.00017901676 -0.002590378 0.733287 0.00012791312
0000e0 30 5e 1f bb 4b 30 36 3f 5e e0 4d ba 3a b6 8d 39
       -0.0024317615 0.7116744 -0.0007853563 0.00027029385

weight f4 [60, 60]
000000 5f b7 d8 b4 fc 4d 1c 37 72 c2 88 36 b9 a7 d9 33
       -4.0366555e-07 9.316482e-06 4.0757523e-06 1.01353585e-07
000010 bd 2c 23 39 8e 66 06 b5 80 8c c8 b4 87 70 20 35
       0.00015561558 -5.0068127e-07 -3.735513e-07 5.9768394e-07
000020 a9 18 08 b4 3f 62 e7 b4 65 3e 40 b6 d0 ea cb 35
       -1.2674958e-07 -4.3098586e-07 -2.8646548e-06 1.5193018e-06
000030 0d 3a f4 b4 93 1f a8 38 9f d7 f9 38 9e 2e 0d b8
       -4.549078e-07 8.0167454e-05 0.00011913408 -3.3660435e-05
000040 5e fd 55 b3 ec 6c 46 b5 62 00 18 b5 d4 3d 34 31
       -4.9823363e-08 -7.391925e-07 -5.662497e-07 2.6228593e-09
000050 71 03 a8 b5 d1 a8 d2 34 f0 04 c3 b4 91 97 f3 37
       -1.2517977e-06 3.9238378e-07 -3.6325173e-07 2.9038436e-05
000060 b8 ea 26 39 af 4c 61 35 45 71 81 b3 62 70 e5 33
       0.00015918433 8.393062e-07 -6.027634e-08 1.0684086e-07
000070 34 87 f2 b4 af 42 2c 39 fc 96 3a 36 23 71 aa 35
       -4.5174386e-07 0.0001642804 2.7804044e-06 1.2698914e-06
000080 6e 36 0a b6 8b 42 5b 36 29 75 a2 35 93 aa ef b6
       -2.0595285e-06 3.2672276e-06 1.2104039e-06 -7.1426125e-06
000090 6b 46 1d 34 07 c2 8d 37 91 8c 05 ba bc 88 62 34
       1.4647382e-07 1.689886e-05 -0.00050944934 2.1097634e-07
0000a0 84 7c b1 b7 7c 48 07 35 95 f0 a6 b4 45 90 bb b5
       -2.1158026e-05 5.03969e-07 -3.1094956e-07 -1.3974574e-06
0000b0 ef e0 42 b7 89 c0 40 35 bb ae 43 35 4b e3 4b b5
       -1.16156725e-05 7.180575e-07 7.2897427e-07 -7.595415e-07
0000c0 90 cc 51 36 3d 1b 77 b5 71 e0 bc b8 35 ad 79 34
       3.1262498e-06 -9.205431e-07 -9.006344e-05 2.3252944e-07
0000d0 36 d9 bc 35 41 72 9f 35 72 d8 90 38 65 7b e0 b3
       1.4070308e-06 1.1879675e-06 6.906771e-05 -1.0453258e-07
0000e0 cb 00 59 b7 02 7e 03 39 96 7c 5c b6 de 50 50 35
       -1.29343925e-05 0.00012540075 -3.2855073e-06 7.7603715e-07
0000f0 11 ff 4d b0 62 de 84 33 b5 66 c0 30 d5 45 fb af
       -7.4941037e-10 6.18718e-08 1.399903e-09 -4.5706253e-10
000100 9e 1f b1 31 11 07 b7 b2 8e 99 a2 2f b5 a4 a1 31
       5.1549724e-09 -2.1307217e-08 2.9576736e-10 4.7044417e-09
000110 8c fb 0c b2 2c d0 66 32 36 9c ae b3 63 a7 06 33
       -8.206268e-09 1.3435095e-08 -8.130921e-08 3.1351544e-08
000120 1f b8 12 b1 a8 b2 94 32 c8 0c 61 33 2d cb 84 33
       -2.1350457e-09 1.7310711e-08 5.239852e-08 6.1836865e-08
000130 57 74 aa b0 96 61 42 b3 ed 29 db b2 21 65 fd b1
       -1.2402194e-09 -4.52579e-08 -2.5514021e-08 -7.374766e-09
000140 2d 79 fb b2 49 2c 7f 31 a8 13 22 b2 9f 23 ef b2
       -2.927535e-08 3.7132557e-09 -9.43411e-09 -2.783946e-08
000150 f6 17 0f 32 b9 82 01 33 19 68 01 b2 17 7f 80 31
       8.329144e-09 3.0154045e-08 -7.532457e-09 3.7397387e-09
000160 e2 fe b6 32 b2 1a 63 b0 56 52 a8 32 87 5f 03 b3
       2.1303496e-08 -8.2620055e-10 1.9595216e-08 -3.0587696e-08
000170 39 0e 36 b1 5d d1 6d 34 35 33 a1 31 fc ca 8f b3
       -2.649257e-09 2.2148511e-07 4.6915383e-09 -6.695879e-08
000180 0b a3 9a 32 0c 60 a0 33 49 d8 47 b5 a6 8b 9b 31
       1.8002103e-08 7.4680514e-08 -7.4448013e-07 4.52697e-09
000190 e5 f9 af 32 45 d3 02 33 e7 3b 05 b2 10 51 b3 b2
       2.048632e-08 3.0460132e-08 -7.755239e-09 -2.0875206e-08
0001a0 6c 89 c1 b2 ff 02 f2 b0 1b fe df 31 ad 35 c8 2e
       -2.253065e-08 -1.7608669e-09 6.5190426e-09 9.104482e-11
0001b0 44 92 da 31 dc bf 83 32 e9 6c c2 34 7c 85 81 b1
       6.3612635e-09 1.5337655e-08 3.6214558e-07 -3.7695695e-09
0001c0 ac 86 1b 30 7e 48 09 b3 fd 13 ee 33 f3 60 9e b0
       5.658005e-10 -3.196373e-08 1.10863745e-07 -1.1523568e-09
0001d0 13 cc 3f b4 a9 0a 97 33 00 e9 fd b2 1b 9a 68 32
       -1.7862503e-07 7.0334245e-08 -2.9559033e-08 1.3539217e-08
0001e0 9a cc 38 b9 17 ea c6 3b f0 e7 a5 3e c3 3c 56 b6
       -0.00017623827 0.006070386 0.32403517 -3.1923853e-06
0001f0 57 fd 8c 3e 4d 49 e0 ba 60 44 25 b8 79 01 9e b9
       0.27537033 -0.0017111689 -3.9402745e-05 -0.00030137206
000200 38 96 2f ba b2 c9 25 3b 6c f5 ed be 6d 34 47 3a
       -0.00066981046 0.0025297222 -0.46476305 0.00075990596
000210 43 cb 98 3a 58 de 81 3e f5 b7 4b 3e b0 f7 83 3e
       0.0011657256 0.25364947 0.19894393 0.25774908
000220 5a 91 b3 b7 f3 ea f5 39 b3 18 9c ba 1f 20 fb b8
       -2.1406147e-05 0.00046905092 -0.0011909216 -0.00011974596
000230 22 b1 fe ba d5 66 ca b8 6d d4 13 bb 02 2a 47 3d
       -0.0019431452 -9.6512646e-05 -0.0022557036 0.048624046
000240 e1 b3 b1 3e 92 ca 5e 3b 19 b0 c2 b9 88 84 0b b9
       0.3470755 0.0033995253 -0.00037133766 -0.00013305445
000250 eb 24 6a 3b 77 9b 21 3e 27 c2 52 3b cf 2a c9 bb
       0.0035727571 0.15781961 0.003215918 -0.0061391364
000260 87 97 dd 38 2c b9 3a 3b 20 38 09 3b be 69 de ba
       0.00010566325 0.0028491719 0.0020937994 -0.001696877
000270 f2 95 4d 3b d5 aa c1 3b c9 de 9c 3e 70 a8 52 38
       0.0031369892 0.0059102573 0.30638722 5.022477e-05
000280 4f f3 4f 3e 4c 7e 51 3b f6 43 dc b8 bb 1e 59 ba
       0.20307659 0.0031966148 -0.00010503076 -0.0008282472
000290 0e 9b 81 3a 24 de 5f 38 0e 19 56 38 85 92 ac b8
       0.0009888129 5.3374228e-05 5.104491e-05 -8.2288905e-05
0002a0 33 d1 66 3b 81 3e 73 3b 28 a3 72 3e af a3 40 b9
       0.0035219907 0.0037116113 0.23695052 -0.00018371524
0002b0 56 57 99 3a 65 55 93 bb 18 aa 53 3e d1 b6 74 b8
       0.0011699002 -0.004496264 0.20670354 -5.8344394e-05
0002c0 bd 93 1d bc fe a3 4c 3e ed ee ff ba 81 f5 04 38
       -0.009617743 0.19984433 -0.0019526161 3.1699896e-05
0002d0 14 3d 92 32 87 a5 3a b6 86 5d f7 36 43 1b 19 b1
       1.7024412e-08 -2.781251e-06 7.372061e-06 -2.2279927e-09
0002e0 20 7c 16 b8 11 36 76 34 74 a0 ac 33 14 dd 22 b4
       -3.5878387e-05 2.2930205e-07 8.0385604e-08 -1.5167853e-07
0002f0 ec 42 a9 33 f6 dc c5 b3 f2 74 18 36 26 e0 9a b5
       7.881849e-08 -9.21372e-08 2.2717836e-06 -1.153913e-06
000300 58 40 15 33 2a 00 7a b6 11 98 da b7 58 50 21 37
       3.4750286e-08 -3.7252998e-06 -2.6058437e-05 9.615054e-06
000310 e2 21 0c 33 dc 48 4d 35 08 b9 a0 34 01 b7 1d 33
       3.2627106e-08 7.6474475e-07 2.993695e-07 3.6720852e-08
000320 cf ba bc 34 1f 0d 6b 33 e5 52 04 35 a3 f5 8d b6
       3.515365e-07 5.4727135e-08 4.929446e-07 -4.2307233e-06
000330 a6 fd e7 b7 75 ba dd b4 47 c3 66 33 fb 61 8d 32
       -2.765546e-05 -4.1300123e-07 5.372865e-08 1.6459117e-08
000340 de 5b 5c b4 9e 83 e8 b7 59 92 13 b5 fb 3b 68 34
       -2.0522518e-07 -2.7717844e-05 -5.497473e-07 2.1628504e-07
000350 73 7b 1d 34 b2 6e 23 b6 23 67 90 b4 2b de f0 36
       1.4666675e-07 -2.4353326e-06 -2.6897132e-07 7.178421e-06
000360 e1 84 80 b4 c6 20 32 b6 79 34 c9 38 48 18 4b b3
       -2.393854e-07 -2.6543144e-06 9.594201e-05 -4.7286704e-08
000370 d1 0b a2 36 5e de df b4 f3 6a 8f 33 0d 4e 10 35
       4.829352e-06 -4.169878e-07 6.6784104e-08 5.375776e-07
000380 3a ec fe 36 61 88 05 b4 25 5d 51 b3 b0 16 21 34
       7.5972903e-06 -1.2436205e-07 -4.874632e-08 1.5002547e-07
000390 7d 4e 96 b5 97 da 1f b5 82 91 60 37 1e b9 a3 b1
       -1.1198714e-06 -5.9550206e-07 1.3385319e-05 -4.7649698e-09
0003a0 06 b7 0e b5 8d fb c3 33 d3 90 b3 b7 f0 12 b7 32
       -5.3165456e-07 9.126152e-08 -2.1405902e-05 2.1312616e-08
0003b0 fc 30 0e 37 02 e5 be b7 b4 b3 c6 34 35 d5 9a b4
       8.475265e-06 -2.2756405e-05 3.7011125e-07 -2.8839864e-07
0003c0 ed e3 dd b8 da 3e b1 3b 28 ff 1f 3e 95 2f 76 b5
       -0.00010580556 0.005409104 0.15624678 -9.171138e-07
0003d0 a0 45 00 3e 4a c4 e2 ba 28 10 88 b8 41 d7 ae b9
       0.1252656 -0.001730093 -6.487995e-05 -0.00033348243
0003e0 58 ac 1d ba a8 1a 19 3b 27 11 5a be 46 62 59 3a
       -0.0006014756 0.0023361836 -0.21295606 0.0008292537
0003f0 eb a4 94 3a cd 79 e7 3d 91 12 9a 3d 73 3d dc 3d
       0.0011340653 0.113025285 0.075230725 0.10753908
