Total_RCS/epoch_200_batch_255_lr_0_0019819414761434403_wd_0_1808248925678225/torch_model_2_ReLU.pth (torch, 731855 bytes, 7 tensors)

weight f4 [300, 3]
-0.004086427 -0.0011713415 0.008185593 -0.40176556 -0.6431024 -0.8688149 -0.36116403 0.3741332
0.100152664 0.0394085 0.02709804 0.03079849 -0.9236577 0.18978192 0.67941004 0.019084208
0.055491105 0.00080613914 2.3433244 -0.2602759 -0.41919452 0.03337261 0.0008266768 0.017458752
-0.7588607 -0.5231865 -0.6688514 -0.24002473 1.8238149 0.046217013 -0.06261048 -0.17162767
-1.1678201 0.9100423 0.85198724 0.1740721 -0.721612 -0.5174167 -0.12144363 -0.03835857
-0.6316076 -0.07410978 0.013739734 0.0063553574 0.0106882695 -0.9497428 0.5680187 0.8482989
7.708761e-09 2.696586e-11 -1.3132451e-09 -4.9558915e-14 4.469351e-18 -2.5691649e-15 -0.14091909 -1.2625009
-0.6611854 -1.511625e-07 2.88717e-14 -3.071155e-09 0.706542 0.90312773 0.15028867 2.4635644e-10
7.9449956e-22 -1.8295763e-15 -0.0031644632 -0.008041843 0.019673688 -0.0021019902 0.01334461 0.027813828
-1.0504827e-17 -4.1196465e-13 2.313588e-12 -0.000110343106 6.828069e-05 -0.00012151429 0.0047112387 0.003248301
-0.008032316 2.0227199 -0.48991892 -0.759959 -0.14701685 0.0926805 -0.18354788 -0.008201771
-0.6432307 -0.97728235 9.084237e-06 9.623269e-15 7.1959835e-07 0.021689892 0.017034085 -0.01823514
-1.2380495 0.1394075 -0.009455476 0.14884734 -0.23379917 -0.2926026 -0.091857724 0.15094961
-0.7782683 -0.34496197 0.19872032 0.15056023 0.3850938 0.86599886 -0.5901851 -1.3304569e-07
-5.5314486e-12 -1.333747e-07 0.49234742 -0.4402741 -0.25096935 2.2751389 -0.38635087 -0.52019244
0.024976648 0.029766416 -0.00018641543 0.0001696858 1.6128172e-09 1.473673e-05 0.035325155 -0.003524604
0.0011224502 -0.37809297 -0.77277124 -0.09060474 0.000101269165 2.8448585e-12 1.8973009e-06 -0.003940191
-0.59779334 -0.13542573 0.008318706 0.0010952257 0.0022465254 8.304668e-08 8.802548e-14 -6.3280853e-10
-0.5492802 -0.45192665 -0.124158025 -0.008409755 -0.7163806 -0.97269744 -0.14873144 -0.10736388
-1.4808177 -1.9426805e-05 3.280121e-12 7.779386e-07 -0.0068618716 -0.2258477 -0.9083045 0.015511059
-0.0006932105 -0.0023666269 -0.009394775 -0.06732119 -0.15695521 0.10472412 -1.0293665 -0.065335825
9.7532466e-05 1.3005755e-06 -0.00011964571 0.014240422 -0.0003057094 0.009484395 -0.00010195459 2.3374318e-05
-0.0015711514 -0.16555429 -0.34233996 -0.9670965 -0.6918571 0.015826127 0.013571437 -0.52265024
0.2986971 0.3632884 1.2868151e-05 1.0276064e-09 2.9013476e-08 3.2732457e-09 -7.6563467e-10 -1.5651489e-08
-0.948429 -0.25003698 -0.3437921 -0.59121376 -0.4177296 -0.7480049 0.00049793057 1.4445898e-06
6.853272e-05 0.2683238 0.5621145 0.24800678 0.020320868 0.081164114 -0.025447113 -0.02260928
-0.7930065 -1.3829104 0.00071309664 1.9296051e-12 9.629083e-05 -1.0630015 -0.077757515 -0.06402212
-0.27406994 -0.7222921 0.23507433 -0.065615036 0.6977654 0.38964668 -0.15684374 -0.9326408
0.14517099 7.287218e-05 2.9927915e-05 -1.95783e-05 0.02039929 0.008386558 0.02996403 -0.005983682
0.004409484 0.0017050882 0.013067282 -0.01922497 0.021103173 -0.031956203 -0.26769876 -1.1196297
4.8663695e-12 4.6650715e-22 -1.4712459e-15 0.1444773 -0.37552682 -0.4421589 3.91038e-09 2.4172092e-10
4.4050563e-09 0.003788573 -0.25399068 -0.9774099 0.75100625 -0.6962137 -1.0820752 3.2908734e-05
00000000: 6fe7 85bb b387 99ba de1c 063c 37b4 cdbe
00000010: 5ca2 24bf a76a 5ebf 7eea b8be 638e bf3e
00000020: d71c cd3d cf6a 213d b5fc dd3c 1d4d fc3c
00000030: d574 6cbf 3156 423e d1ed 2d3f 7c56 9c3c
00000040: a44a 633d 1553 533a 07f9 1540 e242 85be
00000050: aaa0 d6be b8b1 083d 57b5 583a a805 8f3c
00000060: b244 42bf 8def 05bf d839 2bbf 0bc9 75be
00000070: c472 e93f 0d4e 3d3d ec39 80bd 2abf 2fbe
00000080: 217b 95bf 88f8 683f d61b 5a3f f53f 323e
00000090: 90bb 38bf 6c75 04bf 70b7 f8bd e01d 1dbd
000000a0: 09b1 21bf dec6 97bd 9f1c 613c 9a40 d03b
000000b0: da1d 2f3c 5822 73bf ac69 113f 1e2a 593f
000000c0: 7d6f 0432 b831 ed2d b47d b4b0 8a31 5fa9
000000d0: d4e3 a422 ba20 39a7 184d 10be a199 a1bf
000000e0: 7243 29bf 3b4f 22b4 ce06 0229 550c 53b1
000000f0: f0df 343f 6133 673f 46e5 193e 966f 872f
00000100: 6d1f 701c bad5 03a7 e262 4fbb efc1 03bc
00000110: b72a a13c 8bc1 09bb 5aa3 5a3c d3d9 e33c
00000120: a5c7 41a3 5dea e7aa e5cd 222c 0168 e7b8
00000130: eb31 8f38 7dd5 feb8 bc60 9a3b 73e1 543b
00000140: fa99 03bc 3e74 0140 a7d6 fabe ac8c 42bf
00000150: 968b 16be 46cf bd3d faf3 3bbe b960 06bc
00000160: c4aa 24bf 2d2f 7abf 8068 1837 7f5b 2d28
00000170: 6c2a 4135 00af b13c 118b 8b3c dc61 95bc
00000180: 6878 9ebf d7c0 0e3e 24eb 1abc 706b 183e
00000190: 0d69 6fbe 02d0 95be e71f bcbd 8992 1a3e
000001a0: 973c 47bf db9e b0be 577d 4b3e 762c 1a3e
000001b0: 042b c53e 1ab2 5d3f 5f16 17bf 52db 0eb4
000001c0: dc9e c2ac c235 0fb4 f614 fc3e 9b6b e1be
000001d0: 0e7f 80be e09b 1140 c8cf c5be 552b 05bf
000001e0: d49b cc3c b3d8 f33c 8378 43b9 afed 3139
000001f0: f6a9 dd30 c63d 7737 1cb1 103d 0bfd 66bb
00000200: 2e1f 933a 6795 c1be 56d4 45bf fa8e b9bd
00000210: 7860 d438 6a30 482c c3a6 fe35 b81c 81bb
00000220: fc08 19bf 0bad 0abe 2f4b 083c ad8d 8f3a
00000230: 713a 133b 6557 b233 3c37 c629 f1f1 2db0
00000240: a19d 0cbf ee62 e7be 9046 febd 12c9 09bc
00000250: b864 37bf b302 79bf 0e4d 18be 98e1 dbbd
00000260: 6f8b bdbf bff6 a2b7 68d1 662c 89d3 5035
00000270: 8dd9 e0bb 9f44 67be a586 68bf 1922 7e3c
00000280: 92b8 35ba 6919 1bbb 8bec 19bc b1df 89bd
00000290: deb8 20be 9979 d63d 48c2 83bf cace 85bd
000002a0: 588a cc38 6f8f ae35 4dea fab8 a950 693c
000002b0: 9f47 a0b9 7064 1b3c 74d0 d5b8 f713 c437
000002c0: 18ef cdba 1087 29be 2f47 afbe a393 77bf
000002d0: 8c1d 31bf cba5 813c bc5a 5e3c 68cc 05bf
000002e0: d4ee 983e f000 ba3e 4ae4 5737 b03b 8d30
000002f0: 4f39 f932 8cef 6031 c074 52b0 fd71 86b2
00000300: 3ecc 72bf d904 80be 8505 b0be c959 17bf
00000310: a7e0 d5be 407d 3fbf 8e87 023a bae3 c135
00000320: 39b9 8f38 bd61 893e bce6 0f3f 7df5 7d3e
00000330: f377 a63c 5f39 a63d 7776 d0bc 1937 b9bc
00000340: 7902 4bbf 3503 b1bf 1bef 3a3a adc8 072c
00000350: bfef c938 6f10 88bf 553f 9fbd 071e 83bd
00000360: e552 8cbe 23e8 38bf 53b7 703e 2d61 86bd
00000370: c1a0 323f c57f c73e a59b 20be 8cc1 6ebf
00000380: b4a7 143e f4d2 9838 b50d fb37 143c a4b7
00000390: 691c a73c c667 093c 2077 f53c c312 c4bb
000003a0: 6f7d 903b 447d df3a 2718 563c af7d 9dbc
000003b0: 90e0 ac3c 82e4 02bd d00f 89be 0750 8fbf
000003c0: 5c38 ab2c 3efe 0c1c 6507 d4a6 dbf1 133e
000003d0: 0d45 c0be a762 e2be 115c 8631 32e3 842f
000003e0: 495b 9731 b549 783b 110b 82be 8937 7abf
000003f0: f241 403f 103b 32bf 7181 8abf 7c07 0a38

bias f4 [300]
-0.030974329 -0.9683312 -0.23852965 -0.12933142 -0.2834855 -0.07335322 -0.3457584 -0.088252954
-0.95378995 -0.24593246 -0.824504 -0.3958426 -0.9585672 -0.3942572 -0.046799626 -0.17511597
-2.0946008e-08 -8.539117e-09 -0.7532103 -3.528644e-07 0.07074242 -9.898464e-10 -0.021377096 -0.0859988
-2.8539672e-11 -0.0016179024 -0.042269345 0.26352337 0.727972 -0.7581236 -5.2432366e-05 -0.032342836
-1.4296254 -0.20094265 -0.5974102 0.30544353 -0.19963577 -2.2252877e-06 0.101259574 0.074940756
-0.07145328 -0.0009029826 -0.05667519 -0.69566524 -0.0002200702 -0.23253292 -0.020521695 -7.783157e-07
-0.7801861 -0.75893927 -0.94201165 -4.4686953e-05 -0.69089746 -0.02129223 -0.19608694 -0.10149474
-0.00053998886 -0.04315999 -0.0062088748 -0.8619119 -0.638189 -0.5700466 -0.0003312726 -4.5770616e-08
-1.397453 -1.3402606 -0.0013217482 -0.1966716 -0.053416483 -0.8327198 -0.002386273 -1.288723
-0.78085124 0.36804208 0.1735097 -0.0002564485 -0.10203196 -0.021733351 -0.089946255 -0.87843806
-3.3356454e-10 -0.4891624 -2.9002232e-08 -0.7327942 -0.057670936 -6.228402e-05 -1.3575228 -0.32091832
0.40288582 -0.69039935 -1.3631043 -4.8704883e-06 -0.07031221 -0.6721468 -4.9973476e-08 -2.1981257e-13
0.18949571 -0.03193532 0.8232027 -1.0922881 -3.2022602e-09 -0.049789794 -0.01786608 -9.786886e-05
-0.022878466 -1.026635e-16 -0.6965802 0.347315 -0.43048653 0.47765508 -6.6339574e-09 -0.00020229489
-0.066245995 -1.3600574e-08 -0.90792745 -0.00048716972 -0.09710341 -0.8554736 -0.012342319 -0.016766561
-0.66260433 -0.014959839 -0.7024424 -1.0822506e-05 -1.0574625e-08 -6.4570696e-22 -0.5261911 -0.0029297469
-1.4061301 -0.6288705 -0.018285992 -0.030461475 -0.019333571 -0.97090083 -0.5514713 -0.014634621
-0.12892233 -0.12732758 -0.9256808 -0.12868975 -1.7122552e-10 0.6550887 0.79744095 -0.06569053
-7.267632e-11 -0.92578816 -3.464487e-05 -0.53606623 -0.77046376 -5.7392372e-11 0.67841387 -1.1028417e-06
0.61065185 -2.5774107e-24 -0.07973155 -2.1099001e-14 -3.5939226e-07 -0.063153006 -0.039629612 -0.8679257
-0.011420431 -0.85816133 -0.02505377 -3.4899217e-10 -0.033188216 -3.5156904e-09 0.021728756 -0.5006561
-0.41353965 -0.023577308 1.2442511 0.72021496 -0.37219667 -0.0016243937 -1.3127121e-07 -1.0727848
-0.009501879 -0.0030225227 -0.09716323 0.98866963 -0.43230775 -0.006273095 -0.27468073 -0.4025008
-0.7255695 -1.5003566e-21 -5.2409374e-05 -0.44780257 -0.08294036 0.27494457 -0.026779132 0.36405754
-0.0015206259 -0.01922599 -0.67510176 -0.024518454 -1.0423769 0.24022211 -0.862383 -0.00475107
1.4056357 0.74907464 -0.3819898 -0.004933852 -4.118347e-12 -0.62196094 -0.0070953174 -0.43670028
0.18587269 -0.008669605 -0.6778585 -8.192114e-05 -0.008185763 -2.498703e-07 -1.099779 -0.5196288
-0.020462599 0.17659426 -0.025346521 -0.027032932 -0.49286738 -1.0696689 -3.5730839e-06 -0.7257625
-0.0009758127 0.35275877 -0.00069781416 0.84621257 -0.59429455 -0.013259142 -0.0016476166 -0.5380834
-0.4657681 -0.992987 -9.525361e-06 -0.0074664922 0.7036248 -0.6597814 -6.436092e-08 -0.011799518
-0.00036355254 -0.39907828 0.81833 -0.8040178 -0.019713396 -1.003872 -0.025878679 -0.0017680869
0.37775564 -0.8904678 -1.462308 -0.014124094 -0.40681174 -0.69955665 -6.827601e-12 -0.0021450312
00000000: e0bd fdbc 8ee4 77bf 1e41 74be 756f 04be
00000010: 0325 91be 373a 96bd 3f07 b1be f7bd b4bd
00000020: 942b 74bf b8d5 7bbe b212 53bf e2ab cabe
00000030: a964 75bf 14dc c9be f7b0 3fbd 9a51 33be
00000040: c2ec b3b2 6fb3 12b2 64d2 40bf 5071 bdb4
00000050: 67e1 903d 200b 88b0 051f afbc 2420 b0bd
00000060: a109 fbad cc0f d4ba 9f22 2dbd 89ec 863e
00000070: 5f5c 3a3f 6314 42bf d3ea 5bb8 ec79 04bd
00000080: f7fd b6bf e9c3 4dbe e0ef 18bf 1863 9c3e
00000090: 526d 4cbe 2756 15b6 2e61 cf3d 8a7a 993d
000000a0: 1956 92bd 23b6 6cba 3e24 68bd 1e17 32bf
000000b0: a5c2 66b9 1c1d 6ebe 1d1d a8bc 73ed 50b5
000000c0: 47ba 47bf d849 42bf ad27 71bf 406e 3bb8
000000d0: a8de 30bf 0b6d aebc 04cb 48be 79dc cfbd
000000e0: 0a8e 0dba 88c8 30bd d173 cbbb 42a6 5cbf
000000f0: 5b60 23bf 93ee 11bf a8ae adb9 5395 44b3
00000100: bddf b2bf a98d abbf 833e adba 4864 49be
00000110: 3ecb 5abd 202d 55bf 0463 1cbb e0f4 a4bf
00000120: dee5 47bf 0370 bc3e 87ac 313e ef73 86b9
00000130: 22f6 d0bd 240a b2bc be35 b8bd 51e1 60bf
00000140: 0961 b7af 7e73 fabe 9520 f9b2 6798 3bbf
00000150: 5c38 6cbd 7b9e 82b8 4fc3 adbf 684f a4be
00000160: 0d47 ce3e 03be 30bf 347a aebf 2d6d a3b6
00000170: d9ff 8fbd d011 2cbf 6ba2 56b3 a97c 77aa
00000180: 2a0b 423e 9cce 02bd 6abd 523f 19d0 8bbf
00000190: c20e 5cb1 62f0 4bbd e35b 92bc f23e cdb8
000001a0: 9f6b bbbc d5b9 eca4 1453 32bf 46d3 b13e
000001b0: bb68 dcbe 358f f43e e8f0 e3b1 1f1f 54b9
000001c0: fbab 87bd f5a7 69b2 ef6d 68bf d06a ffb9
000001d0: 27de c6bd 5100 5bbf 7037 4abc 075a 89bc
000001e0: 70a0 29bf 1d1a 75bc 44d3 33bf 4f92 35b7
000001f0: b1ab 35b2 2827 439c 76b4 06bf ff00 40bb
00000200: 12fc b3bf a8fd 20bf 81cc 95bc 588a f9bc
00000210: 7061 9ebc f58c 78bf 392d 0dbf 0dc6 6fbc
00000220: 3704 04be 2962 02be 6bf9 6cbf 3fc7 03be
00000230: b343 3caf e5b3 273f 1725 4c3f c288 86bd
00000240: 22d1 9fae 7400 6dbf a54f 11b8 a33b 09bf
00000250: 1d3d 45bf 116a 7cae 88ac 2d3f 5a05 94b5
00000260: ae53 1c3f e16a 4798 4b4a a3bd fc0a bea8
00000270: 7ff2 c0b4 5d56 81bd a952 22bd 6130 5ebf
00000280: c21c 3bbc 76b0 5bbf 903d cdbc 48dc bfaf
00000290: 5ef0 07bd ae98 71b1 8100 b23c 002b 00bf
000002a0: 78bb d3be 3325 c1bc 9f43 9f3f 0260 383f
000002b0: 9090 bebe 9ce9 d4ba 8ef3 0cb4 0351 89bf
000002c0: c5ad 1bbc 8415 46bb 84fd c6bd 7419 7d3f
000002d0: 7157 ddbe 898e cdbb f4a2 8cbe 9614 cebe
000002e0: ecbe 39bf 3cba e29c 23d2 5bb8 6146 e5be
000002f0: a3dc a9bd 89c5 8c3e e95f dbbc c065 ba3e
00000300: bd4f c7ba d37f 9dbc 78d3 2cbf edda c8bc
00000310: 9b6c 85bf c9fc 753e 22c5 5cbf ddae 9bbb
00000320: dfeb b33f 5bc3 3f3f 2b94 c3be 26ac a1bb
00000330: c6e6 90ac d538 1fbf d67f e8bb 2e97 dfbe
00000340: 6955 3e3e f50a 0ebc 2288 2dbf 14cd abb8
00000350: 941d 06bc ea25 86b4 8fc5 8cbf 6506 05bf
00000360: 2ea1 a7bc 20d5 343e 82a3 cfbc 2b74 ddbc
00000370: 1d59 fcbe e9ea 88bf 1dc9 6fb6 92cb 39bf
00000380: afcd 7fba cc9c b43e 84ed 36ba 63a1 583f
00000390: b023 18bf df3c 59bc d7f4 d7ba d5bf 09bf
000003a0: 2879 eebe 6534 7ebf 1dcf 1fb7 7aa9 f4bb
000003b0: c120 343f 6fe7 28bf ca36 8ab3 c452 41bc
000003c0: 329b beb9 fd53 ccbe 137e 513f 1cd4 4dbf
000003d0: fd7d a1bc e17e 80bf 86ff d3bc 27bf e7ba
000003e0: 3069 c13e b3f5 63bf e92c bbbf be68 67bc
000003f0: a149 d0be 2516 33bf 9039 f0ac a793 0cbb

weight f4 [300, 300]
2.5639551e-12 7.989314e-08 -2.707025e-07 1.164856e-12 -1.5971546e-08 7.219056e-09 1.3180518e-10 -3.1661132e-33
2.4365452e-08 -4.909759e-07 -2.7931944e-07 -1.9439673e-08 1.8864544e-07 4.9219896e-08 2.5585953e-33 -1.3085398e-07
1.420153e-13 -2.2226901e-10 7.3537805e-08 6.085036e-11 -1.4137215e-07 -2.3977348e-10 2.7408209e-05 4.5335953e-09
-1.2260393e-06 -2.8e-43 3.0061323e-10 -1.1845472e-08 -5.5546343e-07 6.37418e-08 1.1056115e-12 -0.00025197404
5.5873215e-08 1.7185041e-08 -1.0426972e-06 -3.3373007e-07 -4.8163764e-07 2.6518209e-21 3.0704545e-08 -1.0991679e-09
1.2889964e-10 1.6853519e-12 -2.6215827e-33 8.420741e-08 1.0124312e-09 7.691712e-08 1.4462659e-10 -9.338978e-06
1.4773522e-07 6.614051e-08 -6.507603e-07 -2.123439e-11 -1.225775e-08 2.5382685e-33 7.230434e-09 6.6316154e-08
1.0163152e-12 5.606569e-34 -3.626437e-11 6.7585795e-08 8.807578e-08 5.6556593e-11 2.2779311e-11 -8.0347455e-08
7.097902e-08 7.243077e-08 6.1576664e-09 -9.1248786e-08 -4.8993936e-08 -4.4500204e-08 -2.680642e-10 1.1923838e-07
5.867976e-08 -2.7611557e-07 3.9257408e-08 -3.029666e-07 7.369592e-33 -4.3143917e-23 -1.6525617e-06 3.6605436e-09
-0.000181533 1.3122747e-08 -1.1511405e-38 -2.496039e-08 -6.9363644e-08 9.014189e-12 1.05464764e-07 2.1543501e-08
-5.646252e-07 -5.1753375e-07 1.1770927e-07 9.291613e-11 -6.4727745e-10 -2.8586467e-08 1.611684e-39 4.67e-43
-1.5043224e-07 6.298866e-08 -5.257472e-07 -1.8437389e-07 -2.7685128e-15 -5.6536165e-33 1.5e-44 -4.6593026e-08
-3.9776613e-09 -3.2604987e-07 -3.7708966e-07 -2.637514e-07 -1.3204175e-07 -1.3087859e-07 -0.0004469706 -1.93e-43
-1.2767178e-09 2.62e-43 2.1774891e-08 1.9924164e-07 -6.6800246e-12 -7.307124e-08 1.9639813e-13 -5.7156374e-10
-5.9951645e-07 -1.7100337e-33 8.8707246e-08 2.2938112e-12 -1.4366923e-33 1.45854955e-08 -1.4423058e-07 -7.583099e-11
8.3732736e-08 5.881985e-08 3.9705075e-12 -0.00037822995 6.1276885e-37 1.8275468e-07 -2.3728777e-08 -1.8733808e-12
2.907864e-09 -3.1423977e-09 5.8674466e-08 -3.0359933e-12 -4.6021303e-10 -4.911242e-07 -5.071936e-07 6.2230833e-06
1.6456121e-07 5.2178617e-08 0.00024966756 1.322575e-07 -3.435498e-08 1.4889713e-13 -5.577052e-08 -1.8377543e-10
-1.0469796e-07 2.1767917e-10 -3.0116512e-10 5.2198766e-06 -3.39e-43 -4.34665e-06 2.7596664e-10 6.127635e-08
3.0763537e-08 -4.528877e-08 3.6664944e-09 -3.30408e-14 2.2712996e-13 4.1104085e-20 -6.049915e-08 -8.901787e-17
-9.446172e-10 1.2454388e-08 -1.5867113e-06 -4.268878e-07 -4.7565465e-26 3.2639177e-06 2.4673321e-14 4.8187864e-08
-2.0293612e-07 1.886837e-09 4.5593487e-07 -1.4589658e-07 5.6217385e-08 -4.5339634e-06 1.9426736e-08 8.731008e-08
-3.160834e-09 1.3966908e-07 -3e-44 -6.8857977e-09 -0.00010800534 -5.026528e-07 3.2721032e-14 -2.5186452e-07
1.7007626e-05 -7.744192e-12 1.5036017e-07 -8.402453e-11 4.969523e-08 -4.268499e-07 6.284352e-08 -5.317754e-05
-2.876034e-07 -4.2638024e-07 -7.138977e-07 1.3617019e-10 -2.1681875e-13 -9.5649915e-09 6.7971184e-11 1.172381e-07
-1.468729e-07 -7.38947e-11 -1.1104096e-06 -1.4994022e-11 1.9982337e-05 2.3331196e-20 4.6320526e-08 -7.089554e-08
0.00032805005 -2.7614232e-07 2.3346018e-33 -7.91989e-05 -8.95655e-17 2.2806823e-08 -8.4e-44 6.621146e-08
-2.3542996e-09 -2.6103922e-07 9.097588e-08 -3.1041043e-07 -1.239019e-07 -4.0987998e-11 1.6260884e-07 -2.7756565e-07
-1.282659e-07 5.9376095e-08 -6.226358e-06 -7e-45 -1.4273265e-08 8.93271e-08 2.69e-43 3.9119983e-09
8.6376225e-08 -2.2985409e-24 -5.0413524e-07 5.580122e-08 1.4364897e-33 5.859061e-08 -8.699116e-09 4.5408826e-11
-1.1933929e-07 -2.174927e-18 1.1878015e-07 -8.1969015e-10 1.7081005e-08 3.1308808e-08 4.6438672e-07 2.4e-44
00000000: 1c6c 342c b891 ab33 1155 91b4 5cf0 a32b
00000010: cd31 89b2 7d0b f831 dceb 102f e483 8389
00000020: 324c d132 9bcb 03b5 5ff5 95b4 4bfc a6b2
00000030: 778e 4a34 d965 5333 4e8f 5409 de80 0cb4
00000040: 20e5 1f2a 2a63 74af d6eb 9d33 b5cf 852e
00000050: 15cc 17b4 1ed1 83af aeea e537 edc5 9b31
00000060: 648e a4b5 c800 0080 8d43 a52f f080 4bb2
00000070: 281b 15b5 6de2 8833 da99 9b2b 621b 84b9
00000080: 40f9 6f33 4e9e 9332 cef2 8bb5 832b b3b4
00000090: e349 01b5 ad5d 481d 01e0 0333 8811 97b0
000000a0: 06ba 0d2f 3431 ed2b e6ca 5989 83d5 b433
000000b0: c225 8b30 a22d a533 c404 1f2f 9bae 1cb7
000000c0: 26a1 1e34 2109 8e33 e8af 2eb5 98c7 baad
000000d0: 2896 52b2 00df 5209 926f f831 b169 8e33
000000e0: 9d08 8f2b 6a4f 3a08 0d7e 1fae af23 9133
000000f0: 2c24 bd33 10bd 782e 735e c82d 7b8b acb3
00000100: 216d 9833 3d8b 9b33 6893 d331 8df4 c3b3
00000110: 676d 52b3 7e20 3fb3 af5e 93af ff07 0034
00000120: 1407 7c33 093d 94b4 fa9b 2833 6aa7 a2b4
00000130: 790f 190a 95a1 509a 96cd ddb5 f78c 7b31
00000140: e559 3eb9 7472 6132 1d59 7d80 7a68 d6b2
00000150: 11f5 94b3 4c94 1e2d de7b e233 a90e b932
00000160: c090 17b5 a6ec 0ab5 5bc7 fc33 2253 cc2e
00000170: 1aec 31b0 4e8e f5b2 b88c 1100 4d01 0000
00000180: 8086 21b4 6244 8733 1321 0db5 4ff8 45b4
00000190: 0c7e 47a7 90d7 ea89 0b00 0000 931d 48b3
000001a0: e1ab 88b1 f40b afb4 cf72 cab4 b799 8db4
000001b0: 5cc7 0db4 a287 0cb4 6157 eab9 8a00 0080
000001c0: 8478 afb0 bb00 0000 7e0b bb32 20ef 5534
000001d0: 5008 ebac 57eb 9cb3 e81f 5d2a 391c 1db0
000001e0: 75ee 20b5 6510 0e89 537f be33 a169 212c
000001f0: 22b6 ee88 b093 7a32 cddd 1ab4 0dc1 a6ae
00000200: 8fd0 b333 1ca1 7c33 27b3 8b2c 2a4d c6b9
00000210: b283 5003 393b 4434 22d4 cbb2 d4d3 03ac
00000220: afd3 4731 a5f1 57b1 4201 7c33 98a3 55ac
00000230: 3a01 fdaf ccd5 03b5 1426 08b5 e1cf d036
00000240: 3eb2 3034 ff1a 6033 d0e5 8239 aa02 0e34
00000250: b38d 13b3 ada4 272a 5688 6fb3 2f10 4aaf
00000260: 50d6 e0b3 3d57 6f2f 3991 a5af 6626 af36
00000270: f200 0080 70d9 91b6 dab6 972f 0897 8333
00000280: de20 0433 8783 42b3 a7f5 7b31 73cd 14a9
00000290: c1b9 7f2a ca1b 421f c2eb 81b3 e042 cda4
000002a0: c3d3 81b0 faf6 5532 fcf6 d4b5 032f e5b4
000002b0: 6488 6b95 ae09 5b36 ce3c de28 1ef7 4e33
000002c0: a8e6 59b4 96a9 0131 36c7 f434 bfa7 1cb4
000002d0: ab73 7133 7322 98b6 d8df a632 397f bb33
000002e0: fb35 59b1 f2f7 1534 1500 0080 1e98 ecb1
000002f0: ed80 e2b8 0aee 06b5 c85c 1329 ff37 87b4
00000300: 99ab 8e37 bd3c 08ad b072 2134 9bc5 b8ae
00000310: 7c70 5533 ce29 e5b4 97f4 8633 f30a 5fb8
00000320: e967 9ab4 41e9 e4b4 ada2 3fb5 80b8 152f
00000330: c01d 74aa 4753 24b2 6078 952e 54c4 fb33
00000340: 1eb4 1db4 057f a2ae 6209 95b5 89e3 83ad
00000350: be9f a737 5f5b dc1e f5f1 4633 3c3f 98b3
00000360: 22fe ab39 b640 94b4 7df3 4109 9617 a6b8
00000370: 2486 cea4 bce8 c332 3c00 0080 2330 8e33
00000380: 47c9 21b1 f524 8cb4 855e c333 7ca6 a6b4
00000390: e509 05b4 6244 34ae 9499 2e34 5504 95b4
000003a0: 76b9 09b4 b504 7f33 02ec d0b6 0500 0080
000003b0: 7c36 75b2 18d4 bf33 c000 0000 4d6a 8631
000003c0: d57d b933 4bd7 3198 e953 07b5 17aa 6f33
000003d0: 84ad ee08 0fa5 7b33 1e73 15b2 cbb5 472e
000003e0: bc23 00b4 367b 20a2 1414 ff33 9150 61b0
000003f0: 87b9 9232 6678 0633 d350 f934 1100 0000

bias f4 [300]
-4.1302627e-07 -4.8046917e-07 -9.076469e-07 -1.9170443e-06 -5.3731355e-06 -1.2799029e-06 -5.2374594e-07 -6.1963465e-06
-1.5630775e-07 0.5047468 -0.04206335 -7.4559506e-07 -0.4469185 -0.00036416657 -2.032815e-06 -0.01952326
-5.4161096e-06 -0.017583834 -5.934443e-07 -0.0005329792 -1.789288e-05 -7.9442806e-08 -2.714683e-09 -0.0015985472
-3.6828493e-05 -5.2356404e-07 -2.4576752e-07 -3.8181952e-05 0.09077163 -3.8934795e-05 -0.00022209807 -0.0049724546
-0.02733756 -2.0541544e-05 -0.018177873 -1.3804338e-07 -0.0004548942 -6.71321e-07 -0.00041478005 -0.0019132243
-1.0857055e-05 -0.00046065665 -7.643482e-05 0.8150513 -9.664243e-07 -5.8561218e-05 -4.279231e-05 -0.0001253727
-0.027914409 -1.8877725e-05 -0.037160873 -2.2143518e-06 -3.797858e-07 -1.2611858e-05 -0.0012238002 -0.0034759324
-0.02924026 0.024509802 -1.1363703e-06 -9.490763e-06 -2.8565046e-06 -0.00011387787 -0.00023320109 -2.1039248e-05
-3.3146973e-06 -9.913359e-07 -0.0005062831 -0.0015817112 -9.782489e-06 -0.0023677833 -0.0065150457 -1.0627866e-06
-0.0019461956 0.022949016 0.3585834 -1.6846865e-07 -6.741144e-08 -0.0008666093 -0.028082324 -7.54996e-05
-3.3433575e-06 -1.7305836e-05 -0.0024433567 -7.570604e-05 -1.8339912e-07 -3.9821048e-06 -1.2226106e-07 -0.0023710178
-3.0368349e-06 0.27475247 -0.035498835 -7.358859e-07 -0.008029838 -7.2080617e-09 0.8206828 -9.274462e-06
-0.031299923 -3.0524527e-05 0.18346122 -7.3801226e-07 0.21906404 -0.0017091283 -0.04235432 -1.527608e-07
-0.31030232 -7.4685755e-05 0.29841828 -0.00042623046 -4.144404e-06 -1.5978188e-05 -0.003251372 -8.637488e-07
-9.981629e-08 -5.0541432e-05 -1.0000648e-06 -0.0021069066 -4.6384134e-06 -3.0900196e-07 -6.209244e-08 -5.185862e-07
-9.227069e-06 -1.4469552e-05 -9.803172e-07 -0.57449335 -0.0017070557 -4.8615126e-05 -0.0036877908 -4.0137508e-07
-0.0027290755 -4.529695e-06 -2.2991172e-07 -0.15719157 -0.0056251483 -1.2659033e-05 -0.2564687 -2.0872754e-05
0.15060957 -6.44379e-06 -1.3238099e-07 -4.9969024e-08 -0.041093685 -1.1701599e-06 -1.8188088e-05 -2.5720315e-06
-0.020556131 0.22601432 -2.8226896e-07 -0.0019444237 -7.947412e-09 -0.0022436795 -3.327749e-06 -6.994497e-05
-0.016479587 -5.2002138e-06 -4.433631e-08 -1.5360241e-05 -0.0018942306 -3.537312e-07 -1.9394669e-07 -2.2414262e-05
-0.040961687 -0.04139712 -0.00050042773 -8.124956e-05 -0.016515868 -0.05565202 -1.2810207e-05 -0.050739855
-0.0043846397 -3.86653e-08 -1.018241e-05 -3.2873527e-06 -0.0027323365 -4.087271e-06 -0.03514863 -9.4201494e-07
0.46097994 -7.630592e-06 -1.25851475e-05 -0.00031138127 -2.9763146e-07 -5.5161956e-05 -6.1260366e-06 -0.00018530432
0.29911655 -3.1725874e-06 -1.391353e-07 -0.0018813559 -0.09141147 -8.731285e-07 -6.155479e-06 -9.064055e-07
-2.1172138e-05 -1.4743739e-07 -3.8339454e-06 -0.016029 -0.0008447821 -1.4405525e-08 -3.2060782e-07 -6.035569e-07
-0.003336879 -2.0743941e-07 -2.1114172e-06 -0.0032084102 0.2659295 0.48437455 -0.0023461552 -0.005667525
-0.015717892 0.16017811 -3.8894027e-06 -2.8959596e-06 0.15257816 -0.00052063057 -0.00015426129 -0.0005774794
0.28898802 -0.029498065 -4.502003e-05 -4.4849363e-05 -5.2524683e-06 -3.6823562e-06 -0.09492788 -5.6519097e-05
-3.3980214e-08 -1.6160824e-08 -0.020469533 -5.108696e-05 -0.0027696432 -1.0392625e-07 -0.020445773 -0.0032164326
-0.057023067 -2.5286974e-07 -0.073433824 -2.5119675e-07 -0.0002571656 -0.0004410223 -0.01715429 -4.3277876e-07
-0.00019562148 -1.6348666e-05 -1.1751401e-07 0.36317295 -0.00022793967 -0.0035431853 -2.878742e-05 -0.0019249864
-1.7432804e-07 -5.3322823e-05 -2.0140465e-05 -1.5583791e-07 -0.00025284366 -6.523079e-05 -0.032685302 -0.055240188
00000000: e6bd ddb4 97f9 00b5 05a5 73b5 92a6 00b6
00000010: e24a b4b6 21c9 abb5 8c97 0cb5 36ea cfb6
00000020: 8cd5 27b4 1637 013f 9f4a 2cbd e724 48b5
00000030: 80d2 e4be 9ced beb9 7f6b 08b6 3eef 9fbc
00000040: 07bc b5b6 f90b 90bc 2f4d 1fb5 a1b7 0bba
00000050: ab18 96b7 259a aab3 358d 3ab1 5886 d1ba
00000060: 4b78 1ab8 0c8b 0cb5 08f2 83b4 8f25 20b8
00000070: 7ae6 b93d eb4d 23b8 ffe2 68b9 f9ef a2bb
00000080: 05f3 dfbc a150 acb7 c3e9 94bc 1339 14b4
00000090: de7e eeb9 d434 34b5 d676 d9b9 28c5 faba
000000a0: b226 36b7 4a84 f1b9 a24b a0b8 34a7 503f
000000b0: 16b6 81b5 a19f 75b8 e57b 33b8 7a76 03b9
000000c0: c2ac e4bc 9b5b 9eb7 0036 18bd 469a 14b6
000000d0: 5de5 cbb4 8597 53b7 ec67 a0ba 78cc 63bb
000000e0: 4589 efbc c8c8 c83c 6385 98b5 843a 1fb7
000000f0: 60b2 3fb6 b7d1 eeb8 7187 74b9 717d b0b7
00000100: 1172 5eb6 0b0e 85b5 15b8 04ba 6c51 cfba
00000110: 781f 24b7 d02c 1bbb 2a7c d5bb 12a5 8eb5
00000120: 7d17 ffba 93ff bb3c 3e98 b73e 4fe4 34b4
00000130: d5c3 90b3 2a2d 63ba e70c e6bc 8a55 9eb8
00000140: 725e 60b6 002c 91b7 b920 20bb 5fc4 9eb8
00000150: 5eec 44b4 059e 85b6 dd46 03b4 1463 1bbb
00000160: 6dcc 4bb6 5bac 8c3e 3a67 11bd b289 45b5
00000170: 958f 03bc c8aa f7b1 4518 523f 8399 1bb7
00000180: 5934 00bd 7607 00b8 42dd 3b3e d11b 46b5
00000190: 5352 603e d404 e0ba b97b 2dbd 9206 24b4
000001a0: f2df 9ebe 9ca0 9cb8 48ca 983e af77 dfb9
000001b0: 2910 8bb6 e608 86b7 f814 55bb 5edc 67b5
000001c0: 965a d6b3 73fc 53b8 f739 86b5 0714 0abb
000001d0: aba3 9bb6 e8e4 a5b4 ae57 85b3 f934 0bb5
000001e0: f6cd 1ab7 41c2 72b7 7193 83b5 ff11 13bf
000001f0: 49bf dfba 18e8 4bb8 ddae 71bb 927c d7b4
00000200: 4ada 32bb c9fd 97b6 a7dd 76b4 d4f6 20be
00000210: 2a53 b8bb 2262 54b7 de4f 83be e617 afb7
00000220: 6539 1a3e bc37 d8b6 9c24 0eb4 869d 56b3
00000230: da51 28bd 630e 9db5 9f92 98b7 2a9b 2cb6
00000240: 5565 a8bc 4c70 673e c08a 97b4 08dc feba
00000250: 1689 08b2 b20a 13bb 4b52 5fb6 6baf 92b8
00000260: 3300 87bc 7f7d aeb6 4a6c 3eb3 ded9 80b7
00000270: d547 f8ba 72e8 bdb4 a93f 50b4 4306 bcb7
00000280: 71c7 27bd 0790 29bd 232f 03ba 8664 aab8
00000290: 494c 87bc 5ff3 63bd 6ceb 56b7 98d4 4fbd
000002a0: 06ad 8fbb f210 26b3 1ed5 2ab7 4a9c 5cb6
000002b0: 0011 33bb 6425 89b6 03f8 0fbd c6de 7cb5
000002c0: 9005 ec3e 2505 00b7 cc24 53b7 e340 a3b9
000002d0: 28ca 9fb4 b35d 67b8 418e cdb6 404e 42b9
000002e0: ce25 993e a3e8 54b6 3865 15b4 d497 f6ba
000002f0: f035 bbbd ef60 6ab5 298b ceb6 b64f 73b5
00000300: d29a b1b7 484f 1eb4 57a5 80b6 404f 83bc
00000310: 5e74 5dba 2b7c 77b2 0120 acb4 1d04 22b5
00000320: 8aaf 5abb 83bc 5eb4 dfb1 0db6 3144 52bb
00000330: e927 883e f1ff f73e f4c1 19bb a5b6 b9bb
00000340: cfc2 80bc bb05 243e b781 82b6 3558 42b6
00000350: 733d 1c3e ed7a 08ba 33c1 21b9 fd61 17ba
00000360: 3df6 933e eda5 f1bc e4d3 3cb8 a31c 3cb8
00000370: 5c3e b0b6 661e 77b6 8c69 c2bd eb0e 6db8
00000380: a4f1 11b3 07d2 8ab2 b9af a7bc 3546 56b8
00000390: e782 35bb 0f2e dfb3 e57d a7bc c9ca 52bb
000003a0: 0591 69bd 27c2 87b4 7964 96bd 38dc 86b4
000003b0: 2fd4 86b9 0339 e7b9 2787 8cbc a958 e8b4
000003c0: be1f 4db9 7e24 89b7 035c fcb3 cef1 b93e
000003d0: 1703 6fb9 c934 68bb 847c f1b7 d34f fcba
000003e0: ed2e 3bb4 f2a6 5fb8 52f3 a8b7 6654 27b4
000003f0: 1a90 84b9 84cc 88b8 06e1 05bd 8943 62bd

weight f4 [300, 300]
-2.9040246e-08 3.4345313e-09 -5.605489e-06 -6.8184475e-10 9.072232e-09 1.7211474e-06 -8.781592e-09 -1.8673943e-11
2.0163676e-05 -8.592591e-08 -0.00029683634 -2.9793394e-16 3.2392315e-08 -2.5833686e-12 -3.6275117e-06 8.751632e-06
9.600689e-11 -7.942449e-10 -1.3439385e-09 -2.2555026e-10 -5.2800628e-05 -1.2260845e-08 5.374465e-06 2.7186715e-07
-1.1684161e-05 -4.426243e-10 -5.567481e-07 -4.042805e-07 1.2797979e-08 2.9554534e-12 1.98e-43 -9.607499e-05
-1.53e-43 1.8347198e-07 1.39e-43 3.4560447e-12 -7e-44 -5.9805734e-09 -2.4904315e-10 0.00015310272
-2.2209875e-05 4.7401493e-25 -7.334394e-05 -2.5669908e-06 9.640739e-13 -3.4028584e-09 1.4186298e-08 5.66e-43
1.3556421e-10 -1.0423135e-08 -9.462575e-12 -5.238884e-14 3.1081294e-05 3.9649167e-25 3.7041034e-10 1.1374887e-06
-2.4878618e-08 -8.0567865e-11 1.6275079e-14 9.6304464e-11 8.017069e-06 -1.93e-43 7.4e-44 2.8054165e-13
3.584367e-06 2.154874e-17 3.1677265e-11 0.00042878557 1.5952056e-11 -2.8887928e-08 3.8875403e-11 4.7058694e-11
-1.045896e-05 -1.7898033e-08 2.8331946e-09 -4.7221015e-08 1.524049e-12 9.998679e-09 1.2754344e-09 3.48e-43
-4.5391666e-11 -1.22e-43 -2.7907808e-12 -7.881767e-15 2.380689e-08 -9.998676e-11 -4.477594e-08 5.255387e-05
5.017372e-10 1.1400031e-08 -1.7979119e-13 -6.4344684e-12 3.1075192e-12 -1.7375421e-12 -2.1170517e-06 -9.0907637e-10
-9.393485e-10 -4.013434e-05 1.7168446e-08 -1.9135411e-10 1.0219761e-09 -6.9240093e-07 -3.354121e-09 0.00022664544
-4.7648054e-08 -1.1629573e-11 -5.28703e-09 -1.6228589e-13 -2.8870346e-14 2.66e-43 6.042685e-09 1.0406101e-08
2.5397918e-07 1.1552037e-10 -1.22476725e-11 1.9489564e-10 4.27e-43 -1.391594e-09 -4.3079904e-06 -1.4204285e-07
-0.00032802977 6.495097e-08 6.100489e-11 1.2835808e-07 -0.0001138012 3.0322588e-16 9.24234e-10 -7.169631e-10
-2.6516283e-22 -4.700917e-08 -1.1730584e-06 1.0449957e-07 1.6510661e-06 -9.326925e-10 1.2659521e-07 1.36684015e-08
-2.9292206e-09 -2.7069414e-11 -0.00019700531 -6.509605e-11 4.34641e-10 8.325601e-15 -1.1608325e-12 3.1645524e-08
-1.0149498e-09 4.7045154e-09 4.3579553e-06 5.8489835e-08 -3.6253157e-05 8.2162235e-11 1.0752006e-08 -7e-44
2.6257612e-11 4.5409913e-12 -9.914995e-10 7.397791e-11 3.5401958e-05 -1.849176e-10 -1.4126034e-10 -3.3e-43
3.3173828e-10 3.850231e-06 6.95104e-12 8.7914326e-10 2.7058135e-08 -5.103732e-08 1.1092935e-06 4.0596384e-09
-1.5787102e-13 -8.606793e-08 -1.563988e-11 1.7883809e-11 2.1730518e-06 -3.46644e-08 7.7398155e-08 4.5264387e-06
3.6835374e-08 -2.8972025e-09 2.6497658e-11 5.157647e-07 -1.208997e-21 -4.2359165e-08 6.3292024e-12 -2.45e-43
-7.9255384e-09 -0.00023397616 -7.722978e-06 5.622584e-06 8.9538404e-10 -3.9981123e-07 -1.2495212e-07 4.4086337e-07
5.6e-44 3.1211568e-11 -0.00027507497 3.2462715e-12 5.1988998e-08 -9.898132e-13 2.2394996e-05 -4.3897543e-08
2.5222009e-22 -1.253e-42 -5.142593e-10 3.53e-43 -7.315514e-08 3.385862e-08 -0.000107866304 1.649908e-06
-4.92872e-06 1.6763106e-09 -6.0820857e-17 -1.2196946e-06 -1.8588644e-08 -8.785765e-10 -1.9843645e-12 3.5984465e-10
-1.4598159e-08 -3.0792129e-09 2.9793282e-10 -5.554159e-09 -2.8235069e-11 -1.5102236e-05 -1.3545322e-10 -5.090245e-06
7.1404767e-09 -6.4664073e-12 1.1456754e-09 5.754169e-12 -7.811258e-09 -8.1808785e-06 -2.8669009e-08 -1.5539583e-05
5.9363965e-11 -1.51e-43 -4.9694805e-08 -7.60013e-10 4.21653e-11 -2.3955366e-07 -4.8129285e-05 -5.0207265e-12
-1.05698774e-11 -5.7308043e-13 -8.985264e-07 -5.5577438e-08 -2.1159812e-11 -1.6579865e-10 -2.3122783e-10 -3.6097556e-10
6.838921e-09 1.3336109e-11 -2.3642999e-09 -2.6503756e-08 -0.00025559432 -7.58061e-06 -5.172647e-10 5.8406368e-08
00000000: 2d74 f9b2 ea04 6c31 c916 bcb6 8f6c 3bb0
00000010: 19dc 1b32 2d02 e735 dadd 16b2 fb41 a4ad
00000020: 2a25 a937 4586 b8b3 b3a0 9bb9 4abf aba5
00000030: ba1f 0b33 d5c9 35ac 2d70 73b6 f9d3 1237
00000040: 131f d32e 0452 5ab0 a2b5 b8b0 c1fe 77af
00000050: 3e76 5db8 c4a3 52b2 4e56 b436 23f5 9134
00000060: 1707 44b7 d555 f3af 7073 15b5 e40b d9b4
00000070: 1bde 5b32 b7f8 4f2c 8d00 0000 de7b c9b8
00000080: 6d00 0080 6500 4534 6300 0000 9132 732c
00000090: 3200 0080 ae7d cdb1 b5e9 88af 338a 2039
000000a0: 584f bab7 55b3 1217 3ad0 99b8 9144 2cb6
000000b0: 6cae 872b b8d7 69b1 00b8 7332 9401 0000
000000c0: ef0d 152f 6f11 33b2 a677 26ad 38f0 6ba9
000000d0: 495d 0238 9d6a f516 9fa2 cb2f d0ab 9835
000000e0: a9b4 d5b2 ad2b b1ae c797 9228 98c6 d32e
000000f0: 0d81 0637 8a00 0080 3500 0000 50ee 9d2a
00000100: f58a 7036 86c0 c623 6e51 0b2e a0ce e039
00000110: d650 8c2d 3a25 f8b2 d0f9 2a2e 61f7 4e2e
00000120: e478 2fb7 31be 99b2 16b2 4231 0ed0 4ab3
00000130: a77d d62b a8c6 2b32 5c4b af30 f800 0000
00000140: 79a2 47ae 5700 0080 3d62 44ac 3cfc 0da8
00000150: e87f cc32 8bdf dbae ab4f 40b3 4a6d 5c38
00000160: 9eea 0930 ded9 4332 486d 4aaa 8a64 e2ac
00000170: 17ac 5a2c 8d89 f4ab ac12 0eb6 90e2 79b0
00000180: 631a 81b0 eb55 28b8 d079 9332 6565 52af
00000190: 9675 8c30 6edd 39b5 527e 66b1 aca7 6d39
000001a0: 97a5 4cb3 f196 4cad 35a9 b5b1 b9b7 36aa
000001b0: 3e05 02a9 be00 0000 05a0 cf31 84c6 3232
000001c0: a25a 8834 3008 fe2e 9d76 57ad 3f4a 562f
000001d0: 3101 0000 5c42 bfb0 5b8d 90b6 7184 18b4
000001e0: 69fb abb9 2c7b 8b33 b326 862e cdd2 0934
000001f0: 8ea8 eeb8 3ecc ae25 300d 7e30 cb13 45b0
00000200: f647 a09b 21e7 49b3 fb71 9db5 3f69 e033
00000210: 339a dd35 3330 80b0 3aee 0734 44d2 6a32
00000220: 654b 49b1 e71a eead 3693 4eb9 d125 8fae
00000230: 48f2 ee2f 0ffb 1528 665f a3ab 9fea 0733
00000240: 5f7e 8bb0 5ba5 a131 8d3a 9236 4136 7b33
00000250: 880e 18b8 3aad b42e d3b7 3832 3200 0080
00000260: e3f6 e62d 9dc5 9f2c 4a45 88b0 dcad a22e
00000270: 907c 1438 ad51 4baf 4051 1baf eb00 0080
00000280: 0360 b62f 3c31 8136 6791 f42c 35a8 7130
00000290: 786d e832 2034 5bb3 09e3 9435 f57c 8b31
000002a0: 39bf 31aa 58d4 b8b3 e191 89ad c24e 9d2d
000002b0: bfd4 1136 e9e1 14b3 1636 a633 d0e1 9736
000002c0: ec34 1e33 2018 47b1 6c13 e92d 1573 0a35
000002d0: ceb2 b69c 65ee 35b3 63b0 de2c af00 0080
000002e0: e328 08b2 7f57 75b9 f091 01b7 a1a9 bc36
000002f0: 0d1f 7630 a3a5 d6b4 942a 06b4 cdaf ec34
00000300: 2800 0000 1a45 092e f037 90b9 a16f 642c
00000310: 824a 5f33 c74d 8bab e3dc bb37 dc89 3cb3
00000320: 2b75 981b 7e03 0080 c85b 0db0 fc00 0000
00000330: 7719 9db3 f26b 1133 4836 e2b8 6872 dd35
00000340: 6261 a5b6 f063 e630 4c3e 8ca4 63b4 a3b5
00000350: dcac 9fb2 5380 71b0 22a3 0bac a2d3 c52f
00000360: 62cb 7ab2 169a 53b1 51ca a32f e6d6 beb1
00000370: b95b f8ad 9c5f 7db7 b1ee 14af dfcc aab6
00000380: 4c58 f531 3884 e3ac df75 9d30 f274 ca2c
00000390: 4732 06b2 9b40 09b7 d143 f6b2 005b 82b7
000003a0: f18a 822e 6c00 0080 0470 55b3 29e9 50b0
000003b0: e871 392e 019c 80b4 6dde 49b8 afa6 b0ac
000003c0: 7ff2 39ad cc4e 21ab 4432 71b5 0ab4 6eb3
000003d0: a91f baad 2c4c 36af d93c 7eaf cb72 c6af
000003e0: c9fb ea31 7f9c 6a2d 3479 22b1 60aa e3b2
000003f0: 4a01 86b9 f25c feb6 442f 0eb0 7bda 7a33

bias f4 [300]
-4.924214e-08 0.014948682 0.04995542 -3.97331e-09 0.08319931 -3.4901637e-05 0.006879599 0.04233985
0.05421818 -4.6916433e-05 0.00019716141 -1.562092e-05 -6.094726e-11 0.06701279 3.787169e-09 -0.00010031508
0.052116703 -1.2194957e-09 -2.4873028e-05 9.1767005e-10 -0.0008059349 -5.021621e-12 3.627818e-08 -6.1015893e-05
-6.1847324e-08 0.12448997 0.105618335 -2.4792271e-31 0.08530024 0.0088719595 1.88425e-05 -1.9914134e-05
0.061264437 -8.192955e-07 -2.2135185e-10 -2.7869152e-07 -4.5107997e-21 -0.012615569 -1.0667756e-10 0.00026714962
5.427008e-09 6.15717e-05 0.07928795 0.1344562 0.028087987 0.036879137 0.040081944 0.014340094
1.8075008e-05 -6.6781624e-08 0.09097714 8.988893e-15 -0.0014213986 -1.0193592e-07 -0.042023823 -1.362791e-05
-6.438093e-13 1.9096708e-06 -0.012439306 0.052470025 0.019950628 -0.010158414 0.07599253 -0.0005295001
9.293953e-05 1.5916919e-10 0.09808945 0.00019735371 0.040456474 -7.788437e-08 5.1781264e-08 0.00030881903
0.02363149 8.623219e-12 -0.0007471141 -1.0022804e-15 0.002009504 -3.0000072e-05 -0.00053893746 -7.943731e-28
0.08152363 0.121454224 0.07563984 0.0751238 4.092926e-05 -1.2065543e-17 0.00082316436 0.04615003
0.00017557673 -0.00894942 0.077193744 -0.0048623914 0.05880615 1.1318214e-06 0.0013183359 0.0579589
0.00035869633 0.08142723 0.039872184 0.07369615 -0.00013232697 7.2061233e-09 1.1697134e-05 7.738394e-06
0.036326665 0.042047694 0.036158144 0.030553462 0.06559314 -0.03538955 8.1057504e-12 -3.9814013e-06
0.01519854 0.046505395 -2.5260474e-07 7.047844e-17 0.09083693 1.202043e-07 8.77066e-09 -4.6666493e-09
-4.368427e-18 -5.747549e-08 -0.00041291703 -2.4498564e-05 0.13888438 0.009456713 -0.00046212127 0.061905146
-0.00012395656 0.039903115 0.06108156 0.102328 0.06270454 0.10254317 8.5665524e-16 0.052650623
-1.6047614e-15 0.23080353 -2.1230322e-09 -0.016590493 -0.005687253 6.5810473e-06 -7.421003e-08 -0.0016328229
-0.00034215886 -1.25731385e-05 -0.037453353 0.06056502 0.009733633 -2.2604283e-06 0.029557329 -0.0005383307
-0.014043609 0.10670761 -4.5636707e-08 0.096668765 0.07924105 -0.033864833 0.050090056 4.19744e-20
0.001198677 4.746899e-08 1.589638e-09 4.90073e-07 -0.0007366818 0.08367459 0.017289378 0.056755535
-0.0007398697 -1.9125212e-06 2.411151e-07 -9.025006e-08 0.07399512 -4.4808705e-05 0.09263592 -5.5382343e-06
5.2311356e-05 0.0035021643 0.0035652344 0.13696998 0.001249276 -4.795658e-09 0.057093892 -2.8103412e-13
-0.0012326784 -0.0023286638 -0.006543015 0.11346655 -0.007401797 -0.00017213308 -1.595231e-09 0.042431194
0.08058654 -4.470982e-14 0.00012906466 0.02329084 -5.5072018e-05 7.0674755e-10 1.3618896e-05 1.7670169e-05
9.910583e-10 0.06033339 0.01618431 1.3904649e-15 0.028518846 4.9402824e-14 -0.00073683745 3.4829076e-10
6.1187572e-15 -0.0004013993 -1.5849098e-05 -4.664199e-10 2.1635474e-08 0.08700982 0.016151775 0.07751583
-1.5352305e-09 0.06801004 0.034639534 -0.00021742162 -0.00034388868 3.632413e-08 -0.011024764 2.6574626e-06
6.4693966e-05 -0.00046460592 6.201867e-07 -1.672057e-09 0.031326074 -5.7154736e-10 0.052576672 0.057345837
0.05150242 -2.625418e-09 0.2023486 -3.0337806e-15 0.040925913 1.9168974e-05 2.1829623e-11 0.0047830637
4.0895095e-05 0.00080247864 0.08024875 2.599336e-18 -0.03715359 -7.267995e-09 -8.6550746e-05 9.314184e-07
0.00011736004 0.07918194 -4.3213022e-05 -0.016024737 6.455758e-07 0.05781759 -0.008587496 3.0009725e-20
00000000: 4e7e 53b3 51eb 743c 0e9e 4c3d 9b85 88b1
00000010: 6664 aa3d 5963 12b8 426e e13b 8d6c 2d3d
00000020: e213 5e3d 23c8 44b8 1dbd 4e39 ac09 83b7
00000030: 4206 86ae 003e 893d 4a20 8231 4060 d2b8
00000040: 5378 553d 319b a7b0 6ca6 d0b7 4a3f 7c30
00000050: 6045 53ba beae b0ac 48d0 1b33 51eb 7fb8
00000060: edd0 84b3 99f4 fe3d 6d4e d83d 3ae9 a08c
00000070: e4b1 ae3d b25b 113c f60f 9e37 470d a7b7
00000080: 6bf0 7a3d 8fed 5bb5 0261 73af 129f 95b4
00000090: c769 aa9d 88b1 4ebc 2196 eaae 3710 8c39
000000a0: 7878 ba31 0e20 8138 b961 a23d e3ae 093e
000000b0: c718 e63c 940e 173d f72c 243d b7f2 6a3c
000000c0: c99f 9737 9669 8fb3 3952 ba3d f4ed 2128
000000d0: 394e baba dde7 dab3 2c21 2cbd 6ea3 64b7
000000e0: 5937 35ab e527 0036 3bce 4bbc cfea 563d
000000f0: 806f a33c 7a6f 26bc f9a1 9b3d 26ce 0aba
00000100: 88e8 c238 2502 2f2f 1fe3 c83d bcf0 4e39
00000110: b0b5 253d 6341 a7b3 1a66 5e33 fde8 a139
00000120: d496 c13c 87b3 172d fbd9 43ba 9f71 90a6
00000130: e2b1 033b aaa8 fbb7 7b47 0dba 34bf 7b92
00000140: dcf5 a63d febc f83d 0fe9 9a3d 82da 993d
00000150: 75ab 2b38 ea91 5ea3 a0c9 573a d007 3d3d
00000160: 051b 3839 97a0 12bc c117 9e3d b254 9fbb
00000170: b8de 703d 16e9 9735 03cc ac3a 5066 6d3d
00000180: 680f bc39 52c3 a63d 0451 233d 02ee 963d
00000190: 40c1 0ab9 bb99 f731 cf3e 4437 26d4 0137
000001a0: 45cb 143d 343a 2c3d 901a 143d 414b fa3c
000001b0: b255 863d a2f4 10bd 0e99 0e2d fa97 85b6
000001c0: 4c03 793c 717c 3e3d bb9d 87b4 2183 a224
000001d0: b608 ba3d 8211 0134 c5ad 1632 4858 a0b1
000001e0: a02a a1a2 f8da 76b3 c97c d8b9 4482 cdb7
000001f0: b537 0e3e 54f0 1a3c de48 f2b9 4090 7d3d
00000200: 56fa 01b9 7371 233d a830 7a3d 5891 d13d
00000210: 3d6b 803d 2702 d23d 00ea 7626 2ea8 573d
00000220: 3f45 e7a6 c357 6c3e c7e4 11b1 c9e8 87bc
00000230: 235c babb c4d2 dc36 655d 9fb3 7204 d6ba
00000240: c963 b3b9 38f1 52b7 b068 19bd 0713 783d
00000250: d179 1f3c ddb1 17b6 3622 f23c c31e 0dba
00000260: 2a17 66bc 8589 da3d 1702 44b3 46fa c53d
00000270: 2249 a23d dab5 0abd 3b2b 4d3d f037 461f
00000280: ed1c 9d3a b5e0 4b33 6a7a da30 8f8d 0335
00000290: e11d 41ba 955d ab3d 74a2 8d3c 7e78 683d
000002a0: d1f3 41ba dd58 00b6 9b72 8134 7fcf c1b3
000002b0: c18a 973d fbf0 3bb8 e7b7 bd3d 12d5 b9b6
000002c0: e468 5b38 9184 653b b5a6 693b dc41 0c3e
000002d0: bfbe a33a 0ec7 a4b1 49db 693d 4935 9eaa
000002e0: d391 a1ba 7f9c 18bb ca66 d6bb 2761 e83d
000002f0: c68a f2bb 9f7e 34b9 333f dbb0 55cc 2d3d
00000300: 8e0a a53d ea5a 49a9 8855 0739 6fcc be3c
00000310: 21fd 66b8 f044 4230 b77c 6437 663a 9437
00000320: c435 8830 2520 773d f594 843c 1a63 c826
00000330: 5ba0 e93c 947d 5e29 5328 41ba 9179 bf2f
00000340: 9373 dc27 e772 d2b9 aef3 84b7 6235 00b0
00000350: e9d8 b932 3432 b23d ba50 843c 9fc0 9e3d
00000360: 1f00 d3b0 d948 8b3d 2fe2 0d3d acfb 63b9
00000370: f54b b4b9 ce02 1c33 36a1 34bc dc56 3236
00000380: 4fac 8738 5a96 f3b9 e87a 2635 47ce e5b0
00000390: c54f 003d 121b 1db0 a35a 573d 78e3 6a3d
000003a0: 34f4 523d d86a 34b1 7934 4f3e 609b 5aa7
000003b0: eea1 273d 0fcd a037 f103 c02d 3fbb 9c3b
000003c0: c686 2b38 6e5d 523a 7559 a43d 12cc 3f22
000003d0: 5d2e 18bd f6b9 f9b1 9482 b5b8 9606 7a35
000003e0: 311f f638 242a a23d a13f 35b8 4f46 83bc
000003f0: a24b 2d35 23d2 6c3d 92b2 0cbc 88b7 0d1f

weight f4 [1, 300]
-5.6491954e-06 0.19666466 0.66964036 -0.013186385 0.55782306 -0.0035284976 -0.034313094 0.28797838
0.3663382 0.0014607043 0.027987193 1.901391e-05 0.0012299557 0.45084718 -0.006536171 -0.003916839
0.35249332 -0.000759952 0.01289978 -5.2539835e-05 0.0013827814 -0.00046755146 0.0055396184 3.5233184e-06
-9.552218e-05 0.8425137 0.7105452 0.0010180147 0.5718196 0.06953252 -9.8507044e-05 -0.0004962439
0.797028 -6.801985e-07 0.009764465 1.8911493e-05 5.240895e-13 0.013763154 0.004956841 0.00493856
0.00023857475 -0.0019426142 0.53195757 3.2738595 0.19424632 0.25200298 0.2730702 0.10467678
0.0022236274 0.031231346 0.62122804 0.01333681 -0.005001784 0.022562934 0.043465465 6.3989595e-05
-0.0150555475 -0.03500565 -0.015779706 0.354809 0.1410573 0.0013869194 0.5101711 -0.0072242245
-0.002273929 0.0001238192 0.6675837 0.0011560977 0.2755463 -0.010919677 -6.667971e-10 -0.006305057
0.16505729 -0.0018103243 -0.0009168733 0.0062998 -0.056986503 7.8656514e-05 8.723879e-05 0.003466232
0.546793 0.81044143 0.5077391 0.5044115 0.00019383081 0.010077005 -0.0017033002 0.3131138
-0.007995585 0.0007139783 0.51810825 0.0011260683 0.39664495 0.001977308 0.004889357 0.3910418
0.035181403 0.54616874 0.271695 0.49500576 0.0018318364 0.0012124088 -0.0016158699 0.00011204274
0.24835873 0.28604656 0.24725302 0.2104011 0.44146225 0.0392693 -4.3479606e-05 -0.0069780634
0.110222206 0.31545964 -8.827999e-06 0.0007009683 0.6212608 4.8718382e-05 0.018554576 -0.002318766
-0.0004837663 -6.656077e-05 -0.0039446945 -0.0021059955 3.0187936 0.07327611 -0.012293382 0.41712978
-0.001631379 0.27190036 0.41166794 0.68394256 0.422404 4.67279 0.00047203383 5.9662566
0.0026646045 5.1170955 0.0016621934 -0.0027283973 -0.007581074 -0.0009501261 -0.0059222407 -0.00067489035
-0.022811774 0.033880617 -0.02263692 0.4082706 0.075049415 -0.008571861 0.20387305 0.008618455
-0.027579373 3.6757028 0.0016373119 0.65039283 1.0205047 0.03455154 0.3390872 -0.0108211255
0.001821692 3.739093e-05 0.0067457706 -0.00832703 -0.00023043319 0.5610067 0.1237603 0.38310102
0.001166204 0.00010523599 0.0013772652 -0.014909617 0.49699834 -1.9989697e-05 0.6202042 -2.6337297e-05
0.0024778957 0.03517045 9.370562 0.912946 3.4081113e-05 0.000178014 0.38531524 -4.934074e-13
0.010182122 0.001962887 0.010586859 0.7569413 -0.34856 0.00019755504 -0.007677641 0.2886004
0.54056835 -0.009535458 -0.0005612913 0.1628292 -0.015579357 -0.0006987457 1.9896259e-05 -0.0023722257
0.033826176 0.40674654 0.11659798 -2.7424144e-12 0.1970538 -0.03233968 0.012366819 0.007144317
-0.0025016952 -0.00030332556 -5.9780516e-05 0.0012814108 0.00033711415 0.58300227 0.116390735 0.52027
0.0040815533 0.45744082 0.2372794 -0.00023297405 -0.012078577 -0.00077994587 0.014740452 -0.03281415
0.00041882042 0.0045125564 3.0172819e-06 -0.0006079267 0.21546681 -3.944031e-06 0.35552904 0.38704064
0.34841126 0.0010664543 1.3445755 0.0014244344 0.278648 0.0006092028 0.0047194413 0.04337222
-6.007046e-05 0.02844076 0.5383323 0.0010212843 0.013869629 -0.00074821076 0.007776266 -0.0006429539
-0.028023893 0.54411757 -0.020798672 -0.02148946 -2.71891e-05 0.3900973 -0.0010560442 -0.0029828278
00000000: 388e bdb6 7662 493e 8d6d 2b3f b50b 58bc
00000010: 7ecd 0e3f 5e3e 67bb e38b 0cbd e771 933e
00000020: ae90 bb3e 1a75 bf3a 6645 e53c 1080 9f37
00000030: 7736 a13a 71d5 e63e 602d d6bb d458 80bb
00000040: 017a b43e 8437 47ba 9959 533c 385e 5cb8
00000050: 723e b53a b221 f5b9 b085 b53b 2672 6c36
00000060: 1453 c8b8 faae 573f 4ae6 353f e86e 853a
00000070: c562 123f 1167 8e3d 9195 ceb8 5d16 02ba
00000080: 070a 4c3f e396 36b5 22fb 1f3c 1fa4 9e37
00000090: a184 132b da7e 613c ff6c a23b a5d3 a13b
000000a0: ec29 7a39 519f feba 5f2e 083f ea86 5140
000000b0: 82e8 463e 8906 813e dbcf 8b3e c860 d63d
000000c0: 47ba 113b e1d8 ff3c cd08 1f3f a382 5a3c
000000d0: 01e6 a3bb e7d5 b83c d808 323d 2732 8638
000000e0: 8bab 76bc 1662 0fbd 7144 81bc 86a9 b53e
000000f0: 5371 103e 4bc9 b53a 939a 023f 30b9 ecbb
00000100: 3306 15bb 77d5 0139 c4e6 2a3f 3488 973a
00000110: 6814 8d3e 72e8 32bc ad49 37b0 a79a cebb
00000120: c704 293e 6748 edba 535a 70ba 8d6e ce3b
00000130: ae6a 69bd 65f4 a438 f8f3 b638 b929 633b
00000140: a0fa 0b3f 1779 4f3f 31fb 013f 1d21 013f
00000150: 103f 4b39 061a 253c 4541 dfba 7450 a03e
00000160: eaff 02bc 462a 3b3a bea2 043f 9598 933a
00000170: 0c15 cb3e b995 013b e636 a03b a136 c83e
00000180: 601a 103d b7d1 0b3f 9b1b 8b3e 6571 fd3e
00000190: 3b1a f03a b0e9 9e3a 99cb d3ba 7df8 ea38
000001a0: c051 7e3e b274 923e e52f 7d3e 6373 573e
000001b0: 5707 e23e d8d8 203d df5d 36b8 3da8 e4bb
000001c0: 2ebc e13d ed83 a13e f81b 14b7 30c1 373a
000001d0: f30a 1f3f f756 4c38 c4ff 973c 70f6 17bb
000001e0: 03a2 fdb9 8b96 8bb8 7f42 81bb be04 0abb
000001f0: ea33 4140 c911 963d 2e6a 49bc 0992 d53e
00000200: ffd3 d5ba 8636 8b3e 24c6 d23e dc16 2f3f
00000210: 5645 d83e 7f87 9540 4f7b f739 93eb be40
00000220: a5a0 2e3b 3fbf a340 f5dd d93a e9ce 32bb
00000230: a86a f8bb e211 79ba 5b0f c2bb 20eb 30ba
00000240: c2df babc 67c6 0a3d 1071 b9bc d808 d13e
00000250: 82b3 993d fe70 0cbc 19c4 503e 6c34 0d3c
00000260: 23ee e1bc b73e 6b40 129b d63a 2580 263f
00000270: e69f 823f ea85 0d3d d69c ad3e 174b 31bc
00000280: d7c5 ee3a 35d4 1c38 a00b dd3b 186e 08bc
00000290: 70a0 71b9 239e 0f3f 0a76 fd3d d125 c43e
000002a0: 50db 983a 24b2 dc38 5a85 b43a 7747 74bc
000002b0: 9176 fe3e 8caf a7b7 b4c5 1e3f eaee dcb7
000002c0: 3164 223b e40e 103d d2ed 1541 d4b6 693f
000002d0: 51f2 0e38 45a9 3a39 0a48 c53e c0e1 0aab
000002e0: ead2 263c c7a3 003b 8174 2d3c e8c6 413f
000002f0: 7576 b2be c726 4f39 b994 fbbb 6ec3 933e
00000300: b062 0a3f 9c3a 1cbc 9f23 13ba b3bc 263e
00000310: 8f40 7fbc 082c 37ba e4e6 a637 5877 1bbb
00000320: 518d 0a3d 1541 d03e ecca ee3d f2fa 40ac
00000330: 79c8 493e 9d76 04bd 339e 4a3c e01a ea3b
00000340: 7bf3 23bb ab07 9fb9 d7bc 7ab8 03f5 a73a
00000350: b2be b039 a33f 153f 445e ee3d 6a30 053f
00000360: 8dbe 853b af35 ea3e 5ff9 723e 7f4a 74b9
00000370: 39e5 45bc 4875 4cba f081 713c 2168 06bd
00000380: 2095 db39 11de 933b 827c 4a36 455d 1fba
00000390: 55a3 5c3e f856 84b6 e707 b63e 312a c63e
000003a0: f662 b23e 45c8 8b3a 0d1b ac3f 16b4 ba3a
000003b0: f3aa 8e3e e8b2 1f3a 8ba5 9a3b 12a7 313d
000003c0: 2af4 7bb8 99fc e83c 25d0 093f 9ddc 853a
000003d0: 713d 633c 9323 44ba 0cd0 fe3b e88b 28ba
000003e0: 5d92 e5bc 4a4b 0b3f fa61 aabc aa0a b0bc
000003f0: 2614 e4b7 d5ba c73e f76a 8aba 8c7b 43bb
