Total_RCS/epoch_200_batch_255_lr_0_0019819414761434403_wd_0_1808248925678225/torch_model_3_GELU.pth (torch, 49095 bytes, 9 tensors)

weight f4 [60, 3]
000000 55 5c d3 bb 04 64 db 3e 00 f9 36 3e 26 4d 1a c0
       -0.006450216 0.42849743 0.17868423 -2.4109588
000010 80 f6 45 3e 35 27 e6 bd de 7e 0f 3a 9c 30 82 3a
       0.19332314 -0.11237947 0.0005473922 0.00099327
000020 ed 69 38 39 10 3f 2c 3b d0 13 45 3a 5d 08 82 3b
       0.00017587068 0.0026282705 0.0007517906 0.003968282
000030 09 fa 8c bf 6e af a7 3f 19 13 9d 3e 4c 1a 80 be
       -1.1013805 1.3100412 0.30678633 -0.25020063
000040 e5 9a a0 3c 5f 09 f5 bf 1d cf 09 3e 13 9e 2f bf
       0.01960511 -1.9143485 0.13457914 -0.6860058
000050 e3 cd e2 bf 9c 75 0e 3e 47 4e 11 3f c9 5b 5e 3e
       -1.7719082 0.13912052 0.56760067 0.21714701
000060 02 80 91 bf 85 34 21 bf d3 b0 c1 be 2a 9b ee be
       -1.136719 -0.62970763 -0.3783022 -0.46602756
000070 da 4d a2 3f e1 59 4e 3c 39 9c e8 be 46 80 d1 bf
       1.2680008 0.012594671 -0.45431688 -1.6367271
000080 a3 f8 f2 bf da 8a 83 3f 32 4d 16 3f ab 3e 8a 3e
       -1.8982128 1.0276749 0.5871154 0.27000937
000090 21 eb 8e bf a7 83 6c bf 94 ae 34 3d f1 dc 1f 3f
       -1.1165506 -0.92388386 0.044111803 0.62446505
0000a0 ea c8 e1 bf 73 b1 d0 3e fe 36 03 bd 39 02 a3 3e
       -1.7639439 0.40760383 -0.032034867 0.31837633
0000b0 f1 39 35 3f 12 30 61 bf 5d f2 ac 3f 27 f5 2c 3f
       0.70791537 -0.87963974 1.3511463 0.6756157
0000c0 16 94 d5 3b 4f 88 07 3b e2 c6 0b 3b 88 45 9f 3e
       0.0065178974 0.0020680611 0.002132826 0.31107736
0000d0 a9 0e 2c bc c4 4c f6 3e 33 ea 03 bf fd 09 25 c0
       -0.010501542 0.48105443 -0.51529235 -2.5787346
0000e0 3c 43 7e bf 40 26 19 3b 14 74 6e ba 9c 05 b6 3b
       -0.9932134 0.0023368746 -0.00090962765 0.005554868
0000f0 69 98 26 3f 14 4a a1 3f 10 07 15 3c 4e 06 f8 3a
       0.6507631 1.2600732 0.009095922 0.0018922777
000100 6b a0 39 39 3c 6d 6d 3a 40 37 a2 be 76 67 c8 3f
       0.00017702735 0.000905711 -0.31682777 1.5656574
000110 67 c7 b5 bf 3d ae ab 39 e6 46 e2 3a 9c c6 35 bb
       -1.4201478 0.0003274548 0.0017263561 -0.0027736789
000120 2d f9 ac 3f 5a 8b 26 3f 39 e7 f6 be 52 1d ea 3c
       1.3513542 0.65056384 -0.48223284 0.028578434
000130 d2 d4 8f 3f 25 91 82 3e 9f fb 84 3e 3c f2 b4 3d
       1.1236823 0.2550136 0.25973222 0.08835265
000140 43 c2 53 be c0 9b 45 40 e3 6f a3 be 14 2f c3 be
       -0.20679574 3.0876312 -0.319213 -0.38121855
000150 01 a3 4d be b6 ff 57 3e d4 72 9c bd 6b 85 9a 3f
       -0.20081712 0.2109364 -0.07639089 1.2071966
000160 ee 02 83 bd ed 95 82 bd 69 4b a6 be 75 78 43 be
       -0.06397043 -0.06376252 -0.32479408 -0.1908892
000170 bc 2f 10 3f 14 36 c5 be 99 91 42 3f eb 97 1d 3e
       0.56322837 -0.3851782 0.76003414 0.15389983
000180 71 68 c2 bf 23 de 83 bf a2 ad 45 3e 35 7c d3 3f
       -1.5188123 -1.0302166 0.19304517 1.652228
000190 f0 13 1e 3e 32 55 81 3d c3 e7 b7 be 4d 4c f1 bd
       0.15437293 0.06315078 -0.35919008 -0.11782131
0001a0 7e 87 8d bf d0 a5 21 bf 8b e3 a6 3e d4 22 b1 3d
       -1.1056974 -0.63143635 0.32595477 0.08649221
0001b0 e1 5c fd 3e cc e0 fd 3e 4f 53 99 bf bb ac 90 3a
       0.49484923 0.4958557 -1.1978549 0.0011037806
0001c0 a5 21 e8 ba ee 7c a3 3a d2 67 da 3f 1d b4 7a 3e
       -0.0017710222 0.0012473145 1.7062933 0.2448277
0001d0 33 7e 8f 3d e8 83 db 3f 6b 88 42 be 1f 05 a5 3d
       0.070064925 1.714963 -0.18997352 0.080576174
0001e0 15 48 b7 3e 97 e9 0e bf aa 57 d9 bf 25 3e b6 3c
       0.35797182 -0.5582518 -1.6979878 0.02224643
0001f0 d7 7a c0 3e ea 92 a8 3e c0 54 95 3b 0b 87 bd 3a
       0.3759372 0.32924587 0.004557222 0.0014459802
000200 9c 35 59 3b 1f fd 44 bf 82 39 8f bf 44 47 0d be
       0.0033143526 -0.7694873 -1.1189425 -0.13796717
000210 50 3a 49 3e 4e 0d e7 be 0c e5 29 bf 90 e8 b7 3e
       0.1965115 -0.45127338 -0.6636512 0.3591962
000220 ef 9d f3 be 20 60 b7 bd 00 cb 37 bf d8 b0 6c 3f
       -0.4758143 -0.08953881 -0.7179413 0.9245734
000230 44 51 45 3e 35 03 7a 3f 53 ad 6c be 1f 2f 58 bf
       0.19269282 0.97661144 -0.23112993 -0.844469
000240 33 90 bd be b4 08 d0 bf 22 0c f5 3d 06 52 45 3f
       -0.37024078 -1.6252656 0.11965205 0.7707828
000250 9c 81 78 bf fd 11 3c bf a3 0c 83 be f8 7d 84 bf
       -0.9707277 -0.7346495 -0.2559558 -1.0350943
000260 52 cb 24 c0 17 57 0e bb 13 53 bc ba 5e 38 51 bb
       -2.5749097 -0.002171939 -0.001436802 -0.0031924467
000270 e7 17 b8 3c 1e 55 97 bd 45 95 ea be f8 d0 02 3a
       0.022472335 -0.07389282 -0.4581701 0.0004990245
000280 6c d9 35 b9 87 4a 80 3a f8 a1 f1 3b 00 a3 00 3f
       -0.00017342501 0.0009787836 0.0073740445 0.5024872
000290 16 a5 fa bf e8 37 ad bb ae 9d 1b c0 ad b6 03 c0
       -1.958163 -0.0052862056 -2.431499 -2.0580246
0002a0 4f 8b 13 bf d8 9f 4a 3e 30 20 48 3e 95 34 33 bf
       -0.57634443 0.19787538 0.19543529 -0.7000211
0002b0 9c d3 97 bf 85 ae 75 bd 12 f8 61 be 26 cf e1 bf
       -1.1861453 -0.059980888 -0.22067288 -1.7641342
0002c0 3b 7b d1 3d b3 bc 61 bf 9e 5d 8b 3d 56 3f 8f bf
       0.102285825 -0.8817856 0.068049654 -1.1191204

bias f4 [60]
000000 89 5e cf 3f 04 ab 8c bf db a0 e7 b8 a9 db 0f bb
       1.6200725 -1.098969 -0.000110449 -0.0021950996
000010 cd 02 11 3e 1c 57 85 bf 35 ad 35 bf f1 48 96 3f
       0.14161225 -1.0417209 -0.7096742 1.174101
000020 80 1a 8f bf d5 8f 47 bf be 8f 8a bf 77 e7 c1 bd
       -1.1179962 -0.77953845 -1.0825117 -0.094679765
000030 a4 0a 87 bf c1 90 ab 3e 64 b6 f2 be bc 05 40 3f
       -1.0550122 0.33508876 -0.47404778 0.7500875
000040 87 e1 a5 bb 52 76 9c be 24 2f 49 bf 2a bb df ba
       -0.0050622853 -0.3055902 -0.78587556 -0.0017069329
000050 e4 02 89 3f bb 1c df 3a ea 39 6e bf c0 6c 83 3a
       1.0704007 0.0017022112 -0.9305712 0.0010026917
000060 bd 8d 40 be 3c 84 e2 be 60 55 05 3f 38 fe ac 3f
       -0.18804069 -0.44241512 0.52083397 1.3515081
000070 01 94 99 3f d0 c0 b7 be d6 46 80 3f 1c bd 23 bf
       1.1998292 -0.35889292 1.0021617 -0.63960433
000080 09 79 59 bf b3 27 83 be 10 34 72 bf 95 00 97 3f
       -0.8495031 -0.25616226 -0.9461069 1.1797053
000090 26 bd d2 be f0 11 47 3a 40 6c 8f 3f 58 50 a7 be
       -0.41159934 0.00075939205 1.120491 -0.32678485
0000a0 a0 02 86 be ed 29 7a 3f fa 1f 69 bb ef f6 6f bf
       -0.26173878 0.97720224 -0.0035572038 -0.93736166
0000b0 52 9a 0f 3f fa 2e 9c be 51 f4 48 3f 51 54 af be
       0.5609485 -0.3050459 0.784978 -0.34244016
0000c0 5d e4 3d bf c1 d3 a3 be df 50 b3 bf b9 a4 d5 3a
       -0.7417658 -0.31997493 -1.4009055 0.0016299702
0000d0 bf cc a9 be e2 95 50 39 6d 34 4d bf 84 50 4a bf
       -0.3316402 0.00019892261 -0.8015812 -0.7902911
0000e0 fe 9a 9b 3f 0a 03 12 3f 17 7f 28 bf 81 63 9f bf
       1.2156675 0.5703589 -0.65818924 -1.2452241

weight f4 [60, 60]
000000 ca de 64 3e d3 45 8e 3d 74 74 6e 3b bd 61 3a 3c
       0.22350612 0.06946912 0.003638533 0.011375842
000010 be 12 8b 3e ed 3f 72 bd f7 9d b7 bd 3c 35 8a 3e
       0.27162737 -0.059142996 -0.08965676 0.2699374
000020 e6 9d 81 be 37 57 5c 3e 1e 63 22 bf de 9c 12 be
       -0.2531578 0.21517645 -0.6343249 -0.14317653
000030 7f e6 d0 bd 34 bc b1 be bd 4f 06 be f1 06 dc 3e
       -0.10200214 -0.347139 -0.13116355 0.42974046
000040 f9 4a a2 3c 06 04 d3 bd cc d9 33 bf 72 ec 1a 3c
       0.01981114 -0.10303502 -0.70254207 0.009455787
000050 80 69 a0 3e ba c5 8d 3b fc b4 5a 3e 7d 48 17 3b
       0.3133049 0.0043265494 0.21358103 0.0023083978
000060 da 7a 51 bd f3 ff a8 38 1c 96 ce 3d 04 a9 02 bd
       -0.05114255 8.0585385e-05 0.10087225 -0.031899467
000070 15 b2 4f 3e 38 36 35 be cb 01 db bd 49 90 83 3d
       0.20282777 -0.17696464 -0.10693701 0.064240046
000080 c3 69 b8 be 8a b9 81 be d4 a3 d2 bd ed e2 5a 3e
       -0.3601819 -0.25336868 -0.10285154 0.21375628
000090 d4 23 ff 3d 32 bb 51 39 6f cc 28 3d c3 85 88 be
       0.124580055 0.00020001529 0.041210588 -0.26664552
0000a0 53 82 c3 bd 26 f3 2f 3e dd 80 6e 3c b9 95 27 be
       -0.09546342 0.17182598 0.014557091 -0.16365708
0000b0 33 b0 57 be ea 50 90 bd e7 e6 c0 3e 3b 9a ac bc
       -0.21063308 -0.07046683 0.37676165 -0.021069637
0000c0 ce 0d 97 bd 2b 7e 40 bd 1a f8 f0 be 3c 15 42 bc
       -0.0737568 -0.046995323 -0.47064286 -0.011845883
0000d0 ec c9 d2 bc 03 11 79 3b af 46 c2 3b 39 73 0e bf
       -0.02573105 0.0038004525 0.0059288363 -0.55644566
0000e0 b8 95 5b 3e b5 f1 dc be 57 59 ab bd 6b 92 cb bd
       0.21443832 -0.43153158 -0.083666496 -0.099400364
0000f0 41 7c 25 3f ed b3 e0 bf 36 a8 18 3a 09 d5 f2 3b
       0.6464272 -1.7554909 0.0005823405 0.0074106497
000100 40 24 db be 7c 0c 28 bf c2 fd 8f be 47 c3 ff 3e
       -0.42801094 -0.6564405 -0.2812329 0.49953672
000110 54 6e 39 bf 83 c2 1d be 1e 6d 58 bf 3f e2 05 bf
       -0.7243397 -0.15406232 -0.845415 -0.5229835
000120 3b 9e fd be e5 26 3e 3e 97 57 7f be e5 70 c0 bd
       -0.49534783 0.18569525 -0.24935757 -0.09396533
000130 2a 7f 7d 3c fc f1 2c be 0d 01 e5 be 01 d9 06 3c
       0.015472213 -0.16889185 -0.44727364 0.008230449
000140 ac 9d 06 3f 53 48 fa 3b 74 3d 26 be e5 3c 42 bb
       0.5258434 0.0076380162 -0.1623438 -0.0029638347
000150 27 15 5b bf 45 69 26 be 2f c2 af 3e 5b 8d 0c bf
       -0.8557915 -0.16251095 0.34327838 -0.5490319
000160 83 2d de 3e 78 33 42 bf a8 d8 57 3e 62 7f 5f be
       0.43394098 -0.75859785 0.21078742 -0.21825936
000170 f1 79 61 bf 5a 2c 90 bf 4d 38 aa be 36 46 6a 3e
       -0.8807669 -1.1263535 -0.3324608 0.22878346
000180 87 43 2b be 31 53 5d 3b ca 58 de bd a7 57 8b bf
       -0.16724978 0.003377151 -0.10856779 -1.0886124
000190 05 a7 20 3e 35 e1 d1 3e 79 e2 6a 3c 2f 4d b8 be
       0.15688713 0.40992132 0.014336222 -0.35996386
0001a0 bb d8 85 3e 07 32 fa bd 02 3d 40 3d be 15 d4 be
       0.26141915 -0.12216573 0.04693318 -0.41422838
0001b0 a0 13 17 be fd e0 95 be 3e 60 6e bf 7b 51 f6 bb
       -0.1475358 -0.29273215 -0.93115604 -0.0075170374
0001c0 74 f6 5a bd 2e 8d c2 3b 97 a2 e4 be fe d5 e1 be
       -0.053457692 0.00593724 -0.44655296 -0.44108576
0001d0 81 60 90 3e 33 2a 62 bd 5f 93 0d be 06 2c 12 bf
       0.28198627 -0.055216026 -0.13825749 -0.57098424
0001e0 7a fd 16 3f 3c 87 19 bf e6 a9 be bb 6a 02 8c 3b
       0.58980525 -0.59971976 -0.0058185933 0.0042727487
0001f0 2a 34 7f 3e 47 dc 58 bf 99 d6 1c bf 6c 36 bc 3e
       0.24922243 -0.84711117 -0.6126495 0.3676027
000200 c9 ca 3d bf a4 63 b5 3d e2 ae 60 bf 21 a4 8b be
       -0.7413755 0.088568956 -0.8776685 -0.27273658
000210 ac d6 0f bf 89 7c 0f bf 43 af 88 be f3 be 0d 3f
       -0.5618694 -0.560494 -0.26696214 0.5536949
000220 28 32 1f 3c d4 fa c4 be 53 0b 09 bf 4a ce 56 ba
       0.009716548 -0.38472617 -0.53532904 -0.00081941916
000230 f7 32 e7 3d 94 3f 0a bb a9 ba 4e be c6 fe fd bb
       0.11289018 -0.0021095024 -0.20188393 -0.0077513186
000240 b8 a8 10 bf e7 61 03 be 48 f9 e6 3d bc d3 42 c0
       -0.56507444 -0.12830316 0.112780154 -3.0441732
000250 32 78 f0 3e 43 6b 7e be 7f da c6 3e 4b 81 42 bd
       0.46966702 -0.24845605 0.38838574 -0.047486585
000260 fc 62 f5 be f7 fb b7 bd 97 2e fc be d7 5a 26 3f
       -0.47927082 -0.08983605 -0.49254295 0.6498236
000270 ad aa c5 be 1c a7 52 bb c1 d2 cd bf 28 9f 13 be
       -0.38606778 -0.0032143062 -1.6079942 -0.14416182
000280 8c 8c bd be 3c 7f 9a 3e f4 85 db 3b fa d1 c7 be
       -0.3702129 0.30175197 0.006699318 -0.39027387
000290 fa 2e 14 3e a5 c7 82 be fe 0a 10 3f 52 89 fa be
       0.14471045 -0.25542942 0.5626677 -0.48932892
0002a0 1f cf 7e be 45 ff 15 be 12 f3 94 bf dc 51 8a bb
       -0.24883698 -0.14648159 -1.1636679 -0.004221184
0002b0 04 ab 2a bd 86 0e 6c 3b 98 04 3b bf d4 04 3a bf
       -0.041667 0.0036019399 -0.73053885 -0.7266362
0002c0 00 88 0d 3f eb 62 65 3e 48 cf 42 be d1 c4 73 bf
       0.55285645 0.22401015 -0.19024384 -0.95222193
0002d0 46 24 10 be c9 76 03 bd 99 33 0f 3a 05 25 a2 b7
       -0.14076337 -0.032095704 0.0005462706 -1.9329143e-05
0002e0 7a 50 7e bc 76 45 c7 bc 37 0f 51 bd c4 37 97 bd
       -0.015522117 -0.024325114 -0.0510399 -0.07383683
0002f0 40 49 20 3b f7 3d 02 3c 8d 5d 9a bd 72 ea 62 3b
       0.0024457723 0.007949344 -0.07537375 0.0034624604
000300 d0 ed 7d 3a a0 a6 86 bd 91 21 43 3c 4d 9e 03 bd
       0.0009686621 -0.0657475 0.011909858 -0.03213339
000310 7a 0d 4d ba f0 e9 ee 3b 74 49 b2 bd 02 bb a1 39
       -0.00078221376 0.007291071 -0.08705416 0.00030847645
000320 84 6b 43 bd 93 68 c0 b6 26 41 c6 bb 16 d6 ca 39
       -0.047709957 -5.73422e-06 -0.006050247 0.0003868795
000330 01 f7 13 bc 6f 6e 4d 3c 09 f4 1f bd 6f 09 f4 bd
       -0.009031058 0.012538536 -0.03905109 -0.11915862
000340 8a 66 f6 bd d4 b7 5d bb 4f ee a3 bd 0a 5e 70 3c
       -0.120312765 -0.0033831494 -0.08004438 0.014670858
000350 33 d9 95 bc be e7 17 bc b8 f0 84 3a 49 eb f6 bd
       -0.018292045 -0.00927156 0.001014254 -0.12056596
000360 94 d4 76 bc 71 33 0b b8 7d 33 87 bd a1 c5 44 bc
       -0.015065331 -3.318809e-05 -0.066016175 -0.012010009
000370 67 de a6 bd 3d de 65 bd 1c 7a 2c ba 23 3e 8b ba
       -0.08147889 -0.056120146 -0.0006579475 -0.0010623377
000380 ba 75 bf bd a5 42 87 ba d0 25 64 bd b4 12 84 bc
       -0.093486264 -0.0010319544 -0.055700123 -0.0161222
000390 2c 35 b9 bc 85 cb e4 bc a8 a9 86 bd 1d 82 07 b9
       -0.022608362 -0.027929077 -0.06575328 -0.00012923074
0003a0 7b 98 a4 3b cc 70 d1 39 0c cb 04 bd df c6 07 be
       0.00502306 0.00039947627 -0.032420203 -0.13259457
0003b0 d9 b8 f7 bd fa ff fa bd 99 a1 e5 bc 8b b1 92 39
       -0.12095804 -0.12255855 -0.028031157 0.0002797957
0003c0 a5 59 b5 3e 8c b3 62 3d e8 2b 30 3b 67 fd 4b 3b
       0.35419956 0.05534701 0.002688164 0.0031126381
0003d0 da 93 b7 bb 22 36 aa bd aa ea 70 bc cf 98 1f 3e
       -0.005602342 -0.08311106 -0.014704386 0.15585636
0003e0 8e a7 24 3d 87 29 b7 be 58 b3 80 3d a7 5e 07 be
       0.040198855 -0.3577387 0.06284207 -0.13219701
0003f0 2f 86 42 be 6c 35 50 be e8 65 8a bc b7 41 91 3d
       -0.189965 -0.20332879 -0.016894296 0.07092612

bias f4 [60]
000000 e3 aa 8f 3d 28 59 19 3f fe 1d 23 3f 5d 6b df bd
       0.07015016 0.59901667 0.6371764 -0.1090915
000010 ad eb 02 3f c0 94 b2 3e 08 33 17 be 01 57 df bd
       0.5114086 0.34879112 -0.1476556 -0.109052666
000020 9f 3b de bd 77 76 8e 3e 76 d6 01 3f 75 ea de bd
       -0.108512156 0.27824757 0.50717866 -0.10884563
000030 1a 4b 32 be ff 9f be be cf 31 32 3f ae 87 de 3e
       -0.17411461 -0.37231442 0.6960725 0.4346289
000040 89 3d e0 3e 47 64 90 be c9 70 df bd 59 68 df bd
       0.43796948 -0.28201506 -0.10910184 -0.109085746
000050 be 43 f9 3e 3a 19 44 3f c9 ec c7 3e cb 32 5f be
       0.48684496 0.7660099 0.3904784 -0.2179672
000060 3d 68 df bd aa ef 33 3f 95 01 8c 3d fb 6a df bd
       -0.10908554 0.70287573 0.06836239 -0.10909077
000070 0e 0a 12 3e a9 f5 3b bc cc 64 15 3d 9b 2a 05 3f
       0.14261648 -0.011472144 0.03647308 0.52018136
000080 d6 d8 ce bd 03 df 9e 3e 42 6a df bd c2 20 02 3f
       -0.10099952 0.3102952 -0.10908939 0.50831234
000090 75 68 df bd c9 c5 28 3f 69 68 df bd 56 2a de 3d
       -0.109085955 0.65926796 -0.109085865 0.10847919
0000a0 4a 21 e7 bd c1 a2 53 bd b1 4c 01 3d 4a 67 df bd
       -0.11285646 -0.051668886 0.03156728 -0.10908373
0000b0 cb 57 18 bb d7 69 80 3e 5c 14 ad be 06 15 82 3e
       -0.0023245688 0.2508075 -0.33804595 0.25406665
0000c0 9b 69 df bd 85 ad 92 3d 0f 39 67 3e 4d 51 dc bd
       -0.109088145 0.071620025 0.2258036 -0.107576944
0000d0 45 19 9f 3e f4 56 99 be 0a 67 df bd 74 30 7e 3e
       0.31073967 -0.29949152 -0.10908325 0.24823171
0000e0 4b 69 df bd a0 44 e4 be 62 b6 94 3e fe 64 b0 3d
       -0.10908755 -0.44583607 0.29045397 0.08613013

weight f4 [60, 60]
000000 c9 6d 62 bc 80 52 a0 bc 8a fd e9 bc fb 5e 64 ba
       -0.01382012 -0.019570589 -0.02856328 -0.0008711663
000010 88 6d 85 bc 9a 02 5b bc 8a 9f c8 ba 40 98 64 ba
       -0.01628758 -0.0133673195 -0.0015306335 -0.0008720197
000020 a4 b7 68 ba 33 1f b3 3b 3b 7e 03 bd a7 b6 65 ba
       -0.0008877462 0.0054663657 -0.032102805 -0.0008762874
000030 96 22 84 3c c9 17 f5 bb 33 d9 16 bd 93 5f e9 bc
       0.016129773 -0.007479642 -0.03682823 -0.028487956
000040 49 20 86 bc 6d 46 07 3a 4f de 63 ba d1 4d 64 ba
       -0.016372817 0.00051603356 -0.00086924894 -0.00087091053
000050 74 03 42 ba 85 06 03 bd cb 34 4e 3b 02 af ad 39
       -0.0007401027 -0.03198864 0.0031464573 0.00033127522
000060 79 86 64 ba d8 05 1b bb 8c 5d fc ba a5 57 64 ba
       -0.0008717548 -0.0023654606 -0.0019253953 -0.000871057
000070 49 25 5d bc 06 9f e4 3b 1d bf cc ba f9 1c a2 bc
       -0.013497659 0.006976965 -0.0015620921 -0.019789206
000080 1c c6 68 ba 27 0b 81 bb 04 6e 64 ba a2 9c 13 bd
       -0.0008879618 -0.003938097 -0.00087139034 -0.03603805
000090 8f 30 64 ba f4 55 40 bb b7 31 64 ba 21 05 3f bc
       -0.00087047456 -0.0029348107 -0.0008704918 -0.011658938
0000a0 c9 09 9b bb 23 e2 ce bb 5b 0d 5d bb c2 39 64 ba
       -0.004731391 -0.0063135787 -0.0033729884 -0.00087061164
0000b0 b4 70 71 bb f0 15 a4 bc cc c1 00 bb d2 1f d0 bc
       -0.0036840858 -0.020029992 -0.0019646762 -0.025405798
0000c0 cc 38 64 ba 1b 47 88 bb da 26 a9 bc 6f d5 6e ba
       -0.0008705973 -0.004158867 -0.020648409 -0.00091107836
0000d0 97 5e 96 bc 31 a8 5e bc 13 56 64 ba ae 6a c7 bc
       -0.01835565 -0.013589905 -0.0008710336 -0.024342861
0000e0 31 49 64 ba ce 61 0f bc 56 02 9d bb b4 88 13 3b
       -0.0008708416 -0.008751346 -0.004791538 0.0022511901
0000f0 75 52 8a bc 6d 1d 9f bc ce aa cd bc 65 b0 a7 ba
       -0.016885022 -0.019423211 -0.02510586 -0.0012793659
000100 5b 06 9c bc 05 98 66 bc 8d 20 1f 3a 53 bd a7 ba
       -0.019046 -0.01407433 0.0006070219 -0.0012797512
000110 94 b5 a9 ba 7b f0 27 3a 27 d6 ef bc d0 16 a8 ba
       -0.0012947791 0.0006406379 -0.02927692 -0.0012824181
000120 33 e5 94 3c b0 b3 59 bc 2d 88 0f bd 22 7d d7 bc
       0.018175697 -0.01328747 -0.035041977 -0.026304785
000130 d8 26 85 bc ee 6c 99 ba 7d 4e a7 ba 36 9d a7 ba
       -0.016253874 -0.0011705437 -0.001276448 -0.0012787941
000140 e1 47 43 bc d8 f1 18 bd 4e e8 1c bb de 53 96 ba
       -0.011918993 -0.037340015 -0.0023942175 -0.0011469086
000150 de cc a7 ba f5 7a cb bb 1b 70 b0 bb d8 a4 a7 ba
       -0.0012802144 -0.006209726 -0.0053844578 -0.0012790216
000160 cf 5b 49 bc 55 ca be 3b c4 ca 28 bb 48 7a aa bc
       -0.012289955 0.0058224597 -0.0025755623 -0.020810261
000170 dd 3a a9 ba 2b 85 84 bb a7 b3 a7 ba 81 49 3f bd
       -0.0012911219 -0.004044195 -0.001279463 -0.04670096
000180 cb 92 a7 ba e2 8c 43 bb 10 8b a7 ba c1 78 a4 bc
       -0.0012784837 -0.0029838611 -0.0012782533 -0.020077111
000190 f1 8e 4d bc 5a 8e 27 bc 74 3a 88 bb b0 92 a7 ba
       -0.012546287 -0.01022681 -0.004157359 -0.0012784805
0001a0 c3 11 6f bb a6 55 a5 bc e5 4e 82 bb 78 70 e5 bc
       -0.0036479093 -0.020182442 -0.00397669 -0.02800773
0001b0 db 91 a7 ba 72 bc a0 bb 44 1b b8 bc 6c 75 a9 ba
       -0.0012784557 -0.004905277 -0.022473939 -0.0012928671
0001c0 ef b1 c3 bc 3d 66 5c bc 4f a8 a7 ba de 51 c1 bc
       -0.023888556 -0.01345211 -0.0012791249 -0.023598608
0001d0 77 99 a7 ba 16 b0 05 bc 8c 2a 91 bb 42 89 6a 3a
       -0.0012786825 -0.008159658 -0.004430121 0.00089468446
0001e0 88 10 19 bc ec 7c 0b bc 83 80 c5 bc de 21 05 ba
       -0.00934232 -0.00851367 -0.02410913 -0.0005078594
0001f0 a7 00 ed bb 13 81 48 bb a0 cd 15 bb 3a d6 05 ba
       -0.007232744 -0.0030594512 -0.0022858158 -0.00051054696
000200 a1 56 10 ba 56 1c 58 3c be 9e 1c bd f8 50 0a ba
       -0.0005506073 0.01319035 -0.038237326 -0.00052763475
000210 ea 39 dc 39 04 c8 6e ba f3 2c 2f bd c1 a0 1d bd
       0.0004200482 -0.0009108784 -0.042767476 -0.038483385
000220 94 38 89 bc 2f 0f 25 3b 6f 03 05 ba 01 18 05 ba
       -0.016750611 0.0025186052 -0.0005074059 -0.0005077124
000230 fd b5 14 3c e7 fa 5b bc 6e b4 16 3c 03 c8 12 3b
       0.0090765925 -0.013426519 0.009198291 0.0022397048
000240 e4 20 05 ba d2 aa 25 bb 58 9f be 3b 57 23 05 ba
       -0.00050784484 -0.0025278819 0.005817335 -0.00050788134
000250 6e 17 a5 bc 10 99 11 3c ec 7a 9b ba ba 9e 20 bb
       -0.020152774 0.008886591 -0.0011862195 -0.002450867
000260 74 29 2e ba dd 79 3f ba b7 37 05 ba 0c ab b6 bc
       -0.000664375 -0.0007304231 -0.00050818495 -0.022298358
000270 ef 04 05 ba 64 5e 2a bc 0f ff 04 ba 07 b0 94 3b
       -0.00050742825 -0.010398481 -0.0005073407 0.0045375857
000280 38 8d 55 3c 85 60 2b 3a d8 91 8a bb f9 15 05 ba
       0.013034157 0.0006537515 -0.0042288117 -0.00050768215
000290 f4 29 a7 bb 3c c3 9d bc 26 77 50 3b 7d 18 52 bc
       -0.0051014367 -0.019258134 0.00318093 -0.012823221
0002a0 09 0b 05 ba 33 67 87 bb 39 05 04 bc 6f a9 26 ba
       -0.0005075192 -0.0041321754 -0.008057886 -0.0006357645
0002b0 ec 9c 10 bc 40 8c 69 bc f5 16 05 ba 77 b5 00 bd
       -0.008826476 -0.01425463 -0.0005076968 -0.03142306
0002c0 e4 16 05 ba e6 b3 0d bc d8 bf 58 3b e0 4d 6c 3b
       -0.00050769583 -0.008648848 0.0033073332 0.003605716
0002d0 fa d6 4d bc e2 c9 20 bc 33 0b cf bc a8 40 ed b9
       -0.012563461 -0.009813758 -0.025273895 -0.00045252335
0002e0 2c 1a 0b bc 5a 21 b5 bb 14 c4 25 bb 59 d4 ee b9
       -0.008490127 -0.0055276575 -0.0025293874 -0.0004555311
0002f0 23 77 06 ba fb 07 54 3c 16 33 1c bd a3 47 fb b9
       -0.0005129447 0.012941356 -0.038134657 -0.00047927824
000300 4e 8c 4d 3b a3 8a c8 ba 87 2a 2c bd 1e b3 16 bd
       0.0031364146 -0.0015300106 -0.042032745 -0.036791913
000310 e7 23 8a bc 52 1c 3c 3b b9 23 ed b9 ea 2e ed b9
       -0.016862823 0.0028703404 -0.00045230778 -0.00045239116
000320 e9 fd cf 3b c1 2f 92 bc 01 40 14 3c ee 52 a4 b9
       0.006347407 -0.017845036 0.009048463 -0.00031342305
000330 b2 30 ed b9 09 15 2f bb bf 45 76 3b 3c 46 ed b9
       -0.00045240443 -0.0026715419 0.0037578193 -0.0004525649
000340 e6 4a 98 bc 2a 86 19 3c e6 e4 c9 ba 18 3d d4 bb
       -0.018590402 0.009370366 -0.00154033 -0.0064770095
000350 4d 85 2d ba fa 1f 64 ba e5 6f ed b9 ad 63 cf bc
       -0.00066192896 -0.00087022746 -0.0004528753 -0.025316084
000360 75 0b ed b9 d3 e2 20 bc c2 02 ed b9 ca 77 ab b9
       -0.000452127 -0.009819704 -0.00045206217 -0.0003270491
000370 3a ee 0b 3c aa 66 57 bb 3f 2b 8b bb e2 28 ed b9
       0.008540684 -0.003286759 -0.0042470987 -0.00045234623
000380 82 d0 ad bb ad 0b a3 bc 0d 04 b0 3a 23 7b 70 bc
       -0.005304397 -0.019903028 0.0013428942 -0.014677796
000390 b5 15 ed b9 da d7 76 bb 92 e6 2c bc 78 c5 1b ba
       -0.00045220336 -0.0037665279 -0.010553019 -0.0005942206
0003a0 e2 6b 1d bc c5 3f 5c bc 54 21 ed b9 04 9c f4 bc
       -0.009608241 -0.013442938 -0.00045228994 -0.02985955
0003b0 87 2e ed b9 18 db fe bb 6f 5d 4d 3b 2d b2 75 3b
       -0.00045238828 -0.007777583 0.0031336208 0.0037490234
0003c0 fa 55 0d bf 5a fd dd bf 65 95 b3 3f 2a 44 1e bc
       -0.55209315 -1.7342942 1.4029967 -0.009659806
0003d0 b6 ce b4 3d d3 ef 05 3e a2 0d 04 be b5 07 1b bc
       0.088284895 0.13079767 -0.12895826 -0.009462287
0003e0 d7 af 16 bc 40 e3 9a bc ea 9b b7 be b6 62 17 bc
       -0.009197197 -0.01890719 -0.3586114 -0.009239843
0003f0 83 d1 01 be 4b 70 17 3e ef 72 55 bf 25 a4 05 c0
       -0.12677579 0.1478893 -0.833785 -2.0881436

bias f4 [60]
000000 b1 6f ee 3b 88 17 9e 3b 86 52 67 3b d4 b0 9c 3b
       0.0072764982 0.0048245825 0.003529699 0.0047818217
000010 32 50 7e be 9c 91 1e 3f d0 20 60 3c 8e ba fb b9
       -0.2483528 0.6194093 0.013679698 -0.00048013445
000020 86 dd 5f 3b 78 78 76 3b d0 30 2d 3f 3f 75 db bd
       0.0034159138 0.0037608426 0.67652607 -0.10715722
000030 3b 4f e0 3b a0 f6 e8 3d 50 9c 0a bb c3 26 02 3c
       0.0068453825 0.11375165 -0.0021150298 0.007943812
000040 20 b0 01 3c 99 8f b6 bd 4d e8 40 3b e2 88 70 be
       0.007915527 -0.08914108 0.0029435337 -0.23489717
000050 c5 25 b1 3b bb 85 96 3b b2 8d 06 3c 53 37 03 3c
       0.005406114 0.0045935786 0.008212494 0.008008796
000060 9a bc d7 be 52 4b 8b be db bc bd be 23 53 37 3b
       -0.4213608 -0.27205902 -0.37058148 0.0027973137
000070 b5 94 2f 3e f8 42 e9 3b 30 ec 5a 3b 4a 77 fb 3b
       0.17146571 0.007118579 0.003340494 0.0076741325
000080 3d 79 39 bb 3f 3f 10 3e 90 64 07 bf df f5 91 be
       -0.0028301023 0.14086626 -0.5288782 -0.28507897
000090 8f 6f 90 be 9f e3 ff 3b 7e 82 3a 3b 5f 02 b7 3e
       -0.28210112 0.007809117 0.0028459127 0.35743997
0000a0 1f 1b 88 bb 4b 5f d2 3b 66 9a af 3e 5b d5 54 ba
       -0.0041536237 0.006420051 0.34297484 -0.00081189506
0000b0 6c 28 4f 3b a6 cd 62 be de 4c 7a 3b a7 cb e3 3b
       0.0031609787 -0.22148761 0.003819279 0.0069517675
0000c0 92 6c 3f bb 77 6f 97 3b f9 cd dd 3e 44 81 17 3f
       -0.0029209 0.004621442 0.43321207 0.5918162
0000d0 e3 88 8a 3b 67 49 32 3d 33 87 45 3f e1 43 ce 3b
       0.004227744 0.043527033 0.7715942 0.006294713
0000e0 f4 1f ad 3b 0f 21 00 3d 48 a4 0a 3c 19 6c 8b be
       0.00528335 0.031281527 0.008462019 -0.2723091

weight f4 [60, 60]
000000 91 ad b0 39 10 82 40 ba 3e b1 32 3a 87 9e 3d 3a
       0.00033698653 -0.00073435996 0.0006816572 0.00072334
000010 ed cc a8 be b1 55 68 3e c6 ca 63 3e 0b 15 b2 3a
       -0.32968846 0.22688939 0.2224532 0.0013586594
000020 8a f9 34 3a 1e 39 45 3a 6d 52 83 3e ed ac 8f bd
       0.00069036393 0.0007523465 0.25648823 -0.07015405
000030 25 f5 4c b8 71 43 19 3e b6 8b d6 3a b9 66 01 3a
       -4.88657e-05 0.14967133 0.0016368541 0.00049362663
000040 68 7c d0 3a 15 9d c2 bd 40 ef 34 3a 76 9d 05 be
       0.0015906217 -0.09502617 0.0006902106 -0.13048348
000050 dd 4f eb 3a 3c 2d 44 3a 76 19 62 3a ac 15 16 3a
       0.0017952878 0.0007483547 0.000862501 0.0005725275
000060 c7 65 3b be 29 4a 31 be f0 07 a1 be aa 32 41 3a
       -0.18300544 -0.17313446 -0.31451368 0.0007369915
000070 d3 5f 79 3e c7 c6 94 38 65 96 34 3a 3f a8 f3 39
       0.2435296 7.094215e-05 0.00068888656 0.00046473925
000080 1d 65 b7 3a 1e 1d 90 3e e0 c8 9b be ab 3b 25 be
       0.0013991926 0.28147215 -0.30426693 -0.16136043
000090 14 ae 48 be d4 40 09 3a 8c f0 26 3a d1 84 3a 3e
       -0.19597656 0.00052357954 0.0006368242 0.18214728
0000a0 d4 ad 09 3b 3b f6 ed 3a 8a 67 41 3e 4a 61 05 3a
       0.002100815 0.0018155047 0.18887153 0.00050880446
0000b0 6f 36 2e 3a ba 1f 8f be 87 93 d1 3d aa 97 ec 3a
       0.00066456845 -0.27953893 0.10233217 0.001805057
0000c0 08 84 da 3a 6d 18 8a 3a 30 4e 62 3e 41 49 4a 3e
       0.0016671428 0.0010535844 0.22100139 0.19754507
0000d0 81 4e 42 3a 68 83 ea 3d 42 bb 81 3e 63 f8 0d b9
       0.00074122107 0.11450845 0.2533818 -0.00013539339
0000e0 ae b7 c9 3a 00 95 1d 3e 97 83 77 3a 12 1d 9b be
       0.0015389824 0.1538887 0.00094419107 -0.30295616
0000f0 88 d7 44 39 8f eb 73 ba 90 08 01 3a 14 aa 10 3a
       0.00018772308 -0.00093048153 0.00049222354 0.00055185077
000100 10 58 ca be 5d 7e 8a 3e ba 43 86 3e f3 6c a3 3a
       -0.3952031 0.27049533 0.26223546 0.0012468382
000110 8f 86 01 3a 90 90 16 3a 56 7a a4 3e b6 d1 ad bd
       0.000494101 0.00057435874 0.32124585 -0.08487265
000120 77 a7 76 b9 ad 7f 35 3e 4f 57 c8 3a 71 d7 b0 39
       -0.00023522774 0.17724486 0.0015284809 0.00033729852
000130 31 e5 bc 3a 2a 9e e9 bd fd 93 08 3a fb dd 1f be
       0.0014411566 -0.114071205 0.000521004 -0.15612023
000140 47 10 d6 3a c8 68 1a 3a 26 44 3f 3a 24 0d de 39
       0.0016331755 0.00058902474 0.00072962267 0.0004235293
000150 81 e4 61 be c1 63 53 be a4 47 c1 be 9e ec 14 3a
       -0.22059824 -0.20643522 -0.3774997 0.00056810107
000160 f2 09 97 3e 9f 85 e2 b8 89 43 03 3a f6 45 a9 39
       0.29499775 -0.00010801409 0.0005007317 0.00032286317
000170 ae c3 a2 3a ab c2 af 3e f1 66 bb be dc d2 44 be
       0.0012417936 0.34328207 -0.36601976 -0.19221061
000180 84 18 71 be 3d 15 ba 39 dc f6 e4 39 eb ab 6f 3e
       -0.23544508 0.00035492508 0.00043671473 0.23405425
000190 9a b8 05 3b 09 1f d8 3a 3a e2 6d 3e 20 4a 90 39
       0.002040422 0.0016488741 0.2323083 0.00027521048
0001a0 d6 e5 f7 39 2f 06 ac be e7 be ff 3d 6e 98 d5 3a
       0.00047282752 -0.33598468 0.124875836 0.0016296038
0001b0 18 10 c8 3a b6 cf 75 3a e5 67 89 3e 52 71 73 3e
       0.0015263585 0.00093769596 0.26837078 0.23773697
0001c0 33 48 12 3a d6 b3 15 3e f3 fc 96 3e 89 b4 9b b9
       0.00055802165 0.14619383 0.2948986 -0.00029698413
0001d0 d3 4e b9 3a 0b 6a 3d 3e 3a ce 59 3a 50 84 ba be
       0.0014137871 0.18497483 0.0008308623 -0.3642907
0001e0 8c c5 ac 37 6b 7b 39 38 30 8a bc 36 33 4e 84 37
       2.0595988e-05 4.422238e-05 5.6189238e-06 1.577204e-05
0001f0 9b a4 18 b7 e9 76 84 37 15 1a 01 39 85 99 1a 38
       -9.098231e-06 1.5790998e-05 0.00012312115 3.6859437e-05
000200 36 25 d4 36 44 27 a6 36 57 bc ad 38 3a 64 a0 38
       6.3224243e-06 4.9517566e-06 8.284364e-05 7.648063e-05
000210 51 c8 ba 37 c8 26 3c 38 f6 56 27 38 4e a1 94 37
       2.2266207e-05 4.485881e-05 3.989689e-05 1.7718088e-05
000220 aa 30 56 37 fc b5 e5 38 43 cf 15 36 d7 a0 13 37
       1.27667245e-05 0.00010953468 2.2323372e-06 8.799331e-06
000230 c4 65 0e 38 a0 53 6a 37 00 56 b9 36 30 20 6a 37
       3.3950215e-05 1.3966957e-05 5.5234414e-06 1.3954981e-05
000240 c5 a5 4e 38 9b 94 76 38 85 c0 80 38 ac e8 d4 34
       4.9268612e-05 5.878937e-05 6.139375e-05 3.9657368e-07
000250 bf 40 eb 38 8f ca b0 37 5a bf a8 36 9d b2 3c 38
       0.00011217733 2.1075159e-05 5.0290664e-06 4.498904e-05
000260 f6 a4 86 38 80 3e ed 38 5e 65 75 38 e1 4b d2 38
       6.420344e-05 0.00011312682 5.8506957e-05 0.00010027714
000270 38 66 84 38 25 b9 6f 37 ba be 67 36 8f b3 16 39
       6.31329e-05 1.4288617e-05 3.45327e-06 0.00014372006
000280 f4 05 7b 38 dc ce b0 37 85 88 50 38 e6 97 4f 38
       5.9848608e-05 2.1077161e-05 4.9718208e-05 4.9494112e-05
000290 b0 b4 c3 b5 b9 00 28 39 20 22 33 39 c8 28 88 37
       -1.4581219e-06 0.00016021998 0.00017083483 1.6231454e-05
0002a0 09 07 33 38 4e a5 71 37 6d 33 18 39 62 32 7d b7
       4.2683478e-05 1.4403207e-05 0.00014515007 -1.5091706e-05
0002b0 26 9a 2a 35 2d ed 4a 39 5c 2d 39 b7 f1 b5 e1 37
       6.355425e-07 0.00019352576 -1.103742e-05 2.6906813e-05
0002c0 5d d4 fe 37 2b f3 3b 39 84 51 78 37 86 86 2f 38
       3.0378049e-05 0.00017924297 1.4800931e-05 4.1848536e-05
0002d0 7c 0e a5 39 a1 5b 4b ba 09 b4 29 3a 8b ee 36 3a
       0.00031482044 -0.0007757489 0.00064736657 0.00069782947
0002e0 c6 9b b4 be 8d 86 6e 3e ae 5b 72 3e 27 47 b1 3a
       -0.35275096 0.23293515 0.23667786 0.0013525233
0002f0 9e 7c 2b 3a 9f 86 3d 3a 78 3e 8e 3e 22 44 9a bd
       0.0006541702 0.0007229838 0.27782035 -0.075325266
000300 56 d0 ae b8 60 96 1c 3e bf ee d5 3a cb bd f6 39
       -8.335772e-05 0.15291739 0.0016321762 0.00047062183
000310 cf c0 cc 3a 5e 65 d0 bd 47 03 2e 3a c7 d3 0e be
       0.0015621426 -0.10175584 0.00066380616 -0.13947974
000320 44 70 e7 3a 35 f3 3d 3a 88 f3 5e 3a 98 de 10 3a
       0.0017657359 0.00072460185 0.0008504917 0.0005526333
000330 50 e8 48 be 9d 5c 3d be c9 54 ac be 1f 7d 3a 3a
       -0.1961987 -0.1849236 -0.33658436 0.00071139814
000340 9b fb 85 3e f5 9f 24 38 b3 b0 2b 3a 92 70 e8 39
       0.26168522 3.924962e-05 0.00065494626 0.0004433436
000350 93 05 b3 3a 1a 30 9b 3e d0 e7 a6 be 74 28 30 be
       0.0013658277 0.30310136 -0.32598734 -0.17202932
000360 4d ea 56 be ef 2d 02 3a ac 32 1d 3a 90 2d 49 3e
       -0.20987816 0.0004965951 0.00059966254 0.19646287
000370 d4 4d 0a 3b 81 cd e9 3a f2 46 50 3e 7c cc f1 39
       0.0021103518 0.0017837734 0.20339563 0.00046119455
000380 45 12 25 3a fb 3e 99 be 3f d4 e1 3d 0e e2 e7 3a
       0.0006296973 -0.29930863 0.11026811 0.0017691271
000390 09 64 d8 3a cd c3 88 3a 1f ba 76 3e 3f 22 7a 3e
       0.0016509305 0.001043433 0.24094437 0.24427126
0003a0 62 da 39 3a 57 63 fd 3d 4f e6 94 3e f8 48 2b b9
       0.00070897315 0.12372463 0.29081962 -0.00016335014
0003b0 e6 8a c7 3a 68 c9 28 3e f0 20 75 3a 22 22 a6 be
       0.001522389 0.1648308 0.00093509164 -0.32447916
0003c0 dc 4b b5 39 aa 4f 3f ba a8 30 34 3a 8b ed 3f 3a
       0.0003457953 -0.00072979426 0.00068737054 0.00073214684
0003d0 b6 8b ab be 91 3d 6d 3e 2e 2b 67 3e 2a cc b3 3a
       -0.33505028 0.23168017 0.22575065 0.0013717462
0003e0 e4 81 36 3a b6 17 47 3a 7d b1 86 3e e2 24 92 bd
       0.0006962104 0.0007594781 0.26307288 -0.07135941
0003f0 61 e8 33 b8 99 92 1d 3e 29 40 d8 3a 4a b2 03 3a
       -4.2893345e-05 0.15387954 0.0016498613 0.00050238206

bias f4 [60]
000000 38 c7 e9 3d 6e 37 0b 3e d3 ee ad 37 ca 60 f8 3d
       0.11414951 0.13595363 2.0734418e-05 0.12127836
000010 df e7 ec 3d 64 c0 98 be c2 24 16 3e 62 f9 af ae
       0.115676634 -0.29834282 0.1466246 -8.002378e-11
000020 a2 03 fd 2f 01 45 0d 3e e2 5e 0b 3e 78 32 0f 3e
       4.6023013e-10 0.13795854 0.13610414 0.13984096
000030 e7 ed 08 3e 3a 09 30 3a 4a 80 06 3e 6a 6e fe 3d
       0.13372003 0.0006715242 0.13134876 0.124234036
000040 e4 f3 0a 3e 64 fe b3 be de a6 9c 22 86 26 f8 3d
       0.135696 -0.35155022 4.2460562e-18 0.12116723
000050 01 29 80 be bd c2 02 3e 9b df 94 2b a0 d9 d9 3a
       -0.25031283 0.127696 1.0578095e-12 0.0016620643
000060 8d 0d 01 3e 82 61 a0 30 8a ef d0 35 85 b0 10 3e
       0.12602825 1.1669246e-09 1.5566923e-06 0.14129837
000070 33 2b 97 30 5b 98 8f be 7a 9a 0d 3e 13 a3 03 3e
       1.0998974e-09 -0.28045925 0.1382846 0.12855177
000080 b6 18 78 34 44 3f 06 3e d0 8a 0a 3e bb 6d 0f 3e
       2.310579e-07 0.13110071 0.13529515 0.14006703
000090 04 0a 13 2a ee 23 e5 22 95 fa 10 30 60 e4 99 be
       1.3059698e-13 6.2108616e-18 5.2742993e-10 -0.3005705
0000a0 50 0c 81 be 56 07 66 be e6 12 14 28 e5 dd ee 3d
       -0.25204706 -0.22463736 8.219748e-15 0.11663417
0000b0 f1 d3 df b2 28 19 99 be ad 3d f7 3d d6 e4 0a 3e
       -2.6056997e-08 -0.29902005 0.120723106 0.13563856
0000c0 7c 0c 02 3e a6 31 a0 be 7d d2 22 be 8e 20 63 34
       0.12700075 -0.3128788 -0.15900607 2.1152866e-07
0000d0 8f 84 c4 38 6b 69 2f 31 29 e9 fb 3d e5 bb 00 3e
       9.370699e-05 2.5525775e-09 0.12300331 0.12571676
0000e0 77 1b a7 ad 2c 5d 0c 3e 0b 9b 36 38 f1 ca 0a 3e
       -1.8997899e-11 0.13707417 4.3536576e-05 0.13553979

weight f4 [1, 60]
000000 73 d2 5b 3f 10 96 84 3f cc 38 7f b8 91 c9 6b 3f
       0.85867995 1.0358295 -6.0849634e-05 0.9210444
000010 91 88 5f 3f b9 3d 5a c0 d9 f2 8f 3f 16 ce 25 ac
       0.8731776 -3.4100173 1.1245986 -2.356231e-12
000020 c3 a7 39 ae 1c 32 87 3f 7e 16 85 3f 98 87 89 3f
       -4.2213132e-11 1.0562167 1.0397489 1.0744505
000030 a0 af 82 3f 96 32 cf 39 95 60 80 3f a8 83 71 3f
       1.0209846 0.00039519806 1.0029474 0.94341516
000040 4b f5 84 3f b1 4c 2a c0 3f 77 87 a2 e7 a5 6a 3f
       1.0387357 -2.6609309 -3.671808e-18 0.91659397
000050 3a 99 2f c0 9c dd 78 3f 50 0f 61 2c 4f d1 31 3b
       -2.7437272 0.9721315 3.1982923e-12 0.0027132814
000060 fb 60 76 3f c8 28 0f 32 d4 70 10 b4 8f 80 8a 3f
       0.9624173 8.332968e-09 -1.3452092e-07 1.0820483
000070 ac cf 45 b1 72 4b 2a c0 d5 a9 87 3f 16 1f 7b 3f
       -2.878532e-09 -2.6608548 1.0598704 0.9809431
000080 cf ad 12 32 ea 6d 80 3f a1 cd 83 3f 7b 5c 89 3f
       8.537838e-09 1.0033543 1.0297128 1.0731348
000090 0a c7 eb 28 9d 0a 56 a3 86 e1 99 ae a5 a6 59 c0
       2.617656e-14 -1.1603211e-17 -6.9976955e-11 -3.4007962
0000a0 5d af 39 c0 bf d4 25 c0 3e 23 b7 27 57 8f 61 3f
       -2.9013283 -2.59111 5.0830913e-15 0.88109344
0000b0 70 89 23 b2 1f 04 2c c0 00 ea 6a 3f dc d1 84 3f
       -9.519098e-09 -2.6877515 0.91763306 1.0376544
0000c0 5d 51 78 3f 54 39 2d c0 99 96 61 c0 ee 9a 8c b3
       0.9699915 -2.706624 -3.5248168 -6.5474396e-08
0000d0 b3 ab 59 37 80 fd 45 b1 f4 7e 6f 3f a6 17 75 3f
       1.2974185e-05 -2.881137e-09 0.9355309 0.9573921
0000e0 c2 58 9e ad 62 3d 86 3f 3d e7 68 b7 e5 e5 84 3f
       -1.8001937e-11 1.0487483 -1.3882117e-05 1.0382658
