Total_RCS/epoch_200_batch_255_lr_0_0019819414761434403_wd_0_1808248925678225/torch_model_4_Tanh.pth (torch, 79675 bytes, 13 tensors)

weight f4 [60, 3]
00000000: 675d 9ebd b8d3 9a3c 7d2d 8ebe 980f 4f3d
00000010: 02f8 fbbd b08c da3d 63fd 143e fd5b e6be
00000020: 970b f7bc 0786 233f 26fa 6bbe afad 643e
00000030: 0a4f 2dbe e8f6 11bf 455b 48bf 7c4e fc3a
00000040: 3e35 603b 876b e03a 68e7 1c3b 618a 6f3b
00000050: 95ea dc3a 7234 5fbf be60 283e 0e2f 053e
00000060: 5b55 6b3c 577a f1be c9c2 17bc a2f6 baba
00000070: beab 2ebb a1e0 2ebb 03b3 483f 5c53 823e
00000080: 084e c2bd 525a 113c 08fb e8bd 0dc4 a33d
00000090: a579 d4bd 3f66 573d 82b1 0abe 9d5c ecbb
000000a0: eaa9 92bb 9413 febb 67ee 06bc 8b7c 05bc
000000b0: 4f6e 59bb 306d 00bd fb3a de3e 735e f5bb
000000c0: e9a2 e8bb 5af1 01bc d018 19bc fe6e c63a
000000d0: 77b7 473a 237c 06bc 0331 29be 918d e1bf
000000e0: cf70 35bf d04c a53e 0995 1bbe 3211 253e
000000f0: 5bf9 19be 422a 75bf 4fa3 f0be 93e9 3d3b
00000100: 2bbe 773b 273a dc3a b79e 0abd 8880 cd3e
00000110: 4523 8ebc d6d2 3abc 5c5e 4b3e 5c1e 81bd
00000120: 41ea 343f 04f6 fb3e 9713 ccbd c986 053f
00000130: 96fc 0e3f 0a89 023f 3664 ceba 4c22 113b
00000140: f056 d0ba 92b0 80be 85ef 4dbf 1f2b 49bd
00000150: 7c69 4cba 70de fcba 2b49 313b 5707 e6b9
00000160: 4f8e e7ba cfc2 3d3b c9e1 4ebd 342f 143f
00000170: 05a5 9b3f a8e3 4dbb 53d2 86bb 4c8d 02bb
00000180: 413f bb3c 99ff edbe 68ca bcbb 11cc f93e
00000190: 796b 1f3f 9d9f 9fbd a289 483f 58d1 ac3e
000001a0: aa75 aebe e943 bd3a 2ff0 4c3b 6fea 103b
000001b0: cf88 513b 09c0 883b 20b7 033b 249e 813c
000001c0: efe5 2cbf 2860 1bbf 634e fb3e cd1c 273f
000001d0: ddc5 cc3c 28e3 10ba 2228 6739 205e 143b
000001e0: 616f bbbd e389 073f cc40 973e aa49 963e
000001f0: 3399 0b3f 2214 083f c9db 563b ec13 763a
00000200: d52d dc3b 86c0 13bb d1ed 30bb f3f5 0dbc
00000210: 2c17 59bf 7158 2cbf 0630 093e 2f0a 5dbb
00000220: bfe2 84bb e7ad f4ba 5e42 cc3b 7a66 c93b
00000230: 3f33 053b f86b bbbb 7500 b7ba 6ade 1e3a
00000240: bee0 5e3b a8bc 34ba 2c95 f7ba 3be4 73bc
00000250: 9244 7abb a24d d8bb 5a22 383b 8e62 aa3a
00000260: a196 47bc 5e50 373f 4588 6ebf 8411 d53d
00000270: 91da be3e 5ded 28be 00bd 4f3e cc41 1b3d
00000280: 607d 6c3e 00b5 aebf 3d7a 19bd 40b5 f3be
00000290: 9658 55bf 5b20 ce3e a819 203e 2240 cf3d
000002a0: 1e1a 583b c686 893b 485c 003b a151 ffbd
000002b0: b473 e7be 9f46 733f b55c bbba 794a 2ebb
000002c0: 9937 feba 61b1 373f f21a 51bf 4680 f9be
-0.07732659 0.018899783 -0.2776908 0.05055198 -0.12303163 0.10671365 0.14549784 -0.44992056
-0.030156894 0.63876384 -0.23044643 0.2233188 -0.16924682 -0.57017374 -0.78264266 0.0019249464
0.0034211422 0.0017121889 0.002394164 0.0036550986 0.0016854579 -0.871894 0.16443154 0.13006231
0.014363612 -0.4716365 -0.009262749 -0.0014264176 -0.002665266 -0.0026684182 0.7839815 0.25454223
-0.094875395 0.008871632 -0.113760054 0.07996378 -0.10374764 0.052587744 -0.13544276 -0.007213189
-0.0044758217 -0.0077537987 -0.0082355505 -0.008147369 -0.0033177321 -0.03135413 0.43404374 -0.007488066
-0.0070994985 -0.007931078 -0.009344295 0.001513928 0.0007618586 -0.008208307 -0.16522603 -1.7621328
-0.7087526 0.32285166 -0.15193571 0.1611984 -0.15036528 -0.95767605 -0.46999595 0.0028978332
0.0037802558 0.0016801999 -0.03384277 0.40137124 -0.017350802 -0.011402806 0.19860214 -0.06304619
0.70669943 0.49211133 -0.09964674 0.5215879 0.55854166 0.50990355 -0.0015746418 0.0022145687
-0.001589505 -0.25134712 -0.804436 -0.04911339 -0.0007797701 -0.0019292366 0.0027051668 -0.00043874487
-0.0017666313 0.0028955226 -0.050508294 0.57884526 1.2159735 -0.0031416211 -0.004114428 -0.0019920645
0.02285731 -0.46484068 -0.0057614334 0.48788503 0.62273365 -0.07794116 0.7833501 0.33753467
-0.34074146 0.0014439794 0.003127109 0.002211239 0.0031972413 0.004173283 0.0020098165 0.015822478
-0.6753835 -0.606936 0.49083242 0.6527832 0.024996692 -0.0005527013 0.00022044827 0.002263911
-0.09152103 0.52944773 0.29541624 0.29353076 0.5453064 0.5315572 0.003278481 0.0009387124
0.006719331 -0.0022545173 -0.0026997218 -0.008664596 -0.8480098 -0.6732245 0.13397226 -0.0033727994
-0.0040553506 -0.001866755 0.0062334975 0.0061462494 0.0020324735 -0.005719658 -0.0013961928 0.0006060364
0.0034008469 -0.0006894567 -0.0018889061 -0.014885957 -0.0038187844 -0.0066010514 0.0028096647 0.0012999342
-0.012181909 0.71607006 -0.9317668 0.104037315 0.37276128 -0.16496797 0.20286942 0.037904546
0.23094702 -1.3648987 -0.03747009 -0.4759922 -0.83338296 0.4025906 0.15634787 0.10119654
0.0032974551 0.0041969744 0.0019586254 -0.12466741 -0.45205462 0.95029634 -0.0014294597 -0.0026594682
-0.0019395232 0.71755034 -0.8168174 -0.48730677

bias f4 [60]
00000000: 12a7 96be 4e40 fe3d 13b6 ab3d 78d4 5d3f
00000010: 5b87 25bf ee6e 223b 1770 113b 0958 53bd
00000020: 0cff 59bd 6022 713a 132c 383f 704d 823d
00000030: a01a 58be b12b d13b fa2e 533a d68e 7c3c
00000040: b5d1 883b 8005 613b 9306 81bf 8e72 e73e
00000050: 2165 0dbf aef0 933a 95a5 03ba 8737 1dbd
00000060: a11e 303f 48e2 30bf 3255 a63b 5fae e3be
00000070: 0b05 89bb ecf4 8dbb 8a09 3a3f a3e1 d6ba
00000080: 11d6 25bd 44ce 093f 73a1 293f 7c7d 333b
00000090: 4f97 e33a 386f fcbe 800f 143f f010 b8ba
000000a0: f379 333e f665 193f 9b08 d8bb 0937 823b
000000b0: f821 013f 5cbf 5dba 47a9 6db9 5f49 403c
000000c0: e0a8 e0bb 416e f33c 3e47 a03b b51d 673f
000000d0: 1a72 093f aa9d 5cbf 37b6 20bf 9742 f83e
000000e0: 9e34 c13a ef65 0a3f 6cdd 623a 5e72 b93e
-0.2942434 0.12414609 0.08384337 0.86652327 -0.6465966 0.0024785358 0.0022192055 -0.05159763
-0.053221747 0.00091985427 0.7194225 0.06362426 -0.21103907 0.0063833822 0.0008056011 0.015414914
0.0041753897 0.0034335554 -1.0080131 0.45204586 -0.55232435 0.0011286938 -0.0005021927 -0.038383033
0.68796736 -0.6909528 0.005076074 -0.44468972 -0.0041815094 -0.0043321755 0.72670805 -0.0016394149
-0.040487353 0.5383036 0.66261977 0.0027388027 0.0017363819 -0.49303603 0.5783615 -0.0014043134
0.17526989 0.59921205 -0.0065928227 0.003973846 0.5044246 -0.0008458996 -0.00022665142 0.011736243
-0.006856069 0.02971566 0.004891305 0.90279704 0.5368973 -0.86178076 -0.6277804 0.48488304
0.0014740413 0.5406179 0.000865421 0.36220068

weight f4 [60, 60]
00000000: 2aa6 8c3a 6366 363b 5074 3fbb 4287 d8bb
00000010: 8199 d0bb 6bca 92bb c2e2 9bbb 0c39 2e3c
00000020: 6a79 33ba 57f9 583b 8c9f 8739 9a3e cc3b
00000030: 533d b0ba 2c39 003c 2761 033c a689 c139
00000040: 1f9c aa3b 972d 35b9 1221 2bbc 0bf3 5ebb
00000050: 29b0 33bc 0e10 99bb 3546 3137 94da 56bb
00000060: b221 903b 8dee 903b a08c 433a a383 65bb
00000070: 5975 043a 49e8 6239 f5fa 263c 098e a63b
00000080: 4e18 2fba bac9 563b 3320 073c 6e87 7dbb
00000090: 6024 a9bb 1986 11bc a447 943b cc12 e2b9
000000a0: ee5f b83b 30c3 903b 4073 70bb cd03 713b
000000b0: 7929 353b f6ac a13b 81ed b9bb 77f1 8e3a
000000c0: 2e3c 683a 0ee6 433c 3575 7aba 5197 2bbc
000000d0: 5cfc 94bb b315 7f3c 7013 adbb 66f8 78ba
000000e0: d1dc a7bb c153 72bc e6fc 473b 7381 1abc
000000f0: 17cb bb38 6f89 52bb 6c2e 863a 9873 49ba
00000100: 2cdf 0e3c 7323 693b bd27 783b 4039 09bc
00000110: 27c3 97ba 280d 05bb 8fd3 3039 9a72 e1bb
00000120: 6066 ba3a 8f38 9fbb c0ef bebb ef77 893a
00000130: 5f44 11bb a762 d63a 5d78 c13b 110f 153b
00000140: 5d24 e23b 2906 5e3b b1cc 9a3a 2992 843b
00000150: 5d05 23ba 61af 293b ce27 1939 6593 6dba
00000160: 259c baba 5473 a0ba f821 32bc 4578 81bb
00000170: a4fd 8cba 75a5 9639 90dc 02bb a82f 553b
00000180: 334f 853b 831c d03b e382 82ba 6388 cc39
00000190: ce17 e3ba f026 afbb ec08 d03a 992f d5ba
000001a0: 9297 bcbb 4b19 67bb 2e20 543b ce15 a03a
000001b0: 78d6 14bb a47f dabb 61e2 5c3b a68d be3b
000001c0: b9a2 123b 7f10 7fbc 5416 d53b e2a5 233b
000001d0: 05be 803b b029 8c3c 3752 04bb 5db0 05bb
000001e0: 7659 c7ba 60d3 65bb 27bb 2fbb 92a2 09bc
000001f0: dcb6 073c e118 3e3a 69e6 333a 9696 49bc
00000200: 78f9 31bb 4a8f 943a 3aae 31ba 4be7 adbb
00000210: 7eaf 183b 15df da3a 5783 a9b6 ac86 363b
00000220: 9906 be3b da52 54bb 3df8 b0ba b1bb 4dbb
00000230: 1edf b53b c4b5 b6b8 4c3c 453b 2ce8 9d3b
00000240: 5306 f538 b613 69ba 738f b9b9 9f02 60bb
00000250: 92aa bbba 346e bcba 81a1 35bc d876 13ba
00000260: 0743 30bb 3583 223b 6d76 83b8 7a13 ab3a
00000270: 9b5e 383a 8eb0 df3b 3b74 ff39 ad82 27ba
00000280: a3c9 db3a 6778 81bb 2f80 2cb8 4247 f2ba
00000290: df9c aeba 69e9 a738 5476 c9ba 2036 e83b
000002a0: e688 98bb 19ce e43a 3768 8cbb c956 f13a
000002b0: b070 7dbb 0ca9 d5bc d8c8 cc3b 4b45 ee3a
000002c0: c175 e539 01dc f83c f8cb 6a3a 82aa 2dbb
000002d0: 7966 5bbe 475f 643e 98c3 8d3e cd92 d93d
000002e0: 807f f93d 9368 613c 9f66 5d3c be2f d0bd
000002f0: c1e7 913e 9692 08bc 34ae 50bd 91df 373e
00000300: f5f7 70be 7b19 4cbc a154 71bc b935 94be
00000310: b9eb 87bc c2b7 4ebb 5319 523f 9bc1 823e
00000320: 471f d53d c515 403c f95c 8bbe fe07 45be
00000330: d34e 24be 839b a53e 6840 c53b 7255 883e
00000340: a93f b3bb 8050 adbb e964 24bf 0998 5abc
00000350: 46b7 953e c9f8 27be 3c23 4cbe c27f 603c
00000360: cf8d 5e3c 6978 72bd 7895 e4bd ece3 c1ba
00000370: 4106 ce3c 44da 8f3d 159a 813b 0b13 edbb
00000380: 5481 6dbc 2aab 45bc 0cd8 433c 1255 933c
00000390: 3246 85bc e7d6 be3c 2c89 3dbb 1f5f d03c
000003a0: 1193 7b3e 5712 603f f4aa de3d d93e 1e3e
000003b0: 9c9d 563c d3fc 2cbe 8a09 e4bb 8680 bdbc
000003c0: ab16 263e 2b40 98bd cb56 76be 0f94 a23b
000003d0: c91d 443e b182 d4bb 8df5 86bb ae14 953e
000003e0: 14e2 9cbe 93de b13b d5bc 823d 989a 80bd
000003f0: b02c 603d 1f0f 1a3c 7ee0 ceba 559a 8d3e
0.0010730673 0.0027832023 -0.0029213615 -0.006607921 -0.0063659553 -0.0044796965 -0.0047572562 0.010633718
-0.00068464 0.0033107603 0.00025868078 0.0062330486 -0.001344601 0.007826131 0.008018768 0.00036914385
0.0052065994 -0.00017278489 -0.010444896 -0.0034019377 -0.010967293 -0.0046711033 1.05663685e-05 -0.0032784091
0.004398548 0.0044229687 0.00074596144 -0.0035021089 0.00050528866 0.00021639573 0.010191669 0.00508285
-0.0006679342 0.0032774047 0.008247423 -0.0038685459 -0.005161807 -0.008882069 0.004525142 -0.00043120084
0.00562667 0.0044177994 -0.0036689788 0.0036775947 0.0027643128 0.0049339486 -0.0056740646 0.0010905702
0.0008859065 0.011956705 -0.00095542084 -0.010473088 -0.004546685 0.015569138 -0.005281858 -0.00094974635
-0.005122759 -0.014790476 0.003051573 -0.009430277 8.954683e-05 -0.0032125374 0.0010237223 -0.00076847663
0.0087202005 0.0035574108 0.0037865483 -0.008375466 -0.0011578546 -0.0020302031 0.0001686348 -0.0068801166
0.0014221184 -0.004859037 -0.0058269203 0.0010488014 -0.0022165996 0.0016356305 0.005904241 0.0022744576
0.0069013075 0.0033878183 0.001181027 0.004045744 -0.0006218756 0.0025891887 0.00014606045 -0.0009062796
-0.0014237209 -0.0012241402 -0.010872357 -0.003951105 -0.0010756743 0.00028733505 -0.0019967891 0.0032529626
0.004068279 0.006351055 -0.000995722 0.00039011528 -0.001732582 -0.005345218 0.00158718 -0.0016264796
-0.0057553733 -0.0035262879 0.0032367813 0.001221353 -0.002271084 -0.006668048 0.0033704268 0.0058152257
0.0022374822 -0.015567898 0.006502906 0.00249707 0.003928902 0.017109722 -0.0020190605 -0.002039931
-0.0015209157 -0.0035068616 -0.0026814432 -0.008400576 0.008283343 0.0007251632 0.0006862642 -0.012303969
-0.0027156752 0.0011334207 -0.0006777976 -0.0053071133 0.002329796 0.0016698564 -5.0518825e-06 0.0027851267
0.0057991263 -0.0032398016 -0.0013501715 -0.003139239 0.0055502793 -8.712293e-05 0.0030095754 0.004818937
0.00011683688 -0.0008891182 -0.00035392828 -0.003418125 -0.0014317802 -0.0014376105 -0.011085869 -0.0005625314
-0.002689542 0.0024797444 -6.268625e-05 0.0013052069 0.000703314 0.006826467 0.0004872399 -0.00063900166
0.0016768466 -0.0039511207 -4.1127376e-05 -0.0018484371 -0.0013321898 8.0066566e-05 -0.0015370348 0.0070865303
-0.0046549914 0.0017456441 -0.0042848843 0.0018412705 -0.0038671903 -0.026081584 0.0062495284 0.001817861
0.00043766017 0.030378344 0.00089567853 -0.0026499336 -0.21425809 0.2230197 0.2768829 0.10623703
0.12182522 0.013757843 0.013513236 -0.10165356 0.28497127 -0.00833573 -0.050947383 0.17956378
-0.23532088 -0.012457247 -0.01472965 -0.28947237 -0.016591894 -0.0031542634 0.8206989 0.25538334
0.10406356 0.01172394 -0.2721937 -0.1924133 -0.16045694 0.3234521 0.0060196407 0.2662769
-0.0054702354 -0.0052891374 -0.64216477 -0.013341912 0.2924139 -0.16403498 -0.19935316 0.013702335
0.0135836145 -0.059196863 -0.111613214 -0.0014792657 0.025149466 0.07024053 0.0039551356 -0.007234936
-0.014496166 -0.0120647345 0.011953365 0.0179849 -0.016268823 0.023295833 -0.0028920872 0.025435982
0.2456782 0.87527984 0.108724505 0.15453662 0.0130991 -0.1689332 -0.006959145 -0.023132574
0.16219585 -0.07434114 -0.24056546 0.0049614976 0.19151987 -0.006485306 -0.0041186274 0.2911734
-0.30641234 0.0054281442 0.06383673 -0.062794864 0.054730117 0.009403019 -0.0015783457 0.27656808

bias f4 [60]
00000000: 5851 75bb 3782 b13b 9d42 013c e106 033e
00000010: 5e28 c13e 5e83 79bb 5818 b5be fcd5 8a3b
00000020: 82ca 3f3f 7137 d9be bb17 163b bc09 c73b
00000030: b1f8 f6be 787e 5bbb f2b3 babe 4880 2e3d
00000040: 72a3 1e3f 2a79 5dbf 7b95 ff3d e7ef 73bd
00000050: c851 573c 38b9 df3d c666 123b c5d3 f13a
00000060: 201f 09bd 9b2b 77be 4657 09be 9710 823b
00000070: fbb2 b5bd d891 883e c65f da3d a517 443e
00000080: 5621 083e 56ce f1bc e7d2 50bb e79e 4bbe
00000090: 5212 acbe 0f03 1dbf 0f2c b83b 14f3 98bb
000000a0: 15c4 92bb e344 b73e cd8b 763e f392 913e
000000b0: 4de9 22bd e2d1 afbe 92ae 983d cbcd 54be
000000c0: 8364 433c 4dc1 1b3d 1836 1d3c b2d8 ffbe
000000d0: 24f2 92bb df79 1dbd d721 73ba c61e 503d
000000e0: eba7 e03c 3962 103d 804f d5bd 2c50 df3b
-0.0037432518 0.005417134 0.007889417 0.12795593 0.3772611 -0.0038072686 -0.35370135 0.0042369347
0.7491838 -0.4242511 0.0022902328 0.0060741585 -0.4823661 -0.003349213 -0.36465412 0.042602807
0.6196815 -0.86513007 0.12479683 -0.05955496 0.013142057 0.109239995 0.002233909 0.0018449953
-0.03347695 -0.24137728 -0.13412198 0.003969263 -0.088720284 0.2667377 0.106627986 0.19149645
0.13293967 -0.029517334 -0.003186399 -0.19884835 -0.33607727 -0.6133279 0.0056204866 -0.004667649
-0.004478941 0.35794744 0.24076767 0.28432426 -0.039773274 -0.34339815 0.07455172 -0.20781629
0.011925819 0.038026143 0.0095954165 -0.49970013 -0.004484432 -0.038446303 -0.0009274757 0.050810598
0.02742382 0.035249922 -0.10415554 0.006814977

weight f4 [60, 60]
00000000: eb48 4ebc e363 ebbb 5e66 bfbb 64c8 95be
00000010: 2fba 343e 1e2a ba39 02fc 423d dbeb d7b9
00000020: adc1 83be 8d90 15bc 39e5 debc fa09 a5bc
00000030: ca94 8b3e a22f f7b9 1a3f 38bd a863 7dbe
00000040: e3c6 34be 894a 3cbe b5cb 0d3e c287 823e
00000050: d0ec 5bbc 84a7 81bd 8457 6d3b 5de1 253c
00000060: ad2e b03b ac97 96bc 1719 d53e 09a6 423a
00000070: 8826 d3bc 7441 66be 8748 82be cb93 ff3d
00000080: 7fea 23bd e215 03bd 9d8b 30bb b805 363e
00000090: ee41 413d ee94 9e3c 122d c2bb fc7f c538
000000a0: 0806 2d39 03f7 cabd a8fe 0abf 4097 91be
000000b0: 4dbc cbbd f596 153e bc2a 053e 6039 3f3e
000000c0: cc45 13bc b273 c1be 82bf 103c 0a99 463e
000000d0: 25bd 2137 b03b f13b 8c16 243c 49d2 5cbe
000000e0: 6724 5cbc 3439 dd3d dc82 ae3e a4ea 0cbc
000000f0: 8ca7 a53b 7386 1eb9 feaa 70bb 7892 ff3d
00000100: 9b4f 0d3d 6d69 0f3c 0a5c 8a3c 4c9d 78bb
00000110: 6890 b0be 7bf8 b03d fb2f 863b 7547 fd3b
00000120: 2033 ea3e 39ce d83a df00 14bf 0158 37be
00000130: a986 91be 5261 e7bd a53e ccbd 4470 dfbd
00000140: e026 14bb bafc b13e 9dc3 93bb 3077 d0bb
00000150: a7c6 ab3b e72a 193e a976 143f 1ad9 20bc
00000160: ebb2 c63e 5d63 35bf ce6c 433e 2a6a 873e
00000170: 0608 09bf a180 86bf fa4c 203c 3485 a83c
00000180: b8c8 0abd d296 34bf affb 98bb 00af 5b3c
00000190: 9f68 013c 8559 d13d 8cbb ecbe 99f2 81be
000001a0: 82ff e9be 4d86 153c d52a 963e 1436 453e
000001b0: eb24 8f3a a68d d23d 35a9 41bc 611b a1bd
000001c0: c2d0 2b3c 06c6 683b 4077 ed3b 8e18 643a
000001d0: b0df 203e 70a7 24bf 9642 543f 473e e5bb
000001e0: 7068 64bc f361 623c 13ca 8d3c 4fc6 8b3e
000001f0: af4d 20be 7213 55bc b645 b3bd bc95 8b3c
00000200: ffb9 c53e 0cb5 c1be 9c54 b1ba b1fc 8a3c
00000210: bbe1 a1be 8ad8 67bc 293f acbe d90b f63e
00000220: 4e4a ce3e 2491 42bc 4cf8 c2be ed5d 81be
00000230: ac41 903c 379c 343e 70ed 063b fc1e cabb
00000240: 9b9c 2f3a b194 773e 9a52 37be 0216 563c
00000250: 5837 a83d 2469 54bd badf 883e 2bda 81be
00000260: 85fa 55bd 47ac 843e 3b69 3dbc a2ff 40be
00000270: 3e07 cbbd 0ded 943e 5333 833c 20a0 5abc
00000280: 7b02 85bc 124b cf3d 3fa6 933e e36c 933e
00000290: 19e3 88bc e988 1dbf 021b edbc 41be 30be
000002a0: 3dc2 bc3c e454 043f a99a 8b3c b3ab 84be
000002b0: e25d 32bc f6c0 a43a d7b2 f53b 9e74 693e
000002c0: b18f 10be f80e c1be 5dc8 0cbe e068 803c
000002d0: b670 123d 6943 bfbc abdb a6bc f00e 163f
000002e0: cbd3 1ebe f8a5 8f3c 47af 1dbd d3b8 bfbc
000002f0: 11b7 943e ea47 05bf c975 2bbc f676 e6bc
00000300: dd4f 33bf 9fe9 a73c d86b 0dbf c951 a23d
00000310: 14c9 a03e 9060 c03e f3b9 cd3e 5eec e6be
00000320: f118 cbbc 7d62 ebbd d0b1 f2bc ca78 a9bc
00000330: 42c2 853c 1897 ff3b a895 39bd 0d7b 91bc
00000340: ff05 f83c 7c43 8dbe ee43 1d3f c44d 4d3d
00000350: 6d67 0dbe 5416 22be adf0 863c cc07 aebe
00000360: 2e37 89bd 96f8 a93e f554 a0bc de4f 8b3c
00000370: 54f7 9a3c deeb 6e3d a119 033f 6318 de3e
00000380: fee7 d83e 8ef4 823d d700 37be 5986 8d3e
00000390: f864 fabb db6d ecbd ed93 cebc 8b1e 9bbe
000003a0: ec29 8a3c 3eb1 d73c 7f3a a83c 6838 753d
000003b0: 74a5 e1be 2e34 0abc de7a 373e c77d 9abc
000003c0: e49d 9c3b 7987 cfbb 291c 10bc 0a11 81bd
000003d0: 35df 2c3e cd18 1c3c 0039 83be 25ff 23bc
000003e0: e7f8 d93d 74be 9fbd 0675 923b 9098 0cbc
000003f0: 14f9 1dbe 87ce 1c3c 3284 17bd 4858 71bc
-0.012590627 -0.0071835383 -0.0058410605 -0.29254448 0.17649148 0.00035508064 0.047603615 -0.00041183722
-0.257337 -0.009128702 -0.027208911 -0.020146359 0.27261955 -0.00047147 -0.044982053 -0.24745047
-0.17653994 -0.18387808 0.1384724 0.254942 -0.01342316 -0.06330779 0.0036215493 0.010124532
0.005376658 -0.01838287 0.41620705 0.0007425254 -0.02577521 -0.22485906 -0.2544596 0.12479361
-0.040018555 -0.03200329 -0.0026938685 0.17775619 0.047182016 0.019358125 -0.005925783 9.417531e-05
0.00016500812 -0.09910395 -0.54294825 -0.28435707 -0.09948025 0.14608367 0.13004583 0.1867423
-0.008988809 -0.3778358 0.0088347215 0.19394317 9.640386e-06 0.0073618516 0.010015141 -0.21564592
-0.013436413 0.10801926 0.34084213 -0.008600865 0.0050553735 -0.0001511814 -0.0036723013 0.124791086
0.034499746 0.008753163 0.01688959 -0.0037935553 -0.34485173 0.08641144 0.004095075 0.0077294656
0.4574213 0.0016540951 -0.5781383 -0.17904665 -0.2842305 -0.11297859 -0.09972886 -0.10910085
-0.002260618 0.34763128 -0.004509403 -0.0063618645 0.005242187 0.14957772 0.5799356 -0.009817386
0.3880838 -0.7085474 0.19084474 0.26448184 -0.5352787 -1.0508004 0.009783978 0.020571329
-0.033882827 -0.70542634 -0.004668675 0.0134084225 0.007898479 0.102221526 -0.46236837 -0.253804
-0.4570275 0.009126258 0.29329553 0.1925891 0.0010921037 0.102809235 -0.011820127 -0.0786655
0.010486783 0.0035518422 0.0072468817 0.00087011687 0.1571033 -0.6431799 0.829141 -0.0069959494
-0.013940915 0.013817298 0.01730827 0.27299735 -0.15654634 -0.013005124 -0.08753531 0.017039172
0.38618466 -0.3783344 -0.0013529244 0.016966196 -0.3161753 -0.014150748 -0.33641937 0.48055914
0.40291065 -0.0118754245 -0.3808006 -0.25266972 0.01760944 0.17637716 0.00205883 -0.0061682444
0.0006699056 0.24177815 -0.17902604 0.0130667705 0.08213681 -0.051858082 0.2673319 -0.2536176
-0.052240867 0.25912687 -0.011560733 -0.18847516 -0.09913491 0.29087105 0.016015684 -0.013343841
-0.016236534 0.101217404 0.28837773 0.2879401 -0.016709851 -0.61537033 -0.028943542 -0.17260076
0.023041839 0.5169203 0.017041521 -0.25912246 -0.010886641 0.0012569714 0.007498126 0.22798392
-0.14117314 -0.37706733 -0.13748308 0.015675008 0.03575202 -0.023347573 -0.020368418 0.5861654
-0.1551048 0.017535195 -0.038497236 -0.02340356 0.2904592 -0.5206286 -0.010465094 -0.028132897
-0.70043737 0.020497141 -0.5524268 0.079257555 0.3140341 0.3757367 0.4018093 -0.4510221
-0.024792166 -0.114933945 -0.029625803 -0.02068748 0.01632798 0.007799994 -0.04530874 -0.01775887
0.030276297 -0.2759055 0.6143178 0.05012299 -0.13808985 -0.1582883 0.016472185 -0.33990324
-0.06699978 0.3319747 -0.01957176 0.017005857 0.018916763 0.05833041 0.5121098 0.4337798
0.42364496 0.06394301 -0.17871414 0.27641562 -0.007641431 -0.11544391 -0.02521702 -0.3029674
0.016865693 0.026329633 0.020535706 0.059868246 -0.44071543 -0.008435292 0.17917964 -0.018858803
0.004779564 -0.0063332883 -0.008795776 -0.06302078 0.16882022 0.009527397 -0.25629425 -0.010009562
0.106431775 -0.07799998 0.0044695167 -0.008581296 -0.15427047 0.009570724 -0.036991306 -0.014730521

bias f4 [60]
00000000: 04e1 cd3c 8c18 833e a0b3 6f3d 8fe4 683e
00000010: 396f c33e aaf0 5b3e 39dd 103d 3da5 8c3d
00000020: ad58 94bd d25e 52be db84 07bf bea3 9a3c
00000030: 2961 3abe 5112 d0bd aa58 2ebe f710 543a
00000040: 1e3b c43e dbb9 84bd 1cfc 7cbe c9aa bf3e
00000050: eed9 dbbb 32b2 e1ba 8e9a 9c3e 68e1 debb
00000060: 5c45 243e 0a0a a1be 5953 91bd d53b a3be
00000070: e860 94bd 148d 94be bf07 8d3e 96d9 b2be
00000080: 25e5 d8bc 419e f0bc 2930 0f3e 1b66 7d3e
00000090: 6494 d33d c3d3 863e be09 df3e f5e2 cf3c
000000a0: ef47 953e 185b 9abe 3be8 113f eeb8 eabd
000000b0: 1a01 36bb e0b7 fabd ff69 e33b c5be e23e
000000c0: 319b 9ebb ec0c a83e 55e2 543d 540d 82bd
000000d0: 2cb5 02be 262a 2c3d 0f55 a3be 7412 103e
000000e0: 053e 5f3e 89bd 5e3e a903 46bb 2cf3 0e3c
0.02513171 0.25604665 0.058520913 0.22743438 0.38170794 0.21478525 0.035367224 0.06867454
-0.07243476 -0.20543984 -0.52937096 0.018876906 -0.18201126 -0.101597436 -0.1702601 0.0008089686
0.38326353 -0.064807616 -0.24705547 0.37434986 -0.006709329 -0.0017219244 0.30586666 -0.006801773
0.16042084 -0.31452972 -0.070959754 -0.31881586 -0.07245046 -0.29013884 0.27544972 -0.3493163
-0.026476452 -0.029372336 0.13983215 0.24745981 0.10331038 0.26333436 0.4356212 0.025376776
0.29156443 -0.30147624 0.5699498 -0.11461054 -0.0027771653 -0.122421026 0.006940126 0.4428617
-0.0048402776 0.3282236 0.05197366 -0.063501984 -0.12764424 0.042032383 -0.31900832 0.1406954
0.21801002 0.2175199 -0.0030214584 0.008724969

weight f4 [60, 60]
00000000: f893 febc bfe6 053d 20dc 2b3e c70f ee3e
00000010: e67d 0ebe a955 e0bd 03f0 e83e 6f35 b9bd
00000020: 0508 8ebe f275 e4bd efb1 e93d 2572 4bbc
00000030: 8d1a ad3e 7783 69bd 6517 d33d 8efb cd3a
00000040: d8ed 10be 95bf f0bd 89cd d33d d60b 0bbe
00000050: d0e3 e138 bdf3 d2bb 599d f3bd a8d7 ff3c
00000060: f509 f53e 3d01 003e d093 c5bd 250f 0c3e
00000070: 2bad 45be 3422 e9bd 687f e93d 47f4 023e
00000080: 131b 153e 2373 ea3c 6c0d 173c ec35 f1bd
00000090: ccd5 ef3e 3fba 45be ce77 c73e 3a79 bc3d
000000a0: ef80 863e 8735 b8bd e396 083f eb46 df3e
000000b0: 422a 3c3c 916f 03bc 4110 393c 3d88 853e
000000c0: 0db1 80bc 0017 02be 32f9 763e cf25 b03d
000000d0: 7f6a 70be d661 66bd 8515 723e 5ec1 0b3f
000000e0: 3623 233e 3852 c43d 67c2 09bc c287 b63c
000000f0: b4e2 20bb 1d8b 09bb a35b 0b3a 8fc1 adba
00000100: 5fca 5cba d700 213a 48c2 ab3a cb6d 9bbb
00000110: f533 5c3b 7226 1b3b eff7 e03a 93f2 f33a
00000120: adaa 90bb 1678 3139 a878 36ba 3056 a33b
00000130: 41ab 6cba d71f 6339 b140 dbb9 d26b 4aba
00000140: 10e3 c9ba 79d1 bcbb c3c2 0b36 b274 ab3b
00000150: 9dcb 98bb d97d 4838 dd64 723a 3e28 023c
00000160: 0db9 deba a571 23bc 2b9c cd3b fdec fb39
00000170: 5bca 9a3b 7956 98ba c269 043c 649b 053a
00000180: 5778 56ba 4a4c 6d3b 7864 84bb 2417 08bc
00000190: 2f74 e23a 5c93 8d3b db8c 0cbb f567 1139
000001a0: ec37 5838 6c2b 9fbb 239f 173a 7217 433b
000001b0: e072 59bb 4f0a 55b9 c6ee 82bb bb90 6cba
000001c0: 497d 8a3a 9f74 c03a f6e9 e03a 1c23 933a
000001d0: 9744 9ebb de96 8cbb d6aa bcbb 6205 213b
000001e0: 941e 11be 2992 08be f40f c73e f61b 293e
000001f0: 66df 1dbe 3bfd 29be ac45 00bf 653e 4d3e
00000200: 0066 343d 016e 63bd 49e9 153e 6d34 5abc
00000210: bbb5 d2be 7ed4 df3e a480 2a3e 6461 45bb
00000220: 75fe 1cbe b607 183e 3007 263e 7d21 1ebe
00000230: 777b ad3b ea8a ceba 0427 23be 908e 193d
00000240: 74f3 20bf 7df2 223e d9e8 02be f768 053d
00000250: 7ef4 5a3c c9d1 ce3d 5104 73be bf07 203e
00000260: 0210 fdbc 046a c2bd cf04 9c3e b9c1 28be
00000270: 8162 a53d 1fef d23d d7c5 123e c989 183e
00000280: 334a 1d3d f950 1e3d c579 4c3e 8e89 4fbf
00000290: 23af e13b 5b09 50bf 5871 663c db6b db3d
000002a0: 3f10 a1bc 55c3 21be d782 0abf f129 293e
000002b0: ffeb ea3c bb20 a5bd 6a5c 68be cb2f 5e3e
000002c0: a291 91be a456 ef3d 1634 22bb a4d9 b73c
000002d0: 014e 3fbe f008 1b3f a0f8 0ebf 2a60 fdbd
000002e0: b220 223e 46e4 203e accd 18be a966 3d3e
000002f0: 1573 ac3d 6d0f 1f3f 6c3b b03d f757 963b
00000300: 1ddc 51be 2dfa 6b3e b8a2 23be 39ec 9d3b
00000310: 4f0d 203e 5772 1b3e 46e8 febd e0c1 133e
00000320: eb23 52bb 233f bebb 2b39 043e 6dbc 673b
00000330: 8380 1f3d 7a87 13be 44d5 833d fb2e e9bd
00000340: 8b71 0cbe 2966 be3d a08a 8bbd ec31 05be
00000350: 5388 0f3e 1daa d23d 290d 99be 2053 243e
00000360: 4771 84bb a4a6 f43d 3c56 e33f aeea b5be
00000370: 1533 2abe f724 813d 2618 7c3e 3932 113e
00000380: 4d7c 423b 552c 303f 5f38 aaba 4b16 d73c
00000390: 1a55 7ebb c502 133e 8d75 393e 2978 0ebe
000003a0: 5b53 4e3e 78ea c1bd e2e1 7fbe 8024 563e
000003b0: 8471 ff3d 4bba 253f eb4e e0bb 8930 7b3b
000003c0: cae7 18be 6ada b23e baca bbbe 3219 1dbe
000003d0: 4948 1cbd b330 293b 7e1a 35bf bfcc 14be
000003e0: fc31 953e 518c ee3e 48a6 d9bd 1755 11bd
000003f0: 6d0b 0bbe e7ad b9bc 68fd 6cbc 34f4 31bc
-0.031076416 0.03269076 0.1678319 0.46496412 -0.13915214 -0.109538384 0.45495614 -0.09043395
-0.27740493 -0.11155309 0.11410891 -0.012417351 0.3380932 -0.05701014 0.103071965 0.0015715228
-0.1415323 -0.117552914 0.10341937 -0.13578734 0.000107712694 -0.0064377473 -0.11895246 0.031230763
0.4785916 0.12500472 -0.096473336 0.13677652 -0.1930434 -0.11383477 0.11401254 0.12788497
0.14561109 0.028619355 0.009219509 -0.11777863 0.46842802 -0.19309328 0.3895859 0.0920281
0.26270244 -0.089945845 0.53355235 0.43608794 0.011484684 -0.008022205 0.011295379 0.26080504
-0.015709424 -0.12704086 0.24118498 0.086009614 -0.23478125 -0.056245647 0.23641022 0.5459193
0.159314 0.095859945 -0.008408166 0.022281531 -0.0024549188 -0.002098746 0.0005316084 -0.0013256537
-0.00084224896 0.0006141788 0.0013104165 -0.004743313 0.0033600305 0.0023674038 0.0017163734 0.0018611721
-0.0044148774 0.00016924771 -0.0006960728 0.0049846396 -0.00090282044 0.00021660268 -0.00041819134 -0.0007721755
-0.0015402753 -0.005762276 2.082598e-06 0.005232417 -0.0046629445 4.780092e-05 0.0009246597 0.007944165
-0.0016992405 -0.009975825 0.00627472 0.0004805102 0.0047238297 -0.001162245 0.008081855 0.00050967024
-0.0008181384 0.0036208802 -0.004040297 -0.008306298 0.0017277057 0.004320545 -0.002144626 0.00013867005
5.1550494e-05 -0.004857471 0.0005783906 0.0029768613 -0.0033180043 -0.00020317103 -0.003995749 -0.0009024252
0.0010565902 0.0014683193 0.001715957 0.0011225673 -0.004829954 -0.0042904457 -0.00575767 0.0024569859
-0.14171821 -0.13337006 0.3887936 0.16514573 -0.15417251 -0.16600506 -0.5010631 0.20043333
0.044042587 -0.05552483 0.14639772 -0.013318163 -0.41154274 0.43716806 0.16650635 -0.0030117864
-0.15331443 0.14846691 0.1621368 -0.15442462 0.005294259 -0.0015757952 -0.15932852 0.037489474
-0.6287148 0.15912814 -0.12784137 0.032570805 0.013363956 0.10098607 -0.23732115 0.15627955
-0.030891422 -0.09492877 0.3047242 -0.1648015 0.08075429 0.10299515 0.14333282 0.14896311
0.03840084 0.03865144 0.19968326 -0.81069267 0.006887333 -0.81264275 0.014065109 0.10713931
-0.019661067 -0.1579717 -0.54105896 0.16519906 0.028676985 -0.080628835 -0.22691503 0.21697919
-0.28431422 0.11686447 -0.0024750284 0.022442646 -0.186821 0.6056051 -0.5584812 -0.123718575
0.15832785 0.1571208 -0.14922208 0.18496193 0.08420388 0.6213291 0.08605084 0.004588123
-0.20494123 0.23044653 -0.15980041 0.0048194197 0.15630077 0.15180336 -0.124466464 0.14429426
-0.0032064866 -0.0058058663 0.12912433 0.0035360113 0.038940918 -0.14407149 0.064371616 -0.11385914
-0.13715188 0.09296829 -0.0681355 -0.13007325 0.14016847 0.10286353 -0.29892853 0.16047335
-0.004041824 0.11945847 1.7760692 -0.3553061 -0.16621049 0.063058786 0.24618587 0.14179315
0.002967614 0.68817645 -0.0012986771 0.026255747 -0.0038808049 0.14356525 0.18111248 -0.13913025
0.20148985 -0.094685495 -0.24988511 0.20912361 0.12472823 0.64737386 -0.0068453453 0.003832849
-0.1493217 0.34932262 -0.36678106 -0.15341642 -0.038154874 0.002581638 -0.7074355 -0.1453123
0.29139698 0.46591428 -0.10627419 -0.03548154 -0.13578577 -0.02266593 -0.014464714 -0.010861445

bias f4 [60]
00000000: 17a6 f9bd dd7f debb 15eb e3bd da54 de3d
00000010: 3bef 1abe 41f2 04bc bd61 563c 7add aeba
00000020: 9df4 28be 9b81 a5bd f7c7 3f3e 60bf 1ebc
00000030: 9607 893e 66d3 b9bd bff2 13bc 42dc 8c3a
00000040: bd1e 513d 2fa2 c7be 5b0b 8fbb d902 98be
00000050: 5456 17bb 92ef c0bb 9990 9a3e 5ff3 f03d
00000060: a840 71bb ef05 d9bd f284 323e 320a dc3d
00000070: 3ba3 0dbd a3e1 d63d 869c c73b 8c0a 6e3e
00000080: fa91 273e 45fd 98be f073 94be 1911 cbbd
00000090: cc6b adbb c546 603e ff42 ad3b 159d debd
000000a0: 54eb 5cbe 0a71 9f3e 8de4 04bb ae50 a73b
000000b0: 6a45 52be acd8 6b3a e187 993b c657 36bc
000000c0: d015 81bb 7e41 5f3e 4f51 a7bb feeb 38ba
000000d0: c8b3 a7bb e32f d5bb 580c 60bc 2e33 163c
000000e0: 9b14 513c 68af 933b 53b3 80be 69ce 213c
-0.12189882 -0.006790145 -0.11128823 0.10856028 -0.15130322 -0.008114398 0.013084826 -0.0013341152
-0.16499563 -0.08081361 0.18728624 -0.009689182 0.267636 -0.09073524 -0.009030043 0.0010746794
0.051054705 -0.38990924 -0.0043653673 -0.29689673 -0.0023092227 -0.005887934 0.30188444 0.11765169
-0.003681222 -0.10596835 0.17433527 0.10744132 -0.034579497 0.104922555 0.006091657 0.23246211
0.1636428 -0.2988073 -0.28994703 -0.099153705 -0.0052923914 0.21901996 0.0052875276 -0.10869805
-0.21574146 0.3114093 -0.0020277828 0.0051060533 -0.20534292 0.0008996825 0.0046853875 -0.011129325
-0.003939368 0.21802327 -0.0051061283 -0.00070542085 -0.005117867 -0.0065059527 -0.013674818 0.009167476
0.01276126 0.004506994 -0.25136814 0.009875872

weight f4 [60, 60]
00000000: d7e8 79bb 11b7 273b 8881 abbb 05b5 7dbc
00000010: 75f6 f4bb 7561 db3b 06bd b63b b830 36bc
00000020: 6b8d 403b a924 1c3b af78 27bb 91a3 e03b
00000030: 320b 17bc 83a0 173c 233f 3fbc 6a88 05bc
00000040: e628 28b9 4f4c ea3b 9fcd 4cbc 10af 923a
00000050: 0cb8 02bc efe2 1fbc 167b 1839 999c 24bc
00000060: 749e 28bc 04b1 bdbc 5b0b 043b 46cc 57bc
00000070: a12c 21bc 2766 4b3c 34d6 b03b f052 413c
00000080: e642 7c3c a104 97b8 0cc3 153b a9b9 263c
00000090: 8a8e 59bc 1d5f 16bc dbd9 b9bb 4f32 9d3b
000000a0: 3032 80bc e24b bebc 668c c43b 184a 593c
000000b0: 7451 23bb 7ede 14bc b381 15bc 0a73 fa3b
000000c0: ca1c 093c 3219 25bc 821f 253c 45c6 433c
000000d0: 83b7 793c b108 8bbb d35a 8fbc 6dbf 1ebc
000000e0: 7b5a 5dbb 4f1e 11bc 3ec5 6bbc e14e e3bb
000000f0: cf62 a83c 005f a73a e8cf a9bc 215c a63c
00000100: f634 53ba e3c3 f93b 2422 bcbd 23f5 fdba
00000110: bd2d 86bd 4acd 613d 907e 19bd 9803 093c
00000120: 5eb6 40bd c0dd d13c 018f 77ba 6d9c a2bb
00000130: 42ea 6bbb ae50 9a3d b078 dcba 3b80 523e
00000140: b2f9 2abb 4fa1 e2ba a32a 53be fa3b 293d
00000150: 3ed6 06bb dc8e 0dbd a8ba 37be 775c a33b
00000160: 2dc6 d6bc 3850 453d 066a 8f3a 892c 96bd
00000170: 44e5 93bd bf4d 513e 2e5f 513e f8b8 263c
00000180: 4569 ccba c88a bcbd f490 1dbc c7a6 423d
00000190: 6516 4e3d ddc8 cdbc 13da a63b 437d b03a
000001a0: 8ed1 bb3d b126 64bb 4dd4 d93d b1e0 ff3b
000001b0: 93e1 2c3b f17a 9f3b b727 8d3b 50ba aa3b
000001c0: cc49 8b3b c1db 00ba 0df0 f43c 1698 e4bb
000001d0: bb8e 63bc f3f4 c8bb 836f 3ebd eca6 16bc
000001e0: 5703 aabc 42f3 a5ba 3be4 a33c c862 9fbc
000001f0: c686 7239 0a69 f9bb 9310 bd3d dd4e fe3a
00000200: 8409 873d 095d 63bd 08f1 1b3d 446b 08bc
00000210: 5a7e 3f3d 1ff6 dbbc 3c3b 7c3a 33ae a23b
00000220: f37b 623b 90ea 99bd fb57 de3a 32ff 52be
00000230: 4af3 2a3b 58e6 e13a 16bc 533e cb43 27bd
00000240: a7e0 073b d82c 0c3d d964 373e 3fac b7bb
00000250: 30a3 d33c 5fe2 41bd ed1e 8fba bea5 983d
00000260: 8cda 933d 3fda 51be 9fc5 51be df0d 1dbc
00000270: d77b ce3a 4937 bf3d e81c 1d3c 8725 45bd
00000280: 5d4e 4ebd 8c67 c83c 9af7 a6bb 4899 b2ba
00000290: 69e2 bdbd 454e 643b 8224 dabd 3973 febb
000002a0: 1c8e 2dbb 0726 b7bb a560 8dbb 4e96 aabb
000002b0: 0ee9 8abb 3783 013a 0390 f7bc 3e8b e33b
000002c0: 63cc 623c 7396 c83b 2c82 3e3d 4144 163c
000002d0: dfc7 d23a a119 85bb 7bc2 8d3a a242 383b
000002e0: 5221 563b 0bfa 3cbc bfad 77bb 11eb 1e3c
000002f0: 1065 8d3a 140b 853a 6746 443b 3fc2 40bc
00000300: 89fe d93b 5058 45bc 90fb 1c3c 7cfc 383c
00000310: 3505 3eba f74e 57bb 644b 1e3c 6cb6 cb3a
00000320: 1072 0a3c 8243 0b3c 0b27 00bb 0028 393b
00000330: 58a3 2e3c c658 1e3c 4300 82bb c52e ee3b
00000340: 4e62 a43b 853e b3bb 9863 c8bb 5a88 10bb
00000350: c9f0 05bc 25ab f13a 818b a73a aee8 bcbb
00000360: 7c45 253c c492 df3b ebb2 083c fe32 f93a
00000370: 1443 b33a 4b77 243c ee0d 27bc 54fb 1dbc
00000380: babd 0c3b bcc4 1e3c e1e4 963b 30c3 6abc
00000390: 47e0 1bbc 93da 273c 369e 50bc cb86 65bc
000003a0: 0cd3 9cbc 4c79 983b 3e0f 313c 9f1a 683c
000003b0: 1fa7 073c 3343 293c 2161 f83b 36c4 333c
000003c0: 6f07 8fbc b07a f3ba 5768 093d 0d8a 0bbd
000003d0: 014c 153c a87e 0abc d117 ae3d b008 113b
000003e0: 32b8 7a3d bca2 4cbd f844 f53c bab0 1fbc
000003f0: dac9 543d 7a5c d1bb f351 8b3a 7d29 b53b
-0.0038133168 0.0025591294 -0.005233947 -0.015485053 -0.007475669 0.0066949674 0.0055767326 -0.011120014
0.0029381167 0.0023825562 -0.002555411 0.006855436 -0.009218978 0.009254578 -0.011672768 -0.008150199
-0.00016036964 0.00715021 -0.012500196 0.0011191089 -0.0079784505 -0.009758695 0.00014541703 -0.010047101
-0.010291684 -0.023155697 0.002014837 -0.013171261 -0.0098373005 0.012414492 0.0053966288 0.011799559
0.015396809 -7.201103e-05 0.0022851853 0.010176101 -0.013278613 -0.00917795 -0.0056717223 0.004797257
-0.015648931 -0.023229543 0.005998182 0.013262294 -0.0024920376 -0.009086249 -0.009125161 0.0076431083
0.00836868 -0.010076808 0.010078313 0.011949127 0.0152415065 -0.0042429795 -0.017499363 -0.009689194
-0.0033775854 -0.008857324 -0.014390288 -0.0069368933 0.020554928 0.0012769401 -0.02072902 0.020307602
-0.0008056903 0.0076222285 -0.09186199 -0.0019375425 -0.06551693 0.05512742 -0.037474215 0.008362673
-0.04704892 0.025618434 -0.00094436115 -0.004962495 -0.0035997783 0.0753492 -0.0016820636 0.20556729
-0.0026088771 -0.0017290505 -0.20621733 0.041316964 -0.0020574476 -0.03456007 -0.17942297 0.004985388
-0.026217544 0.048172206 0.0010941632 -0.07332713 -0.07221463 0.20439814 0.20446464 0.010175936
-0.0015595338 -0.09206158 -0.009617079 0.047522333 0.050314326 -0.025120193 0.0050919144 0.0013465065
0.09170829 -0.00348131 0.10636196 0.0078087677 0.002637957 0.0048669507 0.004307713 0.0052101985
0.0042507406 -0.00049155584 0.029899621 -0.006976138 -0.01388901 -0.006132716 -0.046493065 -0.009195071
-0.020753546 -0.0012660997 0.02000629 -0.019456282 0.00023129125 -0.0076113986 0.09231677 0.0019402165
0.06593612 -0.055508647 0.038071662 -0.008326355 0.046751358 -0.026850758 0.0009621864 0.004964614
0.0034558743 -0.07515442 0.0016963476 -0.20605162 0.0026084953 0.0017234785 0.20677218 -0.040836137
0.0020733268 0.034222454 0.17909564 -0.00560525 0.02583465 -0.047335025 -0.0010919251 0.07453488
0.07219419 -0.2049341 -0.20485543 -0.009585827 0.001575346 0.09336717 0.009589411 -0.048131492
-0.0503677 0.024463437 -0.0050954344 -0.0013626004 -0.092717 0.0034836691 -0.106514946 -0.0077652005
-0.002648241 -0.00558925 -0.0043144994 -0.005205906 -0.004239208 0.0004940512 -0.030220037 0.006944089
0.013842675 0.0061214506 0.04651086 0.009171546 0.0016081295 -0.004061893 0.0010815406 0.0028115888
0.003267367 -0.011534224 -0.003779277 0.009699599 0.0010787565 0.0010150396 0.002994919 -0.011765062
0.0066526574 -0.012044981 0.009581462 0.011290666 -0.0007248701 -0.0032853463 0.009661529 0.0015542037
0.008450046 0.008499982 -0.0019554521 0.0028252602 0.010659061 0.00966472 -0.0039673164 0.007268759
0.0050166016 -0.0054700994 -0.006115388 -0.0022053928 -0.008175083 0.0018437846 0.0012782664 -0.0057650423
0.010087367 0.0068229157 0.008343439 0.0019012389 0.0013676607 0.010038207 -0.010196192 -0.009642441
0.002147539 0.00969046 0.004604921 -0.014328763 -0.009513921 0.010244983 -0.012733033 -0.014009188
-0.019143604 0.0046531316 0.010806857 0.014166503 0.008279591 0.010330963 0.007579938 0.010972073
-0.0174596 -0.0018575992 0.03354677 -0.034067202 0.009112359 -0.008453049 0.08500636 0.0022130422
0.06121082 -0.049959883 0.029940113 -0.009746725 0.051950313 -0.006389198 0.0010629281 0.0055286274

bias f4 [60]
00000000: 4bdc 213a d971 86be 2cd4 863e 41f2 6ebb
00000010: 7123 803e 6a7b 16be c9fb cabd 957e 88be
00000020: 66f5 86be dabe aa3d fd50 d53d 4a61 fcba
00000030: ba13 81be f94c 1a3e a65a 8bba 6acd 00be
00000040: 532b dc3a 960f a53c f374 703d 2311 8a3e
00000050: f7a1 de3d fa17 82bb d8fb 4ebe f7b4 023e
00000060: 3d26 753e 5286 d9bb b49c e7bb 148c 66be
00000070: 6746 f33b d6a4 863e 26b0 8bbd 31c1 03be
00000080: 4eac 90bb 377c 08be 3fb0 853e 3ab7 013e
00000090: cf68 353a 099e 663e 297f 183e 2046 88be
000000a0: 6fc7 0f3e cb85 85be 1a3d dabd 05af 65be
000000b0: f939 e53d 42eb 30bd 8c03 b4bb 623e 75b8
000000c0: 6620 18be f05f 353d 97bc 13bb 021e f63d
000000d0: ee8b 69bd b8ff 1dbe 77df 46bd 0793 343e
000000e0: 8228 86be 322f e1bb 7bd7 703c 09b4 063c
0.0006174489 -0.26258734 0.2633375 -0.0036460313 0.2502704 -0.14695516 -0.099113055 -0.26659074
-0.263591 0.08337183 0.10415838 -0.0019255069 -0.25210363 0.15068425 -0.0010631874 -0.12578359
0.001679758 0.020149034 0.05870528 0.269662 0.10870736 -0.0039701434 -0.20213258 0.12764345
0.23940368 -0.0066383267 -0.007068241 -0.22514373 0.007424164 0.26297635 -0.06820707 -0.12866665
-0.0044150716 -0.13328634 0.26111028 0.12667552 0.000692022 0.22521223 0.14892258 -0.26616
0.14040922 -0.26078638 -0.106561854 -0.22430046 0.11192698 -0.04319311 -0.005493587 -5.847065e-05
-0.14856109 0.044280946 -0.0022542828 0.12017442 -0.057018213 -0.1542958 -0.048552956 0.17634211
-0.2620278 -0.006872081 0.014699812 0.008221635

weight f4 [60, 60]
00000000: d842 503c 4ca6 523d 8161 57bd c442 91bb
00000010: 5735 19bd abf4 a2bb 5c59 89bd cff5 6b3d
00000020: 8324 593d d622 543e c642 e7bd f60e 53bc
00000030: a45d 1f3d f29a d43b 4417 35bc ce25 233e
00000040: 03fb 363c 42ad 04bf f75c f4bd a9e6 89bd
00000050: 73b8 78be 80c0 903a ba26 083e 2e79 803d
00000060: 1d88 f3bc 068f c0be 38a0 76bc 0aab 953c
00000070: 9abf b639 a951 55bd c31e 19bd fa6f 78bd
00000080: b48d e5bb 71be b4bc cc72 49bd a074 5ebe
00000090: a3db 26bc d82d 91bc 974c 3f3b f9a8 693d
000000a0: 51bb f0bd f69b 473d ca90 8f3e 0f0e 873c
000000b0: 28b4 70be 45d1 7b3e 7ad3 1dbc b2b0 0f3c
000000c0: 0522 2dbb 5d97 a2be ce7f 953b a2e7 583d
000000d0: 54c5 8fbd ab4d 193d 6103 d1bd 8c0f 603d
000000e0: 6ef7 4e3d a4f9 913e 0305 cb3b febf 0f3c
000000f0: 97e0 06bc adca b039 3b29 a5b8 a3d6 133b
00000100: 9fe7 02bb 5b1a 2c3e 10e8 fb3e f153 6dba
00000110: 3271 2f38 1c7f 573e 3afd cb3d 8592 0a3c
00000120: 032f f73a 15d7 29be 52e7 e53b dbf8 1abd
00000130: ea93 07bc b7aa 863d 3686 553e 6393 81ba
00000140: d00c 583d 8e8f caba 5590 a9be fbef 9abe
00000150: 8391 ffba 5e88 96bd 1c69 043c b61d 50b8
00000160: 7fa9 e539 ace6 63b9 60c3 da3d 38e1 d93d
00000170: e4e3 473b c131 073c 5bf0 38ba 03c8 2a3d
00000180: 6f0f a43b 5963 0f3a 9e93 26be c201 5bba
00000190: 71d7 0c3d cb9e 523a 8f78 8cbd 2564 46ba
000001a0: 1b9a 503d 7305 b1bd d651 d03b a31c c3bb
000001b0: d574 263e ca78 a63d def4 c3ba 8286 16bf
000001c0: 53c6 f83e 8a5c 96ba 6a15 823e 0110 f3ba
000001d0: 3e53 083a ef56 f2bd 39a4 91ba 5335 bcbb
000001e0: 9bb1 733b 342b 1bbe 7f70 1b3e cf1c 37bb
000001f0: 6fc3 163e 434d 803b bd6d e83c d19e 1cbe
00000200: 0989 1bbe 2e5e 3f3d db52 7d3d 613e 2fbb
00000210: b16f 17be d53f 9cbb 68a9 29bb 31f4 fdbd
00000220: 4de5 fc3a 6497 d03d 2898 443d a408 1e3e
00000230: d1ac 043e be79 86bb 4a8f 77bd d794 50bd
00000240: 428e 123e dc12 f03d 4be8 d6bb 686c 0bbe
00000250: 6efc f33b 0651 1b3e 5783 353d d32f 503d
00000260: 06c5 87bb ef39 8dbd d6a7 1a3e 53f7 0f3e
00000270: a3ef 0dbb f2dd 0b3e 661a 99bb 8171 1cbe
00000280: a058 e33d 4f8d 1abe b8fa cebd 375b 0bbe
00000290: c932 ff3d cf44 9cbd 0982 c0bb 968f 5aba
000002a0: 40ec 973b 13cc b33d 3bff 49bb 22a0 17bd
000002b0: e31a dd3c ba64 c9bd 0151 2d3d c97a bb3d
000002c0: 72fc 1abe 5a17 91bd 4fd0 0b3c 4af7 d63b
000002d0: 8fc7 73bb f62a 1b3e 4470 1bbe b52a 373b
000002e0: 44c3 16be 275c 80bb 7170 e8bc 709e 1c3e
000002f0: bd88 1b3e e960 3fbd 8451 7dbd fc54 2f3b
00000300: 5f6f 173e c24e 9c3b dfbd 293b 45f4 fd3d
00000310: e314 fdba 1a97 d0bd 8798 44bd 5b08 1ebe
00000320: e3ac 04be 6c79 863b bb8e 773d 4295 503d
00000330: 128e 12be d712 f0bd dff1 d63b 456c 0b3e
00000340: 12ff f3bb c450 1bbe 2a83 35bd 882f 50bd
00000350: ddcc 873b fe39 8d3d aaa7 1abe 6ef7 0fbe
00000360: a006 0e3b d6dd 0bbe 5a29 993b 4771 1c3e
00000370: 4658 e3bd 128d 1a3e 5cfa ce3d 215b 0b3e
00000380: fd32 ffbd 8644 9c3d 9d8c c03b f72d 5a3a
00000390: 4ffb 97bb 53cc b3bd 64eb 493b 38a1 173d
000003a0: be1d ddbc 8064 c93d 4751 2dbd 8c7a bbbd
000003b0: 38fc 1a3e 8a16 913d 79d4 0bbc 8201 d7bb
000003c0: e1aa 733b 1a2b 1bbe 5870 1b3e 7615 37bb
000003d0: 3cc3 163e c94d 803b 776d e83c a29e 1cbe
000003e0: e688 1bbe 165e 3f3d 0b54 7d3d 2942 2fbb
000003f0: 736f 17be 7140 9cbb 63a8 29bb dbf4 fdbd
0.012711249 0.051428124 -0.05258322 -0.004433008 -0.037404384 -0.0049730144 -0.06706497 0.05760747
0.053013336 0.20716414 -0.11292033 -0.012881985 0.038907662 0.0064881975 -0.01105291 0.1593239
0.011168244 -0.5182687 -0.11931794 -0.06733448 -0.24289112 0.0011043698 0.13296023 0.06273113
-0.02972799 -0.37609118 -0.015052848 0.018270034 0.000348565 -0.05207983 -0.037382852 -0.060653664
-0.0070054177 -0.022063466 -0.049181744 -0.21724176 -0.010184201 -0.017722055 0.0029189938 0.05704591
-0.11754478 0.04873272 0.28040153 0.016486196 -0.23506224 0.24591549 -0.0096329395 0.008770155
-0.0026417982 -0.31756106 0.0045623546 0.052955277 -0.07020059 0.037427586 -0.102057226 0.054702327
0.050528936 0.28510773 0.006195666 0.008773802 -0.008232257 0.0003372034 -7.875493e-05 0.0022558353
-0.0019974483 0.16806929 0.49200487 -0.0009053341 4.1828673e-05 0.21044582 0.099604085 0.008457785
0.0018858615 -0.16585954 0.007016101 -0.037834983 -0.008275012 0.0657553 0.20851979 -0.0009885844
0.052746594 -0.001545416 -0.3311793 -0.30261216 -0.0019498322 -0.07350229 0.008081701 -4.9618735e-05
0.00043804568 -0.00021734339 0.10681796 0.1063866 0.0030500824 0.008251608 -0.0007054859 0.041694652
0.0050067226 0.0005469821 -0.16267249 -0.0008354449 0.03438515 0.0008034526 -0.06858932 -0.0007568023
0.050928216 -0.086436175 0.006357412 -0.0059543415 0.16255505 0.081285074 -0.0014950295 -0.5879899
0.4858881 -0.0011471671 0.25406963 -0.0018544198 0.00052003923 -0.118329875 -0.0011111564 -0.0057436614
0.0037184719 -0.151532 0.15179633 -0.0027940755 0.1472299 0.0039154603 0.02837264 -0.15294959
-0.15188994 0.046720676 0.061846595 -0.0026740062 -0.147887 -0.0047683516 -0.0025888328 -0.124000914
0.0019294411 0.101851255 0.04799667 0.15432984 0.12956549 -0.0041038683 -0.060439385 -0.050923195
0.1431208 0.11722347 -0.006558453 -0.13615572 0.0074458634 0.15167627 0.04431471 0.05082686
-0.00414336 -0.068958156 0.15103087 0.1405919 -0.0021657727 0.13658884 -0.0046723364 -0.15277673
0.11100888 -0.15092967 -0.101064146 -0.13609014 0.124608584 -0.07630312 -0.0058748764 -0.0008337436
0.0046363175 0.087791584 -0.0030822295 -0.03701795 0.02699036 -0.09833665 0.04231358 0.09154279
-0.15135363 -0.07084532 0.008533551 0.006560241 -0.0037197804 0.15153107 -0.15179545 0.002794904
-0.14722925 -0.0039172354 -0.028373929 0.15294814 0.1518888 -0.04672328 -0.061845317 0.0026753535
0.14788578 0.004770131 0.0025900526 0.12400106 -0.0019308593 -0.1018507 -0.047997024 -0.15432875
-0.12956576 0.00410383 0.060438853 0.050923593 -0.14312008 -0.117223434 0.006559595 0.1361552
-0.0074461782 -0.15167528 -0.04431454 -0.05082658 0.0041442947 0.06895827 -0.15103021 -0.1405923
0.002167143 -0.13658842 0.004674119 0.15277587 -0.11100821 0.15092877 0.10106346 0.13608982
-0.12460897 0.07630257 0.0058761374 0.00083228893 -0.0046381126 -0.08779206 0.003081047 0.037018985
-0.026991721 0.09833622 -0.04231384 -0.09154233 0.15135276 0.07084377 -0.008534544 -0.006561459
0.003718071 -0.1515316 0.15179574 -0.0027936376 0.14722914 0.0039155227 0.02837251 -0.15294889
-0.15188941 0.046720587 0.061847728 -0.0026742315 -0.14788608 -0.004768424 -0.002588772 -0.12400218

bias f4 [60]
00000000: a1fc babd 1501 fd3c a5bc 3a3e cebc 3abe
00000010: 35bd 3a3e 62f0 cfbc 5bbd 3a3e 1bbd 3abe
00000020: 4ebc 3abe e493 cf3d 93bc 3a3e 0d90 e5bc
00000030: 9754 d33c 75bc 3abe e8bc 3abe 70e1 63bd
00000040: 58be 3a3e 0636 103d 385e 0cbd 7949 cd3d
00000050: 18bd 3abe 5dbc 3a3e e7bc 3a3e 61bc 3abe
00000060: bdbd 3a3e b9bc 3a3e f89c f43c 74be 3a3e
00000070: 69bc 3a3e 44d5 00bc 16ac d13d c9bd 3abe
00000080: 29be 3a3e c53e d3bc 83bc 3a3e f9da f23c
00000090: 2016 64bd d6bc 3a3e 1350 bfbd 73cb e7bc
000000a0: bcbc 3a3e 9cbc 3abe 3cbd 3a3e 58bd 3abe
000000b0: 6d74 983c d9bc 3abe 6ebd 3abe a5bc 3abe
000000c0: 6ab6 833d f0bc 3abe b086 013d 02bd 3a3e
000000d0: f328 d9bd a9ff d73d 5abc 3abe ecbd 3abe
000000e0: 6440 7abc 99bc 3abe 09da 4ebb bebc 3a3e
-0.091302164 0.030884305 0.18236025 -0.18236086 0.18236239 -0.025383178 0.18236296 -0.182362
-0.18235895 0.1013563 0.18235998 -0.02802279 0.025797172 -0.18235953 -0.18236125 -0.055634916
0.18236673 0.03520777 -0.03426954 0.100237794 -0.18236196 0.18235917 0.18236123 -0.18235923
0.18236442 0.18236054 0.029860005 0.18236715 0.18235935 -0.0078633465 0.10237901 -0.1823646
0.18236603 -0.025786767 0.18235974 0.02964543 -0.055685163 0.18236098 -0.09341445 -0.028295254
0.18236059 -0.18236011 0.1823625 -0.18236291 0.018610204 -0.18236102 -0.18236324 -0.18236025
0.06431277 -0.18236136 0.03162259 0.18236163 -0.106035136 0.1054681 -0.18235913 -0.18236512
-0.015274141 -0.18236007 -0.0031563065 0.18236062

weight f4 [1, 60]
00000000: 5b69 19c1 ffae 1841 a61d 1841 a31d 18c1
00000010: a51d 1841 0ecb 19c1 a31d 1841 a41d 18c1
00000020: a61d 18c1 6202 1a41 a31d 1841 6bc2 18c1
00000030: cfa8 19c1 a61d 18c1 a51d 18c1 258f 19c1
00000040: a51d 1841 30a7 1841 e2a8 18c1 1e56 1a41
00000050: a31d 18c1 a31d 1841 a41d 1841 a31d 18c1
00000060: a51d 1841 a41d 1841 a9af 1841 a11d 1841
00000070: a41d 1841 7db5 18c1 f8bb 1941 a51d 18c1
00000080: a51d 1841 d2a8 1941 a41d 1841 ffaf 1841
00000090: d032 19c1 a31d 1841 c30e 1ac1 cdc1 18c1
000000a0: a31d 1841 a41d 18c1 a41d 1841 a41d 18c1
000000b0: 4bfe 1841 a51d 18c1 a51d 18c1 a21d 18c1
000000c0: aa2f 1941 a51d 18c1 9eae 1841 a81d 1841
000000d0: 1d31 19c1 e8f5 1941 a61d 18c1 a31d 18c1
000000e0: 1ab6 18c1 9f1d 18c1 8c83 18c1 a41d 1841
-9.588222 9.542724 9.507238 -9.507236 9.507237 -9.612074 9.507236 -9.5072365
-9.507238 9.625582 9.507236 -9.547465 -9.603713 -9.507238 -9.507237 -9.597447
9.507237 9.540817 -9.541231 9.646025 -9.507236 9.507236 9.5072365 -9.507236
9.507237 9.5072365 9.542886 9.507234 9.5072365 -9.544309 9.608391 -9.507237
9.507237 9.603716 9.5072365 9.542968 -9.574905 9.507236 -9.628604 -9.547315
9.507236 -9.5072365 9.5072365 -9.5072365 9.562083 -9.507237 -9.507237 -9.507235
9.574137 -9.507237 9.542631 9.50724 -9.574491 9.622536 -9.507238 -9.507236
-9.544458 -9.507232 -9.532116 9.5072365
