Total_RCS/epoch_200_batch_255_lr_0_0019819414761434403_wd_0_1808248925678225/torch_model_3_SELU.pth (torch, 49095 bytes, 9 tensors)

weight f4 [60, 3]
000000 17 3f 01 3f ce 1b 72 3f 9b 91 12 3f 0e 63 a0 be
       0.5048689 0.94573677 0.57253426 -0.31325573
000010 fe 7c bb 3e d2 6e 5f bf 3d 3a 95 3c ab 65 83 3f
       0.366188 -0.87278473 0.018216247 1.0265402
000020 58 6b 7c 3f 83 07 47 bf f8 5b dd 3e 1a a2 24 3f
       0.98601294 -0.77745837 0.4323423 0.6430985
000030 be 4c e9 be 82 7b 94 3f e6 3e 16 3f 4b 81 05 3e
       -0.45566362 1.1600192 0.58689725 0.13037603
000040 8a ad 27 bf fe 70 81 bf 13 4b a3 3e 62 e2 23 bf
       -0.65499175 -1.0112607 0.31893215 -0.6401731
000050 70 ef 8d bf 77 63 0f 3e f3 d3 8b 3f 22 d8 3d 3f
       -1.1088696 0.14002787 1.0924057 0.7415792
000060 db 74 fb be 4f 8d 07 bf a4 d7 f7 be 0c 48 84 bd
       -0.4911259 -0.52949995 -0.48406708 -0.06459054
000070 ff 23 53 3f 34 3a c5 3c 99 60 03 be 8f 3d 2a bf
       0.824768 0.024075605 -0.12829818 -0.6650018
000080 60 97 94 bf 7e 09 f1 3c 34 b2 f1 3d aa 69 31 3c
       -1.1608696 0.029423472 0.11801568 0.010828415
000090 6f 9b 3b bf 0f 74 cc be bb f7 51 bd 85 6b 0a ba
       -0.7328405 -0.39932296 -0.051261645 -0.0005280304
0000a0 c5 45 9f ba ec 72 98 3a d5 bb 9f bf 47 a1 da be
       -0.001215153 0.0011630929 -1.2479197 -0.4270117
0000b0 9e cb b3 3d bd b6 31 be 6e 93 ba 3f 79 38 aa 3f
       0.08779071 -0.17354865 1.4576242 1.3298484
0000c0 42 c4 95 3a df 4b 20 3a f6 4d 01 3b d8 fa 08 3e
       0.0011426287 0.00061148213 0.0019730306 0.1337694
0000d0 bb bf 3a bf 63 a5 60 3e 67 26 9f bc 12 c3 7a bf
       -0.7294881 0.2193809 -0.019427491 -0.97953904
0000e0 c6 f1 a8 bf 93 96 82 3f 16 5d 76 3f e0 a9 7b 3d
       -1.3198783 1.0202202 0.9623579 0.061441302
0000f0 28 3a 45 3f ef bf a3 3f 4d d9 c2 bd 61 83 ab 3e
       0.77041864 1.2792948 -0.09514103 0.33498672
000100 7a 15 0d 3f db 02 70 bd ab dc 93 ba 5b d8 87 bb
       0.55110896 -0.058596473 -0.0011280974 -0.0041456646
000110 9e 00 8f 3a c6 9f 98 be 8a 66 e8 be e1 33 9d 3e
       0.0010910218 -0.29809397 -0.4539073 0.30703643
000120 d8 7e c0 ba 7c 2f 5b bb ff e2 17 ba ac 3f bf 3f
       -0.001468624 -0.003344505 -0.0005794018 1.4941306
000130 80 0b ad 3f 44 85 bf bb a2 f1 4a 3f b5 2e 0a 3f
       1.3519135 -0.005844744 0.7927495 0.5397752
000140 66 07 77 be 37 fc 3a 40 f0 57 c7 bc 4f 97 9d bc
       -0.24123916 2.921644 -0.024333924 -0.019237189
000150 34 9b 92 3f 38 f5 b3 3e f1 e6 34 3d 3f f0 d8 bc
       1.1453614 0.35148025 0.044165555 -0.026481746
000160 40 17 3b bf f4 57 63 bf d4 32 37 bf 87 e8 34 bf
       -0.7308235 -0.8880608 -0.7156193 -0.7066731
000170 29 ce 83 3f a8 ad b3 bf 31 a3 5e 3f bb 2e bf 3e
       1.029729 -1.4037371 0.8696776 0.3734034
000180 1d d9 46 bf 79 c7 85 bf 01 29 2f 3e 65 6b 70 ba
       -0.7767504 -1.0451499 0.17105485 -0.00091712765
000190 4f ad 57 bb 9c 19 39 3a b6 90 94 be ed de a7 3f
       -0.0032909696 0.0007061006 -0.29016656 1.3114907
0001a0 c5 ff 14 bf f0 ab 62 bf 0c ba 52 bc 53 85 c0 bc
       -0.58202773 -0.88543606 -0.01286174 -0.023501074
0001b0 ef 99 8a 3f 15 c3 8c 3f 47 c0 0f bc 0a db 27 3d
       1.0828227 1.0997034 -0.00877387 0.040980376
0001c0 42 ba cf bf 42 c2 54 bf e4 1f 46 3f ac 7c b7 3d
       -1.6228716 -0.83108914 0.7739241 0.08959326
0001d0 cc 2b 13 3e d4 ac 76 3f 93 0d c0 bf 36 ca 21 3e
       0.14372176 0.96357465 -1.5004143 0.15799794
0001e0 c1 48 d1 3f 93 9a 3a bf 76 46 91 bf 9e 1c 45 3c
       1.6350328 -0.7289211 -1.1349628 0.012030749
0001f0 a7 48 df 3e 7f 31 89 3f 4d c8 4b 3f df f4 ff be
       0.43610117 1.071823 0.7960251 -0.4999151
000200 f1 9a a6 3e 5c 52 b4 bd c5 12 32 bf 85 a4 6d bf
       0.32540086 -0.08804771 -0.6955989 -0.9282916
000210 80 0e a2 3e 24 be 84 bd 27 86 c6 3d 62 96 ab 3e
       0.31651688 -0.06481579 0.09693556 0.3351317
000220 0d d9 8a bf b1 19 00 be aa 16 4f bf 9e 05 0c 3f
       -1.0847489 -0.125098 -0.8089396 0.5469607
000230 0c b8 09 be 6d 7c 93 3f 89 1a d2 bf 04 64 cf 3d
       -0.13449115 1.1522347 -1.6414348 0.10126498
000240 e6 4b 8b bd b9 66 10 bf 09 da 59 bf 39 c7 51 3e
       -0.06801586 -0.5640674 -0.8509832 0.20486154
000250 fb 2d 42 bf 60 4b 10 be e9 cb 3b bc ff 6c 7e be
       -0.7585141 -0.14091253 -0.01146219 -0.24846266
000260 18 8a e9 bf 5a ad 03 3f 29 49 de bd 27 d7 c8 3e
       -1.8245268 0.5143639 -0.10853798 0.39226648
000270 50 4b 9e be b4 04 58 3e 40 36 09 c0 b5 11 f2 be
       -0.30916834 0.21095544 -2.1439362 -0.47279134
000280 b0 88 90 bf ed 81 cb 3e 73 9f e7 3a c9 bb 3d ba
       -1.1291714 0.39747563 0.0017671421 -0.000723776
000290 33 13 37 3b 13 1b db b8 59 7e 77 38 a2 8b 73 3a
       0.0027935028 -0.00010447777 5.900706e-05 0.0009290521
0002a0 73 fb d9 bf d6 3f a4 3d 4d 55 d1 3e 96 83 8d be
       -1.7029861 0.08019988 0.40885392 -0.27639455
0002b0 4d 13 98 bf 5d 78 d7 3b 8c 32 5e 3d 2d 9a 24 bf
       -1.188089 0.0065756277 0.054247424 -0.64297754
0002c0 92 df c7 bd bb 7b 65 be df 57 5e 3f f9 63 79 bf
       -0.097594395 -0.2241048 0.8685283 -0.9741817

bias f4 [60]
000000 10 88 8d 3f bb 5a 95 bf 85 07 49 3f ba de ac be
       1.1057148 -1.1668314 0.785271 -0.33763677
000010 95 dd b7 bd 2f e8 1c bf f7 fb 1d bf 6b e8 45 3f
       -0.0897781 -0.61291784 -0.6171259 0.77307767
000020 a8 60 91 bf de ab 1e bf f5 51 95 bf 3c e7 68 3d
       -1.1357622 -0.61981 -1.1665636 0.056861147
000030 7b 21 93 bf f2 ab 8d 3a ea b6 a8 bf e3 a5 3c 3f
       -1.1494592 0.001080869 -1.3180821 0.73690623
000040 ba 10 94 3a 09 f0 b6 be 50 6e 8f bf 11 1b 21 3f
       0.0011296489 -0.35730007 -1.120554 0.62931925
000050 65 2a 55 3f 9c 32 b9 3e 60 0f 84 3b 30 1d 43 be
       0.83267814 0.36171424 0.004030153 -0.19054103
000060 6a 64 72 3b c3 e4 5a be f7 f2 37 3f a7 89 2a 3f
       0.003698612 -0.21376328 0.7185511 0.6661629
000070 45 be 20 3f b0 97 46 bf 83 7d 92 be 6b 97 a2 bf
       0.6279033 -0.77575207 -0.28611383 -1.2702459
000080 ea 7b 87 bf ee ce 7b 3b 30 90 26 bf 96 88 27 bc
       -1.058469 0.00384229 -0.6506376 -0.010225436
000090 0f 76 09 3f 05 70 e2 be a4 51 82 3f 27 24 47 3e
       0.5369577 -0.4422609 1.0181165 0.19447385
0000a0 20 aa 15 3f 3d e2 57 3f 0b a0 7f 3f 31 b7 6f bf
       0.58462715 0.8432959 0.9985358 -0.936389
0000b0 0d 2b f9 3e 2b 44 04 3d 9c 26 08 3e bb a4 b2 be
       0.48665658 0.032291573 0.13295978 -0.34891304
0000c0 dc 62 56 bf 89 bd e6 bc bb 0b c6 bf d2 ba 4a 3f
       -0.837446 -0.02816655 -1.547233 0.79191315
0000d0 13 43 5b bf df 09 9a be 76 a2 0b 3a 44 56 be 3a
       -0.8564922 -0.30085656 0.0005326638 0.0014521559
0000e0 80 a0 e8 be e6 b0 2b 3e 8a ab 1c be 79 af 9d bf
       -0.45434952 0.167667 -0.15299812 -1.2319175

weight f4 [60, 60]
000000 dc b4 0f be 32 0c 99 3c b9 33 63 3d 18 58 78 bd
       -0.14033836 0.018682573 0.05546925 -0.060630888
000010 54 ce 56 be e4 9a 54 bc 96 dc 07 3d 08 36 8b bd
       -0.20977145 -0.012976382 0.03316935 -0.06797415
000020 d6 9a ed bd 67 47 56 be 41 3d c7 3d 22 e9 49 bd
       -0.11601798 -0.20925675 0.0972848 -0.0492946
000030 5e 6d 98 be c5 1a 8f bb 02 49 f2 be 4d fc ad 3d
       -0.2977094 -0.004367205 -0.47321326 0.08495388
000040 19 2e a8 3b 63 af 22 bd ad 07 2d 3d 07 3f de be
       0.0051324484 -0.039718043 0.04224365 -0.4340746
000050 82 47 f1 be 7e 0f a8 bd 75 93 54 3b 7a 3b d0 3c
       -0.4712487 -0.0820608 0.0032436524 0.025418986
000060 d7 52 62 3a 63 12 78 bf 16 cc 51 be b3 50 a6 be
       0.000863356 -0.96903056 -0.20488009 -0.32483444
000070 85 86 f6 be 80 0c 21 39 ca e9 de 3d e8 db d7 be
       -0.48149505 0.00015358813 0.108844355 -0.42159963
000080 f6 5a 16 be 2a ff 4a 3b 85 f5 c3 bd 4a 16 3d 3f
       -0.14683136 0.0030974844 -0.095683135 0.73862135
000090 b4 86 0a bf e7 f9 e2 bd 20 28 e5 bd 81 ea dd be
       -0.5411179 -0.11082821 -0.11189294 -0.43342975
0000a0 6b 41 4e be c4 42 ea 3d 85 d5 80 bd 70 5a f5 3b
       -0.20142142 0.11438516 -0.062907256 0.0074875876
0000b0 88 fd e3 bc c7 ae 2a be c5 4c 1a 3f c7 9b 3a bf
       -0.027830854 -0.16668235 0.6027339 -0.7289395
0000c0 86 66 88 3c 03 b3 e2 bd 0d 3e a3 3e 0a 2d 40 bd
       0.01665045 -0.110693 0.31883278 -0.046917953
0000d0 7a 1a c7 3d 34 9e 2b 3d 78 89 70 3b 16 bf 6d 3b
       0.09721847 0.04189892 0.0036703032 0.0036277226
0000e0 bc 21 1b be 53 05 81 bd 2f 33 3d be 83 4b 16 be
       -0.15149587 -0.06299844 -0.18476556 -0.14677243
0000f0 84 da 97 ba a1 34 2b ba 32 86 d1 b9 1f d2 16 3b
       -0.0011585508 -0.00065309746 -0.0003996357 0.0023013426
000100 0b 4e 88 3b 22 c6 b9 3b 27 eb 4a 3b 2e 68 91 3a
       0.004159694 0.005669371 0.0030962916 0.001109367
000110 1e b7 a0 ba ac ae b3 3a b8 93 77 39 dc 6d 21 3b
       -0.0012261604 0.0013708672 0.00023610785 0.0024632132
000120 5e ba d2 ba 81 4d 47 b9 d4 71 aa ba c7 32 60 3a
       -0.001607727 -0.00019006991 -0.0013003894 0.0008552488
000130 62 06 0f 39 37 5e df bb 1d e1 4a 3b e0 f7 c1 39
       0.0001363992 -0.006816651 0.0030956932 0.0003699651
000140 de c3 81 3a 69 f5 ca 3a 2d 5b 1f b9 3e 73 24 bb
       0.0009900292 0.0015484515 -0.00015197387 -0.0025093104
000150 4d 96 2a ba 5a d4 00 bc 8d 83 cf ba 02 b1 25 3a
       -0.0006507382 -0.007863129 -0.0015832052 0.00063206267
000160 94 36 90 ba c3 15 89 3b 1a 2f 2d bb 61 71 92 3b
       -0.0011002594 0.0041835024 -0.002642578 0.004469082
000170 35 a9 e3 3a 9d b3 24 b9 c6 87 b3 3b 7c 9b 96 3b
       0.0017369153 -0.0001570717 0.005478832 0.004596172
000180 4b dc 0e b7 8f 6b 90 ba df 9f b8 bb 4c d7 2b bb
       -8.5151505e-06 -0.0011018383 -0.0056342925 -0.0026220856
000190 9e f7 ea ba 09 9c 9c bb 26 b3 1f bc 3b 98 0a 3b
       -0.0017926579 -0.004779343 -0.009747302 0.0021147865
0001a0 51 da b4 bb 57 bd f9 bb f9 3f a0 3b 78 8e a8 bb
       -0.0055191894 -0.007621448 0.0048904386 -0.0051439367
0001b0 cb 11 26 3b 31 a0 fd bb 64 fc c3 ba 0d e1 0d bc
       0.0025340195 -0.0077400436 -0.0014952538 -0.008659613
0001c0 42 21 9c 3b ef 75 53 bb cc cc 1a 39 93 75 19 39
       0.004764707 -0.0032266339 0.00014762877 0.00014635017
0001d0 66 9e 9a bb 36 28 1c bb 8a 12 f4 bb 30 b9 88 3a
       -0.0047185896 -0.0023827679 -0.007448499 0.0010431167
0001e0 e2 82 f5 be 61 8a 8f 3e 4a 98 ce bd 9d 19 2b 3f
       -0.47951418 0.28035262 -0.100876406 0.6683596
0001f0 c7 43 42 3d e8 7a 80 bd d7 c0 b6 bd 3d 90 d4 bd
       0.04742792 -0.062734425 -0.089235 -0.10379074
000200 16 76 e3 3e bb 6a 1c be 35 2e 13 3f 44 5f 98 bc
       0.4442603 -0.1527509 0.5749238 -0.018600114
000210 f1 d1 ec 3e 29 9d 20 3c e2 02 2d 3f bb 73 8d be
       0.46253923 0.009803095 0.67582524 -0.27627358
000220 94 86 8b 3b f0 d4 7a be 94 a8 de 3e 81 35 80 bf
       0.0042579863 -0.24495292 0.4348799 -1.0016328
000230 f6 76 17 bf ec ed 57 be ea 13 77 3c 1f 59 88 3e
       -0.59165895 -0.21086854 0.0150804315 0.26630494
000240 31 b1 59 3c c6 4b 0c bf 61 13 1a bf 90 e1 cd bf
       0.013286875 -0.5480312 -0.6018582 -1.6084461
000250 03 80 7f bf 73 48 e8 3d 9f 8d b8 3e cb 56 d7 3e
       -0.99804705 0.113419436 0.36045548 0.42058405
000260 4c 14 d6 3e a3 20 74 3c 35 42 9d 3e 6e e7 0b 3f
       0.4181236 0.014900359 0.30714574 0.5465001
000270 67 98 89 bf a7 a2 62 3d e7 47 0e bf d7 54 9f bf
       -1.0749635 0.0553309 -0.55578464 -1.2447766
000280 cd de 7e bf de 96 16 bd 8a 1b fb be c6 57 a2 3e
       -0.99558717 -0.036764972 -0.49044448 0.3170759
000290 f5 b8 91 be f2 70 c3 be 38 cc 3b 3f 40 9f 66 bf
       -0.28461424 -0.38172108 0.7335849 -0.90086746
0002a0 9c b3 6f 3e ef 6e 8e be 2e 47 80 3f 5f 71 95 be
       0.2340836 -0.2781901 1.0021722 -0.29188058
0002b0 88 07 e4 3e 39 aa c1 3e c5 2a 08 3c a6 0f 80 3b
       0.44536996 0.37825182 0.008310978 0.0039081154
0002c0 84 e0 82 3f 3f 15 52 3e 98 ca 8b be 93 44 62 3e
       1.0224767 0.20515917 -0.27303004 0.22096471
0002d0 f9 1f 8e 3b 37 6e 21 bb 80 37 1f 3b ac f0 66 3a
       0.0043373075 -0.0024632344 0.0024294555 0.00088096666
0002e0 e9 54 94 3a 06 12 17 3b 83 3d e6 38 bc c4 1c 3b
       0.0011316809 0.0023051514 0.00010978712 0.0023920974
0002f0 0d 4b a5 bb ed 2a 13 bc 3a 67 5b bb 01 e5 19 bb
       -0.005044347 -0.008982402 -0.0033478276 -0.0023482444
000300 9b d5 7e bb 23 ae 5e 3a d7 ca 25 3b 7e 90 08 3b
       -0.0038884643 0.00084945763 0.0025297904 0.0020838077
000310 75 8d 3d b9 3c d5 f5 ba 8a 4e aa ba cb ea be bb
       -0.00018077141 -0.0018755565 -0.0012993377 -0.0058263293
000320 ad d7 00 bb eb b9 28 bb 99 e6 e8 39 8b 96 c1 39
       -0.0019659803 -0.0025745581 0.00044422297 0.00036923992
000330 39 08 96 3a 97 7c 8a bb e9 c1 95 b8 f5 1c 9b 3c
       0.0011446542 -0.004226278 -7.140992e-05 0.018934706
000340 db c8 a2 ba e7 8b 84 ba 0e d4 83 3b 83 e9 24 3c
       -0.0012419479 -0.0010112495 0.0040230816 0.010065439
000350 2c 61 c9 ba 45 3e df 39 b4 ee 9d 3a 1e b7 b1 3b
       -0.0015364042 0.0004258027 0.0012049288 0.0054234406
000360 e7 3e ce bb e1 93 eb 3b d6 01 58 3b 43 ed cd 3b
       -0.0062941196 0.0071892594 0.0032960079 0.0062843873
000370 a1 bc 8b 3b e6 4c 92 3b 1e c9 90 3b 83 9d 56 bb
       0.0042644297 0.0044647334 0.0044185063 -0.0032747693
000380 07 c9 56 3b 3a c0 42 3a f5 71 50 3b fe eb 40 3c
       0.003277363 0.00074291567 0.0031806205 0.011775015
000390 da 44 58 bb 71 dc c9 39 0a c4 2f 3b 5b 63 c3 3a
       -0.0033000023 0.0003850195 0.002681973 0.001490693
0003a0 05 d9 df 3b 77 cc 9e 3a d5 6f 11 b9 37 b4 45 b8
       0.0068312907 0.0012115379 -0.00013869938 -4.71363e-05
0003b0 d1 ef 2b 3c 33 84 08 3c 20 75 09 3a b1 06 cb ba
       0.010494188 0.0083323 0.0005243588 -0.0015489665
0003c0 77 b1 87 be fa 1e 2d be 30 00 17 be fb 4e 0e be
       -0.26502582 -0.16906348 -0.14746165 -0.13897316
0003d0 05 7b 08 bf 1c af bd 3b 9f 97 03 bd 70 0f 3c be
       -0.5331271 0.005788697 -0.03212702 -0.18365264
0003e0 4e 11 e9 bd 72 f9 d3 be 8e 92 a5 3e 8c ab 37 bd
       -0.11380254 -0.4140125 0.32338375 -0.044841334
0003f0 33 76 98 be 96 ba 5f 3b a6 f5 fe be f7 1f 28 be
       -0.2977768 0.0034138313 -0.4979679 -0.16418444

bias f4 [60]
000000 85 d3 22 3e 17 63 8b 3b e2 59 d0 3d d7 84 43 3c
       0.15901001 0.004253756 0.10173394 0.011933527
000010 4e af b4 3e 16 eb 4e be 96 7a e1 3c f7 02 07 be
       0.35289997 -0.20206866 0.027524274 -0.13184725
000020 a7 89 0e 3c 13 40 35 be 68 b3 a1 3b d2 95 4d 3d
       0.008699811 -0.17700224 0.004934717 0.050191708
000030 f3 0f b7 be 06 3e 41 be 69 09 90 3b 0d 4d dd bd
       -0.35754356 -0.18871316 0.004395653 -0.10805712
000040 2a d4 a9 3b cb 6b bb 3c 83 99 ac bc 15 c0 29 be
       0.0051827626 0.022878548 -0.021069294 -0.1657718
000050 b3 c0 ed be 98 0b 14 be 95 fa 4c 3b 5c 05 cb 3e
       -0.4643608 -0.14457548 0.0031277288 0.39652526
000060 76 94 c7 3b 10 25 5a be a8 cc 1f bf f4 47 13 bf
       0.006090696 -0.213032 -0.62421656 -0.57531667
000070 6e 0b 2a 3c e4 66 84 3b bb a6 19 be 43 ba 92 be
       0.010378702 0.004040586 -0.15005009 -0.2865773
000080 9f 43 26 3a 85 16 a2 3a 8a 1b 92 be 75 cc 9e be
       0.0006342474 0.001236633 -0.28536636 -0.31015363
000090 dd e1 af b9 bb 7b c5 3c d3 ba 4f 3d 01 64 a9 3b
       -0.00033546882 0.02410685 0.05071528 0.005169392
0000a0 2b 4d 4a be c8 d2 a5 3d cf 23 08 3a 02 b9 89 3b
       -0.19756 0.08096844 0.0005193324 0.004202963
0000b0 59 f1 09 3f dd 51 51 3b ab 83 e9 3b e2 d4 82 3b
       0.5388389 0.0031939663 0.0071262917 0.0039926628
0000c0 28 77 07 3c dd ec e6 bd e1 71 25 3c a7 c8 ad 3a
       0.008268155 -0.11275647 0.010097952 0.0013258652
0000d0 32 53 51 3b 4e 05 95 3b 81 5e c5 be 34 2f a6 be
       0.0031940457 0.0045477515 -0.38548663 -0.32457888
0000e0 15 55 f6 3a f5 d6 24 bd 24 ef 13 bf 27 43 3a 3e
       0.0018793667 -0.04024406 -0.57786775 0.18189679

weight f4 [60, 60]
000000 9d 0c b4 bd 14 7d 2f ba d6 0a 98 bd 7c 86 01 3b
       -0.08791468 -0.00066943583 -0.07423942 0.0019763997
000010 ca 96 11 be f2 c5 f4 3c e4 b3 e7 bd 1e 98 2e 3d
       -0.14217678 0.029879544 -0.11313608 0.04262554
000020 6f 0b d7 bb 13 93 54 3d 6f bf 01 bb bc cc 0a bd
       -0.0065626423 0.051898073 -0.0019797941 -0.033886656
000030 f0 6f 3d 3d 04 8a 5d 3d 5d da db ba 71 6f bd bd
       0.04624933 0.0540867 -0.0016773451 -0.092497714
000040 a6 49 28 bb 94 c8 12 bd 06 aa a0 bd 73 d8 46 3d
       -0.0025678664 -0.035835817 -0.078449294 0.048546266
000050 6c 58 03 3d b3 c7 34 bd c1 27 0f bb 12 d0 6a be
       0.032066748 -0.04413576 -0.0021843764 -0.22930935
000060 a2 8c 1b bb 3c c0 2d 3c 68 d0 38 3d 38 62 ae 3b
       -0.0023734947 0.010604914 0.045120627 0.005321767
000070 1f 7b 96 bb 7b 81 8d ba 0f c7 9f bc f8 90 22 bd
       -0.004592314 -0.0010796034 -0.019504098 -0.039689034
000080 8a ee 92 3b b3 57 f5 ba 7c e9 c4 3c 3e fd 48 3d
       0.0044840025 -0.0018718153 0.024037115 0.049069636
000090 6d 3f b2 bd eb 56 e0 bc cb b6 42 bd 72 6d b2 ba
       -0.08703504 -0.027385196 -0.047537606 -0.001361294
0000a0 7f e6 0a 3d 41 a4 5c bd 0b f1 33 bb ef a4 df 3a
       0.033911224 -0.053867582 -0.0027456905 0.0017062704
0000b0 d9 0f 82 bd 78 ad 26 3a 6c 14 97 3a 37 9a b2 bb
       -0.06350679 0.00063582463 0.0011526472 -0.0054505127
0000c0 4d cb 0f 3a 19 da 0e bd 09 02 0a 3b 83 b5 37 bb
       0.0005485311 -0.034875963 0.0021058342 -0.0028031773
0000d0 7e 9b 13 ba 56 a1 aa ba 6c cd 83 ba 5b 99 9f 3b
       -0.0005630775 -0.0013018053 -0.0010055727 0.0048705763
0000e0 50 bb 51 bb 16 69 25 bd 25 e9 51 3d 0e 18 85 bc
       -0.0032002516 -0.04038342 0.051247735 -0.016246822
0000f0 e9 6b c5 3e b4 f2 6a 3c 0b de 82 3f 4a a1 24 bc
       0.3855889 0.0143400915 1.0224012 -0.01004822
000100 36 e5 df 3e 80 4b 31 3d c6 9b 89 bf d1 20 b8 3d
       0.43729562 0.043284893 -1.0750663 0.08990634
000110 c9 1e e9 ba 81 c9 ba 3d ab 74 6c 3c 11 dc 15 3e
       -0.0017785664 0.09120465 0.014432113 0.1463473
000120 69 10 85 bb c5 a0 bb 3d 4e 50 e7 3c dd 56 14 bf
       -0.004060794 0.09161524 0.028236534 -0.5794504
000130 34 10 95 3c 68 69 c3 3c 65 f7 01 bf 7b 41 b4 3d
       0.018196203 0.023853973 -0.5076812 0.08801552
000140 92 d4 3c be 14 9b b0 bf fa 03 9c 3c 00 42 00 3e
       -0.18440464 -1.3797326 0.019044865 0.12525177
000150 3e e3 6e 3b e7 b9 e4 bd 65 f5 ba 3f b6 2e 37 bf
       0.0036451365 -0.111682706 1.4606138 -0.7155565
000160 53 cb 59 3b c5 54 a3 3c 97 75 1d be 76 54 1b 3d
       0.0033232763 0.019937882 -0.15376888 0.037922345
000170 99 c0 c8 b9 65 2e 83 3c 43 50 05 be 32 9a ff 3e
       -0.0003829047 0.016013334 -0.13018899 0.4992233
000180 3c 97 b7 3e 6a c7 58 3e 58 65 d3 be a8 0a 88 3c
       0.3585757 0.2116982 -0.41288257 0.016606644
000190 a5 d1 70 bd 6c 0d 95 3e 35 5d 10 bc 30 62 39 3c
       -0.058793683 0.29111803 -0.008811285 0.011314914
0001a0 3e cd 87 bf 02 f9 37 3b aa 3b b6 bb c3 ef 0e 3c
       -1.060951 0.0028072004 -0.0055613117 0.008724156
0001b0 7f 70 d4 bb d2 ee 4a be a3 88 bc 3a a2 af 54 3c
       -0.006483137 -0.19817665 0.0014383983 0.012981327
0001c0 1e b6 9d 3c 9b d0 b5 b9 76 29 97 bf 9e 8a 21 3d
       0.01925188 -0.00034678433 -1.1809528 0.039438836
0001d0 d5 25 23 3b c7 ee dd be e3 76 4f 3d c1 56 19 3f
       0.0024894376 -0.43346235 0.05065049 0.59898
0001e0 35 75 53 be ec fe b5 3b 5e 44 a1 3d 5f 9d 9b ba
       -0.2065018 0.0055540707 0.07874368 -0.0011872462
0001f0 b1 22 3e 3e c3 39 a5 3e 54 a4 96 be c9 1b e2 3c
       0.18567921 0.3227063 -0.29422247 0.02760114
000200 58 45 70 bc e3 1e 0e 3d 40 a2 09 3b ed f3 6c bc
       -0.01466497 0.034697425 0.002100125 -0.014462453
000210 f1 bf e4 3c 5f 4d 19 3d e7 6d 53 3c 09 15 f7 3c
       0.027923556 0.037427302 0.012904621 0.030161398
000220 6b b1 e0 3b e1 a8 bf bd 2a 18 84 bd 43 e7 04 3d
       0.0068570874 -0.09358383 -0.064499214 0.03244711
000230 de b8 aa be 35 6c 15 be b2 49 fc 3b 72 0f b0 3d
       -0.33344167 -0.14592059 0.007699215 0.08596696
000240 7e 01 48 3b b1 d7 3b bd 7b fb 79 3d 13 7c 30 3e
       0.0030518468 -0.045859996 0.061030846 0.1723483
000250 45 b9 da bb 2f 49 3c 3c 9e 08 27 be 24 1d 61 be
       -0.006674918 0.011492058 -0.16311881 -0.21983773
000260 98 8a d8 3b bf 61 6b 3c ff d6 71 3d 6b 3b 74 3d
       0.0066083185 0.014366566 0.059042927 0.059626978
000270 02 25 4f 3e 88 f7 2b bd af 41 22 3c 3a 74 33 3c
       0.20228961 -0.04198411 0.0099033555 0.010953004
000280 74 4c f3 3c c5 16 f8 bd 85 b5 f5 ba f1 22 5d bb
       0.029699542 -0.12113718 -0.0018746114 -0.003374275
000290 ae 5a 04 bf 07 30 6a 39 e9 cc 3e 3c 38 d8 ee 3b
       -0.51700866 0.0002233387 0.011645534 0.007288959
0002a0 7d a4 8e 3b 44 81 3e 3e 12 19 c3 3b e3 f0 ab 3a
       0.0043531046 0.18603998 0.0059539163 0.0013118054
0002b0 fa 31 aa 3b 7a cd 4a ba 57 d9 6a 3d df 53 d4 bd
       0.005193946 -0.0007736307 0.057336178 -0.1036756
0002c0 14 c0 a7 3a b6 5a 83 bd c7 b7 fe 3d 58 91 f6 3d
       0.0012798333 -0.06413786 0.124373965 0.12039441
0002d0 ba ee 76 bd 93 22 6b 3c df bb 0e 3e 6b a0 51 bc
       -0.06028626 0.014351505 0.13938855 -0.012794594
0002e0 80 d4 be 3d db 16 b2 bd 4c 61 65 be ee b5 d4 3c
       0.09317875 -0.086957656 -0.22400397 0.025965657
0002f0 14 1e a5 bc 70 bf e0 3c 2b d7 83 3c 48 c1 7e bd
       -0.020155944 0.027435035 0.016093811 -0.062196046
000300 a6 4d c1 3c 04 36 df 3c 88 61 4c 3c e2 ca 9a 3d
       0.023596596 0.027247436 0.012474425 0.07558228
000310 05 61 9b 3c 92 0a ec 3b 17 3c 17 3c ec 63 e0 3c
       0.018967161 0.0072034085 0.009230635 0.027391396
000320 bd c8 21 be b0 09 58 be b6 e4 f6 3b 95 e7 58 3d
       -0.15799232 -0.21097445 0.0075345887 0.05295523
000330 73 30 21 3c f0 fb e6 3c 70 6c 61 3e 13 28 2a 3e
       0.009838211 0.028196305 0.22014022 0.1661685
000340 89 ff ca bc 5e 90 55 3c 7b 0b 2e bc a5 28 9a bd
       -0.024780052 0.013034908 -0.010622854 -0.075272836
000350 4c 3d 48 3c 7c 9c 16 3c 3d 14 0a bc ba ab a9 3d
       0.012221646 0.009192582 -0.008427677 0.08284707
000360 5f f6 51 3d 8b c1 3c 3b d1 2f c5 bc e2 4a 6c 3c
       0.05126035 0.0028801884 -0.024070652 0.01442215
000370 db 67 3a 3b f8 e2 d8 bd 38 68 93 3b 15 07 1f bc
       0.002844325 -0.10590166 0.004498508 -0.009706278
000380 9e 93 30 be d0 e4 1f bc a2 01 bc bb 25 ce b3 bb
       -0.17243811 -0.009759143 -0.0057374993 -0.005487221
000390 97 f0 1e bc 50 d2 e6 3d b4 82 94 b9 ed 47 67 3b
       -0.009700916 0.11270583 -0.0002832614 0.0035290674
0003a0 36 75 d9 3a 4a e0 43 3c a8 bb fe bd fb d2 e5 3c
       0.0016590718 0.01195533 -0.12438136 0.028054705
0003b0 4b 57 56 3a 81 63 9c bd f9 d7 1e 3d 63 68 d0 bb
       0.000817646 -0.07636166 0.038780186 -0.0063601
0003c0 d8 03 b4 bd 8f 33 2f ba d6 19 98 bd 3d 6a 01 3b
       -0.08789796 -0.0006683403 -0.07426803 0.001974716
0003d0 1c 8d 11 be 47 c2 f4 3c 14 ba e7 bd d9 91 2e 3d
       -0.14213985 0.029877795 -0.113147885 0.04261956
0003e0 97 ea d6 bb d6 88 54 3d 61 9e 01 bb 3e bc 0a bd
       -0.006558727 0.05188831 -0.001977824 -0.033870928
0003f0 ce 66 3d 3d 2b 7f 5d 3d bd ab db ba eb 75 bd bd
       0.04624062 0.054076355 -0.0016759556 -0.09251007

bias f4 [60]
000000 8e d5 17 bd 72 0e 35 bd 47 9c 0a bd fc 1b 79 bc
       -0.037068896 -0.04420323 -0.033840444 -0.015204426
000010 46 d2 17 bd 3d 35 57 bd 1c a1 c4 3d 93 fe f8 b9
       -0.037065767 -0.052541006 0.09601042 -0.0004749192
000020 ae e4 eb 3d 35 db 17 bd 03 59 80 3d 89 80 35 bd
       0.115182266 -0.037074286 0.06266978 -0.044312034
000030 93 e5 80 3c 53 62 01 bb 62 e1 17 bd 7a fd 16 3e
       0.01573447 -0.0019742444 -0.037080176 0.14745131
000040 a3 e0 78 3e 6d d8 17 bd d6 e7 89 be bf da 17 bd
       0.24304442 -0.037071634 -0.2693469 -0.037073847
000050 50 b7 9b 3d 89 fb cc bd c1 c9 17 bd 6e 1d 46 ba
       0.076033235 -0.10008914 -0.037057642 -0.0007557486
000060 52 24 18 bd 5d c6 17 bd 2b d7 17 bd 19 f5 17 bd
       -0.037144013 -0.03705441 -0.037070435 -0.037098978
000070 b3 52 0b bd 86 23 09 3e c0 54 1b be a4 b0 01 be
       -0.034014415 0.13392457 -0.15169048 -0.1266504
000080 71 9d de 3c 1f ea 17 bd df c7 17 bd b1 56 d9 3c
       0.027174683 -0.03708851 -0.037055846 0.026530595
000090 e8 ca 17 bd f2 ca 17 bd 67 d6 17 bd 5e 55 f9 ba
       -0.03705874 -0.037058778 -0.037069704 -0.0019022634
0000a0 13 07 0e bd 8c 82 88 bc 07 96 49 3c 5f de 17 bd
       -0.034674715 -0.016663812 0.012303836 -0.037077304
0000b0 57 bb 17 bd 07 e2 17 bd e6 27 c1 3a 21 db 16 bc
       -0.037043896 -0.03708079 0.0014736622 -0.009207518
0000c0 8d 98 b1 bd aa 23 64 3a 86 6b bb 3d 1d c1 5b 3e
       -0.08671675 0.0008702824 0.09151368 0.21460386
0000d0 b4 d3 17 bd 3c be 8f 3c da ca 17 bd 8d c5 17 bd
       -0.03706713 0.017546766 -0.03705869 -0.037053633
0000e0 50 d4 88 3d c6 c8 17 bd 9d 39 18 bd 0e e9 17 bd
       0.066811204 -0.037056707 -0.03716432 -0.037087493

weight f4 [60, 60]
000000 ff 45 d1 bd 13 b4 e0 3e 18 63 3f 3d 37 58 b1 3c
       -0.10218429 0.43887386 0.046725363 0.02164851
000010 a2 41 d1 bd 7e 5e e5 3e 56 6b 0b 3e 5a e5 58 3d
       -0.102175966 0.44798654 0.13615164 0.0529531
000020 56 88 0b 3e f0 46 d1 bd f5 70 0b 3e 07 19 12 3e
       0.13626227 -0.102186084 0.13617308 0.1426736
000030 f7 49 1a bc fe 24 4d 3a e0 48 d1 bd 6d dc fd 3d
       -0.009417049 0.00078256417 -0.10218978 0.123955585
000040 dd c7 ae 3d 7b 48 d1 bd dc 22 f8 3d e6 45 d1 bd
       0.08534215 -0.10218903 0.12116024 -0.1021841
000050 9b 39 5b 3d 4f 38 53 3e 2d 40 d1 bd 0f d6 88 be
       0.053521734 0.20626949 -0.10217319 -0.26725814
000060 0a 66 d1 bd 2f 3d d1 bd ba 46 d1 bd fd 53 d1 bd
       -0.102245405 -0.10216748 -0.10218568 -0.102210976
000070 78 13 87 bc eb a6 4b 3e 3c b5 12 be 10 99 01 bd
       -0.016488776 0.19887893 -0.14326948 -0.031640112
000080 a1 a0 e5 3c 5f 4a d1 bd 21 3e d1 bd 30 10 03 be
       0.028030695 -0.10219263 -0.10216928 -0.12799144
000090 e0 3e d1 bd 97 40 d1 bd d3 47 d1 bd 28 29 87 3e
       -0.102170706 -0.10217398 -0.102187775 0.26398587
0000a0 66 4c 97 3a 12 f4 3b 3c d8 8c 38 3e 9b 49 d1 bd
       0.0011543154 0.011471765 0.18022478 -0.10219117
0000b0 b9 38 d1 bd 1e 47 d1 bd a5 d0 6c 38 52 d4 3a 3e
       -0.10215897 -0.10218643 5.64611e-05 0.18245056
0000c0 84 1b 0c be 7e ee 44 39 62 71 0d 3e 3f c2 18 3e
       -0.13682371 0.00018780862 0.13812783 0.14917849
0000d0 ae 44 d1 bd 58 9a e9 3d dd 3d d1 bd bb 3c d1 bd
       -0.10218178 0.11406392 -0.102168776 -0.102166615
0000e0 49 e5 6d 3e 47 42 d1 bd f0 6c d1 bd 9e 4b d1 bd
       0.23231997 -0.102177195 -0.10225856 -0.10219501
0000f0 d1 84 d8 bd d3 7f e6 3e 1a fc 44 3d 49 02 b7 3c
       -0.10572208 0.45019397 0.048091985 0.022339957
000100 47 81 d8 bd 99 c2 ec 3e 91 f1 0f 3e 51 89 19 3d
       -0.10571533 0.46242216 0.14056994 0.03748447
000110 3e dd 0e 3e 4d 86 d8 bd 4c c1 11 3e f4 ae 16 3e
       0.13951585 -0.10572491 0.14233893 0.14715177
000120 05 79 25 bc 74 0a 50 3a db 88 d8 bd a3 b1 03 3e
       -0.010099654 0.0007936128 -0.10572978 0.12860732
000130 e3 82 a5 3d e9 87 d8 bd 43 a0 ff 3d 83 85 d8 bd
       0.08081605 -0.10572798 0.12481739 -0.1057234
000140 b8 5c 6c 3d 5f 52 5a 3e f5 7e d8 bd 64 af 8c be
       0.05770561 0.21320485 -0.1057109 -0.27477562
000150 00 a6 d8 bd 80 7c d8 bd 9b 85 d8 bd 5e 93 d8 bd
       -0.10578537 -0.105706215 -0.10572358 -0.10574983
000160 f5 f2 86 bc 98 69 4b 3e eb 2d 12 be 22 cf 06 bd
       -0.016473273 0.198645 -0.14275329 -0.03291238
000170 16 d4 eb 3c 6c 8a d8 bd f2 7c d8 bd f8 7c 07 be
       0.028787654 -0.10573277 -0.105707064 -0.13231266
000180 a0 7e d8 bd 0a 7f d8 bd a1 86 d8 bd b2 a7 8e 3e
       -0.10571027 -0.10571106 -0.105725534 0.27862316
000190 b4 f4 a7 3a 5c 64 44 3c 8a 3b 3e 3e 87 89 d8 bd
       0.0012814016 0.011986818 0.185774 -0.10573106
0001a0 8e 77 d8 bd 2a 86 d8 bd d6 0a 76 38 d1 37 41 3e
       -0.10569678 -0.10572465 5.8661062e-05 0.18868949
0001b0 00 bd 10 be 7d 35 2f 39 7c 84 11 3e fb bd 1f 3e
       -0.14134598 0.00016709226 0.14210695 0.15599816
0001c0 8f 83 d8 bd b5 8b f1 3d eb 7c d8 bd 85 7b d8 bd
       -0.10571968 0.11794225 -0.10570701 -0.105704345
0001d0 c4 1f 74 3e af 81 d8 bd c2 ad d8 bd 5a 8b d8 bd
       0.23840243 -0.1057161 -0.10580017 -0.10573454
0001e0 a3 3f 89 38 10 51 c8 b9 f7 ca ce b7 d3 3d 78 38
       6.544522e-05 -0.0003820737 -2.4651627e-05 5.9185386e-05
0001f0 25 41 89 38 82 41 93 b8 03 83 24 37 98 38 93 3a
       6.544803e-05 -7.021708e-05 9.805665e-06 0.0011232076
000200 bd d6 5c 3a 18 3f 89 38 ff 0c 12 b9 47 15 a6 38
       0.00084243325 6.544421e-05 -0.00013928486 7.91946e-05
000210 be c8 05 b9 0d 23 44 b7 9c 46 89 38 f0 2c a4 b9
       -0.0001275865 -1.1690671e-05 6.545821e-05 -0.00031314
000220 25 cb 42 3a be 3e 89 38 de 16 90 ba 57 3e 89 38
       0.00074307836 6.544356e-05 -0.0010993143 6.544281e-05
000230 eb bc d7 b9 b8 e8 8f 38 24 43 89 38 3a 07 f9 b8
       -0.0004114875 6.8621186e-05 6.545175e-05 -0.00011874591
000240 a5 41 89 38 5c 45 89 38 51 41 89 38 4a 4a 89 38
       6.544896e-05 6.545588e-05 6.544835e-05 6.5465065e-05
000250 c3 1f 00 39 bb 2b 1a 3a 5a ce c8 38 71 0c 80 b9
       0.00012218863 0.000588115 9.575179e-05 -0.00024423332
000260 18 25 aa 39 5b 41 89 38 95 42 89 38 d4 21 ef b7
       0.00032452564 6.5448425e-05 6.545071e-05 -2.8506773e-05
000270 99 42 89 38 06 43 89 38 20 41 89 38 f9 90 af b9
       6.545074e-05 6.545153e-05 6.5447995e-05 -0.00033486614
000280 32 dd 2d 37 ab c8 90 37 fe e2 24 b8 67 3f 89 38
       1.0363105e-05 1.7259581e-05 -3.931205e-05 6.544479e-05
000290 38 3f 89 38 fc 3e 89 38 b9 52 d6 b7 1c 7f 8c 36
       6.5444445e-05 6.544401e-05 -2.5549309e-05 4.1871226e-06
0002a0 bf a9 3d 39 5f 45 82 b7 55 da c1 b9 de 3c 04 3a
       0.0001808768 -1.5529511e-05 -0.000369745 0.00050444703
0002b0 7f 43 89 38 54 ef b9 b7 9c 43 89 38 21 44 89 38
       6.545241e-05 -2.2165164e-05 6.545262e-05 6.545359e-05
0002c0 51 16 c9 b8 f1 43 89 38 9c 37 89 38 4d 44 89 38
       -9.5885836e-05 6.545324e-05 6.543027e-05 6.545391e-05
0002d0 f4 e7 c7 bd d0 92 d7 3e 55 ad 37 3d a7 de a8 3c
       -0.097610384 0.42104197 0.044843037 0.020613981
0002e0 0e e4 c7 bd c0 ac db 3e 1d a4 05 3e c7 b1 42 3d
       -0.09760295 0.42905235 0.13050885 0.047532823
0002f0 09 af fd 3d be e8 c7 bd 90 51 05 3e 90 04 0c 3e
       0.12386901 -0.09761189 0.13019395 0.13673615
000300 f0 d4 0c bc 4c 5c 41 3a c2 ea c7 bd d8 3c f3 3d
       -0.00859569 0.0007376119 -0.097615734 0.118768394
000310 a8 a8 a1 3d f1 e9 c7 bd b9 7d da 3d fe e7 c7 bd
       0.07893497 -0.09761418 0.10668511 -0.09761046
000320 d1 82 4d 3d 9b f4 49 3e 52 e2 c7 bd 78 85 83 be
       0.050173584 0.19722216 -0.09759964 -0.25687766
000330 3a 06 c8 bd cc df c7 bd b3 e8 c7 bd 7d f5 c7 bd
       -0.097668126 -0.09759483 -0.09761181 -0.0976362
000340 54 45 86 bc 8b 9f 43 3e 87 7e 0c be 1c c5 f5 bc
       -0.01639048 0.1910383 -0.13720141 -0.030001216
000350 b3 67 dd 3c 13 ec c7 bd 42 e0 c7 bd 97 ba fa bd
       0.027026987 -0.097618245 -0.09759571 -0.122426204
000360 d6 e1 c7 bd c9 e2 c7 bd a6 e9 c7 bd 06 b7 81 3e
       -0.09759872 -0.09760053 -0.09761362 0.25334948
000370 9d 0e 83 3a 90 83 31 3c 22 a1 30 3e a9 eb c7 bd
       0.0009998862 0.01083459 0.17248967 -0.097617455
000380 ac db c7 bd 5b e9 c7 bd 19 b9 83 38 11 86 32 3e
       -0.09758696 -0.09761306 6.281044e-05 0.17433955
000390 44 ff 05 be 20 1a 3d 39 4f d1 07 3e 59 a7 1f 3e
       -0.13085657 0.00018034177 0.13263439 0.15591182
0003a0 7e e6 c7 bd 5c 4b df 3d 30 e0 c7 bd 2f df c7 bd
       -0.0976076 0.109030455 -0.09759557 -0.09759366
0003b0 01 69 65 3e 79 e4 c7 bd a3 0c c8 bd 2f ed c7 bd
       0.22403337 -0.097603746 -0.09768035 -0.09762036
0003c0 11 b4 ac bd d4 3d be 3e aa c1 21 3d ed af 90 3c
       -0.084327824 0.37156546 0.039491333 0.017662013
0003d0 13 b1 ac bd b6 82 bf 3e 89 68 e9 3d 87 72 fc 3c
       -0.08432212 0.37404412 0.113968916 0.03081633
0003e0 57 0d d7 3d 44 b4 ac bd f8 3f e7 3d 67 97 f4 3d
       0.10500591 -0.084328204 0.11291498 0.1194294
0003f0 04 59 cf bb d5 b3 41 3a 63 b6 ac bd 61 fd cf 3d
       -0.00632775 0.0007389163 -0.08433225 0.1015575

bias f4 [60]
000000 cf 15 7f 3d 2b f8 83 3d 0f b5 a3 b8 f9 9a 73 3d
       0.062276658 0.06443819 -7.8061705e-05 0.059473965
000010 70 e4 51 3d cd 93 11 b8 64 6b 99 3d 5a a4 3a 37
       0.051243246 -3.4708344e-05 0.07491186 1.112473e-05
000020 9e ad fb b7 43 a0 86 3d b2 0c 97 3d e0 a2 9e 3d
       -3.0002378e-05 0.06573536 0.07375468 0.0774591
000030 14 b4 8b 3d de 14 a5 b8 10 43 91 3d 74 4d 74 3d
       0.068214566 -7.8717e-05 0.07092869 0.059644178
000040 dc 0b a2 3d be c2 66 3d 42 46 0e b8 5d f7 62 3d
       0.07912418 0.056338064 -3.392087e-05 0.055411685
000050 12 fc 2f b8 dd 64 6b 3d 54 0f ab bd e2 00 a6 38
       -4.195801e-05 0.057469238 -0.08352533 7.915661e-05
000060 13 c1 8b 3d 75 1f 23 37 74 b8 51 bd 72 95 a2 3d
       0.06823935 9.722881e-06 -0.0512013 0.07938661
000070 f1 98 63 b7 2e 5c b5 3a 6e 5a 96 3d 7b 8e a2 3d
       -1.3565864e-05 0.0013836676 0.07341467 0.07937332
000080 12 18 88 b9 dc bb 91 3d 19 b0 8f 3d e3 d2 9d 3d
       -0.00025957875 0.071159095 0.0701601 0.07706239
000090 71 70 e1 38 4b 4a 85 39 1d 28 49 b8 30 ae b7 35
       0.0001074978 0.0002542309 -4.7959493e-05 1.3685258e-06
0000a0 0c eb 23 b9 c3 32 35 bd a8 de 48 bd 3f 50 7d 3d
       -0.00015632453 -0.044237863 -0.049040467 0.061844107
0000b0 8b 1b 12 36 2d e4 9c b6 73 73 8d 3d 5b 47 98 3d
       2.1771727e-06 -4.6757254e-06 0.06906786 0.07435485
0000c0 34 02 88 3d ba 7f 8d b8 9f 83 1f b7 9c 5a 5c b2
       0.06641045 -6.747195e-05 -9.507784e-06 -1.2826288e-08
0000d0 0f 2c 1c b4 da ca b3 38 49 83 91 3d 36 3f 78 3d
       -1.454466e-07 8.573169e-05 0.07105119 0.060607158
0000e0 e8 51 14 36 4e 76 9d 3d 0a 63 49 b6 f3 3f 91 3d
       2.2101394e-06 0.076885805 -3.0008982e-06 0.070922755

weight f4 [1, 60]
000000 17 7d 47 3f e3 51 4e 3f ad 7f 85 b8 4b 7a 3e 3f
       0.77925247 0.805937 -6.365716e-05 0.74405354
000010 13 00 24 3f 0b 56 7a 39 a5 ae 6f 3f 90 d6 04 ba
       0.64062613 0.00023873911 0.9362586 -0.00050673727
000020 66 5b c8 b8 8f 76 52 3f b3 10 6c 3f d2 c3 77 3f
       -9.5537674e-05 0.82212156 0.9221298 0.96783173
000030 47 88 5a 3f 0f 2c d5 39 c3 08 63 3f 53 35 3f 3f
       0.8536419 0.00040659352 0.88685244 0.7469074
000040 6a fe 7c 3f 9c 87 34 3f e1 80 a2 b7 7f a7 31 3f
       0.98825705 0.70519423 -1.9371919e-05 0.69396204
000050 2c 53 80 39 58 35 38 3f 6f 2d 8d c0 3f 8b 00 ba
       0.0002447603 0.71956396 -4.411796 -0.0004903562
000060 1e 95 5a 3f b9 05 02 b8 72 5a 8b c0 9a e0 7d 3f
       0.85383785 -3.0999745e-05 -4.3547907 0.9917084
000070 cf af fa 36 b6 ab 8c 39 d9 e8 6a 3f b0 ca 7d 3f
       7.4710474e-06 0.00026830815 0.9176155 0.991374
000080 2e a0 a0 ba 2b ce 63 3f 67 8c 60 3f 2f 66 76 3f
       -0.0012254769 0.8898646 0.87714237 0.9624967
000090 c9 8c 1a b9 fc 4d aa ba 69 6f 9a b7 07 5a 02 b7
       -0.00014739031 -0.0012993212 -1.841011e-05 -7.769565e-06
0000a0 06 5a 29 b9 d5 fc 6c c0 fb 02 99 c0 5c 21 46 3f
       -0.00016150632 -3.7029316 -4.781614 0.7739465
0000b0 aa a0 e9 b6 50 68 a3 37 b3 29 5d 3f b1 0c 6e 3f
       -6.962645e-06 1.9479688e-05 0.8639175 0.92988116
0000c0 0c c9 54 3f ef 80 2d 39 c4 19 28 b7 27 ca 48 35
       0.83119273 0.00016546597 -1.0019579e-05 7.4799976e-07
0000d0 ea 2f af 38 dc 43 56 ba 5f 6b 63 3f cc 3a 42 3f
       8.353575e-05 -0.0008173564 0.8883571 0.75870967
0000e0 82 ed 2a b7 96 fe 75 3f 21 ac 15 37 43 1b 63 3f
       -1.0188089e-05 0.9609159 8.921169e-06 0.88713473
