Total_RCS/torch_model.pth (torch, 49415 bytes, 9 tensors)

weight f4 [60, 3]
000000 d0 a6 84 bb 6f 32 19 bb a7 97 b2 39 a8 3c 96 bf
       -0.004048206 -0.0023376008 0.00034063795 -1.1737261
000010 a2 80 73 bf 05 55 ba 3e d8 b5 be be e0 dd a4 be
       -0.95118153 0.3639299 -0.3724811 -0.32200527
000020 d8 1e eb bd ec d3 46 3f ee 55 10 bf 9a 21 0b be
       -0.11480492 0.7766712 -0.5638112 -0.13587037
000030 5e 9a 04 3e e2 81 f1 3d 4a b1 63 3c 53 52 93 3e
       0.12949511 0.11792351 0.0138972495 0.28773746
000040 27 ab a6 bf 50 51 65 3d 7b bb 70 be 08 10 05 be
       -1.3020982 0.05598575 -0.23509018 -0.12994397
000050 04 e6 65 3c c8 91 95 3e d1 a9 7b bf 4e ae a3 3d
       0.014031891 0.29212785 -0.98305994 0.0799223
000060 89 03 31 36 fb a1 44 36 19 52 a0 b6 3a c0 7a bd
       2.6377113e-06 2.930056e-06 -4.777929e-06 -0.061218478
000070 c7 02 80 bd 0b 33 2b bc 14 5b 99 3e 99 a5 8e 3d
       -0.0625053 -0.010449181 0.299523 0.06965179
000080 38 5c a4 3e fb 59 9e bf 38 f6 8f bd d2 ec f6 bc
       0.32101607 -1.237121 -0.070293844 -0.030142222
000090 90 2b ab 3e 55 da b8 3e 48 19 7c 3d 6a 3f ac 39
       0.33431673 0.36104074 0.061547548 0.00032853644
0000a0 99 5d 62 39 4b 16 58 b8 5b ff 33 bf a7 b0 e0 bf
       0.00021587907 -5.1519175e-05 -0.70311517 -1.755391
0000b0 3f 46 a5 3d 4d 25 f1 3f 47 53 09 3f a2 02 ce be
       0.08070039 1.8839508 0.53642696 -0.40236384
0000c0 7e 12 0d bf b1 fc 9e 3f af 3c 05 be f8 ea 38 3e
       -0.5510634 1.2420865 -0.1301143 0.18058383
0000d0 35 40 52 3e cb 99 59 3c 8c 67 1a bd cf 39 21 40
       0.20532306 0.013281296 -0.037696406 2.5191534
0000e0 14 0d 16 40 8a 4d 21 bf 64 31 32 3e 7b 33 ce be
       2.3445482 -0.6300894 0.17401654 -0.4027365
0000f0 81 b0 9f be b2 01 78 be a3 21 0f bc 75 f7 20 40
       -0.3118935 -0.24219397 -0.008736047 2.5151036
000100 90 4d 9a 3d 0d 1e d3 be 79 34 73 bf 4d 1d e2 bf
       0.07534325 -0.41233864 -0.9500194 -1.7665192
000110 d1 be 7b 3d fe d5 14 3d ed cb f1 be 8f cd 5d be
       0.061461274 0.03633689 -0.47225896 -0.21660446
000120 61 32 82 be d5 8d 31 be b1 c0 4e 3c 5c 64 46 3e
       -0.2542906 -0.17339261 0.012619183 0.19374222
000130 87 19 35 3e 35 57 d7 3b 25 2a 13 39 37 c1 e1 bf
       0.17685519 0.006571675 0.00014034713 -1.763709
000140 d4 56 6c c0 54 9a 8a 3e da 5d 12 3e a8 20 ab bc
       -3.6927996 0.27070868 0.14293614 -0.020889595
000150 b8 41 a5 bf 16 45 e3 3f a4 91 1a bd 6b 94 9d 3d
       -1.2910681 1.7755458 -0.03773655 0.07694324
000160 28 c3 cb 3f 15 7d 03 be d9 f6 a3 3f 53 e5 2b 3d
       1.5918932 -0.12840684 1.2809707 0.041966747
000170 c6 1c 28 3d be 68 0b bf 39 ee 90 be 6b 31 93 bf
       0.041043065 -0.544567 -0.2830675 -1.1499456
000180 b9 7a 54 3f 1b 1d 87 be 18 75 bb 3e 55 e1 90 bf
       0.8299976 -0.26389393 0.36612773 -1.1318766
000190 44 16 d9 be 43 75 2a be 1e 1c 61 3d 3d 88 28 bf
       -0.423998 -0.16646294 0.054958455 -0.65832883
0001a0 b5 1a 29 40 99 81 64 bf ef de 79 bf 32 d3 c0 3c
       2.642255 -0.8926025 -0.97605795 0.023538206
0001b0 61 a5 e7 b7 9e 9b 35 39 de c1 12 b9 ff a9 ab 3e
       -2.7614356e-05 0.00017319477 -0.00013995866 0.33528134
0001c0 01 ad ff 3f b2 36 19 3f aa 50 a1 bd 09 b7 82 bf
       1.9974672 0.59849083 -0.078767136 -1.0212108
0001d0 29 79 9a be 2d f8 8c 3e 5b 8a 6c 3d ca d2 97 3d
       -0.30170563 0.27533093 0.057749134 0.07413252
0001e0 d0 95 2e 40 80 e3 4d bd 53 3b b1 3c 7f b4 4f 3e
       2.7278938 -0.05026579 0.021634733 0.20283698
0001f0 87 69 42 3e d6 f3 82 3b b2 1a b9 b8 5c c4 2d b8
       0.18985568 0.0039963527 -8.82646e-05 -4.1429288e-05
000200 c4 98 6f 37 5e aa 95 ba cb 86 8d ba 4b f1 d7 b8
       1.4281079e-05 -0.0011418571 -0.0010797618 -0.00010296943
000210 f0 fb b2 be 15 b5 01 3f 5c 3c 68 be c4 c0 13 3e
       -0.34957838 0.50666934 -0.22679275 0.14429003
000220 fd 62 44 3e df 5b 57 3c 99 39 6a bf 14 ea a8 bd
       0.19178386 0.013144462 -0.9149414 -0.08247772
000230 c1 8a 8f 3f f3 bb ba 3d 46 24 09 40 3e fb c8 3f
       1.1214219 0.0911788 2.142839 1.5701673
000240 98 af 11 be 03 e9 98 3e 92 b5 1c 3e 19 ea 44 39
       -0.1422714 0.29865274 0.15303639 0.00018779225
000250 bd 87 0e 39 64 8a ef b7 df 39 ac be 09 2d 1a 3c
       0.00013592742 -2.8555463e-05 -0.33637902 0.009410151
000260 06 ce b3 bd 88 ca 08 bf 6f ee b3 3f 17 70 64 3e
       -0.0877953 -0.5343404 1.4057139 0.22308384
000270 6a 1f 03 be b3 f8 05 be 07 37 2b bc 83 2c dd 3d
       -0.12804952 -0.13083152 -0.010450131 0.107995056
000280 0c be 86 3e 6e 8e 11 bf b5 5b 01 bf e8 8a 96 3d
       0.2631687 -0.56857955 -0.5053056 0.07350713
000290 74 bd ab bd 6a 70 3c be 7b 6f 00 be f5 79 e7 3b
       -0.08385745 -0.18402258 -0.12542526 0.007064099
0002a0 81 1a 31 3d 4c 7d 80 3f a6 85 6a 3e ea 71 95 be
       0.043238167 1.0038238 0.22902545 -0.29188472
0002b0 de fa e2 39 80 f6 c5 3d cd 3e 91 b9 ea d9 61 3b
       0.0004329299 0.09666157 -0.00027703345 0.0034462162
0002c0 5c 67 5f bb 8c 14 6d be ba be 8c 3d 90 ee b8 3d
       -0.0034088707 -0.2315237 0.06872316 0.09029877

bias f4 [60]
000000 77 99 5a bb 79 2d fb bc 54 54 b5 be 22 ff 51 be
       -0.0033355632 -0.030661331 -0.354159 -0.20507482
000010 9b d9 f5 3d bd 7d a4 3f d8 38 28 be 4a 12 51 3f
       0.120043956 1.2850872 -0.16427934 0.8166853
000020 2a ac 9c 35 58 b8 7b bd 9c ea e4 3e d2 f8 ba 3f
       1.1673012e-06 -0.0614551 0.44710243 1.4607184
000030 f5 7e 99 3e f6 75 0b 39 7b 75 70 3f 44 94 06 40
       0.29979673 0.00013300017 0.9392926 2.1027994
000040 02 75 8c 3f fa 4d 21 3e 7d 97 eb 3f 07 89 63 3d
       1.0973208 0.15752402 1.8405606 0.0555506
000050 a4 5f 6f be da 77 d5 3f 6b fd ff bd cd b5 3d 3d
       -0.23376328 1.6677201 -0.124995075 0.046315957
000060 90 51 32 be 82 d1 21 3e 3b 46 37 c0 47 bc 33 3e
       -0.17413926 0.15802577 -2.8636615 0.17552291
000070 15 f0 de be 34 02 fc 3f 7e 05 b3 3f 74 10 a2 bf
       -0.43542543 1.9688172 1.3986051 -1.2661271
000080 f5 63 99 3f 85 1a 73 bf db 30 0e 40 90 91 44 bf
       1.198363 -0.9496234 2.221732 -0.7678461
000090 b4 47 b9 38 10 89 6c 3f 45 61 e4 be 75 f6 93 3e
       8.834843e-05 0.9239664 -0.4460546 0.2889897
0000a0 24 e2 15 bf bb e3 25 3e c0 de 2e b7 e7 6c 3c ba
       -0.5854819 0.16200154 -1.0423071e-05 -0.00071878586
0000b0 73 be 17 bf d5 c9 07 3e 40 05 3b bf 03 ed 43 3f
       -0.5927498 0.13260587 -0.73054886 0.76533526
0000c0 46 05 35 3c ab 51 8e 38 a1 a2 bc be 4d 36 09 3f
       0.011048621 6.7862995e-05 -0.36842826 0.5359848
0000d0 01 65 eb bd f1 ab a1 3f 1e e1 0c bf c2 17 0d be
       -0.11493874 1.2630597 -0.55031 -0.13778594
0000e0 6d 0a 30 bf 0b 4d e4 bd e7 ec 35 b9 7a 02 c1 bd
       -0.6876591 -0.11147507 -0.00017349758 -0.094243005

weight f4 [60, 60]
000000 c7 9b 2c ba 0c ba 31 3e ee 38 5a 3c 88 1f 09 bc
       -0.0006584492 0.17356128 0.013319237 -0.008369334
000010 70 b1 61 bc eb 6f a2 3e a9 40 99 3c 8a 1f 69 3e
       -0.013775215 0.31726012 0.01870759 0.22765937
000020 00 30 1a 37 30 32 ef 3b 80 e3 c9 3c a0 15 0e 3e
       9.190291e-06 0.007299684 0.024644613 0.13875437
000030 c2 48 a6 bc cf cc 54 39 47 a0 59 3e 41 43 a5 3d
       -0.020298366 0.00020294193 0.21252547 0.08069468
000040 32 ad 14 3e ef 87 ca bc 11 32 c9 3c ec 7e 69 3d
       0.14519194 -0.024723021 0.024560006 0.057005808
000050 61 ab d2 3c 5d bc 50 be 6d 49 be 3d 2c 74 c0 3d
       0.025716485 -0.20384355 0.092913486 0.09397158
000060 32 ae cb 3c 58 c1 b6 bc ea 09 ed bb c6 18 b8 bc
       0.024863336 -0.02230899 -0.007233848 -0.02247275
000070 6b a2 4f be c9 a2 27 3e c8 a7 da 3c 9f 00 92 bd
       -0.20276801 0.16370691 0.026691332 -0.07129025
000080 75 57 b5 3d 47 38 06 3d 05 2c 9e 3d e5 ff 7f 3c
       0.08854572 0.032768514 0.0772324 0.015624975
000090 32 eb 19 b9 25 05 a9 3d 2f 09 6e bd 2c d0 4c 3c
       -0.00014678834 0.08252934 -0.058114227 0.012500804
0000a0 e6 78 b3 bd 90 be c5 bc 08 41 3f 34 24 74 c0 b9
       -0.08763294 -0.024138719 1.781192e-07 -0.00036707625
0000b0 62 4c 0e be 81 1c ce bc e0 0f a2 bd f1 e0 d7 bc
       -0.13896325 -0.025160076 -0.07913184 -0.026352378
0000c0 8b 5b 33 bd 32 6f 06 39 44 c9 0b bd a7 7b aa 3d
       -0.043788474 0.0001282066 -0.03412749 0.08324366
0000d0 44 a4 90 3c 32 12 0f 3e 51 45 3f bd a4 08 91 3c
       0.017656453 0.13971785 -0.046696965 0.017704315
0000e0 a0 e7 6c be ef ef 69 3c 7b 01 34 bb 59 f5 c1 bb
       -0.23135233 0.014278396 -0.0027466703 -0.0059191403
0000f0 37 df 27 3b 06 f8 1e 3f 66 d6 91 3e 80 07 d2 be
       0.0025615224 0.62097204 0.28483886 -0.41021347
000100 9b 79 df bd 13 6f b6 3e c1 b0 16 3e ea f3 49 3e
       -0.10911866 0.35631618 0.14715864 0.19721952
000110 b1 6d 06 38 ce 33 67 3d 0d 4b b2 bd c2 6c c6 3e
       3.2050248e-05 0.05644589 -0.08705721 0.3875485
000120 b6 99 88 be 82 c4 8d 39 fd 5a 2f 3f 4c 82 11 3e
       -0.26679772 0.00027040025 0.6849821 0.1420986
000130 a4 40 11 3f b0 a5 1d be 67 8f d1 be a4 01 aa 3e
       0.5673926 -0.15395236 -0.4092972 0.33204377
000140 ee 3f 66 3e ce 99 c4 3d 11 1c c0 3e 62 ca 69 3d
       0.22485325 0.095996484 0.37521413 0.057077773
000150 0e a8 30 3e 15 35 1b be 19 30 0a 3f 74 4f 2b be
       0.17251608 -0.15156968 0.5397964 -0.16729528
000160 af db d8 3e 29 fd fd 3e 1c b8 25 3d 9f ec a9 bc
       0.42355105 0.49607208 0.040458784 -0.020742713
000170 6c 5e 10 3e 48 97 86 3e 16 89 2d 3e c5 ad ba 3d
       0.14098519 0.26287293 0.16946825 0.09115175
000180 99 a0 9e b9 81 01 d3 3d 08 19 ce bd 99 d8 fd bd
       -0.00030255763 0.10303021 -0.10063368 -0.12394828
000190 87 06 07 bf e4 74 22 be d3 aa d0 b7 35 fd 9e 39
       -0.52744335 -0.15864903 -2.4875078e-05 0.00030324762
0001a0 07 de ba bd 67 13 08 be 64 23 93 bd 42 03 94 be
       -0.091243796 -0.13288651 -0.071844846 -0.28908736
0001b0 b8 b7 e7 3c 3e 92 d6 39 05 08 c2 3d 6a 12 20 3f
       0.028285846 0.0004092622 0.09474186 0.625281
0001c0 48 91 db 3d 42 4f 4b 3e eb 5d 44 3d 09 86 fd 3d
       0.107210696 0.19854453 0.04794113 0.12379081
0001d0 9b b0 97 be ca 6b fc 3d e9 a9 36 bb 6b b1 a4 3d
       -0.29626927 0.12325247 -0.002787227 0.08041652
0001e0 74 3d 98 3b c2 4e a8 be 54 04 ac bd fc aa 38 3e
       0.0046459977 -0.32872587 -0.08399263 0.18033975
0001f0 ed 2f ed 3c d3 e3 19 bf 38 4a bf bc c0 83 ab be
       0.028953517 -0.6011326 -0.02335082 -0.33498955
000200 52 ff ef b6 80 6b 3f bc 01 fa 4f b9 20 c0 ff be
       -7.1524782e-06 -0.011683345 -0.00019834192 -0.49951267
000210 d2 50 ed 3d 03 ea 25 ba ae 39 58 bf 44 20 16 be
       0.11587681 -0.0006329121 -0.8446301 -0.14660746
000220 cb 46 fe be 11 de 94 3d a8 bd f8 3c 05 de 2e be
       -0.49663386 0.07268918 0.030363873 -0.17076881
000230 04 f5 87 bd 48 f4 d5 3d ac 69 13 bf 1f 00 8d be
       -0.0663853 0.104469836 -0.5758312 -0.27539155
000240 ba d6 48 bd 5e c8 62 3d bc 47 c2 be fe 7f e5 3c
       -0.049032904 0.055366866 -0.37945354 0.028015133
000250 4d 30 2b be 44 ae 30 3e 11 b5 a2 be 2d af 97 be
       -0.16717644 0.17253977 -0.31778768 -0.29625836
000260 55 b9 96 be 75 f0 cf 3d 97 be 13 3f 18 00 4a be
       -0.29438272 0.101532854 0.5771269 -0.19726598
000270 97 47 cb 38 5a 4f 86 3e 3d 76 95 be ed 83 0b bd
       9.693129e-05 0.26232415 -0.2919177 -0.03406136
000280 40 9f 87 3d 77 0d 80 3d 1e eb db 38 8f 1f dd 3a
       0.066221714 0.06252568 0.00010486528 0.0016870367
000290 8c 8c 7e 3e 88 30 90 3d 2a 6c 62 3e e4 02 d6 3e
       0.24858302 0.070405066 0.22111574 0.4179908
0002a0 55 dc 22 3e 37 13 b8 b9 f4 cd b4 3d cc 6a e1 be
       0.15904362 -0.0003510953 0.08828345 -0.44026792
0002b0 ba 86 20 bd fd 21 cd bd fd 59 38 3e d9 64 f3 bc
       -0.039190985 -0.100162484 0.18003078 -0.029711174
0002c0 6e f6 12 3f e4 3a 31 3d 76 e8 bc 3b 69 f0 91 3d
       0.5740727 0.043269053 0.005765016 0.07125933
0002d0 78 df 15 bc 0b 4b e6 be 49 dd 19 be fe ef c9 3e
       -0.009147517 -0.44979128 -0.1502582 0.39440912
0002e0 39 c2 e2 3d 95 92 56 be 88 e6 51 be a9 e1 d1 bd
       0.11072201 -0.20954354 -0.20498097 -0.102481194
0002f0 c5 30 81 b9 24 f0 7e bd a4 4f 04 3c a1 83 87 bf
       -0.00024641133 -0.062240735 0.008075628 -1.0587045
000300 19 cc 12 3e b8 eb f1 ba 91 1b e2 be ae 5d 36 be
       0.1433567 -0.001845709 -0.44161656 -0.17809173
000310 44 92 83 be ac dc 05 3e a9 ba c9 be bf 26 7f be
       -0.2569753 0.13072461 -0.39400223 -0.24917124
000320 a1 c9 59 be 65 e4 66 3d 7d 60 2a be ea 7a 86 3d
       -0.21268322 0.056370158 -0.1663837 0.06566413
000330 57 76 52 be f4 fe 1b 3e 3f 96 c0 3e 60 4f 6e 3e
       -0.20552956 0.15233976 0.3761463 0.23272467
000340 e1 b3 83 be 0f fa 1c bf d4 48 34 be c5 a1 96 3d
       -0.25723174 -0.6131906 -0.17605907 0.07355074
000350 86 e6 2f be 16 ea ed bc 43 2b 44 be e4 b5 36 bd
       -0.17177781 -0.029042285 -0.19157128 -0.04460706
000360 ee 83 b7 38 d7 33 8a bd 94 0b 2a 3e 5c 13 a3 3d
       8.750694e-05 -0.06748169 0.16605979 0.07962677
000370 e2 f2 9b 3d b4 f9 1e 3e 2e c0 69 3a f1 1a 16 3b
       0.076146856 0.15524942 0.00089168816 0.0022904242
000380 d1 89 87 3d e0 34 de 3d 55 3d f0 bd 77 13 1e 3b
       0.06618083 0.10849929 -0.11730448 0.0024120489
000390 e1 dd 1d be fa b8 1a bb 35 8f 5f bd 86 d0 54 be
       -0.15416671 -0.002360879 -0.054579932 -0.2078267
0003a0 49 10 dd bd 44 f8 5a be 2a 9f af 3b 07 8f 26 be
       -0.10794122 -0.21383768 0.00535955 -0.16265498
0003b0 01 93 47 3e 3d ea 90 be 0d 8c 2f bb 4a eb 6a be
       0.19489671 -0.2830371 -0.0026786358 -0.22941318
0003c0 7a 57 31 b8 37 ac f8 3d 87 03 04 bd 1e d8 d4 bd
       -4.2281557e-05 0.121422224 -0.032229926 -0.103927836
0003d0 f7 4d 69 3c 5e 33 2c 3e d8 db 04 bc ae e1 fc 3d
       0.01423978 0.1681647 -0.008109055 0.123477325
0003e0 aa 9f 89 b6 4c b0 f9 bb 8a 56 79 3d 9b 22 87 3e
       -4.1015055e-06 -0.007619893 0.060873546 0.2639359
0003f0 ea 82 ea 3c a5 b6 21 b8 29 97 ee 3d 66 9e ab 3d
       0.028626878 -3.8555492e-05 0.11649925 0.083798215

bias f4 [60]
000000 52 1a 92 3e bc 6d b3 3c ed 38 a2 be 27 9c 5c be
       0.28535706 0.021902911 -0.31684056 -0.21543942
000010 a2 03 f2 3e 19 36 e2 3d d3 e2 07 bf 72 ac 0d 3e
       0.47268397 0.110454746 -0.5308048 0.13835314
000020 fd c6 f2 3e ca ca 9c bd 85 f6 c5 3b 83 1b c0 3e
       0.4741744 -0.076558664 0.0060413503 0.3752099
000030 ab ae 5e 3c 05 99 19 be c9 5d a8 3e 55 ad ad 3e
       0.013591449 -0.14999779 0.32884052 0.33921304
000040 c3 6a cd 3e ce 0c 3a bc 1d 9c 4d be f2 af 9e ba
       0.40120515 -0.011355592 -0.20079084 -0.0012106879
000050 46 8b 04 bf 7b 09 88 be 38 32 c7 3e 4b 8b 27 be
       -0.51775014 -0.26569733 0.389055 -0.1636173
000060 25 7b 51 3e 8e c9 90 3c f0 82 94 3e f5 22 df 3d
       0.20457132 0.017674234 0.29006147 0.108953394
000070 a9 fc 83 3e 04 64 4e 3e a7 a2 71 be 2e f4 b5 3e
       0.25778702 0.2015534 -0.23597203 0.35537857
000080 ef f4 5f bd 5a ce 3b 3e 1c fd 53 3e 45 2d 8f bc
       -0.054676946 0.18340436 0.20702022 -0.01747764
000090 f1 e2 06 bf 9c 79 82 bc fd 92 bb bc 20 92 ef be
       -0.52690035 -0.015927128 -0.022897238 -0.46791172
0000a0 45 ce 24 3e 90 a9 45 3e 60 fc 30 3d 3a d6 3b 3f
       0.1609431 0.19302964 0.043209434 0.7337376
0000b0 76 99 0a bf 80 6d e9 3e 9a 08 0e 3e f9 8d 31 be
       -0.5414041 0.45591354 0.13870469 -0.17339315
0000c0 1c 73 ce be 54 6e a5 be 9e cd cc be 2f c9 9a 3d
       -0.40322196 -0.32310736 -0.40000623 0.07557904
0000d0 95 0d 70 3e 64 5a b9 bc 9a c4 20 be 4a ce 02 bf
       0.23442681 -0.02262611 -0.15699998 -0.5109602
0000e0 c8 ef 4f be 78 75 6a 3e 56 98 a2 3c db 38 5b 3e
       -0.20306313 0.22896373 0.01984803 0.21408407

weight f4 [60, 60]
000000 b6 36 b7 3d 5e ee 9a 3c ee 70 7e be 5d 27 8d be
       0.08945982 0.01891249 -0.24847767 -0.27569094
000010 07 4e 2a 3d d7 92 26 3e c6 73 24 bd a8 b8 81 3c
       0.04157832 0.16266952 -0.040149473 0.015835121
000020 b9 ac 2a 3d 41 27 0b bc c5 cf 21 3c 02 6f 46 3d
       0.041668627 -0.008493246 0.009876196 0.04844571
000030 14 00 e5 3c 38 24 00 bf 36 f6 f5 3d 18 7d 6b 3d
       0.027954139 -0.50055265 0.12009852 0.057492346
000040 a5 16 eb bc 89 62 72 3e 0c 22 8d be a2 76 d1 bd
       -0.028697321 0.236704 -0.27565038 -0.102277055
000050 ca 8d 25 bd ff eb 1d 3e 0c 13 81 3d 9c 2f 78 3c
       -0.040418424 0.15422057 0.06302461 0.01514807
000060 08 9b 85 bd af 4e b9 bd db b9 b9 3d c4 70 3a 3d
       -0.065237105 -0.09048211 0.09068652 0.045517698
000070 7b 0a 97 3e eb 93 10 be 89 d4 08 bc e6 f3 49 be
       0.29500183 -0.14118926 -0.008351454 -0.19721946
000080 68 9f 14 bc fd 5e 8c bd e6 3f 22 be f4 58 8e 3c
       -0.009071209 -0.06854055 -0.15844688 0.0173764
000090 13 6f 24 bd fe a6 03 3e b8 8f b0 bc eb 40 27 bd
       -0.04014499 0.12856671 -0.021552905 -0.040833395
0000a0 bc 10 c8 3d 24 9e 07 bb 9d a2 45 be 8e d8 18 3d
       0.09768817 -0.0020693624 -0.19300313 0.037315898
0000b0 5c df 7c 3e 43 a9 f7 3c e0 e1 03 3e 30 eb b4 bd
       0.2469458 0.030232077 0.12879133 -0.08833921
0000c0 4c 3d 38 bd b4 6b f3 be 52 0d 4d bc ab ef 0c 3d
       -0.044980332 -0.47543108 -0.012515383 0.034408253
0000d0 57 fc 54 bd 65 56 12 3c 11 ab d6 bc 21 aa 26 bd
       -0.051998463 0.008931731 -0.026204618 -0.04068959
0000e0 1d 80 a8 bd 92 f7 e0 3d 14 0f 2f be e0 ff 16 3d
       -0.08227561 0.1098472 -0.17095596 0.036865115
0000f0 2a 62 99 be 3c 96 68 bc d7 30 90 be af 95 87 3b
       -0.29957706 -0.014195975 -0.28162262 0.0041377167
000100 75 9f db be 93 2c 37 3d 0c 3d c3 3e 9d ce 59 bf
       -0.42895094 0.044720244 0.38132513 -0.8508089
000110 88 65 c9 be 60 d9 fe be 50 00 6e bf cb 20 a3 be
       -0.39335275 -0.4977522 -0.92969227 -0.31860957
000120 0c bd 23 3e f0 18 08 3c a3 cb b8 be 46 23 b5 be
       0.15990084 0.008306727 -0.36092862 -0.35378474
000130 ca b5 c3 3c 8b af b7 3d d0 85 3b 3c 42 85 03 3e
       0.023890395 0.08969029 0.011445478 0.12843803
000140 42 ff b9 3e 4b 0e 78 3f a2 32 31 bd d2 0b 6f 3e
       0.3632756 0.9689681 -0.043261178 0.23344353
000150 50 99 7a bf 4f 33 99 3f e6 05 95 be 49 f4 f2 3d
       -0.97890186 1.1968783 -0.29106063 0.11863
000160 66 98 79 bd fa e5 0e 3e dd 19 9b 3f 56 cf 99 be
       -0.060936354 0.13954917 1.2117268 -0.30040997
000170 b6 99 a3 be eb a9 8a 3f ff bf 79 3d 49 68 b9 be
       -0.3195321 1.0833105 0.060974117 -0.36212376
000180 a5 9e c4 3e 6c fb 80 be c8 2a a5 3e 6a 56 b1 3e
       0.38402286 -0.2519182 0.32259202 0.3463624
000190 ba 44 a8 be 6d d6 7a be ff 6b 79 3e 22 63 e1 3f
       -0.32864934 -0.2449586 0.24357603 1.7608378
0001a0 77 4c 4b bf 1a 9c bb be b4 bf 0b be cc 0e 0f bf
       -0.7941355 -0.36642534 -0.13647348 -0.55881953
0001b0 84 05 c3 3e d0 c2 2f be 86 40 4e be b5 4a 41 bf
       0.38090146 -0.17164159 -0.20141801 -0.7550462
0001c0 13 45 54 3e 86 0b 36 bd 4d 11 7b be 4f 75 ca 3e
       0.20729475 -0.044444583 -0.24518318 0.39542624
0001d0 fe 63 24 3e 73 d1 a2 be 82 f8 0a be 1a f1 dc bf
       0.16053769 -0.31800422 -0.1357136 -1.7261078
0001e0 a8 a4 42 bd 02 e0 36 bd 6b 06 f7 3c 8e bb cc bc
       -0.04752031 -0.044647224 0.030154428 -0.024991777
0001f0 1a 33 9b bd 0d 1f 0f bd 50 47 97 3d 29 a1 cb bc
       -0.07578106 -0.03494172 0.07386649 -0.02485712
000200 88 cb 99 bd 4f 80 17 3e 57 e9 d2 bc 24 25 9c bd
       -0.07509524 0.1479504 -0.02574603 -0.076242715
000210 f3 ba 8a bd 62 99 70 bd 7e 08 36 3d c3 fe 9a bd
       -0.06773939 -0.058740027 0.044441693 -0.07568123
000220 21 18 50 be d4 35 0e 3d 9d b7 00 3d 00 0b 8b 3c
       -0.20321704 0.034719303 0.031425107 0.016973019
000230 25 ac 97 3d c0 2a aa bd ec 92 9f bd 11 ad d8 bc
       0.07405881 -0.08308935 -0.07791695 -0.026449712
000240 71 9e 00 3b 95 5b 7c bd 46 d1 5e bd 96 90 7a bd
       0.0019625688 -0.061610777 -0.054398797 -0.061173044
000250 22 44 8f ba 63 50 6d 3d d1 12 40 bd 58 53 50 bd
       -0.0010930339 0.05793799 -0.046892945 -0.050860733
000260 26 fc f0 bc f0 e4 cb bd 4a 28 60 bc 67 80 1b 3c
       -0.029417109 -0.09955776 -0.013681481 0.009491063
000270 5c 9d 97 3d 88 43 a9 bc 5f 52 1b 3d f2 4f 98 3d
       0.07403061 -0.020662084 0.037920352 0.07437123
000280 df 9e e7 bb 0a 32 a7 3c de aa af 3d 08 d6 89 bb
       -0.0070684995 0.020409603 0.08577512 -0.0042064227
000290 f6 d7 f0 3c a6 b2 61 bd eb 1e b9 bc ab 46 33 3d
       0.029399853 -0.055102013 -0.02259775 0.043768566
0002a0 f6 88 98 3d 83 aa 97 3d 57 1d 29 3d b4 26 ed 3c
       0.07447998 0.074055694 0.041287746 0.02894912
0002b0 17 0d 13 bc 40 7d bb 3c d9 61 95 bc c6 3c 98 3d
       -0.008975289 0.022886872 -0.018235134 0.074334666
0002c0 59 76 2c 3e 4d a0 64 bd 2e 28 25 3b cf 76 37 bc
       0.16842021 -0.055816937 0.002520095 -0.01119776
0002d0 bb 5e 80 bd b7 27 8a bc 0f e3 e3 3c 83 ae bf 3c
       -0.062680684 -0.01686464 0.02781823 0.023398643
0002e0 ba 79 bc bd 6c 6b 86 bc 54 3e bc 3d c9 51 4c bd
       -0.09202905 -0.016408645 0.09191576 -0.049882684
0002f0 5b a6 bb bd 68 01 30 3d 81 b7 a8 3c 7d f9 b7 bd
       -0.09162589 0.04297009 0.020595314 -0.08983133
000300 5e 70 aa bd 3f 41 ef 3c 5a 5b ad 3c 8f 6b aa bd
       -0.083222136 0.029205916 0.021161724 -0.083212964
000310 01 c7 00 be 08 f4 c1 3b 86 25 39 3d af 8e 95 3c
       -0.12575914 0.0059189834 0.0452018 0.018256513
000320 78 cf bb 3d 80 c8 29 bd f4 24 a5 bd e3 24 da 3b
       0.09170431 -0.041450977 -0.08063689 0.0066572293
000330 64 21 b9 3c 52 ab f4 bc 8e f7 8b bd 13 85 ba bc
       0.02259893 -0.029866848 -0.06834327 -0.022768533
000340 cb 2f 00 bd cf b7 26 3c 5e 76 84 3c fd 08 6f bd
       -0.03129558 0.010175659 0.016169723 -0.05835818
000350 4e ed 78 bc 06 c9 3a bd 5c 78 16 bb bb fb 94 bc
       -0.015193297 -0.045601867 -0.0022959923 -0.01818644
000360 de 7a bc 3d 89 df 97 3c 69 06 22 3c 29 5b ba 3d
       0.092031226 0.018539207 0.009889224 0.09099419
000370 c1 8d 8a bc 26 df b0 bc cb 3f a2 3c 66 b6 13 bd
       -0.016913297 -0.02159078 0.01980581 -0.03606262
000380 9b fe d2 3c d2 99 ad bd e4 c9 16 bd 80 bb 11 3d
       0.025756171 -0.084766045 -0.03681363 0.035579205
000390 b2 b8 b5 3d ae a1 9a 3d a1 e2 86 3b 39 a6 b0 3c
       0.088731185 0.07550369 0.0041163717 0.021563636
0003a0 66 e0 66 bc 16 39 73 3c 65 52 1d 3d 6a b4 bc 3d
       -0.014091587 0.014845153 0.038408656 0.09214099
0003b0 0d 27 c2 3d 89 16 6b bd f0 3c 75 3a 0b 05 67 bd
       0.094801046 -0.057394538 0.00093550887 -0.056401294
0003c0 89 c1 49 bc 4d a8 e9 be 9d 6a 8d 3e b8 78 45 bd
       -0.012314209 -0.45636216 0.27620402 -0.04821083
0003d0 9f 50 fd 3d e1 9c 1b be 8b 46 03 be 7f fc f2 3e
       0.12368893 -0.15196563 -0.12819879 0.47458264
0003e0 d1 05 fd 3d a1 27 d8 bc 57 a0 a9 3d 46 bc c7 3d
       0.12354625 -0.026386084 0.082825355 0.09752707
0003f0 02 6d 02 bc 11 d5 2a 3e 23 f8 26 bd cb 28 af 3d
       -0.00796056 0.16682841 -0.040763985 0.085527025

bias f4 [60]
000000 77 49 3a 3d c5 ea cf be df 92 97 bd 66 83 c6 bd
       0.045480218 -0.40608802 -0.0740106 -0.09693031
000010 1b 9d 17 3e 69 e0 81 be a3 88 cc bd 12 14 a8 3d
       0.14806025 -0.25366524 -0.09986999 0.08206953
000020 35 a5 9b be de 57 fa bd c7 da bf 3e 3e ad 2e 3e
       -0.3039948 -0.122237906 0.374716 0.17058274
000030 97 ac 51 bc 55 99 c4 bc 72 ee 60 3c 7a 8c 94 3d
       -0.012797496 -0.023998896 0.013728725 0.07253356
000040 d5 56 f9 3d f9 f5 dd 3d 48 b3 99 be 10 2c d0 bc
       0.12174765 0.10837931 -0.30019593 -0.025411636
000050 5a 34 a4 3d 95 bc 1a bd 30 92 b7 bc e2 74 d6 3d
       0.08017798 -0.037777502 -0.022408575 0.104715124
000060 9b f9 84 3e de f3 da 3c fc a2 f3 3c 7c 89 77 bc
       0.25971684 0.026727613 0.029740803 -0.015108462
000070 19 d7 92 3d c2 48 a1 3e c0 85 34 3c e3 78 5e bc
       0.07169933 0.31500822 0.011018217 -0.013578626
000080 20 23 c7 3d 4d 18 b2 3e d0 38 b7 be 3b 10 c9 3d
       0.097234964 0.34784165 -0.35785532 0.09817549
000090 88 4c 9f 3d fa f9 96 3e d8 ab ca bd 01 44 ae 3c
       0.07778269 0.29487592 -0.09896058 0.021272661
0000a0 61 17 cc bd d3 75 48 3d 58 78 ca 3d 00 66 b0 bd
       -0.09965397 0.04894049 0.09886235 -0.08613205
0000b0 66 fb c9 3d a9 a7 59 3e 9a 64 c9 bd 03 84 45 3e
       0.098624036 0.21255364 -0.09833641 0.1928864
0000c0 85 a1 96 be 1a 72 6d 3d e0 74 45 bd a6 41 8a 3e
       -0.29420105 0.057970144 -0.048207164 0.2700321
0000d0 b8 d7 c7 bd b2 d2 68 be bb 4c 91 be 9c 65 c9 3d
       -0.09757942 -0.22736624 -0.28378853 0.098338336
0000e0 c9 3a ca 3d 32 99 4c bd 64 e6 4e 3b f5 ec 93 bc
       0.09874494 -0.049950786 0.003157043 -0.018057326

weight f4 [60, 60]
000000 28 17 c3 bd 3d a3 6b ba 0a 04 09 3e ce b7 0e 3e
       -0.09525901 -0.0008988863 0.13380447 0.13937303
000010 4c f6 00 3c f3 84 4d bc d5 9a 0f 3e 27 f9 cc bc
       0.007871222 -0.012543905 0.14023907 -0.025021149
000020 fe 49 46 bc 64 52 2a bd 89 1f 21 bd b4 8b 5d 3c
       -0.012102602 -0.04158248 -0.039336715 0.013522077
000030 46 8f 91 3c 51 21 f2 3d bf 84 d0 bd 0e b2 9e 3d
       0.017768513 0.11822761 -0.10181569 0.07748805
000040 f2 fb d4 3b 7b c1 0f be b6 fc 64 3c 21 89 c3 bd
       0.006499761 -0.1403865 0.013976267 -0.0954764
000050 47 f8 bd bd 1f 43 3e 3d 1d e3 53 bd c1 92 0f be
       -0.09275871 0.04645073 -0.051730264 -0.14020826
000060 7f a2 85 3d 8c ad 14 3d 90 e5 4f 3d 39 95 df bd
       0.06525134 0.03629832 0.050756037 -0.10917134
000070 6b 2e b3 bd a3 0d d3 bb e9 30 b1 bc bf 26 56 3d
       -0.08749088 -0.0064408346 -0.021629767 0.052283045
000080 d4 89 0f be 45 fb 4a bc 42 08 c4 bc b9 67 0f be
       -0.14017421 -0.012389009 -0.023929719 -0.14004411
000090 34 a3 b7 3d 18 fd 82 bc 65 72 0f 3e d6 e2 42 3d
       0.089666754 -0.015989825 0.14008482 0.04757961
0000a0 6b 01 0f 3e 49 20 18 be b4 91 0f be f5 e9 09 3e
       0.13965385 -0.14856066 -0.14020425 0.13468154
0000b0 fb 80 0f be 9b 0e 20 3d 0a 23 0f 3e 2e b8 04 3d
       -0.14014046 0.03907643 0.1397821 0.03240221
0000c0 09 f6 fa 3d 4c ae f8 3d 4a 31 5f 3d f8 10 13 bd
       0.12253959 0.121426195 0.054490365 -0.035904855
0000d0 51 10 0f 3e 09 5d 48 bd d3 19 2c 3c 08 46 0f be
       0.13971068 -0.04891685 0.010504204 -0.13991559
0000e0 bf 8c 0f be 08 b6 f3 3d 95 9f 88 bd 6c 9a 18 3e
       -0.14018534 0.11899954 -0.06671063 0.14902657
0000f0 ea e7 69 3d 5b c4 18 bf 5d aa 96 bc 23 27 92 bd
       0.057105936 -0.59674615 -0.018391782 -0.07136371
000100 84 74 4d 3e 1b 8a a4 be 41 0d 97 bd e9 de 24 bf
       0.20063978 -0.32136616 -0.07375575 -0.64402634
000110 df f5 67 bf c4 34 10 bd 05 ab 6b 3e 5e 25 cd 3e
       -0.90609545 -0.03520657 0.23014458 0.4006757
000120 96 86 b8 bf a3 98 00 3e 6d f5 2e 3e 7d 5b 6e 3e
       -1.4416072 0.12558226 0.1708581 0.23277088
000130 b6 bc 60 be 04 bf 96 3d 2d 79 10 be 36 c1 25 3d
       -0.21946988 0.07360652 -0.14108725 0.040467463
000140 81 79 9c bc cd 26 95 3e b8 75 99 bd a9 ea 7b 3d
       -0.019100906 0.29131165 -0.07493156 0.061503086
000150 48 a2 d5 3e 72 36 f2 3d 24 05 76 be b4 0e 17 be
       0.41725373 0.11826791 -0.24025398 -0.14751703
000160 9a 02 c7 3d 80 cd 36 3e 84 d5 49 bd 3b 2b 36 bd
       0.09717293 0.1785183 -0.04927589 -0.04447482
000170 44 2c 83 3d 9a 19 47 3f 8e 40 8a bf de 57 8f 3d
       0.064049274 0.7777344 -1.080095 0.06999181
000180 3a 47 84 be 09 16 fe 3e 42 7a 83 bd 23 cb c9 3d
       -0.25835592 0.49626186 -0.06419803 0.098531984
000190 05 79 71 bd 36 92 83 bd db 2d 94 3d d5 fe 53 bd
       -0.058953304 -0.06424372 0.07235309 -0.0517567
0001a0 08 f5 99 3d 87 3f b1 3e b8 10 87 bd 5e 88 c3 3e
       0.07517439 0.3461878 -0.06594986 0.38189977
0001b0 bc bc ee be f4 f6 d6 bc 89 f8 8f 3c db 19 b4 3e
       -0.46628368 -0.026240803 0.017574565 0.35175976
0001c0 22 a8 7a bd 54 4f 8d be 2b 9c d8 be 6b 8b 83 3d
       -0.0611955 -0.27599585 -0.42306647 0.06423076
0001d0 6e 9b 8b 3d 74 3d a0 bd c2 fc a7 bd ac 92 71 3e
       0.06816755 -0.07824221 -0.082025066 0.23591107
0001e0 75 fb c2 3d 54 8b 45 3a 8e 12 09 be 31 d4 0e be
       0.09520618 0.0007535715 -0.13385984 -0.13948132
0001f0 f6 0a 01 bc a1 d0 4d 3c 53 b7 0f be 5e 45 cf 3c
       -0.007876148 0.012561948 -0.14034776 0.025301632
000200 c9 35 46 3c 66 8a 2a 3d 5e 6f 21 3d ce 2b 5b bc
       0.012097784 0.041635893 0.03941285 -0.013377143
000210 b0 c2 91 bc 15 bb f1 bd d5 56 d0 3d ff f3 9e bd
       -0.01779303 -0.11803261 0.10172812 -0.07761382
000220 ea 36 d9 bb db e2 0f 3e 87 16 67 bc a5 9c c3 3d
       -0.0066288607 0.14051382 -0.014104492 0.09551362
000230 26 17 be 3d af 3c 3e bd cd 2b 53 3d c2 b1 0f 3e
       0.09281759 -0.04644459 0.051555444 0.14032653
000240 72 7b 84 bd c6 4a 14 bd 12 96 4f bd 16 ae df 3d
       -0.06468858 -0.036204122 -0.050680228 0.10921876
000250 f0 df b2 3d f5 68 d2 3b f0 8f b0 3c ab 83 58 bd
       0.08734119 0.0064212033 0.02155301 -0.052859943
000260 74 a4 0f 3e b7 8e 49 3c 78 33 c2 3c 38 83 0f 3e
       0.14027578 0.012302092 0.023706183 0.140149
000270 8a 28 b7 bd 19 01 84 3c 4b 8e 0f be 00 d6 41 bd
       -0.08943279 0.016113805 -0.14019124 -0.047323227
000280 7a 1f 0f be cd d6 17 3e eb ac 0f 3e ff 07 0a be
       -0.13976851 0.14828034 0.14030807 -0.13479613
000290 5c 9c 0f 3e 3e f3 1e bd 1a 3f 0f be 70 b9 03 bd
       0.1402449 -0.038806193 -0.13988915 -0.03215927
0002a0 1f bb fa bd 15 ee f7 bd 25 c0 5e bd 0f a3 13 3d
       -0.12242722 -0.121059574 -0.054382462 0.036044177
0002b0 62 2c 0f be ee f3 47 3d 32 a4 30 bc ea 61 0f 3e
       -0.13981774 0.048816614 -0.010781335 0.14002195
0002c0 41 a8 0f 3e 63 79 f3 bd e2 6e 88 3d 98 35 18 be
       0.14029028 -0.11888387 0.06661774 -0.14864194
0002d0 10 a9 71 3e e2 92 a0 3e df fc 93 3d c3 ce 0f bc
       0.23599648 0.31362063 0.07225966 -0.008777323
0002e0 cc 90 c7 be 00 90 3d 3f 7e 92 d1 3a d1 c7 61 bf
       -0.3897766 0.7404785 0.0015989093 -0.8819552
0002f0 ec 50 44 3f 58 48 ca be ae 81 c4 be f3 eb f8 3b
       0.76685977 -0.3950832 -0.38380188 0.0075964867
000300 4a 7b c3 3e 4f 95 02 bf 87 a1 80 3e c3 8b 64 3f
       0.3818 -0.51009077 0.25123236 0.8927576
000310 da 6c 01 bf a4 9f 53 3c c2 bf b9 3e d8 87 d1 3d
       -0.5055672 0.012916479 0.36279112 0.10230988
000320 4c e8 ff be 2f 2f 97 3c 85 e7 07 bf 77 0f 4a 3c
       -0.49981916 0.018455116 -0.53087646 0.012332789
000330 2d 54 ac bf 5b 10 d0 be a7 83 50 3c 02 cc 3a 3d
       -1.3463188 -0.40637478 0.012726701 0.045604713
000340 a8 29 38 bf 4e aa c4 be 2c 47 e0 3e db e2 45 bf
       -0.7193856 -0.38411182 0.438043 -0.7729928
000350 67 14 0b bc 2b cd ec be b2 6d 6a 3e 71 f8 d1 3a
       -0.008488751 -0.4625028 0.22893408 0.0016019476
000360 59 e2 34 3e a3 9d 99 bd ea ca 48 ba d4 f6 ff bc
       0.1766447 -0.0750077 -0.0007659631 -0.031245627
000370 59 4e 93 bb 84 69 70 bd c5 1c a6 3a 67 0d 38 3b
       -0.0044954238 -0.058694378 0.0012673369 0.002808416
000380 1a fe 33 3b 32 ac 55 be 76 f8 9e bb 09 ca c1 bd
       0.0027464689 -0.20866469 -0.004851396 -0.09462363
000390 4c 84 a7 be a4 20 77 3b bb 25 0c 3d 4e 10 a2 bd
       -0.32718122 0.0037708664 0.03421567 -0.07913266
0003a0 90 14 ac bb 06 02 37 3f 56 ff ef 3e 02 4a 7e 3b
       -0.0052514747 0.7148746 0.46874493 0.0038801436
0003b0 8b 4f 2b bb f4 63 0a bd a8 ad c6 3d 18 f6 93 be
       -0.002613994 -0.03378673 0.09701091 -0.28898692
0003c0 d9 05 c3 3d 23 cc 65 3a d5 04 09 be 0c bc 0e be
       0.095226 0.00087660755 -0.1338075 -0.13938922
0003d0 31 44 01 bc b7 f5 4d 3c 1c 9f 0f be bd 83 cd 3c
       -0.007889793 0.01257079 -0.14025539 0.025087232
0003e0 73 98 46 3c 61 5f 2a 3d 22 20 21 3d df 0c 5d bc
       0.012121308 0.041594867 0.039337285 -0.013491838
0003f0 c9 b2 91 bc c7 07 f2 bd 3c 7f d0 3d bb d5 9e bd
       -0.017785447 -0.1181789 0.10180518 -0.077556096

bias f4 [60]
000000 e2 da 19 be af 1d 5a 3d 58 f6 19 3e 5c f9 1d 3c
       -0.15024903 0.053250965 0.15035379 0.009641971
000010 4a df 19 3e 83 f2 19 be 53 b9 f3 bd 4f 11 1a be
       0.15026584 -0.15033917 -0.11900582 -0.15045665
000020 f1 f0 dc bd 41 25 1a be 52 f8 19 be 10 20 88 3d
       -0.107881434 -0.15053274 -0.15036133 0.066467404
000030 2b d1 19 3e 65 4e 29 3d f7 af ca 3a ee 0e b4 3c
       0.15021197 0.04133453 0.0015463819 0.021979775
000040 27 ac eb bd ed e5 18 3e bd df 19 3e 2e e6 19 be
       -0.11507445 0.1493146 0.15026756 -0.15029213
000050 e2 0d 1a 3e 8c 0e 1a be 18 db 19 be 21 2e 1a 3e
       0.15044358 -0.15044612 -0.15024984 0.1505666
000060 ea f7 19 be 01 e3 17 bd 82 84 9b 3d b8 0d 1a 3e
       -0.15035978 -0.037081722 0.07593633 0.15044296
000070 41 fa 19 be 6b d1 93 bd 65 50 c5 3c d7 a3 ce bc
       -0.1503687 -0.07217678 0.024086187 -0.02522461
000080 a3 b3 70 bc bc dc 82 bd 17 1a 7d 3c ca f7 19 3e
       -0.014691266 -0.06389758 0.015448115 0.1503593
000090 93 02 1a 3e 9e 89 17 be 91 5b 08 3d a2 11 1a 3e
       0.15040044 -0.1479859 0.03329045 0.15045789
0000a0 ad f2 19 be ea 22 e3 3b 96 04 d4 bc 3b 0b d1 bc
       -0.1503398 0.0069316523 -0.025881093 -0.02551805
0000b0 4f f3 19 3e 97 03 1a 3e b9 f6 19 be db 18 1a 3e
       0.15034221 0.15040432 -0.15035523 0.15048544
0000c0 b5 00 1a be 54 d8 19 3e 5f 0a 1a be 55 23 03 bd
       -0.15039332 0.15023929 -0.15043019 -0.032016117
0000d0 9c 91 17 3e 60 c5 8e bd c0 52 d9 bc 6b ec 18 3e
       0.1480164 -0.0697124 -0.026528716 0.14933936
0000e0 d8 00 1a be f6 fc 19 3e 94 3a a9 bc 81 b9 35 bb
       -0.15039384 0.15037903 -0.020657815 -0.0027728977

weight f4 [1, 60]
000000 58 dc 25 c1 35 f3 36 c1 e0 86 25 41 0b dc 33 41
       -10.366295 -11.434377 10.345428 11.241221
000010 52 b8 25 41 0c 79 25 c1 8e ed 2b c1 81 8a 25 c1
       10.3575 -10.342052 -10.745497 -10.346314
000020 e9 be 27 c1 b9 96 25 c1 f5 89 25 c1 7a c7 2d c1
       -10.484109 -10.349298 -10.346181 -10.8612
000030 cf 82 25 41 5b 2a 34 c1 87 68 30 41 ee 75 32 c1
       10.344436 -11.260341 11.025519 -11.153791
000040 5a 4b 30 41 76 7e 25 41 58 ab 25 41 38 72 25 c1
       11.018396 10.343374 10.354332 -10.340385
000050 e9 99 25 41 d5 90 25 c1 2c b7 25 c1 51 89 25 41
       10.350076 -10.347859 -10.35722 10.3460245
000060 f2 ad 25 c1 a1 bf 31 41 ab a5 2a 41 b8 97 25 41
       -10.354967 11.109284 10.665446 10.349541
000070 de 9e 25 c1 6d f6 36 41 77 53 37 c1 15 9f 31 41
       -10.351286 11.435163 -11.457877 11.101338
000080 1b 27 2c c1 6a 0d 37 41 be 89 2f c1 cc 91 25 41
       -10.759547 11.440775 -10.971128 10.348095
000090 18 b2 25 41 15 73 25 c1 e4 f6 33 c1 0b ae 25 41
       10.35598 -10.340596 -11.247776 10.354991
0000a0 be 89 25 c1 79 13 31 c1 0a 80 31 41 d0 f6 2f 41
       -10.346128 -11.067254 11.09376 10.997757
0000b0 a6 80 25 41 ac 7d 25 41 d6 d6 25 c1 93 96 25 41
       10.343908 10.343182 -10.36495 10.349261
0000c0 0e 93 25 c1 56 af 25 41 0c 9f 25 c1 54 1e 34 41
       -10.348402 10.355307 -10.35133 11.257404
0000d0 81 67 25 41 ff 3b 22 c1 44 5b 31 c1 9d 6c 25 41
       10.3377695 -10.1396475 -11.084782 10.339017
0000e0 4c b2 25 c1 36 a0 25 41 18 b1 32 41 32 9a 2f c1
       -10.3560295 10.351614 11.168236 -10.975145
