Total_RCS/epoch_1000_batch_100_lr_1e-4_wd_0_99/torch_model_4_GELU.pth (torch, 79675 bytes, 13 tensors)

weight f4 [60, 3]
0	0x3b7fe235	0.0039044742
1	0x3ec64fb4	0.38732684
2	0x3bef9ef7	0.0073126513
3	0xbead35e6	-0.33830184
4	0xbfa505e9	-1.2892429
5	0xbf84dc98	-1.037982
6	0xbfba5e4f	-1.4560031
7	0xbf7c8d65	-0.9865325
8	0x3c58c3ec	0.013230305
9	0xbe9c9a05	-0.30586258
10	0x3ea6bbd1	0.32565168
11	0xbe52b9e1	-0.2057872
12	0x3fd190d2	1.6372321
13	0x3f09b56c	0.5379245
14	0x3d2b4b11	0.041819636
15	0xbf551884	-0.8324053
16	0x3deb6b46	0.1149507
17	0xbecfe4b6	-0.4060418
18	0x3ebca63e	0.36845583
19	0xbe375ee6	-0.17907295
20	0x3d5c09f2	0.053720422
21	0x3fae2104	1.3603826
22	0xbec28bd4	-0.37997305
23	0x3b030309	0.0019990823
24	0xbf0cfda3	-0.5507452
25	0xbf491835	-0.7855256
26	0xbeec4902	-0.4614945
27	0xbb4bc80e	-0.0031094584
28	0xbd393ae7	-0.04522219
29	0xbfb0fadb	-1.3826555
30	0x39363bf3	0.00017379205
31	0x390c412b	0.00013375717
32	0x37bf60d9	2.2814073e-05
33	0xbea9deed	-0.3317789
34	0x3eb688f6	0.35651368
35	0x3e587a29	0.2114035
36	0xbed6caeb	-0.4195169
37	0xbf8522b2	-1.0401213
38	0xbea0044b	-0.31253275
39	0xbf2b0202	-0.6679994
40	0xbe35c0bc	-0.17749304
41	0x3e440551	0.19142653
42	0xbee2d902	-0.4430619
43	0x3e47e57a	0.19521132
44	0xbf830de6	-1.0238616
45	0xbe2ba56b	-0.1676232
46	0x3f346a34	0.70474553
47	0x3e9e85e7	0.30961534
48	0x3e052b55	0.13004811
49	0x3dd9f452	0.106423035
50	0xbe8b3224	-0.27186692
51	0xbf88ed64	-1.0697446
52	0x3f38c928	0.7218194
53	0x3e89b32b	0.26894507
54	0xbead39c8	-0.33833146
55	0xbe8ecc16	-0.2789008
56	0xbed8a9ef	-0.4231715
57	0xbec81bc0	-0.39083672
58	0xbcd9e7b3	-0.02659974
59	0xbe67a939	-0.22623147
60	0x3cd997bb	0.026561609
61	0xbf9d0a4b	-1.2268766
62	0xbfc8363d	-1.5641552
63	0x3e2007ec	0.15628022
64	0x3f10b0ee	0.56519973
65	0x3db1c7ff	0.08680724
66	0xbdbd2ab9	-0.09236664
67	0x3e93623b	0.2878588
68	0xbca43e1c	-0.020049147
69	0x3f5dac02	0.8659059
70	0xbdf3a171	-0.11896027
71	0xbdcb551a	-0.09928341
72	0xbdeb9b28	-0.11504203
73	0x3ef73838	0.4828508
74	0x3e278d04	0.16362387
75	0xbdf5b094	-0.1199657
76	0xbf13295b	-0.5748498
77	0xbf67d6c6	-0.90562093
78	0x3eebd49f	0.46060655
79	0xbe8cc2d4	-0.27492392
80	0x3d34cf3e	0.044142954
81	0x3d966008	0.07342535
82	0x3e86c594	0.26322615
83	0x3cf03059	0.029319929
84	0xbdbf1068	-0.09329301
85	0xbed2e091	-0.41186956
86	0xbfe7a7f7	-1.8098134
87	0xbe3dda2d	-0.18540259
88	0xbe8d70a9	-0.27625015
89	0x3dc32fe9	0.095306225
90	0xbec9fe2f	-0.3945174
91	0x3ebf4235	0.373552
92	0x3ec124e8	0.3772347
93	0xbf8406a8	-1.0314531
94	0x3f8bbb75	1.0916582
95	0x3c847671	0.016169759
96	0x3d890fb3	0.066924475
97	0x3f03774b	0.513539
98	0x3e2ebedc	0.17064995
99	0xbf06e703	-0.52696246
100	0x3f1778dc	0.5916879
101	0x3e843c9c	0.2582749
102	0x3de373ac	0.11106047
103	0xbee68983	-0.45026788
104	0xbf968f5b	-1.1762499
105	0xbcdca52b	-0.026934227
106	0xbf518a0c	-0.8185127
107	0xbf37488e	-0.71595085
108	0xbf802560	-1.0011406
109	0x3f9923a5	1.1964003
110	0xbe9fbbb6	-0.311979
111	0x3eeca120	0.4621668
112	0xbec13e40	-0.37742805
113	0x3e3a825d	0.18213792
114	0xbe675656	-0.22591528
115	0x3f02a101	0.5102692
116	0xbfbd6bbd	-1.4798504
117	0xbe90c8a9	-0.28278092
118	0x3f3ee72e	0.745715
119	0x3ef012a5	0.46889225
120	0xbf462da4	-0.7741339
121	0xbf50f06e	-0.81616867
122	0xbdc733c7	-0.097266726
123	0x3da18498	0.078866184
124	0x3da43338	0.08017582
125	0x3d008a6f	0.03138202
126	0xbeb00f78	-0.34386802
127	0x3eb18b07	0.34676382
128	0x3e8b361f	0.2718973
129	0xbdb6273c	-0.08894202
130	0x3ef0b196	0.47010487
131	0x3e5551a2	0.20831922
132	0xbd05d9ee	-0.032678537
133	0x3e927135	0.28601995
134	0x3e21ebe4	0.15812641
135	0x3e26e918	0.16299856
136	0xbe620e61	-0.22075798
137	0x3c93c388	0.018037573
138	0xbf19a49a	-0.6001679
139	0x3eb886b2	0.36040264
140	0x3e9be1a4	0.30445588
141	0x4021a30e	2.525577
142	0x3c1a4775	0.009416451
143	0x3dae2841	0.085037716
144	0xbc149c3c	-0.009070452
145	0xbec30991	-0.38093236
146	0xbfa7dbf5	-1.3114
147	0xbf639bef	-0.8890981
148	0xbe9f9371	-0.31167176
149	0xbe56d928	-0.20981276
150	0x3e3add0f	0.1824839
151	0xbfa0af8f	-1.2553576
152	0x3faa1031	1.3286191
153	0xbf484521	-0.7823048
154	0x3e2c012e	0.16797325
155	0xbd3deff6	-0.046371423
156	0xbe1a9d2b	-0.15099017
157	0x3e1e726d	0.15473337
158	0xbf6381af	-0.88869756
159	0xbf9bb96c	-1.2165961
160	0xbf171a35	-0.59024364
161	0xbe01e4de	-0.12684962
162	0xbf41ca0d	-0.7569893
163	0x3ed45168	0.41468358
164	0xbe9a4ce7	-0.30136797
165	0x3e4e3ba8	0.20139945
166	0xbe8234e6	-0.25430983
167	0x3df39481	0.11893559
168	0x3eb4e895	0.35333696
169	0xbf9ec9c1	-1.240532
170	0xbf732f7d	-0.94994336
171	0xbf28126a	-0.656531
172	0xbe526a51	-0.20548369
173	0xbe41bdbf	-0.18920039
174	0xbecade88	-0.39622903
175	0xbead4de6	-0.33848494
176	0x3e8ee268	0.2790711
177	0x3facd7ec	1.3503394
178	0xbc9ed963	-0.019390767
179	0xbf1d7e7a	-0.6152111

bias f4 [60]
0	0x3f47d777	0.7806315
1	0xbe755d9b	-0.23961489
2	0xbf1dc234	-0.61624455
3	0x3f74b178	0.95583296
4	0x3f2b124f	0.6682481
5	0xbf0322dd	-0.5122507
6	0xbd712fd1	-0.058883492
7	0x3f0c05df	0.5469646
8	0xbed8d04e	-0.42346424
9	0xbeb24b9d	-0.34823313
10	0x38f7a2cf	0.00011808203
11	0x3f7479c1	0.9549828
12	0xbda649cd	-0.08119545
13	0x3ea44431	0.32083276
14	0xbf22afd5	-0.6354955
15	0x3f653668	0.8953614
16	0x3f18c9d3	0.5968296
17	0x3e164aab	0.14676921
18	0x3d5138ae	0.051079445
19	0xbe6f1472	-0.23347643
20	0xbe96e355	-0.29470316
21	0x3f9213ef	1.1412333
22	0x3f85d616	1.0455959
23	0x3cc27c97	0.02374105
24	0x3f0ed760	0.55797386
25	0xbe03f101	-0.12884904
26	0xbd221db4	-0.03957911
27	0x3ef3dc55	0.47629037
28	0xbf1e0b8d	-0.61736375
29	0x3f1610b2	0.58619225
30	0x3f192229	0.5981775
31	0x3eec0872	0.46100193
32	0xbdfa5a9d	-0.12224314
33	0x3eb41538	0.3517244
34	0xbe1dd6ab	-0.1541392
35	0xbe02019a	-0.12695923
36	0xbf344fb3	-0.7043411
37	0x3cbea21f	0.023270665
38	0xbf07981f	-0.52966493
39	0x3f872566	1.0558288
40	0xbe796bfc	-0.24357599
41	0xbda0d557	-0.07853191
42	0x3f214f7f	0.63011926
43	0x3f4ce485	0.80036193
44	0x3f8dfd95	1.1093012
45	0x3f883841	1.0642167
46	0x3e35255d	0.17690034
47	0x3f34ff25	0.7070182
48	0xbeadae24	-0.3392192
49	0xbf053d0b	-0.5204627
50	0x3df5aab5	0.119954504
51	0xbe2a3b8c	-0.16624278
52	0xbe8ef47e	-0.27920908
53	0xbf2a1f3f	-0.6645393
54	0x3efa9ad0	0.48946238
55	0xbd6deeeb	-0.058089178
56	0x3ea4ee62	0.32213122
57	0xbe5a076b	-0.21291892
58	0x3f8a9524	1.0826764
59	0x3e30499e	0.17215583

weight f4 [60, 60]
0	0xbda21901	-0.07914925
1	0x3ed55ad6	0.41670865
2	0x3d9cf354	0.07663599
3	0xbd9ed302	-0.0775509
4	0xbf1ce1cd	-0.61282045
5	0x3e6106e2	0.21975282
6	0xbc11d4ff	-0.00890088
7	0xbee65568	-0.44987035
8	0x3e8a52b0	0.2701621
9	0x3f134bf4	0.5753777
10	0x3964d2de	0.00021822329
11	0xbe5f3142	-0.21796134
12	0x3e9246a8	0.2856953
13	0xbd6dc355	-0.05804761
14	0x3e8372d0	0.25673532
15	0xbeb6044f	-0.35550162
16	0x3c02ed43	0.007991138
17	0xbeb82e69	-0.35972908
18	0x3e8df973	0.27729377
19	0x3de7766a	0.113018826
20	0x3f24348c	0.6414268
21	0xbebe9b7c	-0.37228
22	0xbde8d967	-0.11369591
23	0xbe29de22	-0.16588643
24	0xbe3ccbfa	-0.18437186
25	0x3eb5872f	0.354547
26	0xbc2250e1	-0.009906978
27	0xbddfb2df	-0.10922789
28	0x3f2346fd	0.63780195
29	0x3cfd2133	0.03089962
30	0xbe9aae8b	-0.3021129
31	0xbe44e7f8	-0.19229114
32	0xbd242dc2	-0.0400827
33	0xbe64ba8d	-0.22336788
34	0x3ef843fc	0.48489368
35	0x3eddf1d5	0.43348566
36	0xbd9b30f0	-0.075776935
37	0x3c06e075	0.008232226
38	0x3f107cd7	0.5644049
39	0xbefda4f5	-0.49539915
40	0x3de09b38	0.109671056
41	0xbcbe2010	-0.023208648
42	0xbe5bde8b	-0.21471612
43	0xbe91a1cc	-0.28443754
44	0xbe8a99fd	-0.2707061
45	0xbdcc1c4f	-0.09966337
46	0xbe5c0a2e	-0.21488258
47	0xbf853001	-1.0405275
48	0x3f0c6f47	0.54857296
49	0x3cf6fdf3	0.03015039
50	0x3f05db40	0.52287674
51	0x3cce7a53	0.025204813
52	0x3eaa4188	0.3325312
53	0x3d0993d4	0.033588246
54	0x3c7e6f3f	0.015529453
55	0x3dbfd46b	0.093666874
56	0x3eda232f	0.42604968
57	0x3e32fe1f	0.17479752
58	0xbc124faa	-0.008930126
59	0xbe8cc3cf	-0.2749314
60	0xb6d6b76a	-6.399049e-06
61	0x390da73a	0.00013509105
62	0x38a9854c	8.0833765e-05
63	0xb856c108	-5.120135e-05
64	0x3975dd4b	0.00023447459
65	0x37aa8d34	2.0331332e-05
66	0x3861c91b	5.3831474e-05
67	0x39f0a194	0.00045896752
68	0xb81d4c45	-3.750275e-05
69	0xb9b7c1d9	-0.00035048908
70	0xb614975b	-2.214182e-06
71	0x37d92c11	2.5888936e-05
72	0x36bd5e86	5.643643e-06
73	0x3865bd80	5.477434e-05
74	0xb97e7bf1	-0.000242695
75	0xb6a5bed3	-4.939598e-06
76	0x38b9a98b	8.853067e-05
77	0x393b770f	0.00017878062
78	0x37c9ac01	2.4041163e-05
79	0x38450904	4.6976857e-05
80	0x37d74ec5	2.5666677e-05
81	0xb8668e91	-5.496905e-05
82	0xb79b2de5	-1.8498811e-05
83	0x39869c62	0.00025674986
84	0x37178079	9.030214e-06
85	0x36fe316c	7.5755433e-06
86	0x38a89f63	8.040552e-05
87	0x38cbc005	9.715561e-05
88	0xba11f3d1	-0.00055676425
89	0x36b0e7c8	5.2721916e-06
90	0x38477c80	4.7561247e-05
91	0x38cebd23	9.858075e-05
92	0xb7cbecdd	-2.4309784e-05
93	0x38d47fce	0.00010132753
94	0xb733c771	-1.07156675e-05
95	0x3949be3f	0.00019239726
96	0x399af501	0.0002955571
97	0xb888548e	-6.500735e-05
98	0xba14cb41	-0.0005676039
99	0x37eb4af9	2.8049095e-05
100	0x36a586d7	4.9330806e-06
101	0x37f4a821	2.9165358e-05
102	0x3826c17f	3.975769e-05
103	0xb6f915c3	-7.4233117e-06
104	0x3626dbe0	2.4863912e-06
105	0x38572c19	5.1301064e-05
106	0x38bcf813	9.010746e-05
107	0x38e84c75	0.00011076863
108	0xb9753d93	-0.00023387959
109	0x38355556	4.3233238e-05
110	0xba4de6e3	-0.0007854534
111	0x38dca8ba	0.00010521845
112	0xb90b6502	-0.00013293701
113	0x38c9fc9e	9.6314805e-05
114	0xb7909f8e	-1.7240436e-05
115	0xb8d30c51	-0.00010063558
116	0x3a06e227	0.00051453937
117	0x37b69446	2.1765136e-05
118	0x39016b53	0.0001234238
119	0x3a2bebef	0.0006558289
120	0x3e90ddfd	0.28294364
121	0xbf0d4b38	-0.551929
122	0xbf5803ad	-0.8438061
123	0x3eb4bc61	0.35299972
124	0xbf78b008	-0.971436
125	0xbe8e14fc	-0.27750385
126	0xbde5644e	-0.11200772
127	0xbf1e0ae7	-0.61735386
128	0xbee86933	-0.4539276
129	0xbecc9790	-0.39959383
130	0xba16eba2	-0.0005757158
131	0x3ec70c13	0.388764
132	0xbe8c3e26	-0.27391165
133	0x3e0a508e	0.13507292
134	0xbed1696b	-0.4090074
135	0x3edb27bc	0.42803752
136	0x3dd484df	0.10376906
137	0x3e4467c4	0.19180208
138	0xbdb3b903	-0.087755226
139	0xbdf78334	-0.12085572
140	0xbf5960d4	-0.84913373
141	0x3ea52af6	0.3225934
142	0x3e95c58c	0.2925228
143	0xbea232f7	-0.31679508
144	0x3e9712e9	0.29506615
145	0xbea977a6	-0.33099097
146	0xbdef7dca	-0.11693914
147	0x3e3b1906	0.18271264
148	0xbf4a0bf1	-0.7892447
149	0x3e378431	0.17921521
150	0x3ea4e6b4	0.32207263
151	0x3ec8c27a	0.39210874
152	0xbd25d22f	-0.04048365
153	0x3e8bece1	0.27329162
154	0xbebf1a69	-0.37324837
155	0xbe9130f8	-0.28357673
156	0xbe860fb8	-0.26183867
157	0xbdd61cfe	-0.104547486
158	0xbeefa246	-0.46803492
159	0x3f098dd2	0.53732026
160	0xbe9f35b3	-0.31095657
161	0xbd4ba69c	-0.049719438
162	0x3ea3e6b6	0.32011956
163	0x3eb579f2	0.354446
164	0x3ebce99e	0.36896986
165	0x3e23a97d	0.15982623
166	0x3e1e7942	0.15475944
167	0xbfb0a771	-1.3801099
168	0xbee5bf29	-0.44872406
169	0xbeff1e6f	-0.49827906
170	0xbed13af8	-0.40865302
171	0x3c88e3a6	0.016710114
172	0xbe4c9623	-0.19979148
173	0xbf47fe7e	-0.781227
174	0x3e8aa1fe	0.27076715
175	0xbd671f60	-0.056426406
176	0xbed3a6b8	-0.41338134
177	0xbe18e827	-0.14932309
178	0x3eb59ab1	0.35469583
179	0xbf2a0944	-0.6642039
180	0xbdfda0aa	-0.1238416
181	0x3eb27f50	0.34862757
182	0x3e891bd8	0.26779056
183	0xbe3af72c	-0.18258351
184	0xbe2bdd18	-0.1678356
185	0xbd6f29a3	-0.058389317
186	0x3c167eb5	0.009185483
187	0xbd945143	-0.07242062
188	0x3e6cfe76	0.23143944
189	0x3e3534bf	0.17695902
190	0xb9d404b1	-0.00040439286
191	0xbd389925	-0.045067925
192	0x3eb71f05	0.35765854
193	0x3ddfef1e	0.1093428
194	0x3d5268bd	0.051369417
195	0xbe0181bb	-0.12647144
196	0xbd0db782	-0.034598835
197	0xbcbc039e	-0.022950944
198	0x3e04452e	0.12917015
199	0x3b3159ed	0.0027061657
200	0x3eb116a4	0.34587586
201	0xbe25f9ec	-0.16208619
202	0xbdc8f05a	-0.098114684
203	0xbd0d4ca6	-0.034496926
204	0xbddbaa50	-0.10725844
205	0x3e3a1bbc	0.18174642
206	0x3c8c6684	0.017138727
207	0xbd8d6a3c	-0.06905028
208	0x3e901265	0.28139034
209	0x3df889d6	0.12135665
210	0xbca61aff	-0.020276545
211	0xbe323a90	-0.17405152
212	0xbd08b7d5	-0.03337844
213	0xbd3336f4	-0.04375358
214	0x3e4892ef	0.195873
215	0x3e631213	0.22174864
216	0xbda20f70	-0.07913101
217	0x3d04ece9	0.032452498
218	0x3ca6aa03	0.02034474
219	0xbe047381	-0.12934686
220	0x3eab0218	0.33400035
221	0xbc8ed99a	-0.017437745
222	0xbca40190	-0.020020276
223	0xbdd2e8d0	-0.10298312
224	0xbd9319d9	-0.071826644
225	0x3d885d6e	0.06658445
226	0x39ae63a3	0.000332621
227	0xbe31dbb3	-0.17368965
228	0x3e6e6dfb	0.23284142
229	0x3d6ac228	0.057314068
230	0x3e54d859	0.20785655
231	0xbdbdbf76	-0.09265034
232	0x3c184d29	0.00929574
233	0x3de0da1b	0.109791
234	0xbe46548f	-0.19368194
235	0x3d397ec5	0.045286912
236	0x3e979366	0.29604644
237	0x3d4c3af5	0.049860913
238	0x3e1057dc	0.14096016
239	0xbc8d8efa	-0.01728009
240	0x3e291eac	0.16515607
241	0xbe89bce8	-0.26901937
242	0xbe397568	-0.18111193
243	0x3e3f9825	0.18710382
244	0xbd4e909a	-0.05043087
245	0xbd39b6a8	-0.04534021
246	0xbd8fc650	-0.07020247
247	0x3dac5dae	0.084163055
248	0xbe933963	-0.2875472
249	0xbe93ec7e	-0.28891367
250	0x37827372	1.5550966e-05
251	0x3e5cdd98	0.21568906
252	0xbe1d50b8	-0.15362823
253	0x3de8f992	0.11375727
254	0xbe4a2354	-0.19740039
255	0x3e5f57d3	0.21810846

bias f4 [60]
0	0xbdece894	-0.11567798
1	0x380b6bf9	3.324074e-05
2	0x3eb124e0	0.34598446
3	0xbd685362	-0.056720145
4	0x3e974715	0.2954642
5	0xb9829b9c	-0.0002491147
6	0x3e4e5b6c	0.20152062
7	0x3d76f364	0.06029071
8	0xb9ae9846	-0.0003330132
9	0x3d07de0a	0.033170737
10	0x3a13746c	0.0005624953
11	0x3e4a49bc	0.1975469
12	0x3ce4f606	0.027949344
13	0x3ee3486d	0.44391194
14	0x3e9c4cca	0.30527335
15	0x3e3e9fa0	0.1861558
16	0x3ea6b468	0.32559514
17	0xb9e0601e	-0.00042796222
18	0x3d15bf12	0.036559172
19	0x3deb8a1a	0.1150095
20	0x3e8ec344	0.2788335
21	0xbda8fc32	-0.082512274
22	0x3e77f978	0.24216259
23	0xbe211e1f	-0.15734147
24	0x3c71163a	0.014714772
25	0xba0992cf	-0.00052480114
26	0xb928e0f6	-0.00016105533
27	0xbd3dfaf0	-0.04638189
28	0x3e66653a	0.22499552
29	0x3e24f729	0.16109909
30	0x3c3d5028	0.011554755
31	0xbe43ac3a	-0.19108668
32	0xbd2a1e58	-0.041532844
33	0x3e961061	0.2930937
34	0x3f141835	0.57849437
35	0xba5fb6ef	-0.0008534034
36	0xbd962a29	-0.0733226
37	0x3e101120	0.14069033
38	0x3c5f6389	0.013634571
39	0x3ea9fd52	0.3320108
40	0xbdc005a9	-0.093760796
41	0x3e04e0ac	0.1297633
42	0xbc896f92	-0.016776834
43	0xbbc1a3ff	-0.0059094424
44	0x3e4ff8dc	0.20309776
45	0xbdd95e73	-0.10613718
46	0xbb05bc23	-0.0020406328
47	0x3a27a314	0.0006394845
48	0x3aa230c2	0.001237415
49	0x3e481f8e	0.19543287
50	0xbdb21a57	-0.0869643
51	0xbb05297b	-0.0020318914
52	0xbb21da0c	-0.0024696616
53	0xbd29dd25	-0.041470665
54	0xba51fb0b	-0.00080101256
55	0x3e8afab4	0.27144396
56	0x3da8053d	0.08204124
57	0x3e800ec0	0.25011253
58	0xb8b0c264	-8.428542e-05
59	0x3dea4616	0.11439149

weight f4 [60, 60]
0	0xba17c4d1	-0.0005789521
1	0xb97d1fd9	-0.00024139824
2	0x39918d2e	0.00027761742
3	0x38401374	4.5794484e-05
4	0xba8a87b2	-0.0010569005
5	0x3811ccce	3.4761433e-05
6	0x3b8a2c86	0.0042167334
7	0xbb911d32	-0.004428529
8	0x3a3a4821	0.0007106085
9	0xba57dadb	-0.0008234211
10	0xba45dfad	-0.0007548284
11	0xb9aceeec	-0.00032984407
12	0xbaa696f0	-0.0012709778
13	0xbaa4b65f	-0.0012566558
14	0xba5db330	-0.0008457182
15	0xba67ac26	-0.0008837603
16	0x39dafb93	0.00041767638
17	0x3a047387	0.00050526153
18	0xb9db3ebd	-0.0004181768
19	0xbb15f1cd	-0.002287972
20	0x3b82672f	0.0039795856
21	0xbb0fd3b8	-0.0021946263
22	0xba2cf562	-0.0006597844
23	0xbabd09cc	-0.0014422475
24	0xba984169	-0.0011616173
25	0x3a0ab4bc	0.0005291214
26	0x365cf6c2	3.2926187e-06
27	0xbad2a6c2	-0.0016071426
28	0xba5ef65a	-0.0008505337
29	0xb971ee57	-0.0002307234
30	0xbac7b04d	-0.0015235037
31	0xbb5575e6	-0.0032571494
32	0x3aa055a7	0.0012232558
33	0xba56654f	-0.00081785483
34	0xbad34a9c	-0.0016120258
35	0xba8a21be	-0.001053862
36	0x3b63a7c8	0.0034737457
37	0xb9d0c1e2	-0.00039817306
38	0xb9c7fa9c	-0.00038142956
39	0x3ac8797e	0.0015294997
40	0x3b16385c	0.0022921776
41	0xbaa85b8e	-0.0012844668
42	0x3c2c6275	0.010521521
43	0x39819018	0.00024712156
44	0xba354857	-0.00069153815
45	0xbb0704ca	-0.002060222
46	0x3ac56194	0.0015058988
47	0xb91de046	-0.00015056235
48	0xbb949091	-0.004533835
49	0xba35bb48	-0.0006932509
50	0xbb064ddf	-0.0020493192
51	0x3b510511	0.003189389
52	0x3b39e576	0.002836553
53	0xbad894a8	-0.0016523795
54	0x3a6c05b6	0.00090035365
55	0xba8add0a	-0.0010594439
56	0x3a8af2a2	0.0010600875
57	0xb986c04b	-0.0002570174
58	0x3896d59a	7.192344e-05
59	0xba835744	-0.0010020514
60	0xba9bf51f	-0.0011898613
61	0x378f7f8b	1.710632e-05
62	0xb98de864	-0.0002706676
63	0xba166c68	-0.00057381997
64	0xb6b95fd7	-5.524587e-06
65	0xb67c8b98	-3.763218e-06
66	0xba9d3e5f	-0.0011996737
67	0x39db33a8	0.00041809422
68	0xb8171cb4	-3.6027937e-05
69	0x398ea2ed	0.0002720574
70	0xb7b5e85f	-2.1685088e-05
71	0xb89f613e	-7.5998236e-05
72	0x39252fd5	0.00015753445
73	0xb9b8a826	-0.00035220495
74	0x38b6615c	8.696571e-05
75	0x38faff88	0.00011968525
76	0xb93b85b7	-0.00017883522
77	0xb798c81e	-1.8212999e-05
78	0x39db7d84	0.00041864451
79	0x383a1a94	4.437061e-05
80	0xba44097e	-0.0007478221
81	0xb91e81dc	-0.0001511643
82	0xba8c6764	-0.0010711965
83	0x3920438c	0.00015283952
84	0x39ad9636	0.00033109047
85	0x373abc32	1.1130282e-05
86	0x372ab1ba	1.017417e-05
87	0xba7de44a	-0.0009685202
88	0x390edea1	0.00013625111
89	0x389ce5ae	7.481441e-05
90	0x3a2aecc3	0.00065202656
91	0xb8329286	-4.2574968e-05
92	0xba3fc48d	-0.000731536
93	0xb8a88b95	-8.0368634e-05
94	0x38da6a00	0.00010414794
95	0x3a11dd9e	0.00055643346
96	0xba0743c3	-0.00051599386
97	0x3991b7df	0.0002779355
98	0x39c314c5	0.00037208773
99	0x395a0e2d	0.00020795381
100	0x3721ef35	9.6520425e-06
101	0xb8ac3372	-8.2111816e-05
102	0xbadff943	-0.0017087836
103	0x39329a24	0.00017032825
104	0x39fc3e3f	0.00048111563
105	0x39cce013	0.0003907686
106	0x3a0830a2	0.0005195235
107	0xb8a47fad	-7.843911e-05
108	0x391c4e42	0.00014906473
109	0x39af8346	0.00033476407
110	0xbaa10478	-0.0012284657
111	0xb900d1c6	-0.00012285178
112	0xb8417989	-4.6127974e-05
113	0x39b81e6e	0.00035117887
114	0x3765a6f5	1.3688336e-05
115	0xb8d2ba9e	-0.000100483405
116	0x386e949d	5.688203e-05
117	0xb9ae255e	-0.00033215707
118	0xb7bba9cc	-2.2371205e-05
119	0x3a5a350b	0.0008323944
120	0xbaac4054	-0.001314173
121	0x387efc01	6.0793016e-05
122	0xb9feb308	-0.00048580044
123	0xba79b38b	-0.000952535
124	0x3993a0ad	0.00028157738
125	0xb706cad4	-8.034247e-06
126	0xba899549	-0.0010496761
127	0x3aa4c402	0.0012570622
128	0xb916e868	-0.00014391693
129	0x39ce8fb3	0.00039398446
130	0x38af0009	8.344657e-05
131	0xba2e3a99	-0.0006646305
132	0x3954c09f	0.00020289652
133	0x39892ab9	0.00026162507
134	0x39f19954	0.0004608134
135	0x39fe5d5e	0.0004851622
136	0xb9e878a2	-0.00044340367
137	0xb8848b4c	-6.3201966e-05
138	0x3a18f4f6	0.0005834842
139	0x39e83f34	0.00044297578
140	0xbb02d31d	-0.001996226
141	0x3a3a9d1a	0.0007118747
142	0xb95148ad	-0.00019958867
143	0x3a233822	0.0006226321
144	0x3914f615	0.00014206053
145	0xb895b380	-7.138308e-05
146	0x370de992	8.458637e-06
147	0xb9b20830	-0.00033956906
148	0x397c1a26	0.00024042334
149	0x39179870	0.0001445727
150	0x3aa8b417	0.0012871054
151	0x3a3c6e43	0.0007188061
152	0xba029e03	-0.0004982652
153	0x39ce91f7	0.00039400134
154	0x3a123b48	0.00055782916
155	0x39c8ad2c	0.00038275996
156	0xba90854c	-0.0011026054
157	0x39d00dcc	0.0003968313
158	0x3a0d707d	0.0005395485
159	0xb9c84f2c	-0.0003820596
160	0xba41a63b	-0.0007387136
161	0x395f1d35	0.00021277818
162	0xbb387727	-0.0028147192
163	0x37c841e0	2.3872533e-05
164	0x3a38ac83	0.0007044749
165	0x3975cd47	0.00023441493
166	0xb90ac18f	-0.00013232812
167	0x38b4b6c8	8.6171145e-05
168	0x3a6a5d69	0.0008940311
169	0x3a123e6b	0.0005578759
170	0x39a134ba	0.00030747597
171	0xba227653	-0.0006197441
172	0xb87ebd5d	-6.0734677e-05
173	0x3a1f268d	0.0006071113
174	0xb8bf12ea	-9.111113e-05
175	0x398de81d	0.00027066554
176	0xba056708	-0.00050889
177	0xb9475a3a	-0.00019011731
178	0xb80c9d82	-3.352529e-05
179	0x3a82e394	0.0009986036
180	0x3d758ceb	0.059948843
181	0x38847368	6.3157466e-05
182	0x3d6f735a	0.058459617
183	0xbd92505c	-0.071442336
184	0xbda687c8	-0.08131367
185	0xb93fbbb8	-0.0001828511
186	0xbcd45fd0	-0.025924593
187	0xbd19767b	-0.037466507
188	0x388bd7f2	6.6682594e-05
189	0x3d5348a0	0.051582932
190	0x392e18aa	0.00016603121
191	0x3d2f1cea	0.042752184
192	0xbb784765	-0.0037884351
193	0xbd0a2c5c	-0.03373371
194	0xbd981f61	-0.0742786
195	0x3d8080db	0.06274577
196	0xbd86d55e	-0.06583665
197	0x39a3312b	0.00031126416
198	0x3d38890f	0.045052584
199	0x3c8c9311	0.01715997
200	0xbe1eef7a	-0.1552104
201	0x3bab8e22	0.0052354494
202	0xbe94403f	-0.28955266
203	0xbc0da38b	-0.008644949
204	0x3d157b48	0.036494523
205	0x39ac51ec	0.00032867433
206	0xb8ff649a	-0.00012178086
207	0x3de9f785	0.11424164
208	0x3d9756d3	0.07389607
209	0x3da8bfa3	0.08239677
210	0x3d63f2db	0.055651527
211	0xbbed034b	-0.0072330586
212	0x3c728544	0.014802281
213	0xbe75a37e	-0.23988149
214	0xbde07153	-0.10959115
215	0x3b74f3bb	0.003737672
216	0x3d76110c	0.06007485
217	0x3ddae8e9	0.10688955
218	0x3d757740	0.05992818
219	0x3e169c14	0.14707977
220	0x3dd91bd1	0.10601009
221	0x3b623e5a	0.0034522028
222	0x3cb5c21f	0.02218729
223	0x3d027fdf	0.03186023
224	0x3d8bf9a8	0.068347275
225	0x3e14ca88	0.14530385
226	0x3a86cb8a	0.0010284048
227	0xb9ed758f	-0.0004529175
228	0x3a8d379a	0.0010774017
229	0x3d0692ca	0.032854833
230	0x3bc402a5	0.0059817606
231	0xba32b1a5	-0.0006816632
232	0x39b6a35e	0.00034835463
233	0x3d44a2bc	0.048006758
234	0x394baad0	0.00019423221
235	0xbdb2b97b	-0.08726784
236	0x3dd0007a	0.10156341
237	0xbd0b5b3f	-0.034022566
238	0x39931918	0.0002805672
239	0xbd55786a	-0.05211679
240	0x3dc58b61	0.09645725
241	0xba98a091	-0.0011644532
242	0xbdcd283c	-0.1001744
243	0x3c46b7b8	0.012128763
244	0xbc8e96c2	-0.017405871
245	0xba75a7e6	-0.0009371027
246	0x3c707996	0.014677426
247	0x3d1728ae	0.03690403
248	0x3a9b30a8	0.0011840062
249	0xbd36093f	-0.04444241
250	0xba4319a2	-0.0007442479
251	0xbf670ef9	-0.9025722
252	0xbb59c1f9	-0.003322719
253	0xbe1453cb	-0.1448509
254	0x3df752c3	0.120763324
255	0xbd667ef5	-0.05627342

bias f4 [60]
0	0x3a35d105	0.00069357484
1	0xb7f69d13	-2.9398629e-05
2	0xb9c0a60b	-0.00036744805
3	0x3c744110	0.01490809
4	0x3d47ffb0	0.048827827
5	0x3d5b9d6e	0.053616934
6	0x3988717d	0.00026024497
7	0x3a011427	0.00049239624
8	0xbcfecb5d	-0.03110283
9	0xbc311a4d	-0.010809493
10	0xbc5f3c99	-0.013625287
11	0x3d8c2098	0.06842154
12	0x398d6597	0.00026969306
13	0xbc02497d	-0.007952091
14	0x3a30d71f	0.0006745923
15	0xbdc834e0	-0.0977571
16	0xb9429674	-0.0001855733
17	0x3e43e659	0.1913084
18	0x3cf24b9b	0.029577067
19	0x3e388550	0.18019605
20	0x3e109ddf	0.14122723
21	0xbc6e4e6e	-0.014545066
22	0xbcc993f3	-0.02460668
23	0x3e22455e	0.15846774
24	0x3e5dc735	0.21658023
25	0xba3a5323	-0.0007107725
26	0x37e07ecf	2.676193e-05
27	0x3946c41b	0.00018955806
28	0xbc6f35fc	-0.014600273
29	0x3d39c345	0.04535224
30	0x3a07c9a7	0.000517989
31	0xbe4a3a28	-0.19748747
32	0x381f999d	3.8051618e-05
33	0x3eb00ffa	0.3438719
34	0x39c9e9e6	0.00038511975
35	0xbbd2c6dd	-0.0064323978
36	0x398ac1e8	0.00026465883
37	0x3db8b0fd	0.09018133
38	0xba133636	-0.0005615683
39	0xbc319b67	-0.010840273
40	0xbc581ff7	-0.013191215
41	0x399f48dd	0.0003038113
42	0x3da7da98	0.0819599
43	0x39e364d5	0.0004337194
44	0x3a77ceae	0.00094531
45	0x39a592bb	0.00031580575
46	0xbda9d48a	-0.08292492
47	0x3e41b558	0.18916833
48	0x3cd1f85e	0.025631126
49	0xbcb67f0c	-0.022277378
50	0xba82b0e1	-0.0009970927
51	0xbc72ad14	-0.014811773
52	0x3e1e6ceb	0.15471236
53	0xbc6c5645	-0.014424865
54	0x3dfcc38f	0.12341987
55	0x3d8ffaa9	0.070302315
56	0x399e8298	0.00030233408
57	0x396d86ea	0.0002265234
58	0x38a25344	7.7402714e-05
59	0xb99d9c7e	-0.0003006197

weight f4 [60, 60]
0	0xbaa4ec6a	-0.0012582664
1	0x39bc158b	0.00035874205
2	0x3b1f5456	0.0024311743
3	0x3b348af8	0.0027548652
4	0x3b01522b	0.0019732814
5	0x3944f95f	0.00018784915
6	0xb77144c1	-1.4380727e-05
7	0xb9f8a655	-0.00047426173
8	0x3b79e8ae	0.0038133073
9	0x3b051574	0.0020306977
10	0xbb99fb5d	-0.0046991543
11	0x3987b3d1	0.0002588318
12	0xb8d0592e	-9.934824e-05
13	0x3b135647	0.0022481845
14	0xbaa29244	-0.001240321
15	0xb977044b	-0.00023557355
16	0x38dd3854	0.00010548593
17	0x3b5af5c3	0.0033410646
18	0xbaaccfe6	-0.0013184517
19	0x3bc7b577	0.0060946303
20	0x3ae7a452	0.0017672873
21	0x3af2e31b	0.0018530817
22	0x3a87a0bb	0.0010347584
23	0x3b1ca766	0.0023903488
24	0x3a02eee8	0.0004994706
25	0x3b28c423	0.0025751672
26	0xbaaa2675	-0.0012981432
27	0xbaad0510	-0.0013200361
28	0x3af2bda8	0.0018519657
29	0x3c08b317	0.00834348
30	0xb8b4dbce	-8.624011e-05
31	0xbac98d31	-0.0015377161
32	0xb99712c6	-0.00028814952
33	0xb9948c93	-0.00028333496
34	0x398312fe	0.00025000417
35	0x3b10b87c	0.0022082618
36	0xb862424f	-5.3944354e-05
37	0xbba607e8	-0.0050668605
38	0x3b1cda75	0.0023933921
39	0x3a985ce9	0.0011624369
40	0x3af86d59	0.0018953487
41	0x38c4aff0	9.378779e-05
42	0x3b0dffb2	0.00216673
43	0xb9a98248	-0.0003233126
44	0x3a11d870	0.0005563563
45	0x3929b098	0.00016182882
46	0x3b30e905	0.002699436
47	0x3b1ee129	0.0024243093
48	0x3b2d189d	0.0026412376
49	0x3ab8865c	0.0014078128
50	0x39e65e42	0.00043939246
51	0x3af192a1	0.001843054
52	0xba7f2cda	-0.00097341614
53	0x3af3d91f	0.0018604136
54	0x3b1f0d34	0.0024269344
55	0x3b607607	0.0034250037
56	0x393d934e	0.0001807932
57	0xb9e5c766	-0.00043826847
58	0xb9ae4152	-0.00033236534
59	0xba70f21d	-0.0009191351
60	0xb9d91c01	-0.0004141033
61	0xb9a4cec6	-0.00031434576
62	0xb9c564cb	-0.00037649865
63	0x3d1924e7	0.03738871
64	0x3e468c3b	0.19389431
65	0x3e8b460b	0.27201876
66	0xb8809817	-6.1318446e-05
67	0xb896a4f3	-7.1832816e-05
68	0xbd2c7194	-0.042100504
69	0xbce77063	-0.028251832
70	0xbd95fa0a	-0.07323082
71	0xbdfa76ea	-0.12229712
72	0xb90e4405	-0.00013567515
73	0xbd0393dd	-0.032123435
74	0xb970f6df	-0.0002298015
75	0xbde53884	-0.1119242
76	0x3955b1cb	0.00020379496
77	0x3e42f130	0.19037318
78	0x3dec6407	0.11542516
79	0x3dbc3806	0.09190373
80	0x3db719a5	0.08940438
81	0xbcbf8651	-0.023379477
82	0xbdc1e5e3	-0.094676755
83	0x3df9f1f0	0.12204349
84	0x3d2c1dc9	0.042020593
85	0x39fb04df	0.0004787808
86	0x388f8bb7	6.844795e-05
87	0x39789cff	0.00023709609
88	0xbcbf1b16	-0.023328345
89	0x3d2b3213	0.0417958
90	0xb8074f05	-3.22601e-05
91	0xbd3ee7db	-0.046607833
92	0xb83628e6	-4.343027e-05
93	0x3d667987	0.05626824
94	0xb7d96176	-2.59138e-05
95	0xbd1396c5	-0.036032457
96	0x37889501	1.6281849e-05
97	0x3dd8cf10	0.10586369
98	0x39cdd97f	0.00039262694
99	0x3e2c4019	0.16821326
100	0xbccaa0ff	-0.024734972
101	0x3828f32d	4.0280796e-05
102	0x3da331fe	0.0796852
103	0x3a123065	0.00055766694
104	0x3a9af9b8	0.001182369
105	0xb8368dcb	-4.3524236e-05
106	0xbe3b9808	-0.18319714
107	0x3e1be98a	0.15225807
108	0xbe2b8945	-0.16751583
109	0xbce2cba4	-0.027684994
110	0xbb066ba6	-0.002051094
111	0xbcbd0f78	-0.023078665
112	0x3e3f0c2c	0.18656987
113	0xbcc0dd6f	-0.023543088
114	0x3e0d00d5	0.13769849
115	0x3da63c2c	0.081169456
116	0x390f519e	0.00013667947
117	0xb92fd9ba	-0.0001677041
118	0x38ca812c	9.656171e-05
119	0xbaa9038a	-0.0012894731
120	0xb9c83175	-0.0003818382
121	0xb99576a5	-0.00028507892
122	0xb9b5f8d1	-0.00034708393
123	0x3d1348c2	0.03595806
124	0x3e3dfe9a	0.18554154
125	0x3e8705a7	0.263715
126	0xb8110267	-3.457293e-05
127	0xb8420baa	-4.6264067e-05
128	0xbd2ae979	-0.041726563
129	0xbce09e7a	-0.027419318
130	0xbd9092f6	-0.070592806
131	0xbded7492	-0.115945
132	0xb88daa23	-6.7550944e-05
133	0xbcfbf0f4	-0.030754544
134	0xb9515234	-0.00019962416
135	0xbddddcd3	-0.108331345
136	0x393ac6f4	0.00017812458
137	0x3e3c5295	0.18390878
138	0x3de51de6	0.11187343
139	0x3dbc174f	0.09184133
140	0x3dae62a0	0.08514905
141	0xbcb9aa78	-0.022664294
142	0xbdb4f570	-0.08835876
143	0x3defef3a	0.11715551
144	0x3d08c32d	0.03338926
145	0x39f96f1d	0.00047575767
146	0x384f4169	4.9413564e-05
147	0x397f5998	0.00024352071
148	0xbcb94850	-0.02261749
149	0x3d3be0f1	0.045868818
150	0xb6eac495	-6.9966286e-06
151	0xbd49057c	-0.049077496
152	0xb7ec7366	-2.8187129e-05
153	0x3da60a2a	0.081074074
154	0x37710a98	1.4367186e-05
155	0xbd10bbc4	-0.035335317
156	0x37bd864d	2.2593094e-05
157	0x3dd3a8fd	0.10334966
158	0x39de4fa3	0.00042402474
159	0x3e245f6e	0.16052029
160	0xbcc41cba	-0.02393948
161	0x38b45b94	8.6001266e-05
162	0x3d975e9b	0.073910914
163	0x3a12faae	0.0005606812
164	0x3a98f9f6	0.0011671174
165	0xb78f1c6f	-1.7060169e-05
166	0xbe32f042	-0.17474464
167	0x3e15144d	0.14558525
168	0xbe255664	-0.16146237
169	0xbcdcd26a	-0.026955802
170	0xbb047588	-0.0020211656
171	0xbcb7583a	-0.022380937
172	0x3e36c366	0.17847976
173	0xbcbaf507	-0.022821916
174	0x3e05162b	0.12996738
175	0x3d9c1bc3	0.07622483
176	0x39204391	0.0001528396
177	0xb9134231	-0.0001404367
178	0x38dfa0cc	0.000106634194
179	0xbaa7e883	-0.0012810383
180	0xba9637c1	-0.0011460708
181	0x39848f93	0.00025283973
182	0x3b079c92	0.0020692688
183	0x3b3704f1	0.002792653
184	0x3ae3f631	0.0017392096
185	0x39afc7b5	0.00033527394
186	0xb771784e	-1.439273e-05
187	0xb9a7cef5	-0.00032006917
188	0x3b6a8155	0.0035782654
189	0x3af9ee48	0.0019068206
190	0xbb897628	-0.0041949935
191	0x38a3395b	7.783129e-05
192	0xb8dd716a	-0.00010559226
193	0x3b0cc6e6	0.0021480857
194	0xbaa1720a	-0.0012317311
195	0x3869e834	5.5767785e-05
196	0x39414565	0.00018431766
197	0x3b524609	0.0032085201
198	0xba9b86fe	-0.0011865792
199	0x3bbcddd2	0.0057637477
200	0x3ae20d3a	0.0017246373
201	0x3ae20dbe	0.0017246527
202	0x3a7d23ad	0.00096565
203	0x3b22d6e6	0.0024847328
204	0x3a00d5a6	0.00049146486
205	0x3b0fe2a0	0.0021955147
206	0xba64c079	-0.00087261904
207	0xbac29738	-0.0014846092
208	0x3ae1e7c9	0.0017235215
209	0x3bf85fa1	0.007579759
210	0xb8b1b1e0	-8.4731495e-05
211	0xbac2a5c4	-0.0014850427
212	0x37bb5ebd	2.2336253e-05
213	0xb9b040ea	-0.000336177
214	0x38ddf195	0.00010583099
215	0x3b095c68	0.002095962
216	0xb69e9bd1	-4.7269064e-06
217	0xbb9c7635	-0.0047748336
218	0x3b01b8fc	0.0019794097
219	0x3a8f46bc	0.0010931115
220	0x3ae7b625	0.0017678185
221	0x36f57304	7.3149586e-06
222	0x3af4912e	0.001865899
223	0xb9b4b8f9	-0.0003447009
224	0x39dbfeb7	0.00041960712
225	0x389e5997	7.5507145e-05
226	0x3b236424	0.0024931515
227	0x3b1a377d	0.0023531609
228	0x3b20d8a4	0.002454319
229	0x3aa6a3d4	0.001271362
230	0x3a386803	0.0007034542
231	0x3ae0b156	0.0017142694
232	0xba8cd20f	-0.0010743755
233	0x3ae30b94	0.0017322176
234	0x3b090f98	0.0020913836
235	0x3b62a5b5	0.0034583632
236	0x392851f8	0.00016052264
237	0xb97fbe2d	-0.00024389541
238	0xb9b85134	-0.00035155716
239	0xba17dee6	-0.00057934073
240	0x394119e1	0.00018415555
241	0xb712a850	-8.741466e-06
242	0xb8b924ff	-8.8283785e-05
243	0xb95f243b	-0.00021280434
244	0xb8f67e94	-0.00011753771
245	0xb8a77d53	-7.986524e-05
246	0x35365da1	6.793653e-07
247	0x36b4d6cf	5.389425e-06
248	0xb9671d39	-0.00022040763
249	0xb8bdb6d2	-9.046275e-05
250	0x388701e5	6.4376545e-05
251	0xb8c9e207	-9.626528e-05
252	0x362a7ff7	2.540646e-06
253	0xb8edc547	-0.000113377864
254	0x395c6d9d	0.00021021669
255	0xb790c989	-1.7259985e-05

bias f4 [60]
0	0xbaee5448	-0.0018183077
1	0x3e34a69a	0.17641678
2	0x3e280756	0.16409048
3	0xbb0185ed	-0.0019763664
4	0x38fce29b	0.00012058505
5	0xbe89331a	-0.267968
6	0x3e4386ba	0.19094363
7	0x38b364a2	8.5541295e-05
8	0x3e2ad9fc	0.16684717
9	0x3e3216fb	0.17391579
10	0xbdc7ee35	-0.09762231
11	0xbdb0e638	-0.08637661
12	0x3e2bc657	0.1677488
13	0x3b133a3e	0.0022465135
14	0x39d3ad37	0.0004037411
15	0x3e27fe90	0.16405702
16	0x3e2fac36	0.17155537
17	0xb9b08082	-0.00033665082
18	0x39226880	0.00015488453
19	0x38a58a40	7.893564e-05
20	0x3e28f6f6	0.16500458
21	0x3e459e5b	0.19298689
22	0xb8b9fa86	-8.868151e-05
23	0x3e18b65d	0.14913316
24	0x3e34ba13	0.17649107
25	0x3e1bcf7d	0.15215869
26	0xbe2cd253	-0.16877107
27	0x3e299781	0.165617
28	0xbb037231	-0.0020057077
29	0xba9aefb9	-0.001182071
30	0x38a28fda	7.7515564e-05
31	0xbe123e48	-0.14281571
32	0x3e3414ff	0.17586134
33	0xbe147e98	-0.14501417
34	0x386dd619	5.6704597e-05
35	0x3e31d7e8	0.17367518
36	0xbe446900	-0.1918068
37	0xbb1895c6	-0.0023282631
38	0x380cd5e4	3.3577802e-05
39	0x3d26d92d	0.04073446
40	0x3e2497ba	0.16073504
41	0xbd07575b	-0.033042293
42	0x3e1e7346	0.15473661
43	0x3e390300	0.1806755
44	0x3e203adb	0.15647452
45	0xbd52ec49	-0.05149487
46	0x3e33b06b	0.17547767
47	0xb8c1cc96	-9.241064e-05
48	0x3e3346c2	0.1750746
49	0x3e243833	0.16037063
50	0x3e41a099	0.1890892
51	0x3e2f7dbc	0.17137808
52	0x3d8a389d	0.067490794
53	0x3e15c62d	0.1462638
54	0xb7b69569	-2.1765665e-05
55	0x3e46c2f2	0.19410303
56	0x38b6db89	8.719328e-05
57	0x3e170396	0.14747462
58	0xbe3632ef	-0.17792867
59	0x3d6c1efe	0.057646744

weight f4 [60, 60]
0	0xb387515b	-6.301226e-08
1	0x34a9e4dd	3.1645223e-07
2	0x34abc0b2	3.1991436e-07
3	0x34737bdb	2.2676197e-07
4	0x32e793ce	2.6959153e-08
5	0x34d14525	3.8979593e-07
6	0x3484f948	2.4768292e-07
7	0xb02cb50f	-6.2830535e-10
8	0x34d0c363	3.8885182e-07
9	0x348fe19d	2.679998e-07
10	0x358a6a2c	1.0312701e-06
11	0x358e40dc	1.0598701e-06
12	0x34c54215	3.674219e-07
13	0xb50bbf30	-5.205975e-07
14	0x338658a4	6.255985e-08
15	0x34aa199b	3.1683598e-07
16	0x34d9c1dc	4.056045e-07
17	0xb3a88bbe	-7.8485286e-08
18	0xb094a4b2	-1.0815226e-09
19	0xaf776442	-2.2500138e-10
20	0x34b4aebd	3.3654752e-07
21	0x347b8a59	2.3426527e-07
22	0x2fbc27c2	3.422525e-10
23	0x34b2172e	3.317195e-07
24	0x349c8868	2.9156513e-07
25	0x34ce0517	3.8374193e-07
26	0x35876655	1.0088066e-06
27	0x34b43b94	3.3570961e-07
28	0xb56fc9e2	-8.9328216e-07
29	0x334d6b27	4.7827736e-08
30	0xb22469ec	-9.57014e-09
31	0x35415848	7.202657e-07
32	0x34bd779f	3.529103e-07
33	0x35a701ff	1.244305e-06
34	0xb65cf7ef	-3.292687e-06
35	0x349d02e6	2.9245638e-07
36	0x35362447	6.7853074e-07
37	0x35800ae5	9.539914e-07
38	0x2f8718cd	2.457398e-10
39	0x34910993	2.701532e-07
40	0x349b57d2	2.8934898e-07
41	0x35291ced	6.29995e-07
42	0x34c38ec5	3.642546e-07
43	0x348fb334	2.6766213e-07
44	0x34cefc07	3.8553864e-07
45	0x355fcd67	8.3372873e-07
46	0x34bc52b1	3.5077895e-07
47	0x3068c3ba	8.467925e-10
48	0x348ddb39	2.6422802e-07
49	0x34c53c45	3.673796e-07
50	0x34a8b299	3.1422385e-07
51	0x34c6fbfb	3.7063714e-07
52	0x34358c84	1.6908058e-07
53	0x34c2f884	3.6316135e-07
54	0x31a0f5c9	4.6845554e-09
55	0x345b0e06	2.0401066e-07
56	0xb2fa002f	-2.9103914e-08
57	0x34c527c7	3.672305e-07
58	0x3582a814	9.734672e-07
59	0x34762140	2.2922632e-07
60	0xbb01c5a1	-0.0019801634
61	0x3dd3051a	0.103037074
62	0x3dc7dcde	0.09758924
63	0xbad1fecf	-0.0016021373
64	0x37cc4da8	2.4354857e-05
65	0xbdeba451	-0.1150595
66	0x3dc6b871	0.09703148
67	0x368cdb96	4.1978883e-06
68	0x3dc73559	0.09726972
69	0x3dcbb38f	0.099463575
70	0xbca332d6	-0.019921701
71	0xbc536a8b	-0.01290382
72	0x3dac4c9a	0.08413048
73	0x3b2e380a	0.0026583695
74	0x3a1a7c7c	0.00058931834
75	0x3dbc65c5	0.091990985
76	0x3dc5264f	0.096264474
77	0x37d24f4d	2.5070878e-05
78	0x37a6fa39	1.9905261e-05
79	0x37d95da3	2.5912019e-05
80	0x3dbcb6f0	0.0921458
81	0x3dc0f7d1	0.09422267
82	0xb717c60d	-9.046414e-06
83	0x3db3ee78	0.08785719
84	0x3db34fae	0.08755432
85	0x3dad5824	0.08464077
86	0xbd8539f8	-0.06505197
87	0x3dadd37b	0.08487602
88	0xbb0c5c57	-0.0021417344
89	0xba0f6ab1	-0.00054709153
90	0x396b0411	0.00022412861
91	0xbd4ae3da	-0.049533702
92	0x3dc1938b	0.0945197
93	0xbd4d92d1	-0.050188843
94	0x3806595c	3.2031312e-05
95	0x3dc36715	0.09541146
96	0xbda4df6a	-0.08050425
97	0xbb1ea667	-0.002420807
98	0xb7463761	-1.1814614e-05
99	0x3d399694	0.045309618
100	0x3db6a7f1	0.08918751
101	0x3c8d4271	0.017243596
102	0x3db70ddd	0.08938191
103	0x3dcac2a5	0.09900407
104	0x3dbf9df3	0.09356298
105	0x3bf63477	0.0075135785
106	0x3dbf24c6	0.09333186
107	0xb759a15e	-1.2971779e-05
108	0x3db6285c	0.08894417
109	0x3dbe3726	0.092878625
110	0x3dc6a308	0.096990645
111	0x3dbd11f8	0.09231943
112	0x3da34901	0.07972909
113	0x3db55f3e	0.08856057
114	0x384c54f1	4.8716498e-05
115	0x3db921d4	0.09039655
116	0x395c60b0	0.00021016854
117	0x3da4f138	0.08053821
118	0xbd8ce65a	-0.068798736
119	0x3d875aad	0.06609092
120	0xbb0b92da	-0.0021297247
121	0x3e0c056e	0.13673946
122	0x3e090cb5	0.13383754
123	0xbae14a7f	-0.0017188339
124	0x3887a897	6.468704e-05
125	0xbf2bed4c	-0.6715896
126	0x3e1c4ab4	0.15262872
127	0xb675fda7	-3.665549e-06
128	0x3e264125	0.16235788
129	0x3e0ef0b5	0.1395901
130	0xbe7907a8	-0.24319327
131	0xbe59011f	-0.21191834
132	0x3e1f750b	0.15571992
133	0x3b1b988e	0.0023742053
134	0x3a42c517	0.00074298814
135	0x3e17510a	0.14777008
136	0x3e339ebe	0.17541024
137	0xb8a6c233	-7.951669e-05
138	0x35b5d576	1.3547676e-06
139	0x379a745a	1.8412411e-05
140	0x3e0d687b	0.13809387
141	0x3e1a076d	0.15041895
142	0x360cf98c	2.100688e-06
143	0x3e0beb78	0.13664043
144	0x3e204945	0.1565295
145	0x3e186fbc	0.14886373
146	0xbed76c56	-0.4207484
147	0x3e1938ef	0.14963125
148	0xbb1a1a08	-0.002351405
149	0xba0e8d53	-0.0005437929
150	0x39664a95	0.00021962293
151	0xbec53f66	-0.38524932
152	0x3e1b0bd1	0.15141226
153	0xbeadde8d	-0.33958855
154	0x384dabdc	4.9035865e-05
155	0x3e0ea76b	0.13931052
156	0xbf01a67f	-0.5064468
157	0xbb19c3fe	-0.0023462768
158	0xb78c8219	-1.6749882e-05
159	0xbcd494e5	-0.025949905
160	0x3e04ba8e	0.1296179
161	0xbdc42521	-0.09577394
162	0x3e1d610c	0.15369052
163	0x3e0b7052	0.13617066
164	0x3e13b079	0.14422788
165	0xbe114bc3	-0.14189057
166	0x3e281963	0.16415934
167	0x34f2a127	4.5193266e-07
168	0x3e197ae2	0.14988282
169	0x3e026a89	0.12735952
170	0x3e1fba22	0.15598348
171	0x3e13c330	0.14429927
172	0xbd3f863a	-0.046758868
173	0x3e00357c	0.12520403
174	0x38656808	5.469474e-05
175	0x3e2a0ba7	0.16606008
176	0x397014fd	0.00022896002
177	0x3e031a11	0.12802912
178	0xbede4018	-0.43408275
179	0xbd1580a8	-0.03649965
180	0xbb0bbf70	-0.0021323822
181	0x3e0a6fd3	0.1351922
182	0x3e078e3c	0.13237852
183	0xbae1a87e	-0.0017216352
184	0x388771d9	6.4585074e-05
185	0xbf29fb09	-0.66398674
186	0x3e1aa9f2	0.15103891
187	0xb66cce0d	-3.5286678e-06
188	0x3e245cf0	0.16051078
189	0x3e0d4282	0.13794902
190	0xbe762ca1	-0.24040462
191	0xbe567a04	-0.20944983
192	0x3e1db0d5	0.15399487
193	0x3b1bfdcb	0.0023802395
194	0x3a4299ad	0.0007423412
195	0x3e15a5ef	0.1461408
196	0x3e3192df	0.17341183
197	0xb8a7c14a	-7.9991834e-05
198	0x35e1a6fd	1.6812406e-06
199	0x379b34c3	1.8502009e-05
200	0x3e0bda5e	0.13657519
201	0x3e1863e4	0.14881855
202	0x35fa201e	1.8635799e-06
203	0x3e0a6722	0.13515905
204	0x3e1e8669	0.15480961
205	0x3e16bd1b	0.14720576
206	0xbed50113	-0.41602382
207	0x3e178bf9	0.14799489
208	0xbb1a44c1	-0.0023539516
209	0xba0ee17a	-0.0005450469
210	0x3965da8e	0.0002192056
211	0xbec30557	-0.3809001
212	0x3e19514b	0.14972417
213	0xbeabe9e8	-0.33576894
214	0x384d6722	4.897186e-05
215	0x3e0d18db	0.13779013
216	0xbf00325d	-0.5007685
217	0xbb1a1817	-0.0023512894
218	0xb78b7ec6	-1.6629125e-05
219	0xbcd205e0	-0.025637567
220	0x3e034069	0.1281754
221	0xbdc18e51	-0.09450973
222	0x3e1b9d52	0.15196732
223	0x3e09ed24	0.13469368
224	0x3e120800	0.14260864
225	0xbe0f819d	-0.14014287
226	0x3e263ae0	0.16233397
227	0x3458e269	2.0198935e-07
228	0x3e17c870	0.14822555
229	0x3e00f66b	0.12594001
230	0x3e1df55d	0.1542563
231	0x3e121f41	0.14269735
232	0xbd3ce2ee	-0.046114855
233	0x3dfd999b	0.123828135
234	0x3864d867	5.4560976e-05
235	0x3e283211	0.16425349
236	0x396f3b70	0.00022814958
237	0x3e01ae24	0.12664086
238	0xbedbc24c	-0.42921674
239	0xbd138cb5	-0.03602286
240	0xaffee4d3	-4.636492e-10
241	0xb03d4dc5	-6.8868317e-10
242	0xb0326a6c	-6.490726e-10
243	0xafe15337	-4.098639e-10
244	0x2d48b4b0	1.14088045e-11
245	0xb1de682b	-6.472893e-09
246	0xb02c32e7	-6.264557e-10
247	0xac3a42db	-2.6469302e-12
248	0xb07c3ce9	-9.1763624e-10
249	0xaff4c858	-4.4525694e-10
250	0xb16572e4	-3.3389194e-09
251	0xb1332f3c	-2.6074778e-09
252	0xb04ae57a	-7.381328e-10
253	0x2ffa8fce	4.5576914e-10
254	0xad68e548	-1.3238584e-11
255	0xb0235d76	-5.943187e-10

bias f4 [60]
0	0xb51eedad	-5.920545e-07
1	0x3d428255	0.047487576
2	0x3d85d58a	0.0653487
3	0x3d8673dc	0.06565067
4	0x307d161b	9.207228e-10
5	0x3d840781	0.06446744
6	0x3c7a126b	0.01526318
7	0x339c1f77	7.2700395e-08
8	0x2ef8b459	1.13097705e-10
9	0x3d7d1a60	0.06179273
10	0x3da5d426	0.08097105
11	0x2f0544c8	1.2120716e-10
12	0x3dc32e90	0.095303655
13	0x3c814147	0.015778197
14	0x3d8639c5	0.065539874
15	0x3d90cf84	0.070708305
16	0x3d87923e	0.0661969
17	0x3d6c6ec4	0.05772282
18	0x3dab6f65	0.08370856
19	0x3da259e0	0.079272985
20	0x305bee99	8.0010804e-10
21	0xadfcf89d	-2.875949e-11
22	0x3d928f6d	0.071562625
23	0xb48f8e5d	-2.6739409e-07
24	0x2d17cbd4	8.628615e-12
25	0x322f5822	1.020638e-08
26	0x3d856af5	0.06514541
27	0x3c78e571	0.015191422
28	0x2f403b57	1.748338e-10
29	0xb8ff544c	-0.00012175049
30	0x36c0d093	5.746327e-06
31	0x3d81416c	0.06311306
32	0xb02432f0	-5.973524e-10
33	0x3d9e6548	0.077341616
34	0xb854d8bb	-5.0746585e-05
35	0x32d44a2f	2.4713783e-08
36	0xb27f18b9	-1.4848575e-08
37	0x33806839	5.9794225e-08
38	0x36b56590	5.406044e-06
39	0x3c7af8e5	0.01531813
40	0x2dad8cbb	1.973032e-11
41	0x2e2f8131	3.9905138e-11
42	0x32054c14	7.758917e-09
43	0xb2b7452e	-2.1335463e-08
44	0x3d7de1bb	0.06198285
45	0xb7a5eb8f	-1.9779223e-05
46	0xaf3730a4	-1.6661034e-10
47	0x3d753f6b	0.059874933
48	0x30ec8a37	1.7210543e-09
49	0x3c815b7b	0.015790692
50	0x3d85c238	0.06531185
51	0x3db4bfea	0.08825667
52	0x3c7b1b4b	0.015326331
53	0x3c8995e6	0.01679511
54	0x3c7a7d8c	0.015288722
55	0xaeb779bc	-8.343501e-11
56	0xb27ad3a2	-1.4600035e-08
57	0x37bfdbe1	2.2871363e-05
58	0x3d8403c4	0.06446031
59	0x3d86c65a	0.06580801

weight f4 [60, 60]
0	0xb1a488f3	-4.7885975e-09
1	0x32bac1cf	2.1741384e-08
2	0x311dbc67	2.2953601e-09
3	0x311c795c	2.2769973e-09
4	0xa7df78d7	-6.202595e-15
5	0x311e7a8b	2.3061684e-09
6	0xb09b5545	-1.1301969e-09
7	0xb4cf0432	-3.8559807e-07
8	0xb2d325b5	-2.458078e-08
9	0x330d5bbb	3.291255e-08
10	0x3323ba53	3.8120856e-08
11	0xb2f345c6	-2.8320652e-08
12	0x331bdd65	3.6290107e-08
13	0xb09d3a7a	-1.1439873e-09
14	0x311d01a8	2.2847448e-09
15	0x331d5d65	3.6639353e-08
16	0x31186f04	2.2182016e-09
17	0x33029d2b	3.0410927e-08
18	0x3323823f	3.8069853e-08
19	0x33237d9e	3.8065643e-08
20	0x2db26df5	2.0285088e-11
21	0xb43ecc8a	-1.776954e-07
22	0x331e5eee	3.687358e-08
23	0x294ddcd9	4.57107e-14
24	0xb041192f	-7.024878e-10
25	0x2f74eca3	2.2275741e-10
26	0x311e5174	2.3038327e-09
27	0xb09a0961	-1.120764e-09
28	0x35191934	5.7033617e-07
29	0x36c7c513	5.9536046e-06
30	0xafaf4e02	-3.1887742e-10
31	0x311a173a	2.2423152e-09
32	0x30c78cbc	1.4519155e-09
33	0x3322d96d	3.7916312e-08
34	0xb1c22506	-5.650352e-09
35	0xa8f80a55	-2.7538012e-14
36	0xb02f1c26	-6.370463e-10
37	0xb073199b	-8.843927e-10
38	0xb5dc45a0	-1.6411541e-06
39	0xb09c2d93	-1.1363447e-09
40	0x2bc71470	1.4145473e-12
41	0xa4e46518	-9.90505e-17
42	0x30929722	1.0665853e-09
43	0x337136f6	5.6162172e-08
44	0x330dce25	3.3016608e-08
45	0x352cbd06	6.435006e-07
46	0xb77e9e2b	-1.5176406e-05
47	0x330892a3	3.1798333e-08
48	0x36224501	2.4180047e-06
49	0xb09d18cb	-1.14303e-09
50	0x311de600	2.2977247e-09
51	0x3321ae16	3.7644064e-08
52	0xb09c4ffa	-1.1373225e-09
53	0xb07221a0	-8.808687e-10
54	0xb09bbf4e	-1.1332106e-09
55	0x2dc2e8d6	2.2158646e-11
56	0xb276cf9a	-1.4366288e-08
57	0xb631a2e7	-2.6469877e-06
58	0x311e86d2	2.3068663e-09
59	0x311b74b9	2.2621818e-09
60	0x34755009	2.284652e-07
61	0x3db908aa	0.09034856
62	0x3e7d8de2	0.24761155
63	0x3e7aad26	0.24480113
64	0xb0834155	-9.550073e-10
65	0x3e82d5b2	0.25553662
66	0x3d401baf	0.0469014
67	0xafa5d6d2	-3.0165964e-10
68	0xaefab131	-1.1400159e-10
69	0x3ddb3ee3	0.10705354
70	0x3e074a78	0.13212001
71	0x2e0f34af	3.2561228e-11
72	0x3e1ce53a	0.15321818
73	0x3d4846e9	0.04889575
74	0x3e7bc554	0.24586993
75	0x3df2519a	0.118319705
76	0x3e74ae08	0.23894513
77	0x3dd12267	0.1021164
78	0x3e0b3d55	0.13597615
79	0x3e04e0c6	0.1297637
80	0x2ef27ed4	1.1027415e-10
81	0x2de2818c	2.5750756e-11
82	0x3df499bd	0.11943386
83	0x31db923b	6.3903633e-09
84	0x2cef1263	6.79483e-12
85	0x30d06b09	1.5164413e-09
86	0x3e7f9e8c	0.24962825
87	0x3d3ee47b	0.046604615
88	0x2cf8a9f7	7.067454e-12
89	0xba16ec91	-0.0005757297
90	0x36ffe2c0	7.6259894e-06
91	0x3e879329	0.26479462
92	0x2d85bc82	1.5204064e-11
93	0x3e022d75	0.12712653
94	0xba0e10b6	-0.000541936
95	0x32370514	1.0653157e-08
96	0x2fcd2c17	3.732061e-10
97	0xb1a3a22e	-4.762362e-09
98	0x375ef53b	1.3289328e-05
99	0x3d410c91	0.047131125
100	0x2c94eddd	4.232821e-12
101	0x2e26d03b	3.7928976e-11
102	0x31b1767b	5.1648477e-09
103	0x2f1e2abd	1.43852e-10
104	0x3ddbb8ad	0.107285835
105	0x331b60dc	3.6176843e-08
106	0x2e3b1d78	4.254505e-11
107	0x3dd672de	0.10471128
108	0xafa9e599	-3.090406e-10
109	0x3d4874ca	0.048939504
110	0x3e7e129c	0.24811786
111	0x3e11fa9b	0.14255755
112	0x3d412fe7	0.047164824
113	0x3d5561d0	0.052095234
114	0x3d408c1b	0.047008615
115	0x2e00b4ed	2.9264525e-11
116	0x31aff0c4	5.120542e-09
117	0x371ab1e2	9.220532e-06
118	0x3e82bc9e	0.25534528
119	0x3e78debc	0.24303716
120	0x372f87eb	1.0462459e-05
121	0xb00fbabd	-5.228847e-10
122	0x30869b7c	9.793975e-10
123	0x3088b412	9.946481e-10
124	0x3368c34c	5.419433e-08
125	0x30805081	9.336106e-10
126	0x301ae55d	5.635082e-10
127	0x3187fce8	3.9577692e-09
128	0x311334c2	2.1421305e-09
129	0xaff96c21	-4.5369666e-10
130	0xafa57d2b	-3.0102262e-10
131	0xafebe6f8	-4.2910364e-10
132	0xaf3a5157	-1.6945499e-10
133	0x2ff976db	4.5377288e-10
134	0x3087eadc	9.889294e-10
135	0xafd662d6	-3.89966e-10
136	0x308ccb6f	1.024416e-09
137	0xb0033917	-4.773865e-10
138	0xaf9793c7	-2.7571742e-10
139	0xafae03ec	-3.1653202e-10
140	0x2f4dd242	1.871934e-10
141	0x344a0991	1.8816196e-07
142	0xafd29a7f	-3.8308554e-10
143	0xae261465	-3.7762144e-11
144	0x22ad1fa6	4.6925253e-18
145	0x2cc235b4	5.519774e-12
146	0x30850dfb	9.680997e-10
147	0x301f4801	5.7946187e-10
148	0xa527974d	-1.4536204e-16
149	0xaeb5d053	-8.267933e-11
150	0xb21988a5	-8.9368415e-09
151	0x3070dfd6	8.762958e-10
152	0xac9befe0	-4.4319964e-12
153	0xafb787d2	-3.3384012e-10
154	0x2e5f82f4	5.082064e-11
155	0x33181c06	3.5415745e-08
156	0xa4fc65a2	-1.0945975e-16
157	0x366d42a0	3.5354533e-06
158	0xa8591181	-1.2049715e-14
159	0x301783e9	5.5120936e-10
160	0x3021fd0c	5.893106e-10
161	0x3207fed5	7.915976e-09
162	0x25489d59	1.7400546e-16
163	0x26241ed9	5.6940736e-16
164	0xaff8c53f	-4.525109e-10
165	0xa8ff4f01	-2.834495e-14
166	0xb67b989e	-3.749075e-06
167	0xafffcc77	-4.652951e-10
168	0x24546fac	4.6064762e-17
169	0x2ff81a85	4.512978e-10
170	0x30863912	9.766004e-10
171	0xaf8047b8	-2.3334024e-10
172	0x3016fedb	5.4931854e-10
173	0x2f95f560	2.7277292e-10
174	0x301951c9	5.57773e-10
175	0x31344181	2.6230682e-09
176	0x2fc2b754	3.5418657e-10
177	0xb267331e	-1.3457592e-08
178	0x3080796e	9.347738e-10
179	0x3089fa7d	1.0039255e-09
180	0x358b6bf8	1.038773e-06
181	0xae004e8f	-2.9173605e-11
182	0xab330631	-6.3602167e-13
183	0xab5225a8	-7.4659246e-13
184	0xacd5e232	-6.078937e-12
185	0xaabbb04c	-3.3340203e-13
186	0xad032ea3	-7.456843e-12
187	0xa47440c6	-5.296393e-17
188	0x204d2fed	1.7380033e-19
189	0xae07fb6c	-3.0918754e-11
190	0xae06f7bc	-3.0688105e-11
191	0xb07621b0	-8.954215e-10
192	0xae02ba83	-2.9724233e-11
193	0xad191ef3	-8.703915e-12
194	0xab463ee0	-7.043099e-13
195	0xae08798e	-3.1030782e-11
196	0xab8a5587	-9.829228e-13
197	0xae06e534	-3.0671646e-11
198	0xae064ff7	-3.0539096e-11
199	0xae0753fb	-3.0770036e-11
200	0xaed0fabe	-9.503286e-11
201	0xa2bacdc5	-5.063327e-18
202	0xae086b45	-3.1018094e-11
203	0x32810dfd	1.5023938e-08
204	0xa84802da	-1.1102849e-14
205	0xb2abc1a5	-1.999508e-08
206	0xab1ce5b6	-5.574112e-13
207	0xacffb9d2	-7.268166e-12
208	0xa119c0d3	-5.2093617e-19
209	0x333d664e	4.4098037e-08
210	0x359e25e0	1.178294e-06
211	0x263f51d7	6.637735e-16
212	0x1e08ce54	7.242448e-21
213	0xae07b088	-3.0852237e-11
214	0xac0eb6c6	-2.0280873e-12
215	0xad0d8084	-8.043458e-12
216	0x225f9152	3.0299067e-18
217	0x33a2577a	7.559625e-08
218	0xa813dba3	-8.207765e-15
219	0xad05b7c2	-7.600977e-12
220	0x2a8bbd87	2.482287e-13
221	0x36be9f2a	5.6809704e-06
222	0x219e7723	1.0738032e-18
223	0xa322a365	-8.816638e-18
224	0xae08047b	-3.09268e-11
225	0x26dc7a17	1.5298659e-15
226	0xa02071ac	-1.3590138e-19
227	0xae078d74	-3.0821082e-11
228	0xa211e2e0	-1.977127e-18
229	0xad1999ba	-8.731177e-12
230	0xab2d6b74	-6.161107e-13
231	0xae050bb4	-3.0251093e-11
232	0xad061a6e	-7.622887e-12
233	0xad3b4b9f	-1.0646511e-11
234	0xad045e01	-7.524204e-12
235	0xb22c4e19	-1.0029475e-08
236	0x29208ba2	3.564825e-14
237	0x2f43941b	1.7787764e-10
238	0xaabfdbb5	-3.4080868e-13
239	0xab65fcaa	-8.1707785e-13
240	0x2d40a3a2	1.095027e-11
241	0xae95bad5	-6.8089236e-11
242	0xac756b17	-3.487604e-12
243	0xac5738fd	-3.0584972e-12
244	0xb044331b	-7.137701e-10
245	0xaca31b6a	-4.635782e-12
246	0xadb464f2	-2.050846e-11
247	0x373cceb4	1.12538e-05
248	0xb623f63c	-2.443222e-06
249	0xaeef9cbe	-1.0896305e-10
250	0xaf339e6d	-1.6336239e-10
251	0xac3912c0	-2.630049e-12
252	0xaf5841d3	-1.9668471e-10
253	0xadb05f04	-2.0051079e-11
254	0xac62b31b	-3.2215955e-12
255	0xaf14ab82	-1.3521453e-10

bias f4 [60]
0	0xb22aba9b	-9.9377315e-09
1	0x3c7b8028	0.015350379
2	0x30a1f844	1.1784853e-09
3	0x2db49a5e	2.0532184e-11
4	0x2dadb42d	1.9747837e-11
5	0x3c561768	0.013067104
6	0xb2318ca2	-1.0334732e-08
7	0x362cb469	2.573501e-06
8	0x3c501a22	0.012701543
9	0x2d9fe602	1.8178351e-11
10	0xad8cd2aa	-1.6009711e-11
11	0x3c49c206	0.012314325
12	0x2bd016ee	1.4785653e-12
13	0xb9582eef	-0.0002061685
14	0xb8717bf1	-5.7574307e-05
15	0x3c587f78	0.013213985
16	0x3882062e	6.200034e-05
17	0xb125db3c	-2.413528e-09
18	0x3c73a8f5	0.014871825
19	0x3c73d133	0.01488142
20	0x3c6c0505	0.014405494
21	0x3c6823c4	0.014168683
22	0x3c5ec1bb	0.013595994
23	0x3c59b1af	0.013286992
24	0x31506bc3	3.032924e-09
25	0x39212082	0.00015366267
26	0x3c5b2bda	0.013377154
27	0x3c717b79	0.014738911
28	0x3c6897a8	0.014196314
29	0x3c7c85e5	0.015412782
30	0x3c6d5b5a	0.014487112
31	0x3c690ab4	0.014223743
32	0x3c6776d0	0.014127448
33	0x3c70328d	0.01466049
34	0x3c70357c	0.014661189
35	0xafbafaf5	-3.4011519e-10
36	0x3c7cd289	0.015431055
37	0x3c77cc54	0.015124399
38	0x3c7bfab7	0.015379599
39	0x3112b8a8	2.1350761e-09
40	0x3c5f5db5	0.013633181
41	0x3c6368ae	0.013879938
42	0x3650ebf1	3.1131751e-06
43	0x3c5ababb	0.013350184
44	0x3c75de87	0.015006668
45	0x3c72d1c3	0.014820519
46	0x3c6045e8	0.013688542
47	0x3c608296	0.013703009
48	0x3c7a03d6	0.015259704
49	0x3c6934ee	0.014233811
50	0x3c774479	0.015092009
51	0x3c794040	0.015213072
52	0x30454fa8	7.178138e-10
53	0x3c5d9a13	0.013525504
54	0x3c7949c1	0.015215338
55	0x3c715c2b	0.014731447
56	0x3c793c9a	0.015212202
57	0xad45c2f3	-1.1241441e-11
58	0x3c7f2965	0.015573834
59	0x3c5fda24	0.013662849
