Total_RCS/epoch_1000_batch_100_lr_1e-4_wd_0_99/torch_model_5_GELU.pth (torch, 95029 bytes, 15 tensors)

weight f4 [60, 3]
000000 4d 57 db 3d e9 4f bd 3e d7 b4 a1 3d 64 d7 d5 be
       0.10710011 0.3697503 0.078958206 -0.41765893
000010 91 ef 9f bf 9c f1 71 bf 41 a2 ae bf 70 a2 80 bf
       -1.2494985 -0.9450929 -1.3643266 -1.0049572
000020 1a c5 e5 3d 66 89 45 be 0a ba 8a 3e d5 97 95 bd
       0.11219235 -0.19290695 0.27095062 -0.0730435
000030 8c 44 d8 3f 2d 10 b8 bb 97 c0 0a 3e 8a f2 2c bf
       1.6895919 -0.0056171627 0.1355003 -0.67557585
000040 b5 1b d7 bd 83 90 05 bf 25 83 4e 3e 52 f9 8a be
       -0.105033316 -0.5217363 0.20167215 -0.2714334
000050 e5 08 e0 3d 8d 51 8d 3e db 81 02 bf dd 97 45 3e
       0.109391965 0.2760128 -0.50979394 0.19296212
000060 9a 67 03 bf 18 8e 0b bf b7 79 ff be b8 39 58 3c
       -0.5132996 -0.5451369 -0.4989755 0.013197355
000070 0f 61 f9 bd e3 5c b3 bf ba 7f bc bd 90 70 32 bc
       -0.121767156 -1.4012722 -0.092040494 -0.010891095
000080 a2 a2 8c ba cf 68 b6 be e0 21 72 3e 50 55 85 3e
       -0.0010729621 -0.35626838 0.23645735 0.2604165
000090 d7 06 fd be b2 93 45 bf 88 9d cd be b5 16 7c bf
       -0.4941928 -0.7717849 -0.4015925 -0.9847215
0000a0 2b 63 34 be 70 72 e6 bc f9 38 e1 be f5 7e 46 3e
       -0.17615955 -0.02813074 -0.4398878 0.19384368
0000b0 0b e2 90 bf 29 9b 63 be 16 a6 3d 3f 61 ae a0 3e
       -1.1318983 -0.22227158 0.7408155 0.3138304
0000c0 b6 12 7f 3e 63 fd 23 bd a8 02 23 be 4a 2c 33 bf
       0.24909481 -0.04003657 -0.15918982 -0.69989455
0000d0 61 48 16 3f a1 d5 9c 3e 41 a7 f2 be 3d d0 17 bf
       0.5870419 0.30631736 -0.4739323 -0.5930212
0000e0 61 37 e7 be fd 14 18 bf e0 a0 68 be c8 78 93 be
       -0.45159438 -0.59407026 -0.22717619 -0.28803086
0000f0 50 5e ee 3c 56 24 81 bf 77 73 c0 bf 34 0e 81 3e
       0.029097706 -1.0089214 -1.5035237 0.2520615
000100 31 23 58 3f 98 51 e2 3d 61 93 8a bd 13 3f 18 3e
       0.844287 0.11050719 -0.067663915 0.14867811
000110 40 d4 71 bb 85 ea 42 3e d3 8a 0b bd 1b 37 39 bc
       -0.0036900192 0.19034775 -0.03406794 -0.011304642
000120 99 e8 0d be ab 86 d5 3e d3 df 3a 3e c7 84 1b be
       -0.1385826 0.41704306 0.18249445 -0.1518737
000130 d7 ce 43 bf d5 e0 87 bf a7 1e 5a 3e b9 e1 72 be
       -0.7648749 -1.0615488 0.21300755 -0.23718919
000140 7f 44 e2 3c 8d 50 46 37 e7 2f 47 3a e9 f3 92 39
       0.027620552 1.1820474e-05 0.00075983856 0.00028029017
000150 60 4d b4 bd 3c 2f 8c be 6e 99 ed bf de 18 99 bd
       -0.088038206 -0.27379787 -1.8562448 -0.07475446
000160 b4 58 15 be 09 6c 6b 3d 62 8b c5 be 3b 6e cd 3e
       -0.14584619 0.057476077 -0.38582903 0.40123162
000170 2d c1 bf 3e 85 e6 52 bf 38 a5 6b 3f 95 aa 4f 3d
       0.3745207 -0.82382995 0.9204898 0.05069979
000180 29 1f 19 3e 31 59 b2 3c c6 80 01 3e 54 3b 0e bf
       0.14953293 0.021771045 0.1264678 -0.5555928
000190 38 ca 0d 3f 83 d4 87 3e e4 09 a5 3e c4 9b 40 bf
       0.55386686 0.2652932 0.32234108 -0.7523768
0001a0 ec 40 89 bf 21 ae 79 bb 8a 4f 16 bf 57 27 37 bf
       -1.0722938 -0.0038098174 -0.58715117 -0.715444
0001b0 c2 ce 1c bf f4 ea ab 3f cc 9d db be a2 38 98 3d
       -0.6125299 1.3431077 -0.42893827 0.07432677
0001c0 ab fe 0a bd ee 76 21 3d cf 27 4c be 6f 3d ef 3e
       -0.033934277 0.03942006 -0.19937061 0.46726558
0001d0 e2 54 bd bf f9 91 92 be d8 d4 41 3f 47 3a ec 3e
       -1.4791529 -0.28626993 0.757154 0.46138212
0001e0 10 82 6f bf f2 04 16 bf 9d 76 28 bd d6 8b 91 3d
       -0.93557835 -0.58601296 -0.041128743 0.0710675
0001f0 36 3d bd bc 44 cc b4 bc 9c fb c0 be 4f e8 94 3e
       -0.023100477 -0.022070058 -0.37691963 0.29083487
000200 56 68 97 3e 52 25 b9 bd e6 7c ff 3e 75 03 61 3e
       0.2957179 -0.090403214 0.49899977 0.21973975
000210 20 7b ec bb 18 e9 a7 3e f8 e8 33 3e f9 3b 04 3f
       -0.007216826 0.32795024 0.1756934 0.5165401
000220 20 f9 09 bf b0 b3 20 be ff 71 02 bf be 4b 8f 3e
       -0.5389576 -0.15693545 -0.50955194 0.27987474
000230 78 3a ae 3e fd 9a 1b 3e 4e 17 36 3f 6e 01 30 3e
       0.34028983 0.15195842 0.7112931 0.17188045
000240 09 40 19 3d b9 26 af be 08 de b3 bf 0c 8c 3b bf
       0.037414584 -0.3420923 -1.4052134 -0.7326057
000250 bb 01 14 be ea 9b c2 be 95 af 27 3e 83 44 a4 bf
       -0.14453785 -0.38009578 0.16375573 -1.2833408
000260 62 45 b2 3f 13 e1 c4 be 6f cb 7e bc 62 37 a3 be
       1.3927424 -0.38452968 -0.015551432 -0.3187819
000270 39 b5 36 be 2e 2e 6e 3e 4a 5c 74 bf b1 c2 87 bf
       -0.17842568 0.23259804 -0.9545332 -1.060629
000280 e7 41 e7 be f7 23 46 be 9d 95 67 bf a3 17 4b 3e
       -0.45167467 -0.19349657 -0.90462667 0.19833235
000290 63 d3 8f be b4 20 19 3d f6 94 1d bd 5a 31 20 3e
       -0.28090963 0.037384704 -0.03847214 0.15643826
0002a0 97 fc d5 3e f8 25 a1 bf 17 5a 64 bf de 69 32 bf
       0.41794273 -1.2589712 -0.89199966 -0.6969279
0002b0 db 61 95 be 17 3b 6f be e7 43 fd be 73 46 fb be
       -0.2917622 -0.23362385 -0.49465868 -0.49077186
0002c0 33 06 ab 3e d7 e3 a2 3f 52 a1 13 3e 89 c1 1e bf
       0.33403167 1.2725781 0.14417008 -0.6201406

bias f4 [60]
000000 bc da 1b 3f 2a 46 47 be 90 c3 f8 be fc a7 40 3f
       0.6088064 -0.19460359 -0.48586702 0.75256324
000010 6b 4b 21 3f e8 d9 e5 be 7d 50 6c bc 6e b1 08 3e
       0.63005704 -0.44892812 -0.014423487 0.13348934
000020 b0 58 d1 be 66 ae c5 be 51 99 f4 bd a7 8c 5a 3f
       -0.40887976 -0.38609618 -0.11943305 0.8537087
000030 56 e4 0f be b3 7b c4 3e b9 55 34 bf 8d b7 79 3f
       -0.14051947 0.38375625 -0.704433 0.975457
000040 de 03 57 3e c5 c5 98 3e 18 8b 82 bd 5f 61 2e be
       0.20997569 0.29838386 -0.06374186 -0.17029332
000050 48 fc a2 be af 95 a2 3f 4f e3 71 3f 37 18 92 bd
       -0.318331 1.270193 0.9448747 -0.07133525
000060 86 ed 10 3f db af 65 be 7e ba ca bb c9 34 cf 39
       0.5661243 -0.22430365 -0.0061867824 0.00039521445
000070 79 65 29 bf 28 4a 5c 3e fa bf 32 3f aa 47 0a 3f
       -0.6617046 0.21512663 0.69824183 0.540156
000080 f2 be 9b bd de 3f f1 3e d4 0e 8a bc b2 d4 2a be
       -0.07604779 0.4711904 -0.016852774 -0.166827
000090 60 09 29 bf df f8 ae bd 92 cf 13 bf 74 c1 89 3f
       -0.6602993 -0.08543562 -0.577386 1.0762162
0000a0 64 0b 92 be 0d 4b 5d bd ee 03 15 3f 0d 04 5c 3f
       -0.28524315 -0.054026652 0.5820912 0.8594368
0000b0 70 d9 8f 3f d8 35 7a 3f 0e 2f 99 3e 61 81 77 3f
       1.1238232 0.9773841 0.29918712 0.9668179
0000c0 30 f3 b7 be 21 f5 01 bf 55 7e 83 3e 76 c0 84 be
       -0.35927725 -0.5076466 0.2568232 -0.25928086
0000d0 aa 80 c4 be 80 82 09 bf 64 53 ae 3e 37 04 18 be
       -0.38379413 -0.5371475 0.34047997 -0.14845358
0000e0 d7 78 8b 3e 0e cd 54 be 66 65 7c 3f a4 fc 30 3e
       0.2724063 -0.20781347 0.9859222 0.17283875

weight f4 [60, 60]
000000 ed da 52 be a3 f2 b1 3e db 33 82 3e 3f 62 1d be
       -0.20591326 0.3475543 0.25430188 -0.15369509
000010 60 80 d5 3d 66 60 a5 3e e0 af ca 3d 60 cb c1 3d
       0.10424876 0.3230011 0.09896827 0.09462619
000020 5f b7 b0 3e e4 e9 00 3f 4a e3 0c 3d 2c 79 83 be
       0.345149 0.5035689 0.034396447 -0.25678384
000030 18 b6 94 3e e9 18 8a bb 2e d4 75 3e aa 6c db be
       0.29045177 -0.0042143953 0.24006721 -0.42856342
000040 7d b7 99 3c db 92 a2 be 1d c4 92 3e f9 20 1d 3e
       0.018764252 -0.31752667 0.28665248 0.1534461
000050 00 c5 06 3f 91 26 f0 be d6 eb 35 be 43 33 3b 3d
       0.5264435 -0.46904424 -0.17765746 0.045703184
000060 fd e4 86 be 1b 56 b4 3e f6 73 b0 3d c0 52 4a ba
       -0.2634658 0.35221943 0.08615868 -0.0007718019
000070 71 23 07 3f cf f0 ab 3c de 9f 9b be ad a2 5e be
       0.52788454 0.02098885 -0.30395406 -0.21741743
000080 60 20 fd bb af d0 68 be 1a f0 d0 3e cd fd c6 3e
       -0.0077248067 -0.22735856 0.40808183 0.3886551
000090 0d 1d 8a 3c e2 ba 37 3d 4c 38 eb 3e b0 af 04 bf
       0.016859556 0.04485596 0.4594139 -0.5183058
0000a0 64 a8 2c 3e 56 77 e3 3c 32 d9 6b be bb 6a b2 be
       0.16861111 0.027766865 -0.23032072 -0.34847054
0000b0 83 43 a7 be 6a 97 f5 bd b5 13 3f be 1b 87 d7 be
       -0.32668695 -0.119917706 -0.18659861 -0.42095265
0000c0 87 3b 00 3f 69 a2 11 3e b0 9c c8 3e b4 13 03 3e
       0.5009083 0.14222111 0.39182043 0.12800485
0000d0 a0 e0 77 3e da 00 4c 3e a4 81 10 3c 29 d5 e8 3d
       0.24206781 0.199222 0.008819971 0.11368782
0000e0 cf a1 b4 3e c5 bd 75 3e 1f 80 11 bd 04 ef 40 3e
       0.352797 0.23998173 -0.035522576 0.18841177
0000f0 3e e5 fd 39 60 71 1d 3d 32 40 41 3e 03 f3 46 3d
       0.0004842672 0.0384382 0.18872145 0.048571598
000100 ae 3b 54 bd 61 cf 04 3e 8a fc 0d bd 9f bc 8d bd
       -0.051814727 0.12969734 -0.03466467 -0.06920742
000110 33 dd bc 3d 05 6c bf 3d 54 31 43 3c c9 76 58 3d
       0.09221878 0.09346775 0.011913616 0.052847657
000120 86 18 8a 3d 70 dc 19 3e cd 23 04 3e 61 fe 76 3d
       0.06742959 0.15025496 0.12904282 0.06030119
000130 25 da 2e bd df 03 e5 3d ba cd aa 3d 81 24 dc 3d
       -0.042688508 0.11182379 0.083400205 0.1074915
000140 1a 8d 37 3d 12 54 a4 bc 6d b5 1f bc a9 a9 55 bc
       0.0448123 -0.02005962 -0.009747845 -0.013040938
000150 4f d1 14 3d e0 80 56 3d f3 c8 18 bd 01 ca 1a 39
       0.036332425 0.052369 -0.037301015 0.00014761837
000160 ad 15 1a 3e 25 3c 43 bc 89 5e 8c 3d bf 2a 46 3e
       0.15047331 -0.011916195 0.06853969 0.19352244
000170 b0 c8 83 3a c4 25 d1 3d c5 d7 56 bd fb 47 d4 ba
       0.0010054316 0.10212281 -0.052451868 -0.0016195768
000180 40 78 21 3d 30 5d 91 bb b0 e8 e7 3d df a2 8c 3d
       0.03942132 -0.0044361576 0.113236785 0.06867003
000190 01 c7 06 3e 5c a0 c2 bb d7 cd 7f 3d 4d a1 b7 3c
       0.13161851 -0.0059395265 0.062452164 0.022415781
0001a0 b8 bd e7 bc ba f7 65 be 8c cb a0 3d 11 31 77 3b
       -0.028288707 -0.22457781 0.078513235 0.0037718455
0001b0 15 d0 bd 3d 9d a1 ee 3d 9a 10 8a bd a9 fe 97 3d
       0.09268204 0.11651919 -0.06741448 0.074216194
0001c0 e3 a1 aa 3d f7 d6 27 3e d2 81 45 3e c0 4f a3 3b
       0.08331659 0.16390596 0.19287804 0.004983872
0001d0 26 e7 69 be 75 59 f1 3d 5d 84 8b bc b4 b3 8c bc
       -0.22842082 0.11784641 -0.01703089 -0.017175533
0001e0 d9 a5 da 3d 13 26 be be 84 0f 8e bc 2d ae a1 3d
       0.10676164 -0.37138423 -0.017341383 0.078945495
0001f0 2b a7 50 3e c7 91 eb bd 57 94 be bc f2 d6 24 bd
       0.2037627 -0.11502414 -0.023264093 -0.04024405
000200 75 9d f7 bd 03 d3 66 be 13 42 31 bb 1a b2 ec 3d
       -0.120905794 -0.22541432 -0.002704744 0.11557408
000210 21 5d 1b be 0a 43 3d bc cc 24 05 be 57 bc 5f 3e
       -0.15172245 -0.011551628 -0.13002318 0.2184919
000220 3f d9 c5 3c b5 68 2b 3e c5 df 38 be 86 15 d7 bd
       0.024151443 0.16739161 -0.18054111 -0.10502152
000230 8a 22 ea be 1a 82 90 3e 45 9a 80 3d 80 a2 49 3c
       -0.45729476 0.2822426 0.062794246 0.012306809
000240 1c d1 f5 3d e9 03 97 be 4a 1e 3a bc e8 c4 32 b9
       0.12002775 -0.2949517 -0.011359761 -0.00017048756
000250 4e 34 d0 be bb 18 a2 bc 92 26 1a 3e 3e 71 33 3e
       -0.40664905 -0.019787183 0.15053776 0.17523667
000260 76 6a b0 3b 2e 2c 27 3e 72 55 28 be de 56 07 be
       0.005383785 0.16325447 -0.16438845 -0.13216731
000270 eb df c9 3d 69 bd 31 ba 57 1e 1b be 7b 56 88 3e
       0.09857162 -0.00067802385 -0.15148292 0.2662848
000280 99 5c a9 bc 00 52 ab 3a e7 3d eb 3d 3a d9 1e 3e
       -0.020674037 0.0013070703 0.11486416 0.15512553
000290 da 85 16 3e 05 06 85 3b e9 5f de 3d 7e 58 5a 3e
       0.14699498 0.0040595555 0.10858137 0.2132282
0002a0 6a 7d 89 be 48 16 70 bd e3 e2 f0 bd fb de a0 bd
       -0.26853496 -0.058615 -0.11762025 -0.0785503
0002b0 c9 e5 bb bd 4b f4 3b bc c7 de 44 bd 56 1e d0 bb
       -0.091746874 -0.011471818 -0.04806402 -0.0063512726
0002c0 ca d3 07 be 6b 5e a3 bd 3d 8d 86 bc ba 1d 2e 3e
       -0.13264385 -0.07976993 -0.01642477 0.17003527
0002d0 dd a6 42 b6 19 18 be b8 0b 0e 46 b9 1b f3 d2 38
       -2.900538e-06 -9.0643945e-05 -0.00018887983 0.00010058862
0002e0 43 e8 59 b9 61 33 81 37 fb 18 60 b8 57 79 25 b8
       -0.00020781257 1.5401924e-05 -5.3429027e-05 -3.9452072e-05
0002f0 dc 16 6b b7 2b fd 8f 39 15 8e 22 38 29 1f 42 38
       -1.4012414e-05 0.0002746371 3.8756134e-05 4.6282225e-05
000300 b8 95 79 b8 ce b8 88 38 f2 1a 1a 38 02 a0 45 38
       -5.9505663e-05 6.519408e-05 3.6741556e-05 4.711748e-05
000310 0a a2 e7 b7 63 c3 cd b7 82 ce 8e b7 98 c3 82 37
       -2.7612801e-05 -2.4528888e-05 -1.7023882e-05 1.5588288e-05
000320 67 7c f8 38 d7 5b 81 36 5b e9 52 38 a9 4d 05 b8
       0.00011848733 3.855191e-06 5.028523e-05 -3.1781998e-05
000330 c6 df 86 37 ce b7 e9 37 b8 74 92 b8 e2 8f d6 34
       1.6078247e-05 2.7861355e-05 -6.983563e-05 3.9965295e-07
000340 f1 37 a1 39 98 7f 72 b7 5d 86 c5 37 b9 06 21 39
       0.00030749993 -1.4454032e-05 2.3546798e-05 0.00015356661
000350 7b 54 a2 b7 d4 0e e4 37 c9 31 92 b8 b9 2d 9b b8
       -1.9351244e-05 2.7186623e-05 -6.971096e-05 -7.3994925e-05
000360 3c d7 93 b9 04 3c eb b7 da 56 04 39 75 b2 59 38
       -0.00028198387 -2.804213e-05 0.00012620856 5.1903033e-05
000370 c0 d0 c2 b8 f2 6d f8 b7 72 9a d5 37 42 4c cc 37
       -9.2895236e-05 -2.9615101e-05 2.5463498e-05 2.4354205e-05
000380 cb df cb 37 a0 e3 a3 b8 de 3f 8a b7 f8 6b da b7
       2.4303698e-05 -7.814844e-05 -1.6480622e-05 -2.6037902e-05
000390 a8 38 96 39 35 32 dc b7 d2 7f 39 38 62 48 e0 37
       0.00028652442 -2.6249423e-05 4.422648e-05 2.6736587e-05
0003a0 f7 c2 dc 38 78 6e e5 b8 6f 0e cb 38 84 38 a1 b7
       0.000105267325 -0.00010940147 9.682483e-05 -1.9219013e-05
0003b0 78 af 0d ba d7 0d b8 b6 ec c2 06 38 82 7c b7 b7
       -0.000540487 -5.4852385e-06 3.2129625e-05 -2.1873278e-05
0003c0 1b c6 6c 3d 7e 3f 62 be 98 a5 47 bd f3 0f 11 3e
       0.057806116 -0.22094533 -0.048741907 0.1416624
0003d0 8f 6e 2d be 2d 5c 29 bd 69 dd e2 bd 29 07 04 be
       -0.16936706 -0.04134767 -0.11077387 -0.12893356
0003e0 73 7b 30 be bc 6f 0b be 8f e5 2d 3c ea 11 22 3e
       -0.17234592 -0.13616842 0.010613813 0.15827146
0003f0 cb 40 c4 bd e9 92 04 3e 45 c8 27 be 7e 11 2b 3e
       -0.09582671 0.12946667 -0.1638499 0.16705891

bias f4 [60]
000000 70 cf 37 be 4d a8 66 bd f6 e5 a2 3d d5 86 e7 37
       -0.17950225 -0.056312848 0.07954018 2.7600132e-05
000010 6a 12 4b 3e b2 f4 ee 3d c6 af 76 bd 14 0b 9d 3c
       0.19831243 0.11667766 -0.060226224 0.019170322
000020 a1 1a 77 3d 3a 36 d5 b9 27 69 cb 3e 5a 75 c5 bc
       0.06032813 -0.00040666928 0.39728662 -0.02410381
000030 2b d9 51 3e 59 f7 bc 3e c2 24 8e 3e d7 db 53 3c
       0.20493 0.3690746 0.2776242 0.012930832
000040 db 7d 21 3d 6e 61 f1 bb 59 bf ed bd 82 d7 6f b9
       0.039426666 -0.007366351 -0.11608762 -0.00022873099
000050 68 45 9d b9 de 76 3c 3d ca 08 71 b8 c6 36 e3 bd
       -0.00029997085 0.046011798 -5.7467063e-05 -0.110944316
000060 1f bb b2 bb fd 3d 07 be cb 5f 8f 3d c3 80 fc b9
       -0.0054544355 -0.1320724 0.07000693 -0.0004816112
000070 c9 ad 71 3e 46 5f 01 ba aa 28 e1 bd 16 54 04 3e
       0.2360145 -0.00049351563 -0.10994084 0.12922701
000080 34 65 11 be 53 9c 01 3f c1 14 5b bc 61 34 aa b9
       -0.14198762 0.50629157 -0.013371647 -0.00032463952
000090 5a 79 3c b9 a1 28 ba bc 34 cd f3 39 19 11 2c 38
       -0.00017974284 -0.022724451 0.0004650146 4.102392e-05
0000a0 5c ec 2a 3a a7 00 39 3e e8 c2 8a 39 f2 09 7e b8
       0.00065202056 0.18066655 0.00026466628 -6.056758e-05
0000b0 32 22 d4 3d ed c5 72 3e b1 e3 cf 39 91 d2 c8 b7
       0.10358085 0.23708315 0.0003965176 -2.393991e-05
0000c0 78 89 71 b9 3c ef 5d 3e 4e b3 29 be e3 ef 12 ba
       -0.00023034762 0.21673292 -0.16572306 -0.0005605204
0000d0 b4 af 03 ba 1f 7f 00 38 34 24 2e 3d cd 2c 42 3e
       -0.0005023435 3.063597e-05 0.042514995 0.18962403
0000e0 a3 a2 a6 bc 67 d8 4c 3e c4 f3 20 38 e0 c8 03 3f
       -0.020341223 0.20004426 3.8373997e-05 0.51478386

weight f4 [60, 60]
000000 94 18 da bb 97 70 0d bd 9d ef 57 3b 6e e7 4a 39
       -0.006655762 -0.034531202 0.0032949217 0.00019350435
000010 2c c4 de bb a3 1f 25 bd fe 4b 45 bc 7a 81 2e 3b
       -0.006798288 -0.040313374 -0.012042044 0.0026627467
000020 f4 b4 dc bc c3 0e 68 3a 5d e8 a1 bc 32 4f 0b 3b
       -0.026941754 0.00088522973 -0.01976412 0.002125692
000030 bb b4 8a bc 8a 72 93 bc 14 1b b5 bc 42 8b e5 3a
       -0.016931882 -0.017998952 -0.022107638 0.0017512816
000040 c3 93 1b 3b f3 f5 23 bd 87 ba 0a bc 65 01 3e 39
       0.0023739196 -0.040029477 -0.008467323 0.00018120332
000050 61 b5 01 3a c1 86 2c 3b f4 2c 59 b9 44 ab 37 3c
       0.0004947987 0.0026325437 -0.00020711479 0.0112102665
000060 3d 60 9c ba c1 b0 9d 3b 9c 43 44 bc 4c 40 b8 3a
       -0.0011930537 0.0048123305 -0.01197901 0.0014057248
000070 5d 9c dc bb b1 05 c9 3a 32 39 8c bc e7 bb 19 3c
       -0.006732507 0.0015336779 -0.017117117 0.009383178
000080 47 ef 46 bc 60 60 a5 bc e0 89 b4 bb 81 0b 0a 3a
       -0.012142009 -0.020187557 -0.0055096 0.00052659964
000090 9d 04 94 b9 2c 17 3d 3b 53 8f b9 ba 3d 7a 97 b9
       -0.00028232197 0.0028852923 -0.0014157094 -0.0002889204
0000a0 ae 21 cb ba 4d a6 a0 bc 7c 44 70 39 87 cc 95 39
       -0.0015497708 -0.019610548 0.00022913696 0.0002857188
0000b0 b5 42 80 bc ba 39 44 bc 23 64 98 ba 23 15 f2 b7
       -0.015656808 -0.011976654 -0.0011626523 -2.885849e-05
0000c0 5a 27 bf 39 bc 59 b4 bc 5b 6c f5 bc 57 c8 03 3b
       0.00036459678 -0.022015445 -0.029958894 0.0020108426
0000d0 31 5e 07 3b 06 7f 99 38 e9 44 8c 3a d3 c3 97 bc
       0.0020655508 7.3192685e-05 0.0010701689 -0.018525993
0000e0 ff 1a a3 3b 90 37 a6 bc 43 a3 83 39 38 cb 4e bd
       0.0049775834 -0.020290166 0.00025107907 -0.050486773
0000f0 0f c2 3f bd 07 43 f3 3c 18 96 06 bd 27 2f 10 39
       -0.046815928 0.029695047 -0.032857984 0.00013750476
000100 05 0d 0d bd 2d 17 8a 3d 77 25 93 bc 74 91 8a 38
       -0.034436245 0.06742702 -0.0179622 6.6074455e-05
000110 81 01 a2 bb db d1 4b 39 53 30 d8 3c 5a a7 c8 ba
       -0.004944027 0.00019437766 0.02639023 -0.0015308664
000120 8b 65 dd 3c f7 b8 b0 bd 8f 87 97 bc b8 03 cf 39
       0.027025959 -0.08629029 -0.018497257 0.00039484887
000130 26 9a 9c bb e5 65 86 3b ee d5 f5 bc 15 83 7d b8
       -0.004779118 0.0041015022 -0.030009236 -6.044198e-05
000140 40 02 84 38 b7 fb aa ba 3d 58 b5 b9 6c 63 a2 bd
       6.2946696e-05 -0.0013044988 -0.00034588753 -0.079291195
000150 56 bb 4f bc 11 8d a7 ba fd 28 7d 3c 88 e3 d6 39
       -0.012678942 -0.001278313 0.015451667 0.00040986785
000160 01 be f8 3c 94 4b eb 39 35 92 98 3c ea 17 42 bd
       0.030364038 0.00044879003 0.018624404 -0.047386087
000170 42 f0 97 3a 6a 0a 23 be 30 95 9f 3c 85 72 10 37
       0.0011591988 -0.15921941 0.019480318 8.6097325e-06
000180 e5 4c d6 b9 f8 6a c5 ba c1 0b 12 ba 23 04 34 b9
       -0.00040874552 -0.0015061786 -0.00055712095 -0.00017167679
000190 a5 fc 95 b9 2c 62 b4 3c a2 48 90 b9 ea 4e 2d 39
       -0.0002860773 0.022019468 -0.00027519936 0.00016527963
0001a0 9a a6 72 3d 03 6d d4 bd 5e 1e 1d ba 9e fd 33 39
       0.059240915 -0.10372355 -0.00059936 0.0001716525
0001b0 07 32 14 38 91 81 ff 3c 4a b3 c7 bd 8e 11 54 3a
       3.533254e-05 0.031189712 -0.097509935 0.0008089774
0001c0 93 f1 4d 3a f3 19 1f 38 8c cd 2c 3c 90 2f 06 bd
       0.0007856127 3.793272e-05 0.010547053 -0.032760203
0001d0 15 53 b0 3a 6b ce fd bc f5 67 1b 39 b4 a1 be 3c
       0.0013452495 -0.030982217 0.00014820679 0.023270465
0001e0 63 c5 84 b9 76 8f 51 ba 86 6f 78 3a 01 dd 38 35
       -0.00025324067 -0.00079940946 0.00094770675 6.8866945e-07
0001f0 2a 6b eb ba 0b cb b3 39 cf d9 05 3a c7 e2 29 39
       -0.0017961015 0.0003429282 0.00051060034 0.00016201577
000200 db f8 b4 b8 c3 02 dd b8 e0 a1 e2 b9 21 88 e6 38
       -8.629422e-05 -0.000105386156 -0.00043226685 0.000109926106
000210 f8 6c 83 3a c9 3d 6b b9 da 15 df b8 23 55 0e ba
       0.0010026982 -0.00022434363 -0.00010637539 -0.00054295565
000220 12 d5 4c 38 f0 9a 89 ba c7 17 e6 39 5b 20 e5 b7
       4.8835827e-05 -0.0010498445 0.00043886734 -2.7313994e-05
000230 7f d4 39 b8 12 fe 09 b8 6d 0c 04 36 d4 e5 af 39
       -4.430534e-05 -3.2899967e-05 1.9676766e-06 0.00033549836
000240 35 0a a8 3a 44 eb d7 38 c2 84 32 3a 2f bf 2e b9
       0.0012820425 0.000102958205 0.00068099436 -0.00016665155
000250 d4 66 c9 b9 f1 70 0a b9 b7 73 c0 3a 1a e2 ba b9
       -0.0003841432 -0.0001320278 0.0014682923 -0.00035645143
000260 0b 54 b9 b9 f0 aa 39 39 51 d9 bc ba a2 fe 71 b8
       -0.00035348567 0.00017706654 -0.0014408027 -5.7696023e-05
000270 4b 0b 14 b6 b6 86 05 39 d0 e8 52 39 e5 f3 05 36
       -2.2060292e-06 0.00012734052 0.0002011389 1.996051e-06
000280 b5 a9 5d 39 69 9b 0b 3a 7a 48 85 38 e2 25 b7 b6
       0.00021139423 0.0005325587 6.355434e-05 -5.458235e-06
000290 aa 05 7c 39 62 40 d5 3a 02 98 c1 38 a4 b6 1b 37
       0.00024034703 0.0016269798 9.231271e-05 9.281244e-06
0002a0 86 b1 2e b8 2f 6a a9 b8 11 ec 30 3a 78 41 5e b9
       -4.1650164e-05 -8.078326e-05 0.0006749044 -0.00021195959
0002b0 a7 dc 6a b9 25 1e 02 b7 4c ca 8a b9 88 23 9a ba
       -0.00022398178 -7.755622e-06 -0.00026472134 -0.0011759857
0002c0 cb 85 69 b9 c0 5e 28 b9 10 5b c4 b6 bd 22 78 3a
       -0.00022270453 -0.00016057026 -5.8518563e-06 0.00094656256
0002d0 f7 70 33 bf 11 5c fb ba e9 04 cc be 3f a0 2c 39
       -0.70094246 -0.0019177218 -0.39847496 0.00016462895
0002e0 c7 09 5f 3e 7f 3d 08 3d 88 6c 24 bb 8e fa 9d b9
       0.21781074 0.033261772 -0.0025089104 -0.0003013205
0002f0 b1 a0 97 bd 57 01 25 b9 7b 06 79 3d b8 bd 70 bd
       -0.07403696 -0.00015736125 0.060797196 -0.05877468
000300 ef e9 75 3e 00 f6 05 bf df 09 9d 3e ee 5f ce bc
       0.2401502 -0.5232849 0.30671594 -0.025192227
000310 cd e2 57 3d bd 07 0a be 8d 50 5b 3d eb 21 2a b8
       0.05270653 -0.13479514 0.053543616 -4.0562747e-05
000320 4f d9 a0 39 4a 62 13 3d 0d 03 0d 39 fc 5a d1 be
       0.00030679486 0.035982408 0.00013447944 -0.40889728
000330 99 85 ba 3d 7f ca 9c bd 70 87 b1 3d 6d cd fb b9
       0.09107513 -0.076558106 0.08668411 -0.00048027505
000340 a8 a2 59 3e fc 24 44 b9 56 5e 2c bd 4b 17 f1 bd
       0.21253455 -0.00018705794 -0.042082153 -0.11772021
000350 0f 08 99 bb 5e 5f 0b bf 22 01 6c be 6b a5 34 39
       -0.00467015 -0.54442394 -0.23047307 0.0001722776
000360 19 36 dc b8 a2 03 9b bd a1 67 35 39 3d c2 ab b9
       -0.00010500494 -0.07569052 0.0001730011 -0.0003276038
000370 6e b0 19 3a f6 b9 4f 3e 50 67 45 ba 14 ad 09 3a
       0.0005862777 0.20285782 -0.00075303484 0.0005251926
000380 ce bd 90 3d c7 42 88 be 81 57 36 39 fa f7 3e ba
       0.07067452 -0.26613447 0.0001738947 -0.0007284876
000390 52 6f 54 b9 31 18 68 3e 0a d8 79 be a7 09 b0 b9
       -0.00020259366 0.22665478 -0.24398819 -0.00033576527
0003a0 15 49 c7 b9 b9 a1 20 3a 98 4d 0f 3d 47 19 99 3e
       -0.00038010688 0.0006127614 0.03498611 0.29902098
0003b0 92 87 19 bd b1 5b 86 3e 78 c3 2d 3a 5a eb 0d 3d
       -0.037482806 0.2624183 0.00066285534 0.034648277
0003c0 17 ab 86 b8 40 b2 7c ba 31 4b 8d 3a c1 f0 9b b6
       -6.421486e-05 -0.00096395984 0.0010779855 -4.6473874e-06
0003d0 12 1a 9e ba b9 af 75 39 60 f8 a0 3a 0d 88 0c ba
       -0.0012062213 0.00023430483 0.0012281053 -0.00053608493
0003e0 01 1e 0d b9 18 d9 8f 38 74 19 24 b8 67 0b cb 38
       -0.00013457985 6.859208e-05 -3.9124352e-05 9.681918e-05
0003f0 93 1d 4c 3a 83 95 fc b9 25 bc f4 b9 94 10 3a 38
       0.00077863893 -0.0004817658 -0.00046679485 4.4361295e-05

bias f4 [60]
000000 c5 77 d6 bc 33 3f b6 3c 47 33 fb 39 55 06 77 3e
       -0.026180157 0.022246933 0.00047912655 0.24123509
000010 a8 84 11 3a 53 50 3a 3d 4b ad 08 bd 6f 74 17 3c
       0.00055510784 0.04548676 -0.03336839 0.0092440685
000020 0b a6 fd 39 9d dc 0a ba 13 11 e3 bc cf bd b4 b9
       0.00048379632 -0.0005297156 -0.027718103 -0.00034473694
000030 b7 e8 96 b9 93 a9 ea bc ab 60 68 bd b2 69 14 bc
       -0.00028783616 -0.028645312 -0.056732815 -0.009058403
000040 df c0 fd 39 c5 a7 b4 3d 02 07 2c 3d 2b d3 50 3d
       0.0004839962 0.08821062 0.04199887 0.050982635
000050 b0 ba fd 39 56 dd 12 bd fa 75 1d 3c cb 4a a6 3d
       0.00048395013 -0.035855614 0.009610647 0.081197344
000060 aa c8 c3 3d 50 17 a2 ba d3 a4 6e 3c 2e 72 23 3a
       0.09559758 -0.0012366567 0.014565664 0.00062349706
000070 3c 72 d0 bc 91 23 e9 3d 66 b1 fd 39 36 8f ee bd
       -0.025445096 0.11383737 0.00048388093 -0.11648409
000080 ce 8a fd 39 7d b4 6f 3e 92 7f 0b 3c c3 85 00 3a
       0.00048359338 0.23408695 0.008514302 0.00049027445
000090 2d c6 fa 39 c0 1b dc 3d 16 78 9c bd ea a0 0c 3d
       0.00047831368 0.107474804 -0.07640092 0.034333147
0000a0 15 32 87 bb 4b 92 97 ba 5d 0a 04 b9 88 2b d1 b9
       -0.0041258433 -0.0011563984 -0.00012592362 -0.0003989602
0000b0 20 e1 fe 39 52 a5 fd 39 a3 ec ab bc 93 cc fd 39
       0.00048614386 0.00048379094 -0.02098686 0.0004840834
0000c0 6a a9 00 bd de b6 08 be 35 c3 82 bd d4 af 52 3c
       -0.031411566 -0.13351008 -0.06384889 0.0128593035
0000d0 60 5a fc 3d ca 48 00 bd 1c 20 2c 3e 94 05 ff 39
       0.12321925 -0.031319417 0.16809124 0.00048641546
0000e0 a3 cf 4b bd c5 31 1a b9 80 f8 0d bc 30 53 fe bc
       -0.049758565 -0.00014705125 -0.008665204 -0.031045526

weight f4 [60, 60]
000000 1c e5 bf b9 4e 87 98 39 e1 7b 27 38 de 07 05 b9
       -0.0003660106 0.0002909251 3.9931274e-05 -0.00012686799
000010 e7 14 6c b8 16 c8 04 b9 27 f0 24 ba 86 e5 0e ba
       -5.628625e-05 -0.00012663039 -0.0006291889 -0.0005451072
000020 7d 2d 5b 38 96 ac a6 37 fb ba 35 ba 0c 90 25 b8
       5.2256033e-05 1.9869109e-05 -0.00069324643 -3.947322e-05
000030 bb 14 9e 38 7e b3 2d ba 94 1f 8c ba 39 6f 9e ba
       7.5378885e-05 -0.00066261727 -0.0010690563 -0.001208759
000040 2c b4 5a 38 9d 44 6e ba ff 30 4d ba 84 5c 06 ba
       5.214305e-05 -0.00090892037 -0.00078274304 -0.000512548
000050 f7 c8 5b 38 57 dc 1c ba 7b d3 8c b9 71 80 49 b9
       5.2400832e-05 -0.0005983761 -0.00026860446 -0.00019216702
000060 84 89 b9 b8 50 c2 66 b8 35 16 3d ba 11 7a 6a b8
       -8.847102e-05 -5.501724e-05 -0.0007213087 -5.590363e-05
000070 e3 2b b1 b9 ef c2 4b b8 49 80 5d 38 8f 06 2d b9
       -0.0003379277 -4.8580518e-05 5.280998e-05 -0.00016501009
000080 e9 2c 5b 38 6a 31 bd 39 21 cc 74 b9 cb 25 46 38
       5.2255495e-05 0.00036085706 -0.00023345697 4.7242076e-05
000090 14 32 5d b8 37 80 26 39 e0 51 7c 39 71 6a 5a b8
       -5.2737145e-05 0.00015878757 0.00024063094 -5.207438e-05
0000a0 ae c8 19 ba 39 b0 85 37 6b ec aa b7 a2 99 99 38
       -0.00058663904 1.5936896e-05 -2.037567e-05 7.324225e-05
0000b0 26 29 52 38 e2 88 5a 38 87 6f 2d b9 34 5f 56 38
       5.0106224e-05 5.2102732e-05 -0.00016540113 5.111024e-05
0000c0 cf 35 c3 b9 89 c0 7c b8 f8 48 53 ba 76 37 4b ba
       -0.0003723339 -6.0260794e-05 -0.00080598844 -0.00077521
0000d0 4f 31 fb 39 21 09 c3 b9 30 de f0 38 a3 ec 55 38
       0.00047911188 -0.000372001 0.000114854774 5.1003542e-05
0000e0 6d 81 9c b9 6b af b7 b8 90 67 46 ba 16 b1 0a ba
       -0.00029851068 -8.758794e-05 -0.00075685326 -0.000529067
0000f0 1e 98 6d bc 81 a4 3d 3d 79 c1 7c b8 5a bd 26 3e
       -0.0145016 0.04629946 -6.0261667e-05 0.1628317
000100 fe 55 78 36 ca ab b9 3e b3 3e dc bc 4c ed 0d be
       3.7004934e-06 0.36263877 -0.026885366 -0.13860053
000110 da da a5 b8 b9 3b 0d b9 6d a4 8f bd 26 a3 57 39
       -7.9085774e-05 -0.00013469056 -0.070137836 0.00020564775
000120 58 8d 1c b8 06 f1 28 bc 53 e2 3e bd fd 06 35 be
       -3.7324935e-05 -0.010311371 -0.04660256 -0.17678447
000130 92 06 a5 b8 07 f3 d2 3d 0d 36 42 3e 53 a8 93 bd
       -7.869037e-05 0.1030026 0.18965931 -0.0720984
000140 72 fb a6 b8 d2 e8 9f bc e8 25 39 be 6c 2a a8 3d
       -7.962332e-05 -0.019520197 -0.18080866 0.08211216
000150 37 34 f4 3d f4 27 52 b9 f5 4c 78 3c 84 ef 85 b7
       0.11924022 -0.00020042044 0.015155067 -1.5966369e-05
000160 53 5b a8 bd a2 af 70 3d b5 2c aa b8 e2 47 34 bd
       -0.08220544 0.058761247 -8.114559e-05 -0.044013865
000170 32 c2 a5 b8 b7 ed 55 3d d6 c4 18 3d ed 27 83 b8
       -7.903985e-05 0.052228656 0.037297092 -6.2540035e-05
000180 5e c8 89 38 d6 5a 89 3d 4e 7b 69 bd c4 18 6e 3e
       6.5699904e-05 0.06706779 -0.05700236 0.23251635
000190 1c 39 51 bd 8a b2 62 b9 d0 57 cb b7 7b 35 2d 39
       -0.051079854 -0.0002161955 -2.4240377e-05 0.00016518489
0001a0 bf f8 99 b8 fb ea a4 b8 ca 28 ba bd 1e 5d a0 b8
       -7.341941e-05 -7.863898e-05 -0.09089811 -7.646739e-05
0001b0 ff d2 ce bc dd 04 86 3e 30 6c 78 bd a5 e6 b5 bd
       -0.025247095 0.26175585 -0.06065005 -0.088818826
0001c0 38 c1 ec 3d 88 18 d1 bc e4 2b 83 3c dc e0 9c b8
       0.11560291 -0.025524393 0.01601214 -7.480543e-05
0001d0 9c a7 89 bd 3b 6a 22 39 bc d4 27 3a 54 a5 e5 bc
       -0.06721422 0.00015489098 0.00064022443 -0.028032936
0001e0 ee 9a 3c bc ac 3f e3 3c 43 4d 36 b8 1a 6c 09 3e
       -0.0115115475 0.027740322 -4.3464137e-05 0.13420144
0001f0 e4 37 74 37 6b 4c 88 3e fe b1 a5 bc ee 5c cf bd
       1.4556546e-05 0.26620802 -0.020226475 -0.10125147
000200 0d 87 3c b8 ca b7 d4 b8 8a 42 52 bd c5 48 f6 38
       -4.494847e-05 -0.00010143181 -0.051332988 0.000117437485
000210 ac 12 6a b8 55 a9 fe bb d2 7c 11 bd c2 46 08 be
       -5.5807337e-05 -0.007771651 -0.03551943 -0.13308242
000220 d1 e1 3c b8 2a 0b a2 3d 21 01 0c 3e ba 14 64 bd
       -4.5033e-05 0.079122856 0.13672306 -0.05568383
000230 89 7f 3d b8 56 97 6b bc 7a bb 05 be 93 d1 85 3d
       -4.5179888e-05 -0.014379343 -0.13059798 0.06534114
000240 2c 01 c1 3d f7 10 80 b9 9b 83 1a 3c d2 52 ef b7
       0.09424052 -0.00024426702 0.009430791 -2.8529586e-05
000250 fc b0 71 bd 86 f6 38 3d be a6 3c b8 5e 1a 17 bd
       -0.059006676 0.045156978 -4.4977984e-05 -0.03689038
000260 b7 19 3c b8 32 45 98 3d 4c d5 ce 3c f9 0e 31 b8
       -4.484664e-05 0.07435073 0.025248192 -4.2214033e-05
000270 01 52 2a 38 38 a0 ba 3d b0 26 28 bd 74 a1 31 3e
       4.060753e-05 0.091125906 -0.04105252 0.17346746
000280 dd c1 16 bd af 59 83 b9 c6 68 a8 b8 82 51 76 38
       -0.036805976 -0.00025053087 -8.03038e-05 5.872688e-05
000290 a6 07 3a b8 b2 19 3c b8 07 09 88 bd 55 c2 3b b8
       -4.435298e-05 -4.4846623e-05 -0.06642347 -4.476526e-05
0002a0 53 67 a2 bc 9e 33 45 3e 47 af 3c bd 90 2a 89 bd
       -0.01982466 0.19257972 -0.046065595 -0.06697571
0002b0 df 26 cd 3d 85 84 a3 bc 3a 8a e6 3b 5a d2 39 b8
       0.1001718 -0.019960651 0.007035521 -4.4303342e-05
0002c0 c2 7e 4c bd d6 89 85 38 5b 73 b6 3a 06 3d a6 bc
       -0.049925573 6.367608e-05 0.0013919877 -0.02029277
0002d0 9e a3 59 b8 10 9c 37 b6 e2 52 24 b5 82 2f 4b 39
       -5.1889212e-05 -2.7359965e-06 -6.121537e-07 0.00019377287
0002e0 cd 17 2e 37 83 3e 0f 37 f9 9e 9f b8 17 31 76 b8
       1.037675e-05 8.538019e-06 -7.611322e-05 -5.869669e-05
0002f0 ec d3 b6 b4 3d 83 dd b5 cf dc eb b8 3e 8c a6 b7
       -3.4054335e-07 -1.6503978e-06 -0.00011246802 -1.9854047e-05
000300 30 75 15 b6 38 d5 c5 b8 c5 19 1b b9 d1 14 1c b9
       -2.2270942e-06 -9.433407e-05 -0.00014791552 -0.00014885074
000310 1b 01 b7 b4 37 a9 27 b9 09 86 21 b9 03 e3 11 b7
       -3.408721e-07 -0.00015989399 -0.00015404088 -8.695529e-06
000320 45 af b5 b4 58 1d b1 b8 f0 8f 4f b8 3c 56 aa b8
       -3.3841403e-07 -8.4454834e-05 -4.9486698e-05 -8.122294e-05
000330 f2 01 f9 b8 30 ff c2 b6 e0 1b bb b8 bb 5e 13 37
       -0.000118736076 -5.8113583e-06 -8.922047e-05 8.783939e-06
000340 9f ad 89 b7 dd 97 0e b7 70 69 bf b4 91 51 28 38
       -1.6412521e-05 -8.499218e-06 -3.5653238e-07 4.0130286e-05
000350 ff a7 b9 b4 83 62 e5 36 1c 19 3f b8 0d 73 2c b5
       -3.4581169e-07 6.8362e-06 -4.5561334e-05 -6.4242414e-07
000360 ce be a0 36 3e 7e 48 b8 64 cb 70 38 d3 b8 01 38
       4.790584e-06 -4.7801288e-05 5.740988e-05 3.0928128e-05
000370 d5 86 a6 b8 96 2f 6f b6 47 25 91 35 5e 17 54 b7
       -7.940611e-05 -3.5641474e-06 1.0814191e-06 -1.2641625e-05
000380 5b 79 eb b4 ba 39 b9 b4 1b 10 8e b7 f5 d7 c9 b4
       -4.386046e-07 -3.4500937e-07 -1.6935219e-05 -3.7596297e-07
000390 91 02 3b b8 32 ba cd 37 f9 6f 8c b8 82 e4 31 b9
       -4.4586664e-05 2.4524608e-05 -6.696577e-05 -0.00016965161
0003a0 c2 01 03 38 4e 5c 3a b8 f7 07 46 b8 78 40 d4 b4
       3.123447e-05 -4.443182e-05 -4.7214297e-05 -3.9534984e-07
0003b0 9b 7c 03 b8 e3 49 21 37 34 35 e6 b8 49 d8 9b b8
       -3.134888e-05 9.613551e-06 -0.000109771645 -7.431262e-05
0003c0 e3 d4 98 3a 54 08 96 ba 8e a0 55 b9 33 fd ed 39
       0.0011660125 -0.0011446574 -0.00020373074 0.0004539281
0003d0 e6 4f 93 39 98 36 30 39 c5 c3 fc 3a 36 2d ef 3a
       0.00028097554 0.00016805006 0.0019284418 0.0018247727
0003e0 ea c0 79 b9 3a bc 92 b9 4b 56 1d 3b 44 e1 b1 35
       -0.00023818357 -0.0002798753 0.0024007733 1.3253089e-06
0003f0 9a f8 b6 b9 3d 07 03 3b d5 ad 33 3b d4 b9 6f 3b
       -0.00034898968 0.0019993328 0.0027416844 0.0036579268

bias f4 [60]
000000 b3 c4 8c 39 34 61 58 3e 26 11 2b 3e 1e 1e 8f 38
       0.00026849433 0.2113083 0.1670576 6.824381e-05
000010 69 47 73 ba a2 04 a3 bd cc 68 73 3e 14 08 7f 3a
       -0.00092803553 -0.07959868 0.23770446 0.0009728682
000020 f4 22 30 3e 1d f3 42 3e c0 70 00 be 36 b0 b4 bd
       0.17200834 0.19038053 -0.1254301 -0.08822672
000030 2a c0 b9 b9 cb 65 83 39 d3 c9 f3 39 bf c3 6e 3a
       -0.00035429123 0.0002506211 0.00046498943 0.0009108148
000040 8f 47 0a b7 5d 2e 41 38 bb ab 9e bd 4b f1 4d b8
       -8.242102e-06 4.6057965e-05 -0.07747599 -4.910053e-05
000050 14 a9 6a 3e 79 18 88 3e 3b a9 85 bd 71 b3 68 3a
       0.2291606 0.2658117 -0.06526419 0.00088768365
000060 f3 73 89 3e a0 7c de 3b ab cf f9 b7 96 6d c2 37
       0.26846275 0.006789759 -2.9779816e-05 2.3177632e-05
000070 21 44 87 bd 2b f8 80 3a 13 2a 62 ba e5 14 9b 37
       -0.066047914 0.0009839585 -0.00086274854 1.848717e-05
000080 5b 1c 55 3e 05 08 18 be 28 68 1c ba 66 a3 5a 3e
       0.20811598 -0.14846809 -0.0005966448 0.21351394
000090 3e 33 cf bd 93 2e 66 3a a4 4f aa 35 2b be c6 38
       -0.101171955 0.0008780744 1.2689165e-06 9.476797e-05
0000a0 63 15 3b 3a 22 77 a7 38 6f 99 ef 3d 77 06 5b 3e
       0.0007136671 7.985371e-05 0.11699187 0.21389185
0000b0 b1 22 2b 3e 70 67 cc bd 76 61 51 3e fa 4e d3 38
       0.16712452 -0.09980667 0.20447335 0.000100759746
0000c0 72 0d 41 3e 30 b1 1f 3e 89 0c 69 3e 8e 92 6e 3e
       0.18852785 0.15594935 0.22758688 0.23298094
0000d0 03 fa 6e b9 f8 c6 05 38 e7 6a 55 3e 26 62 6a 3e
       -0.00022790585 3.1894975e-05 0.20841561 0.22889003
0000e0 7f a3 82 b8 0f 9e 47 3e 05 ef 10 b7 5d 3a d3 3d
       -6.2293366e-05 0.19493888 -8.63872e-06 0.10313866

weight f4 [60, 60]
000000 e0 aa 0f 33 32 cb 67 b5 b4 85 0e b5 9a b9 47 b0
       3.3450192e-08 -8.6349894e-07 -5.3093686e-07 -7.2659534e-10
000010 04 97 11 34 37 47 4e 36 aa 68 38 b6 61 3b 31 b3
       1.3559116e-07 3.0737845e-06 -2.747906e-06 -4.126503e-08
000020 8e 73 3e 35 69 23 87 b5 67 d8 90 36 98 a6 69 36
       7.094867e-07 -1.006859e-06 4.316727e-06 3.4816676e-06
000030 30 0b b9 33 93 80 ae 32 5d a2 ae b3 4f a1 d8 33
       8.616769e-08 2.0314735e-08 -8.13204e-08 1.0087626e-07
000040 f0 76 84 b2 f5 db 20 b3 56 91 37 36 36 0d 57 33
       -1.5420909e-08 -3.7452953e-08 2.7353722e-06 5.0070604e-08
000050 64 75 04 b6 fe 40 c7 b6 48 9b e8 35 10 df ce 33
       -1.9737863e-06 -5.9382282e-06 1.733054e-06 9.633197e-08
000060 41 df d5 b6 76 dc c9 b3 67 78 22 b3 ce 5f 21 33
       -6.373885e-06 -9.3998935e-08 -3.782807e-08 3.7572867e-08
000070 c7 b4 f8 35 21 e6 81 31 f0 68 35 b3 9c 69 10 b3
       1.8530053e-06 3.7805568e-09 -4.2237787e-08 -3.3623664e-08
000080 91 f8 af b5 04 c0 8c 36 58 a3 ec 33 8a ba dc b5
       -1.3110858e-06 4.1946787e-06 1.10193184e-07 -1.6445567e-06
000090 71 70 7f 36 9f 14 9e 33 1e a4 80 31 ca 5e 5f 33
       3.806341e-06 7.361199e-08 3.7439483e-09 5.2007444e-08
0000a0 91 4a 79 33 a8 3b 88 b3 6d b3 b9 b4 0d c5 f5 b5
       5.8042648e-08 -6.343845e-08 -3.4589485e-07 -1.8311272e-06
0000b0 4e 95 5c b4 a8 c1 79 36 08 1d a3 b4 3d a8 1d 33
       -2.0543413e-07 3.7216614e-06 -3.038224e-07 3.6707423e-08
0000c0 d1 cf cf b5 4f 17 0f b5 b3 36 e8 b5 bc f9 07 b6
       -1.5483184e-06 -5.330557e-07 -1.7301267e-06 -2.0261932e-06
0000d0 8a a4 e8 b2 3d 9c 11 b3 4d 39 0f b6 21 4e 7a b6
       -2.7083178e-08 -3.390254e-08 -2.1342014e-06 -3.729838e-06
0000e0 c4 c8 42 b0 7f f5 da b5 f3 bb 21 33 6d a1 3d b5
       -7.0862094e-10 -1.6313714e-06 3.7656672e-08 -7.064289e-07
0000f0 5a dc 44 3a 69 82 02 3e e1 08 c2 3d 26 a9 ae 38
       0.00075096416 0.1274506 0.0947435 8.328473e-05
000100 eb 9f f8 ba 0c df 17 be 1e 86 1e 3e e2 cc 05 3b
       -0.0018968558 -0.1483118 0.15480849 0.002041631
000110 8a 12 11 3e dd 8b 10 3e 75 68 74 be db ec 19 be
       0.14167228 0.14115854 -0.23867972 -0.1503176
000120 09 96 c1 ba 88 cb 41 38 13 60 d4 3a 6e 47 00 3b
       -0.0014769445 4.620434e-05 0.0016202949 0.0019573825
000130 75 5d 41 b9 86 36 79 39 1a 86 f8 bd 71 1e 31 ba
       -0.0001844073 0.00023766802 -0.12134953 -0.000675655
000140 f8 e6 09 3e b8 c5 32 3e 6c e3 ac bd 2b 5a f0 3a
       0.13467014 0.17458236 -0.08441815 0.0018337419
000150 96 05 24 3e 3e a2 e8 b8 42 05 00 39 a5 0b 0e b9
       0.16017756 -0.00011092842 0.0001220899 -0.00013546513
000160 80 00 b0 bd 87 ac 05 3b b6 7c fd ba ff 56 30 39
       -0.08593845 0.0020397024 -0.0019339535 0.00016817077
000170 a3 5c f3 3d 31 b7 a4 be bc 34 aa ba 79 52 03 3e
       0.118829034 -0.32171014 -0.0012985687 0.1282443
000180 43 28 59 be fd 2b f4 3a fd fc ae 37 f9 55 d0 b9
       -0.21206765 0.0018628832 2.0860223e-05 -0.00039736906
000190 25 98 c4 3a a8 0a 83 3a 58 16 68 3d af 76 05 3e
       0.0014998956 0.0009997683 0.056661934 0.13033555
0001a0 87 73 da 3d 76 17 3a be 1c de 22 3e b8 6f 8b b8
       0.10666566 -0.18173012 0.1590504 -6.648846e-05
0001b0 ba fa 14 3e 99 49 87 3d ad bc 02 3e fa 8f 04 3e
       0.1454877 0.066058345 0.12767287 0.12945548
0001c0 81 dc 2e ba 4e 53 4c 39 3e c6 d2 3d 3a a3 15 3e
       -0.0006670431 0.0001948599 0.10291718 0.14613047
0001d0 70 fd c1 b8 4a e1 bf 3d 1c 81 3e b9 7b 75 e1 3c
       -9.2501636e-05 0.09369142 -0.00018167909 0.02752184
0001e0 a7 5d 45 3a b0 e2 07 3e 29 e9 c8 3d e1 42 b1 38
       0.0007528909 0.13270068 0.09810097 8.452475e-05
0001f0 80 08 f9 ba c9 55 24 be 8f 1a 24 3e 0d 00 06 3b
       -0.0018999726 -0.1604835 0.16025756 0.0020446808
000200 e3 7e 16 3e f0 2c 16 3e 4e fe 82 be 90 7d 26 be
       0.14696841 0.1466558 -0.25584644 -0.16258836
000210 99 a6 c1 ba e8 a6 44 38 95 9e d4 3a fc 79 00 3b
       -0.0014774381 4.6885485e-05 0.0016221578 0.0019603958
000220 58 21 43 b9 e1 e0 7a 39 1a 12 07 be 49 21 32 ba
       -0.0001860907 0.00023925632 -0.13190499 -0.0006795121
000230 a6 2d 0f 3e 0b 31 39 3e 75 d5 bd bd 39 10 f1 3a
       0.13982257 0.18085115 -0.09269229 0.0018391676
000240 e1 85 2b 3e d2 90 5d 38 64 fe 00 39 d5 01 0f b9
       0.1675029 5.282538e-05 0.00012301799 -0.00013638225
000250 a1 13 c1 bd 76 e1 05 3b 26 a2 fd ba c3 be 31 39
       -0.09427572 0.0020428575 -0.0019350692 0.000169511
000260 4f c6 fc 3d 14 ae af be 6e d3 aa ba 56 3d 08 3e
       0.12342512 -0.343125 -0.0013032982 0.13304648
000270 53 4f 69 be 3e fc f4 3a e1 74 cb 37 9e 89 d0 b9
       -0.22784166 0.0018690897 2.4253912e-05 -0.00039775384
000280 aa 67 c5 3a a1 3d 83 3a e1 e0 70 3d 54 85 0a 3e
       0.0015060802 0.0010012874 0.05880821 0.13527423
000290 96 77 e2 3d 51 76 48 be 4d 1f 29 3e f8 4f 8c b8
       0.110579655 -0.19576384 0.16515847 -6.6906156e-05
0002a0 a8 db 1a 3e d3 b7 8c 3d 23 b0 07 3e 1d d9 09 3e
       0.15122855 0.06870999 0.13250785 0.13461728
0002b0 11 36 2f ba 09 dc 4d 39 ca c5 da 3d 5e c6 1b 3e
       -0.0006683777 0.00019632293 0.106822565 0.1521239
0002c0 8a 11 c4 b8 9b 81 c7 3d f3 b5 3f b9 db 99 ec 3c
       -9.349275e-05 0.09741517 -0.00018282961 0.028881958
0002d0 69 10 45 3a f3 ca 03 3e 6a 90 c3 3d d9 5b af 38
       0.0007517399 0.12870388 0.09549029 8.361758e-05
0002e0 3e ca f8 ba fa d4 1a be 47 d8 1f 3e f7 e3 05 3b
       -0.0018981171 -0.15120307 0.15609847 0.0020430067
0002f0 4d 2f 12 3e c3 5e 11 3e 9c 90 78 be a2 e7 1c be
       0.14275856 0.14196305 -0.24273914 -0.15322736
000300 cf a1 c1 ba 85 6f 42 38 bd 7b d4 3a 78 5e 00 3b
       -0.0014772954 4.6357065e-05 0.0016211193 0.0019587558
000310 8a e9 41 b9 41 b7 79 39 9c a7 fd bd c4 6c 31 ba
       -0.00018492914 0.00023814758 -0.123854846 -0.00067682215
000320 ff 1c 0b 3e 14 df 33 3e 2f ea b0 bd 5c 9b f0 3a
       0.1358528 0.17565566 -0.08638417 0.0018356848
000330 38 80 25 3e 39 2f a0 b8 3b 51 00 39 24 58 0e b9
       0.16162193 -7.6381904e-05 0.00012237292 -0.0001357501
000340 55 10 b4 bd 47 c4 05 3b 7e 94 fd ba 72 c3 30 39
       -0.087921776 0.002041118 -0.0019346622 0.00016857477
000350 1a 6c f5 3d f4 4c a7 be f4 69 aa ba 15 4d 04 3e
       0.11983509 -0.32675898 -0.0013001547 0.1292003
000360 84 fd 5c be 5f 78 f4 3a 40 05 b6 37 8d 68 d0 b9
       -0.21581084 0.0018651596 2.1698535e-05 -0.00039750748
000370 96 de c4 3a 7e 1d 83 3a 87 ee 69 3d ea 96 06 3e
       0.0015019949 0.0010003296 0.057112243 0.13143507
000380 51 05 dc 3d 0d 80 3d be 75 48 24 3e 3c b0 8b b8
       0.107432015 -0.18505879 0.16043265 -6.660863e-05
000390 83 50 16 3e 2c 79 88 3d d4 c4 03 3e 9c e7 05 3e
       0.1467915 0.06663737 0.12868053 0.13076633
0003a0 91 03 2f ba ee c8 4c 39 db 34 d4 3d ca 18 17 3e
       -0.00066762517 0.00019529808 0.10361644 0.1475555
0003b0 b5 8e c2 b8 b0 98 c1 3d 46 e0 3e b9 0b e3 e3 3c
       -9.277222e-05 0.09452951 -0.0001820336 0.027818223
0003c0 0d a8 f7 2f 27 eb 5d 33 e4 68 ea 32 bf fd 4c af
       4.5048446e-10 5.1669442e-08 2.7288884e-08 -1.864384e-10
0003d0 41 db 41 b2 00 27 14 b4 18 5e 23 34 81 fa 58 31
       -1.1283931e-08 -1.3797762e-07 1.5214789e-07 3.1574532e-09
0003e0 bf 17 aa 31 7a df 93 33 1e c1 72 b4 31 9d 2b b4
       4.950351e-09 6.885871e-08 -2.2608262e-07 -1.5982802e-07
0003f0 46 31 2c b2 a5 1c 67 af f0 d3 02 b2 87 63 b9 31
       -1.0022921e-08 -2.1019504e-10 -7.615185e-09 5.3955236e-09

bias f4 [60]
000000 ba 46 59 37 db c8 9f 3d 4a 12 b0 3d eb 36 a9 3d
       1.2950675e-05 0.07801982 0.08597238 0.08262428
000010 81 4c 42 b5 bd 6a 9b 3d f5 af b9 3d ee f5 89 3d
       -7.238196e-07 0.07588718 0.09066764 0.067363605
000020 c1 77 f8 32 d9 d1 95 3d 1c bd bf 3d a9 32 2b 37
       2.8925458e-08 0.07315416 0.093622416 1.02041895e-05
000030 94 64 c9 3d a0 05 b4 3d 68 8b 92 3d 34 d8 a4 3d
       0.09833637 0.087901354 0.07155496 0.0804905
000040 ac 19 9c 3d b8 2d f8 32 ab 42 e0 37 82 de c6 3d
       0.07622084 2.889179e-08 2.6733926e-05 0.09710409
000050 c3 7f 58 b2 e6 ab e3 b9 04 94 bd 3d dc c8 af b2
       -1.2601904e-08 -0.00043424888 0.09256747 -2.0464022e-08
000060 3c 23 79 34 c5 10 81 39 42 72 88 3d 7a 1a c0 3d
       2.320275e-07 0.00024617292 0.06662418 0.0938005
000070 cc f2 8c 3d 92 f6 2c 38 37 ac 8e 3d b5 e7 90 b3
       0.06882247 4.1237632e-05 0.06966441 -6.74767e-08
000080 ce e3 9d 37 71 db b7 3d 49 33 c2 b2 fd f3 a9 33
       1.8821938e-05 0.08977402 -2.2607894e-08 7.914057e-08
000090 2e 2c d6 b7 a6 fe d0 b7 6e ee c7 b7 fa ae 83 3a
       -2.553136e-05 -2.4914112e-05 -2.3833676e-05 0.0010046654
0000a0 bd f1 9c 3d 57 81 c2 34 6e a5 a2 37 23 e5 e3 33
       0.076632954 3.6229423e-07 1.938894e-05 1.0612191e-07
0000b0 b4 a5 a7 3d 2d 9e e8 b7 fb d5 8d b8 b3 af 9f 3d
       0.08185902 -2.7730212e-05 -6.763261e-05 0.07797184
0000c0 b4 1e 32 b3 7f 83 95 3d 1c 8e d2 b5 55 2a db 3d
       -4.147178e-08 0.073004715 -1.5687579e-06 0.107014336
0000d0 d1 cc c5 32 cf 7f b9 3d e3 27 0d 34 63 a7 0d 31
       2.3026958e-08 0.09057581 1.3146159e-07 2.0613349e-09
0000e0 33 cf c5 b8 08 30 16 37 48 85 89 3d df 52 94 3d
       -9.432286e-05 8.95188e-06 0.067148745 0.07242369

weight f4 [60, 60]
000000 67 c8 80 ad 98 0a 60 af ce a8 6f af ca f9 65 af
       -1.4640912e-11 -2.0376445e-10 -2.1796895e-10 -2.0916172e-10
000010 d6 13 8e ab 6b 55 58 af 24 ec 7c af 8a 48 46 af
       -1.0095212e-12 -1.9675432e-10 -2.300316e-10 -1.8033766e-10
000020 c5 97 b8 2a e9 01 54 af 3e cd 82 af 96 a9 84 a9
       3.2790277e-13 -1.9281966e-10 -2.3792696e-10 -5.891396e-14
000030 79 51 8c af b9 23 76 af 15 64 4e af 76 20 65 af
       -2.5523741e-10 -2.2386261e-10 -1.8771147e-10 -2.0838961e-10
000040 61 26 58 af 8c 68 56 a5 e8 0c 17 34 77 3d 8a af
       -1.965872e-10 -1.8596963e-16 1.4067666e-07 -2.5145727e-10
000050 8f b1 02 2f ce 8c 91 b0 cb 1d 86 af 97 58 91 b3
       1.1886513e-10 -1.0590158e-09 -2.4395627e-10 -6.768203e-08
000060 d2 cd 6f 29 31 bf 07 34 f7 3f 46 af 29 5a 87 af
       5.324718e-14 1.264241e-07 -1.803072e-10 -2.462042e-10
000070 59 a5 4a af 5b 84 10 35 10 2b 4c af 18 4b 82 29
       -1.8430536e-10 5.3836783e-07 -1.8568991e-10 5.7861864e-14
000080 51 84 96 30 f2 70 7a af 6f 55 03 33 0c a4 36 b2
       1.0951543e-09 -2.2777494e-10 3.0578516e-08 -1.0631094e-08
000090 4f 8b 32 a9 2f b7 bf ab 7d e8 fd 33 39 25 59 ae
       -3.964477e-14 -1.362221e-12 1.182352e-07 -4.9373148e-11
0000a0 96 ee 57 af a8 8b 60 ad 6b a8 ca 28 24 eb 24 b1
       -1.9638899e-10 -1.2763936e-11 2.2499545e-14 -2.3998803e-09
0000b0 3c ce 66 af db e9 60 a9 8d b1 c2 32 53 3b 5e af
       -2.0991647e-10 -4.994083e-14 2.2665313e-08 -2.0211859e-10
0000c0 b6 dd 4d 2c b9 04 52 af e3 dc 21 27 9f cb 9c af
       2.9255326e-12 -1.9101067e-10 2.2462981e-15 -2.8520916e-10
0000d0 80 17 af a7 fb 7e 7d af 37 df 3a b4 c2 20 92 32
       -4.8597736e-15 -2.3055328e-10 -1.7403805e-07 1.7011534e-08
0000e0 07 43 82 ab bf ce 7c 2d ad 68 47 af bd 65 50 af
       -9.255659e-13 1.4370448e-11 -1.8136133e-10 -1.8953634e-10
0000f0 9d 36 14 b4 1b ea 38 3e 1f 99 43 3e ee 65 3b 3e
       -1.3803442e-07 0.18058054 0.1910138 0.18300602
000100 4d 1e 1d b2 e6 e4 2f 3e 3f 13 4d 3e f6 38 15 3e
       -9.145492e-09 0.17177162 0.20026873 0.1457251
000110 b7 a3 28 32 79 59 2c 3e 85 b7 52 3e 14 2e 8c 34
       9.8161115e-09 0.16831006 0.2057782 2.6110558e-07
000120 db 4d 5f 3e 23 d3 48 3e 72 71 23 3e ed d7 3c 3e
       0.21807043 0.19611792 0.15961245 0.18441744
000130 60 20 2f 3e f6 cd f8 30 6d 5f 89 36 4f d5 5c 3e
       0.17102194 1.8102913e-09 4.094027e-06 0.21565746
000140 e8 df fc b0 de 60 5e b9 d4 b2 59 3e 25 af a3 31
       -1.8399051e-09 -0.00021207656 0.21259624 4.763836e-09
000150 c0 fb 97 34 85 7d ec b8 e2 30 17 3e d6 d2 5a 3e
       2.8309114e-07 -0.00011276737 0.14764741 0.2136949
000160 42 87 1f 3e 2a 35 15 37 94 bf 21 3e ad 3b 9b b2
       0.1557894 8.89347e-06 0.15795738 -1.8071512e-08
000170 83 58 4a 34 86 68 4b 3e cb 5c 1f 31 dd 0b 41 34
       1.8844916e-07 0.19864091 2.3190292e-09 1.7978842e-07
000180 5b 4b 5d b4 6e d1 c9 b8 02 32 60 b7 9d e4 63 3a
       -2.0609643e-07 -9.623436e-05 -1.3363084e-05 0.0008693429
000190 4a 18 2e 3e 1a b2 a2 34 f5 a1 b5 35 f1 f2 87 34
       0.17001453 3.0304437e-07 1.3532687e-06 2.5322473e-07
0001a0 08 66 3d 3e bb 54 c5 b5 60 3b ad 37 60 59 36 3e
       0.18495953 -1.4702304e-06 2.0650856e-05 0.17807531
0001b0 92 57 2c b3 6f bb 28 3e 6e b0 b5 b4 cd 38 71 3e
       -4.0126515e-08 0.1647775 -3.3842247e-07 0.23556824
0001c0 b7 48 7f b0 b3 c6 4d 3e a2 7f d1 31 bd 4a c8 ae
       -9.2871794e-10 0.20095329 6.0972107e-09 -9.108223e-11
0001d0 95 7f 82 36 90 53 93 b5 ff cf 19 3e bb 5c 26 3e
       3.8891544e-06 -1.0976673e-06 0.1502075 0.16246311
0001e0 cd 5f 40 33 b1 30 14 ba e6 5b 13 ba 79 f6 13 ba
       4.4790614e-08 -0.00056530075 -0.0005621299 -0.0005644332
0001f0 43 cc 9d b2 99 bc 14 ba e0 9a 12 ba eb b1 15 ba
       -1.8370093e-08 -0.0005673855 -0.0005592536 -0.0005710411
000200 9d b9 93 b0 fb f4 14 ba 8c 23 12 ba 26 ce ff b3
       -1.0748412e-09 -0.0005682257 -0.0005574755 -1.1911861e-07
000210 21 18 11 ba 4f f7 12 ba cf 56 15 ba 5b e7 13 ba
       -0.00055349065 -0.000560631 -0.00056968344 -0.00056420796
000220 13 c5 14 ba cb 32 36 2f 31 94 91 b3 9f 4f 11 ba
       -0.00056751183 1.6570849e-10 -6.7790445e-08 -0.00055431755
000230 dd f2 9e ae 47 bb 2d b8 56 9b 11 ba 4c eb 45 b1
       -7.228149e-11 -4.142083e-05 -0.0005554458 -2.8801024e-09
000240 ba b8 8c b3 6b d6 49 b5 e3 b2 15 ba 80 82 11 ba
       -6.5528596e-08 -7.5190354e-07 -0.0005710555 -0.0005550757
000250 4e 81 15 ba 2a 8d a8 34 a0 6d 15 ba 39 05 d9 35
       -0.0005703167 3.139515e-07 -0.00057002343 1.616928e-06
000260 d8 0e b9 31 f7 bc 12 ba 4c fe ae b3 95 c7 28 b1
       5.385896e-09 -0.0005597616 -8.148763e-08 -2.4560667e-09
000270 9e b2 4c af 58 22 9a b6 ca 3d c0 b4 0a 89 b6 b7
       -1.861715e-10 -4.593556e-06 -3.5807744e-07 -2.1759904e-05
000280 76 ce 14 ba 9c 98 22 b2 a9 3c 9f 33 1f cb 2c b4
       -0.0005676517 -9.46434e-09 7.4150485e-08 -1.6092643e-07
000290 1a d8 13 ba 42 66 59 35 c6 cf cf 35 f1 57 14 ba
       -0.00056398066 8.0987604e-07 1.5483172e-06 -0.0005658856
0002a0 67 2b 64 b0 68 1e 15 ba b8 7a 23 32 c0 99 0f ba
       -8.3007595e-10 -0.000568843 9.515752e-09 -0.00054779276
0002b0 fe e4 82 2f 20 8f 12 ba 3e 99 9e af 79 74 83 ae
       2.380957e-10 -0.00055907853 -2.8848918e-10 -5.97788e-11
0002c0 aa 59 7a 33 63 17 7b 36 22 a8 15 ba a4 38 15 ba
       5.828921e-08 3.7415527e-06 -0.00057089527 -0.0005692339
0002d0 22 24 15 34 94 51 12 ba 70 9d 15 ba 63 5c 13 ba
       1.3889851e-07 -0.0005581614 -0.0005707359 -0.00056213717
0002e0 f0 c7 4b 2f 50 ee 0f ba 01 3e 18 ba 33 89 08 ba
       1.8533775e-10 -0.00054905284 -0.0005807579 -0.00052084326
0002f0 9e ce ed b2 7f cb 0e ba d8 c8 19 ba 90 5f b9 32
       -2.768439e-08 -0.00054471934 -0.0005866415 2.1580291e-08
000300 ef ed 1c ba f7 01 17 ba 9c 73 0c ba 69 7e 13 ba
       -0.00059863826 -0.00057604857 -0.00053578033 -0.00056264416
000310 02 c6 0f ba b1 f3 40 b2 81 a8 18 36 22 4e 1c ba
       -0.00054845226 -1.123128e-08 2.2747847e-06 -0.00059625704
000320 6f 16 b2 30 f5 d5 f4 b7 ef 35 1b ba 91 e7 87 2d
       1.2957581e-09 -2.9186698e-05 -0.00059208175 1.545056e-11
000330 3b 45 f6 30 6c ae 06 b7 dc f1 08 ba 7c 8f 1b ba
       1.7918532e-09 -8.027633e-06 -0.0005224028 -0.00059341616
000340 14 37 0b ba 66 f0 01 35 ab d8 0b ba 09 62 69 2e
       -0.00053106365 4.840607e-07 -0.0005334715 5.306514e-11
000350 72 3b f0 33 0e c8 17 ba 4e 9c 0a b2 6a 36 91 33
       1.1186684e-07 -0.00057900033 -8.068197e-09 6.7619865e-08
000360 92 f4 4f b0 7f 6f 78 34 8f f4 5a 32 e7 a9 90 37
       -7.5653717e-10 2.3137362e-07 1.2744876e-08 1.7245255e-05
000370 3a 91 0f ba 2e d4 26 b6 e4 ae 81 35 99 d2 d3 31
       -0.00054766575 -2.4859432e-06 9.662149e-07 6.1648504e-09
000380 a6 c2 13 ba 80 3e 8a 33 87 c3 8b 34 45 b2 11 ba
       -0.000563661 6.4374944e-08 2.6033032e-07 -0.0005557875
000390 e8 15 a7 32 33 e5 0d ba 54 45 7d b1 1f 51 21 ba
       1.945132e-08 -0.00054128765 -3.6855754e-09 -0.00061537506
0003a0 36 95 8a 31 a1 63 18 ba e0 44 82 b0 7a 4a 99 b0
       4.033292e-09 -0.00058131857 -9.47832e-10 -1.1153383e-09
0003b0 ea 9b 1e b5 c4 86 4c 34 18 a4 09 ba 5a 41 0d ba
       -5.908647e-07 1.9048008e-07 -0.0005250587 -0.0005388461
0003c0 e5 b2 58 31 77 8e 49 36 71 75 30 36 f0 3f 36 36
       3.1533827e-09 3.003426e-06 2.6294404e-06 2.715733e-06
0003d0 ed 7f 1a b3 da f4 41 36 64 fc 20 36 16 5d 32 36
       -3.5972267e-08 2.8901763e-06 2.3988769e-06 2.657825e-06
0003e0 55 bf 40 b0 51 26 47 36 26 f1 14 36 f5 32 2d b0
       -7.012109e-10 2.9675614e-06 2.2194085e-06 -6.300945e-10
0003f0 39 57 00 36 7f 98 2e 36 e2 79 3c 36 b3 64 44 36
       1.9124257e-06 2.6016785e-06 2.8085128e-06 2.926489e-06
